scripts/data/abandonment_transformer.pth (torch, 330109 bytes, 33 tensors)

page_embedding.weight f4 [8, 64]
000000 00 00 00 00 00 00 00 00 00 00 00 00 00 00 00 00
       0.0 0.0 0.0 0.0
000010 00 00 00 00 00 00 00 00 00 00 00 00 00 00 00 00
       0.0 0.0 0.0 0.0
000020 00 00 00 00 00 00 00 00 00 00 00 00 00 00 00 00
       0.0 0.0 0.0 0.0
000030 00 00 00 00 00 00 00 00 00 00 00 00 00 00 00 00
       0.0 0.0 0.0 0.0
000040 00 00 00 00 00 00 00 00 00 00 00 00 00 00 00 00
       0.0 0.0 0.0 0.0
000050 00 00 00 00 00 00 00 00 00 00 00 00 00 00 00 00
       0.0 0.0 0.0 0.0
000060 00 00 00 00 00 00 00 00 00 00 00 00 00 00 00 00
       0.0 0.0 0.0 0.0
000070 00 00 00 00 00 00 00 00 00 00 00 00 00 00 00 00
       0.0 0.0 0.0 0.0
000080 00 00 00 00 00 00 00 00 00 00 00 00 00 00 00 00
       0.0 0.0 0.0 0.0
000090 00 00 00 00 00 00 00 00 00 00 00 00 00 00 00 00
       0.0 0.0 0.0 0.0
0000a0 00 00 00 00 00 00 00 00 00 00 00 00 00 00 00 00
       0.0 0.0 0.0 0.0
0000b0 00 00 00 00 00 00 00 00 00 00 00 00 00 00 00 00
       0.0 0.0 0.0 0.0
0000c0 00 00 00 00 00 00 00 00 00 00 00 00 00 00 00 00
       0.0 0.0 0.0 0.0
0000d0 00 00 00 00 00 00 00 00 00 00 00 00 00 00 00 00
       0.0 0.0 0.0 0.0
0000e0 00 00 00 00 00 00 00 00 00 00 00 00 00 00 00 00
       0.0 0.0 0.0 0.0
0000f0 00 00 00 00 00 00 00 00 00 00 00 00 00 00 00 00
       0.0 0.0 0.0 0.0
000100 a1 06 18 3f ab ec c0 3f 1c d8 37 bf 04 fd bc bf
       0.59385115 1.5072225 -0.7181413 -1.4764714
000110 87 13 c1 3f 8c 27 0c 3e dc 47 60 c0 7b c9 0c be
       1.5084084 0.13686961 -3.504386 -0.13748734
000120 13 eb b4 3f 47 91 61 3e 68 97 0e c0 8e c8 ab bc
       1.4134239 0.22028075 -2.227991 -0.020969655
000130 8b f1 fd 3e 4b 53 8b bf 7a a1 87 bf b2 74 b4 be
       0.49598345 -1.0884794 -1.0596154 -0.3524528
000140 8c 96 54 3f c2 e4 c9 3e 39 c4 2d bf 32 6d 94 bf
       0.83042216 0.3943234 -0.67877537 -1.1595824
000150 84 23 46 bf 4c 43 83 bf 67 c4 b7 bf f4 92 a2 bf
       -0.7739794 -1.0254912 -1.4356812 -1.2701097
000160 2c b1 dd 3f ca d2 54 bf 46 ac dc 3e 57 9e 12 bf
       1.7319694 -0.8313414 0.43100184 -0.5727286
000170 6a 0e e9 3f a2 a6 0f 3f dc 88 80 3f d6 4d 8d bf
       1.8207524 0.56113636 1.0041766 -1.1039379
000180 eb fa 19 bf f5 bd cb 3e bd bd 0c 40 0a a3 11 bf
       -0.60148495 0.39793363 2.1990807 -0.568894
000190 91 fd aa bf a0 c7 05 c0 cd 16 9e bf de 11 15 40
       -1.3358632 -2.0903091 -1.2350708 2.3292155
0001a0 66 5a 83 be 98 0f eb 3f d2 90 dc 3f 35 94 3c bf
       -0.25654906 1.8364134 1.7231696 -0.73663646
0001b0 49 ba 9a 3f b6 b0 b0 bf 45 1f 72 3e 02 b0 00 bd
       1.20881 -1.3803928 0.23644741 -0.031417854
0001c0 5d 0d 3f 3f 01 da ca 3f d1 f3 aa 3e 21 b6 da 3d
       0.74629766 1.584778 0.33389142 0.106792696
0001d0 02 43 29 be 6d a9 c9 3f 62 29 eb 3c db 49 ec be
       -0.16529468 1.575483 0.028706256 -0.46150097
0001e0 98 de 4a bf 16 01 3c 3f b7 a4 2d bf 15 4c 5f bf
       -0.792459 0.73439157 -0.6782946 -0.87225467
0001f0 15 6e 8a bf 11 31 13 bf b5 95 23 3f f5 50 dd bf
       -1.0814844 -0.57496744 0.6390031 -1.7290331
000200 da 9d e2 3f 72 87 98 3e b7 45 4e be 1d 89 23 3f
       1.7704422 0.29790837 -0.20143782 0.63881093
000210 8f 9e 93 3f e1 f6 9c bf 1e 44 ca 3e 9f 67 6b be
       1.1532763 -1.2262841 0.39505094 -0.22988747
000220 13 d2 8a bf cc c4 39 c0 d4 07 d2 3f a8 4d 8a bd
       -1.084536 -2.9026365 1.6408639 -0.06753093
000230 2e b9 9c bf a8 11 32 3e e0 03 8c 3e 4d f3 c5 3f
       -1.2244012 0.17389548 0.27346706 1.5464875
000240 45 7d 59 bf df a4 a0 bf bb 33 7a 3f 7b c0 9d 3e
       -0.8495677 -1.2550315 0.97735184 0.30810913
000250 94 1c b0 3d f0 25 b9 bf de cc 55 3f 68 b7 18 bf
       0.08599201 -1.4464703 0.8351573 -0.59654856
000260 9b 1b 40 3f 1c 9d 15 c0 2c 78 30 3f fb cf 8d 3d
       0.7504212 -2.3377142 0.6893337 0.06924435
000270 57 cb 3a bf a8 13 46 3f 42 70 08 3f 3e fc 34 3f
       -0.7296652 0.77373743 0.5329629 0.7069739
000280 62 8a 16 bb a1 30 f1 be c0 23 c0 3f 0c ef ca 3e
       -0.0022970666 -0.47107413 1.501091 0.39635503
000290 ef f6 b1 be 53 97 ab 3f 73 60 07 40 b7 ac 09 40
       -0.34758708 1.3405555 2.1152618 2.1511667
0002a0 78 37 0e c0 0c ad cc bd 49 e3 b6 bf ae e2 ac 3f
       -2.2221355 -0.099939436 -1.4288112 1.3506677
0002b0 aa 52 21 bf 54 78 81 bf 52 1f 98 bf a3 8e 3b 3f
       -0.6301676 -1.0114846 -1.1884558 0.7326452
0002c0 1d ec 83 be 42 21 92 bf 6b 1f c0 bd cf b4 95 bf
       -0.25766078 -1.14164 -0.093809925 -1.1695803
0002d0 e6 b5 32 3f c6 e0 ab bf 26 44 87 be 28 6f 06 40
       0.69808805 -1.342797 -0.2641918 2.1005344
0002e0 4a 7c 07 c0 7b 7c 9d bf 58 c0 26 be 15 87 0b c0
       -2.116961 -1.2303613 -0.16284311 -2.1801198
0002f0 80 b9 2b bf 41 ad 93 3e 93 3c b3 bf ea 89 98 3e
       -0.67079926 0.2884312 -1.4002861 0.2979272
000300 30 25 49 3e cd 48 45 3f d8 4d 23 3f 21 84 d6 be
       0.19643092 0.7706421 0.63790655 -0.4189768
000310 09 75 98 bd 3c 45 3a 3e fc 19 30 bf af c9 c7 3d
       -0.07444198 0.18190473 -0.6878965 0.09755265
000320 88 73 0c 3f a0 ce ec 3e 1c 3c 3f 3d 3c 72 b8 3e
       0.54863787 0.46251392 0.046688184 0.36024654
000330 13 52 6a bf 5e 42 54 be 3a ba 3d be bc 53 e4 3e
       -0.91531485 -0.20728442 -0.18528071 0.44595134
000340 b8 52 95 3f 63 c5 d6 3d 59 ad 57 3f 36 5a 42 3f
       1.1665869 0.10486867 0.8424888 0.759189
000350 78 af ff 3f 31 88 68 be 91 cc c0 3f 22 6c 7e bf
       1.9975424 -0.22708203 1.5062429 -0.9938375
000360 db e4 84 3f 87 65 6c 3e 5f ab 67 3f 9f d9 31 c0
       1.0382341 0.23085605 0.90495867 -2.7789075
000370 7f 70 e8 3e b0 53 07 c0 3d 6d 85 bf 0e 8f d9 bf
       0.45398328 -2.1144829 -1.0423962 -1.6996782
000380 00 2b bf 3f cb b6 00 3d a2 55 2a 3f a9 4a 9d 3f
       1.4934998 0.031424325 0.66536915 1.228841
000390 fd 1f d0 bf 69 66 a9 bf 95 6a b2 3f 28 8a 0b 40
       -1.6259762 -1.3234378 1.3938776 2.1803074
0003a0 04 36 92 bf 35 ff db bf 84 a9 f2 3e c4 01 a4 be
       -1.1422734 -1.7187258 0.47394955 -0.32032597
0003b0 fd 2d f1 3f aa 88 48 be 77 4c 86 3f 85 81 84 bf
       1.884216 -0.19583383 1.0492085 -1.0352026
0003c0 27 98 a4 3f 05 1a b0 3f 24 32 b7 bd b8 5b 4a 3f
       1.2858933 1.375794 -0.089451104 0.790462
0003d0 c4 bc c0 3c fd c7 13 be c3 e7 a6 3e 6e 56 87 bf
       0.02352751 -0.14431758 0.32598695 -1.0573251
0003e0 ef b0 27 3f 0d cb 2d 3f aa 8b e4 3e c5 a4 b6 3f
       0.65504354 0.67887956 0.44637805 1.4269034
0003f0 15 9c a4 3f bd 3c 74 be 5e 6e ab be 2d 96 1b be
       1.2860132 -0.23851295 -0.3348264 -0.15194006

duration_proj.weight f4 [64, 1]
000000 3b 76 42 bf ad 35 4a bf 39 08 ed 3e 54 05 00 be
       -0.75961655 -0.7898815 0.46295336 -0.12502033
000010 9b e5 50 be e4 17 3d bf c8 c2 79 3f dd 64 bb 3d
       -0.20400088 -0.7386458 0.9756284 0.091500975
000020 9c b5 10 3f a7 a2 f8 be 62 87 2e 3f 19 6a 87 be
       0.56527114 -0.48561594 0.6817533 -0.26448134
000030 a8 5b 44 bf ba d4 70 3e 03 6d bd be 5f 1d 5b 3f
       -0.76702356 0.23518649 -0.36997232 0.8559169
000040 2e bc 4a bc 9d 54 0e 3f e5 9c 1a 3f 7b b0 84 3f
       -0.012373967 0.5559786 0.6039565 1.0366358
000050 5d bb 9e be 2f 37 85 bf 9b 0a 33 bf e0 04 f6 be
       -0.31002322 -1.0407466 -0.6993806 -0.48050594
000060 d5 c2 90 3e f7 9d 87 3e e5 25 23 3f 9f ca 34 bf
       0.28273645 0.26487705 0.637297 -0.70621675
000070 b1 9e 04 bf 66 b5 ff be 34 c6 7b 3f ee 37 83 3f
       -0.51804644 -0.49943084 0.9834931 1.0251443
000080 81 aa 23 3e 9e 67 35 3f 9b f0 86 bf 12 2b 71 3e
       0.15983011 0.7086123 -1.0542177 0.23551586
000090 2f 77 67 bf 32 30 5e 3f c9 36 50 3f b1 98 27 bf
       -0.90416235 0.8679229 0.81333596 -0.65467364
0000a0 14 3a 2b 3f 85 04 37 bf 4e 89 12 3f 02 16 c0 3e
       0.66885495 -0.7149127 0.5724076 0.3751679
0000b0 de b4 f4 3e 71 61 82 bf 77 80 40 3f 39 3b 0e 3f
       0.4779424 -1.0185987 0.7519602 0.55559117
0000c0 bb 5b a2 be c4 6c 60 3f db cb 48 bf 5c 68 29 bf
       -0.3171061 0.87665963 -0.7843606 -0.66174865
0000d0 09 e8 d8 3e 0e 5a ec be 0f 6a 44 3f f7 23 49 bf
       0.4236453 -0.46162456 0.7672433 -0.78570503
0000e0 61 4a 2e 3f 26 56 30 3f 7a 09 80 bf 0c f1 2f 3f
       0.68082243 0.6888145 -1.0002892 0.68727183
0000f0 77 d0 a0 be a1 eb 0c bf 2c 7d 6c bf 38 ea 06 3f
       -0.31409046 -0.5504704 -0.923785 0.5270114

duration_proj.bias f4 [64]
000000 77 22 85 3e 1f 4a 3d 3f 37 68 11 3e cc 98 3b 3d
       0.26002857 0.73941225 0.14199911 0.045800015
000010 cf bc 28 bf 81 25 30 bf 5f 01 d3 be c5 10 db 3d
       -0.659131 -0.68807226 -0.41211984 0.10696558
000020 d7 53 f7 3e 4e 1e 58 bf d6 cf 31 3f 86 e7 70 3f
       0.48306152 -0.8442124 0.6945776 0.94103277
000030 42 75 83 be 5e 35 13 3f 1b 81 ea be 4f a2 4d 3f
       -0.25675398 0.57503307 -0.45801625 0.8032579
000040 56 db d3 3e eb ef 1e bf f0 55 e0 3e 29 10 f4 bd
       0.41378278 -0.62084836 0.43815565 -0.11917145
000050 17 e5 15 3f 00 13 e3 3e 62 ce 29 bf f0 9a 43 3f
       0.5855269 0.44350433 -0.6633054 0.7640829
000060 05 d3 bd 3e be e0 c0 3e dd e0 68 be 1c 02 f5 3e
       0.37075058 0.37671465 -0.22742029 0.47853172
000070 38 88 bf bd 39 e8 70 3f 94 b7 83 3e 76 0a b0 3e
       -0.093521535 0.94104344 0.25725996 0.3438298
000080 5e f3 4a be 83 e2 0b 3f 02 c1 fb 3e 11 50 52 be
       -0.198194 0.54642504 0.4917069 -0.20538355
000090 a2 c9 2b bf 0d e6 05 3e 91 ef 08 be 7d d7 ea be
       -0.6710454 0.13076039 -0.13372637 -0.4586753
0000a0 c6 fe d7 be aa 22 02 3f ef 2c 13 be 0c 4b 94 be
       -0.42186564 0.50834143 -0.1437261 -0.28963506
0000b0 64 b6 45 3e c5 23 56 bf 88 63 60 bf 2d 42 2b be
       0.19307858 -0.8364833 -0.8765187 -0.16724463
0000c0 f4 ba af bd 06 d4 f4 3e 04 f1 3a bd f3 98 44 3f
       -0.0858058 0.4781801 -0.045640007 0.7679588
0000d0 83 09 0f 3f 34 35 52 be 7b 9d fc 3d 9d 14 78 3f
       0.5587389 -0.20528108 0.123347245 0.96906453
0000e0 81 5f 30 3f cc eb 4c bf bd b0 1d 3f d4 44 30 be
       0.6889573 -0.800473 0.61597806 -0.17213756
0000f0 ca 7a 61 be a3 64 6f 3e c6 ed 92 be ce 42 a7 be
       -0.22019497 0.23378234 -0.28697032 -0.32668155

combine.weight f4 [64, 128]
000000 30 84 1d bd 23 d8 8f 3d fa f3 e4 3c 4f 65 2a 3d
       -0.038456142 0.07023647 0.027948368 0.04160052
000010 97 88 66 3d 0a 53 5a bd 21 19 46 3d 3e 9c 56 3d
       0.056282606 -0.05330185 0.04836381 0.052395098
000020 ad 74 89 3c 76 cb 96 3d d7 89 c1 3d 20 6c a6 3c
       0.016779268 0.07363026 0.09450119 0.02031523
000030 fc 0e 82 bc 50 25 ed bc 70 ce 93 bd 71 49 9e 3d
       -0.015876286 -0.028948456 -0.07217109 0.077288516
000040 c7 0f 61 3d 57 be 1b 3d c9 30 80 bd 5c df c4 3c
       0.054946687 0.03802332 -0.06259305 0.024032287
000050 ad 45 8f bd 83 7c 03 bc d5 1a 4d bd 45 aa 2d 3d
       -0.069957115 -0.008025291 -0.050074417 0.04239871
000060 c2 e0 8b bd aa da 0d bc b8 62 5f bc bc 82 84 3d
       -0.068299785 -0.008658091 -0.013634376 0.06470248
000070 94 ae f9 3c ea f4 0a 3c f9 25 b7 3d 16 59 36 3c
       0.030478753 0.008481244 0.089427896 0.011129638
000080 15 c2 a4 3c 9b 6b 8b 3d 3e 01 e4 3c e2 69 35 3d
       0.020112077 0.068076335 0.027832624 0.04429043
000090 e3 ee 9c bd 52 f2 98 3d 65 8f 6f bd d8 8f 50 3d
       -0.076627515 0.07468094 -0.05848636 0.05091843
0000a0 e4 23 ae 3c c3 21 5c 3d a1 27 6a 3d 31 76 b9 bc
       0.021257348 0.053743135 0.0571667 -0.022639366
0000b0 da 95 2b bd 6a 6b 23 bd 4d 55 96 3d 2a 4a 13 3d
       -0.041890956 -0.03989736 0.073404886 0.0359594
0000c0 d5 25 74 bd f0 5f b9 bd c1 76 a8 3b 43 89 aa bc
       -0.059606392 -0.09051502 0.0051411097 -0.020817405
0000d0 e1 26 3f bd 8b bb 28 bd 4f aa ac 3d 0f 04 7c 3d
       -0.046667937 -0.04119448 0.08430921 0.061527308
0000e0 78 c5 c7 3d 18 70 00 3d 5c 2c 5d bc d1 90 aa bd
       0.09754461 0.0313569 -0.013499346 -0.08328403
0000f0 e4 4b 82 bd a6 68 e2 bc e7 06 1a 3d 63 e8 64 bd
       -0.06362131 -0.02763779 0.03760424 -0.055885684
000100 9e 63 28 3c b0 df d9 bc a6 60 f8 bc 48 0e d6 3d
       0.010277657 -0.02659592 -0.030319523 0.10451943
000110 8e 00 ae bd c5 5f 5c 3d 58 56 62 bd 66 74 71 bd
       -0.084961995 0.05380227 -0.055258125 -0.058948897
000120 63 3f 86 3c 89 e3 46 bd a5 6e 93 3d 25 e4 4f 3d
       0.016387647 -0.04855684 0.07198838 0.050754685
000130 39 6d e6 bb 6e 72 b1 bc 6c 8a 42 bd 66 91 b5 bc
       -0.0070320633 -0.02166101 -0.04749529 -0.022164058
000140 c9 75 22 bd bc 41 05 3d 21 01 bf bd 50 cf 2e 3c
       -0.03966311 0.032533392 -0.09326387 0.010669544
000150 14 cb 89 3d 16 2e 74 3d 54 e4 5a bd 4f f4 23 bd
       0.06728187 0.059614263 -0.053440407 -0.040027913
000160 9e 37 f5 bc 32 07 9b bd 04 c0 81 bd 0f 3e 3f bb
       -0.029933747 -0.07569732 -0.06335452 -0.0029181277
000170 44 4d d4 bc 36 b6 67 3d e5 65 5b bd 17 cf 94 bd
       -0.02591575 0.056570254 -0.05356397 -0.07266062
000180 45 eb ec 3c 80 86 88 bd 67 a8 9d bc f1 bb be bd
       0.028920779 -0.06666279 -0.01924534 -0.09313191
000190 65 75 57 bd 8e 1e 8e bd 1f 6e ea bb a4 dc 06 bd
       -0.05260219 -0.069394216 -0.0071542407 -0.032925263
0001a0 76 08 39 3d 02 c0 cd 3c ef e5 23 bd 80 4e 03 bc
       0.045174085 0.02511597 -0.040014204 -0.008014321
0001b0 a7 20 0c bd 5e 1c 76 bd 12 5b 83 3d a8 76 4e bd
       -0.034210827 -0.060085647 0.06413855 -0.05040613
0001c0 fb ea 97 3d 49 60 5c bc 29 56 3f bd b5 20 50 bd
       0.07417866 -0.013450691 -0.046713028 -0.05081244
0001d0 c5 f0 4f bc 1b 30 b8 3c ac 10 7b 3b 17 9a 55 bb
       -0.012691681 0.022483876 0.0038309498 -0.0032593065
0001e0 b1 8c cd bb be e8 71 bd 0c 84 4c 3d fe a9 a3 bd
       -0.0062728752 -0.05905985 0.049930617 -0.07991408
0001f0 c0 f2 94 3d 62 4d 7e 3d ec 95 1c bd e8 92 fc bd
       0.072728634 0.062085517 -0.038228914 -0.12332708
000200 b1 7d 9a 3d b2 54 95 bd f6 7f 6c bc b1 6f e8 3b
       0.07543505 -0.07291545 -0.014434805 0.007093393
000210 49 b5 a8 bd 2f 40 8e 3c af 52 90 bd 3a 8b 95 3d
       -0.082377024 0.01736459 -0.07047021 0.07301946
000220 a8 9b 55 3d 72 4d 96 3d 9e 1a b5 3d 1c ca b1 3d
       0.0521504 0.0733899 0.088429675 0.086811274
000230 89 e7 94 bd 8c c7 82 bd 30 f2 ec bc 13 40 90 bd
       -0.07270724 -0.06385717 -0.028924078 -0.07043471
000240 0d cb 49 bd 8d a6 bd 3d 5b 88 d3 bc fc a9 cb ba
       -0.04926591 0.09260283 -0.025821855 -0.001553833
000250 72 61 ce bc c4 f3 8b bd cc b2 2a bd 5c 62 db 3a
       -0.02519295 -0.06833604 -0.04167442 0.0016737687
000260 0b 30 17 bd 7f f2 7d bd 72 44 99 bd 1d 41 67 bc
       -0.03691105 -0.06199884 -0.07483758 -0.014114645
000270 73 a6 8f bd 8b a5 3e bd c5 f5 55 3d 96 e6 72 bd
       -0.070141695 -0.046544593 0.052236337 -0.059301935
000280 cf e9 92 3d 25 ef 27 bd f1 e9 6f 3d a5 91 c3 3b
       0.07173502 -0.04099955 0.058572713 0.00596829
000290 b0 b1 2b bd ff 9c a6 bd 81 e4 39 3d 00 49 e7 bc
       -0.041917503 -0.081354134 0.045383934 -0.028233051
0002a0 03 f7 6f 3c 5b ae b0 bb 0b fe 44 3d dc 0b b3 bd
       0.0146462945 -0.0053918785 0.048093837 -0.08742496
0002b0 3b d9 81 bc fb 06 b2 bc 72 24 8c bd 95 26 75 bd
       -0.015850654 -0.021731844 -0.06842889 -0.059851248
0002c0 19 27 a0 3d 6c d5 49 3d be 20 77 bd f2 19 99 3d
       0.07819957 0.0492758 -0.06033396 0.07475652
0002d0 1e 50 e2 ba 57 fc 88 3d 81 19 65 bd 5a a5 ac bd
       -0.0017266308 0.06688755 -0.055932526 -0.08429976
0002e0 f4 53 42 3c d2 a1 21 bb 00 31 1d bd 14 46 9c 3c
       0.011860836 -0.0024663103 -0.03837681 0.019076385
0002f0 28 70 71 3c 79 06 5c 3a 91 5a c2 3c 4a 45 e4 bc
       0.014736213 0.00083932985 0.023724826 -0.02786507
000300 9c 2e bf 3c 21 bc fb 3c 6d ea 74 bd 56 76 f3 3c
       0.023337655 0.030729355 -0.05979388 0.029719513
000310 bf ca 84 3d fa f4 2b bd 2f 5e 2f be b3 37 af 3c
       0.06483983 -0.041981675 -0.17125772 0.021388864
000320 75 8a 61 bd bb 89 bb 3d f1 0b fb bc 63 f1 86 bd
       -0.055063684 0.091571294 -0.030645343 -0.065890096
000330 08 be 4c 3a 6d b8 64 bd 5f 9c ac 3d ce be ba bd
       0.0007810299 -0.055839945 0.08428263 -0.09118424
000340 80 49 c0 3c ac b6 b1 bc 95 62 e4 bc 9b 5d 23 bd
       0.023472548 -0.02169355 -0.027879039 -0.03988419
000350 fa 21 b4 bc d9 66 01 3e 43 a8 8b 3d 73 8e 99 3d
       -0.021988858 0.1263689 0.06819203 0.07497873
000360 1d fa d6 bc 61 74 3f 3d 4c 87 bc bd ff d7 f4 3d
       -0.02624231 0.046741847 -0.09205493 0.119552605
000370 de 0b be 3d 3a 96 a9 3d 92 26 c2 bd 82 74 f8 3c
       0.09279607 0.082806066 -0.09480013 0.030328993
000380 e8 a9 00 3d df f0 28 3d 17 92 b5 3d cf 43 c1 bb
       0.031412035 0.041245338 0.08865755 -0.005897976
000390 5b d8 ef b8 28 e6 7b bd 3d 3f 43 be d5 ee ea bc
       -0.000114367074 -0.06149879 -0.19067092 -0.028678337
0003a0 2b fe a6 bd 51 74 cd 3d ed e1 d6 bd 47 b8 0b 3d
       -0.081539474 0.10031951 -0.10492311 0.034111287
0003b0 f2 5b 86 bd eb 60 bf bc c6 41 83 3b 90 4d b4 bd
       -0.06560506 -0.023361644 0.0040056435 -0.088038564
0003c0 91 08 41 3b 38 40 1c bd e7 a0 05 3d b1 77 47 3d
       0.002945457 -0.03814718 0.03262415 0.04869813
0003d0 91 38 8a bd 0c 46 3d bd 25 af 4f 3d 13 f3 cd 3d
       -0.067490704 -0.04620938 0.05070414 0.10056128
0003e0 40 77 f1 bc ff e6 f7 bc b5 e7 4d 3d cf cc 28 be
       -0.029475808 -0.030261515 0.0502698 -0.16484378
0003f0 17 59 83 3d 2b 4d 6e 3c b3 73 31 bd 56 93 02 bc
       0.06413477 0.014544765 -0.04332323 -0.007969698

combine.bias f4 [64]
000000 af a9 e7 bc e0 7f 59 bb 73 40 af 3d a0 a7 9d 3d
       -0.028279154 -0.0033187792 0.085572146 0.076979876
000010 2d cb 3f 3d 85 71 af bc 89 a7 46 3d 07 6d 4e bb
       0.046824623 -0.021416435 0.048499618 -0.003149809
000020 47 c3 dc bb 06 57 a3 3a 66 b9 48 3d 58 dc aa bd
       -0.006737146 0.0012461848 0.049004935 -0.083428085
000030 5b f5 15 bb b0 f2 db 3c 05 8e 4b bd 29 1d 97 3d
       -0.002288184 0.02684912 -0.049695987 0.07378609
000040 9a f3 c4 3c b3 b2 68 bc 9b e7 71 3d 5c 60 09 bd
       0.02404194 -0.014202761 0.059058767 -0.03353916
000050 a8 65 9c 3d b3 02 ed 3a f5 71 d7 bc e6 6a a4 bd
       0.07636577 0.001808247 -0.026299456 -0.08028202
000060 a6 a0 99 3d 68 56 6f 3c 05 61 2e 3c 57 8b ce bc
       0.075013444 0.014608003 0.010643248 -0.025212927
000070 7f 47 e2 bc 7c 90 0b 3d d8 c1 ad 3d 9e ff 88 3c
       -0.027621983 0.034073338 0.084842384 0.01672345
000080 c9 19 a6 3d 0d 7c 91 3d bb 37 7d 3d a0 10 23 bd
       0.08110387 0.07103739 0.061820727 -0.039810777
000090 ab 0c b6 bc d7 6e ad bd 87 a2 2d bd 64 51 7e 3c
       -0.022222837 -0.08468407 -0.042391326 0.015522335
0000a0 16 f0 ab 3d ca 39 78 bb 6f 6d 6d 3d 08 31 99 bd
       0.08395402 -0.0037876242 0.057965692 -0.07480055
0000b0 8a 91 3b bd 8e 05 a0 bc 4c eb 98 bb 17 f3 d1 bd
       -0.045793094 -0.019533899 -0.0046667214 -0.10251444
0000c0 63 8e a0 3d 14 b4 a6 bd eb c3 04 bd 19 35 12 bd
       0.07839658 -0.08139816 -0.032413404 -0.03569517
0000d0 db 60 59 3d a9 27 e3 bc 8d 6a 21 bd cc 2a 01 bd
       0.053070884 -0.027728872 -0.039408255 -0.031534955
0000e0 16 b4 95 3d ec 3e 10 bd f1 8a f9 bc 03 45 83 bd
       0.07309739 -0.035216257 -0.03046176 -0.06409647
0000f0 58 31 4b bd e9 23 8d 3d 26 b8 7c bd 56 21 bb bc
       -0.049607605 0.06891615 -0.061699055 -0.022843044

pos_encoder.pe f4 [1, 20, 64]
000000 00 00 00 00 00 00 80 3f 00 00 00 00 00 00 80 3f
       0.0 1.0 0.0 1.0
000010 00 00 00 00 00 00 80 3f 00 00 00 00 00 00 80 3f
       0.0 1.0 0.0 1.0
000020 00 00 00 00 00 00 80 3f 00 00 00 00 00 00 80 3f
       0.0 1.0 0.0 1.0
000030 00 00 00 00 00 00 80 3f 00 00 00 00 00 00 80 3f
       0.0 1.0 0.0 1.0
000040 00 00 00 00 00 00 80 3f 00 00 00 00 00 00 80 3f
       0.0 1.0 0.0 1.0
000050 00 00 00 00 00 00 80 3f 00 00 00 00 00 00 80 3f
       0.0 1.0 0.0 1.0
000060 00 00 00 00 00 00 80 3f 00 00 00 00 00 00 80 3f
       0.0 1.0 0.0 1.0
000070 00 00 00 00 00 00 80 3f 00 00 00 00 00 00 80 3f
       0.0 1.0 0.0 1.0
000080 00 00 00 00 00 00 80 3f 00 00 00 00 00 00 80 3f
       0.0 1.0 0.0 1.0
000090 00 00 00 00 00 00 80 3f 00 00 00 00 00 00 80 3f
       0.0 1.0 0.0 1.0
0000a0 00 00 00 00 00 00 80 3f 00 00 00 00 00 00 80 3f
       0.0 1.0 0.0 1.0
0000b0 00 00 00 00 00 00 80 3f 00 00 00 00 00 00 80 3f
       0.0 1.0 0.0 1.0
0000c0 00 00 00 00 00 00 80 3f 00 00 00 00 00 00 80 3f
       0.0 1.0 0.0 1.0
0000d0 00 00 00 00 00 00 80 3f 00 00 00 00 00 00 80 3f
       0.0 1.0 0.0 1.0
0000e0 00 00 00 00 00 00 80 3f 00 00 00 00 00 00 80 3f
       0.0 1.0 0.0 1.0
0000f0 00 00 00 00 00 00 80 3f 00 00 00 00 00 00 80 3f
       0.0 1.0 0.0 1.0
000100 a4 6a 57 3f 41 51 0a 3f ce 7a 2e 3f b0 54 3b 3f
       0.84147096 0.54030234 0.68156135 0.731761
000110 ba 7d 08 3f 0d 94 58 3f f0 90 d1 3e c7 92 69 3f
       0.53316844 0.8460091 0.4093089 0.9123959
000120 3e 39 9f 3e 6b 4e 73 3f 25 8f 70 3e f1 d5 78 3f
       0.3109836 0.9504153 0.23492105 0.9720145
000130 3a 23 35 3e 83 f6 7b 3f f3 25 08 3e 28 ba 7d 3f
       0.17689219 0.9842302 0.13295726 0.99112177
000140 76 75 cc 3d 98 b8 7e 3f 36 6f 99 3d d1 47 7f 3f
       0.099833414 0.9950042 0.07491915 0.9971896
000150 ae 36 66 3d 68 98 7f 3f fb ac 2c 3d bd c5 7f 3f
       0.05620449 0.9984193 0.042157155 0.999111
000160 5b 81 01 3d 3c df 7f 3f a5 3e c2 3c 93 ed 7f 3f
       0.031617504 0.99950004 0.023711512 0.99971884
000170 42 ab 91 3c a3 f5 7f 3f 49 7a 5a 3c 2c fa 7f 3f
       0.017781857 0.99984187 0.013334819 0.99991107
000180 57 d6 23 3c b9 fc 7f 3f 16 b9 f5 3b 28 fe 7f 3f
       0.009999833 0.99995 0.0074988706 0.99997187
000190 5a 44 b8 3b f7 fe 7f 3f 5a 2e 8a 3b 6b ff 7f 3f
       0.0056233825 0.9999842 0.0042169513 0.9999911
0001a0 1c 3e 4f 3b ac ff 7f 3f 03 69 1b 3b d1 ff 7f 3f
       0.0031622713 0.999995 0.0023713715 0.9999972
0001b0 20 15 e9 3a e6 ff 7f 3f 8a c9 ae 3a f1 ff 7f 3f
       0.0017782785 0.99999845 0.001333521 0.9999991
0001c0 6d 12 83 3a f8 ff 7f 3f 89 94 44 3a fb ff 7f 3f
       0.0009999998 0.9999995 0.000749894 0.9999997
0001d0 13 6a 13 3a fd ff 7f 3f 21 17 dd 39 ff ff 7f 3f
       0.0005623411 0.9999998 0.00042169637 0.99999994
0001e0 61 cb a5 39 ff ff 7f 3f 0d a8 78 39 00 00 80 3f
       0.00031622782 0.99999994 0.00023713727 1.0
0001f0 53 77 3a 39 00 00 80 3f 6d d4 0b 39 00 00 80 3f
       0.00017782794 1.0 0.00013335208 1.0
000200 b7 c7 68 3f 33 11 d5 be d9 5a 7f 3f 53 4d 91 3d
       0.9092974 -0.41614684 0.99748 0.070948265
000210 0a f2 66 3f b2 e8 dc 3e 11 35 3f 3f 03 39 2a 3f
       0.9021307 0.43146282 0.7469035 0.6649324
000220 1b 54 17 3f ec 7b 4e 3f b5 d3 e9 3e 69 be 63 3f
       0.5911271 0.8065784 0.45669332 0.8896242
000230 f6 47 b2 3e a6 fa 6f 3f 82 f0 86 3e f5 f2 76 3f
       0.34820527 0.93741834 0.26355368 0.96464473
000240 f8 6f 4b 3e a5 e5 7a 3f d3 00 19 3e 4f 20 7d 3f
       0.19866931 0.9800666 0.1494172 0.98877424
000250 86 d9 e5 3d f3 61 7e 3f af 85 ac 3d 0e 17 7f 3f
       0.1122313 0.9936821 0.084239356 0.99644554
000260 c8 70 81 3d f9 7c 7f 3f aa 30 42 3d 4e b6 7f 3f
       0.063203394 0.9980007 0.04740969 0.9988755
000270 5c a5 11 3d 8e d6 7f 3f 50 75 da 3c b1 e8 7f 3f
       0.03555809 0.9993676 0.026667267 0.99964434
000280 3e d4 a3 3c e5 f2 7f 3f 51 b7 75 3c a1 f8 7f 3f
       0.019998666 0.9998 0.014997319 0.9998875
000290 9b 43 38 3c db fb 7f 3f 0a 2e 0a 3c ab fd 7f 3f
       0.011246587 0.99993676 0.008433828 0.9999644
0002a0 d8 3d cf 3b b1 fe 7f 3f e7 68 9b 3b 43 ff 7f 3f
       0.006324511 0.99998003 0.00474273 0.99998873
0002b0 08 15 69 3b 96 ff 7f 3f 7f c9 2e 3b c4 ff 7f 3f
       0.0035565514 0.9999937 0.0026670394 0.9999964
0002c0 68 12 03 3b df ff 7f 3f 85 94 c4 3a ed ff 7f 3f
       0.0019999985 0.99999803 0.0014997876 0.99999887
0002d0 12 6a 93 3a f5 ff 7f 3f 1f 17 5d 3a fa ff 7f 3f
       0.0011246821 0.99999934 0.0008433926 0.99999964
0002e0 60 cb 25 3a fd ff 7f 3f 0c a8 f8 39 fe ff 7f 3f
       0.0006324556 0.9999998 0.0004742745 0.9999999
0002f0 53 77 ba 39 ff ff 7f 3f 6d d4 8b 39 00 00 80 3f
       0.00035565588 0.99999994 0.00026670416 1.0
000300 c3 81 10 3e 26 70 7d bf de 3c 47 3f ce bf 20 bf
       0.14112 -0.9899925 0.7782725 -0.6279267
000310 d7 45 7e 3f ab 7f ed bd 63 21 74 3f 63 18 9a 3e
       0.9932532 -0.11596616 0.95363444 0.3009673
000320 c2 09 50 3f 58 2f 15 3f b7 24 27 3f a2 e7 41 3f
       0.8126489 0.58275366 0.652904 0.7574407
000330 6c 2f 02 3f 29 6d 5c 3f a7 68 c7 3e 37 c9 6b 3f
       0.5085361 0.86104065 0.3894703 0.92103904
000340 6c 4e 97 3e ef 90 74 3f e2 6d 64 3e 92 8c 79 3f
       0.2955202 0.9553365 0.22307542 0.9748012
000350 d7 ee 2b 3e 9e 5d 7c 3f 2c 33 01 3e 43 f4 7d 3f
       0.16790329 0.9858035 0.12617177 0.9920084
000360 c0 ff c1 3d 4f d9 7e 3f 06 93 91 3d 3a 5a 7f 3f
       0.094726086 0.99550337 0.071081206 0.9974705
000370 4e 69 5a 3d c3 a2 7f 3f c5 d1 23 3d 90 cb 7f 3f
       0.053323083 0.9985773 0.039994974 0.99919987
000380 1f b9 f5 3c 83 e2 7f 3f 47 47 b8 3c 6b ef 7f 3f
       0.0299955 0.99955004 0.022494925 0.999747
000390 c6 31 8a 3c ad f6 7f 3f 46 44 4f 3c c1 fa 7f 3f
       0.016869437 0.9998577 0.012650555 0.99991995
0003a0 0d 6e 1b 3c 0d fd 7f 3f 13 1d e9 3b 58 fe 7f 3f
       0.009486687 0.999955 0.0071140616 0.9999747
0003b0 a8 cf ae 3b 11 ff 7f 3f 13 17 83 3b 7a ff 7f 3f
       0.005334813 0.99998575 0.0040005534 0.999992
0003c0 92 9b 44 3b b5 ff 7f 3f 60 6f 13 3b d6 ff 7f 3f
       0.0029999954 0.9999955 0.0022496805 0.9999975
0003d0 17 1f dd 3a e8 ff 7f 3f 56 d1 a5 3a f3 ff 7f 3f
       0.0016870227 0.99999857 0.0012650888 0.9999992
0003e0 10 b1 78 3a f9 ff 7f 3f 09 7e 3a 3a fc ff 7f 3f
       0.00094868336 0.9999996 0.00071141176 0.99999976
0003f0 7e d9 0b 3a fe ff 7f 3f a4 be d1 39 ff ff 7f 3f
       0.0005334838 0.9999999 0.00040005625 0.99999994

transformer.layers.0.self_attn.in_proj_weight f4 [192, 64]
000000 75 50 b9 3c 59 99 17 3e 51 0d 9d bd 97 87 af bc
       0.022621373 0.14804591 -0.076685555 -0.021426959
000010 aa 84 da 3c 04 53 01 3e 57 ee be 3b b0 7d 19 3d
       0.026674587 0.12629324 0.005826752 0.03747338
000020 30 ba 99 3c 4f 7a 1b be b1 be 81 3c b4 c5 cd bd
       0.018765539 -0.15183376 0.015837999 -0.100474745
000030 c2 b7 a1 bd 63 0c 86 bd f9 9e 0a bc d7 dd 7c bc
       -0.07896377 -0.06545331 -0.008460754 -0.01543375
000040 dd fb 95 bd 54 7b aa bd 84 fa 80 bd 59 67 04 be
       -0.0732343 -0.08324304 -0.06297782 -0.12930049
000050 e2 fe bf bc 61 73 b2 3b 18 dd 08 3e fe 5c 6c bd
       -0.023436967 0.005445883 0.1336559 -0.05770587
000060 5a dc b9 3d a3 64 b3 3d c2 93 98 3d 1f 47 24 be
       0.09075232 0.08759429 0.074500576 -0.16042756
000070 38 e4 f8 bd 2a 33 b7 3d 56 bc c0 bd 57 6f e1 bd
       -0.12152904 0.08945306 -0.09410922 -0.110075645
000080 d4 5f 17 be 60 b7 84 3c b1 f7 0b 3d 52 d0 f9 3d
       -0.1478265 0.016200721 0.034171764 0.12197937
000090 6b ab 48 bc 1c e1 b8 3d 08 98 1e be 8b 95 25 3e
       -0.0122479005 0.09027311 -0.15487683 0.16170327
0000a0 c8 ea 79 ba cd 6c 1f be b1 36 be bc 79 fc 8d 3d
       -0.00095335813 -0.15568848 -0.023219438 0.06932921
0000b0 d0 42 8a bc e3 69 37 bd 65 51 54 bd bc b6 0f be
       -0.016877562 -0.044778716 -0.051835436 -0.14034551
0000c0 4f af 9c bd 78 e9 5d 3d d9 79 29 3e ac 19 b1 bd
       -0.07650625 0.05417773 0.16550387 -0.08647475
0000d0 b4 e5 be bd 8c 49 01 3e 73 73 99 3d de 69 ab bd
       -0.09321156 0.12625712 0.07492723 -0.08369802
0000e0 ba 99 50 3c 5b 90 62 3d 74 3e d0 3d 72 b6 02 be
       0.012731964 0.05531345 0.10168162 -0.1276491
0000f0 19 6f 1a 3e ce 00 98 bd 8d 9e 22 be 10 b8 74 3d
       0.15081443 -0.074220285 -0.15880795 0.05974585
000100 83 4f e8 3d 1b ea 2a 3d b0 e5 2e bd 36 37 9c 3d
       0.11343291 0.041727167 -0.042699516 0.07627718
000110 e4 6c 1d be 71 5b 22 3d a3 2b de bd d1 ad 1c 3e
       -0.1537357 0.039637987 -0.10848167 0.1530068
000120 2a 35 70 3b 78 87 82 bd 6f e7 17 be 15 eb ec bd
       0.0036652782 -0.06373495 -0.14834379 -0.11568276
000130 3d a8 4b bd db 1b 66 3d f6 3d 17 be 8d 12 0c be
       -0.04972099 0.05617891 -0.1476973 -0.13678952
000140 60 b0 09 be 72 e9 c4 3d a1 a1 25 3e 74 5a 88 3c
       -0.13446188 0.09614839 0.16174938 0.016644694
000150 de d0 92 3d ab 22 a5 bd 8c a9 02 3e a8 de ed bd
       0.071687445 -0.08063253 0.1275999 -0.11614734
000160 cd 9f 0f be 4c 9e bc bd 5e 62 63 bd 69 bc fa 3d
       -0.14025803 -0.0920988 -0.055513732 0.12242968
000170 61 51 ea bc c2 e8 43 3d 80 94 18 be d2 a1 a6 bd
       -0.028603258 0.047829397 -0.14900398 -0.081363335
000180 1e 23 39 be 95 6e 52 bd 98 2b c5 bd 75 c3 f4 3d
       -0.18079802 -0.05137499 -0.096274555 0.11951343
000190 03 5d 6a bd 5d c9 59 3d 88 95 f3 bd 76 5d cf bd
       -0.05721761 0.05317055 -0.11893755 -0.10125248
0001a0 d3 e5 f6 bd b9 06 f0 3d 49 a5 34 be 46 b9 22 3e
       -0.12055554 0.11720032 -0.17641176 0.15890989
0001b0 78 4f 4d 3c 5e f6 18 be e0 37 b8 bd 85 5a 57 bd
       0.012531154 -0.14937732 -0.08995032 -0.05257656
0001c0 52 fe 17 3c 2b 76 3f 3d 32 e8 8d bc 38 b4 1b 3d
       0.009276943 0.046743553 -0.017322633 0.038013667
0001d0 27 b4 c1 3d 7e 91 1c bd 23 ab cc bc 68 af 20 be
       0.094581895 -0.03822469 -0.024983948 -0.15691912
0001e0 69 1d cb bd 31 10 e1 3c e1 1a 33 be d5 04 f9 3c
       -0.09917719 0.027473541 -0.17490722 0.030397812
0001f0 d6 9b 03 bd 9d 5e 86 3d 13 68 03 be 52 2d 16 3d
       -0.03213104 0.06561015 -0.1283267 0.036664315
000200 97 c1 7e 3c 78 c1 d9 3c 88 a1 b3 3d cd 83 f2 bd
       0.015549085 0.02658151 0.08771044 -0.11841545
000210 66 4e 05 3e 51 04 8b 3d cf cf 09 3e 5b ca cc 3d
       0.13018188 0.06787933 0.13458179 0.09999534
000220 4f ce 19 be b5 e6 6b bd 84 b4 82 3a 47 d8 b8 bd
       -0.15020107 -0.057593066 0.0009972011 -0.09025627
000230 cf 67 eb bd 0d 1c fa 3c 0b aa d7 3c 48 a3 1c 3e
       -0.11494409 0.030530954 0.0263262 0.15296662
000240 f4 ee 10 bc 0b bb 6f 3c d8 a2 f1 3b b6 f6 fa 3d
       -0.008846033 0.014631997 0.007374149 0.122540876
000250 53 6c 26 bd 54 ed 3b 3e c2 fd 95 bd 20 04 49 bd
       -0.04063065 0.18352252 -0.07323791 -0.0490762
000260 64 41 0c 3e ea da 09 bd 7f bf b6 3d 3a ee b2 3d
       0.1369682 -0.03365604 0.08923244 0.08736844
000270 a6 ff 6c bd 62 2e e6 3d 0c 05 88 3d 54 50 ab bd
       -0.057860993 0.112393156 0.066415876 -0.08364931
000280 fb 65 1d 3e 46 2d 24 3e 48 17 47 3e d9 dc e6 3c
       0.15370934 0.16032895 0.19442475 0.02818148
000290 6c 98 9c 3d f3 58 13 be 22 fe 2c 3e 62 27 7c 3d
       0.0764626 -0.143894 0.16893819 0.061560996
0002a0 e3 68 fe 3d d5 6e b6 3d 7b 34 57 3d df fb 07 3d
       0.12422349 0.08907858 0.052540284 0.033199187
0002b0 22 67 9d bd a7 ba a7 3d cc 95 b7 bc 8c 2b 43 bd
       -0.07685687 0.08189898 -0.022410296 -0.04764895
0002c0 08 25 ac 3a 35 85 b3 bd ea 86 09 3d 1b 01 95 bd
       0.0013133595 -0.087656416 0.03357593 -0.072756015
0002d0 41 b4 7a bd 57 2f f0 39 61 24 10 3e 13 40 da bd
       -0.06120706 0.00045811638 0.14076377 -0.106567524
0002e0 3c 1e 9c bd 2c 29 2d bb e8 c5 96 3d 62 be 1e 3e
       -0.07622954 -0.0026422245 0.07361966 0.15502313
0002f0 46 9c a1 3d f9 a2 09 3e 6a 32 8d 3d 31 28 50 bc
       0.07891135 0.13441075 0.06894381 -0.012704895
000300 ba 36 4d 3c 2a 0c fa 3c f9 26 16 3e 15 d0 75 bd
       0.012525255 0.030523378 0.14663304 -0.060012896
000310 71 fc 73 bd f4 a4 a5 3c 28 04 80 bc 94 25 9b 3d
       -0.05956692 0.020220257 -0.015626982 0.07575527
000320 eb 8d 8b 3b 1a 96 b8 3d d9 14 e6 3c 14 89 1f bd
       0.0042588613 0.090130046 0.028086113 -0.038949087
000330 85 86 02 3d 4a 7e 74 3b 4a 94 ce bd ac 6e 4d 3d
       0.03186657 0.003730672 -0.10086878 0.050154373
000340 7f d0 ce 3d 25 50 f9 3d f8 aa 8c bd 69 22 66 bd
       0.10098361 0.121734895 -0.06868547 -0.05618516
000350 f2 eb db 3d de 12 b1 3d 30 46 15 bc f3 36 b7 3d
       0.10738362 0.08646177 -0.009110972 0.089460276
000360 5c 7f 60 3b 1d 63 e6 bd 01 42 fc bd 1a ad 16 3e
       0.00342556 -0.11249373 -0.12317277 0.1471447
000370 97 de ac bd 0d 6f 9d bc 04 dc 93 bd 94 79 99 3d
       -0.08440893 -0.019217992 -0.07219699 0.07493892
000380 cb 2f 7b bc d9 9e 92 bd 91 33 29 3e fb e5 05 3d
       -0.015331219 -0.07159204 0.16523577 0.03269003
000390 61 7d 2e 3d 03 b3 a7 bc d3 76 0d 3e 8e f6 e6 bd
       0.04260004 -0.020471102 0.13814859 -0.11277495
0003a0 56 4a 06 3e 9a 24 e4 bb 08 1c 4e 3d 71 e4 ce bd
       0.13114294 -0.006962371 0.0503197 -0.101021655
0003b0 68 77 14 bd eb d3 e2 3d b8 a0 dd 3c 05 60 79 bc
       -0.036246687 0.110755764 0.027054176 -0.015220647
0003c0 80 62 1e 3e a9 dc cd bd b1 46 8a bd 76 fb 82 bc
       0.15467262 -0.10051853 -0.067517646 -0.015989047
0003d0 6c 30 8a bc 79 61 64 bd a4 12 1f 3e 0d bb 30 3e
       -0.016868792 -0.05575702 0.15534455 0.17258854
0003e0 71 a3 c0 3d 7a 59 23 3e fb 01 15 bd ba e1 ac bd
       0.09406174 0.15952101 -0.03637884 -0.084414914
0003f0 3d e6 19 bc 09 00 ed bd 00 ef bc bc 89 ec 3a bc
       -0.009393272 -0.11572272 -0.023063183 -0.011408933

transformer.layers.0.self_attn.in_proj_bias f4 [192]
000000 84 94 b9 bc 1e 9d ab bc ca 2d 5f 3d a9 7a f5 3c
       -0.022653826 -0.020948943 0.054487027 0.029965715
000010 be 5b 22 3c 40 51 ca 3c d8 ae 50 3d a2 8d 93 bc
       0.009909568 0.024696946 0.050947994 -0.018011872
000020 e3 77 68 bb ba c2 33 3d c7 6c 6b bc 84 21 13 bd
       -0.0035471849 0.043886878 -0.014369196 -0.035920635
000030 1d 26 40 3b 17 5e dc bc d9 5b 57 bd 35 fd 41 bd
       0.0029319592 -0.026900334 -0.052577827 -0.047360618
000040 91 26 b3 bc dc e0 36 bd aa f3 53 3c 9b 25 f0 3c
       -0.021868976 -0.044648036 0.012936512 0.029314807
000050 52 de 8c bb ec 08 0a bd ee 96 2e 3c 26 ff 8d bc
       -0.0042989636 -0.033699915 0.010656102 -0.017333578
000060 28 a6 29 bb 48 13 a0 bc 85 de 23 bd f5 90 7d 3c
       -0.002588639 -0.019540444 -0.040007133 0.015476455
000070 5e 79 8c 3c 10 b2 18 3b c3 79 f4 3c 00 7a cb bc
       0.017147716 0.0023299493 0.029843217 -0.024838448
000080 d9 c6 53 bc a5 09 c0 3a 1e f5 5b 3c 5a 8e fa bb
       -0.012925827 0.0014651312 0.01342514 -0.007646364
000090 13 f0 cc 3c 66 5c b7 3b 63 11 ad ba 84 10 8f 3c
       0.02501682 0.0055957315 -0.0013204034 0.01746393
0000a0 cc 95 32 bb 20 fa fb 3a 42 4b 24 3b 99 51 a0 3c
       -0.002724993 0.0019224323 0.0025069271 0.019570159
0000b0 af 17 7b 3c 2d 91 c2 bc e0 eb cf bc 35 dc ca bb
       0.015325471 -0.023750866 -0.025381029 -0.0061908015
0000c0 c7 02 26 bb 69 fc 47 bc 47 35 1f bc d9 fe 13 bd
       -0.0025331245 -0.012206175 -0.009717292 -0.036131714
0000d0 40 dd c1 3a b3 4f 47 bc 7c bd dd bc d7 0e 14 bc
       0.0014790669 -0.012164998 -0.027067892 -0.009036741
0000e0 d0 ca 8e 3c b6 65 7f 3c 81 82 1c 3c 24 9c 62 3c
       0.017430693 0.015588215 0.009552599 0.013831172
0000f0 17 a8 ad bc c7 e8 6b 3c 39 96 fe bc 33 29 9e bc
       -0.021198316 0.01439876 -0.031077491 -0.019306755
000100 b9 15 30 39 70 3a b0 38 8c 5b 88 b9 2d 35 13 39
       0.0001679276 8.403219e-05 -0.0002600815 0.00014038822
000110 18 81 88 b8 65 36 d8 b6 08 da a1 b8 22 cc a6 b8
       -6.509031e-05 -6.443634e-06 -7.71769e-05 -7.9535195e-05
000120 71 40 28 b8 18 c2 e6 38 ac fc af b9 42 e9 37 b9
       -4.0114337e-05 0.000110034074 -0.00033566856 -0.00017539135
000130 0f 5d ad b6 e3 11 42 b8 0b 84 b8 38 c2 b5 b3 b9
       -5.166635e-06 -4.6269863e-05 8.7983986e-05 -0.0003427696
000140 e6 48 12 39 92 c4 c3 39 f5 96 ae b8 a8 b8 5c b9
       0.00013950802 0.00037339755 -8.3250845e-05 -0.00021049625
000150 0c a8 cc b8 02 dc fe 39 ac 88 c4 b9 15 29 ab b7
       -9.758779e-05 0.00048610574 -0.00037485862 -2.0403919e-05
000160 bb 81 d3 b8 5a a1 9c 37 c3 79 d3 38 ad db a6 b9
       -0.00010085428 1.8671784e-05 0.00010083944 -0.00031825659
000170 b6 cd ba 38 73 ee a0 b7 c6 7a fb b9 c3 d4 38 38
       8.907488e-05 -1.9184523e-05 -0.00047965924 4.406717e-05
000180 6e 9f 21 b7 b8 16 97 b8 64 8a d8 38 6e 59 1b b9
       -9.633468e-06 -7.204473e-05 0.0001032546 -0.00014815267
000190 97 83 0a 39 2e 77 74 38 a3 bc c5 b8 42 14 be 38
       0.00013209727 5.8285128e-05 -9.428828e-05 9.063679e-05
0001a0 70 91 91 39 92 67 df 38 6e ef 92 39 b9 72 a8 b9
       0.00027764915 0.0001065276 0.0002802568 -0.00032128932
0001b0 c8 7d 3c b9 fc 48 44 39 c6 89 71 39 9c 7d fa b8
       -0.00017975934 0.00018719205 0.00023034876 -0.000119443255
0001c0 eb d2 4c 38 80 78 45 b5 fa 3e 31 b7 83 59 6f 38
       4.8833823e-05 -7.356357e-07 -1.0564685e-05 5.7065405e-05
0001d0 b0 86 8f 38 f2 6e 96 39 ce a4 3a b9 84 13 d1 38
       6.843859e-05 0.0002869289 -0.00017799737 9.969532e-05
0001e0 58 23 ff b8 7b e0 b1 38 6b 62 e0 37 9b d4 1d b9
       -0.00012165931 8.4818304e-05 2.674871e-05 -0.00015051888
0001f0 30 68 61 38 62 4a 20 b7 93 15 8e 38 ae f6 73 b9
       5.3741212e-05 -9.554062e-06 6.775106e-05 -0.00023266181
000200 fc ad 16 3a 4c 8f 31 3c 9d d4 7d bb 33 9e de 3a
       0.00057479716 0.010837387 -0.0038731464 0.0016984403
000210 de 44 30 3c 02 d8 40 3c 83 ff 8c 3c b7 9e 72 3c
       0.010758607 0.01177025 0.017211681 0.014808348
000220 bd 10 61 3c 40 ce a0 bb fa 3d 73 b9 9d c5 45 bc
       0.013736901 -0.0049073994 -0.00023197374 -0.01207104
000230 33 f0 31 3b 09 4b 37 bc 5d 73 5a bc d2 6a df bb
       0.0027151227 -0.011187323 -0.013333169 -0.006818154
000240 62 a5 01 bc 49 71 5c bb 48 98 8d bb 56 6f 4e bb
       -0.0079129655 -0.003363686 -0.004321132 -0.0031499467
000250 93 ea 63 3c c3 a3 95 3b 81 c6 13 bc b2 fa aa ba
       0.013910907 0.004566641 -0.009019495 -0.0013044684
000260 3e 0e 4c bc a3 51 aa 3b 63 19 4f 3c 94 a2 fd b9
       -0.0124545675 0.00519772 0.01264033 -0.0004837705
000270 64 ec 06 3c 90 86 32 ba 36 26 7b 3c e4 ea 17 bc
       0.008235071 -0.00068102125 0.015328934 -0.009272311
000280 19 f4 00 3b f8 8a 20 bc 59 32 91 3b 6e 85 aa bb
       0.0019676744 -0.009798758 0.0044310507 -0.0052038943
000290 a1 f3 73 3b d0 e1 5c 3c 82 ea be bb 7e 1d 10 3c
       0.0037224072 0.013481572 -0.0058262954 0.008796094
0002a0 ca 57 d5 ba 56 3c 66 bc e2 04 72 3c 5c 37 08 bc
       -0.0016276774 -0.014052471 0.014771672 -0.00831398
0002b0 58 23 b3 bb 40 9a 05 bc b1 42 4b bc 3d 46 14 3c
       -0.00546686 -0.008154452 -0.012406037 0.009049949
0002c0 08 23 d8 3b 07 0d 82 3c c5 38 12 3c 07 39 a4 bc
       0.006595973 0.015875353 0.008924668 -0.020046724
0002d0 ca 0c 70 bb 6d b4 fc 3c 31 98 92 bc 0c 4b 60 bb
       -0.0036628717 0.030847752 -0.017894836 -0.003422442
0002e0 74 3a 0b 3b 55 fb 04 3c 14 7d 6c ba 5a 97 39 3c
       0.0021244558 0.008116563 -0.00090213236 0.011327589
0002f0 5b 4e b3 3b ba bc d0 3c 27 61 21 bc 9b da 07 bc
       0.005471987 0.025480617 -0.009849823 -0.008291866

transformer.layers.0.self_attn.out_proj.weight f4 [64, 64]
000000 f2 eb b8 bd d9 d1 f7 3b dc 9b 29 3d 9b b5 b6 3c
       -0.09029378 0.0075628576 0.041408405 0.022303393
000010 c4 9f 02 3e 40 79 96 bd fa ef 0f be ed 12 ca bd
       0.12756258 -0.07347345 -0.14056388 -0.09866891
000020 c9 1b 28 3d 57 22 de 3d 91 60 a4 3c 15 65 ba 3d
       0.041042123 0.108463936 0.020065578 0.09101311
000030 48 dc 26 3d 8e 1a ad 3d a1 15 73 bd fa 0c 8c bd
       0.04073742 0.084523305 -0.0593468 -0.068384126
000040 74 cf a7 bd a1 42 01 bd a2 62 13 3e cd e3 84 3d
       -0.081938654 -0.031557683 0.14393094 0.06488762
000050 7b 3b c1 3d 8b b5 d6 bd 1d 62 ae bd 75 81 25 bd
       0.09435173 -0.10483845 -0.085148074 -0.040406663
000060 72 8a bb 3d 63 3b ee bc e1 52 35 bd aa 9b 3e bd
       0.09157266 -0.029081052 -0.044268493 -0.04653517
000070 1a 9d 3b 3d 60 c2 9b 3d 00 3e 1e bc 19 69 d5 3d
       0.04580412 0.076054335 -0.009658337 0.104204364
000080 89 93 97 bc c3 31 0e 3e 8f 1a cd bd d2 80 f8 3d
       -0.018502967 0.1388617 -0.10014831 0.121339455
000090 ea bc 8f bd 0e c4 08 3d 32 f9 ad bb 32 ac b3 3d
       -0.070184544 0.033390097 -0.0053092474 0.08773078
0000a0 e3 5c 97 bd 1f 65 aa bd 71 6e ac bd da b1 a2 3d
       -0.073907636 -0.083200686 -0.084195025 0.07944079
0000b0 a9 a3 c5 bd ef 45 26 3d d6 2d 3b 3b 4f cb 66 3d
       -0.09650356 0.040594038 0.0028561256 0.056346234
0000c0 8f 46 b3 3b 97 ce ba bc fe d6 fb 3d a9 cd f6 3d
       0.0054710577 -0.022803588 0.12296866 0.12050945
0000d0 da 27 ef 3c 9f 8b fc bd 32 48 34 3b 24 5a ef 3d
       0.029193807 -0.12331318 0.0027508852 0.11687115
0000e0 c5 87 b4 3d 1d 10 0f 3e ff a9 c7 3d 0c 9d 9c bc
       0.088149585 0.1397099 0.09749221 -0.019117855
0000f0 10 2a c2 3d 8b 39 e6 39 37 e3 93 bd 05 3a 86 bc
       0.09480679 0.0004391189 -0.07221072 -0.016385088
000100 4a 08 96 bd d1 93 b5 bd 6d b3 18 3d b7 83 10 bc
       -0.073258 -0.08866084 0.03728049 -0.008820466
000110 0b 8a 6f 3d 6e 8f 4e 3d 8f 4c 9c 3d 47 03 53 3d
       0.058481257 0.050429754 0.0763179 0.051516797
000120 ea 6a 06 3e b3 b4 e6 bc f9 f6 d2 bd a3 77 e4 bd
       0.13126722 -0.028162336 -0.103010125 -0.111556314
000130 43 ed fb bd 43 a9 0f 3d 9d d2 5c bd 1c d9 e8 bb
       -0.123011135 0.03507353 -0.053911794 -0.0071059596
000140 2f 97 af bd 47 3d 49 bd f4 8d 36 3d c2 5d 9c bd
       -0.08573758 -0.049130704 0.04456897 -0.076350704
000150 05 31 9f bd 28 f7 fc b9 2d 06 ab bd 56 b1 0d be
       -0.077730216 -0.0004824933 -0.08350787 -0.1383718
000160 be da 81 bd 0f 3b bc 3d 04 d0 1c 3d 6e 99 cf 3d
       -0.0634055 0.09190952 0.038284317 0.10136686
000170 47 8e e5 3d 40 c4 7c 3d 88 1f 8b 3d dd 86 63 bd
       0.11208778 0.061710596 0.067931235 -0.055548538
000180 d1 46 8b 3d e8 2d fc 3c fd b6 ae bd b3 6c a4 3d
       0.068006165 0.030783609 -0.08530996 0.08028545
000190 09 f8 bd bd 3d 2e d7 bd ba f9 30 3c 38 cb 86 3d
       -0.092758246 -0.10506866 0.010801727 0.0658173
0001a0 0e ce d8 ba e0 1c ea bd bf aa 19 3d c6 b5 f1 3d
       -0.0016540901 -0.11431289 0.03751635 0.11802249
0001b0 d4 69 94 3d 3d dc da 3d 17 b0 3d 3c 14 10 38 3d
       0.072467476 0.10686538 0.011577628 0.04493721
0001c0 0e ef bc 3d a2 f6 52 bd ad 8b 14 3d 77 ce 41 3d
       0.092252836 -0.05150474 0.036266018 0.04731604
0001d0 e3 82 e1 bd 5f 64 e1 3d 01 c1 e6 bc 7c 99 98 bc
       -0.11011293 0.110054724 -0.028168203 -0.018627875
0001e0 ab ae ee 3d a4 8a f9 3d cb 83 d8 bd 7c ce d7 bd
       0.11654409 0.12184647 -0.105720125 -0.10537431
0001f0 26 28 4d bc 7a 38 e0 3d ab fa ec 3c 8c 67 ec 3b
       -0.012521779 0.10948272 0.028928122 0.007214492
000200 82 be 2f bd 90 2d c8 bd a9 d7 6d bd 45 55 f2 3d
       -0.04290629 -0.09774315 -0.058066998 0.1183267
000210 30 a1 23 be 96 08 7c 3d 5f 35 b3 bd b5 d7 17 bc
       -0.15979457 0.061531626 -0.08750414 -0.009267737
000220 67 a2 9d 3d 7a 8a 00 3d 2d c2 2b bc a4 b8 66 3d
       0.076969914 0.03138206 -0.010483307 0.05632843
000230 b0 0d e5 3c 68 09 ee bc 95 77 c9 3b 72 b1 e5 bd
       0.027960628 -0.02905722 0.0061482885 -0.11215486
000240 69 a6 90 bd ef 2d 57 bd c0 ed cd 3c b4 c1 91 bd
       -0.0706299 -0.05253404 0.025137782 -0.07117024
000250 fc 62 dc 3d 4d 40 e6 bd 61 be a8 bd 92 3a 08 3e
       0.10761067 -0.11242733 -0.08239437 0.13303593
000260 f2 f6 cd bb b9 54 0c 3d 37 f2 3a 3d 27 92 14 bd
       -0.0062855417 0.034260485 0.04564115 -0.036272194
000270 e7 94 8c 3d 54 9b ac 3d 1d d8 aa 3d 0f 58 7a 3c
       0.06864338 0.08428064 0.083420016 0.015279784
000280 51 07 32 3d e1 71 d1 bd fb 8b 60 3d a4 c9 0e bc
       0.04346401 -0.10226799 0.054820996 -0.008715067
000290 53 35 02 3d af 27 fc 3c 38 84 a1 3d b2 ee f7 bd
       0.031789135 0.030780641 0.07886547 -0.121060744
0002a0 f6 ea 78 3d c4 f5 a5 bd 62 6e f6 bd 56 59 c1 bd
       0.06077095 -0.08103517 -0.120327726 -0.094408676
0002b0 cc 80 df 3d 5d d0 37 3d 87 8e ac bd 31 0a 1f bd
       0.10913238 0.044876445 -0.084256224 -0.03882808
0002c0 6a e3 f7 bc 0b 92 e6 bd 71 62 a3 3d 0f 2b 5a 3d
       -0.030259807 -0.11258324 0.079777606 0.05326372
0002d0 e9 16 fd 3d de 1e ee bd 43 58 b1 bd db f3 17 3c
       0.123578854 -0.11626981 -0.08659413 0.009274448
0002e0 0c 8b 97 3d f3 f8 6b 3d 1c d0 59 3c 08 05 76 3d
       0.07399568 0.057610463 0.013294246 0.060063392
0002f0 43 4c 64 bd 58 c6 e1 3d ad 66 b0 3d c5 df ca 3d
       -0.05573679 0.11024159 0.08613334 0.09905962
000300 da 18 ca 39 b9 9a fc bd 53 31 e6 3b b9 fa 65 bd
       0.00038546958 -0.123341985 0.007024923 -0.05614731
000310 69 80 14 be 9f 8a 89 3d db 2f a6 bd 39 39 a4 3d
       -0.1450211 0.06715893 -0.081145965 0.08018727
000320 60 87 89 3d 79 51 01 be 95 43 28 be bb e9 ba 3d
       0.06715274 -0.12628736 -0.1643203 0.09126612
000330 ed 87 e6 bd f1 f3 a0 bd 92 ac f2 bb cd d4 ad bc
       -0.112563945 -0.07859028 -0.007405826 -0.021219635
000340 f5 b4 8f bd c7 af 19 bd e3 44 9d 3c 4e 30 f2 3c
       -0.07016937 -0.03752115 0.019197887 0.02956405
000350 f1 7b 82 3c c1 d9 d4 3d 40 ec 1f bd 9e 36 8a bd
       0.01592824 0.10393096 -0.039043665 -0.06748699
000360 89 b7 23 bd 08 56 ae bd 5f f1 62 3d 8a ad f2 3d
       -0.039969955 -0.08512503 0.05540597 0.11849506
000370 59 8c 19 be d7 01 92 3d 62 69 48 3d 2f 82 b4 3c
       -0.14994945 0.07129257 0.048928626 0.022034733
000380 d8 99 e1 3c b3 69 9c bc aa 9e 5a 3d 5e 1f e7 bb
       0.027539179 -0.01909337 0.05337397 -0.0070533
000390 ce 8d a7 bd 38 6d 42 bd 74 0b 03 3e a2 01 5f 3d
       -0.08181344 -0.04746744 0.12797338 0.054444917
0003a0 d6 df 5e bd 95 9c 59 bc 39 f1 b7 3d 75 4e 0f 3d
       -0.054412685 -0.013281961 0.089815564 0.03498693
0003b0 fd 31 17 3e 1d e1 83 bd 52 27 de 3b 4c 3d 7f 3d
       0.14765163 -0.06439421 0.0067795897 0.062314317
0003c0 85 fe a4 bd f1 4a 80 3d 1d 89 12 3c 41 e6 8b 3c
       -0.08056358 0.06264294 0.008943823 0.017077567
0003d0 95 9d 4b bb 37 48 e3 3d dd 87 ef bc 8e 10 48 bd
       -0.0031069268 0.11097758 -0.02923959 -0.048843913
0003e0 30 d4 4f 3d 46 fe 08 3d 57 b6 98 3d a7 07 ee bd
       0.050739467 0.03344562 0.074566536 -0.11622553
0003f0 b0 0e f6 bd 2f e9 8e bd 52 a7 72 3d cd d2 e5 3b
       -0.1201452 -0.0697807 0.0592416 0.007013655

transformer.layers.0.self_attn.out_proj.bias f4 [64]
000000 7d 17 e1 ba 81 ab 42 3b 89 29 11 3c b9 08 88 bb
       -0.0017173138 0.0029704275 0.00886 -0.0041514304
000010 c4 79 b6 bc 1f 4f d3 bb 2a 9f 87 bc 29 17 38 bc
       -0.02227486 -0.006448641 -0.016555388 -0.011235991
000020 8c d2 03 bc 44 07 15 bc 0f 6e c3 bb 03 33 73 bb
       -0.008045804 -0.009095971 -0.0059640477 -0.0037109263
000030 85 60 3d 3c f6 ec f9 bb f8 e1 ab bb 88 69 44 3b
       0.011558657 -0.007627125 -0.0052454434 0.0029970128
000040 d3 8f 90 3c 0d 46 cc 3b fd d9 02 3d 39 fc 97 bc
       0.017646706 0.0062339366 0.03194617 -0.018552886
000050 d5 04 c7 3b 57 be 96 3c 94 f3 d1 3a 3b a4 84 3a
       0.006073574 0.018401308 0.0016018027 0.0010119745
000060 bb 34 e9 3b 04 40 4e ba ed f3 cc 3c 2a 2d 9a 3c
       0.0071168817 -0.00078678154 0.025018657 0.018820364
000070 ae af 1d bc 1e 9a 33 bc 54 92 29 3c d1 ee 19 bd
       -0.009624405 -0.010962037 0.010349829 -0.03758127
000080 9f 12 1b 3c 78 5c 07 ba 0a 34 24 3c b2 5c 09 bb
       0.009464889 -0.000516362 0.010022173 -0.0020959792
000090 9b e0 b7 3c 55 f8 12 bd e7 85 85 3c 37 d0 de 3a
       0.022445967 -0.03588136 0.016299201 0.0016999309
0000a0 97 b2 70 3c ea 2c 9b 3c a4 de 07 3c 34 27 35 bd
       0.014691017 0.018942315 0.008292828 -0.04422684
0000b0 09 2c 4e 3c 80 72 5e 3b a6 b7 81 3c 24 fa 2c bc
       0.012583741 0.003394276 0.01583464 -0.010557685
0000c0 a6 45 a6 3c 9c 6d a6 3c f7 58 9b bc 98 77 94 3c
       0.020296883 0.020315938 -0.01896332 0.018123433
0000d0 7e 7b 48 ba 11 fb 23 bd 03 4a e9 3c e6 cf 90 bc
       -0.00076477963 -0.040034357 0.028477674 -0.017677259
0000e0 31 b6 6f 3b d7 2f cf ba ad a8 6e bb f9 87 cd ba
       0.00365771 -0.0015807104 -0.0036416457 -0.0015680782
0000f0 d5 c9 ac bb 41 28 2c 3c ea cf 70 3c 27 c1 5e 3c
       -0.0052730837 0.010507644 0.014698008 0.013595856
