scripts/data/abandonment_gru.onnx (onnx, 82651 bytes, 5 tensors)

duration_proj.bias f4 [32]
00000000: c929 b53e 8bb6 bdbe 5127 1d3e bfae 333f
00000010: c3d6 163e b20a 64be 654a 3c3f 33d2 213f
00000020: 94b7 223f 823b a9bd 0965 643f 0ec2 22bf
00000030: 0eb1 c63e 51a3 72bf af52 02bf 4a8e 463f
00000040: 93a0 1cbf 8574 4e3f fb09 343f 128c 8f3c
00000050: 5a7a 6d3f 502a 47bf 6820 48bd fd40 773d
00000060: 5ab3 eb3d d282 2dbe a371 df3e 39c5 6dbf
00000070: e38e 64bf 65d9 123f c5b2 35bf b422 4a3e
0.35383442 -0.37053332 0.1534703 0.70188516 0.14730363 -0.22269705 0.7355102 0.63211364
0.6356137 -0.08263303 0.8921667 -0.63577354 0.38806957 -0.9478045 -0.50907415 0.77560866
-0.61182517 0.80646545 0.7032773 0.017522845 0.9276482 -0.7779894 -0.04885903 0.060364712
0.11508818 -0.16944435 0.43641385 -0.9287906 -0.8928053 0.5736297 -0.70975906 0.197398

input_proj.bias f4 [64]
00000000: 956b be3d ee59 b23d 5fe5 9cbc 5fe3 29bc
00000010: 631e eebd e8dc 9dbb 6560 8abd 3843 dfbc
00000020: 648c d9bd 7723 953c e633 73bd 1ec4 133d
00000030: b888 50bd 6a92 a83d 3625 a1bd fb29 81bd
00000040: c204 d43d d6a0 1f3d 5f4f b43d 1515 c23d
00000050: d2ed 303d bfd0 2b3d bacf 02bc c4b9 a8bd
00000060: 420e 1ebd 6d4b c3bd 36ce 543d f3d5 c43d
00000070: f8ce 97bd ad10 f43d cf93 b0bc 6d9b 693d
00000080: 20aa 33bd 0d69 8e3c 320b 6fbc 0751 b43b
00000090: a381 423d aa7d 383d f2e0 ec3d e904 43bc
000000a0: f100 f83d 26a1 76bd 0e82 a4bd acba b839
000000b0: 5e0c 06bd 5932 bbbc bc54 b7bc 2805 553b
000000c0: c40a 0a3e d21a c93d 15dc b1bd ea5d 213d
000000d0: 91f8 693d 583f bebd 6f41 01bd 7a20 c4bd
000000e0: e02f c239 e59a 773d 071a fd3c 6878 d5bd
000000f0: 042e 6bbd 9d07 83bd a117 e5bc 2822 c53d
0.092978634 0.08708559 -0.019152341 -0.010369151 -0.116268896 -0.004817594 -0.06756667 -0.027253732
-0.106224805 0.018205388 -0.059375666 0.036075704 -0.050911635 0.08231051 -0.078684255 -0.06306835
0.1035247 0.038971744 0.08804201 0.09476677 0.043195553 0.041947123 -0.007984096 -0.08238557
-0.038587816 -0.09535871 0.05195447 0.0961112 -0.07412523 0.11917243 -0.021554856 0.05703299
-0.043863416 0.017384076 -0.0145900715 0.0055028233 0.047486912 0.045041718 0.115663424 -0.011903026
0.121095546 -0.060212277 -0.080326185 0.00035234296 -0.032726638 -0.022851156 -0.022379272 0.0032504294
0.1348067 0.09819569 -0.086845554 0.039396204 0.057121817 -0.092894256 -0.031556543 -0.09576507
0.00037038233 0.060450453 0.0308962 -0.10423356 -0.05741693 -0.063979365 -0.027965369 0.096256554

classifier.0.bias f4 [64]
00000000: a0a4 9c3d 023d dd3c 5c25 24bb cf6d 713b
00000010: a681 d23d beee dbbc fd6a f63b 40ca 4bbd
00000020: 3c2a bd3d 5a6f 76bc 6fe8 9b3b 2628 f13a
00000030: d2c3 ea3d 2771 033d 51d8 8dbd f29b 6c3d
00000040: 5e1f bebd a840 86bd cba2 abbd 5dbe e43d
00000050: d71e a5bd ecb3 833d 9238 763d 56c1 da3c
00000060: 82b7 b3bd 7acf e63d 62ff 8d3c 6c1c 973a
00000070: a750 47bd cd48 00bd f6d8 01bc f571 3cbd
00000080: 433d a8bd c591 dbbd 526f fe3b dfe5 06bc
00000090: 0a91 19bc d620 ca3b 8716 c9bd aa0c 6ebd
000000a0: d1a5 65bd cdcd 353d ec6b 87bc d134 993d
000000b0: 03ea db3d c7b3 e5bd d397 d2bc 3146 81bd
000000c0: d70d 7abc 4a3c 283d 5cac 32bd 2619 003e
000000d0: b213 843d 806a 1bb6 a869 21bd ce62 4d3c
000000e0: 4bfa 853d 91ba db3c a2c8 3f3c 535b 873d
000000f0: 9430 c43a 4fb8 373d 4e2f 85bd 289e e13a
0.07648587 0.02700663 -0.0025046682 0.0036839133 0.10278635 -0.02684724 0.007520078 -0.049753428
0.09236571 -0.015041197 0.004757933 0.0018398806 0.11463131 0.032090332 -0.06926025 0.05776591
-0.092833266 -0.06555301 -0.0838066 0.111691214 -0.08062523 0.06430802 0.060112543 0.026703518
-0.08775236 0.11270042 0.01733369 0.0011528856 -0.0486609 -0.03131943 -0.007925263 -0.046007115
-0.0821481 -0.10721163 0.0077647353 -0.0082335165 -0.009372959 0.006168465 -0.0981875 -0.058117546
-0.056066338 0.04438572 -0.016530953 0.07480777 0.107379936 -0.112159304 -0.025707161 -0.06312216
-0.015262089 0.04107312 -0.043621406 0.12509593 0.06449069 -2.315879e-06 -0.039407402 0.012535764
0.0654188 0.02682236 0.011705549 0.066092156 0.0014968091 0.044853505 -0.06503163 0.0017213272

classifier.3.weight f4 [1, 64]
00000000: 90b2 9e3d 9a85 4ebd 1af9 263d f8ed 99bd
00000010: d72b af3d 05fb f4bd 79f5 683d 3359 81bd
00000020: 14cf 8c3d d345 e63c 7f09 4a3d 0b28 aa3c
00000030: 3966 7b3d 1feb 093d 84d3 a53d 333f 413d
00000040: eb76 093b 3052 9e3b 0dc0 bbbd 2d8e 1f3d
00000050: ca65 053c 8956 823d 3047 8a3d dd6c 71bd
00000060: e029 813c 00ff 4e3d 941f 6fbb 3f55 e9bc
00000070: 0366 8d3d 2b23 2cbd 1dcf 753d 793f da3d
00000080: 6f1b e83c 2c2a a73d 775d 9ebd 7ff6 523d
00000090: e600 a13d 021d 513c 8a40 ac3c 9b1b 473d
000000a0: 6843 37bc a623 c2bd 78e5 3bb9 fcef 69bd
000000b0: 3ac2 db3d 6997 563d 7210 9bbd df51 ce3c
000000c0: 5277 2abd 413e 723d 2587 a13c 42f1 663d
000000d0: 6ba9 a13d 5ea8 963d cd4f 933d 473e 693d
000000e0: ad48 77bd b2c0 edbd 29fd c1bb 175d 22bd
000000f0: 4fd4 7dbd 9f62 6f3d dc0c 60bd 9a26 9bbd
0.07748902 -0.05042038 0.040764906 -0.07516092 0.08553284 -0.11961941 0.056874726 -0.063158415
0.068754345 0.028109467 0.049325462 0.020771047 0.061376784 0.033671495 0.08096984 0.047179412
0.0020975422 0.004831575 -0.0916749 0.03895395 0.008141944 0.063641615 0.06751859 -0.05894171
0.015767038 0.050536156 -0.0036487328 -0.028483031 0.06904223 -0.042025726 0.06001197 0.10656638
0.028333394 0.081623405 -0.07732671 0.05150461 0.078614995 0.012763264 0.021026868 0.04861031
-0.0111855045 -0.09479456 -0.00017919193 -0.057113633 0.10730405 0.05239049 -0.07571496 0.025185524
-0.0416177 0.0591414 0.019717762 0.056382425 0.07893642 0.07356332 0.07192955 0.056944158
-0.060372043 -0.11609019 -0.0059200716 -0.03963956 -0.06197005 0.05844366 -0.054699764 -0.07575722

val_1 f4 [1, 32]
00000000: 21db 653f 256d 363f 3cd6 233f b011 6dbf
00000010: 999e 71bf f13e 823e 5f4f e6be b48e 10bf
00000020: dd5f 56bf e786 80be 6d1f a4be d90d 833e
00000030: 2817 d5bd a304 103f 7e56 53bf 2323 ecbe
00000040: 4b3a fbbe 3c38 6cbf f40f 75bf 5e25 59be
00000050: adce 06bf dd78 41bf 331f 6fbf caa3 c6bd
00000060: 2abd 96be 8226 e9be 0864 a3be 9baa 2abf
00000070: 55b7 913f 0bc0 cfbe 7319 553f 1b92 78bf
0.8978749 0.7126029 0.6399877 -0.92605114 -0.94382626 0.25438645 -0.4498243 -0.5646775
-0.83740026 -0.25102922 -0.32055226 0.25596502 -0.10404807 0.56257075 -0.8255385 -0.46120557
-0.49067912 -0.92273307 -0.9572747 -0.2120566 -0.5265911 -0.7557505 -0.9340698 -0.09699209
-0.29441196 -0.45537192 -0.31912255 -0.66666573 1.1384073 -0.40576205 0.8324196 -0.9709794
