scripts/data/gru_real.onnx (onnx, 82552 bytes, 5 tensors)

duration_proj.bias f4 [32]
00000000: e87e 353e 64b3 e0be 52fe ca3e 2d36 55bf
00000010: 4c78 763e b4c3 543f 4852 a8be f986 2c3f
00000020: bf42 b23d 9021 47be 146f f5be fdf2 a13e
00000030: d5fc 0dbf 177a debe 0f3e 09bf cd24 3b3f
00000040: e61c 4d3c 4567 453f 7c0c 873e a3ef c73e
00000050: d2de f33e e9ea ee3e a6e5 48bf a647 bebe
00000060: 1e24 f43e cfd0 f4be ecc3 63bf 8350 0cbf
00000070: dd4a cc3e db60 eb3d 92bb 32be 0b82 513c
0.17724192 -0.43886864 0.39647156 -0.8328579 0.24069327 0.8311112 -0.32875276 0.6739345
0.08704137 -0.19446397 -0.47936308 0.31630698 -0.55463916 -0.43452522 -0.5361032 0.7310303
0.012519097 0.771107 0.26376712 0.39050016 0.47630936 0.46663597 -0.78475416 -0.37164038
0.47683805 -0.47815558 -0.8897083 -0.5481035 0.39900866 0.11493083 -0.17454365 0.012787352

input_proj.bias f4 [64]
00000000: 9f23 d1bd a960 87bd 47ed 57bd 5b0e 18be
00000010: 1ead c0bd b6a7 043e c077 6bbc c25b 883c
00000020: 2b1f 32bd 5fd9 0c3d bba7 4b3d 767f 04bd
00000030: b87f f7bd 46c0 98ba 0c05 22bc 4fda 10bd
00000040: 3ffe a33c d8ad 75bc 0f0f 97bd 0025 95bc
00000050: 2876 e0bb 8ad4 013d 1024 afbd 97ac 91bd
00000060: 19d6 babc 6cbd c13d b72e 6bbd 06d7 bfbd
00000070: 8f32 a4bd e3ec c0bd 1389 ebbd 25da 043d
00000080: 0659 d33d 69c1 b0bc 740d 06bd 684e b63d
00000090: 162e 9dbb f222 e03d 4b0d da3c 58c2 2fbd
000000a0: 12af 85ba ee9f ba3d 3e6a 28bd 38c3 f6bc
000000b0: 4c46 d53c c059 7a3d e7b5 d2bd ef6f da3c
000000c0: 9156 5e3d 5776 ce3d 6dc6 cc3d d0c5 313d
000000d0: 5722 a6bb 0cc1 92bc 3858 84bd a9fc a3bc
000000e0: f327 5ebd 6d9b b33d 84f8 173d cbac 523d
000000f0: 5d3a c63d 0c44 603d 3c2f ec3d 4bef 04bd
-0.10211872 -0.06610233 -0.05271652 -0.14849226 -0.094080195 0.12954602 -0.014371812 0.016645316
-0.043486755 0.03438699 0.049720507 -0.03234812 -0.12084907 -0.0011653982 -0.009888899 -0.035364445
0.020018695 -0.014995061 -0.07375919 -0.01820612 -0.006850023 0.031696834 -0.085518 -0.07112997
-0.022807168 0.094599575 -0.057417598 -0.09367184 -0.08017456 -0.094201826 -0.11500754 0.0324346
0.10319714 -0.0215766 -0.032727674 0.089016736 -0.0047967536 0.10944165 0.026617667 -0.04290995
-0.001019927 0.091125354 -0.041116945 -0.030122384 0.026034497 0.06112075 -0.10288601 0.026664702
0.054281775 0.10081165 0.09998784 0.04340154 -0.0050700116 -0.017914318 -0.06462139 -0.020017939
-0.054237317 0.087698795 0.037102237 0.05143432 0.09679101 0.054752395 0.11532447 -0.03245477

classifier.0.bias f4 [64]
00000000: fe4d 35bd 7de1 07bc b548 d23d 99b5 723d
00000010: 4fbf 01bb 9537 92bd 5232 efbc 6587 bb3c
00000020: d229 433d b474 7c3d 7bd9 9bbd 64cc 3cbd
00000030: 879f 5a3d 8e84 453d 96b6 5ebd 244d 993d
00000040: 8645 9c3d 0b8f 3bbd 1bd3 383d 43d8 97bd
00000050: 9898 8bbd e850 d2bd ab7c 9abd dd0c ab3d
00000060: 09d6 a33c 0987 29bd ee9c 52bd b801 bebc
00000070: 82c6 9aba e3cc eebc b17d b03d 50fb 863c
00000080: abb2 02bd 0027 343d 1057 a73d 329a 69bc
00000090: 36af 153a 635e 7fba aa4c 6e3d e506 94bd
000000a0: f683 4fbb 76c2 603d 242d a33d fdb2 92bc
000000b0: cff5 8ebd 640c a0bd 96cf 22bb 93db fdbc
000000c0: 9962 2abd 9b85 06bd a0a3 77bd 3692 09bd
000000d0: 4759 5eba b430 b13d dd0b 663b 5681 abbd
000000e0: b591 8fbd de4b 183d 199c 4fbd d899 4d3d
000000f0: d4ad 13bd 7cec 77bd 4a18 a9bc 4ed1 7dbd
-0.044263832 -0.008293507 0.10267774 0.059255216 -0.0019797867 -0.07139508 -0.0291988 0.02289171
0.047647305 0.061634734 -0.076098405 -0.04609336 0.053374793 0.048222117 -0.054373346 0.074854165
0.07630448 -0.045790713 0.0451232 -0.074142955 -0.06816214 -0.10269338 -0.0754331 0.08352063
0.01999952 -0.041388545 -0.05141919 -0.023194179 -0.0011808428 -0.029150432 0.08617724 0.016477257
-0.031908672 0.043982506 0.08170903 -0.014257954 0.00057100074 -0.0009741543 0.05817858 -0.072278775
-0.0031664348 0.054872952 0.07967594 -0.017907614 -0.06980478 -0.07814863 -0.002484297 -0.03098849
-0.041597936 -0.03284226 -0.06045878 -0.033586703 -0.0008481931 0.086518675 0.0035102286 -0.08374278
-0.07010213 0.037181728 -0.050685976 0.050195545 -0.036054447 -0.060528263 -0.020641465 -0.061967187

classifier.3.weight f4 [1, 64]
00000000: eb28 fb3d a754 30be 4b56 febd f35a ab3d
00000010: d04b 153d 657d 903e 5219 99bd cdec f53d
00000020: 4340 1b3e cc19 08be 02e1 033f 4dcf 18be
00000030: c7ef c4bd f3ab f83d 718c e43d 2a54 203e
00000040: f844 7fbd c792 eabd 5204 0c3e e56c acbd
00000050: 8219 1ebc ba2b 7bbc 8592 14be feaf 09be
00000060: 64be c5bd 959e 08be 9ad3 dc3d 89ba e33e
00000070: c3a2 8dbd 7dae 96be 777e a6bd 9578 df3d
00000080: 5a33 143e 5ea6 b1bd 21d8 ea3d c6d2 22be
00000090: 4fc0 cdbd 3e34 1dbe 3836 053e 61da 09be
000000a0: 28e7 b3bd b1ab 10be 020c fcbc a3a2 88bd
000000b0: 881d 0a3f 3948 d83d 3a5c c4bd 739c f6bd
000000c0: e6bc c2bd 5ae9 9e3d df57 42bc bda2 6f3b
000000d0: db8f b03d 6bc3 d43d baa4 fcbb 845f be3c
000000e0: a0bc f73b 5627 c5bd 8ede d039 3fc2 c2bd
000000f0: 0217 053e 3de1 e93d e3be d5bd 3a90 e23e
0.12263664 -0.17219792 -0.12418803 0.083669566 0.036449254 0.28220668 -0.074755326 0.12008057
0.15161233 -0.1329109 0.5151521 -0.14922829 -0.096160464 0.12142172 0.111595996 0.15657106
-0.062321633 -0.11453777 0.13673523 -0.084192075 -0.009649636 -0.015330249 -0.14509018 -0.13446042
-0.09655455 -0.13341744 0.10782547 0.44478253 -0.0691581 -0.2943 -0.0812959 0.10911671
0.14472714 -0.0867431 0.114670046 -0.15900716 -0.100464456 -0.1535196 0.13008964 -0.13462211
-0.08784324 -0.14127995 -0.030767445 -0.066716455 0.5395131 0.105606504 -0.09587903 -0.12041559
-0.09508686 0.07759352 -0.01186177 0.0036565505 0.08621188 0.103888355 -0.0077100666 0.023238905
0.0075603276 -0.09626643 0.00039838668 -0.09509706 0.12997058 0.11419914 -0.104367994 0.4425066

val_1 f4 [1, 32]
00000000: 097f 78bf 4253 b43e 8af1 c9be a135 20bf
00000010: 2555 bc3e 1aa5 7ebf 9322 043f 5992 293f
00000020: 13fd 483f 3fc3 283f e0c8 aebe c3b6 343d
00000030: c29a 5b3f b340 75bf b4b1 73bf 1ec2 2ebf
00000040: d7af ddbe 757f eb3e fca9 713f 1c6d 313f
00000050: afc5 213f 870a b1be bbfd 71bf 5f67 36bf
00000060: f115 5fbf 8ac9 393f bcd1 3a3f 8552 0c3f
00000070: af0f 2b3f 973e 7cbf 0810 683e 5b18 433f
-0.9706884 0.3521977 -0.39442092 -0.6258183 0.3678371 -0.99470675 0.51615256 0.66238934
0.7851116 0.6592292 -0.3413763 0.044119608 0.85783017 -0.9580185 -0.9519303 -0.6826495
-0.43298218 0.4599568 0.944 0.6930711 0.63192266 -0.34578344 -0.94527787 -0.7125148
-0.87142855 0.7257315 0.7297628 0.54813415 0.66820806 -0.98533005 0.22662365 0.7620904
