scripts/data/gru_real.pth (torch, 556663 bytes, 24 tensors)

page_embedding.weight f4 [4, 32]
0	0x00000000	0.0
1	0x00000000	0.0
2	0x00000000	0.0
3	0x00000000	0.0
4	0x00000000	0.0
5	0x00000000	0.0
6	0x00000000	0.0
7	0x00000000	0.0
8	0x00000000	0.0
9	0x00000000	0.0
10	0x00000000	0.0
11	0x00000000	0.0
12	0x00000000	0.0
13	0x00000000	0.0
14	0x00000000	0.0
15	0x00000000	0.0
16	0x00000000	0.0
17	0x00000000	0.0
18	0x00000000	0.0
19	0x00000000	0.0
20	0x00000000	0.0
21	0x00000000	0.0
22	0x00000000	0.0
23	0x00000000	0.0
24	0x00000000	0.0
25	0x00000000	0.0
26	0x00000000	0.0
27	0x00000000	0.0
28	0x00000000	0.0
29	0x00000000	0.0
30	0x00000000	0.0
31	0x00000000	0.0
32	0xbf070a37	-0.5274996
33	0x3f9b3774	1.2126298
34	0x3f701eda	0.93797076
35	0xbe451741	-0.19247152
36	0x3f009af7	0.5023646
37	0xbf91bbef	-1.1385478
38	0x3f657682	0.89633954
39	0x3d9e910b	0.077425085
40	0x3f145d12	0.57954514
41	0xbf05da9e	-0.5228671
42	0xbe65cda8	-0.22441733
43	0x3ec7f818	0.39056468
44	0x3f360f05	0.7111667
45	0xbecc2614	-0.398728
46	0xbfb84171	-1.4394971
47	0x3f6353eb	0.88799924
48	0xbe99bc73	-0.30026588
49	0x3e75fb61	0.24021675
50	0x3f6be742	0.92149746
51	0xbe007184	-0.12543303
52	0xbee690b1	-0.45032266
53	0x3f19599f	0.59902376
54	0xbebf8368	-0.37404943
55	0xbfd5ebec	-1.6712623
56	0xbf8bc394	-1.0919061
57	0xbf760db8	-0.96114683
58	0x3fecf45a	1.851207
59	0x3d492d80	0.049115658
60	0xbeab2ff0	-0.3343501
61	0x3e862bd2	0.26205307
62	0x3f508d0a	0.8146521
63	0xbcb474ae	-0.022028293
64	0x3e8b460a	0.27201873
65	0x3f086a83	0.53287524
66	0x3e18f571	0.14937378
67	0xbf7a3090	-0.9773035
68	0x3e1a4044	0.15063578
69	0xbfb81e9d	-1.4384342
70	0x3e78a549	0.24281801
71	0x3e869f72	0.26293522
72	0x3e4e0839	0.20120324
73	0xbcb1dd72	-0.021712039
74	0x3ef2208c	0.47290456
75	0xbf6ac5d3	-0.91708106
76	0x3f9ebe46	1.2401817
77	0xbed0f8b5	-0.40814748
78	0x3db7a66f	0.089672916
79	0x3f50fbb9	0.816341
80	0x3e17bd22	0.14818242
81	0x3e3c0008	0.18359387
82	0x3fc16a46	1.5110557
83	0x3fce4120	1.6113625
84	0x3d703302	0.058642395
85	0xc030f0cc	-2.764697
86	0x40119d8c	2.275241
87	0x3e9725f3	0.2952114
88	0xbf574cdf	-0.8410167
89	0xbe9f00ed	-0.31055394
90	0xbf37264d	-0.7154282
91	0x3d94713c	0.0724816
92	0xbfee0703	-1.859589
93	0xbf09bcb1	-0.53803545
94	0x3f4f850e	0.810624
95	0xbe86b98a	-0.2631343
96	0x3fa39a18	1.2781401
97	0x3f27ea21	0.6559163
98	0x3f8bc2b2	1.0918791
99	0x3edf31d6	0.4359271
100	0xbeb07b1c	-0.34468925
101	0xc0287be2	-2.6325612
102	0x3ff37159	1.9018966
103	0xbeb0b521	-0.3451319
104	0xbf0db88b	-0.55359715
105	0x3ce05aea	0.027387101
106	0xbfe6b417	-1.8023709
107	0x3f251601	0.644867
108	0x3ee40bd9	0.4454029
109	0x3fd53934	1.6658082
110	0xbdb59b3a	-0.08867498
111	0xbeb6f09a	-0.3573044
112	0x3fae09fa	1.3596795
113	0xbf345221	-0.7043782
114	0xbb8b4bd1	-0.0042509814
115	0xbf671e96	-0.90281045
116	0x3eab71d6	0.33485287
117	0x3ebf26b5	0.3733422
118	0xbeda5f71	-0.4265094
119	0x3efd1d02	0.49436194
120	0x3e71a733	0.23598938
121	0x3e985055	0.29748788
122	0x3fafc671	1.3732435
123	0x3ecd1aa6	0.40059394
124	0x3fbf1435	1.4928042
125	0xbcec0579	-0.028811203
126	0xbe37a979	-0.17935742
127	0xbff4deaa	-1.9130452

duration_proj.weight f4 [32, 1]
0	0xbf787f09	-0.9706884
1	0x3eb45342	0.3521977
2	0xbec9f18a	-0.39442092
3	0xbf2035a1	-0.6258183
4	0x3ebc5525	0.3678371
5	0xbf7ea51a	-0.99470675
6	0x3f042293	0.51615256
7	0x3f299259	0.66238934
8	0x3f48fd13	0.7851116
9	0x3f28c33f	0.6592292
10	0xbeaec8e0	-0.3413763
11	0x3d34b6c3	0.044119608
12	0x3f5b9ac2	0.85783017
13	0xbf7540b3	-0.9580185
14	0xbf73b1b4	-0.9519303
15	0xbf2ec21e	-0.6826495
16	0xbeddafd7	-0.43298218
17	0x3eeb7f75	0.4599568
18	0x3f71a9fc	0.944
19	0x3f316d1c	0.6930711
20	0x3f21c5af	0.63192266
21	0xbeb10a87	-0.34578344
22	0xbf71fdbb	-0.94527787
23	0xbf36675f	-0.7125148
24	0xbf5f15f1	-0.87142855
25	0x3f39c98a	0.7257315
26	0x3f3ad1bc	0.7297628
27	0x3f0c5285	0.54813415
28	0x3f2b0faf	0.66820806
29	0xbf7c3e97	-0.98533005
30	0x3e681008	0.22662365
31	0x3f43185b	0.7620904

duration_proj.bias f4 [32]
0	0x3e357ee8	0.17724192
1	0xbee0b364	-0.43886864
2	0x3ecafe52	0.39647156
3	0xbf55362d	-0.8328579
4	0x3e76784c	0.24069327
5	0x3f54c3b4	0.8311112
6	0xbea85248	-0.32875276
7	0x3f2c86f9	0.6739345
8	0x3db242bf	0.08704137
9	0xbe472190	-0.19446397
10	0xbef56f14	-0.47936308
11	0x3ea1f2fd	0.31630698
12	0xbf0dfcd5	-0.55463916
13	0xbede7a17	-0.43452522
14	0xbf093e0f	-0.5361032
15	0x3f3b24cd	0.7310303
16	0x3c4d1ce6	0.012519097
17	0x3f456745	0.771107
18	0x3e870c7c	0.26376712
19	0x3ec7efa3	0.39050016
20	0x3ef3ded2	0.47630936
21	0x3eeeeae9	0.46663597
22	0xbf48e5a6	-0.78475416
23	0xbebe47a6	-0.37164038
24	0x3ef4241e	0.47683805
25	0xbef4d0cf	-0.47815558
26	0xbf63c3ec	-0.8897083
27	0xbf0c5083	-0.5481035
28	0x3ecc4add	0.39900866
29	0x3deb60db	0.11493083
30	0xbe32bb92	-0.17454365
31	0x3c51820b	0.012787352

input_proj.weight f4 [64, 64]
0	0xbe0dbb94	-0.13841087
1	0x3d0e9831	0.03481311
2	0x3da14dc2	0.07876159
3	0xbdba3aa0	-0.09093213
4	0x3da81ed1	0.08209003
5	0xbd2836f2	-0.041068025
6	0xbce5f458	-0.028070614
7	0x3e137c26	0.14402828
8	0x3e3a79ed	0.18210573
9	0xbdb90a75	-0.09035198
10	0x3e4d562a	0.200524
11	0xbdae27cf	-0.08503687
12	0xbc50e800	-0.012750626
13	0xbe422583	-0.18959622
14	0x3cf76333	0.030198669
15	0x3e4f420c	0.20240039
16	0xbdf97f27	-0.121824555
17	0x3ce26842	0.027637605
18	0xbc739fe4	-0.014869664
19	0x3e2f42fc	0.17115396
20	0xbddf5983	-0.10905745
21	0x3dda1c85	0.10649971
22	0x3e0a554c	0.135091
23	0xbe0a39c8	-0.13498604
24	0xbd95490c	-0.07289323
25	0xbe5abc6b	-0.21360938
26	0xbd858b63	-0.065207265
27	0xbd0ff14b	-0.035142224
28	0xbe2ee524	-0.17079598
29	0xbbb9ad1b	-0.0056663877
30	0x3dcdff04	0.10058406
31	0x3e1e616a	0.15466848
32	0x3e82c4c0	0.25540733
33	0x3da0fa06	0.07860188
34	0xbad851b9	-0.0016503847
35	0x3dfacb66	0.122458264
36	0xba82b875	-0.0009973185
37	0xbd4940a3	-0.049133908
38	0xbe1fefb1	-0.15618779
39	0x3d94c3f5	0.07263938
40	0xbdc26853	-0.094925545
41	0xbe4ce999	-0.20010985
42	0x3db21b1c	0.08696577
43	0x3c83e858	0.016102001
44	0xbe15149d	-0.14558645
45	0xbd99b3ea	-0.07505019
46	0xbd8612d3	-0.06546559
47	0x3de6a4d8	0.1126191
48	0x3e0c01ce	0.13672563
49	0x3dab8290	0.08374512
50	0xbe1125c3	-0.14174561
51	0x3d2ba499	0.04190502
52	0x3d0b8102	0.03405858
53	0x3c61df46	0.013786143
54	0xbda32e4a	-0.07967813
55	0x3d58c553	0.052922558
56	0x3e20033e	0.15626237
57	0x3d8d1267	0.068882756
58	0x3c338902	0.010957958
59	0xbd378231	-0.044801895
60	0x3d76253a	0.060094096
61	0x3e6580da	0.22412434
62	0xbdd27dad	-0.10277877
63	0xbc354d5e	-0.011065809
64	0x3e3f8fd3	0.18707208
65	0xbcdc6a50	-0.026906163
66	0xbd12d181	-0.03584433
67	0x3e4765c7	0.19472419
68	0xbda088fa	-0.07838626
69	0x3c5a4602	0.013322355
70	0x3e2116e2	0.15731385
71	0xbe054172	-0.13013247
72	0xbdd3d534	-0.103434
73	0x3e1fd51b	0.15608637
74	0xbe220892	-0.15823582
75	0x3de5c945	0.1122003
76	0xbd913b7b	-0.07091423
77	0x3dab0cbb	0.083520375
78	0xbd770004	-0.06030275
79	0xbe2ab04c	-0.16668814
80	0x3d05c990	0.032662928
81	0xbdb5121c	-0.08841345
82	0xbe047cff	-0.12938307
83	0xbdf18497	-0.11792868
84	0x3d4e2307	0.050326373
85	0x3dd8f47e	0.10593508
86	0xbda7b058	-0.08187932
87	0x3dedf0a4	0.11618164
88	0x3be907bb	0.0071115172
89	0x3c47f156	0.012203535
90	0x3d4d7adc	0.050165996
91	0x3dc0dc08	0.09416968
92	0x3e0cc51e	0.13747069
93	0x3dcdacac	0.100427
94	0x3ad7d0e6	0.0016465455
95	0xbc9325b8	-0.017962322
96	0xbe0ed3ad	-0.13947935
97	0xbdba7571	-0.091044314
98	0xbdbd0325	-0.092291154
99	0x3d9ba2af	0.07599389
100	0xbda20e5d	-0.07912896
101	0x3aa5cb87	0.0012649157
102	0xbd430c2b	-0.047619026
103	0x3da1c655	0.07899157
104	0xbd9aab41	-0.07552195
105	0x3d43d36f	0.04780906
106	0xbde8d04b	-0.11367854
107	0xbdc4ba9f	-0.09605908
108	0xbc54b1d5	-0.012981852
109	0xbce58bad	-0.028020704
110	0xbdb55c62	-0.08855511
111	0xbd1426f4	-0.03616996
112	0xbc8286f1	-0.015933486
113	0xbd6f9306	-0.05848982
114	0x3dcde66d	0.10053716
115	0x3c975bf5	0.018476466
116	0xbdb6dce7	-0.089288525
117	0xbd2b1a34	-0.041773036
118	0xbc4b2e48	-0.012401171
119	0xbe0a5ee7	-0.13512765
120	0x3d611abe	0.054957144
121	0x3c21b76f	0.009870394
122	0x3d118abe	0.035532705
123	0xbdd4c75b	-0.103895865
124	0xbd152809	-0.036415134
125	0xbe20ffb2	-0.1572254
126	0xbd610838	-0.05493948
127	0x3d8f8970	0.07008636
128	0xbd96f1a1	-0.07370306
129	0xbd5ccd1d	-0.05390655
130	0x3d476522	0.048680432
131	0x3d0097a2	0.03139461
132	0xbd977b3b	-0.07396551
133	0x3de06030	0.10955846
134	0x3badc91e	0.005303516
135	0xbc25e18e	-0.010124577
136	0xbd88b816	-0.066757366
137	0xbdcfb27b	-0.10141464
138	0xbd2952a9	-0.041338596
139	0x3d46fa81	0.048578743
140	0xbd9fddc9	-0.07805974
141	0x3ce88c7c	0.0283873
142	0xbd741fc4	-0.059600607
143	0x3dd13e10	0.102169156
144	0xbdca0f55	-0.098662056
145	0x3c13a09d	0.009010461
146	0xbd9ad200	-0.075595856
147	0xbdfdb8a1	-0.12388731
148	0x3d9df9b4	0.07713643
149	0x3e1566a3	0.14589934
150	0xbd380ac4	-0.044932142
151	0xbd77f452	-0.060535736
152	0xbc5e0c3d	-0.0135527225
153	0xbd8b168f	-0.06791412
154	0x3d8b6a66	0.06807403
155	0x3d90b50e	0.070657834
156	0x3da0d2b1	0.07852686
157	0xbd145378	-0.036212415
158	0xbd85c69a	-0.06532021
159	0x3db43630	0.08799398
160	0x3d6374c8	0.055531293
161	0xbcc99a42	-0.024609689
162	0xbd519807	-0.051170375
163	0xbd8e0944	-0.06935361
164	0xbbd6f9a0	-0.0065605193
165	0x3c97fbcd	0.018552685
166	0x3d162245	0.036653776
167	0x3df6761d	0.12034247
168	0x3d3c07d7	0.045905914
169	0x3b903352	0.004400649
170	0xbca38dbf	-0.01996505
171	0xbd5de158	-0.054169983
172	0x3df918bc	0.12162921
173	0x3ce3cfab	0.027808985
174	0x3cfaf9ed	0.030636752
175	0x3db22e67	0.08700257
176	0x3c8752c2	0.016518954
177	0x3dba4bdb	0.090964995
178	0x3cea8fcb	0.028633019
179	0x3e034dd0	0.12822652
180	0x3c06cd57	0.008227668
181	0xbcb7aab5	-0.022420267
182	0x3d56a6da	0.052405216
183	0xbe06b8fa	-0.131565
184	0xbd0a43eb	-0.033756178
185	0xbd02adbb	-0.031903964
186	0xbdded04b	-0.108795725
187	0x3d8fb054	0.07016054
188	0xbbf3b06c	-0.0074368026
189	0xbb0715f2	-0.0020612446
190	0x3df6f1b0	0.12057817
191	0x3c63ef61	0.013912053
192	0xbd560648	-0.052252084
193	0x3de99720	0.11405778
194	0x3dfaec22	0.1225207
195	0xbd02ad03	-0.031903278
196	0xbd9a1493	-0.075234555
197	0xbd2c6cf9	-0.042096112
198	0xbd9102f6	-0.07080643
199	0xbde70b5b	-0.11281463
200	0x3db05ee0	0.08611846
201	0x3b796308	0.0038053412
202	0xbe14135c	-0.1446051
203	0xbd259b75	-0.04043146
204	0x3cc1869a	0.023623753
205	0x3ddba9ca	0.10725744
206	0x396f7091	0.0002283475
207	0xbdbbd389	-0.091712065
208	0xbd5107cc	-0.051032826
209	0x3ddce257	0.107853584
210	0x3db0c14b	0.08630618
211	0xbd097ee2	-0.03356827
212	0xbe1a892c	-0.1509139
213	0x3d5978bd	0.05309366
214	0xba84a8ce	-0.0010121108
215	0xbce874a2	-0.028375927
216	0xbd535dbc	-0.051603064
217	0xbdbc540b	-0.091957174
218	0x3cf75cea	0.030195672
219	0x3d8e33fd	0.0694351
220	0x3e04e106	0.12976465
221	0xbbe1caf5	-0.0068906494
222	0x3dd2734d	0.10275898
223	0xbde742a0	-0.112920046
224	0x3c152b8b	0.00910462
225	0x3d9ded22	0.07711245
226	0xbde4f9df	-0.11180472
227	0x3defbe7d	0.11706255
228	0xbe23bb46	-0.15989408
229	0xbd925808	-0.07145697
230	0x3d696030	0.056976497
231	0xbc28616e	-0.010277135
232	0x3d1cc28a	0.038271464
233	0xbdd13c72	-0.10216607
234	0x3c35fb48	0.011107273
235	0x3d8d229a	0.06891365
236	0x3d477495	0.048695166
237	0xbc7e2969	-0.015512803
238	0x3d81d04f	0.0633856
239	0xbcfd074c	-0.030887268
240	0x3d9a4deb	0.07534393
241	0x3c73ea48	0.0148874
242	0xbe0ed671	-0.1394899
243	0xbd7f13a0	-0.062274575
244	0x3d5ab338	0.053393573
245	0xbd1e68f1	-0.0386743
246	0x3e1517a3	0.14559798
247	0xbd2c78d8	-0.042107433
248	0x3db27305	0.087133445
249	0xbddc51c2	-0.107577816
250	0x3d6226b8	0.055212706
251	0x3ddc167d	0.10746477
252	0xbd06f5da	-0.032949306
253	0x3da8b51b	0.08237668
254	0xbd5af889	-0.053459678
255	0xbd8cf055	-0.06881777

input_proj.bias f4 [64]
0	0xbdd1239f	-0.10211872
1	0xbd8760a9	-0.06610233
2	0xbd57ed47	-0.05271652
3	0xbe180e5b	-0.14849226
4	0xbdc0ad1e	-0.094080195
5	0x3e04a7b6	0.12954602
6	0xbc6b77c0	-0.014371812
7	0x3c885bc2	0.016645316
8	0xbd321f2b	-0.043486755
9	0x3d0cd95f	0.03438699
10	0x3d4ba7bb	0.049720507
11	0xbd047f76	-0.03234812
12	0xbdf77fb8	-0.12084907
13	0xba98c046	-0.0011653982
14	0xbc22050c	-0.009888899
15	0xbd10da4f	-0.035364445
16	0x3ca3fe3f	0.020018695
17	0xbc75add8	-0.014995061
18	0xbd970f0f	-0.07375919
19	0xbc952500	-0.01820612
20	0xbbe07628	-0.006850023
21	0x3d01d48a	0.031696834
22	0xbdaf2410	-0.085518
23	0xbd91ac97	-0.07112997
24	0xbcbad619	-0.022807168
25	0x3dc1bd6c	0.094599575
26	0xbd6b2eb7	-0.057417598
27	0xbdbfd706	-0.09367184
28	0xbda4328f	-0.08017456
29	0xbdc0ece3	-0.094201826
30	0xbdeb8913	-0.11500754
31	0x3d04da25	0.0324346
32	0x3dd35906	0.10319714
33	0xbcb0c169	-0.0215766
34	0xbd060d74	-0.032727674
35	0x3db64e68	0.089016736
36	0xbb9d2e16	-0.0047967536
37	0x3de022f2	0.10944165
38	0x3cda0d4b	0.026617667
39	0xbd2fc258	-0.04290995
40	0xba85af12	-0.001019927
41	0x3dba9fee	0.091125354
42	0xbd286a3e	-0.041116945
43	0xbcf6c338	-0.030122384
44	0x3cd5464c	0.026034497
45	0x3d7a59c0	0.06112075
46	0xbdd2b5e7	-0.10288601
47	0x3cda6fef	0.026664702
48	0x3d5e5691	0.054281775
49	0x3dce7657	0.10081165
50	0x3dccc66d	0.09998784
51	0x3d31c5d0	0.04340154
52	0xbba62257	-0.0050700116
53	0xbc92c10c	-0.017914318
54	0xbd845838	-0.06462139
55	0xbca3fca9	-0.020017939
56	0xbd5e27f3	-0.054237317
57	0x3db39b6d	0.087698795
58	0x3d17f884	0.037102237
59	0x3d52accb	0.05143432
60	0x3dc63a5d	0.09679101
61	0x3d60440c	0.054752395
62	0x3dec2f3c	0.11532447
63	0xbd04ef4b	-0.03245477

gru.weight_ih_l0 f4 [192, 64]
0	0x3d01c3fb	0.031681042
1	0x3bf7b32e	0.0075592017
2	0x3e278c55	0.16362126
3	0x3e428786	0.1899701
4	0xbdc6a1bc	-0.09698817
5	0xbd53f030	-0.051742733
6	0x3dfa2522	0.12214114
7	0x3d2f4d97	0.042798605
8	0x3e21cdfb	0.15801232
9	0x3e5ec5b8	0.21755111
10	0xbd9730bd	-0.07382343
11	0xbe2f0e08	-0.17095196
12	0x3e7ac6ca	0.24489895
13	0xbd372d0e	-0.044720702
14	0x3ca6b6ac	0.020350777
15	0x3dcc984c	0.09989986
16	0x3cf0d5df	0.029398857
17	0x39220cc8	0.00015454285
18	0x3b70223e	0.0036641504
19	0xbdc0cc40	-0.094139576
20	0xbd179513	-0.037007403
21	0xbdf9a475	-0.12189571
22	0x3c08186b	0.008306603
23	0x3e341759	0.17587031
24	0x3d775805	0.060386676
25	0xbe3ede8b	-0.18639581
26	0xbc75cc95	-0.015002389
27	0xbda4771e	-0.08030532
28	0x3d1a7479	0.037708733
29	0x3daa8368	0.08325845
30	0x3dcfdc0d	0.10149393
31	0x3dc2c02d	0.09509311
32	0xbd5188c7	-0.05115583
33	0x3d1c5d3c	0.038174853
34	0x3df56fbd	0.11984203
35	0xbd5fd86e	-0.054649763
36	0xbc3be80d	-0.011468899
37	0xbd3f4de0	-0.046705127
38	0x3c9874e0	0.018610418
39	0x3d0c9a11	0.034326617
40	0xbe035837	-0.1282662
41	0xbbbaf4fd	-0.0057054744
42	0x3d452e75	0.048140008
43	0x3e0e99b1	0.13925816
44	0xbbda4e52	-0.0066621685
45	0x3ae03730	0.0017106291
46	0x3d0a669e	0.03378927
47	0x3dfd481c	0.123672694
48	0xbd70e7b5	-0.058814723
49	0xbbf1cf05	-0.007379415
50	0xbd60d922	-0.054894574
51	0x3cd2d065	0.025734136
52	0x3e10d9ca	0.1414558
53	0x3b1ca2a6	0.0023900657
54	0xbd729e79	-0.059233163
55	0x3d199e1a	0.037504293
56	0xbcd85d16	-0.026411574
57	0xbbc2a690	-0.005940266
58	0xbe0fe0be	-0.14050576
59	0x3e42d1f6	0.19025406
60	0x3d1e105f	0.03858983
61	0x3e0dd0a4	0.13849121
62	0x3c784857	0.015153966
63	0x3c87a9bc	0.016560428
64	0x3c541020	0.012943298
65	0xbd4a9191	-0.04945523
66	0x3d8afc60	0.06786418
67	0xbe065d15	-0.13121445
68	0xbd6c41a3	-0.057679784
69	0xbdee08d9	-0.11622781
70	0xbe1c3b87	-0.15257083
71	0xbe090195	-0.1337951
72	0xbe3dc51e	-0.18532225
73	0xbd9a931f	-0.07547592
74	0xbdec8765	-0.11549262
75	0x3e0e64b8	0.13905609
76	0xbd625a06	-0.055261634
77	0xbcc35cec	-0.02384802
78	0x3dd4b4e2	0.10386063
79	0xbe10a120	-0.14123964
80	0x3df80b26	0.121115014
81	0xbd090c5f	-0.033459064
82	0xbd09eca5	-0.033672947
83	0xbae434c5	-0.0017410746
84	0xbdb4de3d	-0.08831451
85	0x3d0543b3	0.032535266
86	0x3d807056	0.062714264
87	0xbd3a3128	-0.045457035
88	0x3e12e9dd	0.14347024
89	0xbd463e60	-0.04839933
90	0xbbf1dd11	-0.0073810895
91	0xbd7d9ab3	-0.06191511
92	0xbd4b2ebf	-0.049605127
93	0x3df165ae	0.11786972
94	0x3cc4f3f6	0.02404211
95	0xbd985b07	-0.07439237
96	0xbd0d12f5	-0.034441907
97	0x3d176df1	0.036970083
98	0xbd565cff	-0.05233478
99	0x3dd0873a	0.101820424
100	0x3d4a5ba5	0.049403805
101	0xbdadaa31	-0.08479727
102	0xbccc466e	-0.024935927
103	0xbd34a364	-0.044101134
104	0xbdc5ba92	-0.09654726
105	0xbc644875	-0.013933291
106	0x3cbb985d	0.0228998
107	0xbb0b5ff1	-0.0021266902
108	0x3dbb27d1	0.09138454
109	0xbde01d7b	-0.10943123
110	0xbe11d955	-0.14243062
111	0xbd8f8324	-0.07007435
112	0x3d952c7c	0.07283875
113	0xbc1c782c	-0.009550136
114	0xb82c41b6	-4.1069194e-05
115	0x3d986d62	0.07442738
116	0xbd75a985	-0.05997612
117	0x3d548095	0.051880438
118	0xbacb23f6	-0.0015498388
119	0x3cf6d7f3	0.03013227
120	0x3ce746b7	0.028231962
121	0x3d2d1d83	0.042264473
122	0xbded306b	-0.115815006
123	0xbd845a83	-0.06462576
124	0xbc10d8ef	-0.0088407835
125	0x3e0794b4	0.1324032
126	0x3d6d2ffe	0.057907097
127	0x3c9ea9f5	0.019368151
128	0x3d2f3b73	0.042781305
129	0xbe004f07	-0.12530147
130	0x3c54f800	0.012998581
131	0xbd1215d4	-0.03566535
132	0x3dc47c67	0.0959404
133	0x3dfa2a5c	0.12215111
134	0xbd12d125	-0.035843987
135	0xbda462de	-0.0802667
136	0xbdcc0d14	-0.09963432
137	0xbea232ce	-0.31679386
138	0x3d57312d	0.052537132
139	0xbd4b60bb	-0.049652796
140	0xbe4833ad	-0.19550963
141	0x3dcb0553	0.09913125
142	0x3e13533b	0.14387219
143	0xbcae63fe	-0.021287914
144	0x3ea2c5f3	0.31791648
145	0x3dd6d36e	0.10489546
146	0x3d0317ff	0.032005306
147	0x3d6b99f3	0.057519864
148	0xbcd4ff12	-0.026000533
149	0xbcb7b844	-0.022426732
150	0x3d7b3f7a	0.061339833
151	0xbe8aa469	-0.2707856
152	0x3da72364	0.08161047
153	0x3e1f774a	0.15572849
154	0x3c0f7e55	0.008758147
155	0x3d027afa	0.03185556
156	0xbe538114	-0.20654708
157	0x3dca2c7e	0.098717675
158	0xbedccd28	-0.43125272
159	0x3d2aaf12	0.041670866
160	0x3e021ccd	0.12706299
161	0x3c980f4e	0.018561985
162	0xbc9e5ff6	-0.019332867
163	0x3e14502a	0.14483705
164	0xbd84ee4e	-0.064907655
165	0x3e270726	0.1631132
166	0x3e0e0b08	0.13871396
167	0xbe5fe9e6	-0.21866569
168	0x3d44b6d9	0.04802594
169	0x3e39a1fa	0.18128195
170	0xbda51afe	-0.08061789
171	0xbd9e03ea	-0.0771559
172	0x3e31dbab	0.17368953
173	0xb9a2917a	-0.00031007436
174	0xbe2206b4	-0.1582287
175	0x3d921b04	0.07134059
176	0xbde1f85f	-0.11033701
177	0x3df874f6	0.121316835
178	0x3e8124ac	0.2522329
179	0xbe15cc70	-0.14628768
180	0xbe104553	-0.14088945
181	0x3c887c2b	0.01666077
182	0xbe40256a	-0.18764272
183	0xbc9e890b	-0.019352457
184	0xbd8b963e	-0.06815766
185	0x3d4ad4d7	0.049519386
186	0x3d6149cf	0.05500203
187	0xbe09ab37	-0.1344422
188	0x3e457e18	0.19286382
189	0x3e7f2c66	0.2491928
190	0x3e114453	0.1418622
191	0xbe07fd03	-0.1328011
192	0x3df3368d	0.11875639
193	0xbdeef949	-0.11668641
194	0x3d2893d3	0.0411566
195	0xbd88ee20	-0.06686044
196	0x3cab8a33	0.020939922
197	0xbc61b46d	-0.013775927
198	0x3d8aa60c	0.06769952
199	0xbe11a175	-0.14221747
200	0xbddf8268	-0.10913545
201	0xbe16f99b	-0.14743654
202	0xbd71e95b	-0.059060436
203	0x3d0d4e22	0.03449834
204	0x3c1abc8e	0.009444369
205	0xbdfd1b39	-0.12358708
206	0xbc811a36	-0.015759569
207	0x3dc141d7	0.09436386
208	0x3d853d32	0.06505813
209	0xbdcae324	-0.09906605
210	0x3c1f8649	0.009736606
211	0x3c141c2f	0.009039923
212	0x3d8c4eee	0.06850992
213	0xbc8cdb6a	-0.017194469
214	0xbde20a80	-0.11037159
215	0xbdf4d8f3	-0.11955442
216	0x3d80807d	0.06274507
217	0xba1fbf1a	-0.0006093845
218	0x3d6e7b05	0.05822279
219	0xbd94ed6c	-0.07271847
220	0x3c46b094	0.01212706
221	0xbdd78393	-0.10523143
222	0xbc9e1d84	-0.019301184
223	0x3dbbfd00	0.09179115
224	0xbdb92584	-0.09040359
225	0x38e51512	0.000109234956
226	0xbd3e7f93	-0.046508383
227	0xbc53479d	-0.012895492
228	0x3cdaad98	0.026694104
229	0xbd613217	-0.05497941
230	0x3d3290b9	0.04359505
231	0x3d99dbf4	0.07512656
232	0xbc05f381	-0.008175732
233	0x3d2519a8	0.04030767
234	0x3ce62a18	0.028096244
235	0x3d573120	0.052537084
236	0xbe069f6c	-0.13146752
237	0x3c8975f9	0.016779887
238	0xbd2f5162	-0.042802222
239	0x3c74059e	0.014893917
240	0x3c80174d	0.01563611
241	0xbd008ff9	-0.031387303
242	0xbd4c25c0	-0.04984069
243	0xbc086bd8	-0.008326493
244	0x3d56f119	0.052476022
245	0xbd5b3f97	-0.05352744
246	0x3ce0158c	0.027354024
247	0xbda966d3	-0.08271565
248	0xbc710e12	-0.014712827
249	0x3da73ebb	0.08166262
250	0x3da61bd8	0.081107795
251	0xbb82d210	-0.0039923266
252	0xbd94dc48	-0.07268578
253	0xbda02659	-0.07819814
254	0xbd750ea5	-0.05982842
255	0xbcb98326	-0.022645544

gru.weight_hh_l0 f4 [192, 64]
0	0x3e0f028a	0.13965812
1	0x3db262ef	0.08710276
2	0xbda51e26	-0.08062391
3	0xbcf36c33	-0.02971468
4	0xbe09cea2	-0.1345773
5	0x3d3d6858	0.046242088
6	0xbcd0ee38	-0.025504217
7	0xbdc23760	-0.09483218
8	0x3c389aad	0.011267346
9	0xbd5c8b4b	-0.053843778
10	0x3d8d2361	0.068915136
11	0xbd20ae98	-0.039229006
12	0x3d551310	0.052020133
13	0x3c7b1379	0.015324467
14	0xbe337e97	-0.17528759
15	0xbd87f642	-0.06638767
16	0xbca3ef5b	-0.020011595
17	0xbce0a893	-0.027424132
18	0xbb3cae52	-0.0028790426
19	0xbe18dd18	-0.1492809
20	0xbe133957	-0.14377342
21	0x3c5392ca	0.012913415
22	0xbe1f1096	-0.15533671
23	0x3de9024e	0.11377393
24	0xbd86091f	-0.065447085
25	0x3c8ba60b	0.017046949
26	0x3c12fd7e	0.00897157
27	0x3debfe55	0.11523119
28	0x3e49c5fa	0.19704428
29	0x3d905a66	0.07048492
30	0x3e511a73	0.20420246
31	0xbdcc4362	-0.0997379
32	0x3b6647d2	0.0035138023
33	0x3d962b75	0.073325075
34	0x3ca48733	0.020084
35	0x3cc3850e	0.023867156
36	0xbd9e95a1	-0.07743383
37	0x3c9658a4	0.018352814
38	0x3e3b1935	0.18271334
39	0x3e19744b	0.14985768
40	0xbcef1b02	-0.029187683
41	0x3ea797e0	0.3273306
42	0x3d1952e2	0.03743256
43	0xbdb819ae	-0.08989273
44	0x3d48b50b	0.04900078
45	0x3e08ce9c	0.13360065
46	0xbe070221	-0.13184406
47	0x3d31050a	0.043217696
48	0xbe1bfa05	-0.15232094
49	0x3e1ce7ff	0.15322874
50	0x3d70d16f	0.05879348
51	0x3dae7d74	0.08520022
52	0x3d8635e8	0.065532506
53	0x3e1c703a	0.15277186
54	0x3dc0fc80	0.094231606
55	0x3dc9199b	0.09819337
56	0xbe1b3b5e	-0.15159366
57	0xbae72395	-0.0017634506
58	0xbc5b7167	-0.013393736
59	0xbd49adfe	-0.049238198
60	0xbdfed6a9	-0.12443287
61	0xbc5940a7	-0.013260043
62	0x3d7d73f8	0.061878175
63	0x3d890ae0	0.06691527
64	0x3c3a2167	0.011360503
65	0xbd9125b5	-0.0708727
66	0xbdafcd7a	-0.085841134
67	0xbd0d94ee	-0.03456586
68	0xbd3a27ff	-0.0454483
69	0x3e041361	0.12898017
70	0x3d9d15a9	0.07670147
71	0x3d73a1c8	0.05948046
72	0xbdf14176	-0.11780064
73	0x3d7d4ae6	0.061839007
74	0xbde6deae	-0.112729415
75	0x3dd31ae9	0.10307867
76	0xbd699190	-0.057023585
77	0xbd213ae0	-0.03936279
78	0xbb21a8f8	-0.0024667364
79	0xbc85b0a1	-0.016319575
80	0x3dfc6be6	0.123252675
81	0xbdb93f3f	-0.09045266
82	0xbd835ba7	-0.06413966
83	0x3d89b927	0.06724768
84	0x3e3cdc81	0.1844349
85	0xbd1a5dc0	-0.037687063
86	0x3e74927c	0.23884004
87	0xbdd31569	-0.10306818
88	0x3e19de97	0.15026318
89	0x3db9d78c	0.090743154
90	0x3c1e51fe	0.009663103
91	0x3dc0567d	0.09391496
92	0xbd294bb8	-0.041331977
93	0xbe12bb12	-0.14329174
94	0xbd59f481	-0.053211693
95	0x3e5074fd	0.20357127
96	0x3dd932e8	0.10605413
97	0x3d1cd493	0.038288664
98	0x3e35e53f	0.17763232
99	0xbe15ee98	-0.14641798
100	0x3e6a8794	0.22903281
101	0x3dac50ba	0.08413835
102	0xbd2469c6	-0.040139936
103	0xbd5764aa	-0.052586235
104	0xbd79770f	-0.06090456
105	0x3d78f23d	0.06077789
106	0xbe0a82c0	-0.1352644
107	0xbe0860bc	-0.13318151
108	0xbdba8a38	-0.091083944
109	0x3d69623f	0.05697846
110	0x3e365acb	0.17808072
111	0xbd01906e	-0.03163188
112	0x3dc5c9a7	0.09657603
113	0xb935abcc	-0.00017325504
114	0xbde38e4e	-0.11111127
115	0xbceae525	-0.028673718
116	0xbba67942	-0.005080373
117	0xbd0f6a8a	-0.035013713
118	0xbc772dba	-0.015086586
119	0xbe2b477a	-0.16726485
120	0x3e0e79c6	0.1391364
121	0xbe13959a	-0.14412537
122	0xbd3996ab	-0.045309704
123	0x3de5481f	0.11195397
124	0x3a856ea4	0.0010180068
125	0xbcb968f6	-0.022633057
126	0xbd92820f	-0.07153713
127	0x3e2cde10	0.16881585
128	0x3d259893	0.04042871
129	0xbcda3719	-0.0266376
130	0x3e0ce006	0.13757333
131	0xbd2ba82e	-0.041908436
132	0xbd6c067f	-0.057623383
133	0x3d1e4f6c	0.03864996
134	0xbe322664	-0.17397457
135	0x3c3219bd	0.010870394
136	0xbd4b1cb2	-0.049587913
137	0x3ba89428	0.0051446147
138	0x3e0947f2	0.13406351
139	0xbd0e1b45	-0.034693975
140	0xbcc716bc	-0.024302833
141	0xbe116c78	-0.14201534
142	0xbdd03fc5	-0.10168413
143	0xbde112a5	-0.10989884
144	0x3d01706f	0.031601366
145	0xbd0857e9	-0.033286963
146	0x3dc664ba	0.09687181
147	0x3cb17cf2	0.021666024
148	0xbda0e4bb	-0.07856127
149	0xbd5e8590	-0.054326594
150	0xbcfa627b	-0.030564537
151	0xbca18cf5	-0.019720534
152	0xbd92b662	-0.07163693
153	0xbd122805	-0.035682697
154	0xbd635427	-0.055500176
155	0xbd8a5676	-0.06754772
156	0xbe171680	-0.14754677
157	0x3e0e2220	0.13880205
158	0x3e05cc8b	0.13066308
159	0x3c437e8b	0.011932026
160	0xbd8648d7	-0.06556862
161	0xbd145c4e	-0.03622084
162	0x3d0bc51e	0.034123532
163	0x3e157057	0.14593635
164	0xbd10e0f7	-0.035370793
165	0xbd4d804d	-0.050171185
166	0x3d240923	0.040047776
167	0xbca7be81	-0.020476582
168	0x3d4eddca	0.050504483
169	0xbca28afc	-0.019841664
170	0x3db5c39b	0.088751994
171	0x3dbf5ac5	0.09343485
172	0x3df32a14	0.1187326
173	0x3d66a98f	0.056314047
174	0xbd8aed98	-0.06783599
175	0xbe14267d	-0.14467807
176	0x3c063803	0.008192065
177	0x3a553c7d	0.00081343186
178	0x3d362e7b	0.04447792
179	0x3d4d66b4	0.050146773
180	0xbb78d902	-0.0037971144
181	0xbd07fbd8	-0.03319916
182	0x3d0a14dd	0.033711303
183	0x3ce4ee56	0.027945679
184	0xbddae1a5	-0.106875695
185	0xbd06f701	-0.032950405
186	0xbb2947d4	-0.0025830166
187	0xbd8c3924	-0.06846836
188	0x3d212cf8	0.039349526
189	0xbd7bb31e	-0.061450116
190	0x3d4db2c0	0.050219297
191	0xbc4a8269	-0.012360194
192	0x3e0805e5	0.13283499
193	0xbd5e4324	-0.05426325
194	0xbd8cce5d	-0.06875298
195	0xbcb42e18	-0.021994635
196	0xbd7dd275	-0.061968286
197	0x3e225845	0.15853985
198	0xbdf4ba6d	-0.119496204
199	0x3d0e1d3d	0.034695853
200	0x3d3c3cbe	0.045956366
201	0xbd521880	-0.051292896
202	0xbdccf413	-0.10007491
203	0x3d56c8fb	0.052437764
204	0xbe092a88	-0.1339513
205	0xbd13f10a	-0.036118545
206	0x3d8ec77b	0.06971642
207	0x3dddddde	0.108333334
208	0xbdd27f94	-0.1027824
209	0xbcd40793	-0.025882518
210	0xbe07690d	-0.13223667
211	0xbdbb7d29	-0.09154732
212	0xbc003718	-0.007825635
213	0xbd93f564	-0.07224539
214	0xbcd24c73	-0.02567122
215	0xbc0dce2f	-0.008655115
216	0x3d690d1f	0.05689728
217	0x3cd70a67	0.026250077
218	0x3d4af1c2	0.049546964
219	0x3e107e61	0.1411071
220	0xbc562d34	-0.013072301
221	0xbdf846d7	-0.12122887
222	0x3ca2d66f	0.01987764
223	0x3dd083cd	0.10181389
224	0xbd1b397f	-0.03789663
225	0xbc07f5e8	-0.008298375
226	0x3cd1051d	0.025515134
227	0xbe0b4d97	-0.13603817
228	0xbd830a2a	-0.06398423
229	0x3e4e4226	0.20142421
230	0x3d8c1932	0.06840743
231	0x3d812ad2	0.063069955
232	0xbe5fd2e9	-0.218578
233	0xbcc715ad	-0.024302328
234	0x3cc53d61	0.02407712
235	0xbd955699	-0.07291908
236	0xbd43bfee	-0.04779046
237	0x3cc9e9ae	0.02464756
238	0xbcb2b20e	-0.021813419
239	0xbcf8eac6	-0.030385386
240	0xbba144e5	-0.004921543
241	0xbc1de057	-0.009636006
242	0xbdb6ee4c	-0.0893217
243	0xbdbaa7bc	-0.09114024
244	0xbd08b891	-0.03337914
245	0xbc61d023	-0.013782534
246	0xbdc549eb	-0.09633239
247	0x3da5f87e	0.08104037
248	0x3e4df6b3	0.2011364
249	0xbc2bfa76	-0.010496726
250	0x3d370d55	0.04469045
251	0x3dd5eacf	0.10445177
252	0xbced2664	-0.02894897
253	0x3d928da0	0.07155919
254	0x3dfd4139	0.12365956
255	0x3df8a9c2	0.12141754

gru.bias_ih_l0 f4 [192]
0	0x3da0951b	0.078409396
1	0xbd8570cd	-0.06515656
2	0x3dc67f4c	0.09692249
3	0x399a89fb	0.00029475972
4	0xbd2eb563	-0.042653453
5	0x3d5fc4e1	0.054631118
6	0x3db0e0d8	0.086366355
7	0x3cd76b5f	0.026296316
8	0x3bbf38e8	0.005835641
9	0x3d42a665	0.047521967
10	0xbe08dc61	-0.13365318
11	0x3dc05a2a	0.093921974
12	0x3e2b33a6	0.16718921
13	0x3cae86f2	0.021304581
14	0xbdc482ee	-0.09595285
15	0x3d2342e6	0.03985872
16	0xbdc9fbd9	-0.09862489
17	0xbcabd974	-0.020977713
18	0xbe1fbfe5	-0.15600546
19	0xbd9f029b	-0.07764169
20	0x3e1a623b	0.15076534
21	0xbda48d7e	-0.080348
22	0xbd093a50	-0.033502877
23	0x3e01ab99	0.12663116
24	0x3e0d5742	0.13802817
25	0xbdac990d	-0.084276296
26	0xb9ba1585	-0.00035492718
27	0x3d8611c7	0.065463595
28	0x3e10c34b	0.14136998
29	0xbd407bcb	-0.04699306
30	0xbe066d08	-0.1312753
31	0xbdad874d	-0.08473072
32	0xbe20b82a	-0.15695253
33	0xbd8a7888	-0.06761271
34	0x3e073a0b	0.13205735
35	0x3da70da0	0.08156896
36	0xbb82d473	-0.003992611
37	0xbdf59701	-0.11991692
38	0xbcf8630a	-0.030320663
39	0x3dd76d6f	0.1051892
40	0x3d817e3f	0.06322908
41	0xbe0f0978	-0.13968456
42	0xbd649a84	-0.05581142
43	0x3df5babb	0.11998507
44	0xbb55f95d	-0.0032649853
45	0xbd909269	-0.070591755
46	0x3dcd26ce	0.10017167
47	0xbe44fcd7	-0.19237076
48	0x3da7cec4	0.08193734
49	0x3e22435f	0.15846013
50	0x3def6566	0.11689262
51	0xbd098975	-0.033578355
52	0x3d1b805f	0.03796422
53	0x3deea90c	0.11653337
54	0xbdcf1746	-0.10111861
55	0x3e1efe92	0.15526798
56	0x3e0b4d62	0.13603738
57	0x3d42095b	0.047372203
58	0x3d9daf93	0.07699504
59	0xbe0508a0	-0.12991571
60	0x3e0bf08c	0.1366598
61	0xbd4d987b	-0.050194245
62	0x3e30d01c	0.17266887
63	0xbd1ee7a1	-0.038795117
64	0xbd3cfa58	-0.046137184
65	0xbd77d1d4	-0.060502842
66	0x3cfff56e	0.03124496
67	0x3df430bc	0.11923358
68	0xba06893d	-0.00051321444
69	0x3da29ad3	0.079396866
70	0x3e277246	0.16352186
71	0xbd7b066e	-0.06128543
72	0x3c94089e	0.018070515
73	0xbd8f8cae	-0.070092544
74	0xbd82fca9	-0.06395847
75	0x3dbce8d0	0.09224093
76	0x3e1a82f4	0.15089017
77	0xbe53c514	-0.20680648
78	0x3d3bad20	0.0458194
79	0xbe6c3816	-0.2306827
80	0x3e148a32	0.14505842
81	0x3dfc9c00	0.12334442
82	0xbdce9e92	-0.10088839
83	0x3e055fc0	0.13024807
84	0x3db49bbe	0.08818768
85	0xbd97adf5	-0.074062265
86	0x3d1d7f9d	0.03845178
87	0xbdab93a5	-0.0837777
88	0x3d2f38fd	0.042778958
89	0x3e002457	0.12513863
90	0x3e004045	0.12524517
91	0x3e1e9f9f	0.15490578
92	0x3dbf9a60	0.093556166
93	0xbd7e237c	-0.06204556
94	0x3e50ffc0	0.20410061
95	0xbdfd0115	-0.12353722
96	0x3b212650	0.0024589486
97	0xbe28da31	-0.16489483
98	0x3c2bf0ea	0.01049445
99	0x3d39e5dc	0.045385227
100	0x3d5cc6d6	0.053900562
101	0x3d9f2c27	0.07772093
102	0x3db3c596	0.08777921
103	0x3da85323	0.08218982
104	0x3dac0ef1	0.08401287
105	0x3d9f23e3	0.07770517
106	0xbc46a1cf	-0.012123539
107	0xbcb10c9c	-0.021612458
108	0xbe3615e4	-0.17781788
109	0x3cddc802	0.02707291
110	0x3c2aa40b	0.010415087
111	0x3ca7f5a0	0.020502865
112	0xbdbdcf3a	-0.09268041
113	0xbe09a8f2	-0.13443354
114	0xbd0f39a5	-0.034967083
115	0xbe428843	-0.18997292
116	0xbe240f31	-0.1602142
117	0xbd9ba80e	-0.07600413
118	0x3d42f330	0.047595203
119	0xbe253de9	-0.16136898
120	0x3d0f03e1	0.03491581
121	0xbd453dda	-0.04815469
122	0x3d1d98b3	0.038475703
123	0x3ddf93be	0.109168515
124	0x3cf41ef5	0.029799918
125	0xbccaa24a	-0.024735589
126	0xbe1b92c5	-0.15192707
127	0x3d95e145	0.073183574
128	0x3c168d77	0.009189001
129	0xbd808ab3	-0.06276455
130	0x3da26c38	0.07930797
131	0x3e024865	0.12722929
132	0x3c66c319	0.014084601
133	0xbdddc382	-0.10828306
134	0x3d2d8ba7	0.04236951
135	0x3e06910e	0.13141271
136	0x3c7b7262	0.015347095
137	0xbd049111	-0.03236491
138	0x3e117e85	0.1420842
139	0xbd952d56	-0.07284038
140	0xbc002c00	-0.00782299
141	0xbdf2c3ac	-0.11853728
142	0x3d2f6cab	0.042828243
143	0xbdb0bf3c	-0.08630225
144	0xbdff7f87	-0.12475496
145	0x3c2cb1a8	0.010540403
146	0x3d2fd682	0.04292918
147	0x3d9dcd8b	0.0770522
148	0xbcb0dde3	-0.021590179
149	0x3dc0a92e	0.094072685
150	0x3d12cdf1	0.035840932
151	0xbd9cf731	-0.076643355
152	0x3cf36e0d	0.029715562
153	0x3df95426	0.12174253
154	0xbe102603	-0.14077
155	0xbd0714f7	-0.032978978
156	0x3ac15f62	0.0014753158
157	0xbd74ac50	-0.059734643
158	0x3d9160d3	0.07098546
159	0xbdea4d01	-0.114404686
160	0xbd565363	-0.052325618
161	0x3d96e1e8	0.07367307
162	0xbcc9cd8c	-0.024634145
163	0xbbe9c397	-0.007133912
164	0xbc020a1a	-0.007936979
165	0x3df6fcf2	0.12059964
166	0x3d12f35e	0.035876624
167	0x3d16e470	0.03683895
168	0xbd1f2baf	-0.03886002
169	0x3dca80b2	0.09887828
170	0xbd9de5b1	-0.07709826
171	0x3dbddf40	0.09271097
172	0x3c18344a	0.00928981
173	0x3d96f443	0.07370808
174	0xbde4edd2	-0.11178173
175	0x3d891a44	0.06694463
176	0x3c889566	0.016672801
177	0x3dc35278	0.09537214
178	0x3e283716	0.16427264
179	0x3cd9d12e	0.026589002
180	0xbd045904	-0.032311454
181	0xbbaa56e1	-0.005198345
182	0x3bdaf536	0.0066820635
183	0x3dcfc05d	0.10144112
184	0xbb853c54	-0.0040660296
185	0x3d6b400d	0.05743413
186	0x3c0fc52d	0.008775038
187	0xbd35aedc	-0.044356212
188	0xbcf97d90	-0.03045538
189	0x3e01b622	0.12667134
190	0x3d30cb01	0.04316235
191	0xbd2f8c3d	-0.04285835

gru.bias_hh_l0 f4 [192]
0	0x3e2467a6	0.16055164
1	0x3bfbf73e	0.0076893857
2	0xbab92677	-0.0014125843
3	0x3cec13e0	0.02881807
4	0xbd3ce61b	-0.046117883
5	0x3cd3229b	0.025773337
6	0xbe0c1240	-0.13678837
7	0x3da670db	0.08126994
8	0x3c7a6622	0.015283139
9	0xbdb71331	-0.08939207
10	0xbd1a9db3	-0.03774805
11	0x3db35b2d	0.08757625
12	0x3ddffb14	0.10936561
13	0x3dce74f6	0.10080902
14	0xbe10f697	-0.14156567
15	0xbc60da5d	-0.013723937
16	0xbe15a478	-0.14613521
17	0xbc7530c7	-0.014965243
18	0xbe25142d	-0.16120978
19	0x3da7a7fc	0.08186337
20	0xbd82c797	-0.06385725
21	0xbb6abc42	-0.0035817777
22	0xbd06d174	-0.032914594
23	0xbb935057	-0.0044956612
24	0x3da179e2	0.078845754
25	0xbd7a0ebc	-0.061049208
26	0x3d0cb8f6	0.03435608
27	0xbc813552	-0.015772495
28	0x3d35f2ff	0.044421192
29	0xbd92e324	-0.0717223
30	0xbdbfe2d6	-0.093694374
31	0x3d7c59c2	0.061609037
32	0xbc8c8d33	-0.017157173
33	0x3d9ef707	0.077619605
34	0xbd73d45f	-0.059528705
35	0xbd78d34e	-0.06074839
36	0x3da5d2ee	0.08096872
37	0xbe1c419c	-0.15259403
38	0xbdead7ff	-0.11466979
39	0xbd10e726	-0.03537669
40	0x3da7bfca	0.08190878
41	0xbdc54ba3	-0.09633567
42	0x3c1a6a32	0.009424733
43	0x3db2107f	0.08694553
44	0x3d3a16de	0.045431964
45	0xbda5d3c2	-0.0809703
46	0xbcd0bf98	-0.025481984
47	0xbd0440eb	-0.032288473
48	0x3d9862ea	0.07440741
49	0x3e4ac697	0.19802319
50	0xbd399d5a	-0.045316078
51	0xbd779590	-0.06044537
52	0x3cc4b37d	0.024011368
53	0xbc1c0041	-0.009521545
54	0xbda027b0	-0.0782007
55	0xbc9d6f35	-0.019218067
56	0x3dba342e	0.09091984
57	0x3db0d174	0.086337
58	0x3e0adf5f	0.13561772
59	0xbc08a165	-0.008339261
60	0x3d7ae514	0.061253622
61	0x3dcf57e6	0.10124187
62	0x3c98502c	0.018592916
63	0x3cff1552	0.031138096
64	0xbe05732d	-0.13032217
65	0x3c9ce902	0.019154076
66	0x3e04248a	0.12904564
67	0x3daf84de	0.08570264
68	0x3d9a48eb	0.07533439
69	0xbc4528db	-0.0120336665
70	0x3e02dcd9	0.12779559
71	0xbd7b124c	-0.061296746
72	0xbce342c2	-0.027741794
73	0xbd48d440	-0.049030542
74	0x3d396c07	0.04526904
75	0x3d7d9b95	0.061915953
76	0x3d325049	0.043533597
77	0xbd5a40ed	-0.053284574
78	0x3db8480d	0.089981176
79	0xbe9529d7	-0.29133484
80	0x3dc92922	0.098222986
81	0x3dfb39b6	0.12266867
82	0xbdd27be5	-0.10277537
83	0x3c806f96	0.015678208
84	0x3d22695d	0.039651264
85	0xbd99ca1d	-0.07509253
86	0xbe16c1d4	-0.14722377
87	0x3cc0632f	0.023484794
88	0xbda7d357	-0.08194607
89	0x3bce6017	0.006298076
90	0x3d5014ad	0.050800968
91	0x3e3117a3	0.17294173
92	0xbd7a68e6	-0.061135195
93	0xbdfb1a84	-0.12260917
94	0xbc1b097e	-0.009462712
95	0x3da48148	0.08032471
96	0x3e092dbe	0.13396356
97	0xbdf57c61	-0.11986614
98	0x3d3fd6c9	0.046835694
99	0xbdf43d04	-0.119257
100	0xbde488c4	-0.111588985
101	0xbd86d52b	-0.06583627
102	0x3c04af71	0.008098469
103	0x3db539ef	0.088489406
104	0x3d8ca714	0.06867805
105	0x3cf8f209	0.030388849
106	0xbe02f1b7	-0.1278752
107	0x3db3b3cd	0.08774529
108	0x3caf9352	0.021432552
109	0x3da92a9d	0.08260081
110	0xbd6d2d95	-0.0579048
111	0xbcf80b21	-0.030278744
112	0xbd419148	-0.04725769
113	0x3d0bba1d	0.03411304
114	0x3cbb68a6	0.022877049
115	0xbe1ce90a	-0.15323272
116	0xbdb2fe7d	-0.08739946
117	0xbe4294b9	-0.19002046
118	0x3d7c01b1	0.06152505
119	0xbdb614af	-0.08890664
120	0x3e474cba	0.19462863
121	0xbdadc5b9	-0.08484978
122	0x3e4344a5	0.19069155
123	0xbdb234af	-0.08701455
124	0x3db2fad6	0.087392494
125	0xbd78bdc2	-0.060727842
126	0xbe1040be	-0.14087197
127	0x3c38f185	0.0112880515
128	0xbd0b5f02	-0.034026153
129	0x3c7d1e52	0.015449123
130	0xbddf45b9	-0.109019704
131	0x3a5fdd99	0.00085397955
132	0xbd114b9b	-0.035472494
133	0xbdd80124	-0.105470926
134	0xbd8ff38e	-0.07028876
135	0x3c50311a	0.012707019
136	0x3d97da33	0.07414665
137	0xbdf8cd1a	-0.12148495
138	0xba87cdd1	-0.0010361021
139	0x3dfdd354	0.12393823
140	0x3debb738	0.115095556
141	0x3dc119e3	0.094287656
142	0x3be29c0b	0.0069155744
143	0xbd7323bb	-0.059360247
144	0xbcc77204	-0.02434636
145	0x3e0422e3	0.12903933
146	0xbda2eb46	-0.07955031
147	0xbd280736	-0.041022502
148	0xbbfed97b	-0.0077773905
149	0x3d556e3e	0.05210709
150	0x3db16eee	0.08663736
151	0x3d5c07a7	0.053718235
152	0xbde4dc65	-0.111748494
153	0x3ddb2b0c	0.1070157
154	0xbd7fb0e1	-0.062424544
155	0xbe1a9bb5	-0.1509846
156	0x3dbeb504	0.0931187
157	0xbd73166a	-0.059347548
158	0x3c636ba1	0.013880641
159	0x3d56c9ef	0.052438673
160	0xbc701046	-0.014652317
161	0x3ddc9a3b	0.107716046
162	0xbe02d305	-0.1277581
163	0xbc70a0b3	-0.014686751
164	0x3d153e88	0.036436588
165	0xbc4ad369	-0.012379506
166	0x3d595fe6	0.05306997
167	0xbc088293	-0.008331913
168	0xbcccd16a	-0.0250022
169	0x3dac1759	0.08402891
170	0xbd93d8aa	-0.0721906
171	0x3d9fc3fc	0.07801053
172	0x3d562ca5	0.05228867
173	0x3d2af888	0.041740924
174	0x3cc8ca9e	0.024510678
175	0xbca0303b	-0.019554248
176	0xbda7c573	-0.08191957
177	0x3bead96b	0.0071670315
178	0x3e16a909	0.1471292
179	0xbdfc509b	-0.12320062
180	0x3e10b969	0.14133228
181	0xbdf5ffba	-0.120116666
182	0x3dc49a58	0.09599751
183	0xbdde3885	-0.10850624
184	0xbda56196	-0.08075254
185	0xbe04b9a0	-0.12961435
186	0x3dc69db3	0.096980475
187	0xbd19a8a1	-0.037514333
188	0xbde89195	-0.113558926
189	0x3d8ee95c	0.069781035
190	0x3dd94299	0.106084056
191	0x3db9e2a6	0.09076433

gru.weight_ih_l0_reverse f4 [192, 64]
0	0xbdd1a040	-0.102356434
1	0xbd510db4	-0.05103846
2	0xbd44a0a3	-0.048004758
3	0x3d854473	0.06507196
4	0x3debfd95	0.11522976
5	0xbd8f02e9	-0.06982977
6	0x3d30fec3	0.04321171
7	0xbdd020b9	-0.10162491
8	0xbdcc5bf1	-0.09978474
9	0xbb957209	-0.004560713
10	0x39877b01	0.00025840852
11	0x3c82eb78	0.01598142
12	0x3e02c29e	0.12769553
13	0xbda90dd9	-0.08254594
14	0xbbc7813a	-0.006088403
15	0x3d82da06	0.06389241
16	0xbd9999b9	-0.075000234
17	0xbddf5905	-0.10905651
18	0x3d49cedc	0.049269542
19	0xbd0ddfe4	-0.034637347
20	0xbe1adc58	-0.15123117
21	0xbd9ef044	-0.07760671
22	0x3d4e31d7	0.0503405
23	0xbd89dfc3	-0.06732132
24	0x3d03dbbc	0.032191977
25	0x3cb7b8f1	0.022427054
26	0xbd75d62b	-0.0600187
27	0xbdc3f051	-0.09567321
28	0x3cb36d1c	0.021902613
29	0x3d6c6c2f	0.05772036
30	0xbd599567	-0.053120997
31	0xbd6917bc	-0.0569074
32	0xbd54c401	-0.051944736
33	0x3c031697	0.008000991
34	0x3bac35fc	0.005255459
35	0x3d89792e	0.06712566
36	0xbd646de4	-0.055768862
37	0x3dedd99d	0.11613772
38	0xb9d947e0	-0.00041443016
39	0xbd2dac94	-0.04240091
40	0xbe0e82e5	-0.1391712
41	0xbdbd3961	-0.0923946
42	0xbdc9a5f1	-0.09846104
43	0x3d89ee62	0.06734921
44	0x3c84e3fd	0.016221995
45	0x3cba56c5	0.022746453
46	0x3d6794ed	0.05653851
47	0xbda61008	-0.081085265
48	0xbd34ffa5	-0.044189114
49	0xbc33f420	-0.010983497
50	0xbdb6b5af	-0.08921372
51	0x3d8871bd	0.06662319
52	0x3db96185	0.090518035
53	0xbd755b1d	-0.059901346
54	0x3d38b189	0.045091186
55	0xbd4359ab	-0.047692936
56	0x3cca1263	0.02466697
57	0xbd1f623d	-0.038912047
58	0xbd816b04	-0.0631924
59	0xbd6d542e	-0.057941608
60	0x3e0f1c99	0.13975753
61	0xbcf75af1	-0.030194731
62	0xbb6d24ab	-0.0036185186
63	0x3d96cbe0	0.07363105
64	0x3b51ac70	0.003199365
65	0xbe216fc4	-0.15765291
66	0x3dc44d8d	0.09585104
67	0xbde8a59d	-0.11359713
68	0x3d746b51	0.059672657
69	0xbdbb832e	-0.0915588
70	0xbd4e8e34	-0.050428584
71	0xbe4c6224	-0.19959313
72	0xbdeba630	-0.11506307
73	0xbdfd5b1b	-0.123708926
74	0xbe29b585	-0.1657315
75	0xbd58a713	-0.05289371
76	0xbdbdf5ce	-0.09275399
77	0x3d16c611	0.036809985
78	0xbd905a3b	-0.0704846
79	0x3db8436c	0.08997235
80	0xbc5e52c7	-0.01356954
81	0xbbafd9d1	-0.005366542
82	0xbd2842eb	-0.041079443
83	0x3d321e8a	0.043486156
84	0x3d9bab3c	0.0760102
85	0xbe00555a	-0.12532559
86	0xbbabc9b3	-0.0052425503
87	0xbda109cc	-0.07863197
88	0x3d4d602d	0.05014055
89	0x3e46cd95	0.19414361
90	0x3d9b6b28	0.07588798
91	0x3da16656	0.07880847
92	0x3c5a9571	0.013341294
93	0x3e089285	0.13337143
94	0xbcb46757	-0.022021933
95	0x3c256b99	0.010096454
96	0x3ca000bf	0.019531606
97	0xbdf97e47	-0.121822886
98	0xbd6c8306	-0.05774214
99	0xbd095e9d	-0.033537496
100	0x3d96f6f8	0.07371324
101	0x3d7e3e41	0.06207109
102	0x3e112756	0.14175162
103	0xbd2e3dfe	-0.04253959
104	0xbe0c278c	-0.13686961
105	0xbdf2c309	-0.11853606
106	0xbe14ec2a	-0.14543214
107	0xbdfb1acd	-0.12260971
108	0x3d745821	0.05965436
109	0x3d987cd7	0.07445686
110	0x3cf7cb1b	0.030248215
111	0xbd0e99fd	-0.034814823
112	0x3b006c8b	0.0019595947
113	0x3e3e81bc	0.18604177
114	0x3da21cd5	0.079156555
115	0x3dc2b092	0.09506334
116	0xbd8a568d	-0.067547895
117	0x3d72809d	0.059204686
118	0xbd672b4f	-0.056437787
119	0xbc2c7890	-0.010526791
120	0x3dec39d6	0.11534469
121	0x3daa1969	0.08305628
122	0xbe2c5554	-0.16829425
123	0xbdc05694	-0.093915135
124	0x3e3d32ac	0.18476361
125	0x3e51777e	0.20455739
126	0x3d80d0a1	0.06289793
127	0xbd6ca6e1	-0.057776336
128	0xbd50513d	-0.050858725
129	0xbdc4dc67	-0.09612351
130	0xbd05e0fc	-0.032685265
131	0xbd3075b1	-0.04308099
132	0x3dd5b305	0.10434536
133	0xbdce80c3	-0.10083153
134	0x3d70e657	0.05881342
135	0x3cfa89c2	0.030583266
136	0xbcd85441	-0.026407363
137	0xbd2ca37d	-0.042148102
138	0xbd004817	-0.03131875
139	0x3c395223	0.011311087
140	0xbd32129b	-0.043474775
141	0x3cc27943	0.023739463
142	0xbc523621	-0.012830288
143	0xbd029c02	-0.031887062
144	0x3d8d30cd	0.06894074
145	0xbda0947b	-0.078408204
146	0xbdf41428	-0.11917907
147	0x3d941880	0.072312355
148	0xbc9aaa51	-0.018880041
149	0xbc31d518	-0.010854028
150	0xbd037799	-0.03209648
151	0x3d63ac18	0.055584043
152	0x3cd318ad	0.025768602
153	0xbcb5934d	-0.022164965
154	0xbd3db04b	-0.046310704
155	0x3da7b58f	0.081889264
156	0x3dd7bc4f	0.10533964
157	0x3cb3b471	0.021936627
158	0xbdb53470	-0.08847892
159	0x3deb1770	0.1147908
160	0xbe1bc33c	-0.15211195
161	0x3d0a9a7e	0.03383874
162	0xbd9c8a73	-0.076435946
163	0x3c957db1	0.01824841
164	0xbda4e45d	-0.08051369
165	0xbcbecf3f	-0.023292182
166	0xbd2a96de	-0.041647784
167	0x3c38bb9c	0.011275198
168	0xbdd7a881	-0.105301864
169	0xbe050ada	-0.12992421
170	0xbb8b6a7f	-0.0042546387
171	0xbe1f4023	-0.1555181
172	0xbb8b7c96	-0.004256795
173	0xbe0b0edf	-0.13579892
174	0x3daea76b	0.08528026
175	0xbd9b5432	-0.07584418
176	0xbd8c55b9	-0.06852288
177	0xbc0c60e7	-0.008568025
178	0x3d422afb	0.04740427
179	0xbba87c62	-0.0051417807
180	0xbd5e2595	-0.05423506
181	0x3da995bd	0.082805134
182	0xbd4a269a	-0.04935322
183	0xbceb8bd6	-0.028753202
184	0xbdbc0f38	-0.0918259
185	0x3c67707c	0.014125939
186	0x3db43bfa	0.08800502
187	0x3c9e01a8	0.0192879
188	0x3cb94917	0.02261786
189	0xbe156ea9	-0.14592995
190	0xbd9dd259	-0.07706136
191	0xbd01ed27	-0.031720307
192	0x3d011af7	0.031519856
193	0xbd9025aa	-0.07038434
194	0x3c91175c	0.017711334
195	0x3e2cea8c	0.16886348
196	0x3c4d956f	0.012547835
197	0xbd505c1f	-0.050869104
198	0x3e2e1b5a	0.17002621
199	0x3e191682	0.14949992
200	0x3d8ca135	0.06866685
201	0x3e23d404	0.15998846
202	0x3d98c210	0.074588895
203	0x3d839ce3	0.06426408
204	0x3e84202e	0.258058
205	0xbe327ba9	-0.17429985
206	0x3d2e61d7	0.042573776
207	0x3d5a3afe	0.053278916
208	0xbdb0fe3c	-0.08642241
209	0x3c89b4e4	0.016809888
210	0xbccfbec2	-0.025359515
211	0x3d59fa92	0.053217478
212	0xbd0127d7	-0.031532135
213	0x3c0433d9	0.008069002
214	0xbe0f0a49	-0.13968767
215	0x3e687731	0.22701718
216	0xbde535bc	-0.1119189
217	0xbdc4ddb7	-0.09612601
218	0x3e406e96	0.18792185
219	0x3cedec17	0.02904324
220	0x3dc77eb6	0.09740965
221	0x3dda1136	0.10647814
222	0x3deb09dc	0.1147649
223	0x3d6f5101	0.05842686
224	0x3d6928a1	0.056923512
225	0x3ca9f50c	0.02074673
226	0xbd0460db	-0.03231893
227	0xbd740a84	-0.05958034
228	0xbd67edff	-0.056623455
229	0x3c82e9a4	0.01598055
230	0x3db5cee4	0.08877352
231	0x3e1f785d	0.15573259
232	0x3bcae703	0.0061920895
233	0xbda0f438	-0.07859081
234	0xbd478126	-0.04870715
235	0x3e3766fd	0.1791038
236	0xbdd4b5da	-0.10386248
237	0xbc768c57	-0.015048108
238	0x3c034b7b	0.008013601
239	0x3ddf09f9	0.10890574
240	0xbde5163a	-0.1118588
241	0xbd146e37	-0.03623792
242	0xbe2ca4e8	-0.16859782
243	0x3e2b9bba	0.16758624
244	0x3e3369c8	0.17520821
245	0x3d2247a6	0.03961911
246	0x3deab53b	0.11460348
247	0xbcb4e82e	-0.022083368
248	0x3ccc2b65	0.024923036
249	0xbdb6e4de	-0.08930372
250	0xbca15c30	-0.019697279
251	0x3d080a48	0.03321293
252	0xbe31c3e0	-0.17359877
253	0xbdef3953	-0.116808556
254	0xbb8b829e	-0.004257514
255	0x3d6001db	0.05468927
