scripts/data/tcn_real.pth (torch, 330175 bytes, 20 tensors)

page_embedding.weight f4 [4, 32]
00000000: 0000 0000 0000 0000 0000 0000 0000 0000
00000010: 0000 0000 0000 0000 0000 0000 0000 0000
00000020: 0000 0000 0000 0000 0000 0000 0000 0000
00000030: 0000 0000 0000 0000 0000 0000 0000 0000
00000040: 0000 0000 0000 0000 0000 0000 0000 0000
00000050: 0000 0000 0000 0000 0000 0000 0000 0000
00000060: 0000 0000 0000 0000 0000 0000 0000 0000
00000070: 0000 0000 0000 0000 0000 0000 0000 0000
00000080: 09ae 3d3e a414 193e 61ec c43e c97f 613d
00000090: 2db6 29c0 ea0d 05bf 9073 033f 6282 96be
000000a0: 4ea7 d2bf acf8 b73f 5d98 8dbf 2b30 243f
000000b0: 797b 0340 4dc7 c4be f0ea 1fbe 5446 703f
000000c0: f6ca cbbd 1e9b 1d3e 310e 913e dd88 a63e
000000d0: d67a 94be 9254 d6be d990 6ebc 19dc 843f
000000e0: 3d59 a33f 2f2b c63e 55b0 8cbf 5cc5 f4bf
000000f0: 5074 d0bd 7df8 7d3f 7fba 943f 7777 4fbe
00000100: a4bd 3f3e 2245 af3d 17d3 1cbf 2241 813e
00000110: a71b 0ac0 f421 333b 3121 cdbe 4d8d b53f
00000120: 45ef 8d3f f95a 2740 deb0 8dbf 24b6 c23f
00000130: 82e4 0ebf e674 1ebf 4e5c 85bf 3f62 473f
00000140: 5b77 373f 265d 153f a070 cebe 349a a83f
00000150: c77b 253e 11ef 883f d8ad c93e fdc9 3cbe
00000160: faf9 d33e d511 12bf 6fde 47bf 89ef 743f
00000170: 0ab4 9fbf ce1e cdbf 8c0d b13f 1211 0ac0
00000180: 275d ffbf 765c e8bf 97f8 94bf 2e78 20bf
00000190: 5d8d bd3e 05a4 dfbe 4bd3 bf3f 9282 2c3f
000001a0: 6232 b5bf 4c37 7e3e 850e ef3f 996a babf
000001b0: 42be b8bf 9ecb 8ebf a314 35bf 8bd7 a5bf
000001c0: cca7 993f a2e9 9dbe ab11 8fbf 6408 4c3f
000001d0: b977 473d 44de 0dc0 bdef ccbe 0fd9 bb3f
000001e0: a83f fe3d 6818 463f ecc2 8f3e 794c 01bf
000001f0: da3a bd3e dc0e b3bf 1b4e 91bf 3294 32bf
0.0 0.0 0.0 0.0 0.0 0.0 0.0 0.0
0.0 0.0 0.0 0.0 0.0 0.0 0.0 0.0
0.0 0.0 0.0 0.0 0.0 0.0 0.0 0.0
0.0 0.0 0.0 0.0 0.0 0.0 0.0 0.0
0.1852342 0.1494928 0.38461593 0.055053506 -2.6517441 -0.51974356 0.5134821 -0.2939635
-1.6457307 1.4372764 -1.1062123 0.64136 2.0544112 -0.38433304 -0.15616965 0.9385731
-0.09950821 0.15391204 0.2833114 0.32526293 -0.28999966 -0.41861397 -0.014560902 1.0379668
1.2761608 0.3870482 -1.0991312 -1.9122729 -0.10178435 0.9920729 1.1619414 -0.20260416
0.18724686 0.08558108 -0.612596 0.25245005 -2.1579378 0.002733347 -0.40064386 1.4183747
1.1088644 2.6149275 -1.10696 1.5211835 -0.55817425 -0.6189712 -1.0418794 0.77884287
0.71666497 0.5834526 -0.403203 1.3172059 0.16160499 1.0697957 0.39390445 -0.18436427
0.41401654 -0.5705846 -0.7807378 0.95678 -1.2476819 -1.6025026 1.3832259 -2.157292
-1.9950303 -1.8153217 -1.1638364 -0.6268338 0.37021914 -0.43679824 1.4986356 0.67386734
-1.4156001 0.24825782 1.8676306 -1.4563781 -1.4433062 -1.1155889 -0.70734614 -1.2956403
1.2004333 -0.3084231 -1.1177267 0.79700303 0.04869816 -2.216691 -0.40026656 1.4675616
0.12414485 0.7738099 0.280784 -0.50507313 0.36958963 -1.398891 -1.1351961 -0.6975738

duration_proj.weight f4 [32, 1]
00000000: 3470 38bf d9a1 33bf 1f24 293e bfff c8be
00000010: a4ae 1e3e c06e 2abf 52f3 4e3f a0b0 173f
00000020: effa 61bf 9572 0a3f a24c 2f3e 0f6b 423e
00000030: a201 2abf cfc2 7e3f df11 023e 6f38 59bf
00000040: 84b6 163e bdb8 cbbc 7473 283e d1b5 1c3f
00000050: 9fea 753f 8cf0 8abe 99d5 e0be 4339 90be
00000060: ca49 17bf b538 263f e070 043f 3b0c 4bbf
00000070: 3a37 53bf 8889 fdbe 700f 20bf 0302 cebe
-0.7204621 -0.70168835 0.16517685 -0.3925762 0.15496308 -0.6657524 0.8084003 0.59253883
-0.8827352 0.5408109 0.17119077 0.18986152 -0.6640874 0.99516004 0.1270213 -0.84851736
0.14718062 -0.024868364 0.16450292 0.6121493 0.9606113 -0.27136648 -0.43912962 -0.28168687
-0.5909697 0.6493028 0.51734734 -0.7931554 -0.82506144 -0.4951899 -0.62523556 -0.4023591

duration_proj.bias f4 [32]
00000000: e8b2 2a3f 9baa 793d 85f9 72bf e398 953e
00000010: 1fb3 10bf fc3f f1be 9f3d 99be bcc6 6b3f
00000020: 152f 53bf a5d3 383f cb74 3a3f 77bf 533e
00000030: 0d10 68be 676c 30bf 895a 893e ca30 ecbd
00000040: a413 9bbd 2277 983e 71d5 9d3d 088e 4e3f
00000050: 9d1b 5bbf b867 f23e 045f cbbe 639b 363e
00000060: 39a7 3a3e 364b 413f 60a3 25be eab6 65bf
00000070: 14b8 c23d cc3a 08bf 67cf 493f f4c1 48bf
0.6667924 0.060953718 -0.94911987 0.29218206 -0.5652332 -0.4711913 -0.29929826 0.9210012
-0.82493716 0.72197944 0.7283446 0.20678507 -0.22662373 -0.6891541 0.26826885 -0.11532743
-0.075721055 0.2977839 0.07706726 0.8068547 -0.8558901 0.47344756 -0.3972093 0.17832713
0.18227853 0.7550539 -0.16175604 -0.8973223 0.09507766 -0.53214717 0.78832096 -0.7842095

combine.weight f4 [64, 64]
00000000: 6c6c ae3c 3ab6 e7bd 3795 d63b 1252 90bd
00000010: b34d 94bd 7a5b 0ebe d035 093e 4e71 573d
00000020: 9f8b 1a3d ffef a23b dc0a c03d 7549 acbd
00000030: 5d37 aebd c820 1ebe 4e3a 1abe 516d 953b
00000040: 5bf7 7abd 7819 913d ae0b 14be 6e39 a13d
00000050: cc1c e7bc c41d 25be c15a 8ebd a089 323d
00000060: 1149 4fbb 5341 053e 6148 1fbd 4a9c b8bc
00000070: efe9 ae3d 350f 29be 775f 18be b7ab adbd
00000080: 2b56 9c3d 1923 3ebd 8830 0e3e 1919 17bd
00000090: 67ff 15bc 43b4 acbc 8a96 9c3d d213 503d
000000a0: 0313 97bd d829 3b3c bee2 083d aadc ebbd
000000b0: 4669 2a3d 578c b3bc b7b6 9abd 3292 853d
000000c0: 2144 ef38 4a2b 15be 1b5e 2f3b fa60 373d
000000d0: 968c 143e 48ad 74bd 96e4 7abc a710 9b3d
000000e0: d071 13bd 70c2 a5bd 6610 80bd 7e26 b0bd
000000f0: 593d 97bd 0fab afbc a27d 16bd e844 f23d
00000100: 9a02 76bd 1e8f 063d afca a63c d1cd 26be
00000110: 8766 a53d 78f1 313d dd7c 87bd dd51 25bc
00000120: a069 56bd c484 6bbd 4edd 903d 5636 a3bd
00000130: ac4d 79bd 31fa 19be 54f7 8abd feb7 9bbc
00000140: cc1e aebb 2fff 80bd 5805 eebd 346e e8bc
00000150: 59ea 723c f3b3 cb3c 1240 0ebd 8259 a73d
00000160: 859d 76bd 37c3 1bbd 32e0 e5bd 33a5 09bd
00000170: 3034 25be 1457 45bc 2714 7f3c c5c6 073d
00000180: 57c7 55bd 1db1 483c 25e4 4e3b cfc5 953d
00000190: 5efc a23d 6d7d 09bc 0421 263d 79f0 8bbc
000001a0: 46e0 203c 4269 8cbd 3c34 dfbc d71c a23c
000001b0: ed2a 3abc 300f 71bc 29d7 a2ba 4558 ac3d
000001c0: f6a2 783d be38 943d 6df0 163e 6c5c 9d3d
000001d0: 30de e23d 9cf2 c33c 6305 c83d 564d ab3d
000001e0: b65d ab3d daf9 f2bc 2447 68bd 722a b7bd
000001f0: 64f2 a1bc c9c0 56bc 0410 c3bd 3fcd f33c
00000200: 3402 f0bd 12e2 48be 829b 11be 71dc 18be
00000210: 317d 98bb 9886 9cbd 587b 033e f403 223c
00000220: 4175 ecbc 7127 cc3c 4e23 bf3d 9192 e0bd
00000230: 3a04 40bc 1058 353b 1027 70bb cb50 29be
00000240: 1ecd fb3d c255 8fbd 2b86 5fbc 9e2d be3d
00000250: 1b0a f1bd b014 0ebe 7856 0ebe d477 b53c
00000260: 930d e6bc 9c81 0a3e debd e93c 214b e0bd
00000270: 31e6 98bd 3229 b9bc 6f12 2cbd 9b5a 89bd
00000280: a5a1 90bd d6cc f8bd 6745 8abd 437b 273d
00000290: ddd3 d33d 4573 d33d 656e 283d d61e a1bd
000002a0: 7eab c7bc 9c4b b1bd fee9 963d 790f bd3d
000002b0: 3394 ea3d 0e75 8abd ca2d 9cbd d8c4 89bd
000002c0: 940d bbbd 2204 1b3d 548b 603d c404 fabd
000002d0: b21d 923d 5e18 793c 7543 523d 47e2 3b3d
000002e0: d6ba a63d 7ff1 a73d a556 50bd ea78 d9bc
000002f0: 7e6a 7f3b 0bfb d83d 80c6 8bbd 6c50 0bbd
00000300: 6bde 683d 4764 443d 7b99 253c 28c6 6dbd
00000310: 4a07 633c 21de bd3d 9aee a4bc d445 abbd
00000320: 6cc4 233c dd6f a23a c4ad cfbd c3b8 84bd
00000330: b216 29bd 5e26 df3c c50e 3abd 939e b93d
00000340: 218c 5a3b 3a27 f43d 85fd 05be 1369 b13d
00000350: 60d9 d33d 90c6 ac3d ae6a 143d e962 3e3a
00000360: 7512 0b3d 168c adbc a20b c03d 5f64 163d
00000370: 867a babd 6fa2 74bd 3f37 d3bd 1f2e 56bd
00000380: c818 a7bc 59f3 d43d 50f9 e53b 152b f83d
00000390: 01a5 26bd ba52 e3bd b028 2e3d 673f e1bd
000003a0: 686e 3d3c 317f 183d 38ce 83bd 7698 f83c
000003b0: 5856 4d3d 8ced fdbc de62 f53d 943f 2abd
000003c0: 5221 73bd b2f8 333d a772 713d 8c42 643d
000003d0: df4c 43bd 3278 4fbd 198d fd3c 81ef 10bc
000003e0: 53ff d53d 36b7 b2bd ee8c 4f3d 419e 88bc
000003f0: bfae e43d 07eb 213d 5362 de3c ea98 653d
0.021291934 -0.11314054 0.0065485495 -0.07046904 -0.072413824 -0.13902083 0.13399434 0.05259829
0.03773081 0.0049724574 0.09377071 -0.08412448 -0.085066535 -0.15442193 -0.15061304 0.0045601507
-0.061271053 0.07084936 -0.1445758 0.07872282 -0.028211974 -0.16124636 -0.06950904 0.04358828
-0.0031629244 0.130132 -0.038887385 -0.022535462 0.08540713 -0.16509707 -0.14880167 -0.08480018
0.07633623 -0.04642019 0.138857 -0.03688917 -0.009155131 -0.02108205 0.076459005 0.050800152
-0.07376673 0.011423551 0.033419363 -0.11516698 0.041604303 -0.021917505 -0.07554381 0.06522025
0.00011409098 -0.14567295 0.0026758972 0.04477022 0.14506754 -0.059735566 -0.015313288 0.075715356
-0.035997212 -0.08093727 -0.06253128 -0.08601092 -0.07384748 -0.021443872 -0.036740907 0.11829549
-0.060061075 0.03285133 0.020360319 -0.1628945 0.08076196 0.043443173 -0.06615613 -0.0100903185
-0.052346826 -0.057499662 0.070734605 -0.07969348 -0.06086509 -0.15036847 -0.06785455 -0.019008633
-0.00531373 -0.062986724 -0.11622113 -0.028372861 0.014826381 0.02486608 -0.03472907 0.08171369
-0.060208816 -0.03802797 -0.112244025 -0.033604812 -0.16133189 -0.012044687 0.01556877 0.033148546
-0.05219206 0.012249258 0.003156909 0.073131196 0.079582915 -0.00839172 0.04055883 -0.01708244
0.009819096 -0.06856014 -0.027246587 0.019789143 -0.011362773 -0.014713094 -0.0012423742 0.084152736
0.060702287 0.07237385 0.14740153 0.07683644 0.11077535 0.023919396 0.097666524 0.0836436
0.08367483 -0.029660154 -0.05670847 -0.08943643 -0.019768901 -0.013107487 -0.09524539 0.029760955
-0.1171917 -0.19617489 -0.14219478 -0.14927842 -0.004653596 -0.07642859 0.1284002 0.009888638
-0.028864505 0.02492115 0.09332906 -0.10965455 -0.011719758 0.0027670898 -0.0036644377 -0.16534726
0.122949824 -0.06998779 -0.013642828 0.092860445 -0.117695056 -0.13875079 -0.13900173 0.022151865
-0.028082645 0.13526005 0.028532919 -0.1095183 -0.074657805 -0.022602651 -0.042009767 -0.06706735
-0.07062081 -0.12148444 -0.06751519 0.040889036 0.10343144 0.1032472 0.041120905 -0.078672096
-0.024373766 -0.086569995 0.07368849 0.09231467 0.11454048 -0.06760608 -0.07625921 -0.06726998
-0.09133449 0.03784574 0.054820374 -0.1220794 0.0713457 0.0152035635 0.051333863 0.04587009
0.08141105 0.082003586 -0.05086388 -0.026546914 0.0038973386 0.10594758 -0.0682497 -0.034012243
0.05685274 0.047947194 0.010107393 -0.058050305 0.013856718 0.09270883 -0.020133305 -0.08362928
0.009995561 0.0012392957 -0.10140565 -0.06480553 -0.04128141 0.027239975 -0.04542424 0.09063449
0.0033347683 0.119215444 -0.13084991 0.086626194 0.10344195 0.0843631 0.03623455 0.00072626636
0.03395315 -0.021184962 0.09377219 0.036716815 -0.09105401 -0.05972522 -0.10313272 -0.05229008
-0.020397559 0.103979774 0.0070182458 0.12117592 -0.040684704 -0.11099763 0.04251927 -0.10998421
0.011561967 0.037230674 -0.064358175 0.030346137 0.050131172 -0.03099706 0.11981748 -0.04156454
-0.05935795 0.043938346 0.05894723 0.055727527 -0.047680732 -0.050651737 0.03095107 -0.008846165
0.1044909 -0.08726351 0.05067151 -0.016677024 0.11166143 0.03953078 0.027146494 0.056054033

combine.bias f4 [64]
00000000: 2bef 01bd eaad 1e3d 4924 1cbc 02cc 8c3d
00000010: 7af5 d2bd 50ca ec3d e1bc d43d b997 9cbd
00000020: 0e59 72bd 67a9 ad3d ef78 75bd f854 71bd
00000030: 21b1 fabd 244a c13d 7bc8 d63d 95a9 00bd
00000040: b878 203d 60ac bc3d 1187 e3bc c853 6dbd
00000050: fa6a 1d3d 459e 0d3e 2168 b7bd af70 93bd
00000060: 19b4 013e 9fbe 873d 16a9 d3bd 65c7 e6bb
00000070: f435 383d 9d6d ebbd a5b8 cd3d 34e4 96bd
00000080: 1c9c f73c c3ef 8cbd 05a1 ad3d 8255 5c3d
00000090: 0a3d 4bbd f965 723d b911 2abd 5306 ea3c
000000a0: bfb0 13bd 82c0 2fbd 1a15 de3c 4de3 303d
000000b0: 32f1 8dbd 36d8 db3d 45dd ae3d eac5 c4bc
000000c0: e408 bc3d 32be 3c3d 1678 f0bc 0ecf 1039
000000d0: 4709 a1bc 4e8f 233d c887 d33c 2f11 05bd
000000e0: b072 03bd 910e 42bd 098e 16bc 9c14 9a3c
000000f0: 4b5a 59bd 2d29 103d a51a bdbd c046 f2bb
-0.03172223 0.038740076 -0.009530135 0.06874849 -0.10300727 0.115620255 0.10387588 -0.07646126
-0.05916696 0.084795766 -0.059929784 -0.058918923 -0.12240816 0.09437969 0.10487457 -0.031411726
0.039177626 0.092125654 -0.027774366 -0.05794123 0.0384321 0.13829906 -0.08955408 -0.07199227
0.12666358 0.06628155 -0.10334985 -0.0070428126 0.04497333 -0.114955164 0.10044984 -0.07367745
0.030225806 -0.068816684 0.08477978 0.053792484 -0.04961876 0.05917928 -0.041520808 0.028567469
-0.03605723 -0.0429082 0.027109671 0.04318552 -0.0693077 0.10734598 0.085382976 -0.024020154
0.09181383 0.046079822 -0.029354136 0.00013810044 -0.019657744 0.039931588 0.025821581 -0.03248709
-0.032091796 -0.047377173 -0.009189137 0.018808655 -0.053064626 0.03519552 -0.09233598 -0.007393688

tcn.0.conv1.conv.weight f4 [64, 64, 3]
00000000: ce68 99bd bc33 913d 178f 333d 955f 6fbd
00000010: baf7 bc3b 57fa 35bd 91c0 693d 6a03 78bd
00000020: 6242 933c 5dcc 56bc 02e9 3c3d b3a1 c33c
00000030: 6213 11bb 99d6 273d 15ec 253d 9bed 873d
00000040: c6b0 8d3d ab65 14bd e0d8 c2bc 474e 4dbd
00000050: 6ead e13c c84b 743d 9fe3 563d 15dc 6abd
00000060: d13d 9dbc 394a 7b3c f0ca d43d e4cc 933d
00000070: 72ba 053d 8666 b6bd 6582 233d 858e 183d
00000080: 1e55 233d da99 6d3d 4485 9abc b740 6e3d
00000090: 9e57 71bc 6f90 2d3d 7d7a 613d 4508 55bc
000000a0: e738 5ebd 2143 043e d73a dc3c d4a2 acb8
000000b0: 2902 033e 9c6b 213d 3ee3 8abd 95f8 843d
000000c0: 4c08 23bd 53d5 253d c0be dbbd cc86 e2bc
000000d0: dfa6 813d 7324 0d3d 1053 453d e7b2 71bd
000000e0: 41b3 c03d 4083 203d 14aa 023d 2c9e 70bb
000000f0: 9276 803b 560d e1bd c20f f83b 2da1 0abd
00000100: d013 7fbc 1427 91bc 13e8 a83d 63bc 193c
00000110: 9612 ca3d cc32 91bd 984d 633d c61e a93d
00000120: 1886 8ebc a39c 97bc 8c7d 00ba e055 1b3c
00000130: 3315 5cbc 8ceb cf3b 5795 b8bd fb48 07bd
00000140: a9e1 48bc 8b8d 89bd 0b42 8fbb 048e c43d
00000150: 960a 38bb 59c0 b33c 7d18 873d c722 723b
00000160: 13b9 bfbc 7245 803d bec4 3d3c 2a40 113d
00000170: eac3 773d 7ab8 513b a313 9aba 1ace e0bc
00000180: 1602 353d b8e1 7b3d b867 c73c 3661 743c
00000190: feb4 993d a9ac 293a 7605 5cbd 6535 493d
000001a0: 55ce 113c a898 d0ba b82b 50bd 0a2e 12bd
000001b0: 2fd2 38bd 8103 09bd 5537 ee3d 09f7 343d
000001c0: 2b36 593d 588d 0e3c c491 84bc bf5a a2bd
000001d0: 7193 e43d ac56 0cbd 98e3 503d 51dc 9a3d
000001e0: 13c8 8b3d e6ab d53c 7ee0 bcbc da7f 14bd
000001f0: e4d2 a33b cbf5 093c cbcd 8d3d 77cc 823d
00000200: 47ba 0ebe 60d4 0a3d ec39 983d 558d 1abd
00000210: 7c6a c5bc 0d53 23bd 5fb0 9f3d 269b 533d
00000220: 29d7 93bc 1ed5 93bd b0f7 3bbd fff2 32bc
00000230: 4a18 db3c e564 783c 3455 22bc 4153 f13d
00000240: 781b fc3c 966e edbc f5fb 013e 3f06 3bbc
00000250: b1fe 05bd 1d52 86bd 6ec0 79bc dd9c 66bd
00000260: 8d85 35bd 113f 27bd 902d c6bc 6f88 98bd
00000270: 3841 e03c fb1b 0b3d b04e a53c d53b 2f3d
00000280: 1e44 bc3b 4921 1b3c 4a5c bcbc fe78 983d
00000290: 4b3d 89bd cccc 50bd eed6 4dbc f2a3 a93d
000002a0: af2b 28bd cebd adbc 0d5b 9abc d8d9 e23b
000002b0: 5972 8c3d ae32 d03b f89d 9b3d 98a7 9cbd
000002c0: 12b9 16bc b61a cebc 1698 26bd c590 cf3d
000002d0: eb8f e6bc b484 1e3d 5f38 763d bd21 4cbd
000002e0: 54e8 903d 8754 403d 726e a03d 3240 713d
000002f0: 9fd8 54bd 8043 423d 7d16 03bd 3207 b3bd
00000300: 585a d83d 014b 833d b3aa df3d 8d62 6c3d
00000310: 3a16 09bd 747f 21bd 36c2 6c3d 5aec fe3d
00000320: c441 943d d4c0 a83d 31f2 ef3b 0022 7d3d
00000330: 1120 4c3d afa0 abbc 7bdd a0bc 4eed 45bd
00000340: 898a 1d3c d956 18bc 28d0 7a3c 14e6 013d
00000350: c564 7abd da0f 97bd f395 aabd 4a8e 373d
00000360: d95e c73d 7c28 f03d 5347 053c a5f1 99bd
00000370: 7563 1dbd 5e4f 0fbd 6c42 bf3c 76a4 debc
00000380: 346b a9bd e060 823d af88 14bb 407e cdbc
00000390: c219 453d 905a 9abc 247b 993d 3fc8 c53d
000003a0: 41cf c13d 21d9 0f3e 7703 663d 4960 043c
000003b0: 4673 8b3b 9ee6 643d 3f99 703c d5ce e83d
000003c0: a4a2 843a 960e 8ebd 4ff2 92bd aa5a 8dbd
000003d0: 5bf6 adbc fea6 a1bd fde6 ce3d 3fb3 c43d
000003e0: f063 543d 44ee fbbc 68aa 67bc 1109 cf3c
000003f0: 1dd5 5bbc b0ab 6c3d a51e a6ba 5cfd 9ebd
-0.07490693 0.07089946 0.043837633 -0.058440764 0.005766836 -0.044428196 0.05706841 -0.06055013
0.01797599 -0.013110247 0.04612065 0.023880815 -0.0022136797 0.04097614 0.04050835 0.066371165
0.069184825 -0.03622977 -0.023785055 -0.05012348 0.027548518 0.059642583 0.05246317 -0.057338793
-0.019194515 0.01533752 0.1039027 0.07216814 0.03264851 -0.089062735 0.039919276 0.037245292
0.039876096 0.058008052 -0.018862374 0.058167186 -0.014730362 0.04237407 0.055048455 -0.01300246
-0.054253485 0.12916233 0.026883526 -8.231928e-05 0.12793793 0.039409265 -0.06781624 0.06492726
-0.039802834 0.040486645 -0.10729742 -0.027652167 0.06330656 0.03445859 0.048174918 -0.059008505
0.0940919 0.03918767 0.03190048 -0.0036715372 0.0039203847 -0.10988872 0.007570238 -0.033845115
-0.0155686885 -0.01771883 0.0824739 0.009383294 0.09866826 -0.07089767 0.05549392 0.08257823
-0.017397925 -0.018507307 -0.00049015204 0.009480923 -0.013432789 0.006345218 -0.09012859 -0.033028584
-0.012260833 -0.0671645 -0.0043718866 0.095974 -0.0028082482 0.021942304 0.06596468 0.0036946998
-0.02340368 0.06263246 0.0115825515 0.035461582 0.060489573 0.0032000826 -0.001175512 -0.027442027
0.044191442 0.06149456 0.02434145 0.014915755 0.07505225 0.0006472567 -0.053716145 0.049123187
0.008899291 -0.0015914636 -0.050822943 -0.035688438 -0.04512232 -0.033450607 0.116316475 0.044180904
0.053030174 0.008700691 -0.016182788 -0.07927465 0.11160935 -0.034262344 0.0509983 0.07561553
0.068252705 0.026082944 -0.023056265 -0.03625474 0.0049995054 0.008420418 0.069240175 0.06386655
-0.13938247 0.033893943 0.07432923 -0.03773244 -0.024098627 -0.039874125 0.07797312 0.051661633
-0.018046932 -0.07218383 -0.04589051 -0.010922193 0.02674498 0.015160774 -0.009908009 0.117834575
0.030774817 -0.028983396 0.1269377 -0.011415063 -0.032713596 -0.065586306 -0.015243633 -0.05630194
-0.044316817 -0.04083163 -0.024191648 -0.07447898 0.027374849 0.03396223 0.020179123 0.04278167
0.005745425 0.009468385 -0.022993226 0.074449524 -0.06701144 -0.05097656 -0.01256345 0.08283223
-0.041057285 -0.02120867 -0.018842245 0.0069229417 0.068577476 0.0063536977 0.075984895 -0.076491535
-0.009199398 -0.025159221 -0.040672384 0.101350345 -0.028144797 0.038700774 0.060112353 -0.049836863
0.07075563 0.04695561 0.07833566 0.058899112 -0.0519644 0.047427654 -0.03200387 -0.08741607
0.10564107 0.0641079 0.1092123 0.057711173 -0.033468463 -0.03942819 0.0578024 0.12447424
0.07239106 0.08239904 0.0073225726 0.061800003 0.04983527 -0.020950643 -0.01963686 -0.048322015
0.009615549 -0.00929805 0.015308417 0.03171356 -0.061131258 -0.0737607 -0.08329382 0.04481343
0.09734888 0.11726472 0.008134681 -0.07516793 -0.038424928 -0.0349878 0.023347102 -0.02717803
-0.082724005 0.06366134 -0.0022664478 -0.025084615 0.048120268 -0.018842012 0.0749419 0.096573345
0.09463359 0.14047672 0.056155648 0.008079597 0.004255685 0.055883996 0.014684974 0.11367575
0.0010119271 -0.06936376 -0.07175123 -0.069020584 -0.021235636 -0.07893179 0.10102651 0.09604501
0.05185312 -0.030753262 -0.014139749 0.025272878 -0.013417509 0.05778092 -0.0012673928 -0.07763168

tcn.0.conv1.conv.bias f4 [64]
00000000: 4dcf febc b417 95bd 984c 55bd f326 f5ba
00000010: 725d 0d3d 4aae 263c 07cb e6bc d190 843b
00000020: 1c2b 0cbc 75b8 48bc 3752 7b3d 2461 adbc
00000030: c866 d23c 582d 803d 8e69 f1bb a7d6 5dbb
00000040: a373 443c 2fb1 a13d cf9c ba3c 5885 1dbd
00000050: 37e7 ac3d 58b4 8dbc 9c82 1b3d 91df cbbc
00000060: 3758 c03d ee8c 35bd 77f0 acbc 2943 4d3d
00000070: bd50 583d 4fd2 25bd 4a57 7abd f189 2fbd
00000080: 954b f5bc e2a3 803d aad8 613d 58a3 913c
00000090: 9a50 d8bc 8968 88bd f51e a63c 8981 95bd
000000a0: d8b6 d9bb 25f8 933d b980 223d 03d4 eb3c
000000b0: 3cef ef3c f044 5d3d 29eb 50bb ec5e 543d
000000c0: 0549 0ebd c725 443d fde4 663d 6bc3 46bd
000000d0: 6cf5 f0bb 888f 713d 4d79 d33b 7c1e 293c
000000e0: 84fb 503c 6495 3fbd 350d 4cbd 2f6a c03c
000000f0: 2238 353d 1585 e2bc 499c 803d b8ae e3bc
-0.031104708 -0.07279912 -0.052075 -0.0018703624 0.034512945 0.01017339 -0.028172983 0.004045584
-0.0085552 -0.012251009 0.061357703 -0.021164484 0.025683776 0.06258649 -0.0073673194 -0.0033849867
0.011990461 0.07895123 0.02277985 -0.038457245 0.08442538 -0.017297909 0.037966356 -0.024886878
0.09391826 -0.044323854 -0.021110756 0.050112877 0.052811373 -0.04048377 -0.0611184 -0.04285616
-0.029943267 0.06281258 0.055138268 0.017778084 -0.026405621 -0.066605635 0.020278433 -0.073000975
-0.006644111 0.07225064 0.03967354 0.028787619 0.02928888 0.054020822 -0.0031878448 0.051848337
-0.034737606 0.04788759 0.056370724 -0.04852621 -0.0073534753 0.058974773 0.006453669 0.010322209
0.0127552785 -0.04677333 -0.049817283 0.023488132 0.044242986 -0.02765135 0.06279809 -0.027793273

tcn.0.conv2.conv.weight f4 [64, 64, 3]
00000000: 92e2 ca3c c3f6 e4bc 1871 d93c 5e14 23bb
00000010: 98ec 6b3d 259d 9dbb 6d9b a13b a076 563d
00000020: 96c9 b6bc 5098 87bd 9c1f e0bc 5a67 543c
00000030: ed08 0c3d 9244 573d fba3 c43c a39e db3d
00000040: a162 143d 56d7 c83b 77fd 803d 742b 943d
00000050: 378c 5f3d cc0b 5d3d 1277 903d 5f68 1f3d
00000060: 38e0 41bd 9b4f 4cbd 5ac2 7bbc 49d3 873d
00000070: 1541 c33b 7e33 953d 043d b4bd fb2c cdbd
00000080: e308 5e3c 36e7 1b3d f94e a43d 22ec 043e
00000090: c2a6 743d 0401 bb3d f424 cb3d dfdd 12bc
000000a0: cc8c 71bd 88bf a73c 5a19 3a3d 53dc 043c
000000b0: 8268 df3c b479 5c3d b172 2639 6b94 6f3d
000000c0: 60e5 83bd 9ce0 4cbc 1005 c0bd 4515 f93d
000000d0: 874b d8bb cb97 a03d 44c8 d43d 65b4 363d
000000e0: f3c9 413d 87af 003c 9f73 a5bd d65c 2dbd
000000f0: 4391 363d 9d93 c93d 906e dc3d 3d74 833d
00000100: 45a7 de3d 21e6 523d 9dc9 af3d 1670 d43c
00000110: e3ce 853d c0a4 73bd fc66 853c 857b bbbd
00000120: 8b38 f73c 9b27 e43d f2b3 9f3d 09ec 923d
00000130: 80fb 99bc e479 8d3c 7c40 d83d 669c 3d3d
00000140: eb29 c73d dc64 663d 0b04 013d 86fb d23c
00000150: 8a92 f03a 575a e73d 8683 613d 6a7a c13d
00000160: 273d e4bb 6666 2fbb 18b9 ed3c 6a16 61bd
00000170: 582d 8dbb e2cb 5e3d 0dfe a13d 4c18 bcbc
00000180: 58b1 d5bd 525e 97bc 624c c0bd c8b2 603d
00000190: dfe4 c13b 21dc c63c 860b 0c3d 1d92 5cbd
000001a0: 8752 5ebd 5d3d 98ba e49f a13d cc84 143c
000001b0: 380d 81bd cee7 9bbc d9fc 793c 1f35 cc3d
000001c0: 378a 583d 45fc d13c 6300 483b 6e06 793d
000001d0: f0a7 063e 160c fa3d 1fe2 803d 6abb 2c3d
000001e0: 0658 b33d af70 e23c 8f35 353d daa4 7b3c
000001f0: e572 b73c b6ac d73b 06d2 243d 91ee 363d
00000200: 6321 07bd de3f fa3d a062 af3d 7d9a fc3c
00000210: 9d83 84bc cf2d 2dbd 2cde 463d 33e2 483d
00000220: b4dc a63d 3720 463c f0c3 7b3d 8fd9 8dbb
00000230: cafd 753d d10e c13c c774 9f3c 1af8 913d
00000240: fb6f 0a3d e372 c83d 9d56 d53d c104 3d3d
00000250: 0e27 cb3d eb15 193c 8df3 683d c703 333d
00000260: d4e6 3f3d 4587 8c3d 3c0b 163d 63df 2b3d
00000270: c671 ecbc eacd 9f3a 1f03 bdbc 64c1 023d
00000280: 9a0c 81bc 79c6 3f3d 87a0 5a3d 87ab ab3d
00000290: d2d5 853c 32f9 9a3d 1a6f 9a3d 3039 c43d
000002a0: db1f c0bd b2f5 9abd f5e8 9dbb c516 12bd
000002b0: 917a da3c 5593 353d 4caa 863d 4150 333b
000002c0: 7c26 59bd b80a 6a3d 3bd6 c63d ecb7 0f3d
000002d0: a20f 673d c698 853d bd47 b33c 00b8 633d
000002e0: a76b 043e baf6 8d3d 8abe 3bbd a344 d33c
000002f0: b2f6 87bc 7b56 8fbc 48b2 8fbc b6e4 443a
00000300: 17fe ed3c 38e2 6f3d 527e 9e3d c3ad 31bd
00000310: ff49 073d c505 873d 6d70 f13d e126 8f3d
00000320: 59f1 033e 1bcb 333d ceae 61bd d164 51bd
00000330: aaaf 063d b161 4bbd bc0b a23d a6e7 8f3d
00000340: b68f d13c d7fd fe3d 3c1b 863d f793 fa3c
00000350: 7173 903d f9a0 b63d 484e b63c f25e d93d
00000360: 5729 56bc 97bd d8bd 3823 84bd d240 853d
00000370: 1592 e53c 04d3 9a3d b5d2 b6bc 57d0 e73c
00000380: 0f83 abbc 5527 963d 9db3 023e d444 033e
00000390: 348f 3e3d 7412 f73d 6098 c63d 6d99 d3bc
000003a0: 79d3 483d 073a d8bd 68a3 fb3c e98e b73d
000003b0: 391e 793c 7b4a 9c3d 50c7 ce3c f24e 643d
000003c0: de10 5bbd 3465 85bd fa09 313d 806c 913d
000003d0: 218d 233c 89d2 9a3d 585a f63d 33e9 fa3c
000003e0: e728 0b3e 7477 2fbc 8282 973b a22f 753d
000003f0: 11ef b63d a6eb 133d 55b4 793d 436f b83c
0.02476624 -0.027949696 0.026543185 -0.0024883966 0.05759868 -0.004809993 0.0049318583 0.052359223
-0.02231292 -0.06620848 -0.027358823 0.012964094 0.0341882 0.052555628 0.024003973 0.10723617
0.036226872 0.0061291857 0.062983446 0.072348505 0.05457708 0.05396633 0.07053961 0.038917895
-0.047332972 -0.049880605 -0.015366161 0.06632096 0.005958686 0.07285212 -0.088007 -0.10018345
0.013551923 0.038062297 0.08022875 0.12980703 0.059729345 0.09131053 0.099191576 -0.008964031
-0.058972165 0.020477071 0.045434333 0.00810917 0.027271513 0.053827003 0.0001587372 0.05849115
-0.06440234 -0.012504723 -0.093759656 0.1216226 -0.0066008004 0.07841452 0.1038976 0.04460563
0.047311734 0.007854349 -0.080786936 -0.042324863 0.044572126 0.09842608 0.107632756 0.06418655
0.10871748 0.051489 0.085833766 0.025932353 0.06533601 -0.05948329 0.016284458 -0.09154419
0.030178329 0.11140367 0.07797994 0.071739264 -0.018796682 0.017270036 0.105591744 0.04629173
0.09724792 0.05624853 0.031497996 0.025754701 0.0018354219 0.11296528 0.05505707 0.09447177
-0.0069652977 -0.0026763915 0.029018924 -0.054953016 -0.004308384 0.054393657 0.079097845 -0.022960804
-0.10434216 -0.018477593 -0.09389569 0.054858 0.005917176 0.024274888 0.034190677 -0.053850282
-0.054277923 -0.0011614967 0.07891825 0.009064864 -0.063013494 -0.019031432 0.0152580375 0.099710695
0.052866187 0.025632987 0.0030517809 0.060797147 0.1315 0.122093365 0.06293129 0.04217092
0.087570235 0.027641622 0.04424053 0.015359128 0.022393653 0.006581868 0.040239356 0.04466111
-0.032990824 0.12219213 0.08563733 0.030835385 -0.01617604 -0.042280015 0.048551723 0.049043845
0.081475645 0.012092642 0.061466157 -0.0043289135 0.060056485 0.023566635 0.019464863 0.071274
0.0337982 0.09787538 0.10416911 0.04614711 0.099195585 0.009343605 0.056872893 0.043704774
0.046850994 0.06861738 0.036631808 0.041961085 -0.028862845 0.0012192104 -0.023072777 0.031922713
-0.01575308 0.046820138 0.053375747 0.083823256 0.016337309 0.075670615 0.07540722 0.0958122
-0.09381076 -0.07566394 -0.0048190304 -0.035666246 0.026669772 0.04432996 0.0657545 0.0027361067
-0.053015217 0.05713913 0.0970883 0.03508751 0.056411393 0.0652328 0.021884793 0.055595398
0.12931691 0.06931825 -0.04583601 0.025789564 -0.016597126 -0.017497292 -0.017541066 0.0007510887
0.029051824 0.05856535 0.077389374 -0.043378603 0.033029553 0.06592897 0.11789022 0.069898374
0.12885036 0.04389487 -0.055098347 -0.051121537 0.03288237 -0.049653713 0.079123944 0.07026605
0.025581222 0.1245076 0.06548163 0.030588133 0.07053269 0.08917422 0.022254124 0.106138125
-0.01307138 -0.105830364 -0.0645203 0.06506504 0.028023759 0.07559779 -0.02231727 0.028297586
-0.020936517 0.07331721 0.1276383 0.12819225 0.046523288 0.120640665 0.09697032 -0.025829995
0.0490298 -0.10557943 0.030717567 0.08962805 0.01520496 0.076313935 0.025241524 0.05573935
-0.053482883 -0.065134436 0.043222405 0.07100773 0.009982378 0.07559688 0.120289505 0.030628776
0.13589822 -0.010709632 0.004623712 0.05985988 0.08932317 0.036113404 0.060962994 0.022513991

tcn.0.conv2.conv.bias f4 [64]
00000000: cdde 5bbd 0a32 bf3b 3cc6 063d 045f 9bbd
00000010: 778d cebc 8df9 583d be68 4fbd 6231 b03c
00000020: 68b1 e7bc 9537 b8bd 1c1d 79bd 6973 62ba
00000030: a4c9 5d3b 4114 8cbd 33cd 52bd db71 a83b
00000040: 8455 9f3d 1c48 d63b d4ef 843d b9bc adbc
00000050: 1f9e 55bd 8174 b83d 3cf7 2ebd d8e2 5138
00000060: 57b3 13bd 4227 563d d6a5 9dbd 792c 91bd
00000070: f532 04bd 7842 13bd e29c 713d 6a1e 85bd
00000080: cf1f 9cbd 8f70 92bc f820 773d 956f 99bc
00000090: d451 383d 7b59 0dbd 8016 1cbd 2fd6 b53b
000000a0: 8031 b2bc 5e85 56bd d3e1 05bc 158d 663c
000000b0: 70f8 3f3d 29ca 7b3c 68a1 aebc 3ed7 6a3d
000000c0: eb15 313d 66b4 96bd 6c8c 253d 688d 523d
000000d0: 90fa 0d3d 4e47 9dbd 650f 853d 2030 23bc
000000e0: 6eef 37bc bc90 7d3d 0b2a 7dbd 2ca8 08bd
000000f0: 0cad 0dbd 8f35 413d 18a9 073d e381 95bc
-0.053679276 0.0058348225 0.032903895 -0.07586482 -0.02521394 0.052972365 -0.050637 0.021507923
-0.028282836 -0.089949764 -0.060818776 -0.0008638413 0.003384211 -0.068398006 -0.051465224 0.0051405258
0.07779983 0.006539358 0.06491056 -0.021208154 -0.05215275 0.09006596 -0.04271625 5.0040748e-05
-0.036059704 0.052283533 -0.07697646 -0.070885606 -0.03227516 -0.03595206 0.058987506 -0.06499942
-0.076232545 -0.017875938 0.060334176 -0.018729964 0.044999912 -0.034509163 -0.038107395 0.0055492143
-0.021752119 -0.052373283 -0.0081715165 0.0140717225 0.046867788 0.015368023 -0.021317199 0.057334177
0.043233793 -0.07358627 0.04041712 0.051404387 0.034662783 -0.07679616 0.06497077 -0.009960204
-0.011226518 0.061905608 -0.061807673 -0.033363506 -0.03458886 0.047170218 0.033120245 -0.018250411

tcn.1.conv1.conv.weight f4 [64, 64, 3]
00000000: 7a47 893d ad7b 95bb f34d 7ebb afc7 123e
00000010: 7f38 623d d302 233d 7639 5e3d 78fb a53d
00000020: f731 db3d 1430 4cbc 0ce6 3e3c 885e 813c
00000030: 898c eabc 7d97 58bd 5bd4 3f3d 74b3 8bbd
00000040: d50b 9dbc 7cb2 9b3c f752 513d d321 1ebd
00000050: c492 bd3d 4b6c 783c 2e37 5fbb 5ebf cabd
00000060: f585 aa3b 4335 a33d 59cd 713d 2619 2e3d
00000070: 9670 21bd 59d6 b2bc 4d68 b3bd bdcf b93c
00000080: e7d3 9bbd 32b5 813d e752 c53d 1d30 b73d
00000090: 5343 953d ef6b a03d 4d73 0b3c 473a 573d
000000a0: ce0b d13d eb25 b13d 3cef 983d c298 4f3b
000000b0: 5a28 e03c c8fb a53d c190 023d 8a16 ae3d
000000c0: 50d2 4fbd 25b6 7abd d5da f33c 985d 9f3c
000000d0: 036e 353d f422 0dbd dc88 893d 876c 2fbd
000000e0: faac 1abd 5e26 1dbd 48be 77bd e0f3 263d
000000f0: a2e5 b73d 19c8 99bc 8fdd d43d f4b3 e2bc
00000100: 723f 41bd 9d74 e6bc fc90 573d 647e e93d
00000110: 4dc6 f43d 28da 273c d21c debc 583c 973d
00000120: 60c6 923d d21d 93bc 8e19 b63d cdb5 043b
00000130: df17 5cbd 379b 08bb da48 323d 22c9 063d
00000140: 04b5 863d 975b 733d a346 993d 870b 2c3d
00000150: ee2c 8e3d 80ca 20bd a379 1d3d 9952 673d
00000160: d712 8a3d f91e 0b3d f297 4cbd 4fb1 163d
00000170: 8f7c bbbc ba74 983d 26bd ae3d 95ed a23d
00000180: 4eb1 61bb 525a 2f3a a2f7 83bd b70b 9a3d
00000190: be2b 173d c485 8d3c ee0b 6f3d 2370 76bd
000001a0: d515 d6bc ba1e c83c 80a7 503d b29f f9bb
000001b0: 580b 093c 1a4f d03d 4e24 ad3d 5746 2d3d
000001c0: e686 21bd 7d6d 563d d6a5 ab3d 8fbb 94bc
000001d0: 388e 293d 0eea 633d ee8f bf3d 244e 843c
000001e0: 6ec6 443d 6f9a 7d3d b9c3 9dbd 17e2 073c
000001f0: 6df7 b13d d7d3 8cbc 1dee dd3b 625b 60bd
00000200: fb0d 7fbc fcae 31bd 2f53 cbba 6749 08bd
00000210: 6331 60bd 36f9 75bd ecf0 7abc e544 cf3d
00000220: 80dc 993c 2ef4 283d f187 c2bb f573 34bd
00000230: 4e7a 9b3c 40bd 5c3d 35f9 273c ed2b 6d3d
00000240: 65cc 723b 94d8 633c ccba 073e 09d2 683d
00000250: 01ea 253d f085 0c3d 7ebd 28bd 17ee 1bbd
00000260: 4c8a 6cbd 3fbb 463c 699a eabc 186e 78bd
00000270: 85e9 893d 19db 423d 38e3 7d3d c50c 0c3d
00000280: 437a 1e3d 71f4 a53d 7903 9eba daff a7bd
00000290: cf6b f5bc baf4 673d d67c 253d 1791 b73d
000002a0: ad69 5b3d 69cb 2c3d 42c3 3fbd 8454 103d
000002b0: 3202 883c fba6 1cba 7ebf 0fbd 9240 143c
000002c0: 31dc e5bd 4556 17bc 90f2 123d 6ece 1fbd
000002d0: 6868 b03c c3a1 2d3b d935 bfbd 6e14 b3bd
000002e0: 6823 97bd ffd9 b8bd 6bcb 8dbd 2712 4abd
000002f0: 7a2c 183d 2bc1 31bd 3fbd 4abd 1205 14bd
00000300: d207 6dbd 2b48 32bc 5b45 073d e590 923d
00000310: 1653 03bd 9074 c03c 7cb3 663d 12f4 713d
00000320: 3a93 123d 3dff 423d 165e e3bc 472e 6cbd
00000330: e0ac 4c3d 316e b6bc 6675 c3bb e154 22bd
00000340: 6e21 8dbd a2a5 32bc 2f9d 553d 67f8 033d
00000350: 170a 7d3c e89a 583d ecca fdbc 4940 7b3d
00000360: 3276 f6bc 7bf5 4abc 74b1 a23c 8cef 7a3d
00000370: 8bf0 b7bd e15f b5bd 4ee7 4bbd ebaf 19bd
00000380: 29a7 7e3d 7638 c03d 1c0f 8a3d e3f4 88bc
00000390: 5482 833c d5f9 4f3d 0f25 883b fc6d b23d
000003a0: 7036 18bd 72f4 9f3b ec05 703d 0ed1 efba
000003b0: bf12 f3bb b4e7 963a bdd6 3e3d 3ec7 1d3d
000003c0: a1df 82bd 8c9d 96bc fc8f 4bbd ba29 843d
000003d0: 2710 843d 7945 8fbc 88a8 cabd 6ba6 68bd
000003e0: b681 04bd 90f5 3a3c efab fb3c 66e1 17bc
000003f0: dc9f bbbd 015b 63bd 4340 63bd 6fde a33c
0.06703086 -0.0045618624 -0.0038803786 0.14333986 0.05522966 0.039797615 0.054254018 0.081046045
0.107028894 -0.012462635 0.011651527 0.015792146 -0.028631466 -0.052878845 0.046833377 -0.06821337
-0.019170681 0.019006006 0.051104512 -0.038606476 0.09256509 0.015162538 -0.003405999 -0.09899782
0.005203957 0.07969143 0.059033725 0.042504452 -0.03941401 -0.021830725 -0.08760128 0.022682065
-0.076087765 0.063333884 0.09634953 0.08944724 0.07288232 0.07833087 0.008511377 0.052545812
0.1020733 0.086498104 0.07467505 0.0031676744 0.027362991 0.08104664 0.03187633 0.08500393
-0.05073768 -0.061208863 0.029767433 0.019453809 0.04429437 -0.034457162 0.06715557 -0.04282811
-0.03776262 -0.038366668 -0.0604842 0.04075992 0.08979346 -0.018772172 0.103938214 -0.027673699
-0.047179647 -0.028131777 0.052628502 0.1140106 0.11951885 0.010244884 -0.027113352 0.073845565
0.07166743 -0.017958555 0.08891593 0.0020249963 -0.053733703 -0.0020844468 0.043526508 0.03290666
0.06577495 0.05941352 0.07484176 0.04200318 0.069421634 -0.03925562 0.03844608 0.056475256
0.06741875 0.033965085 -0.049949594 0.03679019 -0.022886543 0.07444139 0.08532171 0.079554714
-0.0034437957 0.0006689179 -0.064437166 0.07521766 0.03690695 0.017275698 0.058360986 -0.060165536
-0.026133457 0.024428714 0.05094099 -0.007617914 0.008364521 0.101713374 0.0845419 0.04230341
-0.03943529 0.05235051 0.0838124 -0.018155841 0.041395396 0.055643134 0.09353624 0.016150542
0.0480408 0.061914857 -0.07703347 0.00829365 0.08689771 -0.017190857 0.00677277 -0.05477465
-0.015567298 -0.04337977 -0.0015512462 -0.033273127 -0.0547346 -0.06005212 -0.015316229 0.101205625
0.0187819 0.041248493 -0.0059366156 -0.044055898 0.018979218 0.05389142 0.010252287 0.05790322
0.0037048098 0.013906617 0.13254851 0.05684093 0.040506367 0.03430742 -0.04119634 -0.038068857
-0.057749078 0.012129604 -0.028638082 -0.06065187 0.067339934 0.04757223 0.06198427 0.034191865
0.038690817 0.08103264 -0.0012055478 -0.08203097 -0.029958634 0.056629874 0.040402256 0.089632206
0.053567577 0.042186175 -0.04681707 0.03523685 0.01660261 -0.000597581 -0.03509473 0.009048598
-0.11223639 -0.009236877 0.035875857 -0.039015226 0.02153416 0.0026494123 -0.093364425 -0.08744131
-0.073798 -0.090259545 -0.069235645 -0.049333718 0.03715179 -0.04339711 -0.049496885 -0.036137648
-0.057868786 -0.010881464 0.033025127 0.07156543 -0.03206166 0.023493081 0.056323513 0.059070654
0.035784937 0.047606695 -0.027754825 -0.05766132 0.049969554 -0.02226934 -0.0059649227 -0.039631728
-0.06891142 -0.010903748 0.052151855 0.032219317 0.0154443 0.052882105 -0.03098055 0.061340604
-0.030085657 -0.012387629 0.019860007 0.061263606 -0.08981427 -0.08856178 -0.049781136 -0.037521284
0.062171135 0.09385769 0.06741163 -0.016718334 0.016053356 0.050775368 0.0041548084 0.08712384
-0.03716129 0.004881435 0.058599398 -0.0018296556 -0.007418006 0.0011513145 0.04659151 0.03852009
-0.0639031 -0.018385671 -0.04969786 0.06453271 0.06448393 -0.017489182 -0.09895426 -0.056799334
-0.032350264 0.011411086 0.030721633 -0.009270048 -0.0916135 -0.05550671 -0.055481207 0.020003526

tcn.1.conv1.conv.bias f4 [64]
00000000: 7888 21bd 49eb bcbd d0ab 51bd a625 8e3c
00000010: e814 7e3c 6066 d73c 65c3 f8bd eada 503d
00000020: 8d11 4ebd bade 91bd 629b 123d a524 3bbd
00000030: ff6c 063b c4e3 83bd 05f7 103d 57c4 4bbc
00000040: 47c6 05bd 2beb 29bd 19ae 4b3d 40bc 943c
00000050: 640d 5dbc 71a5 9dbd fe8b 97bd 4453 753d
00000060: 785c b03c 77a1 953c ea12 2bbd a1cc c2bc
00000070: 095f 1dbc ec9b 0b3c f3ed ad3d 65d7 793c
00000080: d829 623d e7b5 fcbc 4712 44bd 206c 85bd
00000090: d857 9c3c e620 a53c b027 25bd 83c9 5fbd
000000a0: 184d a9bc 6e8c 53bd ee8c bebd a14f 18bd
000000b0: ca2d 28bd 4857 a13d a086 57bc dee2 003d
000000c0: 2aec 47bc 182d 973c d92b 133c ae9d 88bc
000000d0: 515c b4bd e79d 91bb 7345 c8bb eba3 e6bc
000000e0: ad30 63bc 5607 54bd 3289 adbd c5fc 0e3d
000000f0: f362 ec3b 725a 77bc 4b50 55bd e033 2e3d
-0.039436787 -0.092245646 -0.051189244 0.017351937 0.015507914 0.026293933 -0.121466435 0.050990023
-0.050309706 -0.0712256 0.035792716 -0.045689244 0.0020511744 -0.06439927 0.035391826 -0.012436948
-0.032659795 -0.04148404 0.04972658 0.01815617 -0.013491962 -0.07697571 -0.07399748 0.05989386
0.021528468 0.018265469 -0.041766085 -0.023779215 -0.009605178 0.008521061 0.08492651 0.015249108
0.055215687 -0.030848457 -0.047868993 -0.06514764 0.019084856 0.020157289 -0.040321052 -0.054635536
-0.020666644 -0.051647596 -0.09304224 -0.037185315 -0.041059293 0.07877976 -0.013154656 0.031466357
-0.012202302 0.01845412 0.008982622 -0.01667675 -0.088066705 -0.0044438723 -0.0061117946 -0.028154334
-0.013866586 -0.05176481 -0.084734336 0.03490903 0.007213944 -0.015097247 -0.052078526 0.04252994

tcn.1.conv2.conv.weight f4 [64, 64, 3]
00000000: 7c19 9e3a 7358 6c3d 27e8 423d fdaf a73d
00000010: 4b11 50bc 6704 c33c 1107 aa3c a83c 49bd
00000020: e0bf a03d 0502 953c 6ee3 1d38 faa1 af3c
00000030: 30cc 3abc 782a a23d 1169 af3d 1544 59bc
00000040: e1ed 953d ccdb 363d 4918 d4bc 0d31 d03a
00000050: d9ff 363e f049 c1bc 8399 fbbb 23b8 a4bc
00000060: da21 74bd 5d38 72bd febe 553d 4e4a 3a3c
00000070: f217 733d e038 51bd e9b5 f2bc 07d6 fb3c
00000080: 7325 d03c 475d 1bbd b58e 05bd 4c00 913c
00000090: 4126 1d3d 88d5 b53d 2d3a debc 62cf 01bd
000000a0: c087 2bbd 9461 eabc 01de b83b 4656 9b3c
000000b0: bd59 963d 16cd 2abd f963 1e3d c7df e2bc
000000c0: d622 123d 8734 8abc 7796 7c3c 6690 1ebd
000000d0: d8fb 04bd 4a8f b83c 3d86 81bd 3983 343d
000000e0: efa7 00bd 46a8 af3d e4b9 2fbc 58e1 933d
000000f0: e892 51bd e8f2 a7bc 0d0f 77bd f988 203d
00000100: 41e8 ab3c 501d 843c 74e3 2abd 5b5a e73b
00000110: 330e fb3b 5cd1 8cbd 1e97 97b9 2429 00bd
00000120: 78de 113d 4f53 253d d68f 483d 7193 dd3c
00000130: 0509 eb3c acd6 933d d9c8 6b3d 9b4a 283d
00000140: e47b e73c 6d10 883d 35c9 673d 521c 4839
00000150: 33ea 0bbd 1b3b 76bd 4335 e2bd a9fa 753d
00000160: c02b 6d3d 6e49 41bc 5ff2 f13a 4a4e bdbd
00000170: 308f 813c baee 2ebd b793 5bbd e8f7 d6bd
00000180: 66db 8d3c aac5 ac3c e8fa db3c 41fc 6dbd
00000190: e309 8e3a 4cbb ec3c f828 b7bc 9051 debc
000001a0: 94fa ca3d 7d8a 483d 2520 06bd b575 f13c
000001b0: 9de4 3d3d 2eca 84bd 967a 3e3d cfb4 4f3c
000001c0: 4f6f 5d3d 2954 ef3b abbd fabc 4a57 5abd
000001d0: 8cba 82bd 739b 36bd f57b c93c 772f f33b
000001e0: 0b41 763d 7cc4 c23c ee38 7a3d 8b30 4ebc
000001f0: 2f3e 19bc a77b b53c 460d 683d e8b1 4d3c
00000200: 0b08 193d b2e5 cfbc 0f14 0abd dc37 473d
00000210: 1a0c fdbc 3002 4ebc 31d6 a8bc 42d5 8fbd
00000220: 0cdf e1bd 4fce 84bd 4f5c f9bc 123b f3bc
00000230: 7f89 0d3c d55b a33d 9595 1cbc 577e d8bc
00000240: ddc8 c7bc d054 173c 1cd0 82bd 2af1 903d
00000250: 2279 45bd 7638 9abc 4385 503c 5c55 7cbc
00000260: f110 a63d bfd3 86bb 2dda 3abd 137c f2bc
00000270: da67 953d 2df3 ac3d 7c12 063d 0bc6 17bd
00000280: 39bb 73bd 7f5c f1bc 061a d23b 5a7d 08bd
00000290: b71a 88bc d7f5 fabc c0cf b23d 5a8e be3d
000002a0: f9a5 b73c 69c2 413c 7ce1 813c 1996 8f3d
000002b0: f9a6 febc 8175 583d 5c1c c0bb 52e3 4c3d
000002c0: f4fc b4bc 5721 fb3c e3c2 153d 4b65 933c
000002d0: 6efb 75bb 6c2b 243d 0497 533c 1b47 26bd
000002e0: 00af 58bd 6206 8ebd 042d 913d ee85 533b
000002f0: ed16 06bd 27b0 d6bd fbb9 89bd 4e02 23bd
00000300: 3308 d93d 3378 403c e1a1 f43b 81d0 b63d
00000310: 6714 06bc 6cfb 433c d611 20bc ff83 9c3c
00000320: 38bf 833d facd 77ba f126 df3d 13ee 6a3d
00000330: f499 28bd ff7d 80bc 1431 1dbc efa1 7abd
00000340: 0959 e7bc 15eb bbbd d4bd 2e3c 0a2c 8b3d
00000350: 898b 013e 94fa 1abb 422c fbbc 57bb 8b3d
00000360: 8f7d 353d e458 9e3d 5a70 0bbd d72a 99bc
00000370: 2538 663d 0a22 6cbb 4e24 08bd d869 c83c
00000380: 17e8 c4bd d972 53bc 67dd 1b3d f5bf 933d
00000390: 31be 873c d261 e03d 66dd e43d 1bd5 8c3d
000003a0: 4471 b13d bd58 ecbb 9b6a 293d c68d 163b
000003b0: ee93 f83d 7229 ae3d e72f c33d 2d58 583c
000003c0: ec12 f2bb 03bd 0abd 17c2 0dbd 065c 9b3c
000003d0: dd54 a03c d1a0 ef3b feab 063c 06df 503d
000003e0: e571 163d 6861 c53d eb3b a13d 16dd a73d
000003f0: e433 a23d 4dce 233c b9c6 a53d 68cb 00bd
0.0012062038 0.05770154 0.04758468 0.08187864 -0.012699435 0.02380581 0.020755323 -0.049130112
0.07849097 0.01818944 3.7643527e-05 0.021439541 -0.011401221 0.079182565 0.08564962 -0.013260861
0.073207624 0.04464321 -0.025890486 0.0015883759 0.17871036 -0.023594826 -0.007678212 -0.020107334
-0.059602596 -0.059135783 0.052184097 0.011370255 0.059349008 -0.05107963 -0.029627757 0.030741705
0.025408482 -0.037930753 -0.0326068 0.017700337 0.03836656 0.088786185 -0.02712735 -0.031691916
-0.04187751 -0.028610982 0.0056416993 0.018962037 0.07341335 -0.04169949 0.03866956 -0.027694596
0.035677753 -0.01687075 0.015416733 -0.038711928 -0.03246674 0.022529263 -0.06324432 0.044070456
-0.031410154 0.085770175 -0.010725472 0.07220715 -0.05116549 -0.020501569 -0.060317088 0.039193127
0.02098477 0.016127259 -0.041720822 0.0070603318 0.007661605 -0.0687587 -0.00028913555 -0.031289235
0.035612553 0.040362652 0.048965298 0.027047845 0.028690824 0.0721868 0.05756459 0.041086774
0.028257318 0.06643758 0.05658837 0.00019084036 -0.034158897 -0.06011496 -0.11045315 0.0600535
0.05790305 -0.011797292 0.0018459073 -0.09243448 0.015815347 -0.042708136 -0.05360767 -0.10496503
0.017316531 0.021090347 0.02685304 -0.058101896 0.0010836687 0.028897904 -0.022358403 -0.027138501
0.09911075 0.048960198 -0.0327455 0.029475072 0.0463606 -0.06483875 0.046503626 0.0126773855
0.05406123 0.007303734 -0.030608019 -0.0533059 -0.06383237 -0.04458184 0.02459524 0.0074214297
0.060120624 0.023775332 0.06108945 -0.012584816 -0.009353205 0.022153689 0.056653284 0.012554623
0.037361186 -0.025378082 -0.033710536 0.048637256 -0.03088956 -0.012573764 -0.020609947 -0.070230976
-0.11028871 -0.06484663 -0.030439524 -0.029691253 0.008638739 0.079765 -0.0095571475 -0.026427431
-0.024387771 0.0092365295 -0.0638735 0.070772484 -0.048211224 -0.01882575 0.012727085 -0.015401211
0.081087 -0.0041145976 -0.045618225 -0.029600179 0.07295199 0.084448196 0.03273247 -0.037054103
-0.05950472 -0.02946305 0.0064117936 -0.03332267 -0.016614301 -0.030634804 0.087310314 0.09304495
0.02241801 0.011826136 0.01585459 0.07011051 -0.031085478 0.052846435 -0.0058627557 0.050021477
-0.022093274 0.030655546 0.03656281 0.017992636 -0.0037533897 0.040080473 0.012914423 -0.040595155
-0.052901268 -0.06934811 0.07088664 0.0032275873 -0.032736707 -0.10482817 -0.06724926 -0.03979712
0.10597267 0.011747408 0.0074655865 0.08926488 -0.008183575 0.011961799 -0.009769877 0.01910591
0.064329565 -0.0009452995 0.10896099 0.05735595 -0.041162446 -0.01568508 -0.009594221 -0.06118959
-0.028240697 -0.09175698 0.010665376 0.06795509 0.12650885 -0.0023647891 -0.030660752 0.068228416
0.044309195 0.07731798 -0.034042694 -0.018697185 0.056205887 -0.003603103 -0.033237748 0.024464533
-0.0961458 -0.0129058 0.038052943 0.07214347 0.016570183 0.10956158 0.11175041 0.06876584
0.08664182 -0.007212727 0.041361433 0.0022972687 0.1213759 0.08503999 0.09530621 0.0132046165
-0.0073875096 -0.033871662 -0.034608927 0.018964779 0.019571716 0.007312872 0.008219717 0.05099394
0.036729712 0.096377194 0.078727566 0.08196466 0.079200536 0.009997916 0.08094544 -0.031443983

tcn.1.conv2.conv.bias f4 [64]
00000000: 991d 4abd b2a3 7fbd 3e5f 1cbd 8d6d 53bd
00000010: 6e0f 69bd b268 643d e4ad aebb 2a90 313d
00000020: 5027 2f3d 5940 37bd 02bf 2dbd ea95 69bd
00000030: 98cc 74bd 9005 a83c 18fa 08bd cba8 a0bc
00000040: 8a84 b83d 69cd 3c3d da3e 9fbd a3d1 8cbd
00000050: 7145 113d 87f4 cfbb 885e 723c 71c7 75bd
00000060: 5805 763c f13e ad3d 3732 3a3c 69e0 6fbc
00000070: 0c57 36bd cc5c c0bc a357 933d 976f b5bd
00000080: 03fc 3ebd 6b97 ae3c 1f99 ea3c 0f82 25bd
00000090: d053 ab3c 27f9 6ebc 31ac 90bd 31b7 e8bc
000000a0: 6189 383d 561b 273d b7e7 813c 7629 4b3c
000000b0: 93b7 303b 13b4 aa3c 6225 27bc 033f 50bc
000000c0: 7d76 a9bc fad0 7bbd 07f3 babc 2e40 e9bc
000000d0: fb8e 6abd a044 c8bc 8d74 b4bd e458 1fbd
000000e0: d5bf bcbc df0f ac3d faa3 80bd 070f 47bd
000000f0: f23b 863d dde7 debc 170a d93c dd55 cf3c
-0.049344633 -0.06241197 -0.038176768 -0.051618148 -0.05689948 0.055763908 -0.005330788 0.043350376
0.0427621 -0.0447391 -0.042418487 -0.057027735 -0.05976543 0.020510465 -0.033441633 -0.019611737
0.09009655 0.046094332 -0.0777566 -0.068759225 0.035466615 -0.0063462886 0.014793046 -0.060004655
0.0150159225 0.08459271 0.011364511 -0.014640906 -0.044516608 -0.023481749 0.0719445 -0.08859175
-0.046627056 0.021312436 0.028637467 -0.040407237 0.020913988 -0.01458577 -0.07064093 -0.028407665
0.04505289 0.040797554 0.01585756 0.012400022 0.0026964888 0.02083782 -0.010201784 -0.012710336
-0.020686382 -0.061478592 -0.022820963 -0.028472986 -0.057265263 -0.024446785 -0.08811293 -0.038903132
-0.023040691 0.08401465 -0.06281276 -0.048598316 0.065544024 -0.02721017 0.026494069 0.025309497

tcn.2.conv1.conv.weight f4 [64, 64, 3]
00000000: 6b1b da3c e2d5 99bc 6430 90bd 79a2 19bd
00000010: b9c7 b53c 583e a4bc ae7a c1bd 51dd 02bd
00000020: 2684 c7bd 0525 10bd ddb2 10bd 201e 4b3d
00000030: 5f9e 58bd a5f0 0f3c 4682 86ba 6833 ac3d
00000040: e601 69bc 5c0f d6bc 94df 15b9 87ae 903c
00000050: e8bf 373d c687 903d 7e7f 0d3d ff08 693c
00000060: 2763 30bd 45fc 01bc 45fc e83b 3670 e53c
00000070: 6aeb 9f3c 609d a9bd f7e4 903b 2ec6 c0bc
00000080: a608 df3d dad3 323c 178d a83c ef08 b5b9
00000090: cab1 b5bc 070f 51bd 101b 343d 5fc0 93bb
000000a0: 050c 2dbd b2b0 cabd 6056 223d e308 56bb
000000b0: a5bf 703b 0a7d a4bc e670 3dbd fd64 4dbd
000000c0: 3fdc 41bc b30a 3b3d 3cfe 00bc 3ffa c93d
000000d0: 9b35 093d 0208 c43c fe84 08bd 744f 803b
000000e0: 1380 893e 64ed bdbc ba3c 72bd d59b 39bd
000000f0: f810 a63d c666 75bb 500f 223d 92d9 353d
00000100: d030 d03c 9fab b43d 9d17 c6bc 8506 9b3b
00000110: b70c 4a3d 7a9f 213c 3ef3 98bd 75c0 a93c
00000120: 2644 263b b401 0e3c 0805 aa3d b77f a83d
00000130: 14cd 2e3d 293b ac3d 4fb9 97bd e50f c6bd
00000140: 6700 0cbe b6b0 2ebd b4ba 723d b60e 49bd
00000150: 6010 6dbd 25d5 5dbc 7938 963d 1244 873c
00000160: b2ef b63c 37cc 383c 86e2 823d 7e7f 123d
00000170: a986 fa3c b9af 243d ba80 243b f56e 49bd
00000180: 9da4 02bd f48a 9c3c f3fd 823d e88d 6b3c
00000190: 2c1c e63c c559 e4bb 1b8d b1bc 8b28 56bd
000001a0: 6d9b d4bc 5a1b a7bd 7a6c 18bb 6fd8 b7bd
000001b0: 73bf 7cbd 6384 083d b382 013d 0701 4ebc
000001c0: 0338 a43d edc3 2b3d ef5f 043b e9e2 adbd
000001d0: 624f 383c cbba 7ebd 8e84 ad3c c1c5 223d
000001e0: 73d5 92b9 6533 6c3d a9e3 7ebd f941 5b3b
000001f0: e40a 26bd 34fd 83bc c2bc 293d 0a21 fe3a
00000200: 13a8 66bd f0f9 16bc 2532 0cbc 03c9 893d
00000210: f447 cf3c 52be 303d 541a 093e 26ab b7bc
00000220: 615e 5d3d c01f 80bc cb71 c73b e8a2 b33d
00000230: 9de8 c03d 235e 4cbd fcf8 243b f8d5 793c
00000240: d340 03bd 263b 99bd 2729 66bd 2095 aebc
00000250: 4c69 53bd f086 86bd c767 34bd 98a6 45bd
00000260: 8a5a cebc 993d 78bd 026c 12bd cfba dd3c
00000270: 11e7 653d 5bf0 59bd 3291 6fbd c196 8abd
00000280: ab52 423d 6b77 473c 145c 943d fc7c 21bb
00000290: 463b d0bb e071 8abd 9e12 2e3c cc6e bb3d
000002a0: 9f15 4b3d 95fa c8bc 8c46 433a 6e79 eb3c
000002b0: f4d0 b73d 3809 323d 985a ad3a 91e8 ccbd
000002c0: 1479 f0bc e2a6 8fbd 24bc 86bd 5c40 91bd
000002d0: 11ff a6bc c4e3 903d 7c24 eb3c fcf1 c63d
000002e0: 4956 ab3d 9076 2dbc d9bd aabc ab94 b53d
000002f0: a8a2 5d3d d3d0 823c e082 b63d aecf 883d
00000300: 6044 8e3d fdc9 223c 775f 4ebc 38b6 683c
00000310: a2b1 be3d 90b9 e43c 15c6 e13d 50e0 053d
00000320: a569 b03d 9fd9 bbbb 33db b93d b16f 7f3c
00000330: 17f3 763c a92f 1fbc 1500 6ebc 5764 03bd
00000340: e2c8 073b d39f 2bbc 76b0 703d fe90 c1bb
00000350: cf9d 3e3c 031f 943b 635d 27bd 8d97 313d
00000360: da1c 0abc 0621 a93d c8ae d6bc 53d5 553d
00000370: e929 783d 87ac 67bc f175 ce3a d7c9 a03d
00000380: 6f27 98bc 8bd5 673d f64d bebc e267 8a3d
00000390: 03c3 ae3d dc7d e63c efbc 723d 7107 8ebc
000003a0: bdb1 bc3d fecb 803d c299 1f3c 2a24 c0bc
000003b0: 8165 1bbd 5bac 593d c2ac 9f3c c444 b1bb
000003c0: 6eb1 263d e73c 45ba 988f e53b 3cee 57bd
000003d0: bb63 6e3d 44d5 a5bc 381b f33c 74c2 71bc
000003e0: 8774 453c 9cbb 9e3d a0cd 3e3c 0d1c d93b
000003f0: 8819 3b3d 1434 a2bc 1c90 4bbd f0a1 d5bc
0.026624402 -0.018778745 -0.0704048 -0.03750846 0.022189962 -0.020049259 -0.094472274 -0.031949345
-0.09742002 -0.035191555 -0.035326827 0.049589276 -0.05288541 0.0087854015 -0.0010262213 0.084082425
-0.014221644 -0.02613037 -0.00014293037 0.017661346 0.04486075 0.07057147 0.034545414 0.014223336
-0.04306331 -0.007933681 0.007110151 0.028007608 0.019521434 -0.0828197 0.004421826 -0.023532
0.108903214 0.010914767 0.02057509 -0.00034529666 -0.022179503 -0.05103972 0.04397112 -0.0045090164
-0.04224779 -0.09896983 0.039633155 -0.0032659105 0.0036735323 -0.020079155 -0.046250246 -0.050145138
-0.011832296 0.0456645 -0.007873114 0.09862184 0.033498388 0.0239296 -0.033329956 0.0039157216
0.26855525 -0.023184486 -0.059139945 -0.04531463 0.08108705 -0.003744529 0.039565384 0.044396944
0.0254139 0.088217966 -0.024181182 0.004731002 0.049328532 0.009864682 -0.0746827 0.020721653
0.002537021 0.008667398 0.08301741 0.08227485 0.042676046 0.084097214 -0.07408392 -0.096710004
-0.13672028 -0.042648993 0.059260085 -0.049086295 -0.057876945 -0.013539587 0.0733499 0.01651195
0.022331093 0.011279157 0.06390862 0.035766117 0.03058179 0.040206645 0.002510114 -0.049178082
-0.03189527 0.019109227 0.06396093 0.014377095 0.028089605 -0.006968709 -0.02167373 -0.05228476
-0.025953019 -0.08159514 -0.0023258016 -0.08976828 -0.061706018 0.03332938 0.031618785 -0.012573487
0.08018496 0.041934896 0.0020198782 -0.08490545 0.011249395 -0.06218986 0.021181371 0.039739374
-0.00028006322 0.0576662 -0.062228832 0.003345607 -0.04053773 -0.016111948 0.04143978 0.0019388509
-0.05631263 -0.009214863 -0.008556877 0.06727793 0.025302865 0.043150254 0.1338895 -0.022420477
0.054045085 -0.01564014 0.006086563 0.08771306 0.094193675 -0.049894463 0.002517282 0.015248768
-0.032044243 -0.07481985 -0.05619159 -0.021311343 -0.05161409 -0.06568706 -0.044044282 -0.04825458
-0.025189657 -0.06060562 -0.035747536 0.027066616 0.056128565 -0.053207736 -0.05848808 -0.06767035
0.04744212 0.012174468 0.07244125 -0.0024641147 -0.006354722 -0.06760001 0.010624556 0.09151992
0.049581166 -0.02453355 0.0007449172 0.028744426 0.089754015 0.043465823 0.0013225852 -0.10005296
-0.02935461 -0.07014252 -0.06578854 -0.07092354 -0.020385297 0.07074693 0.02870392 0.097141236
0.08366067 -0.0105873495 -0.02084248 0.08866247 0.0541102 0.015968716 0.08911681 0.06680237
0.06946635 0.009935853 -0.012596003 0.014203601 0.093112245 0.027920514 0.11024109 0.032684624
0.086139 -0.0057327296 0.09075012 0.015590594 0.015072606 -0.009715953 -0.014526387 -0.032078113
0.00207191 -0.010475117 0.058762036 -0.005907177 0.011634304 0.0045202984 -0.040860545 0.04335742
-0.00842973 0.08258252 -0.02620639 0.052205395 0.060586844 -0.014140255 0.0015751702 0.07850998
-0.01857349 0.056600135 -0.023230534 0.06758095 0.08533289 0.028136186 0.059262212 -0.017337533
0.092135884 0.062889084 0.009741249 -0.023454744 -0.0379386 0.053142887 0.019491557 -0.005409809
0.040696554 -0.0007524029 0.007005643 -0.052717432 0.05820058 -0.020243295 0.029676065 -0.014755834
0.012051708 0.077506274 0.0116457045 0.0066256584 0.045678645 -0.019800223 -0.04969798 -0.026078194
