scripts/data/tcn_real.onnx (onnx, 50956 bytes, 11 tensors)

duration_proj.bias f4 [32]
0.6667924 0.060953718 -0.94911987 0.29218206 -0.5652332 -0.4711913 -0.29929826 0.9210012
-0.82493716 0.72197944 0.7283446 0.20678507 -0.22662373 -0.6891541 0.26826885 -0.11532743
-0.075721055 0.2977839 0.07706726 0.8068547 -0.8558901 0.47344756 -0.3972093 0.17832713
0.18227853 0.7550539 -0.16175604 -0.8973223 0.09507766 -0.53214717 0.78832096 -0.7842095
00000000: e8b2 2a3f 9baa 793d 85f9 72bf e398 953e
00000010: 1fb3 10bf fc3f f1be 9f3d 99be bcc6 6b3f
00000020: 152f 53bf a5d3 383f cb74 3a3f 77bf 533e
00000030: 0d10 68be 676c 30bf 895a 893e ca30 ecbd
00000040: a413 9bbd 2277 983e 71d5 9d3d 088e 4e3f
00000050: 9d1b 5bbf b867 f23e 045f cbbe 639b 363e
00000060: 39a7 3a3e 364b 413f 60a3 25be eab6 65bf
00000070: 14b8 c23d cc3a 08bf 67cf 493f f4c1 48bf

combine.bias f4 [64]
-0.03172223 0.038740076 -0.009530135 0.06874849 -0.10300727 0.115620255 0.10387588 -0.07646126
-0.05916696 0.084795766 -0.059929784 -0.058918923 -0.12240816 0.09437969 0.10487457 -0.031411726
0.039177626 0.092125654 -0.027774366 -0.05794123 0.0384321 0.13829906 -0.08955408 -0.07199227
0.12666358 0.06628155 -0.10334985 -0.0070428126 0.04497333 -0.114955164 0.10044984 -0.07367745
0.030225806 -0.068816684 0.08477978 0.053792484 -0.04961876 0.05917928 -0.041520808 0.028567469
-0.03605723 -0.0429082 0.027109671 0.04318552 -0.0693077 0.10734598 0.085382976 -0.024020154
0.09181383 0.046079822 -0.029354136 0.00013810044 -0.019657744 0.039931588 0.025821581 -0.03248709
-0.032091796 -0.047377173 -0.009189137 0.018808655 -0.053064626 0.03519552 -0.09233598 -0.007393688
00000000: 2bef 01bd eaad 1e3d 4924 1cbc 02cc 8c3d
00000010: 7af5 d2bd 50ca ec3d e1bc d43d b997 9cbd
00000020: 0e59 72bd 67a9 ad3d ef78 75bd f854 71bd
00000030: 21b1 fabd 244a c13d 7bc8 d63d 95a9 00bd
00000040: b878 203d 60ac bc3d 1187 e3bc c853 6dbd
00000050: fa6a 1d3d 459e 0d3e 2168 b7bd af70 93bd
00000060: 19b4 013e 9fbe 873d 16a9 d3bd 65c7 e6bb
00000070: f435 383d 9d6d ebbd a5b8 cd3d 34e4 96bd
00000080: 1c9c f73c c3ef 8cbd 05a1 ad3d 8255 5c3d
00000090: 0a3d 4bbd f965 723d b911 2abd 5306 ea3c
000000a0: bfb0 13bd 82c0 2fbd 1a15 de3c 4de3 303d
000000b0: 32f1 8dbd 36d8 db3d 45dd ae3d eac5 c4bc
000000c0: e408 bc3d 32be 3c3d 1678 f0bc 0ecf 1039
000000d0: 4709 a1bc 4e8f 233d c887 d33c 2f11 05bd
000000e0: b072 03bd 910e 42bd 098e 16bc 9c14 9a3c
000000f0: 4b5a 59bd 2d29 103d a51a bdbd c046 f2bb

tcn.0.conv1.conv.bias f4 [64]
-0.031104708 -0.07279912 -0.052075 -0.0018703624 0.034512945 0.01017339 -0.028172983 0.004045584
-0.0085552 -0.012251009 0.061357703 -0.021164484 0.025683776 0.06258649 -0.0073673194 -0.0033849867
0.011990461 0.07895123 0.02277985 -0.038457245 0.08442538 -0.017297909 0.037966356 -0.024886878
0.09391826 -0.044323854 -0.021110756 0.050112877 0.052811373 -0.04048377 -0.0611184 -0.04285616
-0.029943267 0.06281258 0.055138268 0.017778084 -0.026405621 -0.066605635 0.020278433 -0.073000975
-0.006644111 0.07225064 0.03967354 0.028787619 0.02928888 0.054020822 -0.0031878448 0.051848337
-0.034737606 0.04788759 0.056370724 -0.04852621 -0.0073534753 0.058974773 0.006453669 0.010322209
0.0127552785 -0.04677333 -0.049817283 0.023488132 0.044242986 -0.02765135 0.06279809 -0.027793273
00000000: 4dcf febc b417 95bd 984c 55bd f326 f5ba
00000010: 725d 0d3d 4aae 263c 07cb e6bc d190 843b
00000020: 1c2b 0cbc 75b8 48bc 3752 7b3d 2461 adbc
00000030: c866 d23c 582d 803d 8e69 f1bb a7d6 5dbb
00000040: a373 443c 2fb1 a13d cf9c ba3c 5885 1dbd
00000050: 37e7 ac3d 58b4 8dbc 9c82 1b3d 91df cbbc
00000060: 3758 c03d ee8c 35bd 77f0 acbc 2943 4d3d
00000070: bd50 583d 4fd2 25bd 4a57 7abd f189 2fbd
00000080: 954b f5bc e2a3 803d aad8 613d 58a3 913c
00000090: 9a50 d8bc 8968 88bd f51e a63c 8981 95bd
000000a0: d8b6 d9bb 25f8 933d b980 223d 03d4 eb3c
000000b0: 3cef ef3c f044 5d3d 29eb 50bb ec5e 543d
000000c0: 0549 0ebd c725 443d fde4 663d 6bc3 46bd
000000d0: 6cf5 f0bb 888f 713d 4d79 d33b 7c1e 293c
000000e0: 84fb 503c 6495 3fbd 350d 4cbd 2f6a c03c
000000f0: 2238 353d 1585 e2bc 499c 803d b8ae e3bc

tcn.0.conv2.conv.bias f4 [64]
-0.053679276 0.0058348225 0.032903895 -0.07586482 -0.02521394 0.052972365 -0.050637 0.021507923
-0.028282836 -0.089949764 -0.060818776 -0.0008638413 0.003384211 -0.068398006 -0.051465224 0.0051405258
0.07779983 0.006539358 0.06491056 -0.021208154 -0.05215275 0.09006596 -0.04271625 5.0040748e-05
-0.036059704 0.052283533 -0.07697646 -0.070885606 -0.03227516 -0.03595206 0.058987506 -0.06499942
-0.076232545 -0.017875938 0.060334176 -0.018729964 0.044999912 -0.034509163 -0.038107395 0.0055492143
-0.021752119 -0.052373283 -0.0081715165 0.0140717225 0.046867788 0.015368023 -0.021317199 0.057334177
0.043233793 -0.07358627 0.04041712 0.051404387 0.034662783 -0.07679616 0.06497077 -0.009960204
-0.011226518 0.061905608 -0.061807673 -0.033363506 -0.03458886 0.047170218 0.033120245 -0.018250411
00000000: cdde 5bbd 0a32 bf3b 3cc6 063d 045f 9bbd
00000010: 778d cebc 8df9 583d be68 4fbd 6231 b03c
00000020: 68b1 e7bc 9537 b8bd 1c1d 79bd 6973 62ba
00000030: a4c9 5d3b 4114 8cbd 33cd 52bd db71 a83b
00000040: 8455 9f3d 1c48 d63b d4ef 843d b9bc adbc
00000050: 1f9e 55bd 8174 b83d 3cf7 2ebd d8e2 5138
00000060: 57b3 13bd 4227 563d d6a5 9dbd 792c 91bd
00000070: f532 04bd 7842 13bd e29c 713d 6a1e 85bd
00000080: cf1f 9cbd 8f70 92bc f820 773d 956f 99bc
00000090: d451 383d 7b59 0dbd 8016 1cbd 2fd6 b53b
000000a0: 8031 b2bc 5e85 56bd d3e1 05bc 158d 663c
000000b0: 70f8 3f3d 29ca 7b3c 68a1 aebc 3ed7 6a3d
000000c0: eb15 313d 66b4 96bd 6c8c 253d 688d 523d
000000d0: 90fa 0d3d 4e47 9dbd 650f 853d 2030 23bc
000000e0: 6eef 37bc bc90 7d3d 0b2a 7dbd 2ca8 08bd
000000f0: 0cad 0dbd 8f35 413d 18a9 073d e381 95bc

tcn.1.conv1.conv.bias f4 [64]
-0.039436787 -0.092245646 -0.051189244 0.017351937 0.015507914 0.026293933 -0.121466435 0.050990023
-0.050309706 -0.0712256 0.035792716 -0.045689244 0.0020511744 -0.06439927 0.035391826 -0.012436948
-0.032659795 -0.04148404 0.04972658 0.01815617 -0.013491962 -0.07697571 -0.07399748 0.05989386
0.021528468 0.018265469 -0.041766085 -0.023779215 -0.009605178 0.008521061 0.08492651 0.015249108
0.055215687 -0.030848457 -0.047868993 -0.06514764 0.019084856 0.020157289 -0.040321052 -0.054635536
-0.020666644 -0.051647596 -0.09304224 -0.037185315 -0.041059293 0.07877976 -0.013154656 0.031466357
-0.012202302 0.01845412 0.008982622 -0.01667675 -0.088066705 -0.0044438723 -0.0061117946 -0.028154334
-0.013866586 -0.05176481 -0.084734336 0.03490903 0.007213944 -0.015097247 -0.052078526 0.04252994
00000000: 7888 21bd 49eb bcbd d0ab 51bd a625 8e3c
00000010: e814 7e3c 6066 d73c 65c3 f8bd eada 503d
00000020: 8d11 4ebd bade 91bd 629b 123d a524 3bbd
00000030: ff6c 063b c4e3 83bd 05f7 103d 57c4 4bbc
00000040: 47c6 05bd 2beb 29bd 19ae 4b3d 40bc 943c
00000050: 640d 5dbc 71a5 9dbd fe8b 97bd 4453 753d
00000060: 785c b03c 77a1 953c ea12 2bbd a1cc c2bc
00000070: 095f 1dbc ec9b 0b3c f3ed ad3d 65d7 793c
00000080: d829 623d e7b5 fcbc 4712 44bd 206c 85bd
00000090: d857 9c3c e620 a53c b027 25bd 83c9 5fbd
000000a0: 184d a9bc 6e8c 53bd ee8c bebd a14f 18bd
000000b0: ca2d 28bd 4857 a13d a086 57bc dee2 003d
000000c0: 2aec 47bc 182d 973c d92b 133c ae9d 88bc
000000d0: 515c b4bd e79d 91bb 7345 c8bb eba3 e6bc
000000e0: ad30 63bc 5607 54bd 3289 adbd c5fc 0e3d
000000f0: f362 ec3b 725a 77bc 4b50 55bd e033 2e3d

tcn.1.conv2.conv.bias f4 [64]
-0.049344633 -0.06241197 -0.038176768 -0.051618148 -0.05689948 0.055763908 -0.005330788 0.043350376
0.0427621 -0.0447391 -0.042418487 -0.057027735 -0.05976543 0.020510465 -0.033441633 -0.019611737
0.09009655 0.046094332 -0.0777566 -0.068759225 0.035466615 -0.0063462886 0.014793046 -0.060004655
0.0150159225 0.08459271 0.011364511 -0.014640906 -0.044516608 -0.023481749 0.0719445 -0.08859175
-0.046627056 0.021312436 0.028637467 -0.040407237 0.020913988 -0.01458577 -0.07064093 -0.028407665
0.04505289 0.040797554 0.01585756 0.012400022 0.0026964888 0.02083782 -0.010201784 -0.012710336
-0.020686382 -0.061478592 -0.022820963 -0.028472986 -0.057265263 -0.024446785 -0.08811293 -0.038903132
-0.023040691 0.08401465 -0.06281276 -0.048598316 0.065544024 -0.02721017 0.026494069 0.025309497
00000000: 991d 4abd b2a3 7fbd 3e5f 1cbd 8d6d 53bd
00000010: 6e0f 69bd b268 643d e4ad aebb 2a90 313d
00000020: 5027 2f3d 5940 37bd 02bf 2dbd ea95 69bd
00000030: 98cc 74bd 9005 a83c 18fa 08bd cba8 a0bc
00000040: 8a84 b83d 69cd 3c3d da3e 9fbd a3d1 8cbd
00000050: 7145 113d 87f4 cfbb 885e 723c 71c7 75bd
00000060: 5805 763c f13e ad3d 3732 3a3c 69e0 6fbc
00000070: 0c57 36bd cc5c c0bc a357 933d 976f b5bd
00000080: 03fc 3ebd 6b97 ae3c 1f99 ea3c 0f82 25bd
00000090: d053 ab3c 27f9 6ebc 31ac 90bd 31b7 e8bc
000000a0: 6189 383d 561b 273d b7e7 813c 7629 4b3c
000000b0: 93b7 303b 13b4 aa3c 6225 27bc 033f 50bc
000000c0: 7d76 a9bc fad0 7bbd 07f3 babc 2e40 e9bc
000000d0: fb8e 6abd a044 c8bc 8d74 b4bd e458 1fbd
000000e0: d5bf bcbc df0f ac3d faa3 80bd 070f 47bd
000000f0: f23b 863d dde7 debc 170a d93c dd55 cf3c

tcn.2.conv1.conv.bias f4 [64]
0.085105084 -0.05400173 -0.011770635 0.07672517 -0.08827441 -0.0010017303 0.07488814 -0.0046309065
-0.0064733196 -0.02790754 -0.0144484965 -0.059815068 0.07442687 0.04668754 -0.01439531 0.078812614
-0.050728332 -0.0054995418 -0.051661115 -0.06610284 0.01920158 0.020758947 -0.046821892 -0.10352303
0.013189831 0.04883188 -0.027898557 -0.031338573 0.053785063 -0.00025941216 -0.05324612 -0.047088765
-0.052484255 -0.070330225 -0.06733195 -0.071423896 -0.06285182 -0.040744256 0.009259439 -0.07165273
0.024371495 -0.011766232 0.004286991 0.01589781 0.083044454 0.02871006 -0.039616458 -0.009108656
-0.048238635 -0.04548693 -0.049509753 0.07469131 -0.029597005 -0.02382984 0.0008054452 -0.019510414
-0.007669407 0.00073129364 -0.0023558266 -0.04546053 -0.10077382 0.09006546 0.041758746 -0.055728413
00000000: 934b ae3d eb30 5dbd 9fd9 40bc 1622 9d3d
00000010: 37c9 b4bd 7e4c 83ba f45e 993d dcbe 97bb
00000020: 241e d4bb 5a9e e4bc 63b9 6cbc a500 75bd
00000030: 1d6d 983d 6f3b 3f3d 4eda 6bbc 8268 a13d
00000040: 83c8 4fbd 8035 b4bb 9b9a 53bd ed60 87bd
00000050: a24c 9d3c ab0e aa3c 50c8 3fbd e203 d4bd
00000060: 291a 583c f003 483d 848b e4bc e05c 00bd
00000070: ba4d 5c3d b601 88b9 9b18 5abd 26e0 40bd
00000080: bbf9 56bd 4b09 90bd 55e5 89bd b146 92bd
00000090: 74b8 80bd 73e3 26bd e7b4 173c abbe 92bd
000000a0: bba6 c73c 27c7 40bc e379 8c3b 203c 823c
000000b0: 3613 aa3d 5c31 eb3c de44 22bd 793c 15bc
000000c0: e095 45bd 8150 3abd bdca 4abd c2f7 983d
000000d0: 6b75 f2bc cc36 c3bc 8324 533a 4ed4 9fbc
000000e0: a64f fbbb 49b4 3f3a 3664 1abb d234 3abd
000000f0: 8162 cebd 3d74 b83d 380b 2b3d 7a43 64bd

tcn.2.conv2.conv.bias f4 [64]
-0.005043434 0.07591298 -0.009106135 0.004297461 0.0055902386 0.057027176 0.091255836 -0.06301234
-0.0032637205 -0.104355134 -0.13181292 -0.06889114 -0.034535438 0.026164765 -0.0284025 -0.00441713
0.08433418 0.03119036 -0.047802486 0.03794428 0.022320433 -0.03269548 0.072500706 0.052905086
-0.07398278 0.08423084 -0.043396972 0.004001854 -0.04130651 0.020209696 -0.023313262 -0.065116085
-0.010152046 -0.00015176812 0.046247993 -0.032062035 0.015958661 -0.082588896 0.007723647 0.06300281
0.0075726425 0.06581242 0.019697133 0.00054948905 0.04100768 0.022956643 0.099380516 -0.070722036
-0.0859927 -0.044644713 -0.083641924 -0.034766003 0.07252598 0.0028771772 0.016643647 0.095673285
0.07708642 -0.012136237 0.021321945 0.056617334 0.052439693 0.00080962805 0.042134695 -0.08007722
00000000: 6443 a5bb 4478 9b3d e631 15bc b7d1 8c3b
00000010: 522e b73b 5495 693d 57e4 ba3d 9d0c 81bd
00000020: 25e4 55bb 25b8 d5bd f7f9 06be cc16 8dbd
00000030: 0875 0dbd 7d57 d63c 5cac e8bc 92bd 90bb
00000040: 66b7 ac3d ed82 ff3c 8acc 43bd 766b 1b3d
00000050: 57d9 b63c b2eb 05bd 407b 943d 01b3 583d
00000060: 4984 97bd 3881 ac3d 06c1 31bd fc21 833b
00000070: 0431 29bd ce8e a53c 74fb bebc 955b 85bd
00000080: c454 26bc f223 1fb9 896e 3d3d 7b53 03bd
00000090: bdbb 823c 5e24 a9bd a616 fd3b 9e07 813d
000000a0: ee23 f83b a9c8 863d e25b a13c 960b 103a
000000b0: abf7 273d 920f bc3c 0388 cb3d b7d6 90bd
000000c0: f11c b0bd 60dd 36bd 754c abbd cc66 0ebd
000000d0: 8088 943d 068f 3c3b 4258 883c 5bf0 c33d
000000e0: 7cdf 9d3d 11d7 46bc 5cab ae3c 94e7 673d
000000f0: 01cb 563d 383d 543a 6e95 2c3d 87ff a3bd

classifier.0.bias f4 [32]
-0.06752243 -0.089294314 0.07672905 -0.012343566 -0.05476462 -0.047826435 0.043631632 0.09071386
0.02708247 -0.06757025 -0.018631654 0.06387789 0.06735234 0.14295919 -0.015695645 0.12846597
0.11677454 0.0019759196 -0.06434967 0.05677995 0.08376813 -0.026249273 -0.0404867 0.06625724
0.11974982 0.14536777 0.11363751 0.04649974 0.021013513 -0.0879268 -0.021476377 -0.12134771
00000000: 3349 8abd f0df b6bd 1f24 9d3d ab3c 4abc
00000010: de50 60bd a7e5 43bd 15b7 323d 30c8 b93d
00000020: 0edc dd3c 4562 8abd 69a1 98bc 69d2 823d
00000030: 06f0 893d e563 123e 2794 80bc 958c 033e
00000040: 7d27 ef3d 6e7e 013b c3c9 83bd 1892 683d
00000050: a08e ab3d b708 d7bc 62d5 25bd e0b1 873d
00000060: 653f f53d 4adb 143e c8ba e83d 8376 3e3d
00000070: 8824 ac3c f712 b4bd 3aef afbc 2685 f8bd

classifier.3.weight f4 [1, 32]
0.1648797 -0.11961313 -0.15009417 -0.15961832 0.08029044 0.14517388 -0.1335732 0.10565716
0.122103944 -0.038348522 -0.1707435 -0.0538792 0.10403912 -0.062303886 -0.1281521 0.20816569
0.1558005 0.43377513 0.03441206 0.16745327 -0.10896601 0.17983264 0.089416295 -0.18069664
0.008832362 0.124440044 0.0012286755 -0.14775303 -0.14080156 -0.06351761 -0.09380545 0.091451034
00000000: 39d6 283e bbf7 f4bd 49b2 19be fc72 23be
00000010: 506f a43d 76a8 143e 6ac7 08be c862 d83d
00000020: a211 fa3d 5713 1dbd 62d7 2ebe 70b0 5cbd
00000030: 7612 d53d 5c32 7fbd 4e3a 03be 6329 553e
00000040: 2b8a 1f3e c617 de3e a9f3 0c3d df78 2b3e
00000050: 9229 dfbd 0c26 383e e41f b73d 8a08 39be
00000060: 9cb5 103c 6cda fe3d 820b a13a 924c 17be
00000070: 492e 10be 8515 82bd 121d c0bd ae4a bb3d

val_1 f4 [1, 32]
-0.7204621 -0.70168835 0.16517685 -0.3925762 0.15496308 -0.6657524 0.8084003 0.59253883
-0.8827352 0.5408109 0.17119077 0.18986152 -0.6640874 0.99516004 0.1270213 -0.84851736
0.14718062 -0.024868364 0.16450292 0.6121493 0.9606113 -0.27136648 -0.43912962 -0.28168687
-0.5909697 0.6493028 0.51734734 -0.7931554 -0.82506144 -0.4951899 -0.62523556 -0.4023591
00000000: 3470 38bf d9a1 33bf 1f24 293e bfff c8be
00000010: a4ae 1e3e c06e 2abf 52f3 4e3f a0b0 173f
00000020: effa 61bf 9572 0a3f a24c 2f3e 0f6b 423e
00000030: a201 2abf cfc2 7e3f df11 023e 6f38 59bf
00000040: 84b6 163e bdb8 cbbc 7473 283e d1b5 1c3f
00000050: 9fea 753f 8cf0 8abe 99d5 e0be 4339 90be
00000060: ca49 17bf b538 263f e070 043f 3b0c 4bbf
00000070: 3a37 53bf 8889 fdbe 700f 20bf 0302 cebe
