scripts/data/transformer_real.onnx (onnx, 172126 bytes, 18 tensors)

duration_proj.bias f4 [64]
00000000: 2faa e03e 28d7 0bbf ed04 0a3f 18d8 96be
00000010: 4fd9 423f 4bdb 10bf 4eb7 53bc 28b9 4fbe
00000020: 2a4b 033f 6cd1 b8be a523 533f a27c 5fbf
00000030: 3fc7 1a3e 45e7 203d dd90 46bf dcd1 153e
00000040: 791b 863e ba27 e3be a8af 6f3e 15e6 cdbe
00000050: aa08 c6be fa33 30be f985 09bf f5fc 5c3f
00000060: 99d9 363e 2975 fa3d 7723 773e 9dc5 aabe
00000070: bb6d 85bc 8e91 02be a952 7abd 0d12 62bf
00000080: 826e 0d3c 2ddd 30bf a082 2bbf bea0 d2be
00000090: e999 2f3f 5f2e bc3e ef86 323f 18df 9a3e
000000a0: 2798 babe 75fc 5a3f dbf1 283e aed5 33bf
000000b0: 3d09 873e b3a9 4fbf c1c8 863e 9600 363f
000000c0: f50d d83e 9f15 e5be 6080 67be 8dcf 4c3f
000000d0: fa0c 373e 1c29 babe 0ac3 3d3f eabb 8f3e
000000e0: 4ce9 58bf 059a 633f 20fa 533d a5eb e6be
000000f0: d052 f3be 38fd f3be 9c83 0bbf 0f2c 3cbf
0.4387984 -0.5462518 0.53913766 -0.2946174 0.76112837 -0.56584615 -0.012922121 -0.20285475
0.51286566 -0.36097276 0.82476264 -0.8729955 0.15115069 0.039283056 -0.77564794 0.14630836
0.26192835 -0.44366246 0.23406851 -0.402146 -0.38678485 -0.17207327 -0.5372005 0.8632348
0.17856444 0.12229378 0.24134623 -0.33353892 -0.016287675 -0.12750837 -0.061113987 -0.88308793
0.008632304 -0.6908749 -0.6699619 -0.41138262 0.68594223 0.36754128 0.6973714 0.30248332
-0.36444208 0.8554147 0.1649851 -0.70247924 0.26374236 -0.81118315 0.26325038 0.71094644
0.42198148 -0.44743058 -0.22607565 0.800042 0.17876044 -0.3635949 0.7412573 0.28073055
-0.8473098 0.8890689 0.05175221 -0.45101658 -0.47524118 -0.47654128 -0.54497695 -0.7350473

combine.bias f4 [64]
00000000: 1215 c1bc b971 593d e490 39bd 2a01 49bd
00000010: 14a8 2ebd 9436 a83d 9c7e eebc cd67 ffbc
00000020: b3e2 0a3c 5195 193d 2178 8f3c e5ed 67bd
00000030: d9b2 8b3d 33a2 8ebc 8a0c 8ebc d0b8 993d
00000040: 89c0 9e3c ffe0 853d 6304 96bd abd8 8c3d
00000050: 45fc a63d 48ed 973d 8d91 a03b 9ea9 3a3d
00000060: 1f65 f73c 4714 35bd fd35 963b 58c9 67bd
00000070: ab37 ec3c d0f3 5ebc d752 95bd f9cb e1bc
00000080: 8ff3 cbbd 2799 b6bd f860 a13d 25d2 ec3c
00000090: 933d bb3b 9c1e 7d3d 9fe9 863b 8510 96bd
000000a0: 22d0 9e3d 6f7d 8ebd 2032 06bd 3d15 ea3b
000000b0: a52a b1bc 6aa9 acbd fa01 8a3d cadf 51bd
000000c0: 13e2 ccbd 83f0 e43c 9830 a3bd 04f1 77bd
000000d0: c831 2f3d 51b6 1f3c a696 86bb b3a1 cbbd
000000e0: cd8f e93c 59b2 5d3d 7bbe 913d 3f9b 6d3d
000000f0: 4e7a 8f3d 50e9 44bd 1ceb abbc 0b2b 8c3d
-0.023569617 0.05308697 -0.045304194 -0.049073376 -0.04264076 0.08213535 -0.029113106 -0.031177426
0.008476901 0.037495915 0.017513337 -0.05662336 0.06821222 -0.017411327 -0.017339963 0.07505953
0.019378917 0.06537055 -0.073250555 0.06877264 0.08153585 0.07418305 0.0049001635 0.045571916
0.030199585 -0.04420879 0.0045840726 -0.0565885 0.028835138 -0.013607934 -0.07291191 -0.027563082
-0.099585645 -0.0891593 0.078798234 0.028908798 0.0057141273 0.06179677 0.0041172053 -0.073273696
0.07754542 -0.06957518 -0.032762647 0.007143645 -0.02162678 -0.08430751 0.06738658 -0.051238813
-0.10004058 0.027946716 -0.07968253 -0.060532585 0.042772084 0.009748057 -0.004107314 -0.09942951
0.028510952 0.054125164 0.071164094 0.058009382 0.0700575 -0.048074067 -0.020986132 0.06844147

transformer.layers.0.self_attn.out_proj.bias f4 [64]
00000000: 780a 9abb 88d3 25bd 596f d0bb ee9f f23b
00000010: 6a36 f9bb 0a39 8dbb 0614 dabb 9c26 673c
00000020: deec 44bc 5026 70bc 69db cd3c 96ba f2bb
00000030: e455 8b3c cfdd 17bc 58b5 873b f0f9 963b
00000040: d27c c6bb 16d7 8dbc c99e e6bb 5ae1 d93c
00000050: e939 3dbb cb58 8e3c 9c09 873c 9862 aabc
00000060: aa60 ad3c 4333 043b 82f8 453c 892d d43a
00000070: 1760 203b a84c e4bc b77c d33c b352 38bc
00000080: 7c1b 55bb f9a8 28bb 7463 a0bc e705 bf3b
00000090: f1e2 d239 8add 7c3b dcb8 d5bb 1e14 0fba
000000a0: fe03 bf3b 7ae7 53bc c592 a93c 939b 05bd
000000b0: 5d92 a83c 1694 3b3b f2d6 cfbc 37c1 8a3b
000000c0: 1895 cabb 346c e9ba ae95 253d a19c 33ba
000000d0: 260c d73b fa9c d5bc 3a5a 4fbc 8c64 64bc
000000e0: aa62 133b fa49 05bc 61c8 123b 508a 5cbc
000000f0: bd71 6a3b 6a04 e0bb e82c 163c 9c86 773c
-0.004700955 -0.040484935 -0.00636093 0.007404319 -0.0076053636 -0.004309778 -0.006655219 0.014108326
-0.012019364 -0.014657572 0.025129037 -0.0074074967 0.01700873 -0.009269192 0.004141491 0.0046074316
-0.00605736 -0.017314475 -0.0070379716 0.026596714 -0.0028873628 0.017376324 0.016484074 -0.020798966
0.021164257 0.0020172156 0.012083175 0.0016187887 0.0024471337 -0.027868584 0.025816305 -0.011250186
-0.0032517603 -0.0025735481 -0.019578673 0.005829561 0.00040223406 0.0038584196 -0.006522281 -0.0005458015
0.0058293333 -0.012933606 0.020699868 -0.03261907 0.020577604 0.0028622202 -0.025371049 0.004234459
-0.006182324 -0.0017808736 0.04042595 -0.00068516476 0.0065627275 -0.026075829 -0.012655789 -0.013939988
0.0022489228 -0.008135313 0.0022397267 -0.013460711 0.003577336 -0.0068364637 0.00916598 0.015107777

transformer.layers.0.linear2.bias f4 [64]
00000000: 9db8 25bc 9937 f03c 3690 723d 2576 9c3d
00000010: da43 61bd ae33 1bbd 833c 913d 9f56 b03d
00000020: 48f4 a9bc 78bc 3bbc 7a92 143d 674f 9b3c
00000030: 7b28 913d ba06 3cbc cdfa 803c 1a1a 3bbd
00000040: 02ab 23bd 8a65 853d a64f 7ebc b370 9f3d
00000050: 1f77 8ebd 11dd eb3c d904 45bd 36b0 20bd
00000060: 1e18 163d 947b 8abd eeb4 b83d 2afe 883d
00000070: d263 4a3d 89d3 3e3c 8bde 90bd dc78 d3bd
00000080: 4d74 dd3c 6b78 22bd 2312 9d3d 7ef2 85bd
00000090: 3122 d23c b48a 26bd f87f 4ebc ee32 17bb
000000a0: d8ad bf3d 35e9 a63d 1b76 643d 413a 863d
000000b0: 7012 a1bb 8834 32bd ce66 13bd b00e 9cbd
000000c0: cf79 36bc 1737 a5bd bd46 cbbb baed 0fbd
000000d0: 37e0 323d b772 5ebd a2fe 7bbc e473 c03b
000000e0: 37ce ea3c 2b2c a63b c02e b3bb 63ff 863d
000000f0: 8891 4b3d b000 9bbd cea2 b5bb aca8 61bd
-0.010114816 0.029323386 0.05921956 0.07639722 -0.05499635 -0.037891082 0.0709162 0.08610272
-0.020746365 -0.011458509 0.036272503 0.01895876 0.07087799 -0.011476213 0.015744591 -0.04567919
-0.039958008 0.06513508 -0.015521919 0.077851675 -0.06956314 0.028791936 -0.048100326 -0.039230548
0.036644094 -0.06761852 0.090188846 0.06689103 0.049411602 0.011647114 -0.07073697 -0.103257865
0.027032996 -0.03966562 0.07669475 -0.06540392 0.02565107 -0.04065962 -0.012603752 -0.0023071128
0.0935933 0.081499495 0.055776697 0.0655408 -0.004915528 -0.04350713 -0.035986714 -0.07619989
-0.01113744 -0.08067148 -0.006203501 -0.035138823 0.04367086 -0.05430862 -0.015380533 0.0058731902
0.028662784 0.005071183 -0.0054682195 0.0659168 0.049699336 -0.075684905 -0.0055430895 -0.0550925

transformer.layers.0.norm1.weight f4 [64]
00000000: afb5 753f 953c 8c3f 6635 8a3f ae60 6b3f
00000010: 3b0f 823f ecb9 723f 3188 813f 7d91 7c3f
00000020: e6eb 773f 741d 893f 284d 8a3f e59d 813f
00000030: b229 773f 10b4 843f e507 713f 9208 863f
00000040: 0d94 793f 0424 813f ca11 623f 4214 793f
00000050: d4b6 803f 9ef7 793f a26e 763f f10f 6c3f
00000060: c973 663f d855 7c3f 41ff 6f3f d14c 753f
00000070: d326 763f 7373 683f 6fd9 783f bcb1 743f
00000080: 366c 663f 3455 6d3f 7b49 753f 9191 703f
00000090: 325e 6a3f 40b9 753f 9d59 6e3f 9556 793f
000000a0: 2bf8 793f c82f 723f 939c 783f 1ad2 613f
000000b0: 2c18 733f b0a7 673f b438 7f3f bacf 713f
000000c0: 1953 663f e208 6c3f b443 6b3f 4ec5 703f
000000d0: 8402 713f 6924 723f 750b 653f 114b 6c3f
000000e0: 1524 703f cbab 7a3f 2e9b 743f 3538 753f
000000f0: abf6 703f 05c0 753f 39fb 723f 4930 773f
0.9598035 1.0955988 1.0797546 0.91944396 1.0160898 0.94814944 1.0119687 0.986595
0.9684433 1.0712113 1.0804796 1.012631 0.96547997 1.0367451 0.9415267 1.0471365
0.9749153 1.0089116 0.88308394 0.97296536 1.0055795 0.9764346 0.9626256 0.92211825
0.90020424 0.9856849 0.9374886 0.9582034 0.9615299 0.9080116 0.9720678 0.955837
0.90008867 0.92708135 0.9581525 0.93972117 0.9154998 0.95985794 0.9310549 0.9739774
0.976443 0.9460416 0.97113913 0.88211215 0.9495876 0.90490246 0.996959 0.9445759
0.89970547 0.92201054 0.9190018 0.94051063 0.94144464 0.9458681 0.8947061 0.9230204
0.93805057 0.97918385 0.95549285 0.9578889 0.94126385 0.95996124 0.94914585 0.9655805

transformer.layers.0.norm1.bias f4 [64]
00000000: df88 a93b 2589 2dbd daa1 8ebc c660 ca39
00000010: 225e fabb c049 cb3a 9f76 663b 6999 89bb
00000020: 6e4f d1bb 360f efbc 972e aa3c 97d1 41bc
00000030: 6e12 9d3c b489 11bc e4a6 55bb 58ae ac3b
00000040: 9643 88ba b646 47bc 1333 b83b 68fa 113d
00000050: 5e6d ab3b 7c67 393b 5a1a 8a3b 83cb 95bc
00000060: dfc6 c63c 6706 0b3a 8bf5 b13b 42d5 cfbb
00000070: 0be5 3f3b 5847 8bbc 01e7 813c 8837 ad3a
00000080: 01e2 04bc 0750 8f3b 47b2 363c fb63 d4ba
00000090: 0307 4ebb 5890 1638 139d 65bc e97f a63b
000000a0: 97aa d63b b80a e5bb 55f3 433b 059c 17bd
000000b0: 3e8d 363c 3523 893b e046 6abc bb9d 843c
000000c0: 7f5f 2abc 66b5 383b ec63 3f3b 26ba b83b
000000d0: 80e2 2e3c c720 bebc 43e7 d0bc ee5f 7dbc
000000e0: 5004 313b 2f29 f3b9 c8ae fb3b 8bdc babb
000000f0: 5adf 4abc ed76 243c 0b7f 4db8 1ed2 823c
0.005173787 -0.04236712 -0.017411161 0.00038600544 -0.007640616 0.001550965 0.0035165919 -0.004199196
-0.0063876426 -0.029182058 0.020774169 -0.011829755 0.019173827 -0.008882929 -0.0032600695 0.005269807
-0.0010396119 -0.012162855 0.005621323 0.035639197 0.0052315434 0.0028290441 0.004214567 -0.018285519
0.024264751 0.0005303383 0.0054308823 -0.006342561 0.0029280807 -0.017001793 0.015857222 0.0013215402
-0.008110524 0.0043735537 0.011150903 -0.0016204113 -0.0031437285 3.5897217e-05 -0.0140145 0.005081166
0.0065510976 -0.006989803 0.0029899676 -0.037014026 0.011142073 0.004185105 -0.0142991245 0.016188493
-0.010398745 0.0028184294 0.0029203845 0.005637425 0.010674119 -0.023208989 -0.0255009 -0.015464766
0.0027010627 -0.00046379256 0.0076807477 -0.0057025603 -0.012382353 0.01003812 -4.8994127e-05 0.015969332

transformer.layers.0.norm2.weight f4 [64]
00000000: 0989 7a3f 11ea 883f 83b0 853f d0dc 6c3f
00000010: 7900 843f eb7c 773f e5ea 833f 3967 763f
00000020: 41f8 7a3f c758 8e3f 61a3 893f 471f 7e3f
00000030: a250 773f 3986 853f c329 7c3f 6fb5 8c3f
00000040: c38f 7b3f 401d 833f b425 7b3f ef5d 7b3f
00000050: f80f 7f3f ca88 7f3f d61a 7d3f 0c31 723f
00000060: d286 703f 654c 813f 30e4 803f cfff 733f
00000070: a290 803f 3ad9 663f 08f7 783f acc8 803f
00000080: 8f0f 6f3f 9ca5 713f 3e1b 753f aeff 7c3f
00000090: e0c1 753f 8293 753f 61fc 773f e20a 7c3f
000000a0: 95dd 773f 4a81 753f e291 7e3f d83c 6b3f
000000b0: c126 733f e7f5 6c3f 32f0 7b3f 4758 743f
000000c0: f9a9 703f 9a66 6e3f f916 6f3f 0e23 723f
000000d0: 1d70 6f3f 8a91 763f 4bd8 6c3f 4867 743f
000000e0: ea76 7d3f db61 7d3f d3bc 773f b515 763f
000000f0: dec4 7a3f c9d8 803f 2878 783f 9278 763f
0.9786535 1.0696431 1.0444492 0.92524433 1.0312644 0.96674985 1.0306059 0.96251255
0.98035055 1.1120843 1.0752984 0.99266475 0.9660741 1.0431587 0.98501223 1.0992869
0.9826624 1.0243301 0.98104405 0.98190206 0.9963374 0.998181 0.98869073 0.9460609
0.9395572 1.0101439 1.0069637 0.9531221 1.0044138 0.9017521 0.9725194 1.006124
0.93383116 0.94393325 0.95744693 0.98827636 0.95998955 0.95928204 0.96869475 0.98454106
0.9682248 0.95900404 0.9944135 0.91889715 0.9498101 0.9256272 0.98413384 0.954472
0.9400936 0.9312531 0.9339443 0.9458474 0.93530446 0.96315825 0.92517537 0.95470095
0.99009573 0.9897744 0.967725 0.9612687 0.97956645 1.0066158 0.97058344 0.96277726

transformer.layers.0.norm2.bias f4 [64]
00000000: 1b1a 743c 255a f5bc b5ca 0dbd c166 0abc
00000010: c615 2cbd 0a2f b0bc 35f9 d03b 16da d4bb
00000020: 4875 b3bc cc00 0ebd c320 e93a af06 96bc
00000030: 5e89 753b 9a05 a3bc f390 be3c e212 6bbc
00000040: f5a5 06bc 4196 14bd 2679 593d d137 d43c
00000050: 52b2 3f3c 8b06 aa3b 7f60 9a3c 98e3 96bc
00000060: 3583 0e3c 379f bc3c c727 1b3d 3963 73bc
00000070: 2e07 683c 83ba a2bb 827a 493c f159 0cbd
00000080: b286 c73b 4084 203b b9cc a53b a8a2 d63c
00000090: d215 8dbb 296d 0e3c a5c8 86bc 034c c83b
000000a0: ee6b b23c 7837 413c fcb7 a8b9 c2ac 543c
000000b0: 78d8 233b bbb0 003c df9d 1a3c 342e 43b8
000000c0: 2dba 383c fc63 a8ba 3484 c9bb 1694 923c
000000d0: 68fd 3c3c e80f f7bc 5211 94b9 4933 a3bc
000000e0: 180b e4bc 3400 da3b ff20 c33c 3dba 3d3c
000000f0: beb8 aebc 656c f03c 1092 baba af2b ad3b
0.014898802 -0.02995021 -0.034617145 -0.00844735 -0.042012952 -0.021506805 0.006377364 -0.0064957244
-0.02190651 -0.03466873 0.0017786253 -0.018313734 0.003746591 -0.019900132 0.023262477 -0.014347764
-0.008218278 -0.036276106 0.05309405 0.025905522 0.01170023 0.0051887683 0.018844841 -0.018419072
0.008698274 0.023025138 0.03787973 -0.0148551995 0.014161868 -0.0049660816 0.012297275 -0.034265462
0.006089055 0.002449289 0.0050598052 0.026200607 -0.0043055797 0.008693018 -0.016453097 0.006112577
0.02177998 0.01179301 -0.00032180536 0.012980642 0.0025000852 0.007854636 0.009437053 -4.6534653e-05
0.0112748565 -0.001284718 -0.006149793 0.017892879 0.011535026 -0.030158952 -0.00028241664 -0.019921916
-0.027837321 0.0066528562 0.023819445 0.011580047 -0.021328326 0.029348562 -0.0014234204 0.0052847485

transformer.layers.1.self_attn.out_proj.bias f4 [64]
00000000: f631 acbb 015c f8bc 2497 00bd 189b 9abb
00000010: 35e5 84bc e62e a9bc e4cb f3ba 0224 5dbc
00000020: 1dea 27bc 2a6f 6dbc adbf 3d3c 5fd7 4dbc
00000030: 291b 85ba 7a8a 39bb 065c 353c 7506 21bd
00000040: e610 8938 98f7 54bd 3fe2 9e3c 6d7c 863c
00000050: c6e0 0e3c 2305 a63c 2b4b 6ebb a3b1 1239
00000060: b6c3 7f3c 494e 253d 943a 643d 5724 80bc
00000070: d8eb 2f3c bddd 46bb 22e4 953c 250a 12bd
00000080: f6dc 183c ecca a5bc f3e5 ecbc 91d3 12bb
00000090: 1c78 4dbb 1078 993c a3e2 abbc a948 79bc
000000a0: e9ee c23c 0b93 89bc 666a 823c 449e 8e3c
000000b0: 8b75 e43a 7cd5 4abc 20c6 c13b b292 033b
000000c0: 4af3 42bc 9b67 943b 02ac fd3c 6866 c43c
000000d0: 6137 453c 47ed e3bc cc67 cb3c 2c1f 06bd
000000e0: 1f63 b3bc e4c8 9bbb ed26 613d 49c4 453c
000000f0: 7a52 72bc 0bb0 b23c 2a2c 8dbb ad07 163c
-0.0052549792 -0.030317308 -0.03139414 -0.0047181956 -0.016222576 -0.020652246 -0.0018600193 -0.013497354
-0.010248688 -0.014491836 0.011581344 -0.0125635555 -0.0010155189 -0.0028311298 0.011069303 -0.0393128
6.535817e-05 -0.051993936 0.019394992 0.016416753 0.008720582 0.020266121 -0.0036360722 0.0001398982
0.015610626 0.04035786 0.055719927 -0.015642328 0.010737382 -0.0030344569 0.018297259 -0.035654206
0.009330025 -0.020238362 -0.028918242 -0.0022403935 -0.0031352108 0.018734008 -0.020982092 -0.015215077
0.023795562 -0.016793748 0.015919875 0.017409451 0.001743005 -0.01238 0.005913511 0.002007645
-0.011898825 0.0045289523 0.030965809 0.023974612 0.012037129 -0.027823104 0.024829768 -0.03274457
-0.02189785 -0.0047541726 0.054968763 0.012070724 -0.014790172 0.02181246 -0.0043082433 0.0091571035

transformer.layers.1.linear2.bias f4 [64]
00000000: 706f 09bc 532b 9a3c b11d 1c3d 21b8 943d
00000010: 071c 1dbd 7816 78bd 0a24 703d e266 963d
00000020: f5d2 91bc 5070 ef3c 1c2b d43c 51c5 943c
00000030: 0504 443d 07fa 923c ca4e e23b 3710 aebd
00000040: 2fe3 16bd bf02 ba3c 36b8 3fbc 4791 8b3d
00000050: 65dc 81bd 1b87 233d 47d5 22bd e1ee 2ebd
00000060: 4f1f 013d 6a8c 3fbd 68b0 113e bdd3 4f3d
00000070: 6ad0 2a3d 6a24 c439 61a5 89bd 67c5 ddbd
00000080: 61ab 043d a436 22bd 8de6 3b3d 21a7 9dbd
00000090: 2e2b d33c 8eab 5fbc c20a 2abd e619 1cbc
000000a0: 46ae dd3d 8556 803d cfa0 873d 7a18 593d
000000b0: ec18 ebbb 1a29 90bd 2e3d 5d3b 6595 9ebd
000000c0: 1e8e e2bc 11fb a1bd 2002 483c 92a1 aabc
000000d0: fd90 343d 8ab6 7cbd 0b21 713c f79a ffbc
000000e0: bbae 023d 6446 653c fa20 053d cd14 9d3d
000000f0: 0c2b 3f3d b0ff 1bbd 2703 17bc 8802 57bd
-0.008388385 0.018819487 0.038114253 0.07261682 -0.038356807 -0.060568303 0.05862812 0.07343842
-0.017800787 0.02922836 0.025899462 0.018160494 0.047855396 0.017941488 0.006906365 -0.084991865
-0.036837753 0.022706388 -0.011701634 0.06814819 -0.06340865 0.03992377 -0.03975418 -0.04270828
0.031524 -0.04676477 0.1422745 0.05073904 0.041702665 0.00037411164 -0.06720997 -0.10828667
0.032390002 -0.03960289 0.045874167 -0.07697893 0.025777426 -0.013651742 -0.041514166 -0.009527659
0.10824256 0.06266502 0.06622469 0.05300186 -0.007174602 -0.070390895 0.003375839 -0.077433385
-0.027655657 -0.07909215 0.012207538 -0.020828996 0.044083584 -0.06169752 0.014717351 -0.031201823
0.031904917 0.013993833 0.032502152 0.07669983 0.046671912 -0.03808564 -0.00921706 -0.05249265

transformer.layers.1.norm1.weight f4 [64]
00000000: 6ea2 673f f14e 823f ecfd 7c3f 3966 753f
00000010: e06e 7a3f 8b46 7c3f 42cb 783f 8369 773f
00000020: d04d 713f 4601 7e3f 90da 793f 4884 7d3f
00000030: 4caa 773f c855 7a3f 7d26 733f 83ed 873f
00000040: c335 7c3f 4207 833f df28 783f 0d59 743f
00000050: a257 7d3f 5486 7f3f 3013 733f 5dfe 763f
00000060: 780c 733f eb5d 813f f585 813f b0b5 7f3f
00000070: 9cab 773f 4780 6c3f de34 7d3f 6f36 813f
00000080: fe89 723f 75fd 793f a85d 7a3f ec84 753f
00000090: cee0 743f 5c9b 743f 5709 803f 3ae5 6f3f
000000a0: b8ab 7e3f 061e 6e3f 0aff 7c3f 990e 733f
000000b0: b68e 783f 37d9 753f 081c 703f 2425 7c3f
000000c0: 9083 703f da94 733f c2e1 783f 532f 763f
000000d0: 8e09 783f 17b6 743f 533b 753f 3e8c 783f
000000e0: 180e 713f d214 783f e84a 813f 7967 793f
000000f0: d943 783f c9d7 7e3f 5cca 7a3f 76ed 743f
0.90482223 1.0180341 0.98824954 0.95859104 0.9782543 0.9854514 0.97185147 0.96645373
0.9425936 0.99220693 0.97599125 0.9902997 0.9674423 0.9778714 0.94980603 1.0619358
0.98519534 1.023659 0.96937364 0.9544838 0.9896184 0.99814343 0.9495115 0.9648188
0.949409 1.0106786 1.0119005 0.9988661 0.9674623 0.92383236 0.98908794 1.0094737
0.9474181 0.9765237 0.9779916 0.9590595 0.95655525 0.9554956 1.000285 0.93709147
0.9948077 0.9301456 0.9882666 0.9494415 0.9709276 0.9603457 0.9379277 0.9849417
0.9395075 0.95149004 0.9721948 0.9616596 0.9688958 0.9559035 0.95793647 0.9708899
0.9416213 0.9690677 1.0100985 0.9742351 0.9697853 0.9954801 0.97965026 0.95674837

transformer.layers.1.norm1.bias f4 [64]
00000000: ffdc 833b c82c 05bd 25a2 f7bc 1053 25bb
00000010: 06db c1bc c52e e6bc 8064 5bbb 702f 44bc
00000020: f6a5 97bb b944 50bb d527 3b3b 58c1 c3bb
00000030: 0324 95bc a01a bdba 189c 393c 82e8 ffbc
00000040: 20fb 853a 8eaa 6cbd b3d9 b03c ee1f 6c3c
00000050: 1e87 733c 05f9 df3c f724 34bb ec07 f03a
00000060: 19c4 533c 3c1b dc3c a442 723d 555b 9cbc
00000070: e38b 69bb 4f62 d5ba 6b9d 5b3c 19c9 11bd
00000080: ddf1 ce3b 1f7d d0bc c916 06bd e517 fdbb
00000090: 2f7f 89bb 8e8c 6b3c 59a5 f5bc 7bcf e1bb
000000a0: ca68 cf3c 30c5 79bc f82d 853c fc30 733c
000000b0: 4bdb babb 8590 95bc ae35 763c a445 78ba
000000c0: 6451 69bc 913c 8d3b 6f2e cd3c 0a23 e23c
000000d0: 278e 673c 119d ecbc 550b 283c f965 4cbd
000000e0: b5dd c3bc 00a3 20bc 9a07 673d f4bd 8e3b
000000f0: eba0 83bc 27f5 093d 4190 89bb 9f23 103b
0.0040241475 -0.03251341 -0.030228684 -0.002522651 -0.023664009 -0.028098473 -0.003347665 -0.011974201
-0.0046279384 -0.0031779243 0.0028557677 -0.005973976 -0.018205648 -0.001442749 0.01132872 -0.031238798
0.0010221936 -0.05777984 0.021588182 0.0144119095 0.014863757 0.027340421 -0.0027487853 0.0018312908
0.012925171 0.026868455 0.059145585 -0.01908652 -0.0035636357 -0.0016279909 0.013404231 -0.035592172
0.0063154534 -0.025450287 -0.032736573 -0.0077237957 -0.0041960697 0.014376773 -0.02998607 -0.0068911887
0.025318522 -0.015244767 0.016257271 0.014843222 -0.0057024113 -0.018257389 0.015027447 -0.00094708265
-0.014240596 0.0043101986 0.025046555 0.027604599 0.014133013 -0.028883489 0.010256608 -0.049901936
-0.02390943 -0.009804487 0.056403734 0.0043561403 -0.016067943 0.03368106 -0.0041981046 0.0021993888

transformer.layers.1.norm2.weight f4 [64]
00000000: ea56 803f 53b3 853f 2e51 8a3f fa32 863f
00000010: 69c8 833f 5943 853f 9ce2 833f 9675 853f
00000020: cd73 833f 8f2e 8c3f ecc7 8a3f 109c 843f
00000030: 817b 863f 30ea 8e3f db92 833f 5ade 913f
00000040: d03e 893f 2cb2 823f 8939 833f d57a 7e3f
00000050: 72c7 843f f174 843f 523a 8b3f 42a0 863f
00000060: 7963 883f 8e7e 913f 3bc7 823f 843b 8b3f
00000070: f092 883f 396d 893f 6c5a 883f 9bce 8a3f
00000080: 3ee3 703f f25b 7d3f 1685 883f 4734 8a3f
00000090: 03e3 7d3f 0f7e 843f 867d 8a3f ac14 893f
000000a0: fae6 893f 389c 843f 94a5 8a3f 7534 7c3f
000000b0: 666e 833f 0a1a 823f a6a5 793f f917 893f
000000c0: 408d 793f 464f 853f 807d 8e3f 0d35 813f
000000d0: 06de 853f 9e96 7d3f ee10 913f 82ad 833f
000000e0: 1919 8d3f 89bf 7b3f e959 813f f363 923f
000000f0: 027f 8c3f 8c02 813f 388e 903f 8b7c 833f
1.0026524 1.044535 1.0806024 1.0484307 1.0295535 1.0411178 1.0303531 1.0426509
1.0269715 1.0951709 1.0842261 1.0360126 1.050644 1.1165218 1.0279192 1.1395981
1.0722294 1.0210624 1.0251933 0.99406177 1.0373366 1.0348188 1.0877173 1.0517657
1.0655357 1.1366746 1.021705 1.0877538 1.0669842 1.0736457 1.0652595 1.0844301
0.94096744 0.9896842 1.0665615 1.0797204 0.9917452 1.035097 1.0819557 1.0709434
1.0773613 1.0360174 1.083178 0.98517543 1.0268066 1.0164196 0.97518384 1.0710441
0.97481155 1.0414817 1.113205 1.0094315 1.0458381 0.9905795 1.1333292 1.0287325
1.1023284 0.98339134 1.0105563 1.1436752 1.097626 1.0078902 1.1293402 1.0272382

transformer.layers.1.norm2.bias f4 [64]
00000000: f571 813d 1b2b 20bd bb02 2f3d 426d 363d
00000010: 82a3 96bd 4aee ecbc 08ea 35bd 6d56 373d
00000020: 7ef5 823d 09b5 283d d0e7 0fbd 5546 983d
00000030: 62d8 d8bd b81b b63c 420e e9bc efb9 a53d
00000040: cb7a abbc 7406 69bd 1fb9 903d 8acc 583d
00000050: 10db a63c a4f9 a53d c3bb 1d3d 8f57 f03c
00000060: baad 313d 6682 87bc 4176 723d bdf0 033d
00000070: 8d01 b3bd e0ea ba3d 32c7 11bc 086a b1bc
00000080: 8107 0dbd 9065 0ebd 04bf e4bc bec2 9d3c
00000090: 2e58 a7bc 2fa5 0bbd 375e 62bc 2efa 823d
000000a0: 5bdd 87bc 62f4 e0bb 1b2a d63a 1db5 343d
000000b0: 6ec9 85bd 9fbc c1bc 0490 f93c 6948 d0bc
000000c0: c0cf f2bc bdb0 32bc 23dc c1bd 8014 b53c
000000d0: 9906 263d b302 02bd 9465 e5bd 7ac4 f6bc
000000e0: ee5b 5ebc a2bc debd 6adb 13bb 4879 97bd
000000f0: 3ada a43b c09d a23d 8f2d 823d e070 6abd
0.06320564 -0.03910361 0.042727213 0.04453779 -0.073554054 -0.028922219 -0.044412643 0.044760156
0.0639448 0.041188274 -0.035133183 0.0743529 -0.10588147 0.022230014 -0.028449181 0.08092105
-0.020932576 -0.05689092 0.07066559 0.05292944 0.020368129 0.08104256 0.03850914 0.029338626
0.04337857 -0.016541671 0.059194807 0.032212008 -0.0874053 0.0912683 -0.0088975895 -0.021657005
-0.034430984 -0.034764826 -0.027923115 0.0192579 -0.02042779 -0.03409308 -0.013816408 0.06395374
-0.016585043 -0.00686507 0.0016339453 0.044118036 -0.0653256 -0.023649512 0.03046418 -0.025425153
-0.029640079 -0.0109063955 -0.09465816 0.022104502 0.040533636 -0.031740855 -0.11201015 -0.030122984
-0.013571722 -0.108758226 -0.00225612 -0.073961794 0.0050308974 0.07940245 0.06356346 -0.057236552

classifier.0.bias f4 [32]
00000000: 44ae 903d 4f21 f9bc f44b c43d 7670 af3d
00000010: ba9d e13c 390e 49bd a9d9 41bd 02b7 fc3d
00000020: 3a8b 9439 1224 f03d 9070 bb3b bb91 ae3d
00000030: 3d81 b03c 2d7b 0dbe 19f8 85bd eec3 0a3e
00000040: 40c0 c13d 166d a2bc 26bc 023e e5fb f33d
00000050: 2551 0b3d d1b0 a03c 8f7c 6f3c 4670 f43b
00000060: 37f9 f83d de65 26bb c602 babd c41b 213d
00000070: 72f8 933d 1477 093e 1374 183e 8153 613c
0.070644885 -0.03041139 0.095847994 0.08566372 0.02754103 -0.04908583 -0.047326718 0.123395935
0.00028332492 0.1172563 0.0057202056 0.0852389 0.021546 -0.13816519 -0.065414615 0.13551304
0.09460497 -0.019827407 0.12767085 0.119132794 0.034012932 0.019615563 0.014617099 0.007459673
0.12156909 -0.0025390307 -0.0908256 0.03933312 0.072251216 0.13424331 0.14888029 0.013752819

classifier.3.weight f4 [1, 32]
00000000: 3acc 393e 7ee2 5d3e 1599 593e 1fac 0ebe
00000010: 1094 0cbe f6cd 503e ed30 53be 0edb 55be
00000020: 9329 393e 81f5 2f3e 8b44 453e cf2b fcbd
00000030: e638 4dbe c21e 533a 97ed 233c ef68 f33d
00000040: c470 643e 0c6b 553e 6334 96bd 268c 153e
00000050: 900a 1ebe 8326 59be 8359 3c3e a540 4bbd
00000060: 89a4 5bbe c797 17be e8fb 52be 3b11 29be
00000070: 13aa 3bbe a45c 60be aee2 393e 5e09 21bd
0.18144313 0.21668431 0.21249802 -0.13932846 -0.13728356 0.20391068 -0.20624132 -0.20884344
0.18082266 0.17183496 0.19264428 -0.12313043 -0.20041236 0.00080535945 0.010005376 0.11885249
0.22308642 0.20841616 -0.07334211 0.14604244 -0.15433717 -0.21206097 0.18393521 -0.049622197
-0.21449484 -0.14803992 -0.20603907 -0.16510479 -0.18326597 -0.2191034 0.18152878 -0.039315574

val_1 f4 [1, 64]
00000000: 3f41 253f c318 12bf 25af 233e c496 f73e
00000010: f094 6dbf b456 1bbf 962b 1fbf 4e44 ae3e
00000020: a9ce 6bbe b0a9 cc3e 26ad 7b3e 04bb 1bbf
00000030: 31ca 113f 4748 6abd 91f4 703f 1fe3 4dbf
00000040: 2f3a 163f 4934 ec3c b7b9 1abf a886 9ebd
00000050: b3a5 13bf 9398 0bbd f190 b7be 8dda dabe
00000060: 7367 35bf 711a 4dbf af81 0ebf 079b 0f3d
00000070: ee89 423d b1b9 693f 78cd 683f 15f7 753f
00000080: 5f18 003c ad78 00bf 8596 3cbe f859 123f
00000090: 2ecf 4bbf 727c c1be dff5 703e e0de a43e
000000a0: a537 a03e 5a48 1c3f defa 20be 11ee 943e
000000b0: 4665 83bd f2be 3f3f fea4 233f b63c 1ebf
000000c0: bf8a 4b3f 93b0 6a3f 8c98 31bf d05b 663f
000000d0: 1922 4e3f 6450 003f f708 eebe ac2d 12bf
000000e0: 58d8 36bf 6779 16bf 6424 8b3e 758c 2e3f
000000f0: 263c 513f 23c3 643f 95c8 1e3d 0a5e 8cbe
0.6455268 -0.57069033 0.15984781 0.48357213 -0.92805386 -0.60679173 -0.6217588 0.34036487
-0.23028053 0.3997321 0.2457777 -0.6083224 0.56949145 -0.057197835 0.9412318 -0.80424684
0.5868253 0.028833525 -0.6043963 -0.077405274 -0.5767471 -0.034081053 -0.3585277 -0.42744866
-0.70860976 -0.8011847 -0.5566663 0.035059955 0.04749482 0.9129897 0.9093852 0.9608014
0.0078183105 -0.50184137 -0.18416794 0.5716853 -0.79613006 -0.37790257 0.23531292 0.3220129
0.31292453 0.610479 -0.15720698 0.2908788 -0.06415801 0.74900734 0.63923633 -0.6181139
0.79508585 0.9167568 -0.69373393 0.89983845 0.8052078 0.50122666 -0.46491215 -0.5710094
-0.71423864 -0.58778995 0.271762 0.6818307 0.81732404 0.89360255 0.03876551 -0.27415496

zeros_like f4 [1, 20]
00000000: 0000 0000 0000 0000 0000 0000 0000 0000
00000010: 0000 0000 0000 0000 0000 0000 0000 0000
00000020: 0000 0000 0000 0000 0000 0000 0000 0000
00000030: 0000 0000 0000 0000 0000 0000 0000 0000
00000040: 0000 0000 0000 0000 0000 0000 0000 0000
0.0 0.0 0.0 0.0 0.0 0.0 0.0 0.0
0.0 0.0 0.0 0.0 0.0 0.0 0.0 0.0
0.0 0.0 0.0 0.0
