scripts/data/transformer_real.pth (torch, 328741 bytes, 33 tensors)

page_embedding.weight f4 [4, 64]
0	0x00000000	0.0
1	0x00000000	0.0
2	0x00000000	0.0
3	0x00000000	0.0
4	0x00000000	0.0
5	0x00000000	0.0
6	0x00000000	0.0
7	0x00000000	0.0
8	0x00000000	0.0
9	0x00000000	0.0
10	0x00000000	0.0
11	0x00000000	0.0
12	0x00000000	0.0
13	0x00000000	0.0
14	0x00000000	0.0
15	0x00000000	0.0
16	0x00000000	0.0
17	0x00000000	0.0
18	0x00000000	0.0
19	0x00000000	0.0
20	0x00000000	0.0
21	0x00000000	0.0
22	0x00000000	0.0
23	0x00000000	0.0
24	0x00000000	0.0
25	0x00000000	0.0
26	0x00000000	0.0
27	0x00000000	0.0
28	0x00000000	0.0
29	0x00000000	0.0
30	0x00000000	0.0
31	0x00000000	0.0
32	0x00000000	0.0
33	0x00000000	0.0
34	0x00000000	0.0
35	0x00000000	0.0
36	0x00000000	0.0
37	0x00000000	0.0
38	0x00000000	0.0
39	0x00000000	0.0
40	0x00000000	0.0
41	0x00000000	0.0
42	0x00000000	0.0
43	0x00000000	0.0
44	0x00000000	0.0
45	0x00000000	0.0
46	0x00000000	0.0
47	0x00000000	0.0
48	0x00000000	0.0
49	0x00000000	0.0
50	0x00000000	0.0
51	0x00000000	0.0
52	0x00000000	0.0
53	0x00000000	0.0
54	0x00000000	0.0
55	0x00000000	0.0
56	0x00000000	0.0
57	0x00000000	0.0
58	0x00000000	0.0
59	0x00000000	0.0
60	0x00000000	0.0
61	0x00000000	0.0
62	0x00000000	0.0
63	0x00000000	0.0
64	0xbfad4d05	-1.353913
65	0xbf3c7c66	-0.73627317
66	0x3f6d8afe	0.9279021
67	0xbddaa0aa	-0.106751755
68	0xbd780a52	-0.060556717
69	0xbcd9ff89	-0.026611106
70	0x3f850db5	1.0394808
71	0xbf3db135	-0.7409852
72	0x3efa6688	0.4890635
73	0xbf0b9fa4	-0.5454047
74	0x3ffcbf06	1.9745796
75	0xbf234faa	-0.6379343
76	0x3d7db1a2	0.061936982
77	0xbf74c7ba	-0.9561726
78	0x3ee3c2c5	0.44484535
79	0xbeeccf05	-0.46251693
80	0x3f066a7a	0.5250622
81	0x3f7faf18	0.99876547
82	0x3f158ee9	0.5842119
83	0x3f82b425	1.0211226
84	0xbf79f7cd	-0.9764374
85	0x3ee22cb0	0.4417472
86	0xbe286ac1	-0.16446973
87	0x3e5fdc0a	0.21861282
88	0x3fd0fce6	1.6327178
89	0xbedffd7d	-0.43748084
90	0x3f016e98	0.5055938
91	0xbf9a1357	-1.2037152
92	0x3e4b02f5	0.19825347
93	0x3facd90c	1.3503737
94	0x3e1abde7	0.15111504
95	0x3ebf78c0	0.37396812
96	0x3fc05851	1.5026952
97	0xbe472fcd	-0.19451828
98	0xc0008b6a	-2.0085092
99	0x400343f8	2.0510235
100	0x3dd5122a	0.10403855
101	0x3f338b0b	0.7013404
102	0x3ebb882d	0.3662733
103	0x3f87d85d	1.0612904
104	0xbea3a32a	-0.31960422
105	0x3f300147	0.6875195
106	0x3e10b308	0.14130795
107	0x3f2b8fcc	0.6701629
108	0xbed6fe17	-0.4199073
109	0x3f8166a6	1.0109451
110	0xbf215772	-0.63024056
111	0xbdd1cbdb	-0.102439605
112	0x3f6f3f82	0.9345628
113	0xbefbcb23	-0.4917842
114	0xbfd429b1	-1.6575223
115	0x3e6703c0	0.22560024
116	0xbe5c2cc7	-0.21501456
117	0xc00cd834	-2.200696
118	0xbf9493d9	-1.160762
119	0x3f2bcce6	0.67109525
120	0xbfa37374	-1.2769608
121	0x3ecf7ff1	0.405273
122	0xbd9699ce	-0.07353555
123	0xbea9054c	-0.33011854
124	0x3fbce1d1	1.4756414
125	0x3f5db30b	0.8660132
126	0x40109408	2.259035
127	0xbfd14b6f	-1.6351146
128	0x3f8a4714	1.0802941
129	0xbfa2c0a1	-1.2715036
130	0x3f86e023	1.0537151
131	0x3f3d9214	0.7405102
132	0xbfd00af4	-1.6253343
133	0x3e8bd01d	0.27307215
134	0xbf00bc0e	-0.5028695
135	0xbeaf95d8	-0.3429401
136	0xbf23d18b	-0.6399161
137	0x3f2c8373	0.67388076
138	0x3e08ad21	0.13347293
139	0xbdebd64d	-0.11515484
140	0xbfa8e595	-1.3195063
141	0xbe4ef982	-0.20212367
142	0x3fb44e8e	1.4086473
143	0xbeb843db	-0.3598927
144	0xbec717fc	-0.38885486
145	0x3e50e1b9	0.20398606
146	0xbf415a4c	-0.7552841
147	0xbf099520	-0.5374317
148	0x3f246cea	0.6422869
149	0xc02a6e48	-2.662981
150	0xbe40acda	-0.18815938
151	0xbf543c03	-0.8290407
152	0x3ec4fa6f	0.38472316
153	0x3fec64b5	1.8468233
154	0xbe9197ef	-0.2843623
155	0x3ed41cd8	0.41428256
156	0xc023749c	-2.5539923
157	0xbf46da03	-0.7767641
158	0x3f82af4a	1.0209744
159	0x3e511af6	0.20420441
160	0xbf014053	-0.50488776
161	0x3e6a2ab3	0.22867851
162	0x3ed6fc29	0.41989258
163	0x3f073b90	0.5282526
164	0x3f9432f9	1.1578056
165	0xbf6e2180	-0.93019867
166	0x403cc328	2.9494114
167	0xbf07794f	-0.5291948
168	0x3fb85f70	1.4404125
169	0xbf24c847	-0.643681
170	0xbe203b87	-0.15647708
171	0xbd8965a8	-0.067088425
172	0x3e7752bc	0.24152654
173	0xbe8e6298	-0.27809596
174	0x3f01002c	0.5039089
175	0xbf17a086	-0.59229314
176	0xbfc06782	-1.5031588
177	0xc010e823	-2.2641685
178	0x3f199aea	0.60002005
179	0xbed54044	-0.41650593
180	0x3e812bfd	0.25228873
181	0x3f11ba8c	0.5692527
182	0x3eaa218b	0.33228716
183	0xbfb0e2cf	-1.3819216
184	0x3fa10f5e	1.2582815
185	0xbfa119c4	-1.2585988
186	0xbf041890	-0.5159998
187	0xbfa22ad8	-1.2669325
188	0x3e739010	0.23785424
189	0x3e5be154	0.21472675
190	0x3f5a1526	0.8518852
191	0xbf0f1cbe	-0.5590323
192	0x3de87b14	0.113516
193	0x3f22253d	0.6333807
194	0xbfadb479	-1.3570701
195	0xbf18fffb	-0.59765595
196	0x3f573aa6	0.84073865
197	0x3f1f4027	0.62207264
198	0x3e254ce1	0.16142608
199	0xbfa361c5	-1.2764212
200	0xbe97abe3	-0.29623327
201	0x3e188ba5	0.1489702
202	0xbe0f6029	-0.14001526
203	0xbf3fc45e	-0.7490901
204	0xbf24e2d1	-0.64408594
205	0xbe67dda8	-0.22643149
206	0xbf3a7859	-0.72839886
207	0x3fa53ad1	1.2908574
208	0xbea4e8b4	-0.32208788
209	0x3ecda076	0.40161484
210	0x3f2ea58b	0.6822135
211	0x3fb931d5	1.4468333
212	0x3ef799b8	0.48359466
213	0x3e8ad974	0.2711903
214	0xbe6a7656	-0.22896704
215	0xbfde1372	-1.7349684
216	0x3ee86522	0.45389658
217	0x3f87454c	1.0568023
218	0x3c86a99f	0.016438304
219	0x3f0a3fc3	0.5400354
220	0xbe8a28ea	-0.2698434
221	0x3f790c14	0.97284055
222	0x3e9a66b8	0.30156493
223	0x3ccb825c	0.024842434
224	0xbf6ab599	-0.91683346
225	0xbf5de508	-0.866776
226	0x3faa9ff0	1.3330059
227	0x3fdf7ad0	1.7459354
228	0xbf12e37e	-0.57378376
229	0x3d8b4ff5	0.0680236
230	0xbf58f655	-0.8475087
231	0x3f7f5e92	0.9975368
232	0xbf386ec1	-0.72044
233	0xbfbd1492	-1.4771903
234	0xbf0abcfb	-0.5419461
235	0x3d9fe5e5	0.07807521
236	0x3f1f1184	0.621361
237	0x3f0d3b3e	0.5516852
238	0x3f3d9926	0.7406181
239	0xbfbcb2aa	-1.4742024
240	0x3db66524	0.0890601
241	0x3e6bb01b	0.23016398
242	0x3dce42d7	0.100713424
243	0x3f4c5ea2	0.798319
244	0xbf81d38a	-1.0142682
245	0xbf722fb5	-0.94604045
246	0xbf8554b6	-1.0416477
247	0x3f4edb5c	0.80803466
248	0x3f19a7f2	0.6002189
249	0x3ff7cbaa	1.9359028
250	0xbf8e2ebf	-1.1108016
251	0x3c9bedd5	0.019034306
252	0x3f004101	0.5009919
253	0xbfbcf48d	-1.4762131
254	0xbf337f8f	-0.70116514
255	0xbe2bdfa8	-0.16784537

duration_proj.weight f4 [64, 1]
0	0x3f25413f	0.6455268
1	0xbf1218c3	-0.57069033
2	0x3e23af25	0.15984781
3	0x3ef796c4	0.48357213
4	0xbf6d94f0	-0.92805386
5	0xbf1b56b4	-0.60679173
6	0xbf1f2b96	-0.6217588
7	0x3eae444e	0.34036487
8	0xbe6bcea9	-0.23028053
9	0x3ecca9b0	0.3997321
10	0x3e7bad26	0.2457777
11	0xbf1bbb04	-0.6083224
12	0x3f11ca31	0.56949145
13	0xbd6a4847	-0.057197835
14	0x3f70f491	0.9412318
15	0xbf4de31f	-0.80424684
16	0x3f163a2f	0.5868253
17	0x3cec3449	0.028833525
18	0xbf1ab9b7	-0.6043963
19	0xbd9e86a8	-0.077405274
20	0xbf13a5b3	-0.5767471
21	0xbd0b9893	-0.034081053
22	0xbeb790f1	-0.3585277
23	0xbedada8d	-0.42744866
24	0xbf356773	-0.70860976
25	0xbf4d1a71	-0.8011847
26	0xbf0e81af	-0.5566663
27	0x3d0f9b07	0.035059955
28	0x3d4289ee	0.04749482
29	0x3f69b9b1	0.9129897
30	0x3f68cd78	0.9093852
31	0x3f75f715	0.9608014
32	0x3c00185f	0.0078183105
33	0xbf0078ad	-0.50184137
34	0xbe3c9685	-0.18416794
35	0x3f1259f8	0.5716853
36	0xbf4bcf2e	-0.79613006
37	0xbec17c72	-0.37790257
38	0x3e70f5df	0.23531292
39	0x3ea4dee0	0.3220129
40	0x3ea037a5	0.31292453
41	0x3f1c485a	0.610479
42	0xbe20fade	-0.15720698
43	0x3e94ee11	0.2908788
44	0xbd836546	-0.06415801
45	0x3f3fbef2	0.74900734
46	0x3f23a4fe	0.63923633
47	0xbf1e3cb6	-0.6181139
48	0x3f4b8abf	0.79508585
49	0x3f6ab093	0.9167568
50	0xbf31988c	-0.69373393
51	0x3f665bd0	0.89983845
52	0x3f4e2219	0.8052078
53	0x3f005064	0.50122666
54	0xbeee08f7	-0.46491215
55	0xbf122dac	-0.5710094
56	0xbf36d858	-0.71423864
57	0xbf167967	-0.58778995
58	0x3e8b2464	0.271762
59	0x3f2e8c75	0.6818307
60	0x3f513c26	0.81732404
61	0x3f64c323	0.89360255
62	0x3d1ec895	0.03876551
63	0xbe8c5e0a	-0.27415496

duration_proj.bias f4 [64]
0	0x3ee0aa2f	0.4387984
1	0xbf0bd728	-0.5462518
2	0x3f0a04ed	0.53913766
3	0xbe96d818	-0.2946174
4	0x3f42d94f	0.76112837
5	0xbf10db4b	-0.56584615
6	0xbc53b74e	-0.012922121
7	0xbe4fb928	-0.20285475
8	0x3f034b2a	0.51286566
9	0xbeb8d16c	-0.36097276
10	0x3f5323a5	0.82476264
11	0xbf5f7ca2	-0.8729955
12	0x3e1ac73f	0.15115069
13	0x3d20e745	0.039283056
14	0xbf4690dd	-0.77564794
15	0x3e15d1dc	0.14630836
16	0x3e861b79	0.26192835
17	0xbee327ba	-0.44366246
18	0x3e6fafa8	0.23406851
19	0xbecde615	-0.402146
20	0xbec608aa	-0.38678485
21	0xbe3033fa	-0.17207327
22	0xbf0985f9	-0.5372005
23	0x3f5cfcf5	0.8632348
24	0x3e36d999	0.17856444
25	0x3dfa7529	0.12229378
26	0x3e772377	0.24134623
27	0xbeaac59d	-0.33353892
28	0xbc856dbb	-0.016287675
29	0xbe02918e	-0.12750837
30	0xbd7a52a9	-0.061113987
31	0xbf62120d	-0.88308793
32	0x3c0d6e82	0.008632304
33	0xbf30dd2d	-0.6908749
34	0xbf2b82a0	-0.6699619
35	0xbed2a0be	-0.41138262
36	0x3f2f99e9	0.68594223
37	0x3ebc2e5f	0.36754128
38	0x3f3286ef	0.6973714
39	0x3e9adf18	0.30248332
40	0xbeba9827	-0.36444208
41	0x3f5afc75	0.8554147
42	0x3e28f1db	0.1649851
43	0xbf33d5ae	-0.70247924
44	0x3e87093d	0.26374236
45	0xbf4fa9b3	-0.81118315
46	0x3e86c8c1	0.26325038
47	0x3f360096	0.71094644
48	0x3ed80df5	0.42198148
49	0xbee5159f	-0.44743058
50	0xbe678060	-0.22607565
51	0x3f4ccf8d	0.800042
52	0x3e370cfa	0.17876044
53	0xbeba291c	-0.3635949
54	0x3f3dc30a	0.7412573
55	0x3e8fbbea	0.28073055
56	0xbf58e94c	-0.8473098
57	0x3f639a05	0.8890689
58	0x3d53fa20	0.05175221
59	0xbee6eba5	-0.45101658
60	0xbef352d0	-0.47524118
61	0xbef3fd38	-0.47654128
62	0xbf0b839c	-0.54497695
63	0xbf3c2c0f	-0.7350473

combine.weight f4 [64, 128]
0	0x3d53aa15	0.051675875
1	0x3d727719	0.05919561
2	0xbcf31d20	-0.029676974
3	0xbc056d83	-0.008143785
4	0xbdca4ba5	-0.09877709
5	0x3dba882f	0.09108006
6	0x3db5cfdb	0.08877536
7	0xbdb88eda	-0.09011622
8	0x3d88282d	0.06648288
9	0x3bb319d9	0.0054657278
10	0x3d883e9d	0.066525675
11	0x3b9ef3e6	0.0048508523
12	0x3d0064ab	0.031346004
13	0xbcfcb78d	-0.030849243
14	0x3d431d03	0.04763509
15	0xbdb35ab6	-0.08757536
16	0x3d9b0c98	0.075707614
17	0x3d1cd94a	0.03829316
18	0xbd48c996	-0.049020372
19	0x3c3acb1e	0.011400966
20	0xbcb30fea	-0.021858174
21	0x3d719b1e	0.058985822
22	0x3cf9e780	0.030505896
23	0x3d05513a	0.032548167
24	0x3cc7bf73	0.024383282
25	0x3d498cd8	0.049206585
26	0xbd1b7adf	-0.037958976
27	0x3cda98a0	0.026684105
28	0xbd73726e	-0.0594353
29	0x3d5a4192	0.05328519
30	0xbaad9021	-0.0013241806
31	0x3d1b022e	0.037843876
32	0xbc41739c	-0.011807349
33	0xbd05b787	-0.03264573
34	0x3cc2777f	0.02373862
35	0x3da43a1d	0.08018897
36	0x3c0c8583	0.008576754
37	0x3d4987aa	0.049201645
38	0x3daf6379	0.08563895
39	0x3c89551e	0.01676422
40	0x3c89c479	0.016817318
41	0x3d8ce197	0.06878965
42	0x3d76b981	0.060235504
43	0x3d2a27e5	0.041541953
44	0xbc484168	-0.012222625
45	0x3d663f53	0.056212734
46	0x3d2fe766	0.042945288
47	0x3ce589c3	0.028019791
48	0x3d29cd56	0.04145559
49	0x3d15167a	0.03639839
50	0x3d7561c8	0.059907705
51	0x3d8f28c9	0.06990201
52	0x3ceae4a5	0.02867348
53	0x3c11a304	0.008888964
54	0x3cb5b51c	0.022181086
55	0xbda6456c	-0.0811871
56	0x3d358855	0.04431947
57	0x3d9d2e50	0.07674849
58	0xbdb7a335	-0.08966676
59	0xbdd0be16	-0.10192506
60	0xbd46d1dd	-0.048539985
61	0xbaab5b59	-0.0013073488
62	0xbd8f579f	-0.06999134
63	0xbcdc93d6	-0.026925962
64	0x3aa21266	0.0012365102
65	0x3d7b9b09	0.06142715
66	0x3d9baf2b	0.0760177
67	0x39acca3f	0.00032957082
68	0xbd13b5f0	-0.03606218
69	0xbcec6fe2	-0.028861944
70	0xbbfea3de	-0.0077709993
71	0x3d19e741	0.037574057
72	0xbbde8a03	-0.0067913546
73	0x3c2d6e59	0.010585391
74	0x3db780ec	0.08960137
75	0x3d7cb2e9	0.06169406
76	0x3c563df8	0.013076298
77	0xbd2748eb	-0.040841024
78	0xbc458fbb	-0.012058194
79	0x3d225591	0.039632384
80	0x3d2beca8	0.04197374
81	0xbd699bdb	-0.0570334
82	0x3dd74e58	0.1051299
83	0x3d001f01	0.031279568
84	0xbd61c932	-0.055123515
85	0xbdaa5410	-0.08316815
86	0xbd5cb018	-0.053878874
87	0x3d913b18	0.07091349
88	0xbaf4e239	-0.0018683142
89	0xbd08bac1	-0.033381227
90	0x3d8da73c	0.06916663
91	0x3c15a21d	0.009132889
92	0x3d72ccbf	0.059277292
93	0xbd9d4c6e	-0.076805934
94	0x3c2b6639	0.0104613835
95	0xbc9b182e	-0.018932428
96	0x3d7340cf	0.05938798
97	0xbc7a2035	-0.015266468
98	0x3d6d9496	0.05800303
99	0x3bd9f772	0.0066518122
100	0x3d84d708	0.064863265
101	0xbd3c7e2a	-0.046018757
102	0x3bc7ee32	0.006101393
103	0xbd1ce265	-0.038301844
104	0x3d691db4	0.056913093
105	0xbbcb84e7	-0.0062109116
106	0xbcaea41d	-0.02131849
107	0xbd45435e	-0.04815995
108	0xbafa6018	-0.0019102124
109	0x3cf0b459	0.029382871
110	0xbd05a398	-0.03262672
111	0xbd1feaa1	-0.03904212
112	0xbd9955cc	-0.074870676
113	0xba9ee36d	-0.0012122222
114	0x3ce965fa	0.028491009
115	0xbc1c2b24	-0.00953177
116	0xbd8fcfb6	-0.070220396
117	0xbd26ff1b	-0.04077063
118	0xbcdf17bf	-0.027233003
119	0x3d1ef7db	0.038810592
120	0x3d4375cc	0.04771976
121	0x3d809585	0.062785186
122	0x3b460a3b	0.00302185
123	0xbd9aa3f3	-0.07550802
124	0xbdb22eb2	-0.08700313
125	0xbd96283b	-0.07331892
126	0x3d1a4e77	0.037672486
127	0x3cef6bdd	0.029226238
128	0xbdaff92b	-0.08592447
129	0x3d4ab9b5	0.04949351
130	0xbd6d1a41	-0.057886366
131	0xbd416a9a	-0.047220804
132	0xbdc06543	-0.09394314
133	0xbda4bb6b	-0.0804356
134	0xbd2b58a1	-0.04183257
135	0x3c4c403f	0.012466489
136	0x3cb09bc4	0.02155865
137	0xbd9b3ec1	-0.07580329
138	0xbb946fcb	-0.0045299283
139	0xba25278e	-0.00063001446
140	0xbd2cb3a8	-0.04216352
141	0xbdac1cef	-0.08403956
142	0xbb3e00ef	-0.0028992256
143	0xbdaea05c	-0.0852668
144	0x3db4071a	0.08790417
145	0x3cf51776	0.029918414
146	0xbd9896ca	-0.07450636
147	0xbd187198	-0.037217706
148	0xbdc29c4c	-0.095024675
149	0xbd5eb123	-0.05436815
150	0xbd7e1fde	-0.06204211
151	0x3ca055f1	0.01957223
152	0xbcc33c6e	-0.023832526
153	0xbd81271f	-0.0630629
154	0x3c3d9ad5	0.011572559
155	0xbdad4be9	-0.08461744
156	0xbd99b687	-0.075055175
157	0x3bcb4fce	0.006204582
158	0xbd5229c1	-0.05130935
159	0x3d22a5c0	0.039708853
160	0x3d4621c6	0.048372053
161	0xbd26751a	-0.04063902
162	0x3d1aaf76	0.03776499
163	0xbc8f25c7	-0.017474068
164	0xbcb3c310	-0.021943599
165	0x3d3293eb	0.043598097
166	0x3d9500e3	0.0727556
167	0x3d395b4a	0.045253076
168	0xbd511e7b	-0.05105446
169	0x3c84177b	0.016124478
170	0x3d39b0ce	0.04533463
171	0xbd42b730	-0.047537982
172	0xbdc1213a	-0.094301656
173	0xbd96f697	-0.07371252
174	0xbd85d191	-0.06534112
175	0x3de7baef	0.11314952
176	0x3b901826	0.00439741
177	0x3d49fdb3	0.049314212
178	0x3d6e4645	0.058172483
179	0xbbd9067d	-0.006623088
180	0xbd5bd8cf	-0.05367356
181	0x3d20c806	0.039253257
182	0xbc0fc13b	-0.008774097
183	0xbb91978b	-0.004443114
184	0xbac68ae5	-0.0015147595
185	0x3d9eee38	0.0776028
186	0xbc9f6067	-0.019455148
187	0x3cf4c5e6	0.029879522
188	0x3da80c61	0.08205486
189	0x3c351d2f	0.011054321
190	0xbc15a87e	-0.00913441
191	0x3c1e4a0e	0.009661211
192	0x3d417533	0.04723091
193	0x3cb16505	0.021654615
194	0x3d543ccb	0.05181579
195	0x3d7b32ad	0.061327625
196	0xbd1169ab	-0.035501163
197	0x3d8e0f59	0.06936521
198	0x3dac9cb4	0.08428326
199	0xbc5f9ace	-0.013647748
200	0xbcfd26b0	-0.030902237
201	0xbd5ae0d6	-0.053437077
202	0x3c87d70a	0.01658203
203	0x3d75c242	0.05999971
204	0x3d47bbfb	0.048763257
205	0xbd721aa5	-0.05910744
206	0xbcef6751	-0.02922407
207	0x3d85ddf5	0.065364756
208	0xbd0b94f9	-0.03407762
209	0xbd07f506	-0.033192657
210	0xbcba509e	-0.02274352
211	0xbd12f42e	-0.0358774
212	0x3da5484f	0.080704324
213	0x3d3e197b	0.04641102
214	0x3bf34d55	0.00742499
215	0xbd2eea1f	-0.042703744
216	0x3d8460c0	0.06463766
217	0x3cc02887	0.023456825
218	0x3d37e7e8	0.044898897
219	0xbc4a86c1	-0.012361229
220	0xbd485f6c	-0.048919126
221	0xbd540f5d	-0.051772464
222	0xbc1f6e6b	-0.009730916
223	0x3d1649e9	0.03669158
224	0x3d0fdf17	0.035124864
225	0xbcb31f7e	-0.021865603
226	0x3c8e3e3e	0.017363664
227	0xbcad7c2e	-0.021177378
228	0xbb3fdc28	-0.002927551
229	0x3ceaba90	0.028653413
230	0xbda43c8e	-0.080193624
231	0xbc933a56	-0.017972153
232	0xbd3b5422	-0.045734532
233	0xbd9e418a	-0.07727344
234	0xbc7dbbf4	-0.015486706
235	0x3c762923	0.015024456
236	0xbcf7588e	-0.030193593
237	0x3d6412e9	0.055682097
238	0xbd35fc46	-0.04443004
239	0x3d3981e9	0.045289908
240	0x3d8935a7	0.066996865
241	0x3d74c212	0.059755392
242	0xbd565d42	-0.05233503
243	0x3c8beef5	0.017081717
244	0xbdadd1f0	-0.08487308
245	0xbd59422c	-0.053041622
246	0x3c3f8f35	0.011691858
247	0x3d067fb4	0.03283663
248	0x3d88e8f9	0.06685061
249	0xbd3aca47	-0.045603063
250	0xbc17b9b1	-0.009260581
251	0x3d657b62	0.05602587
252	0xbcb3af97	-0.021934314
253	0xbd5380de	-0.05163657
254	0xbc9499f5	-0.018139819
255	0x3d4d4896	0.05011805

combine.bias f4 [64]
0	0xbcc11512	-0.023569617
1	0x3d5971b9	0.05308697
2	0xbd3990e4	-0.045304194
3	0xbd49012a	-0.049073376
4	0xbd2ea814	-0.04264076
5	0x3da83694	0.08213535
6	0xbcee7e9c	-0.029113106
7	0xbcff67cd	-0.031177426
8	0x3c0ae2b3	0.008476901
9	0x3d199551	0.037495915
10	0x3c8f7821	0.017513337
11	0xbd67ede5	-0.05662336
12	0x3d8bb2d9	0.06821222
13	0xbc8ea233	-0.017411327
14	0xbc8e0c8a	-0.017339963
15	0x3d99b8d0	0.07505953
16	0x3c9ec089	0.019378917
17	0x3d85e0ff	0.06537055
18	0xbd960463	-0.073250555
19	0x3d8cd8ab	0.06877264
20	0x3da6fc45	0.08153585
21	0x3d97ed48	0.07418305
22	0x3ba0918d	0.0049001635
23	0x3d3aa99e	0.045571916
24	0x3cf7651f	0.030199585
25	0xbd351447	-0.04420879
26	0x3b9635fd	0.0045840726
27	0xbd67c958	-0.0565885
28	0x3cec37ab	0.028835138
29	0xbc5ef3d0	-0.013607934
30	0xbd9552d7	-0.07291191
31	0xbce1cbf9	-0.027563082
32	0xbdcbf38f	-0.099585645
33	0xbdb69927	-0.0891593
34	0x3da160f8	0.078798234
35	0x3cecd225	0.028908798
36	0x3bbb3d93	0.0057141273
37	0x3d7d1e9c	0.06179677
38	0x3b86e99f	0.0041172053
39	0xbd961085	-0.073273696
40	0x3d9ed022	0.07754542
41	0xbd8e7d6f	-0.06957518
42	0xbd063220	-0.032762647
43	0x3bea153d	0.007143645
44	0xbcb12aa5	-0.02162678
45	0xbdaca96a	-0.08430751
46	0x3d8a01fa	0.06738658
47	0xbd51dfca	-0.051238813
48	0xbdcce213	-0.10004058
49	0x3ce4f083	0.027946716
50	0xbda33098	-0.07968253
51	0xbd77f104	-0.060532585
52	0x3d2f31c8	0.042772084
53	0x3c1fb651	0.009748057
54	0xbb8696a6	-0.004107314
55	0xbdcba1b3	-0.09942951
56	0x3ce98fcd	0.028510952
57	0x3d5db259	0.054125164
58	0x3d91be7b	0.071164094
59	0x3d6d9b3f	0.058009382
60	0x3d8f7a4e	0.0700575
61	0xbd44e950	-0.048074067
62	0xbcabeb1c	-0.020986132
63	0x3d8c2b0b	0.06844147

pos_encoder.pe f4 [1, 20, 64]
0	0x00000000	0.0
1	0x3f800000	1.0
2	0x00000000	0.0
3	0x3f800000	1.0
4	0x00000000	0.0
5	0x3f800000	1.0
6	0x00000000	0.0
7	0x3f800000	1.0
8	0x00000000	0.0
9	0x3f800000	1.0
10	0x00000000	0.0
11	0x3f800000	1.0
12	0x00000000	0.0
13	0x3f800000	1.0
14	0x00000000	0.0
15	0x3f800000	1.0
16	0x00000000	0.0
17	0x3f800000	1.0
18	0x00000000	0.0
19	0x3f800000	1.0
20	0x00000000	0.0
21	0x3f800000	1.0
22	0x00000000	0.0
23	0x3f800000	1.0
24	0x00000000	0.0
25	0x3f800000	1.0
26	0x00000000	0.0
27	0x3f800000	1.0
28	0x00000000	0.0
29	0x3f800000	1.0
30	0x00000000	0.0
31	0x3f800000	1.0
32	0x00000000	0.0
33	0x3f800000	1.0
34	0x00000000	0.0
35	0x3f800000	1.0
36	0x00000000	0.0
37	0x3f800000	1.0
38	0x00000000	0.0
39	0x3f800000	1.0
40	0x00000000	0.0
41	0x3f800000	1.0
42	0x00000000	0.0
43	0x3f800000	1.0
44	0x00000000	0.0
45	0x3f800000	1.0
46	0x00000000	0.0
47	0x3f800000	1.0
48	0x00000000	0.0
49	0x3f800000	1.0
50	0x00000000	0.0
51	0x3f800000	1.0
52	0x00000000	0.0
53	0x3f800000	1.0
54	0x00000000	0.0
55	0x3f800000	1.0
56	0x00000000	0.0
57	0x3f800000	1.0
58	0x00000000	0.0
59	0x3f800000	1.0
60	0x00000000	0.0
61	0x3f800000	1.0
62	0x00000000	0.0
63	0x3f800000	1.0
64	0x3f576aa4	0.84147096
65	0x3f0a5141	0.54030234
66	0x3f2e7ace	0.68156135
67	0x3f3b54b0	0.731761
68	0x3f087dba	0.53316844
69	0x3f58940d	0.8460091
70	0x3ed190f0	0.4093089
71	0x3f6992c7	0.9123959
72	0x3e9f393e	0.3109836
73	0x3f734e6b	0.9504153
74	0x3e708f25	0.23492105
75	0x3f78d5f1	0.9720145
76	0x3e35233a	0.17689219
77	0x3f7bf683	0.9842302
78	0x3e0825f3	0.13295726
79	0x3f7dba28	0.99112177
80	0x3dcc7576	0.099833414
81	0x3f7eb898	0.9950042
82	0x3d996f36	0.07491915
83	0x3f7f47d1	0.9971896
84	0x3d6636ae	0.05620449
85	0x3f7f9868	0.9984193
86	0x3d2cacfb	0.042157155
87	0x3f7fc5bd	0.999111
88	0x3d01815b	0.031617504
89	0x3f7fdf3c	0.99950004
90	0x3cc23ea5	0.023711512
91	0x3f7fed93	0.99971884
92	0x3c91ab42	0.017781857
93	0x3f7ff5a3	0.99984187
94	0x3c5a7a49	0.013334819
95	0x3f7ffa2c	0.99991107
96	0x3c23d657	0.009999833
97	0x3f7ffcb9	0.99995
98	0x3bf5b916	0.0074988706
99	0x3f7ffe28	0.99997187
100	0x3bb8445a	0.0056233825
101	0x3f7ffef7	0.9999842
102	0x3b8a2e5a	0.0042169513
103	0x3f7fff6b	0.9999911
104	0x3b4f3e1c	0.0031622713
105	0x3f7fffac	0.999995
106	0x3b1b6903	0.0023713715
107	0x3f7fffd1	0.9999972
108	0x3ae91520	0.0017782785
109	0x3f7fffe6	0.99999845
110	0x3aaec98a	0.001333521
111	0x3f7ffff1	0.9999991
112	0x3a83126d	0.0009999998
113	0x3f7ffff8	0.9999995
114	0x3a449489	0.000749894
115	0x3f7ffffb	0.9999997
116	0x3a136a13	0.0005623411
117	0x3f7ffffd	0.9999998
118	0x39dd1721	0.00042169637
119	0x3f7fffff	0.99999994
120	0x39a5cb61	0.00031622782
121	0x3f7fffff	0.99999994
122	0x3978a80d	0.00023713727
123	0x3f800000	1.0
124	0x393a7753	0.00017782794
125	0x3f800000	1.0
126	0x390bd46d	0.00013335208
127	0x3f800000	1.0
128	0x3f68c7b7	0.9092974
129	0xbed51133	-0.41614684
130	0x3f7f5ad9	0.99748
131	0x3d914d53	0.070948265
132	0x3f66f20a	0.9021307
133	0x3edce8b2	0.43146282
134	0x3f3f3511	0.7469035
135	0x3f2a3903	0.6649324
136	0x3f17541b	0.5911271
137	0x3f4e7bec	0.8065784
138	0x3ee9d3b5	0.45669332
139	0x3f63be69	0.8896242
140	0x3eb247f6	0.34820527
141	0x3f6ffaa6	0.93741834
142	0x3e86f082	0.26355368
143	0x3f76f2f5	0.96464473
144	0x3e4b6ff8	0.19866931
145	0x3f7ae5a5	0.9800666
146	0x3e1900d3	0.1494172
147	0x3f7d204f	0.98877424
148	0x3de5d986	0.1122313
149	0x3f7e61f3	0.9936821
150	0x3dac85af	0.084239356
151	0x3f7f170e	0.99644554
152	0x3d8170c8	0.063203394
153	0x3f7f7cf9	0.9980007
154	0x3d4230aa	0.04740969
155	0x3f7fb64e	0.9988755
156	0x3d11a55c	0.03555809
157	0x3f7fd68e	0.9993676
158	0x3cda7550	0.026667267
159	0x3f7fe8b1	0.99964434
160	0x3ca3d43e	0.019998666
161	0x3f7ff2e5	0.9998
162	0x3c75b751	0.014997319
163	0x3f7ff8a1	0.9998875
164	0x3c38439b	0.011246587
165	0x3f7ffbdb	0.99993676
166	0x3c0a2e0a	0.008433828
167	0x3f7ffdab	0.9999644
168	0x3bcf3dd8	0.006324511
169	0x3f7ffeb1	0.99998003
170	0x3b9b68e7	0.00474273
171	0x3f7fff43	0.99998873
172	0x3b691508	0.0035565514
173	0x3f7fff96	0.9999937
174	0x3b2ec97f	0.0026670394
175	0x3f7fffc4	0.9999964
176	0x3b031268	0.0019999985
177	0x3f7fffdf	0.99999803
178	0x3ac49485	0.0014997876
179	0x3f7fffed	0.99999887
180	0x3a936a12	0.0011246821
181	0x3f7ffff5	0.99999934
182	0x3a5d171f	0.0008433926
183	0x3f7ffffa	0.99999964
184	0x3a25cb60	0.0006324556
185	0x3f7ffffd	0.9999998
186	0x39f8a80c	0.0004742745
187	0x3f7ffffe	0.9999999
188	0x39ba7753	0.00035565588
189	0x3f7fffff	0.99999994
190	0x398bd46d	0.00026670416
191	0x3f800000	1.0
192	0x3e1081c3	0.14112
193	0xbf7d7026	-0.9899925
194	0x3f473cde	0.7782725
195	0xbf20bfce	-0.6279267
196	0x3f7e45d7	0.9932532
197	0xbded7fab	-0.11596616
198	0x3f742163	0.95363444
199	0x3e9a1863	0.3009673
200	0x3f5009c2	0.8126489
201	0x3f152f58	0.58275366
202	0x3f2724b7	0.652904
203	0x3f41e7a2	0.7574407
204	0x3f022f6c	0.5085361
205	0x3f5c6d29	0.86104065
206	0x3ec768a7	0.3894703
207	0x3f6bc937	0.92103904
208	0x3e974e6c	0.2955202
209	0x3f7490ef	0.9553365
210	0x3e646de2	0.22307542
211	0x3f798c92	0.9748012
212	0x3e2beed7	0.16790329
213	0x3f7c5d9e	0.9858035
214	0x3e01332c	0.12617177
215	0x3f7df443	0.9920084
216	0x3dc1ffc0	0.094726086
217	0x3f7ed94f	0.99550337
218	0x3d919306	0.071081206
219	0x3f7f5a3a	0.9974705
220	0x3d5a694e	0.053323083
221	0x3f7fa2c3	0.9985773
222	0x3d23d1c5	0.039994974
223	0x3f7fcb90	0.99919987
224	0x3cf5b91f	0.0299955
225	0x3f7fe283	0.99955004
226	0x3cb84747	0.022494925
227	0x3f7fef6b	0.999747
228	0x3c8a31c6	0.016869437
229	0x3f7ff6ad	0.9998577
230	0x3c4f4446	0.012650555
231	0x3f7ffac1	0.99991995
232	0x3c1b6e0d	0.009486687
233	0x3f7ffd0d	0.999955
234	0x3be91d13	0.0071140616
235	0x3f7ffe58	0.9999747
236	0x3baecfa8	0.005334813
237	0x3f7fff11	0.99998575
238	0x3b831713	0.0040005534
239	0x3f7fff7a	0.999992
240	0x3b449b92	0.0029999954
241	0x3f7fffb5	0.9999955
242	0x3b136f60	0.0022496805
243	0x3f7fffd6	0.9999975
244	0x3add1f17	0.0016870227
245	0x3f7fffe8	0.99999857
246	0x3aa5d156	0.0012650888
247	0x3f7ffff3	0.9999992
248	0x3a78b110	0.00094868336
249	0x3f7ffff9	0.9999996
250	0x3a3a7e09	0.00071141176
251	0x3f7ffffc	0.99999976
252	0x3a0bd97e	0.0005334838
253	0x3f7ffffe	0.9999999
254	0x39d1bea4	0.00040005625
255	0x3f7fffff	0.99999994

transformer.layers.0.self_attn.in_proj_weight f4 [192, 64]
0	0x3db0184d	0.08598385
1	0xbdf817d3	-0.12113919
2	0x3d04d044	0.03242518
3	0x3d65963e	0.056051485
4	0xbd8d1bd0	-0.068900704
5	0x3dd5cd6c	0.10439572
6	0xbd19837e	-0.037478916
7	0x3e1699d7	0.14707123
8	0x3e84ae83	0.25914392
9	0xbcdf19ed	-0.027234042
10	0x3e12bc03	0.14329533
11	0x3df70c8b	0.12062939
12	0x3e237720	0.15963411
13	0xbe478218	-0.1948322
14	0x3d8eec59	0.069786735
15	0x3d8f8d7f	0.0700941
16	0x3dc5b62e	0.09653889
17	0xbd85701e	-0.06515525
18	0x3e19706b	0.1498429
19	0x3e6c2b05	0.23063286
20	0x3c51b762	0.0128000695
21	0x3e541594	0.20711356
22	0x3e485121	0.19562198
23	0xbd88c69a	-0.06678505
24	0xbcdc99f6	-0.026928883
25	0x3dcd2479	0.10016722
26	0x3e9163f6	0.28396577
27	0x3e653bdc	0.22386116
28	0x3df4fd41	0.11962367
29	0x3c824ded	0.015906299
30	0x3e0f2ac1	0.13981153
31	0xbd6cf668	-0.05785218
32	0x3e7ce258	0.24695718
33	0xbd44fbc2	-0.048091657
34	0x3dd12e25	0.102138795
35	0x3d359782	0.044333942
36	0x3e67da71	0.22641923
37	0x3af57b5c	0.001872878
38	0xbc638a07	-0.013887889
39	0xbcc22181	-0.023697617
40	0xbe45f452	-0.19331482
41	0x3e1ec29a	0.15503922
42	0x3c8940f6	0.016754609
43	0x3e91d5d0	0.28483438
44	0xbb571ed6	-0.0032824776
45	0x3de4beca	0.111692026
46	0x3de5ccbf	0.11220693
47	0xbc29cddc	-0.010364022
48	0x3c1f3b19	0.00971868
49	0x3e50ecaa	0.2040278
50	0x3df69776	0.12040608
51	0x3e10daa7	0.14145909
52	0x3e9f409a	0.31103975
53	0x3db4dbfd	0.08831022
54	0x3e004787	0.12527286
55	0xbcfa91b1	-0.03058705
56	0x3e01759b	0.12642519
57	0x3e0e7953	0.13913469
58	0x3e81b236	0.25331277
59	0x3dc3c2d2	0.095586434
60	0x3de2724a	0.11056955
61	0x3de481d4	0.11157575
62	0x3e435c74	0.19078237
63	0x3e87b115	0.2650229
64	0x3dfa3091	0.122162946
65	0x3c2b5ddd	0.0104593905
66	0x3db0b4db	0.086282454
67	0xbe12e13e	-0.14343736
68	0x3d28156b	0.04103605
69	0x3e2800d7	0.1640657
70	0x3d0450d6	0.032303654
71	0x3c78aaf4	0.015177477
72	0x3dfe6025	0.12420682
73	0xbd1ae5f6	-0.037816964
74	0x3c9fb296	0.019494336
75	0x3e1f896a	0.15579763
76	0xbdbbbbfb	-0.09166714
77	0xbcb17670	-0.02166292
78	0x3d78c525	0.060734887
79	0x3deaf4f3	0.114725016
80	0xbd8681cd	-0.06567726
81	0x3d906f5c	0.0705249
82	0x3d930516	0.071787044
83	0x3e16a235	0.14710315
84	0x3db8c798	0.090224445
85	0xbd6e95db	-0.058248382
86	0x3d82b497	0.06382101
87	0x3dadf8cd	0.084947206
88	0xbced9dd8	-0.02900593
89	0x3d97f052	0.07418884
90	0xbd04b2bc	-0.032397017
91	0xbd6f8a25	-0.058481354
92	0x3d36f5a5	0.04466786
93	0x3d191db6	0.03738185
94	0x3df4d9b9	0.1195559
95	0xbd082917	-0.03324231
96	0xbdade427	-0.08490782
97	0x3d86cad0	0.06581652
98	0x3bdf18a8	0.006808359
99	0x3d9eea13	0.0775949
100	0x3e2bd220	0.16779375
101	0x3dfe0e66	0.1240509
102	0xbdd50999	-0.10402221
103	0x3e165711	0.1468165
104	0xbd381ad3	-0.044947457
105	0x3dd6cf9f	0.10488819
106	0x3df09306	0.117467925
107	0x3da84441	0.082161434
108	0x3e332723	0.17495398
109	0x3df81d1f	0.121149294
110	0xbd515efe	-0.051115982
111	0x3e3ced8d	0.18449993
112	0xbdc43d03	-0.095819496
113	0xbc885905	-0.01664401
114	0xbe1538ad	-0.14572401
115	0x3da8bf88	0.08239657
116	0x3d16e8d9	0.036843155
117	0xbd5fd821	-0.054649476
118	0x3ccf7c05	0.025327692
119	0xbd299478	-0.041401356
120	0x3e0e93ed	0.13923617
121	0xbbafe9b2	-0.005368435
122	0xbd1278d3	-0.03575976
123	0x3e5a0fb5	0.21295054
124	0x3d14b1cd	0.036302377
125	0x3e2b9660	0.16756582
126	0xbd805a57	-0.06267231
127	0x3db3882f	0.08766209
128	0xbd8263cb	-0.0636669
129	0xbd1e2ffa	-0.038619973
130	0xbdf8db57	-0.12151211
131	0x3da636af	0.08115899
132	0x3aec5a3d	0.0018032264
133	0xbe310f65	-0.17291029
134	0xbe60f117	-0.21966968
135	0xbe2a0c81	-0.16606332
136	0x3d32d05a	0.04365573
137	0x3c038e20	0.008029491
138	0xbd781853	-0.060570072
139	0x3dbd6884	0.092484504
140	0x3cd4ef43	0.025992995
141	0x3e1ad080	0.15118599
142	0xb71f6390	-9.50032e-06
143	0xbdac085e	-0.084000334
144	0x3d97fe62	0.074215665
145	0xbd8a6060	-0.06756663
146	0x3cb078c9	0.02154197
147	0xbc0273cd	-0.007962179
148	0x3d88522c	0.06656298
149	0xbda3960f	-0.07987606
150	0x3cd8ed0b	0.026480218
151	0x3cef2f06	0.029197227
152	0x3e346246	0.17615613
153	0xbdbaced6	-0.09121482
154	0xbe41c409	-0.18922438
155	0x3da5ce32	0.08095969
156	0x3d27bd3c	0.040951952
157	0xbd528c27	-0.05140319
158	0x3d49e0e5	0.04928674
159	0xbdaa1fc5	-0.08306841
160	0xbd5c8511	-0.05383784
161	0xbe1bd881	-0.15219308
162	0xbdeb7719	-0.114973255
163	0xbe0195fd	-0.12654872
164	0xbd9f9851	-0.07792724
165	0xbe17ab3f	-0.14811419
166	0xbbe6df07	-0.00704563
167	0x3db0b8d3	0.086290024
168	0x3e19149f	0.14949273
169	0xbdf02246	-0.11725287
170	0x3dddee98	0.10836524
171	0xbd7becca	-0.061505117
172	0xbe1de9ab	-0.15421169
173	0xbd8a8c2f	-0.06765019
174	0xbdd6ac63	-0.10482099
175	0xbcb823e9	-0.02247806
176	0xb9581988	-0.00020608876
177	0xbe35eaa7	-0.17765294
178	0xbdb68aa7	-0.089131646
179	0x3d62aa16	0.055337988
180	0xbda86981	-0.08223248
181	0x3d4c6f48	0.049910814
182	0xbe19da9c	-0.15024799
183	0xbca9f6c5	-0.020747552
184	0xbd6f15a2	-0.05837024
185	0xbe10f0d0	-0.14154363
186	0x3db42c4e	0.08797513
187	0xbdaa229d	-0.08307383
188	0xbe283d58	-0.16429651
189	0xbd27bd23	-0.04095186
190	0xbd122fd6	-0.03569015
191	0xbdd8b4fb	-0.10581394
192	0xbdf104fc	-0.11768529
193	0x3d032bcf	0.0320242
194	0x3ce3594b	0.02775254
195	0x3e0bb188	0.13641942
196	0xbc5a3cde	-0.013320176
197	0x3c141575	0.009038319
198	0xbd51cae2	-0.051218875
199	0xbe07381c	-0.13204998
200	0x3d2b6a14	0.04184921
201	0xbdef9271	-0.11697853
202	0xbe27460e	-0.16335317
203	0xbdd7a481	-0.105294235
204	0xbda45775	-0.080244936
205	0x3de84623	0.113415025
206	0xbd87114d	-0.06595097
207	0x3d30e569	0.043187533
208	0xbdf69358	-0.12039822
209	0x3d34302d	0.043991257
210	0xbcdc1cef	-0.026869265
211	0xbe2e2ab3	-0.17008476
212	0xbc960d41	-0.018316867
213	0x3c5e22e9	0.013558128
214	0xbe191b23	-0.14951758
215	0x3dc3c4ec	0.09559044
216	0xbdc8f93b	-0.09813162
217	0xbd53192a	-0.05153767
218	0xbdb766e4	-0.08955172
219	0xbe25a8b0	-0.1617763
220	0xbd79571b	-0.060874086
221	0x3d9a7f90	0.07543862
222	0x3d4eb60a	0.050466575
223	0xbe317b20	-0.17332125
224	0xb86e8311	-5.6865687e-05
225	0xbe092464	-0.13392788
226	0xbe54df08	-0.20788205
227	0xbd05b531	-0.0326435
228	0xbdd7d672	-0.10538949
229	0xbe4cac89	-0.19987692
230	0xbe0e505a	-0.13897839
231	0xbc9ce041	-0.019149901
232	0x3dca3eeb	0.09875282
233	0xbde1cd56	-0.11025493
234	0xbc2e6b88	-0.010645755
235	0x3d1d1647	0.038351323
236	0xbc77e7d4	-0.015130956
237	0xbd8cac4e	-0.06868802
238	0xbc91ff96	-0.017822068
239	0xbd6c968a	-0.057760753
240	0x3c80508d	0.01566341
241	0x3ce21254	0.02759663
242	0x3e3e925b	0.18610518
243	0xbcea9e49	-0.02863993
244	0x3d2ca365	0.042148013
245	0xbdea9151	-0.11453498
246	0x3da13300	0.078710556
247	0xbdcc4a1d	-0.099750735
248	0xbc918d69	-0.017767625
249	0xbe1407a7	-0.14456044
250	0x3e19e8e4	0.15030247
251	0xbdc793e0	-0.09745002
252	0x3de7166f	0.11283576
253	0x3d9bebb2	0.07613315
254	0x3d876df3	0.06612768
255	0xbdcbe379	-0.09955496

transformer.layers.0.self_attn.in_proj_bias f4 [192]
0	0x3e2afa3d	0.16697021
1	0x3d5ea1f4	0.05435367
2	0xbd7b816d	-0.061402727
3	0xbd31dfba	-0.043426253
4	0xbd350e64	-0.044203177
5	0xbce082dd	-0.02740615
6	0x3d22edeb	0.039777678
7	0xbd6bb84a	-0.0575488
8	0xbd1603f6	-0.03662487
9	0x3cdfa57c	0.027300589
10	0x3e11bef1	0.14232995
11	0xbd1c72da	-0.03819547
12	0x3d976523	0.07392337
13	0xbdd95049	-0.10611016
14	0x3dce081f	0.10060143
15	0x3e240cb9	0.16020478
16	0x3c8588cc	0.016300581
17	0x3dc9b6e3	0.09849336
18	0xbd7fec9b	-0.062481504
19	0x3d137611	0.03600127
20	0x3d51aefb	0.051192265
21	0xbc918f21	-0.017768444
22	0x3df16340	0.117865086
23	0x3ce4c370	0.027925223
24	0x3df4e7cf	0.119582765
25	0xbce5fb31	-0.028073879
26	0x3da1beb5	0.078977026
27	0xbdd89c69	-0.10576708
28	0x3d304c7b	0.043041687
29	0x3cc1a564	0.023638435
30	0xbce830a9	-0.028343515
31	0x3c9ea4bb	0.019365659
32	0x3d81d8ba	0.063401654
33	0x3dcfa005	0.10137943
34	0x3d46e0c2	0.04855419
35	0xbd975c49	-0.07390649
36	0xbdb86c06	-0.09004979
37	0xbd8afe67	-0.06786805
38	0xbd946038	-0.07244915
39	0xbd8f6ef1	-0.07003582
40	0x3e1d3425	0.15351923
41	0x3a83093b	0.0009997258
42	0xbd8f0ec6	-0.0698524
43	0x3da9404d	0.082642175
44	0xbdaaf3b1	-0.08347262
45	0xbd9c8de4	-0.07644251
46	0xbd2d25e0	-0.04227245
47	0xbca9b747	-0.020717276
48	0x3d4a031d	0.049319375
49	0xbdd5f575	-0.10447208
50	0x3d84efc3	0.064910434
51	0xbbaf1714	-0.0053433273
52	0xbdca5abb	-0.09880587
53	0x3db6646a	0.08905871
54	0x3d86998e	0.06572257
55	0xbde2925c	-0.11063072
56	0x3daf9c96	0.08574788
57	0xbdce3a09	-0.10069663
58	0x3d9f1669	0.07767946
59	0x3dc9af42	0.09847881
60	0xbdf0ea8c	-0.11763486
61	0xbd3a9e84	-0.04556133
62	0xbd54ba75	-0.05193563
63	0x3d9e76b5	0.07737485
64	0x3a7c505b	0.0009625011
65	0x39177dd3	0.00014447355
66	0xb9153b68	-0.00014231878
67	0xb9ff50de	-0.0004869764
68	0x39af0cec	0.0003338823
69	0x391d7ad4	0.00015018444
70	0x389783d8	7.224799e-05
71	0x38024afe	3.1064257e-05
72	0xba1e34ee	-0.0006035109
73	0x385fc5e7	5.3351654e-05
74	0x3a23d0ce	0.0006249071
75	0x39bcd4fe	0.00036016846
76	0x3adfc980	0.0017073601
77	0x3aad3f7f	0.0013217776
78	0x3a4b3979	0.00077523995
79	0x3a1db97d	0.00060167146
80	0xb998b95b	-0.000291298
81	0x3ac53015	0.0015044237
82	0xbab5012e	-0.0013809556
83	0x3a7a52a8	0.000954906
84	0x3a9518da	0.0011375204
85	0xb9e3d95d	-0.00043458762
86	0x3b1ceb15	0.002394383
87	0x39fc0845	0.00048071347
88	0x3b0e819e	0.0021744738
89	0xba57f3d4	-0.00082379323
90	0x3ac0997d	0.001469418
91	0xbac869d4	-0.0015290328
92	0x39828916	0.0002489767
93	0x3a76e3a4	0.00094180764
94	0xb991032b	-0.00027658915
95	0xb917cddc	-0.00014477171
96	0xb9e29b69	-0.0004322187
97	0x39c1b099	0.00036943404
98	0x3910ced5	0.00013809961
99	0xba2edebc	-0.0006670763
100	0xba0312b5	-0.0005000041
101	0x387180af	5.7578723e-05
102	0xb7a54021	-1.9699395e-05
103	0x3a2e64bf	0.00066525856
104	0x3a389fef	0.0007042875
105	0xb8731cd7	-5.7962574e-05
106	0x3852e49e	5.0280818e-05
107	0x39408177	0.00018358776
108	0x39a198de	0.00030822208
109	0xb7f0f43b	-2.8723958e-05
110	0xb8de1fb0	-0.00010591687
111	0x39476acc	0.00019017904
112	0xb9887832	-0.00026029494
113	0x39501e21	0.0001984765
114	0x39d1deb4	0.00040029513
115	0x37ba0a2c	2.2177665e-05
116	0x39aeb612	0.0003332352
117	0xb920e7c0	-0.00015345123
118	0x39a917c2	0.00032251893
119	0xba021fc2	-0.0004963839
120	0x3827bddb	3.999272e-05
121	0x391889de	0.00014547209
122	0x388239f7	6.20968e-05
123	0x39f169b0	0.00046045845
124	0x3a24b764	0.0006283431
125	0x393fa726	0.00018277447
126	0xb7855ee9	-1.5899031e-05
127	0xb8e67635	-0.000109892724
128	0x3c0b5626	0.008504426
129	0x3b819adc	0.0039552283
130	0xbcfb1930	-0.030651659
131	0x3bba058d	0.0056769312
132	0xbb72bf6d	-0.0037040368
133	0xbc7b78c2	-0.015348615
134	0xbc710db3	-0.014712739
135	0xba375373	-0.0006993331
136	0xbb8b4b93	-0.0042509525
137	0x3c586695	0.013208051
138	0xbc1b3d06	-0.009474998
139	0x3b59272d	0.0033134923
140	0x3c9cd1b3	0.019142961
141	0x3b28ddb5	0.0025766913
142	0xbb0eea9f	-0.0021807326
143	0x3b9ce2dd	0.0047877864
144	0xbbe36c45	-0.006940397
145	0xbb09ac9c	-0.0021007424
146	0x394551e4	0.0001881789
147	0x3c477eff	0.012176274
148	0xbc9060ac	-0.017624222
149	0xbcfae4a7	-0.030626608
150	0x3c1aef9a	0.0094565395
151	0xbb985fdc	-0.004650099
152	0xbca99b10	-0.020703822
153	0x3c6e26e7	0.014535642
154	0x3ad7c7f6	0.0016462791
155	0xbc7f887b	-0.015596504
156	0xbb8d8cd5	-0.004319767
157	0x3b85fc06	0.0040888814
158	0xbc1dbe8e	-0.009627951
159	0xba214dcd	-0.0006153256
160	0xbc8e6872	-0.017383788
161	0xba81eaf7	-0.0009911944
162	0xbc895a7c	-0.01676678
163	0xbca2bc1d	-0.01986509
164	0x3c3b376a	0.011426786
165	0xbb94b8a6	-0.0045386134
166	0x3ce956f8	0.028483853
167	0x3ceab135	0.028648952
168	0x3b60cfd6	0.0034303567
169	0x3b6af7a3	0.003585317
170	0xbb3f1459	-0.0029156415
171	0x3c3366d7	0.010949812
172	0xbc02e49d	-0.007989076
173	0xbb035441	-0.0020039233
174	0x3caf0841	0.02136624
175	0xbc1963fc	-0.009362217
176	0x3c368c96	0.011141917
177	0xbc9821f1	-0.018570872
178	0x3ba90cc7	0.005158994
179	0x3c54152c	0.012944501
180	0xbbef06ec	-0.0072945263
181	0x3c40806c	0.011749368
182	0xbb1a11f2	-0.0023509231
183	0xbc13f12f	-0.009029671
184	0x3b8af364	0.00424044
185	0xba23ba85	-0.000624575
186	0xbba8c881	-0.005150855
187	0x3b7420fc	0.0037251106
188	0x3c377f54	0.011199791
189	0x3b5629a4	0.0032678628
190	0xbba07b93	-0.0048975437
191	0xbbf9bc8b	-0.007621353

transformer.layers.0.self_attn.out_proj.weight f4 [64, 64]
0	0x3daa25a8	0.083079636
1	0x3c835b22	0.016034666
2	0x3ca3c13c	0.019989602
3	0x3d99e7df	0.07514929
4	0xbd9a442b	-0.07532533
5	0x3dc22a2d	0.09480701
6	0x3cb187a1	0.021671118
7	0x3ddd5cc1	0.10808707
8	0x3da06f3e	0.07833718
9	0x3db6b3be	0.08921002
10	0x3d8b2118	0.067934215
11	0xbdc5229c	-0.09625742
12	0xbda84b4f	-0.08217489
13	0x3c9f2e15	0.019431153
14	0x3ca7258c	0.020403646
15	0x3e00c448	0.12574875
16	0xbcfefdf3	-0.031126952
17	0x3dbaf354	0.091284424
18	0xbce0459f	-0.027376948
19	0xbd30430b	-0.043032687
20	0xbe16f67c	-0.14742464
21	0x3d89d266	0.067295834
22	0x3e076719	0.13222922
23	0x3ca5dcac	0.020246826
24	0x3dce8853	0.100845955
25	0x3c9ae66b	0.0189087
26	0x3da59728	0.080854714
27	0x3e045fbb	0.12927143
28	0xbbf398a7	-0.007433969
29	0x3d752bce	0.05985623
30	0x3d50da1c	0.050989255
31	0x3cf9b896	0.030483525
32	0xbda8f189	-0.08249194
33	0xbb961a5c	-0.004580779
34	0x3d6fc9f9	0.058542226
35	0x3d15014b	0.036378186
36	0x3d7ed1cd	0.0622118
37	0x3d998ec8	0.074979365
38	0xbd993eb9	-0.074826665
39	0xbdf3fff8	-0.119140565
40	0x3dc4c3d1	0.096076615
41	0x3d69e902	0.05710698
42	0x3cbb0744	0.022830613
43	0xbda40aba	-0.080098584
44	0xbd4abba4	-0.049495354
45	0xbd06cf6e	-0.032912664
46	0x397180ea	0.00023031575
47	0xbad87a71	-0.0016515983
48	0x3dbc78cc	0.09202728
49	0xbda9c649	-0.08289773
50	0xbd5dc2ca	-0.054140843
51	0x3da3f471	0.08005608
52	0x3d87555d	0.06608079
53	0x3db8c872	0.09022607
54	0x3d9eb8d3	0.07750096
55	0x3d5371f2	0.05162234
56	0xbd6a402c	-0.057190105
57	0x3cd37ff1	0.025817843
58	0xbb2e16e8	-0.0026563946
59	0xbde7fdfd	-0.11327741
60	0x3cd07c15	0.025449792
61	0x3da8885a	0.08229132
62	0x3cd3c3e9	0.025850253
63	0xbd7088e3	-0.058724295
64	0xbd02fd63	-0.03197993
65	0xbdbe7c06	-0.09300999
66	0xbc8dcede	-0.017310556
67	0x3c1e4bb1	0.009661601
68	0xbcab4c53	-0.020910418
69	0x3dbdf8a4	0.0927594
70	0xbd34ec06	-0.044170402
71	0xbdcf170a	-0.10111816
72	0xbbcf227c	-0.0063212495
73	0x3d6ec810	0.058296263
74	0x3da8a41a	0.08234425
75	0xbdcfa598	-0.101390064
76	0xbd913139	-0.070894666
77	0x3d9a084a	0.07521112
78	0xbdbb4b05	-0.09145168
79	0xbd1025f4	-0.035192445
80	0xbd0db00a	-0.034591712
81	0x3db3cb51	0.08779014
82	0xbcb9c5c1	-0.022677304
83	0xbc186bac	-0.009303015
84	0x3d89c07b	0.06726166
85	0x3d0faaea	0.035075106
86	0x3cddee00	0.027091026
87	0x3d43f128	0.047837406
88	0xbceda696	-0.029010098
89	0xbb4c5db9	-0.0031183793
90	0x3c11ada1	0.008891494
91	0x3d126b48	0.035746843
92	0x3dcde74b	0.10053881
93	0xbdd87d69	-0.10570795
94	0x3d5f2a07	0.05448344
95	0x3de6004e	0.11230527
96	0xbdb4b59c	-0.08823702
97	0x3b21cbb7	0.0024688074
98	0xbcafdf03	-0.021468645
99	0xbc9c889b	-0.019108107
100	0xbda5b01b	-0.0809023
101	0x3d2153ff	0.039386746
102	0x3d703ea5	0.058653492
103	0x3db1ba90	0.08678162
104	0x3cfaafa9	0.03060134
105	0x3e38443e	0.17994782
106	0x3d43167e	0.047628872
107	0xbcb60b59	-0.022222208
108	0xbd9698e0	-0.07353377
109	0xbdad5f18	-0.08465403
110	0xbda259d6	-0.07927291
111	0x3deb98f6	0.11503784
112	0xbd872732	-0.06599273
113	0xbdccefb6	-0.10006659
114	0xbd6a58e2	-0.05721367
115	0xbdabef1c	-0.08395216
116	0xbd47ddae	-0.048795395
117	0xbdf4d2ff	-0.11954307
118	0x3cebd205	0.028786669
119	0x3db86b01	0.090047844
120	0xbe062551	-0.13100173
121	0x3da5f755	0.081038155
122	0xbd7261bb	-0.059175234
123	0xbdefbe53	-0.11706223
124	0xbd628b31	-0.055308525
125	0x3cd93082	0.026512388
126	0x3d21c4d2	0.039494343
127	0x3e176a1c	0.14786571
128	0x3daa788c	0.08323774
129	0xbdc487b4	-0.09596196
130	0xbdaa8462	-0.08326031
131	0xbdc857e5	-0.097823896
132	0x3d67042a	0.056400456
133	0xbc28ca6e	-0.010302169
134	0xbc489760	-0.012243122
135	0xbccd30ed	-0.025047744
136	0x3db6e074	0.0892953
137	0x3c12dcc6	0.008963769
138	0xbdae68f2	-0.085161105
139	0xbdca9691	-0.098919995
140	0xbd7db5d2	-0.061940975
141	0xbcb8f924	-0.022579737
142	0xbd8d7e66	-0.06908874
143	0x3ce1ca08	0.027562156
144	0xbd2a8bb3	-0.041637134
145	0x3d25d12b	0.04048268
146	0x3df529bd	0.119708516
147	0x3d22c398	0.039737314
148	0x3d314f4f	0.043288525
149	0x3ab45e07	0.0013760932
150	0x3d28c84d	0.041206647
151	0xbc631540	-0.013860047
152	0x3d4d7289	0.050158057
153	0xbd931e3f	-0.07183503
154	0x3e0d4246	0.13794813
155	0xbd3e026d	-0.046389032
156	0xbd0ec7c8	-0.034858495
157	0x3ccef29f	0.025262175
158	0xbcea5b1f	-0.028607903
159	0x3cdbb2b4	0.02681861
160	0xbd49190e	-0.04909616
161	0x3b331606	0.002732636
162	0xbd5c6f7f	-0.05381727
163	0xbd67fffa	-0.056640603
164	0xbd2add3d	-0.041714896
165	0x3d26b169	0.040696535
166	0x3cc7aee1	0.024375381
167	0x3cca2054	0.024673618
168	0xbd8713af	-0.06595551
169	0xb9fbe8a4	-0.00048047781
170	0xbe116440	-0.14198399
171	0x3d081c88	0.033230335
172	0x3d6b9a33	0.057520103
173	0xbdd22209	-0.10260398
174	0xbdbbdc9c	-0.09172937
175	0x3cfe127d	0.031014675
176	0x3ce31333	0.027719116
177	0xbda86f0d	-0.08224306
178	0x3daf045a	0.08545752
179	0x3c69d4b6	0.014271906
180	0xbd945126	-0.0724204
181	0x3b94fc4e	0.0045466786
182	0xbac6d7b7	-0.0015170489
183	0xbda79b3c	-0.081839055
184	0x3e227e89	0.15868582
185	0x3dae5a6f	0.085133426
186	0x3de7cf84	0.11318877
187	0xbd8449bf	-0.064593785
188	0xbdfd2a11	-0.12361539
189	0x3d31455a	0.04327903
190	0xbd6e5a60	-0.058191657
191	0xbdee0f55	-0.11624018
192	0x3d4b8618	0.04968843
193	0x3cc691d1	0.024239453
194	0x3ccaf417	0.024774594
195	0xbcd8e314	-0.026475467
196	0x3d164491	0.036686484
197	0xbd057125	-0.032578606
198	0xbe1be090	-0.15222383
199	0xbc3cb5ec	-0.011517983
200	0x3d836d93	0.06417384
201	0x3dfc1f2a	0.123106316
202	0x3df87c33	0.12133064
203	0xbda36238	-0.07977718
204	0x3c570f1b	0.01312616
205	0xbd864a97	-0.06557196
206	0x3d9e8adb	0.07741328
207	0xbd30f353	-0.043200802
208	0x3e01d213	0.12677793
209	0x3ddff686	0.109356925
210	0xbdf7e26f	-0.12103736
211	0xbd2697f2	-0.04067225
212	0x3caa390a	0.020779151
213	0x3d1f6012	0.03890998
214	0xbde47d4e	-0.111567125
215	0x3d875fba	0.06610055
216	0x3cdb3656	0.026759308
217	0xbe00de7c	-0.12584871
218	0x3d56469a	0.052313425
219	0x3ca076a5	0.019587824
220	0xbc036941	-0.0080207
221	0x3d43c2b7	0.047793116
222	0x3d089b73	0.033351373
223	0x3dec805e	0.115479216
224	0xbbbf5917	-0.0058394778
225	0x3d65d699	0.05611286
226	0x3cc608d5	0.024174133
227	0xbdc818ee	-0.0977038
228	0xbdfed092	-0.124421254
229	0x3d842598	0.06452483
230	0xbd9ee529	-0.077585526
231	0x3d9b2506	0.07575421
232	0x3d8c453d	0.06849144
233	0x3bce3410	0.0062928274
234	0x3d126e0a	0.035749473
235	0xbae5f532	-0.0017544387
236	0x3dbdfee5	0.09277133
237	0xbdaea5b4	-0.08527699
238	0xbdebc8fd	-0.11512945
239	0x3de0081f	0.10939049
240	0xbe15efdb	-0.14642279
241	0xbe1069b6	-0.14102826
242	0xbd2ff575	-0.042958695
243	0x3d9eb508	0.07749373
244	0x3c801110	0.015633136
245	0xbd8f3a1e	-0.06993507
246	0x3d8a8262	0.0676315
247	0xbd8a9db5	-0.067683615
248	0xbdc3b599	-0.095561214
249	0x3d2f5b75	0.04281183
250	0xbce3b0ba	-0.02779423
251	0x3b26f334	0.002547455
252	0xbdbb1785	-0.09135345
253	0xbd82512f	-0.06363141
254	0x3dc2e90a	0.09517105
255	0xbc9dc7c1	-0.01926029

transformer.layers.0.self_attn.out_proj.bias f4 [64]
0	0xbb9a0a78	-0.004700955
1	0xbd25d388	-0.040484935
2	0xbbd06f59	-0.00636093
3	0x3bf29fee	0.007404319
4	0xbbf9366a	-0.0076053636
5	0xbb8d390a	-0.004309778
6	0xbbda1406	-0.006655219
7	0x3c67269c	0.014108326
8	0xbc44ecde	-0.012019364
9	0xbc702650	-0.014657572
10	0x3ccddb69	0.025129037
11	0xbbf2ba96	-0.0074074967
12	0x3c8b55e4	0.01700873
13	0xbc17ddcf	-0.009269192
14	0x3b87b558	0.004141491
15	0x3b96f9f0	0.0046074316
16	0xbbc67cd2	-0.00605736
17	0xbc8dd716	-0.017314475
18	0xbbe69ec9	-0.0070379716
19	0x3cd9e15a	0.026596714
20	0xbb3d39e9	-0.0028873628
21	0x3c8e58cb	0.017376324
22	0x3c87099c	0.016484074
23	0xbcaa6298	-0.020798966
24	0x3cad60aa	0.021164257
25	0x3b043343	0.0020172156
26	0x3c45f882	0.012083175
27	0x3ad42d89	0.0016187887
28	0x3b206017	0.0024471337
29	0xbce44ca8	-0.027868584
30	0x3cd37cb7	0.025816305
31	0xbc3852b3	-0.011250186
32	0xbb551b7c	-0.0032517603
33	0xbb28a8f9	-0.0025735481
34	0xbca06374	-0.019578673
35	0x3bbf05e7	0.005829561
36	0x39d2e2f1	0.00040223406
37	0x3b7cdd8a	0.0038584196
38	0xbbd5b8dc	-0.006522281
39	0xba0f141e	-0.0005458015
40	0x3bbf03fe	0.0058293333
41	0xbc53e77a	-0.012933606
42	0x3ca992c5	0.020699868
43	0xbd059b93	-0.03261907
44	0x3ca8925d	0.020577604
45	0x3b3b9416	0.0028622202
46	0xbccfd6f2	-0.025371049
47	0x3b8ac137	0.004234459
48	0xbbca9518	-0.006182324
49	0xbae96c34	-0.0017808736
50	0x3d2595ae	0.04042595
51	0xba339ca1	-0.00068516476
52	0x3bd70c26	0.0065627275
53	0xbcd59cfa	-0.026075829
54	0xbc4f5a3a	-0.012655789
55	0xbc64648c	-0.013939988
56	0x3b1362aa	0.0022489228
57	0xbc0549fa	-0.008135313
58	0x3b12c861	0.0022397267
59	0xbc5c8a50	-0.013460711
60	0x3b6a71bd	0.003577336
61	0xbbe0046a	-0.0068364637
62	0x3c162ce8	0.00916598
63	0x3c77869c	0.015107777
