deploy_stage/backend/models/tabm_k1_pruned.onnx (onnx, 40050 bytes, 10 tensors)

embedding.embeddings.0.weight f4 [10, 4]
000000 4a 28 f2 be 04 a3 37 bf ae 09 a9 bf 0c c8 13 3f
       -0.47296363 -0.7173312 -1.3206079 0.5772712
000010 78 1f 89 bf 9e d3 1b 3f 34 04 9d be c7 5d cd bf
       -1.0712729 0.6086978 -0.3066727 -1.6044244
000020 f1 9b 14 c0 28 75 7b 3f b2 e1 a9 3f e5 22 b3 bd
       -2.322018 0.9822564 1.3272002 -0.0874689
000030 4f a0 28 3f 1c 76 f2 3e 2f ff 26 3f c8 ee a0 be
       0.6586961 0.47355735 0.6523313 -0.31432176
000040 bb 6f bc bf e7 a2 a6 bf 45 32 a7 3f b8 7a b0 bf
       -1.4721597 -1.3018464 1.3062216 -1.3787451
000050 fb ea 94 3f 38 26 af be 45 dd 6d 3f c4 7a 38 3e
       1.163421 -0.34208846 0.92915756 0.18015581
000060 be 44 20 3d 8d 14 68 bf a8 df bb 3e a3 81 a8 be
       0.039128058 -0.9065636 0.36694074 -0.32911405
000070 f1 97 e1 bf 56 47 34 3f b4 1a 21 3f f6 7f 6d bf
       -1.7624494 0.7042135 0.6293137 -0.9277338
000080 57 71 22 be 34 31 0c c0 eb 7a aa bf 24 49 17 bf
       -0.15863548 -2.1905031 -1.3318762 -0.5909598
000090 a0 8d 07 3f 80 ed fe bd 43 34 0d c0 f5 4c 7f bf
       0.5295048 -0.12447643 -2.2063148 -0.997268

embedding.embeddings.1.weight f4 [3, 4]
000000 22 f4 5f 3e b4 69 8e be 41 74 1e 3f 59 13 4e bf
       0.21870473 -0.2781502 0.6189614 -0.8049827
000010 cd 34 92 be 33 c0 01 3f 37 37 65 3f f5 75 87 3f
       -0.2855591 0.506839 0.89537376 1.0582873
000020 1f b4 d7 bf 38 44 c5 3f 8d 60 f1 3e 21 30 d6 be
       -1.6851844 1.5411444 0.47143975 -0.41833594

embedding.embeddings.2.weight f4 [2, 4]
000000 7b b0 b2 3f c3 65 d3 bf 37 dc 76 bf d7 b8 02 bf
       1.3960108 -1.651543 -0.9642977 -0.51063293
000010 2b 56 b2 bf 91 dc 35 bf 7a 55 af bc 6e c4 b7 3e
       -1.3932546 -0.7103968 -0.021403063 0.3589205

embedding.embeddings.3.weight f4 [8, 4]
000000 5b a7 19 3f d9 b6 67 be 6e 04 d9 3e 45 c1 c0 bf
       0.6002099 -0.22628345 0.42386192 -1.5058981
000010 ee 3f 50 bf f5 86 a6 3d 0d f9 ba be c6 c9 93 bf
       -0.8134755 0.0813121 -0.36518136 -1.1545951
000020 3c e9 06 40 0b eb 94 3e 2e 97 c9 bd 41 ef 3c bd
       2.1079855 0.29085574 -0.09843288 -0.046126608
000030 be 79 86 bf ba 2c 11 3f 8c 7a 0f c0 be d1 a1 bf
       -1.0505903 0.5670887 -2.2418547 -1.2642133
000040 a1 8d c8 3f a4 25 53 3f 37 ea 95 3f af 2c 20 bf
       1.5668222 0.8247931 1.1712102 -0.6256818
000050 35 56 f9 3e ce 7d 8d 3f a3 43 33 bd 6b 08 67 bf
       0.48698583 1.1054018 -0.043765675 -0.9024722
000060 4d 57 d8 3f 2c d2 8f bf 20 15 73 bf 6e 1b e4 bf
       1.6901642 -1.1236014 -0.9495411 -1.7820871
000070 46 e9 ad bf 09 7f ed be e4 cf 11 bf d0 ac 96 3f
       -1.3586814 -0.46385983 -0.5695784 1.1771488

embedding.embeddings.4.weight f4 [13, 4]
000000 5f 2b be bf 1f 7a f9 3d ea b8 69 3d 88 eb 60 3f
       -1.4856986 0.12181496 0.057061113 0.8785939
000010 e2 f4 61 3f 09 aa e8 3e b6 87 06 bd 39 c9 a4 3e
       0.88264287 0.45442227 -0.032844268 0.3218477
000020 f2 65 82 bf 7b 11 ae 3f 97 a8 9f 3f c6 83 fa bd
       -1.0187361 1.3599085 1.2473325 -0.12232165
000030 44 46 0b 3e cb 10 f3 3e e2 ff af 3f 8c 73 17 3f
       0.13601023 0.4747375 1.3749964 0.59160686
000040 a7 02 3f bf 34 a7 db bf 7e 9e 78 be 43 c5 47 bf
       -0.7461342 -1.7160401 -0.2427921 -0.7803537
000050 ee cf 54 3f fe 7d 39 bf 56 ae 1e bf a3 39 8c bf
       0.83129776 -0.72457874 -0.61984766 -1.0955089
000060 65 4a a2 bb 1d 9a b5 3f b5 6d af 3f 4f 4a 0b 3f
       -0.004952716 1.4187657 1.3705355 0.5441026
000070 35 9b 8d bf 0a 02 52 bd aa 32 07 be 94 a2 10 40
       -1.106299 -0.051271476 -0.1320292 2.259923
000080 6f 13 db 3e 6a 70 3b bf b2 9e 7f bf 5e 88 45 be
       0.42788264 -0.73218405 -0.99851525 -0.19290301
000090 20 98 80 bf bd b7 1b 3e 7a 8a d2 3e 2f 15 55 3f
       -1.0046425 0.1520681 0.41121274 0.8323545
0000a0 55 96 28 bf e1 cf 11 3f ea 7e 6f 3f 43 06 cf 3f
       -0.6585439 0.56957823 0.9355303 1.6173786
0000b0 16 bf a0 bd 57 4d 54 be 56 59 2c be 07 1f bf 3f
       -0.07848947 -0.20732628 -0.16830954 1.4931344
0000c0 b3 1a 01 3e 94 eb 46 3f 74 cf 29 3f a1 d4 e5 bf
       0.12607841 0.77703214 0.66332173 -1.7955514

embedding.embeddings.5.weight f4 [9, 4]
000000 3f b5 8f bf f9 41 84 3d 92 ff af 3e 67 f0 7e 3e
       -1.1227187 0.06457896 0.34374672 0.24896394
000010 58 dc 15 3f 3c a8 27 c0 33 e3 09 3f 59 af 70 bf
       0.5853934 -2.6196432 0.53862303 -0.9401756
000020 ff 4e 1e 3f fb c2 b6 3e f9 ab 56 bf 33 37 88 3f
       0.6183929 0.35695633 -0.8385616 1.0641845
000030 0a e1 bc bf 21 d2 ba be 35 35 49 bf 85 f4 3f bf
       -1.4756176 -0.3648844 -0.7859681 -0.7498248
000040 f2 cd 2a bf e5 98 85 be 89 e4 09 3f 50 ef 9b bf
       -0.667205 -0.26093212 0.5386434 -1.2182407
000050 ba 75 a8 be dd f6 21 bf d9 9c ae 3e 74 57 bd 3f
       -0.32902318 -0.6326731 0.3410404 1.4792314
000060 cb a2 7a bf e9 05 f0 be 74 0d af bf 49 09 2d 3e
       -0.9790465 -0.4687951 -1.367598 0.16898073
000070 58 ff 9d be 9b f0 18 40 32 44 a7 3f 4c 8c 8b bd
       -0.30858874 2.3896854 1.3067687 -0.06813869
000080 68 e3 94 3f fa 20 24 3f 1d 5c 61 bf 9a 98 a3 3f
       1.1631899 0.6411282 -0.8803118 1.2780945

bn_in.weight f4 [38]
000000 6d 02 76 3f 5f f2 7b 3f 80 42 80 3f 51 7c 7e 3f
       0.9609745 0.98416704 1.0020294 0.9940844
000010 51 07 80 3f 99 e3 78 3f 72 5f 76 3f 03 14 68 3f
       1.0002233 0.97222286 0.9623939 0.90655535
000020 6f c3 74 3f 95 97 74 3f 83 65 7d 3f f7 80 75 3f
       0.9561071 0.95543796 0.9898302 0.9589991
000030 05 98 7b 3f b5 5f 71 3f 50 6a 6e 3f bd b5 7e 3f
       0.9827884 0.9428666 0.9313097 0.9949606
000040 6f 38 70 3f ee 69 7a 3f 00 ba 72 3f b7 11 79 3f
       0.9383611 0.97817886 0.94815063 0.97292656
000050 62 25 70 3f f1 f5 6a 3f 20 13 6d 3f c6 12 6b 3f
       0.9380704 0.91781527 0.9260731 0.9182552
000060 8e fd 6f 3f 80 a6 76 3f 35 e6 6f 3f 84 57 72 3f
       0.9374627 0.9634781 0.93710643 0.9466479
000070 85 10 82 3f c2 55 75 3f a1 1a 6e 3f 29 fc 6e 3f
       1.0161291 0.9583398 0.9300938 0.93353516
000080 85 36 80 3f c6 15 77 3f 34 12 80 3f b5 01 7a 3f
       1.0016638 0.965176 1.0005555 0.97658855
000090 98 7e 90 3f d5 76 76 3f
       1.1288633 0.96275073

bn_in.bias f4 [38]
000000 39 e7 8d b9 b6 40 61 3a f0 20 7d ba ee 6c 3a ba
       -0.0002706589 0.00085927115 -0.0009656092 -0.00071115687
000010 e8 47 7c ba 0c 26 19 39 b0 17 dc b9 a8 1e 5a 3a
       -0.0009623752 0.0001460539 -0.00041979318 0.0008320608
000020 c8 5c 28 b9 a2 94 bd ba a5 fc 29 b8 b6 c5 1b 3a
       -0.00016056292 -0.0014463852 -4.0528033e-05 0.0005942242
000030 fc 3e d0 39 8a 1b 86 3a 41 c9 94 ba fb 43 1d ba
       0.0003971978 0.0010231596 -0.0011351482 -0.00059992046
000040 2f bf 5f b9 c8 e2 e4 3a 06 80 89 b9 e6 e8 7a 3a
       -0.00021338159 0.0017462606 -0.0002622606 0.0009571448
000050 45 5a 3f 3a 0c 1b cc 36 0f 00 a5 ba cd 97 90 ba
       0.0007299523 6.0828224e-06 -0.0012588518 -0.0011031568
000060 fd a6 e4 b8 51 7f 1f 39 3b 55 bd b9 69 1f b5 b9
       -0.00010902991 0.0001521085 -0.0003611239 -0.00034546413
000070 71 c5 01 3b d6 3c 4a ba f7 e1 80 ba 12 13 2d 3a
       0.0019801522 -0.0007714754 -0.0009832968 0.0006602268
000080 b4 10 da ba 0c 4f 5e ba 6a a4 15 3a d1 33 bc 3a
       -0.0016637058 -0.0008480407 0.00057083985 0.0014358704
000090 8c 63 1f 3b 91 c2 13 ba
       0.002432081 -0.00056365976

bn_in.running_mean f4 [38]
000000 2d a1 d5 be 87 c8 34 be dd 05 70 3e d6 ec 17 bf
       -0.4172453 -0.1765462 0.23439737 -0.5934576
000010 b6 10 b4 bf 08 44 a3 3f 45 74 fd 3e 20 0b ed be
       -1.40676 1.2755136 0.4950277 -0.4629755
000020 01 25 3d 3f 4d dd b6 bf 43 08 3e bf 1f 6e 9d be
       0.7388459 -1.4286286 -0.74231356 -0.30748078
000030 5a 63 d0 3d 27 1d 9f 3d fc 0f 59 be 2a fd 7a bf
       0.101752 0.07769232 -0.21197504 -0.9804255
000040 0b 11 41 3e 23 36 ee be 24 99 d6 be 7f f0 be be
       0.18854158 -0.46525678 -0.41913712 -0.3729286
000050 6a 27 f1 be d1 75 1a be 6b 39 af bd f3 4f 87 3e
       -0.47100383 -0.15084006 -0.085558735 0.26428184
000060 00 fe 3f 3f 86 b7 83 3f e8 52 14 3f 91 65 7b 3e
       0.7499695 1.0290382 0.57939005 0.24550463
000070 0f db 96 3c b0 b4 a9 3c fe 9f 56 3c 86 49 c3 3c
       0.018415002 0.020716041 0.013099669 0.02383877
000080 c6 82 d5 3b 50 c5 fe 3a 8b f1 b8 3a 00 aa 82 39
       0.0065158335 0.0019437466 0.0014110071 0.00024922192
000090 ae f1 a5 bb 35 29 3c 3c
       -0.005064211 0.011484434

bn_in.running_var f4 [38]
000000 17 10 8d 3f 20 9d 2d 3f a8 69 23 3f dc 09 b7 3e
       1.1020535 0.6781788 0.63833094 0.3574971
000010 05 eb e5 3e dd c8 cf 3e 13 22 7d 3b a7 31 0f 3d
       0.44905868 0.40582934 0.0038625046 0.03495946
000020 ed 6e b3 3f d4 fe 21 3e 8c 57 24 3e 0e 98 0d 3e
       1.4018227 0.15819865 0.16049021 0.13827536
000030 0c e2 b4 3f a6 58 30 3d 28 79 83 3e 7e 17 96 3e
       1.4131484 0.04305329 0.25678372 0.29314798
000040 55 59 74 3f be 3f 3e 3e 8a 41 0b 3e ec bf 92 3f
       0.9544881 0.18579003 0.1359922 1.146482
000050 42 3f 38 3f 1f 01 69 3f 54 40 f7 3e f2 df 0f 3f
       0.71971524 0.91017336 0.48291266 0.5620109
000060 44 a7 03 3f 63 98 99 3e 35 a0 2e 3f 2f 64 0a 3f
       0.514271 0.29999074 0.68213207 0.5405912
000070 86 ed 7f 3f 75 69 8a 3f 6c 02 8c 3f ef 05 8c 3f
       0.99971807 1.0813433 1.0938239 1.0939311
000080 36 1b 7f 3f 70 37 6c 3f 6f c0 81 3f 1d a9 81 3f
       0.99650896 0.9227209 1.0136851 1.0129734
000090 5d 10 58 3f e8 74 86 3f
       0.8439997 1.0504427
