backend/models/deepfm.pt (torch, 187577 bytes, 22 tensors)

embedding.embeddings.0.weight f4 [10, 16]
00000000: 04da d6bf 9c9b 853f dee9 8b3f b859 18bf
00000010: e41e cebe 7c44 b4bf d98f e03f a870 81be
00000020: cd9b 0c3f d412 3abf e3e9 c3bf 4f3d b1bf
00000030: e167 43bf 05d5 9bbe 77a1 133f 4fd9 11c0
00000040: dd2a c4bd b5c5 543f bd15 86bd eb50 4b3f
00000050: 0ea2 4fbf 7628 a2bf 7de8 ebbf 4677 513f
00000060: 8dbd bc3e cace 16c0 5dc6 ea3f 9dfb 0c3e
00000070: 2041 1d3e db18 e13e 2616 22bd 4159 8f3f
00000080: f1e0 2f3f f0a9 d93f a6ea cabe 6345 25bf
00000090: dca3 b93f 7085 75bf 3a04 733f e4a9 6d3f
000000a0: 09fc 33bf bf60 2b3b 89c9 0f3d 884c 1840
000000b0: 6d83 e33f 7c1c b23f 0f81 8d3f f771 8ebc
000000c0: 9622 e2be 8aee f5bd 5368 9b3f 7094 37bf
000000d0: d226 25bf 428d 77bf 751f 85bf 4cc0 35bf
000000e0: 2bb5 f83e 01d5 4a3e 8c71 4740 58ac 84bf
000000f0: 6d44 683f e6ef 97bf 5460 9abf 0032 e13f
00000100: c5c2 5b3f cabc 803f 6be9 6a3f f53e 1cbf
00000110: 0d91 7f3f 9a8c 6fbe 6264 5abf 426f 05bf
00000120: cffe 1d3f 21ec 43bb 9d5e 593f abba 193f
00000130: fe83 8b3f 3553 9bbf adc0 4bbf c4f7 88be
00000140: a182 18bf 6173 2a3f 777e ca3f fe29 39bf
00000150: f884 80bf a5d7 15c0 e6e3 eb3f cdb2 863f
00000160: 9810 513f 34db 8e3f b8e4 a6bf 6f4c fcbf
00000170: 9007 3840 79ac 8d3f f4bf a13f 25e5 06be
00000180: dfe0 cd3d 4c51 ecbd b65e 86bf 67dd bf3d
00000190: bbaa 0ebe 81f1 733f ee25 25bf 2f91 ab3f
000001a0: ef2d 15bf b064 94be 491f b23f 140a c13f
000001b0: bc82 1e3e 96b1 3ec0 4dd5 4b3f b3bd d93e
000001c0: 1d02 5c3f 0966 9b3f 1455 773e 3c24 923e
000001d0: 7913 513f 5189 623e 4d59 323f 97a2 d8bf
000001e0: 2b1f c63d a5d1 4f3f e964 0840 ae73 c3be
000001f0: cc09 e93f 6d12 35bf d3c2 5e3f 9432 41bd
00000200: 269b ca3f a563 863f c5d5 12be 64f2 ebbd
00000210: 44b6 b03f 8df6 65be e2ad 0bbe 23a8 3abf
00000220: d489 733e 590c 8ebf bc21 9e3e ad0f a43e
00000230: ba7a a73f 3ef0 023e 7d8e de3f c16d 7f3e
00000240: f2da 96bd 72e9 d33f ed4f 1ebe 9003 e33e
00000250: 9ab6 02c0 4751 a4bf 68ab 51be 877f 0bc0
00000260: 2b3a 023f 0a13 873c 6468 37bf 51be 703e
00000270: 91c8 773f dce9 533f 3577 04bf 8358 613f
-1.6785283 1.0438113 1.0930746 -0.595119 -0.40257943 -1.40834 1.7543899 -0.25281262
0.54925233 -0.7268498 -1.5305752 -1.3846835 -0.7633038 -0.30435959 0.5766825 -2.2788885
-0.09578488 0.83114177 -0.06547115 0.79420346 -0.8110665 -1.2668598 -1.8430325 0.8182262
0.36863366 -2.3563714 1.8341786 0.13767858 0.15356874 0.43964276 -0.039571904 1.1199113
0.6870261 1.7004986 -0.39632148 -0.64559 1.4503131 -0.95906734 0.94928324 0.9283736
-0.7030645 0.0026150194 0.03510431 2.379671 1.7774483 1.3914943 1.105501 -0.017388327
-0.44167012 -0.12008388 1.2141212 -0.7171087 -0.6451236 -0.9669992 -1.0400225 -0.70996547
0.4857572 0.19807817 3.1163054 -1.0365095 0.9072941 -1.1870086 -1.2060647 1.7593384
0.8584407 1.0057614 0.9176242 -0.61033565 0.99830705 -0.23393479 -0.8530942 -0.5212289
0.6171693 -0.0029895382 0.84909993 0.6005046 1.0899656 -1.2134768 -0.79590875 -0.2675153
-0.59574324 0.66582304 1.5819844 -0.723297 -1.0040579 -2.341287 1.8428924 1.0523316
0.81665945 1.1160645 -1.303855 -1.9710826 2.8754616 1.106826 1.2636704 -0.13173349
0.100526564 -0.11538944 -1.0497653 0.09368401 -0.13932316 0.9529038 -0.64511 1.3403682
-0.58273214 -0.28983068 1.3915797 1.5081201 0.15479559 -2.979589 0.79622346 0.42527542
0.85940725 1.2140514 0.24153548 0.2854327 0.8167034 0.22122695 0.6966751 -1.6924618
0.096739136 0.8117927 2.131159 -0.38174194 1.8206115 -0.7073124 0.8701603 -0.047167376
1.5828598 1.0499159 -0.14339359 -0.11520842 1.3805623 -0.22457333 -0.1364055 -0.72912806
0.23783046 -1.1097518 0.30885112 0.3204321 1.3084328 0.12786958 1.7387234 0.24944212
-0.07365979 1.6555617 -0.15460177 0.44338655 -2.042395 -1.2837304 -0.20475543 -2.1796587
0.5087001 0.01648857 -0.7164366 0.235101 0.96790415 0.82778716 -0.51744395 0.88025683

embedding.embeddings.1.weight f4 [3, 16]
00000000: 03f3 85bf 22f4 d83d 94a4 6b3e f250 99bf
00000010: e754 9bbf 1123 c6bf 2e31 c1be 9537 bb3d
00000020: 09ea 993f 39f6 fd3f b8e0 fb3e 3834 663f
00000030: 8eb9 6d3f e59a 87bf 9c6a c4bf b2dc 4cbf
00000040: c241 af3d bae1 bbbf 0fa9 a73e f1c3 e23e
00000050: 8ab3 4d3f fdfe 0440 7353 2d3e dee9 92bf
00000060: 2f8c 6e3e 0843 73bd 5256 88be f0cb f33f
00000070: 489e d9bf 1360 a3bf 31dd 9ebd 7ec2 9ebf
00000080: 7cd2 01bf f7ec 19bd bd9e bf3e e006 f43e
00000090: 42a0 903f c45f 383f 88db 19bf feef a1bf
000000a0: 9071 4a3f 47a5 0b3f 1ab1 e9be ff33 80bc
000000b0: 60b6 d5bf bbf4 673e 37f8 12bf c62f 51bf
-1.0464786 0.1059344 0.23012 -1.1977828 -1.2135285 -1.5479451 -0.37732834 0.09141461
1.2024547 1.9840766 0.49194884 0.8992343 0.9286126 -1.0594145 -1.5345035 -0.80024254
0.08557464 -1.4678261 0.3274617 0.44290116 0.8035208 2.0780632 0.16926365 -1.1477621
0.23295663 -0.059390098 -0.26628357 1.9046612 -1.7001429 -1.2763695 -0.07757033 -1.2403104
-0.507118 -0.037579503 0.37425795 0.47661495 1.1298907 0.72021127 -0.60100603 -1.2651365
0.7907953 0.5454907 -0.4564293 -0.015649794 -1.6696281 0.22651951 -0.57409996 -0.8171352

embedding.embeddings.2.weight f4 [2, 16]
00000000: 11f6 583f 4efa 2cbf 4954 d83e 5bf9 643f
00000010: 97ee 103f ee9d 1fbf 9b45 f03f 4beb 1540
00000020: 723f 173f e231 933e e527 a63d 6e8a d0bf
00000030: 8706 a93e 6f23 4d3f 7dd6 d83e bf1e 3cbf
00000040: 956b 7abf ae67 24bf fe16 fcbe 5099 203f
00000050: 5f06 f8bf af4f ee3e 641f 243e 383a 473c
00000060: 1efd b4be dc19 343f 03e6 dc3d 1e26 463f
00000070: 34ec 0f3f 89c5 1f40 979b e5bf 3b5e d8bf
0.8475047 -0.67569435 0.42251804 0.89442986 0.5661406 -0.62350357 1.8771242 2.3424861
0.59081185 0.28748995 0.08113078 -1.6292245 0.33012792 0.8013219 0.42351142 -0.73484415
-0.9782041 -0.642207 -0.49236292 0.62733936 -1.9376944 0.4654517 0.160276 0.0121598765
-0.35349363 0.7035196 0.10786059 0.7740191 0.5621979 2.4964316 -1.7938107 -1.6903757

embedding.embeddings.3.weight f4 [8, 16]
00000000: 7702 9cbf 32f6 adbf 984d 3abf 344c b1be
00000010: ca03 53bf 71a1 f23c 49b0 ab3f 7136 febe
00000020: fbc3 883f b655 28bf 63e5 0c40 0a14 b4be
00000030: a70c 15bd 83d5 f53c 4b8e a03f 4322 4abf
00000040: 2051 cc3f ba1c aebf 6629 a3be a000 5f3f
00000050: 616f 24c0 7e60 53bf 44fb 113f 4c59 e4be
00000060: 3686 2d3f 62f0 cbbf 1595 183f 2443 6c3f
00000070: 983f 5abe 9eef 1bbf edc0 09be ad3c 18bf
00000080: b16c ed3f 18d9 653e 94de 47bf fbd7 2c3f
00000090: ba2c 22bf b038 eabf 7438 02bf b341 eabf
000000a0: d5c8 a73f c5b6 b8be c5e0 a2bf 6533 4a3f
000000b0: 3b08 1540 8b4f 80bf d7d3 313e 13c2 1cbf
000000c0: 48f5 3440 1e4b c3ba 3f68 923e 49dd 98bf
000000d0: 29c1 16be a5e4 a6bf e934 76bf 891c 28be
000000e0: 6800 083e 59fd fe3e c3cd 8ebf b9f0 053f
000000f0: fb7e 78bf 442c 8c3f c902 b8bd c0ec 41bf
00000100: 6a42 42bf 8664 923d f126 2bbf 6528 84bf
00000110: d9a5 783f 2120 9dbd 7d3e edbd 1048 263d
00000120: ccf1 8dbf c342 6bbf fce8 c8be 97dd 683e
00000130: 35a4 a9bf 6fb4 7f3f e508 61bf dfb7 9bbf
00000140: 451f 313f 0f7d 9b3f e408 18bf 71fa be3f
00000150: 8946 a73f af16 473d 6a4a 993d 7a06 9cbf
00000160: 63d5 8bbe f0ea 07c0 e459 db3f 324c 0f40
00000170: 90fe a93f ff60 0e3d 65f1 1740 3083 69bf
00000180: d3e0 f5bf 2d76 7f3f 6b42 293d 931b a23e
00000190: ee85 6ebf fdcb e7bf 9c48 95bf 4adc 643f
000001a0: 26aa cb3e aed0 a53d 7609 2c40 9495 82bf
000001b0: a1c8 42bf 53e4 5fbf 1804 53bd 4189 50bf
000001c0: a5ba 86bf c024 0f3f e910 6f3f 16d0 5d3f
000001d0: 5345 edbe a3b8 83bf 71b0 18bf b9b0 8e3f
000001e0: b1f1 babf 1488 4ebf f20f 543f 1b3e b23e
000001f0: a509 f03f 1e64 0c3e 1903 7dbf 4c7e 3dbf
-1.2188252 -1.3590758 -0.7277465 -0.3462845 -0.82427657 0.029617997 1.3413173 -0.4965091
1.0684808 -0.65755785 2.2015007 -0.3517154 -0.03638902 0.030009037 1.2543424 -0.7895853
1.5962257 -1.3602517 -0.31867522 0.8711033 -2.569298 -0.8256911 0.57024026 -0.44599378
0.67782915 -1.5932734 0.5960248 0.9228995 -0.21313322 -0.609125 -0.13452502 -0.59467584
1.8548795 0.22446096 -0.78074 0.6751706 -0.633495 -1.829855 -0.5086739 -1.83013
1.3108164 -0.36076942 -1.2724844 0.7898467 2.3286273 -1.0024275 0.17365967 -0.61233634
2.8274708 -0.0014899706 0.28595158 -1.1942531 -0.14722122 -1.3038527 -0.96174484 -0.16417135
0.13281405 0.49802664 -1.1156543 0.5232044 -0.97068757 1.0951009 -0.08984906 -0.75751877
-0.7588259 0.071480796 -0.66856295 -1.0324827 0.97128063 -0.07672144 -0.11584184 0.040596068
-1.1089416 -0.91898745 -0.39240253 0.2274078 -1.3253237 0.99884695 -0.87904197 -1.2165488
0.6918834 1.214754 -0.59388566 1.4920179 1.3068401 0.048605617 0.074848965 -1.2189476
-0.2731124 -2.1237144 1.7136807 2.2390256 1.3280811 0.03476047 2.3741086 -0.912158
-1.9209236 0.99789697 0.041323107 0.31661662 -0.9317311 -1.8109127 -1.1662784 0.89398634
0.3977825 0.08096443 2.6880774 -1.0201898 -0.76087385 -0.8745777 -0.051517576 -0.8145943
-1.0525709 0.5591545 0.9338518 0.8664564 -0.46341953 -1.0290722 -0.5964423 1.1147681
-1.4605008 -0.8067639 0.8283683 0.34813008 1.8752943 0.13710067 -0.9883285 -0.7402084

embedding.embeddings.4.weight f4 [13, 16]
00000000: 39e9 e8bd 37c0 0640 62e1 0abf 495f 16bf
00000010: 5140 a13f 60fd 3f3f 22a6 f03e d7c8 fd3e
00000020: ea82 973e 458d 5bbf 9f8f 4a3f 7107 6a3d
00000030: d9e6 113f c2bc 8e3f 58ff 9dbf af3b 80bf
00000040: 3083 843f 82e9 5bbe 9791 af3d cc89 b3bc
00000050: e4b7 463f b11f 6c3e bf0c c9bd fac8 bebe
00000060: 8080 55bf b2b0 1a3f a08a 47bf d673 82bf
00000070: 9bb8 9ebe 7c80 853e 3223 f1be 3f57 2abf
00000080: 7e76 a7bf a213 943f ca0e a13f 5a28 02bf
00000090: dae1 903f dfed a53f 2f43 653d 74df 3b3f
000000a0: 2140 11bd bafe f1be f528 afbf 3e23 b43f
000000b0: 1844 0bbf 67ef 0d3f 7a24 a83f 7f23 82bf
000000c0: 113b d73f 277d 863f f576 7b3f 65c0 173f
000000d0: e952 0d40 ecb0 3ebe 535f a73e 089d 20be
000000e0: 9e4a 98be 3f1e 2abf a1fe 863f 138c d0bf
000000f0: d6c9 863d 5746 1c3f b11b 3b3f addb f0bf
00000100: d2d1 213f 9f5f 27c0 ff66 8fbf 1cfa 7d3f
00000110: 4b88 1a3f 323c d13e 49a8 3abf 3e68 bcbf
00000120: dc4e a93f f652 45be 0549 ea3f eb81 253f
00000130: 7ee8 3d3f ecb2 a5be 5425 133f 5bc9 86be
00000140: 3f85 ed3e 01b9 c53e 00e2 a73f 9ae3 b33f
00000150: f341 bfbf 69c2 bcbe 815e bb3f 272c fabd
00000160: 23d8 833f 7163 23be 9214 81be 8f3b e73d
00000170: 609d 393f 7020 1740 775d 0f3e 442c 96bf
00000180: 4a65 24bc d361 5bbe d907 903f 9727 12c0
00000190: 3478 053f 2ea0 d13d d4ca 813f 1200 f93c
000001a0: 9ef9 ba3f 13e8 1a40 bbae a13e b927 6e3f
000001b0: ad09 0840 45b7 d73f fc8e 5f3f 8be8 9abe
000001c0: 0854 35bf 02b6 203f 7189 303f 0390 a33e
000001d0: a6be 22bf fcc2 8dbe 7ec2 dd3f 911a 873f
000001e0: fd4b b3bb 367e 423f 9386 a13f a734 1d3f
000001f0: b02f b8be d983 8c3e 9816 0ec0 09be bf3f
00000200: 0152 b53f 166c 09bf 3918 e2bd ed85 3fbe
00000210: 4f45 0040 a4c9 113f afdc c53e 3ca3 f2be
00000220: 06de a93e c3a0 f4bf cd52 1b40 3e35 ad3f
00000230: 685a 9d3f 8828 4abe 3e4e 9dbf cfa1 5fbf
00000240: aab5 8bbd a1c0 f93f d2f4 dd3f 9104 b7be
00000250: 89d0 8ebf 8efd c7bf 55d4 993f 951e d4bf
00000260: e57e 3b3f ce6f 253f 485a 1abf 15ce 103e
00000270: 6731 0a40 3355 0540 0446 853f 4a38 023e
00000280: b71d a93e 5d14 763e f56f a23f 7618 c33d
00000290: 4d92 59bf 19b7 99bf eec6 90be 9c68 cf3f
000002a0: 5548 0040 9820 84be b601 ef3e 74e4 a43f
000002b0: 369e 9b3e e57b 1440 ee34 78be 4348 c2be
000002c0: 3e07 b23e ac38 0740 c8fb 3fbf e5c6 38bf
000002d0: 8180 d83e e5bf e1be d526 9d3f bbee 823e
000002e0: 5850 243f d8e8 97be 1cbc 353f c573 48bf
000002f0: b7a6 29be 3670 18bf 6774 dc3f 6130 c7be
00000300: c7fb 1e3f 3d88 23c0 fd48 2b3f 87bf b73e
00000310: 24c5 3ebd ea8f 41bf 0bdb 2bc0 9263 8dbe
00000320: 9dcf 2a3f c5ba 4ebf 906f 07bf d3b3 5b3f
00000330: 5fba 5cbd d5d0 4abf 8899 60bd 91da 1040
-0.11372609 2.1054819 -0.54250157 -0.58739144 1.2597753 0.74995995 0.4700175 0.4956729
0.29592067 -0.85762435 0.791254 0.057136003 0.5699287 1.1151354 -1.234355 -1.0018214
1.0352535 -0.21475795 0.08572691 -0.021916293 0.77624345 0.23058964 -0.09816884 -0.37262708
-0.833992 0.60425866 -0.779459 -1.01916 -0.31000218 0.26074588 -0.47097164 -0.66539377
-1.3083036 1.1568491 1.2582638 -0.5084282 1.1318924 1.2963217 0.055972274 0.7338784
-0.03546155 -0.47264653 -1.3684374 1.4073255 -0.5440078 0.55443424 1.3136132 -1.0167083
1.6814901 1.0506943 0.9822839 0.59277946 2.2081854 -0.18622178 0.32689914 -0.15684903
-0.29744428 -0.664524 1.0546457 -1.6292747 0.06581466 0.6104483 0.7308913 -1.881704
0.63210785 -2.6152112 -1.1203307 0.9920976 0.60364217 0.40866238 -0.7291303 -1.4719312
1.3227191 -0.19269928 1.8303534 0.64651364 0.7418288 -0.3236307 0.57478833 -0.26325497
0.4639072 0.3861771 1.3115845 1.4053833 -1.4942001 -0.36867073 1.4638215 -0.12215453
1.0300335 -0.15955903 -0.25211006 0.11290657 0.7250576 2.3613548 0.14000498 -1.1732259
-0.010033915 -0.21424036 1.1252395 -2.2836664 0.5213654 0.1023563 1.0140023 0.030395541
1.4607427 2.4204147 0.3157862 0.9302936 2.1255906 1.6852804 0.8732755 -0.3025554
-0.70831347 0.6277772 0.6895972 0.3194581 -0.63572156 -0.27687824 1.7324979 1.0554982
-0.005471705 0.7597383 1.2619194 0.61408466 -0.35973883 0.27444342 -2.220129 1.4979869
1.4165651 -0.5368055 -0.11039776 -0.18703432 2.0042303 0.56948304 0.3864493 -0.47390163
0.33177203 -1.911156 2.4269288 1.3531873 1.2293215 -0.19742024 -1.2289503 -0.87356275
-0.06821759 1.9511911 1.7340338 -0.3574567 -1.115739 -1.5624254 1.2017924 -1.6571833
0.732405 0.64623725 -0.6029401 0.14141114 2.1592653 2.0833251 1.0411992 0.12716785
0.33030483 0.24031205 1.2690417 0.0952615 -0.8498886 -1.2009002 -0.2827677 1.6203799
2.0044148 -0.25806117 0.46680993 1.2882218 0.30394143 2.320062 -0.24238941 -0.37945756
0.3477115 2.112834 -0.7499356 -0.7217849 0.4228554 -0.44091716 1.2277476 0.25572762
0.64185095 -0.29669833 0.7099016 -0.7830165 -0.16567503 -0.5954622 1.7223023 -0.38904098
0.6210293 -2.5551903 0.66908246 0.3588831 -0.046574727 -0.7561022 -2.6852443 -0.2761503
0.6672304 -0.8075374 -0.52904606 0.85821265 -0.053888675 -0.792249 -0.05483392 2.2633402

embedding.embeddings.5.weight f4 [9, 16]
00000000: 44f0 d93e 4280 3dbf 623a 473f 1eb1 47bf
00000010: deb9 463f 0700 d73e 6562 d0bf 8a0e 9abf
00000020: 3047 d93f d494 6d3e 9e35 28bf 87b1 503f
00000030: c68d d73e b6d7 af3d 43b7 5f3e 3549 2a3f
00000040: 02f9 2abf 0a39 8cbe 42d4 d33d af31 a53e
00000050: 2aaf 363f 0a1e 553f e352 d93d fae0 513f
00000060: 4afe 723f a9c9 60c0 1de7 8b3f e96c 903e
00000070: 9cb9 0f3e def7 843f 7545 a7bf 1d3c 143e
00000080: 872c bbbe e6cd 2bbf c04d a33f f508 4abe
00000090: fead 5ebe 803b 5cbc 2c65 efbe bd3b 5f3f
000000a0: 38e4 d4be f8d1 7abe 929a 8ebe 3cbc 6d3f
000000b0: 8950 d93e ae20 643e a4ea 9dbf dc22 e4bf
000000c0: 9710 2dbf 9029 633f bf4a 1340 8762 a7be
000000d0: 00fb 513c 83a4 ce3f 36f4 303f 039e 1fbf
000000e0: 0771 273f 08e3 1540 8729 373f bbb3 593f
000000f0: 704b d43f 2a50 f3be de7b 553f cae1 413f
00000100: bc06 efbd 356e fd3e 1003 4dbf 48cd e9be
00000110: 3ee7 51bf 8892 62bf 1372 1bbf 6321 4b3f
00000120: cc70 863f 8214 b63e 6d01 f33d f3f9 d93d
00000130: a7b1 81be 0db5 30bd efcb cdbe f224 39c0
00000140: 430e e0bf 45d9 75bf 027a bf3f af93 da3e
00000150: 5eb3 d93c 317a a6bf c312 c83e 3070 46bf
00000160: 4854 bd3e c5dc 1bbf 05f6 4a3e c794 0e3f
00000170: 2890 cbbe fe42 0f3f f327 1abe 678d 64bf
00000180: 433a 013e d94e a5bf e0cf a7be 0519 9fbe
00000190: 74e8 67bf 30b5 3bbf 07c9 763f a0b1 c73d
000001a0: 4b7b 06c0 a25e 993e 1934 67bf 0161 8fbe
000001b0: de43 6f3e 9e8b ecbe 161b 1ebf ed49 65be
000001c0: 00ee 883f 1764 ba3f 703d 493e e824 edbc
000001d0: f5c4 823f f396 1bbf e39e 4fbe 586f 353f
000001e0: 0431 e6bf ff45 ac3f cfdc 2abf d4a1 f63f
000001f0: c483 b33f d52b 0440 f800 fcbe e4b4 663f
00000200: 0731 b13e 9866 11bf f9c1 06bf 79c9 15bf
00000210: 9de8 38bf d1ad 363c 5a8a dfbe 1d9d 5c3e
00000220: 8e92 1740 c833 c53d bb7d 6abf ae94 3dbf
00000230: 11f5 0040 1628 04bf 457d e1bf 5450 163e
0.4256612 -0.7402383 0.7782346 -0.78004634 0.7762736 0.41992208 -1.6280028 -1.2035687
1.697485 0.23201305 -0.65706813 0.81520885 0.42100352 0.085860655 0.21847253 0.66517955
-0.66786206 -0.27387267 0.10343219 0.32264468 0.7136103 0.8324896 0.106115125 0.8198391
0.94919264 -3.5123084 1.0929905 0.28208092 0.14035648 1.0388143 -1.3068072 0.14476056
-0.3655741 -0.6711105 1.2758102 -0.1972998 -0.2174606 -0.01344192 -0.46756876 0.8720053
-0.41580367 -0.24494159 -0.27852303 0.9286535 0.42444256 0.22278091 -1.2337232 -1.7823138
-0.6760344 0.88735294 2.3014371 -0.32692358 0.012816191 1.6143955 0.69122636 -0.6235048
0.6540684 2.341982 0.7154774 0.8503987 1.6585522 -0.47522098 0.8339213 0.7573515
-0.11671206 0.49498144 -0.800828 -0.4566443 -0.8199347 -0.8850484 -0.6072094 0.7934782
1.0503173 0.3556252 0.11865506 0.10643377 -0.2533085 -0.043141413 -0.4019465 -2.89288
-1.7504352 -0.9603465 1.4959109 0.426908 0.026574787 -1.300604 0.39076814 -0.77514935
0.36978364 -0.6088374 0.19820412 0.55695766 -0.3975842 0.55961597 -0.15054302 -0.8927826
0.12619881 -1.2914687 -0.32775784 -0.31073776 -0.9058907 -0.73323345 0.96400493 0.09750676
-2.1012752 0.29955012 -0.9031387 -0.28003696 0.23365733 -0.4620027 -0.6176008 -0.22391482
1.0697632 1.4561795 0.19652343 -0.028948262 1.0216357 -0.60777205 -0.20275454 0.7087302
-1.7983708 1.3458861 -0.6674318 1.9268136 1.4024587 2.0651753 -0.4921949 0.9011977
0.34607717 -0.5679717 -0.5263973 -0.5851055 -0.7222994 0.0111498395 -0.4366024 0.21544309
2.36832 0.09629017 -0.915981 -0.7405499 2.0149577 -0.51623666 -1.7616354 0.1467908

embedding.embeddings.6.weight f4 [20, 16]
00000000: ad0e 9cbf 0905 f03e 4f2d c73e 929d 85bf
00000010: 7155 16bf 7202 c63e 0855 8abf 5c68 80bf
00000020: a5cc ed3f 1543 1bbf a067 35bc b86e b6bf
00000030: 2349 6d3f d57e f63e e7c1 edbf 0b27 c23f
00000040: f8d6 673e effa 543f 006f 35bf 4b07 063e
00000050: 7def 253f 05e1 35bf a153 3b3f a880 c3be
00000060: 851b b9be bed3 263f 6eb6 093f 5da2 e4bd
00000070: ebc9 9fbe dfd9 57bf a1ce 963e 2d5e 8cbf
00000080: a7aa e2bd ef7e cb3f 0028 31bd 57f2 51bf
00000090: ce87 993f a0c9 7bbd 7615 183f c447 41bf
000000a0: 2176 313e ff0c 783e 7011 19be 4716 66bf
000000b0: f5f0 9f3f 1ae3 0cbd c08c 05bf 2445 113f
000000c0: 0f07 8a3f 5478 dfbe d684 92bf baf1 c2bf
000000d0: 8ce5 c9bf 547a ae3e 08fa 16be 174f b1bf
000000e0: 7917 71bf 48e6 8b3f 75b6 873f c416 c53e
000000f0: 187a d33d c494 1ebf a71c 453d 41c0 bdbe
00000100: 0492 983f 2c1c 5bbf 7c0f b5bf 0fe3 4fbf
00000110: 9b15 5abf fe7a 04bf 4ecb 04c0 2a2e 863d
00000120: eea1 a5bd 3c9d 9dbf 2bd0 4a3f 178a 18c0
00000130: a10c c7be 35ed a43f d562 aa3e b986 ba3e
00000140: e35d bb3e 4c0f d73e cd4e 1cbd 388b a03d
00000150: 78ba 33be 8511 8e3f e14b 933e a2ef 91bf
00000160: fd77 23bf 5cd2 a73f 3d43 9a3e c12e b23f
00000170: 0d32 c9bd d238 13bf cb79 8d3e 9b9d 4cbe
00000180: 44c1 70be abb1 943f 467a cd3f 943f 1e3f
00000190: c79d 0cbf 0b49 cdbf 31af 123e 0486 693f
000001a0: 51eb 673f 52bc 64be f616 72bf 90ab 953e
000001b0: 2aa7 3a3f 75cd 04bf 508b c8bf 753c f3be
000001c0: 6f69 2bbe 30d9 ee3d d6b0 d7be d26c ed3e
000001d0: 99ca b0bf 11f6 7bbf fed5 32bf 71d2 e3bf
000001e0: 5d41 0f40 fc39 a1bf 55e6 27bf 1852 0ebf
000001f0: 90bb 8dbf 53cc f13c e98a e6bf cff9 8abf
00000200: a338 093f 2cb3 43be 9e91 503f eb35 6fbf
00000210: c340 7dbf 86b3 87bf 45cf 94be 6de5 33bf
00000220: b737 373e 11e1 7bbf 47a0 48bf d017 6e3f
00000230: 406c 57be e949 3cbf f1de d3bf d5f8 33be
00000240: 9028 e23b ef6c b6bf 2686 503e 4d29 013f
00000250: 57ac 613f 3733 8cbe 5f04 9c3f a1fd 8fbf
00000260: f93c d13f f0cf 943e 5774 903f 0e0b 3cc0
00000270: 5d80 a9be 2d9a f7bd ef97 3cbf 8149 0540
00000280: fb8b e5bf 3855 debe 0dc2 873f 0260 babf
00000290: a3da dfbe ba10 d3bd e720 943f 55b7 25bf
000002a0: eaab 0b3f 8ccf 9dbf add4 8cbf da80 6dbf
000002b0: d3cc 823e cbf1 d83f 722f a4bf 2e32 aabd
000002c0: f1c2 0d3f dd35 d3bf 715f 863f 8d9f 503f
000002d0: be6b 9ebd 47d8 cabf 857d 96bf 462f f4bf
000002e0: 386e 0540 34d8 5f3f e817 e4be 7b6b 3e3f
000002f0: 1fa7 9abf 49b6 2bbf 7bfd c1bf a38b 53be
00000300: 4081 ab3f b568 b1bf d9fb 7e3e 8ce7 ed3d
00000310: b08c 04bf d1ff 853d 482a c73f 5238 eebf
00000320: 1eb6 a23f b3ad 823f 179e b63e 1db5 b3bf
00000330: 9ebe 4fbf 1e98 2cbf bb05 8b3f c6f0 b03e
00000340: 7a3a 07bf ef97 e23e e681 453b 87e0 8fbf
00000350: e342 643f d9a9 493f 4096 92bf ef17 0c40
00000360: b527 b63f 8537 f8bf 8f78 b63f 518a 99be
00000370: 6f90 083f 3d28 26bf 90f6 433f 6a1c f6bf
00000380: abb4 853e 1117 a23e a14d 3f40 c9c8 37bf
00000390: ff14 763f c098 c33d 769d ff3e e1f2 ef3e
000003a0: 7d86 f0be 9567 cf3f 857a 9d3f 8e0c aebe
000003b0: fee1 9f3e 96f9 ee3f dfb2 c33f 939a 84bf
000003c0: 89ce 2e3f c7ed 233e 8955 ba3f 5f83 473f
000003d0: 79b4 5bbf 0de3 23bf d93d 54bf 1d26 243e
000003e0: d344 a83f b40d 473e 16ba 3a3d c695 963d
000003f0: 9512 263f e761 303f 856b 90bf f381 55bf
-1.2191979 0.46878842 0.38901755 -1.0438712 -0.58724123 0.3867374 -1.08072 -1.0031848
1.8578078 -0.60649234 -0.011072069 -1.4252539 0.9268972 0.4814364 -1.8574799 1.5168165
0.22640598 0.83195394 -0.708725 0.1308872 0.64818555 -0.7104648 0.7317448 -0.38184094
-0.36153808 0.6516684 0.5379399 -0.11163781 -0.3120874 -0.8431682 0.2945452 -1.096624
-0.110677056 1.5898112 -0.043251038 -0.82010406 1.1994569 -0.06147158 0.59407747 -0.7550013
0.17330219 0.24223708 -0.14948058 -0.8987774 1.2495409 -0.03439627 -0.5216789 0.56746125
1.0783404 -0.4364649 -1.1446788 -1.5230019 -1.5773177 0.34077704 -0.14743817 -1.3852261
-0.9417644 1.0929651 1.0602556 0.3849393 0.10326022 -0.6194575 0.048123028 -0.3706074
1.191956 -0.8558986 -1.414535 -0.8120584 -0.8518922 -0.5175017 -2.0749087 0.06551774
-0.08087526 -1.2313609 0.7922389 -2.3834283 -0.38876823 1.288489 0.33278528 0.3643091
0.36595067 0.42003858 -0.038161088 0.07839054 -0.17551601 1.1099097 0.2876883 -1.1401255
-0.6385496 1.3111072 0.30129424 1.3920518 -0.098239996 -0.57508576 0.27631983 -0.19981997
-0.23511225 1.161672 1.605294 0.6181576 -0.5492825 -1.6037916 0.14324643 0.91220117
0.9059344 -0.22337463 -0.94566286 0.29232454 0.7291132 -0.51876 -1.5667515 -0.47507063
-0.16739438 0.11662519 -0.42127103 0.46372086 -1.3811828 -0.9842234 -0.69857776 -1.7798597
2.2383645 -1.259582 -0.65585834 -0.55594015 -1.1072865 0.029516375 -1.8011142 -1.0857486
0.53602046 -0.19111317 0.81472194 -0.9344165 -0.98926944 -1.0601661 -0.29064384 -0.7027195
0.17892347 -0.983903 -0.78369564 0.93005085 -0.21037388 -0.7355028 -1.6552411 -0.1757539
0.006901808 -1.4251994 0.20363674 0.50453645 0.88153595 -0.27382824 1.2188834 -1.1249276
1.6346732 0.29064894 1.1285504 -2.9381747 -0.33105746 -0.120899536 -0.7366933 2.0826113
-1.7933344 -0.43424392 1.0606095 -1.4560549 -0.43721494 -0.10305925 1.1572541 -0.6473287
0.54559195 -1.2328963 -1.1002403 -0.92774737 0.25546893 1.6948789 -1.2826979 -0.08310352
0.5537558 -1.6500813 1.0497876 0.81493455 -0.07735394 -1.5847253 -1.1757056 -1.9076927
2.0848522 0.87439275 -0.4454949 0.7438275 -1.2082251 -0.6707502 -1.5155481 -0.20658736
1.3398819 -1.3860079 0.2490076 0.1161643 -0.5177717 0.06542934 1.5559778 -1.8610938
1.2711828 1.0209259 0.35667488 -1.4039646 -0.81150234 -0.6741961 1.0861124 0.34558696
-0.52823603 0.4425654 0.003013724 -1.1240395 0.8916456 0.7877479 -1.1452103 2.1889608
1.4230868 -1.9391943 1.4255542 -0.2998834 0.5334539 -0.6490515 0.765481 -1.9227421
0.261144 0.31658223 2.989113 -0.7179075 0.9612579 0.09550619 0.4992482 0.4686499
-0.46977606 1.6203486 1.2303015 -0.33993953 0.31227106 1.8669918 1.5288962 -1.0359672
0.682839 0.16008674 1.4557353 0.7793483 -0.85822254 -0.64018327 -0.8290687 0.16030164
1.3146003 0.19438821 0.04558762 0.07352786 0.64872104 0.6889939 -1.1282812 -0.8340141

num_proj.weight f4 [16, 1]
00000000: b196 293e 0e95 4c3c 6650 64be 57ee aabe
00000010: af9b ba3e dbab 963a 1000 89bd d434 c5be
00000020: 7455 0f3e 2839 d03e 6c44 b93c 298c 6cbd
00000030: 90f6 c03d 4c26 103d bfc1 983e 34f1 89bc
0.1656139 0.012486709 -0.22296295 -0.33384964 0.36446902 0.0011495309 -0.06689465 -0.38516867
0.13997442 0.40668607 0.022615634 -0.057750855 0.09422028 0.035192773 0.29835317 -0.016838647

num_proj.bias f4 [16]
00000000: a68e b8be 0ee4 923d 73b0 19bf f347 493e
00000010: 0cb7 473e fcf9 533e c084 f7bd 531a 443e
00000020: e096 36bf 96e0 423d e91f 26bf 0c2a 2abd
00000030: 1fdf 4cbe bc6f 69be 39b7 283f 0016 143f
-0.36046332 0.07172404 -0.60034865 0.19656353 0.1950342 0.2070083 -0.12085867 0.19150667
-0.71323967 0.047577463 -0.6489244 -0.041544005 -0.20006989 -0.2279653 0.65904576 0.5784607

mlp.0.weight f4 [128, 272]
00000000: f16a e5bc 64d7 2c3c 6ff5 faba 11be be3c
00000010: c96b 3f3c dc80 753d b345 20bd 5d8b 133c
00000020: 1ab0 a2bd a507 00bd 1e61 41bd 15cf 9c39
00000030: 907b 453d deec 83bc a800 cf3c 02da 80bc
00000040: fa32 9dbb bc5f 853b f0f0 c13d 7128 423c
00000050: 5e5c e93d fd5b a43d 39ad dbbd d12d e0bd
00000060: ed91 b13c edf4 43bd 9313 d8bd 6df0 afbd
00000070: 1f12 1bbd 47c6 f03d 8696 1b3d 1a09 883c
00000080: 5a96 5a3d ac62 2abd 1df6 9a3d 0fb7 85bc
00000090: 715e 523d 0cfc b83c 9727 a5bc e462 35bc
000000a0: 41d7 623d a261 03bc b8de 3bbd 4f31 92bc
000000b0: d3bc 94bc 4484 2abd 61b4 45bc 84c6 283d
000000c0: e126 26bd 98a9 3d3d 9794 b1bc e5ad 82bd
000000d0: e139 af3c f819 b93c 36a6 033d a8c6 dbbc
000000e0: 4e5c 823c 37be 173d 6efc a63c dd13 0bbd
000000f0: b68f 5a3b 701a 2e3c 92a3 903c 109f 2cbd
00000100: 58fe 6fbd 66ba 5d3c c0ad d0bc fca0 96bc
00000110: 7c6a 0b3d 45b9 c03d eb9e 0abd fa5f 913c
00000120: f2e5 34bd 8ce4 09bc 14d9 5d3c ee60 63bd
00000130: 41c3 07bd 2b3a 01bd 9333 e6bb cc7a 82bd
00000140: 4bc3 9d3b 4c2c 5b3c 3a02 88bd de92 c43a
00000150: 53fd 723d f5b3 a9bb 779f 0c3d f8e1 0e3d
00000160: 7e61 88bc e9ae 943c 63f6 40bb f26f 78bd
00000170: 1e2e a03b cd01 d4bb 5fc6 373c c508 d43c
00000180: eba9 e33c 1a85 4e3d 8214 cfbd 8f12 4e3d
00000190: cefc 02bd 5d67 693d 93f9 7f3d 4eb3 5a3c
000001a0: ef26 c5bc 1d8d 213d 987c 0c3d 8404 3bbd
000001b0: bec1 833d 6228 8c3c c02f 9a3d 81d6 a53c
000001c0: 5bf3 553d 6779 d33c fe15 8fbd f24e c2bc
000001d0: 5040 863d 39f8 33bd e78a 88bd 6a0d df3c
000001e0: cdab 90bb 25c7 8a3d be86 ab3c def7 4f3d
000001f0: b03d 12bd b7e4 f33b 0a4b ff3b 9a5e 30bc
00000200: eaa2 573d d95a 553b e0d6 80bc a747 f43c
00000210: 5fe5 ef3c 5291 e23c b132 d4bc 56ce 5dbd
00000220: b72a 183b 3004 123c 9edf 4ebd 53db 22bd
00000230: 1de6 493d 7057 7b3c c33a 67bb 1db0 02bd
00000240: 9250 37bd 085c 033c 6ed3 413d 2a83 38bd
00000250: 8e67 583c 7e94 653d 43c0 57bd 4dbe 5bbd
00000260: 760e 01bd e920 533d 0100 72bd 55c6 4dbd
00000270: 1486 1b3d abb3 24bd 05ea 1c3d 79d6 56bd
00000280: 1db1 8ebc bb40 543d f2ba 15bd 6bf3 74bd
00000290: e500 6f3d 2c3f 903c 56c0 a6bd 709d 36bd
000002a0: 8020 913d 5036 013d 084d 943d 50f4 a9bd
000002b0: c692 033d 7586 633c 2f81 11bb 9fcd 8bbd
000002c0: 76df 503d bde2 133d 63ec debb 4992 8bbc
000002d0: 732a fa3c 9051 8a3d c6f0 98bd 7b9a 2ebc
000002e0: 41a1 753b 317b 2e3d 0558 8a3d 916b 6bbc
000002f0: f776 fd3c 5cee 713c d71d 3f3c 0448 66bd
00000300: ee93 aa3d 79f6 c23d 8b57 73bc bb7c 9d3b
00000310: ee70 353c 3839 103c 488b b93b e117 c8bd
00000320: a8b3 a13d daf0 dc3c 5dbd 483c b57b b2bd
00000330: a1f7 04bc e8be 663d 7db4 793d b7f5 82bd
00000340: 289a 11bd b84c f03c 126b ec3c 9c1e 39bd
00000350: 43b6 753b 8c58 9c3b 59de 43bd dae3 323d
00000360: b50e b0bc 25f4 4f3d b762 0dbd 9537 e33c
00000370: 10c7 35bd 1367 6bbc f2af cebc 93f1 8abc
00000380: 495c ac3a 98f8 0cbd b249 93bd bb37 75bc
00000390: 3799 0b3d 2b3c 34bd d3a5 2c3c 9a6d 3ebd
000003a0: 1441 0abb 5a69 30bd ffbd 33bd 86c8 1cbc
000003b0: af03 f93c 0850 f63c feb1 543c 29e1 823c
000003c0: 6846 dcbd 6358 92bd 6f05 eb3d 3362 fb3d
000003d0: 6e91 bcbd a72a 76bd 9b98 073d 23de 023d
000003e0: d19f 10be ddde f6bd 38d1 febd 39ac fc3d
000003f0: ada3 d7bd 98ec 89bd 208d 07be 3744 9b3d
-0.028005095 0.0105494 -0.0019146631 0.02328399 0.011683413 0.059937343 -0.03912897 0.009005395
-0.07943745 -0.03125729 -0.04721176 0.00029908927 0.04821354 -0.016104158 0.025268868 -0.015728954
-0.0047973366 0.0040702503 0.09469783 0.011850462 0.11394571 0.08025358 -0.10726399 -0.10946239
0.021676028 -0.047841 -0.105506085 -0.085907795 -0.03785908 0.117565684 0.037985347 0.016605902
0.053366043 -0.041598007 0.07566474 -0.01632264 0.051359598 0.022581123 -0.02016048 -0.011070941
0.055381063 -0.008018883 -0.045866698 -0.017845778 -0.018156445 -0.041630045 -0.012066931 0.041204944
-0.04056442 0.046304315 -0.021677298 -0.06380824 0.021389904 0.02259539 0.032140933 -0.026828125
0.015913155 0.037046637 0.02038404 -0.03395449 0.0033349819 0.01062642 0.017656121 -0.04214388
-0.05859217 0.01353321 -0.025473475 -0.01838731 0.0340371 0.09410337 -0.033842962 0.01774596
-0.044164605 -0.008416306 0.013540525 -0.05551236 -0.033145193 -0.031549614 -0.007025191 -0.06371078
0.0048145405 0.01337726 -0.0664105 0.0014997383 0.05932362 -0.0051789233 0.034331765 0.03488347
-0.01664805 0.01814981 -0.0029443733 -0.060653634 0.00488831 -0.006469941 0.011216729 0.025883088
0.027790984 0.050419904 -0.101113334 0.050310668 -0.031979375 0.05698334 0.062493872 0.013348414
-0.024066417 0.039441217 0.03429851 -0.045658603 0.06433438 0.0171091 0.07528639 0.020243885
0.052234035 0.025814725 -0.069866166 -0.023719285 0.065552354 -0.043937895 -0.066671185 0.027228076
-0.0044150115 0.06776265 0.020938274 0.050773494 -0.03570336 0.0074430364 0.007790928 -0.010764742
0.0526456 0.003255537 -0.01572746 0.029819323 0.029284177 0.027657185 -0.025903078 -0.054151855
0.002321882 0.008912131 -0.050506227 -0.039759945 0.04929172 0.015340671 -0.0035282827 -0.031906236
-0.044754572 0.008017547 0.047320776 -0.045046963 0.013208283 0.056049816 -0.05267359 -0.05364828
-0.03150793 0.051545057 -0.059082035 -0.050237972 0.037969664 -0.040210407 0.038309116 -0.05245063
-0.017418439 0.051819544 -0.036555238 -0.059802454 0.058350462 0.017608248 -0.08142154 -0.044583738
0.07086277 0.031545937 0.07241255 -0.08298552 0.032122396 0.0138870375 -0.0022202244 -0.068263285
0.05099436 0.036104906 -0.006803082 -0.017037528 0.03053782 0.06753838 -0.07467799 -0.010656948
0.0037480148 0.042597953 0.0675507 -0.014368908 0.030940516 0.014766302 0.011664829 -0.056221023
0.083289966 0.09519667 -0.014852415 0.004806129 0.011074288 0.0088027045 0.0056623556 -0.097701795
0.07895595 0.026970316 0.012252179 -0.087150015 -0.00811568 0.056334406 0.060963143 -0.06394523
-0.035547405 0.029333457 0.028859649 -0.045195207 0.003749267 0.004771298 -0.04781947 0.043674327
-0.021491388 0.050769944 -0.03451797 0.027736465 -0.044379294 -0.0143678365 -0.025230382 -0.016960895
0.0013150062 -0.034416765 -0.07191791 -0.0149669 0.034081664 -0.044002693 0.010537582 -0.046491243
-0.0021095918 -0.04306922 -0.043882366 -0.009569293 0.030397264 0.030067459 0.01298189 0.015976505
-0.107556164 -0.07145765 0.11475646 0.122745894 -0.09207426 -0.06009927 0.03310452 0.031950127
-0.14123465 -0.120542265 -0.12442249 0.12337536 -0.105292656 -0.0673458 -0.13237429 0.0758137

mlp.0.bias f4 [128]
00000000: 2651 273d 45ad 073d 4ae9 7fbd 2de7 7a3d
00000010: 16e8 a0bc 129b dfbc 2ae1 613d 1664 993b
00000020: bb2e f6bc 0d4b 353d 1dfa 1fbd 4dc3 073d
00000030: 6a03 5c3c df71 56bd df2c 29bd 396b 073d
00000040: 7b45 6a3d 1d0a bfbc 5971 033d 749b ddbc
00000050: fb6d 4bbd afa3 27bd 35c4 27bc e152 ed3c
00000060: 0533 d53c e403 84bc 77d5 5c3c 8a05 45bd
00000070: c981 063d 449b 62bc bb89 c5bb 4797 95bc
00000080: 121c 1f3d b234 82bd 1847 40bd f799 0f3d
00000090: a3f7 003c 916b 823d c35d 4e3d 671d f5bc
000000a0: c776 17bd ff37 1a3d e79d 603c f2b8 d6bc
000000b0: 0489 39bd 7c87 fe3c 3595 5bbd f440 783d
000000c0: 5bd8 d9bc ebda a6ba 2790 853b 3b44 96bc
000000d0: 0bfd 59bc 95e3 cb3c 2b92 0cbb 7826 debb
000000e0: b678 b7bc 02a4 a7bc 69a3 113d a470 9bbc
000000f0: 6f76 973c 4c6f 3dbc 9543 20bc ba3a cc3c
00000100: 22f0 e0bc 703d 8bbc ef25 403c ca9d f4ba
00000110: b62a 2f3d 68d9 e73c cd67 57bd b174 fdbc
00000120: 9771 d7bc 9033 1cbd 7b36 0abd 1855 443c
00000130: 9057 3d3d 31e7 a03b e4bc 0abd df16 4a3d
00000140: cf34 f8bc 592d 793d e1ef 843c f35d 783d
00000150: b933 64bd 65a6 183d f5d9 693d bdf5 5a3d
00000160: c81b 133d bd91 3cbd 895c 6fbd c3d8 85bc
00000170: 8f4b 783c 2792 63bd f966 e23b f28c b23c
00000180: 5a39 6dbb 0ded 08bd 739c 29bd f302 18bd
00000190: 68e2 313b dd25 a0bc 4176 913a 3f66 5e3d
000001a0: a9bd b03c faf1 9a3c 7bab ec3c 6350 233b
000001b0: fc39 cd3c 0532 483d be7c 31bc 88db ab3c
000001c0: c793 8b3c f90c 00bc 8a63 dcba 27fd e23c
000001d0: 51a8 263d 40a8 423d 54ed 35bd 0ec6 36bc
000001e0: 631b d63c 120d 9ebc f953 4f3d b3f7 0fbd
000001f0: c33a b7bb c387 853d 1468 9c3c c8fe 7b3c
0.040848874 0.033124227 -0.06247834 0.061255623 -0.019641917 -0.027295623 0.055146374 0.0046811206
-0.03005158 0.044261027 -0.039056886 0.033145238 0.013428548 -0.05235469 -0.041302558 0.03306124
0.057195168 -0.023320252 0.03209052 -0.027051665 -0.049665432 -0.040927585 -0.0102396505 0.028970184
0.026025305 -0.016115136 0.013478628 -0.048100986 0.032838617 -0.0138309635 -0.0060283816 -0.018260611
0.03884513 -0.06357707 -0.0469428 0.03505894 0.007871541 0.06368173 0.050382387 -0.029921247
-0.03697851 0.03765106 0.013709522 -0.026211236 -0.045296684 0.031070463 -0.05360909 0.06060882
-0.026592424 -0.0012730038 0.004076022 -0.018343082 -0.013304959 0.024888793 -0.0021449428 -0.006779488
-0.022396427 -0.020463947 0.03555623 -0.01897461 0.01848909 -0.01156218 -0.009781738 0.024930347
-0.027458254 -0.01699707 0.011727794 -0.0018662747 0.04276534 0.02830191 -0.052589227 -0.030939432
-0.026299281 -0.03813511 -0.033743363 0.011983179 0.046226084 0.0049103727 -0.033871546 0.049338218
-0.030298619 0.060834263 0.016227664 0.060636472 -0.05571339 0.03726806 0.057092626 0.05345701
0.035915166 -0.046037424 -0.058437858 -0.016338712 0.015154733 -0.055559304 0.006909248 0.021795724
-0.0036197514 -0.033429194 -0.041408967 -0.037112188 0.0027143005 -0.019549305 0.0011097864 0.05429673
0.021574812 0.018914212 0.028890362 0.002491974 0.025052063 0.048875827 -0.0108329635 0.020978704
0.01703824 -0.007815593 -0.0016814333 0.027708603 0.040687863 0.047523737 -0.044415787 -0.011155618
0.026136106 -0.019293342 0.050617192 -0.035148334 -0.0055917217 0.06520035 0.019092597 0.015380569

mlp.1.weight f4 [128]
00000000: fa4f 873f 276f 883f 33d2 833f dfdf 613f
00000010: 552c 803f 58fe 5b3f 2272 703f ed14 7c3f
00000020: 2c2a 633f beab 723f c02d 803f 3218 8b3f
00000030: b3c0 693f d625 593f 30b2 643f 6932 843f
00000040: 3dd9 823f 0621 693f 7b69 6d3f 3baf 833f
00000050: 956b 723f 080b 7e3f d8cd 853f 00ea 813f
00000060: 7d9a 623f c009 6a3f fa99 813f 5767 753f
00000070: 42e5 723f a296 703f b13b 673f 0103 893f
00000080: 1ee4 873f e429 863f fde6 813f 3eb9 893f
00000090: 1e9c 653f b644 6e3f 1e23 873f 1600 8a3f
000000a0: 11ed 853f 761c 623f ab55 713f 60a6 6c3f
000000b0: f790 8a3f 72bf 673f 9e75 6e3f 0863 823f
000000c0: 5814 6a3f 4ee2 793f d542 833f 0e01 793f
000000d0: 5769 613f 9b02 823f e3ae 833f 62a9 793f
000000e0: fb2c 853f c3aa 823f 060d 7f3f 5116 883f
000000f0: 94da 6a3f 826c 6e3f 0a36 7c3f c941 6e3f
00000100: 2e48 713f dc51 763f 5b40 813f 4c29 723f
00000110: ab61 5c3f 941c 683f e6d2 6f3f 9705 7a3f
00000120: 6cce 813f 8c76 713f f819 5f3f fd21 793f
00000130: c400 853f bb57 6d3f a4a1 803f f4b4 853f
00000140: 45d5 8d3f 9fe3 843f 1f93 733f b8f3 843f
00000150: 65f0 663f ed2e 8c3f aab7 883f 001b 783f
00000160: 3a0f 723f 2403 7a3f 863d 793f fdd1 823f
00000170: e06a 863f 7450 853f a6be 723f 6b08 713f
00000180: 0a07 593f c5ed 683f 6da8 853f ff26 853f
00000190: 8fa6 5d3f 9f37 883f ace1 6f3f 5516 8a3f
000001a0: a711 7d3f 06d1 823f 5384 7e3f 6505 6b3f
000001b0: b373 863f 66e3 753f e755 803f bd1d 803f
000001c0: efaf 863f 88d5 843f ed89 833f 0851 733f
000001d0: 0721 7c3f 1e9c 783f 1199 703f ad29 813f
000001e0: 937c 6f3f aece 753f 5c2b 803f 9fae 7a3f
000001f0: 518d 6e3f f0dc 863f eb49 6e3f 0eb4 833f
1.0571282 1.0658921 1.0298523 0.88232225 1.0013529 0.8593497 0.9392415 0.9846943
0.88736224 0.9479331 1.0013962 1.0866759 0.9130966 0.8482336 0.8933439 1.0327884
1.0222546 0.91066015 0.92739075 1.0287851 0.9469541 0.9923558 1.0453444 1.0149536
0.8851698 0.9142113 1.0125115 0.9586081 0.9488107 0.9397985 0.90325457 1.0704042
1.0616491 1.0481534 1.0148617 1.0759656 0.8969134 0.93073595 1.0557592 1.0781276
1.0462972 0.8832468 0.94271344 0.9244137 1.082549 0.905265 0.9314822 1.0186472
0.9143729 0.9761094 1.025477 0.97267234 0.8805136 1.0157045 1.0287746 0.9752408
1.0404352 1.0208362 0.9962925 1.063181 0.91739774 0.9313432 0.9851996 0.9306913
0.9425076 0.9621866 1.0097765 0.94594264 0.8608653 0.90668607 0.9368118 0.9766478
1.014112 0.94321513 0.87149 0.97317487 1.0390859 0.9271199 1.0049329 1.0445848
1.108071 1.0381964 0.95146364 1.0386877 0.9021056 1.0951821 1.068105 0.969162
0.94554484 0.9766104 0.973595 1.0220333 1.0501366 1.0415177 0.94822156 0.9415347
0.84776366 0.9098781 1.0442024 1.0402526 0.86582273 1.0641974 0.9370372 1.0788065
0.9885506 1.0220039 0.9942066 0.91805106 1.0504059 0.9605011 1.0026215 1.0009075
1.0522441 1.0377665 1.0276467 0.9504552 0.98487896 0.97113216 0.9398356 1.0090843
0.9354946 0.96018493 1.0013232 0.979227 0.9318438 1.0536175 0.9308154 1.0289323

mlp.1.bias f4 [128]
00000000: e207 8ebd bf8e 9dbc cee5 8d3d 9d0c f3bd
00000010: 40ac f7bc d6e1 15be 0c0c 2bbe a74a 41be
00000020: 3eda 30be b48f 23be 2043 5a3d 5dbb 58bd
00000030: febc 30be 28fd 3bbe d4dc 15be 5bb5 e4bd
00000040: fc90 7dbe 93db bbbd 69a6 0bbe d25f 9bbd
00000050: 82e1 56be e4b5 47be 814b 83bd fcd8 4cbc
00000060: 5fde 2bbe d050 16be 779c 98be fe3f 51bd
00000070: 3472 dcbd 21a4 3abe cb5e 44be acce a6bd
00000080: 6514 52bd 4112 2b3d 918c 55bd 64a4 32bd
00000090: 91b2 1bbe 75a5 0dbe 5326 26bc af1b c23a
000000a0: 2754 5a3c 4511 1ebe 6ed6 44bd 5aa5 f5bc
000000b0: 0793 92be 2d71 e6bd a09f f0bd 7f85 3cbb
000000c0: 4cba c7bd 422f 17be 9128 3d3d e9b8 31be
000000d0: 117b 27be 5cbe 42be 68fc 62be b01f 92be
000000e0: 93d9 3dbd aea9 763d 197f 22bd 2b87 20be
000000f0: 6b93 d6bd 191d 90bd 53ec 29bb 9177 5ebd
00000100: 6015 e2bd af24 c9bc ca0e dabd 9098 343c
00000110: 55c7 27be 3693 babd ad85 85be f333 c3bc
00000120: b365 08be 03fb 1fbe 18aa 13be 58ee 39bc
00000130: c286 c93c 86f1 90be ce28 9ebd 8640 343d
00000140: 9d10 0fbe d7ef 79bb d736 283c 97f9 58be
00000150: 0529 5bbe f14b 713d a038 03be 201c 3a3d
00000160: 995a 4abd 5601 d9bd e3f5 d2bd c5db 97bd
00000170: 0334 f1bc 0b87 90bd 9a16 bcbd 9ae2 31bd
00000180: a3ce 27be 7242 f2bd b937 533d 315b 59bd
00000190: 5ea3 46be f250 10be cdde 3abe a7dd 913c
000001a0: 8092 04be 72e9 e33c a324 81be ee88 c7bd
000001b0: 3dc9 193d ad07 f7bd 3e1e 6fbe c212 b6bd
000001c0: a045 37bd bc2e 283d 3859 b83c 7dfd 39bd
000001d0: 4b72 5c3d 7139 85be ba2d 1abe 21d4 e3bc
000001e0: f256 98bc 024b 07bd d1ec 56be 1b2a 91bd
000001f0: 2295 86bc 1624 04be 509a 62be 2f79 e1bc
-0.06935097 -0.019233106 0.069285974 -0.1186764 -0.030233502 -0.14636931 -0.16703814 -0.18876134
-0.17270753 -0.15972787 0.05328667 -0.05291306 -0.17259595 -0.1835829 -0.1463502 -0.11167403
-0.24762338 -0.0917274 -0.13637699 -0.07586636 -0.20984462 -0.1950298 -0.064108856 -0.012502905
-0.16784047 -0.14679265 -0.29806873 -0.05108642 -0.1076397 -0.18226673 -0.19176786 -0.08144888
-0.05128898 0.041765455 -0.052136008 -0.043613806 -0.15204836 -0.13832648 -0.010140973 0.0014809276
0.013325728 -0.15436275 -0.04805606 -0.029986072 -0.28627798 -0.11252055 -0.11749196 -0.0028766093
-0.0975233 -0.14764121 0.046181265 -0.17355694 -0.1635554 -0.19017929 -0.22166598 -0.285398
-0.046350073 0.060220413 -0.03967199 -0.15676562 -0.104773365 -0.070368 -0.0025928214 -0.054313246
-0.11039233 -0.024553625 -0.10647352 0.011022702 -0.16384633 -0.091101095 -0.2607855 -0.023828482
-0.13320045 -0.15623097 -0.14420354 -0.0113483295 0.02460039 -0.28309268 -0.077226266 0.044006847
-0.13971181 -0.003813734 0.010266981 -0.21188961 -0.21402366 0.058910314 -0.1281457 0.04543698
-0.049402807 -0.10595958 -0.103008054 -0.074149646 -0.029443746 -0.070570074 -0.091839984 -0.043428995
-0.1638742 -0.1182908 0.051566813 -0.053065483 -0.19398257 -0.14093378 -0.18249054 0.017805887
-0.1294651 0.027821276 -0.25223264 -0.09742914 0.03754543 -0.12062011 -0.2335138 -0.088902965
-0.044744134 0.041060194 0.02250348 -0.04540776 0.053819936 -0.26020387 -0.15056506 -0.027811112
-0.018596146 -0.033030517 -0.20988776 -0.07088109 -0.016428534 -0.1290439 -0.22129178 -0.027523605

mlp.1.running_mean f4 [128]
00000000: 4c01 8ebe 73e7 9c3e c7fc b83d 1019 b7be
00000010: 66d6 96bf fe9f 813e 0ec4 3f3e 365d 96be
00000020: 5ce3 3cbe 743e 27be 8c1e 9a3d fc1b cfbe
00000030: 8d10 3c3f 6119 2bbe 8b08 233f 1848 873c
00000040: a47c 593e cf74 9cbe 2b60 ea3e 31e2 933e
00000050: 5240 49be 1d68 31bf 810f e53d 5c8d dcbe
00000060: 72cf df3e 1824 043f bff0 93bd c4ba 27bd
00000070: 076c 1a3f 71bf 053f b0d6 6abd 98e2 553e
00000080: 301a 143e c9db f13d a0a5 64be 02d8 013f
00000090: 41ee 9bbe 2ce0 3f3f 9000 86be f9fc 21bd
000000a0: 7ff5 823d 38cc e13e 381f 373f cfb7 253e
000000b0: a824 cabd bf99 f13e 3617 a33d 2076 ef3e
000000c0: 016d 47bf 3dae cd3c a8bd be3d beeb 1dbf
000000d0: 746a 013e e911 1abf c339 71bf 189f 49be
000000e0: 62ba 05be 25c9 edbe 35d5 10be 8416 03bf
000000f0: 7e1e 7d3e ee77 0e3f 1391 16bf e866 efbc
00000100: 80fc 973e 2473 a7be f7ff 82bd 44f6 60bd
00000110: c64e 533e cc3c 023f d12a 60be 138b 82be
00000120: ec5d 99be 135d 5fbe fe31 963e 79d8 0c3f
00000130: e2f2 223e 0b26 f63d b65f d4be 06ec 943d
00000140: 9f01 81bf 315c 6bbd 60a7 053e b5bc ae3d
00000150: fd93 fabd 91da cd3c 8796 b1be 9398 423d
00000160: 13d9 06be 476c 0b3f 7e24 a03d 323f 9f3d
00000170: a1d1 963d a588 40be 56bb 8f3e 95e4 343f
00000180: 59cc 0bbe 7528 a9be 5384 32bf 05f2 31bf
00000190: 2515 19bf b788 4abf 6d29 903e da0d 843e
000001a0: 427b aa3e d497 9fbe e600 ccbd 49f7 f63e
000001b0: 5276 b2be e329 383f 8558 5ebf 1f57 04bf
000001c0: 4827 0ebe 85e9 1ebe b192 163f 7ecc a83e
000001d0: 487f d4be e810 743e a99d e2bd 08c3 23be
000001e0: 99ac 883d d552 c3be 68e1 d5be 5c2f ce3e
000001f0: e0b8 2abf 412d a0bd 8916 00be 12a2 873e
-0.27735364 0.30645332 0.090325885 -0.3576131 -1.1784179 0.25317377 0.18727133 -0.2936799
-0.18446106 -0.16332418 0.075253576 -0.40451038 0.73462754 -0.167089 0.6368491 0.01651387
0.21238953 -0.30557868 0.45776495 0.28883508 -0.19653443 -0.6929949 0.11184598 -0.430766
0.43712956 0.51617575 -0.07223653 -0.040949598 0.60321087 0.5224524 -0.05733365 0.2088722
0.14463115 0.11809499 -0.22328806 0.50720227 -0.3045521 0.74951434 -0.26172304 -0.039547894
0.06394481 0.4410112 0.7153201 0.16183399 -0.09870273 0.4718761 0.079634115 0.4676981
-0.779007 0.025107497 0.09313518 -0.6168784 0.12638265 -0.6018358 -0.9422876 -0.19689596
-0.1305938 -0.46442524 -0.14143832 -0.5120623 0.24718663 0.5565175 -0.58815116 -0.029223874
0.2968483 -0.32705033 -0.06396478 -0.054922357 0.20635518 0.5087402 -0.21891333 -0.2549673
-0.2995447 -0.21812849 0.29335016 0.5501781 0.15912965 0.12018975 -0.41479272 0.072715804
-1.007862 -0.057460967 0.1305213 0.08532087 -0.12235258 0.025128635 -0.34685156 0.047508787
-0.13168745 0.54462093 0.0781946 0.077757254 0.07364202 -0.18802126 0.28072613 0.7066129
-0.13652171 -0.3303868 -0.6973316 -0.6950992 -0.5979789 -0.7911486 0.28156605 0.25791818
0.33297163 -0.31170523 -0.09961109 0.4823554 -0.34855896 0.71938914 -0.8685382 -0.51695436
-0.13882172 -0.15518768 0.58817583 0.32968515 -0.41503358 0.23834574 -0.110652275 -0.15992367
0.066735454 -0.38149133 -0.41773534 0.40270507 -0.66688347 -0.078211315 -0.12508596 0.26490837

mlp.1.running_var f4 [128]
00000000: 3929 1e3f 8cff 223f e542 1c3f 035e ef3e
00000010: 57ff a43e 59a0 0a3f 7f2d 923e e161 b23e
00000020: 7d93 f53e e37d de3e 3331 413f ac58 d23e
00000030: 0dae 183f 40c0 d63e d6b4 b93e a826 0d3f
00000040: cc59 bf3e ac64 ec3e 9410 e73e bb22 e33e
00000050: 710f 063f 526d df3e bcea 313f 854c 0b3f
00000060: e4b9 b53e c2f7 df3e cbd0 a73e dc12 463f
00000070: 0ae3 2b3f 5240 0f3f 77c8 c93e 56b5 083f
00000080: ed9e 1d3f 492d 113f c70d ec3e 2643 ba3e
00000090: 08d0 783e 9571 ab3e e020 2c3f 5e94 303f
000000a0: 33ae 233f 16ea f93e d75d 2b3f 6dcb 293f
000000b0: 3226 a03e 6529 ab3e 3ae9 ce3e 22df 143f
000000c0: b7e4 093f dd5a a03e da4e 3c3f 5223 903e
000000d0: 142b d13e 449a cc3e 98bb f43e 886b ad3e
000000e0: dcf1 463f a80b 0f3f 6e65 323f 67e7 ee3e
000000f0: 38b3 f93e 008c 1c3f b880 fb3e cc00 a53e
00000100: 0f26 a53e 2b07 0c3f f0b2 323f 6915 013f
00000110: 530c f43e 3ede e03e b818 e53e 780b e03e
00000120: 68c1 d03e 7ddd 173f 5e4b 143f 7720 c93e
00000130: ce7d e23e 8d3c ae3e 2072 e13e 9ddc 363f
00000140: 7fcd a73e fbc8 183f 84fe 013f 88b1 bc3e
00000150: 821b 0d3f b9fe 913e ac29 e43e 6dee eb3e
00000160: e68b ba3e 8ed5 f63e 0eb1 bd3e fd2f 503f
00000170: ab9d 293f 74d1 193f e67b a23e 0a2e ce3e
00000180: 4db6 663e b4a9 e73e 0eb6 ad3e f72d f03e
00000190: 1e3f d23e e84f 193f 4c72 073f ba58 043f
000001a0: 3a9c f13e 7af6 113f 8ff2 7a3e 4a0f 9a3e
000001b0: 536c df3e 03ae c23e fe3e fe3e 280e 8f3e
000001c0: 390c 563f ccd3 383f 8aed 153f 036d da3e
000001d0: 159e 0e3f 328f d63e f152 2d3f b910 603f
000001e0: 2f41 d13e 177e 303f 6cc8 be3e 1b81 f13e
000001f0: 25a0 de3e 6b38 f63e 55a4 973e 74b8 183f
0.6178165 0.63671184 0.6103957 0.46751413 0.3222606 0.5415092 0.28550336 0.348403
0.47964087 0.4345542 0.754657 0.41083276 0.5964058 0.4194355 0.3627078 0.5513711
0.37373197 0.46170557 0.45129836 0.44362435 0.5236731 0.43638092 0.694988 0.54413635
0.35493386 0.43743712 0.32776484 0.7737253 0.6714331 0.5595752 0.39410755 0.53401697
0.61570626 0.56709725 0.4610426 0.36379355 0.24298108 0.33485094 0.67237663 0.6897639
0.6393768 0.48811406 0.66940063 0.6632603 0.3127914 0.3343002 0.40412313 0.58152974
0.53864616 0.31319323 0.7355782 0.28151947 0.40853179 0.39961445 0.47799373 0.33871102
0.777128 0.5587716 0.6968602 0.4666092 0.48769546 0.61151123 0.49121642 0.3222717
0.322556 0.5469844 0.69804287 0.50423294 0.47665653 0.43919557 0.4474542 0.4375875
0.40772557 0.5932234 0.579275 0.3928258 0.44236606 0.34030572 0.44032383 0.7143038
0.3277397 0.5968167 0.50778985 0.36854196 0.551201 0.2851465 0.44563043 0.46080342
0.3643486 0.48209804 0.37049145 0.81323224 0.6625621 0.60085225 0.31735152 0.402695
0.2253048 0.4524666 0.3392796 0.46910068 0.4106378 0.5988755 0.5290878 0.51697886
0.47189504 0.5701672 0.24506591 0.3008979 0.43637332 0.38023385 0.49657434 0.27940488
0.836124 0.72198176 0.5856558 0.42661294 0.55709964 0.41906124 0.67704684 0.87525517
0.40870044 0.689424 0.37262285 0.47168812 0.43481556 0.48089918 0.29617563 0.59656453
