backend/models/deepfm.pt (torch, 187577 bytes, 22 tensors)

embedding.embeddings.0.weight f4 [10, 16]
00000000: b06c 8d3e f219 9ebe 50ec 92bf c849 d2bf
00000010: 6578 553d 1b25 cd3f 7d9a 8c3f 7106 22c0
00000020: 2ea4 4e3f c9ec 4d3d d058 9fbe 8c85 cfbe
00000030: b0b3 97be 1c25 e23e fb76 81bf e6bd aa3f
00000040: 48b7 0cbf 6f83 d3bf e79b d13e 8cf8 c13e
00000050: f09b 17bf 2a91 643f 85e4 03bf 9d77 1ac0
00000060: 09c0 97bf 3276 3f3f e945 af3d 55d0 893f
00000070: 9c1f 293f 4014 e6be c938 e13f 650b 9dbf
00000080: f00d ebbf d6ce 96be 6e85 1b3d 1d42 2cc0
00000090: 7c2e 89bd 987e 29bf 8935 313e a8a9 2ec0
000000a0: 71b6 8abf a7dd 1240 3f2d 373f 9654 903f
000000b0: 3bac 28bf 9660 0a3e 2da9 c93d 1363 a1bf
000000c0: 3fc6 a13f 58f3 7c3f c32f d83e 886a 60bf
000000d0: 739f dfbf b66a b7bf 9251 ddbf 457c 38be
000000e0: 17b7 dabf 463e 8e3e ab0d de3e 36cb 9a3f
000000f0: 1951 923d 9186 a83f b4b7 2f3f 3764 003f
00000100: b711 743f f8d3 bf3f 424e d6be 1810 90bf
00000110: b8c8 2d3e 5851 05bf beaa 4cbf c431 0c3f
00000120: e796 c33e 05c6 863d 675b cfbe 261b 9d3f
00000130: 2ab8 40bf 99ed f3be 034f 39bf 242d 3abf
00000140: 807a 423f bfec 683f 9602 56be 7376 1ebf
00000150: 8ef6 81be 64b1 ccbf d551 b1bd 4107 6ebf
00000160: 7b4a 633e 86a9 173e e4c2 dd3e e2ea a83f
00000170: 75b2 38bf bcfb b3be 13da 83bf e7e0 14bf
00000180: 5b16 43bf 6180 953c d8df fcbe 8115 bf3f
00000190: 678d cdbf 5799 4cbf 5196 63bf 8026 a4bf
000001a0: 4f94 34bf d4ac 1f40 404f 58be e2f4 25bf
000001b0: 6001 b63e 0e7a 53be d4b6 493f 010a 5bbf
000001c0: 22f5 183f 839d 7cbe 99af 633e 2c2d b3bd
000001d0: ff0a 823f 58e7 2cbf 7833 a03f fedc c5bf
000001e0: 5a5d a8bf fed5 853e 14c8 36bf 3736 f43f
000001f0: fe51 8dbf 7380 c0be 9143 cc3f 28a5 3bbf
00000200: b462 833f e875 9f3f 6935 45bf ecb8 7ebf
00000210: fcfb 3abe 944c bd3e 4308 87bf 3cf1 6c3e
00000220: 264e dbbd bd3f e4be 9f00 14bf fa19 2a3f
00000230: cb0d 8a3f 7510 b23f 0f29 1e40 a8fc 1b3f
00000240: 9893 d43f 476d 1fbf de94 2abf 0d91 043f
00000250: d3b7 b43f af2b c0bf f57f 70bf 89b6 0a3f
00000260: 3e6d babf 2cf7 bdbe 9b00 6ebf 87f3 cebf
00000270: ae96 7b3e 4ad2 80bf 3eec ac3e d3ff 8abe
0.27621984 -0.3087917 -1.1478367 -1.6428766 0.05211677 1.6026949 1.0984646 -2.5316432
0.8071927 0.050274644 -0.31122446 -0.40531576 -0.29629278 0.44168937 -1.0114435 1.3339202
-0.54967165 -1.6524485 0.40939257 0.3788494 -0.59222317 0.89284 -0.5152057 -2.4135506
-1.185548 0.74789727 0.08558256 1.0766703 0.6606386 -0.44937325 1.7595454 -1.2269102
-1.8363628 -0.29454678 0.037969045 -2.6915352 -0.06698319 -0.6620879 0.17305578 -2.729105
-1.0836927 2.2947786 0.71553415 1.1275814 -0.658878 0.13513407 0.09846721 -1.260836
1.2638625 0.98808813 0.4222394 -0.87662554 -1.7470535 -1.432944 -1.7290518 -0.18016155
-1.7087125 0.27781886 0.43369803 1.2093265 0.071443744 1.3166066 0.68639684 0.50152916
0.9533953 1.4986563 -0.4185658 -1.1254911 0.169711 -0.52077246 -0.7994803 0.54763436
0.38201067 0.06580738 -0.40499422 1.227391 -0.7528101 -0.4764221 -0.7238619 -0.7272513
0.7596817 0.90986246 -0.20899424 -0.6189949 -0.2538342 -1.5991635 -0.08658186 -0.9297982
0.22196381 0.14810762 0.43312752 1.319668 -0.72147304 -0.35152996 -1.0300926 -0.58155674
-0.76205987 0.018249692 -0.4938953 1.4928437 -1.6058778 -0.7992148 -0.8890124 -1.2824249
-0.705388 2.4949236 -0.21123981 -0.64826787 0.35547924 -0.20652029 0.787946 -0.8556214
0.59749043 -0.24669461 0.22234954 -0.0874885 1.0159606 -0.675405 1.2515707 -1.5458066
-1.3153489 0.26139826 -0.71399045 1.9079045 -1.1040647 -0.37598 1.595812 -0.73298883
1.0264497 1.2457857 -0.7703462 -0.9950092 -0.18260187 0.36972487 -1.0549396 0.23138899
-0.10708265 -0.44579878 -0.5781345 0.6644589 1.0785459 1.3911272 2.471256 0.609324
1.6607542 -0.6227612 -0.66633403 0.5178383 1.4118599 -1.5013331 -0.93945247 0.54184777
-1.4564588 -0.3710264 -0.92969674 -1.6168069 0.24569198 -1.0064175 0.33773988 -0.27148303

embedding.embeddings.1.weight f4 [3, 16]
00000000: 5d39 99bf 90b9 993f 61b0 0040 dd95 d0bf
00000010: 31a8 a4be 0e01 89bc 1d57 003e a9b1 7fbe
00000020: e6ea cdbf 82ae abbe 1804 e53e 6df6 903f
00000030: 47af 423f f040 b4be 1e8f 6c3f de00 253f
00000040: 1604 523d acff 2140 14af 143f 1151 5ebf
00000050: 149d fabf 73bc 0abf 3141 cfbf c521 f7be
00000060: a560 9cbf 781d 0ebf b781 86be 7d8b 573f
00000070: 0e50 a03f 662f 593f 7356 063e 7ad0 343f
00000080: a59e 623f d5f3 dabe 7883 403f 6e6c 863e
00000090: ca77 b43e dc05 4abf 2954 73bf 2ab9 3ebf
000000a0: da65 a03e 0057 85bf 8634 dd3d ca64 c13e
000000b0: e677 223d a78f b83f fccd 00c0 a40c ffbf
-1.1970631 1.2009754 2.0107653 -1.6295735 -0.3215957 -0.016724136 0.12533231 -0.24970116
-1.608731 -0.33531576 0.44729686 1.1325203 0.760487 -0.35205793 0.9240588 0.6445445
0.051273428 2.53123 0.5807965 -0.8684245 -1.9579186 -0.541938 -1.619177 -0.48267952
-1.2216994 -0.55513716 -0.2627084 0.8419722 1.2524431 0.8483795 0.13118915 0.7063061
0.8852332 -0.42764154 0.75200605 0.262546 0.35247642 -0.7891519 -0.95050293 -0.7450129
0.31327707 -1.0417175 0.10801034 0.37772208 0.039665125 1.4418839 -2.0125723 -1.9925733

embedding.embeddings.2.weight f4 [2, 16]
00000000: c647 21bf 3744 e13e a19f 283f 655a 963e
00000010: c9f5 5e3e ce54 e03f 609a 583c 53d9 51be
00000020: 4ea8 25ba 6fff aa3f 0c23 923f d665 be3f
00000030: da6d 90bf 523f 1abf 4459 ef3e 4d00 693f
00000040: 08f9 29be d047 083f 5fae b1bf 60f6 7cbf
00000050: 4989 c73f e394 a73f 77f2 b2bf e9ff 3d3e
00000060: a7c4 88bf 6dfa 943f 7821 41bd b835 bb3f
00000070: 8048 d93e d42a 583d 2bdc a03f 5f26 31bf
-0.6300014 0.43997356 0.65868574 0.2936584 0.21773447 1.752588 0.0132204 -0.20493059
-0.000631933 1.3359202 1.1416945 1.4874828 -1.1283524 -0.6025287 0.46747792 0.91016084
-0.16598904 0.5323458 -1.3881339 -0.9881344 1.5588771 1.3092312 -1.3980244 0.18554653
-1.0685014 1.1638924 -0.04715106 1.4625769 0.42438126 0.05277522 1.256719 -0.69199175

embedding.embeddings.3.weight f4 [8, 16]
00000000: f6a2 61be 15f9 9dbf 15f0 1c3f d4ad 233e
00000010: d44c 65bf a93d 8c3e 596b 9bbf d392 df3e
00000020: 62bd 263e 7476 07bf 9193 82bf b9fd 053f
00000030: 9f48 8ebf c997 1a40 01c3 13c0 61e0 69bf
00000040: cec8 9e3f 9804 133d 156b d7bf e763 99bd
00000050: 4c9d 8fbf 216c e0be 8d17 b8bf 5a0b 86bf
00000060: 99b3 743f 43d9 ad3f 51b8 d3bf cddc 873f
00000070: 3c6d 913e 7720 68be 1844 8dbf bf8f cfbf
00000080: 899d e7be ef4f a13f 803a 4dbe b34f 303f
00000090: 24ab 09c0 931a d3be 2766 e8bf 010f 94be
000000a0: b856 0dbf 414c e3bf 45af 1c3f d22d a73f
000000b0: a28a 8cbf d987 2640 3b11 e7bc 70ec 92bf
000000c0: 85c6 42bf 8d29 89be b8e6 a93e b98c 76bf
000000d0: 453f f0be 1937 14bf 8a25 83be c001 e3be
000000e0: 8dd8 453e 19a5 5f3e 9e1b ccbf ef1b 8b3e
000000f0: 6067 8abe 7fb4 dd3e 92b3 85bf d526 47bf
00000100: f02a f93f 4a5c 983f c93a 43bf 7f2c 0b3f
00000110: a282 c6bf 7d55 3bbe e28b 81bf 133f 373f
00000120: 166d 5fbf 0590 67bf 7b4b 8dbf ca90 873f
00000130: be9d 393f e809 3e3e b1e2 473f 68c5 773e
00000140: c5ab 0cc0 f770 f0be 6921 23be 88e2 583f
00000150: 6254 f33c 8ba4 25be ba73 283f 8a8f 89bf
00000160: 2691 93bf 56e7 6fbf 6be4 9dbf a544 8abd
00000170: 30e3 d7bf a12a 5cbf db08 2ebf 8447 96be
00000180: 4541 8b3f 2e86 20bf 58c1 e03e 953f 9abf
00000190: f1ce 2dbf 954a b23c 25c4 423f e238 9c3f
000001a0: c885 7ebf 5fab 13bf 57df 64bf ec39 b13f
000001b0: 8de1 94bf 6ac5 993e e14f f73d 2340 ffbf
000001c0: 9199 943f e97a 143f 4c0f a3bf 318d 2cc0
000001d0: ed3d 14bf 6f25 c0bf 3e7c 9f3f 20f4 1dbd
000001e0: a8fe 07c0 5114 d23f 03ae 8bbe 8874 debe
000001f0: 5b3a 2ebf fd75 96bf 803a 333e 6f15 013f
-0.22034821 -1.2341639 0.61303836 0.15984279 -0.89570355 0.27390793 -1.2142135 0.43666705
0.16283181 -0.5291512 -1.0201284 0.52340275 -1.1115912 2.4155142 -2.308777 -0.91358
1.2405031 0.035893053 -1.6829554 -0.07489758 -1.1219878 -0.43832496 -1.4382187 -1.0472214
0.95586544 1.3581928 -1.6540624 1.0614258 0.28403652 -0.22668634 -1.1036406 -1.6215743
-0.45237377 1.2602519 -0.20041847 0.6887161 -2.1510706 -0.41231212 -1.8156174 -0.28917697
-0.5521045 -1.7757646 0.6120494 1.3060858 -1.0979807 2.6020415 -0.028206458 -1.1478405
-0.76084167 -0.26789513 0.33183837 -0.96308476 -0.4692327 -0.5789657 -0.25614578 -0.44337273
0.19320889 0.21840324 -1.5945928 0.2716975 -0.27031994 0.4330177 -1.0445426 -0.7779363
1.9466228 1.1903164 -0.76261574 0.5436477 -1.5508616 -0.1829433 -1.0120814 0.7158062
-0.87275827 -0.9045413 -1.103866 1.0591061 0.7250632 0.18558466 0.7808028 0.24196398
-2.197984 -0.46961185 -0.15930714 0.8472066 0.029703323 -0.1617605 0.65801585 -1.074693
-1.1528671 -0.93712366 -1.2335333 -0.06751374 -1.6866207 -0.86002547 -0.6798226 -0.29351437
1.0879294 -0.6270474 0.4389751 -1.2050654 -0.6789389 0.02176408 0.7608054 1.2204859
-0.99422884 -0.57683367 -0.8940329 1.3845801 -1.1631333 0.30033427 0.120757826 -1.9941448
1.1609365 0.58000046 -1.2739043 -2.6961176 -0.5790699 -1.5011424 1.2459791 -0.038562894
-2.124918 1.641245 -0.27281198 -0.4344828 -0.68057793 -1.1754757 0.17502785 0.5042333

embedding.embeddings.4.weight f4 [13, 16]
00000000: 9655 2cbf af71 6c3f f2ba af3e eb4e bb3f
00000010: ff42 a63d cbaf d7be dd8d cbbf e526 503e
00000020: 2da4 873f 16ce b03f 452a 43c0 6b74 b23e
00000030: 02c5 883e 294d 10bf 0726 d83f 9cbc 51bf
00000040: c724 523f 33a7 9d3f 28b4 f7bf 1b9f 90be
00000050: d4df aebd 069e 17be 7f5f b23e de21 eabd
00000060: 538f 1040 e19f 4f3f 6167 60bf 691a e73e
00000070: 8357 c73f 9316 0cbd 8dd7 ab3f 4a34 573e
00000080: 0222 90be 3ebf 9fbd ef7b d73f bb57 b73f
00000090: 324e bb3f c4f6 d3bf 14a7 35bf a849 523d
000000a0: 49f2 073f e0ee 363f 7298 82bf 228b b43c
000000b0: 20df e93f 8332 723f d47d b83f 90a5 55be
000000c0: 9be2 f73e 0aed 013f f8e5 803f d220 0d40
000000d0: 5280 d73c 2512 5b3f 2fdc 683f 354d 7e3e
000000e0: 47e3 84bf 7f0a 4cbe 8ef3 c23d 6d4f a1be
000000f0: f04a b0be 01fc 633e b9bb 343f 3297 2e3f
00000100: 7d23 d53f b193 81bf 000f f83e a99b 853f
00000110: 32df c7be 4048 f1bf 7695 87be d366 f43d
00000120: 95f7 d63e 1fb9 d83f a2dc 95bc ff99 353e
00000130: bfd6 963f b11d 1cbf d7ad 813e 86ab 413f
00000140: 79e2 053f 06fd a6bf 40ae 833e 02ce 1ebf
00000150: e9fa 01c0 41bf a63d 097c 40bf 5358 013f
00000160: decd 76bf b5ee 1d3e cfa6 56bf 87a6 993f
00000170: 3228 b83f ceab 5ebf 7e12 8b3f a8e8 903f
00000180: 6a10 57bf d180 afbf 1c94 de3e fd1c 47bf
00000190: f118 5dbf e1de 48bd 7415 993e 8892 a9be
000001a0: eb80 c0be 1b6f 6b3e 0830 2cbf a522 383f
000001b0: acfc a4bf abce e23f 4a68 b9bf 7088 99bf
000001c0: 3468 4c3f 6034 5a3e 44cf b13f 5088 56bc
000001d0: 4fbe c4be be36 833f 74d6 a3bf ad88 18be
000001e0: afe1 983f f23f bdbf 7b55 b8be 6788 54bf
000001f0: 6575 be3c 6508 a53f 8a6d e13d 2973 08c0
00000200: fe3a 8dbd 86e3 6f3f 53df 8ebf ee06 fc3e
00000210: 2c8d bdbe 50cf c53f 7fc3 d73f 2fdb 1ebf
00000220: ffa6 b0bf 57e6 a1be 6b06 b8bf a16a 723f
00000230: fdcb debe 945c 1340 0014 cc3e ac57 cf3f
00000240: 4251 533f 4122 70bf 8775 9d3e ae0d 7c3f
00000250: 0093 5cbf 2c2e 04be 854a 48bf 5a4a 3cbf
00000260: 70e9 2a3f 4ce9 e23f 2754 4ebf 9eb1 143f
00000270: 98bb 5d3f 7d63 8cbf 54e3 d13e f8a1 193f
00000280: b835 a5be b9d6 75be 88aa 22be ad5a 99bf
00000290: dd4d 36bc f00f 59bf 3cf0 51bf f446 de3d
000002a0: d9a5 99bf 5d0b e83e dd65 b2be d5ed 94bf
000002b0: fa7f 6abf b7da c03f aacd 173e ee9f 473f
000002c0: c669 8f3f ad72 babf 89bc c83d feef bdbe
000002d0: 4a78 5abf 2f9b 503f 74be 263e 82fe f7bf
000002e0: 8cf6 efbe a9fd 99bd ddd5 25bf f270 81bf
000002f0: 4c4b 4abf b702 8e3d a1c6 19bf 6492 bc3f
00000300: 2081 79be 2a49 873f 67dc 013c cd32 bebe
00000310: 4dfb 15bf 1324 92be 7240 dc3e 3866 b73e
00000320: ccc7 4b3f d991 a03f a3fa 683f 129e 0abf
00000330: 4a3a 88bf 6be9 55bc 777c 0dbf b212 093e
-0.67318094 0.9236097 0.34322315 1.4633459 0.08118247 -0.42126307 -1.5902668 0.20327337
1.0596977 1.3812892 -3.049455 0.34854445 0.26712805 -0.5636774 1.6886605 -0.8192842
0.8208737 1.231665 -1.9351854 -0.28246388 -0.085387856 -0.14806375 0.34838483 -0.11432241
2.2587478 0.8110333 -0.87657744 0.45137337 1.5573581 -0.034201216 1.3425156 0.2101604
-0.28150946 -0.078001484 1.6834697 1.4323648 1.4633238 -1.6559682 -0.70958066 0.051339775
0.5310407 0.71458244 -1.0202773 0.022039 1.8271217 0.94608325 1.44134 -0.20863938
0.48415074 0.5075232 1.0070181 2.2051282 0.026306305 0.8557456 0.90960974 0.2483414
-1.038186 -0.19925879 0.095191106 -0.3150591 -0.34432173 0.222641 0.7059894 0.68199456
1.6651455 -1.0123197 0.48448944 1.0438129 -0.39037472 -1.8850174 -0.26481217 0.11933675
0.41985765 1.6931494 -0.018293682 0.17734526 1.1784285 -0.60982805 0.25327942 0.7565235
0.52298695 -1.3045967 0.2571888 -0.6203309 -2.0309393 0.081419475 -0.7518926 0.505254
-0.9640788 0.15423091 -0.8384828 1.2003945 1.4387267 -0.86980903 1.0865018 1.1321001
-0.8400942 -1.3711187 0.43472373 -0.7777861 -0.8636618 -0.04904068 0.2989918 -0.33119607
-0.37598357 0.22991602 -0.6726079 0.71927863 -1.2889609 1.771932 -1.4484951 -1.1994762
0.798465 0.21309042 1.3891377 -0.013094023 -0.38426444 1.0251081 -1.2799821 -0.14895888
1.1943873 -1.478514 -0.36002716 -0.83020633 0.023249337 1.2893187 0.11007221 -2.1320288
-0.068960175 0.9370655 -1.1161903 0.49224037 -0.37021768 1.5453892 1.6856536 -0.620532
-1.3800963 -0.31621048 -1.4376959 0.9469395 -0.43515006 2.3025255 0.3985901 1.619863
0.82545865 -0.9380227 0.3075373 0.98458374 -0.86161804 -0.12908238 -0.7823871 -0.7355095
0.6676245 1.7727447 -0.80597156 0.5808352 0.8661437 -1.0967861 0.4099375 0.6001277
-0.32267547 -0.24007691 -0.15885365 -1.1980797 -0.0111269625 -0.84789944 -0.82007194 0.10853377
-1.2003738 0.4532117 -0.3484334 -1.163508 -0.91601527 1.5066746 0.14824548 0.7797841
1.1204154 -1.4566246 0.09801585 -0.37097162 -0.85339797 0.8148679 0.1628359 -1.9374545
-0.46867788 -0.07519085 -0.64779454 -1.0112593 -0.79021144 0.069341116 -0.6006871 1.4732175
-0.24365664 1.0569203 0.007926083 -0.37148133 -0.5858658 -0.28543147 0.43017918 0.35820174
0.7960174 1.2544509 0.9100744 -0.54147446 -1.0642788 -0.013056139 -0.55268043 0.13386038

embedding.embeddings.5.weight f4 [9, 16]
00000000: 8337 b03f 544c 0b3f b1da c3be 9874 6ebe
00000010: 0998 4ebf ae01 49bf aa9d 103f b8bf f03e
00000020: 02c0 07bf a045 cf3f 4817 2a3f 75ad 653f
00000030: 6dee 9c3f c8a6 bbbf ef81 3d3f 7650 ff3f
00000040: 66e9 893f 2538 72bf cb9b bcbf efea 0a3d
00000050: 87f6 a73f 9d7d 61bf 9632 f03e 217e b63d
00000060: 5b28 9dbf bf5c d33f e17c 6f3e e03e 92be
00000070: cb96 b5be a6c7 aabf 99f5 e03d eee6 a93e
00000080: 0698 34bf bc5e 483d da08 86bf 36e4 be3f
00000090: 892a 873f b0bf c1bf a708 bdbf 2b2b ae3f
000000a0: a01a adbf e289 a6bf 8651 20bf fa5c cd3f
000000b0: a3a7 02c0 0438 1fbf acda d63e bcd2 1c3f
000000c0: 6a08 a8be 9bc8 ef3f 57df bb3d 6a7c b6bd
000000d0: ac41 6ebd 0136 a5bf 305f c2bf da00 6ebf
000000e0: c784 f9be b9e3 48be 9435 383f 5128 b93f
000000f0: e6c4 8fbf 9d41 693e c869 b4bf 477f f63e
00000100: 2926 b1bf 4aa0 29bf 6dbe fabf a70b 863f
00000110: 2673 97be ac45 123f b42d 9c3e 5255 08c0
00000120: 4e69 5cc0 7d12 f43f aa1f d93f 5ae1 f23d
00000130: 4b11 fc3e 6d6a ed3e ae45 2cbf 73b3 8e3f
00000140: 7345 183f 8698 d5bf ca00 e53e f9a2 0fbf
00000150: 2f5c 613f eb56 8ebf b692 a7bf 3aea 4f3e
00000160: ae78 8cbe 91dc 1a3f a6df 4abd 4445 2a40
00000170: 2729 2cbf 080b 50bf 9644 12be cb14 6abe
00000180: 1b4b 9f3f 6f38 2bbf 994d 253f 2112 77be
00000190: c603 b13e 97b1 1ebf 9b4b a7bf c098 e5bf
000001a0: dc91 1ec0 2e20 ca3f 8642 013f ccc8 e23f
000001b0: 536a d53d b1e5 293f f58f 0cbf 89b1 b73e
000001c0: 67d4 233f 9fd2 81bf 559c 73bf 2bf7 1abf
000001d0: 3e53 0cbf 25ed 26c0 7235 343f 0e07 6b3f
000001e0: 7375 d3bf 8c82 0f3e 04f1 f4bf c98a de3e
000001f0: aed6 53be a22e 97bf f9d2 d6be 2548 b4be
00000200: 23fd c13f 761a 6ebd b204 1fc0 abb4 09bf
00000210: 7f94 643f 7c53 703e c360 b03e 178d 9f3f
00000220: f755 9a3e 1aaa 2c3f 7e81 613f 278d 8a3f
00000230: bfcd 9c3f 19b0 debf fa9e f9be fcf5 4b3f
1.3766941 0.5441334 -0.38252786 -0.23286664 -0.8070074 -0.7851819 0.56490576 0.4702127
-0.53027356 1.6193123 0.66441774 0.897178 1.2260262 -1.4660273 0.7402639 1.994643
1.0774353 -0.9461692 -1.4735044 0.033915456 1.3122109 -0.88082296 0.46913594 0.08910776
-1.227794 1.6512679 0.23387481 -0.28563595 -0.35466608 -1.3342178 0.10984344 0.33183998
-0.7054447 0.04891847 -1.0471451 1.4913394 1.0559856 -1.5136623 -1.4768265 1.3606924
-1.352375 -1.3010828 -0.62624395 1.6043999 -2.0414817 -0.6219485 0.41963708 0.61259055
-0.3281892 1.8733095 0.09173458 -0.08910449 -0.0581681 -1.2907106 -1.5185299 -0.9297005
-0.48734114 -0.1961812 0.71956754 1.4465429 -1.1231964 0.22778936 -1.4094782 0.4814398
-1.383977 -0.66260207 -1.9589363 1.0472306 -0.2958004 0.5713756 0.3050362 -2.1302075
-3.4439273 1.9068142 1.6962788 0.11859389 0.49231943 0.4637026 -0.6729382 1.1148514
0.5948097 -1.6687171 0.44727165 -0.5610805 0.88031286 -1.1120275 -1.3091648 0.20304194
-0.2743582 0.6049281 -0.049529694 2.6604776 -0.67250293 -0.8126683 -0.14283976 -0.22859494
1.2444795 -0.66882986 0.6457153 -0.2412801 0.3457319 -0.6198973 -1.3069948 -1.7937241
-2.4776525 1.579107 0.5049213 1.7717528 0.1042067 0.66366106 -0.5490716 0.35877636
0.63995975 -1.0142401 -0.9516042 -0.605334 -0.5481452 -2.6082242 0.7039405 0.9180764
-1.6520218 0.14014643 -1.9136052 0.4346526 -0.20687363 -1.1811106 -0.41957834 -0.35211292
1.5155376 -0.058130704 -2.4846616 -0.537913 0.8928909 0.23469347 0.34448823 1.2464932
0.3014371 0.67447054 0.88088214 1.0824326 1.2250289 -1.7397491 -0.48754102 0.7967222

embedding.embeddings.6.weight f4 [20, 16]
00000000: 1bb5 26bf e587 8c3e b5d7 c6bf fb46 f3be
00000010: 5ace 0640 50f6 bd3e d3c8 91bf de6d d8be
00000020: 9dd2 683e e0cc c63e be52 87bf 578e a53f
00000030: 4ad4 a2be bae6 e7bf 73d2 d5bd dbd8 70ba
00000040: 80b4 5ebf 7d88 4f3f f23e 93bf 155c 0240
00000050: a7a1 4740 a65f 5bbe ed2c 913e c1a1 11c0
00000060: 8447 bb3e 3aa0 bb3e 2069 363f f5c8 ec3d
00000070: bafa 983f 6ba9 003f 5853 c83e 5396 783f
00000080: 203d dc3e e817 893d fb2f 47bf 175c 03be
00000090: de49 95be 57d9 8abf dc11 843f ceaf c8be
000000a0: ed65 e4be 3eac 8abf 2be9 103f 5ef6 cb3f
000000b0: 17aa a8be 5773 523d b3e7 51bf 3ed6 81bf
000000c0: a3ce 1d3f 210f 9dbf 8e26 e1bf 10d7 adbf
000000d0: f3d2 da3f bcfa 5cbf 1ad6 bb3e 63ea 0fc0
000000e0: ade1 0dbf 3bb3 b8be 66e1 efbe 4015 91be
000000f0: d13d 373f 269c 833f 46bd b03e 7a2a 003f
00000100: 2c09 24bf d9f0 823f 7e16 f0bf ddd3 3dbf
00000110: 75ab fc3f c67b 09bf 39f4 adbf 7976 953f
00000120: 6c74 eabe 5fd2 213e e14c bfbe 4cb4 e9bf
00000130: ef52 d93e a321 653f ea55 3dbf 062d d23e
00000140: 7868 3e3f 038c 26bf d7dd 97bf 5721 f4bf
00000150: ebff 8d3f 49e6 1fbe 7e2b 453f 8605 d4bf
00000160: 005e d63e 9689 af3f 711f f53d b398 c33f
00000170: 6a07 ec3f 78e1 a9bf 3820 64bf 2937 683f
00000180: 2ab2 fc3f add7 40bf 27e0 b43e 6706 5f3f
00000190: 72cf f2bf 7d57 1bbf 0289 013f 01eb 073f
000001a0: 3118 bd3f 8009 773f 96c1 bf3e b23e bf3e
000001b0: 51e0 7a3e 07fe d93f 5b81 66bf 2076 893f
000001c0: 6727 c63f a718 a13f 12d4 1f3f d780 91bd
000001d0: d0da 223f 73da 88bf e1ca 513f e297 e6be
000001e0: f679 303c 862f 403e e814 633f 2260 983f
000001f0: 56c5 ba3f 43d3 053d 1c59 08bf 6047 cc3f
00000200: a1ea 903d 9e95 92bf e569 9f3f 041a b23d
00000210: dd8b 8a3e 0f90 c53d 569c 0f3f 9706 103f
00000220: 506c 20bf 53af 8e3f b5c6 273f 2667 983f
00000230: c037 0a3f 7ab3 35be c1a5 fb3f 11bd d9bd
00000240: 61e9 afbf 8ee4 d03e 8948 11bf 59b8 82c0
00000250: 8c4e 643f f8f8 d7bf 9e50 f6be 9897 abbe
00000260: 4518 00c0 3d25 983f 6c91 913e 27ca 02bf
00000270: d09d 453f eb95 233e 1656 7b3f d463 e03f
00000280: 2520 b53f 703c a13f b9b7 a4bf 0f94 b23f
00000290: 63c6 6ebf 68f7 83be f164 743f 22d5 93bf
000002a0: 693a 09c0 64b8 f2be 9e2d 993f c937 9bbf
000002b0: e8c7 483e 15bb fdbf 979f dd3d e8c2 17bf
000002c0: b896 8abf c818 b93f 8b75 91bf e05c 193f
000002d0: e4f3 1040 fd2f c0bf cb89 34bf fa35 a1be
000002e0: 0de3 80bb 91a5 80bf d70d eeba 91f3 a53f
000002f0: 1a06 283f b5fd 5f3f f628 cabf 6b32 a43f
00000300: 538f 1ebf 494f 1d3f 56ae 913f 4835 743d
00000310: e155 023e 7e19 de3f 0718 06bf a49d 7bbe
00000320: fa20 1a40 fe25 d8be 7a88 203f fd21 af3e
00000330: 3c40 633d bf50 ca3f 78f0 853d f3ec 3e3e
00000340: 715d 063f 0635 81bf ba1e 85bf 1db0 78c0
00000350: 127d c63f be55 653f f3b0 f6bf 8b50 563e
00000360: 3aec e7be 810d 0640 b36d be3f 891b e43f
00000370: 0896 07c0 6ac6 d13d 4de0 2d3f 457a 0840
00000380: cc97 2040 7748 0dbf 17d5 f5bf 137d 353f
00000390: 1fb2 373f 6d90 c93f d117 51bf 0210 473f
000003a0: 6e73 393f d155 943e adc0 7bbf 500b 1740
000003b0: 3b51 4a3f fe76 0a3f 2bc3 dfbe 8248 dfbf
000003c0: 560a 2fbf 6feb 4c3f 5920 78bf 4d3f 943f
000003d0: 2577 193d 01c2 233e 6787 f03e b591 0fbf
000003e0: a825 a53e bac2 283f d7b8 2abf b628 6cbf
000003f0: 3c9a cb3f f56f 813f df7f 1fc0 dcc1 5fbe
-0.65120095 0.2744743 -1.5534579 -0.4751509 2.1063447 0.37101984 -1.1389412 -0.42271322
0.22736593 0.38828182 -1.0572126 1.2934064 -0.3180259 -1.8117287 -0.10440531 -0.00091875874
-0.8699417 0.8106764 -1.1503584 2.0368702 3.1192415 -0.21423206 0.28354588 -2.2754977
0.36578 0.3664568 0.7125416 0.11561767 1.1951516 0.5025851 0.39126086 0.97104377
0.43015385 0.06694013 -0.7780759 -0.12828098 -0.2915792 -1.0847577 1.031795 -0.39196628
-0.44609013 -1.0833814 0.56605786 1.593456 -0.32942268 0.051379528 -0.8199417 -1.0143507
0.6164343 -1.2270242 -1.7589891 -1.3581257 1.7095627 -0.8632009 0.36686784 -2.2486808
-0.5542248 -0.36074242 -0.46851653 -0.28336525 0.715787 1.0282028 0.34519404 0.50064814
-0.64076495 1.0229751 -1.8756864 -0.741514 1.9739825 -0.5370449 -1.3590156 1.167678
-0.45791948 0.15802906 -0.3736334 -1.8258147 0.42446086 0.8950445 -0.7395922 0.41049975
0.74378157 -0.6505739 -1.1864575 -1.9072675 1.1093725 -0.1561519 0.7701949 -1.6564186
0.4186859 1.3713863 0.119688876 1.5280975 1.8439763 -1.3271933 -0.8911166 0.9070917
1.9741871 -0.75329095 0.35327265 0.87119144 -1.8969557 -0.6068037 0.5059968 0.5309296
1.4773008 0.9649887 0.37452382 0.3735252 0.24499632 1.7030648 -0.9004113 1.0739174
1.5480775 1.2585648 0.6243297 -0.071046524 0.6361513 -1.0691665 0.81950194 -0.45037752
0.010771265 0.18768129 0.88703775 1.1904337 1.4591472 0.032672178 -0.5326097 1.5959282
0.07076002 -1.145191 1.2454191 0.08696368 0.27059832 0.096466176 0.56097925 0.56260055
-0.6266527 1.1147255 0.6553758 1.1906478 0.5399132 -0.17744246 1.9659959 -0.10631765
-1.3743097 0.40799373 -0.56751305 -4.0850034 0.89182353 -1.6872854 -0.4810838 -0.33514094
-2.0014813 1.1886364 0.2843126 -0.5108971 0.7719393 0.15975158 0.9817823 1.7530465
1.4150435 1.2596569 -1.2868568 1.3951434 -0.93271464 -0.25774693 0.95466524 -1.1549418
-2.14419 -0.47406304 1.1967046 -1.2126399 0.19607508 -1.9822718 0.10821455 -0.5928178
-1.0827246 1.4460688 -1.1363996 0.5990734 2.264886 -1.5014645 -0.70522755 -0.31486493
-0.0039333166 -1.0050527 -0.0018162084 1.2964956 0.6563431 0.874965 -1.579375 1.2827886
-0.61937445 0.61449105 1.1381328 0.059621125 0.12728073 1.735153 -0.5238041 -0.24571854
2.4082627 -0.42216486 0.62708247 0.34205619 0.05548118 1.5805892 0.065400064 0.18645076
0.5248633 -1.0094306 -1.0400002 -3.885749 1.5506918 0.8958396 -1.9272751 0.20929162
-0.45297414 2.0945742 1.4877228 1.7820903 -2.1185322 0.102429226 0.6792038 2.1324627
2.509265 -0.551887 -1.9205655 0.70893973 0.71756166 1.57472 -0.81676966 0.777588
0.72441757 0.28971723 -0.98340875 2.3600655 0.790302 0.5408782 -0.4370359 -1.7444003
-0.68375146 0.80046743 -0.9692436 1.1581818 0.03746714 0.15991975 0.46978304 -0.56081706
0.32255292 0.6592213 -0.66688293 -0.9224962 1.5906444 1.0112292 -2.4921796 -0.21851295

num_proj.weight f4 [16, 1]
00000000: e485 21bf a5c9 a23e f9d5 003b 8713 a7bd
00000010: 7f1e eebe 26b8 5e3b 6e0c c33e 5937 7f3c
00000020: e0d0 acbe 4d78 e53d 0517 7a3e 99c3 a33d
00000030: e17d 063f ae6a 16bb e058 1a3d fe03 de3d
-0.63094926 0.31794468 0.0019658788 -0.081580214 -0.46507642 0.0033984273 0.3809542 0.015577161
-0.3375311 0.11204586 0.24422844 0.07996292 0.52535826 -0.002295177 0.037682414 0.10840605

num_proj.bias f4 [16]
00000000: 2f8b bebe b06a 1fbf 230e c43e 80a0 f93e
00000010: 1758 f03d 6297 f03d cea0 053f c292 a83e
00000020: fe14 e63e 8d3a c5be 2307 2d3e 5d74 23bf
00000030: fe63 173f 7631 4dbc 61c6 a23d 9351 f63d
-0.37215564 -0.6227217 0.38292035 0.48755264 0.11735552 0.11747624 0.52198493 0.32924467
0.4493789 -0.38521233 0.16897254 -0.6384943 0.5913695 -0.012523999 0.07947994 0.12027278

mlp.0.weight f4 [128, 272]
00000000: dc2b c93c 3c7f 3c3c e5b9 10bc 0d4c 7f3c
00000010: a378 c13a e426 1c3b c691 5cbd 0120 5cbd
00000020: d833 a23d bcdf fabc b4c3 ccba 4084 04bc
00000030: a668 abbc 4251 08bd 2715 f53b d4e7 9cbc
00000040: fd1f 1c3d 2b0e c5bd 645f 96bd c505 383d
00000050: d5be e23c 463c 93bd e75d 96bd dfab a53c
00000060: 4136 093c 0c93 913c 5908 17bd 23c1 ecbc
00000070: aac5 88bd 4ae4 7ebc 61da 3b3c 1db1 52bc
00000080: 6998 1a3c 4380 1abd 8f9c 36bd d0c9 303d
00000090: 3c37 b23c 0731 5ebd 0bea 48bd a9c2 d63c
000000a0: be95 223c 93fe c93c a94f e73c 1a67 4c3a
000000b0: 09d0 1dbd 68b8 fd3b 36a7 8c3c 2358 473d
000000c0: 5fc8 3fbd 77f9 d0bc 5289 c539 9eed 96bb
000000d0: 5324 4a3d 01f5 e8bc d6ee 21bd 032a 54bc
000000e0: a304 be3c a0ca 29bb 60d6 05bd 6402 ce3c
000000f0: 42f4 593c a92f 623c 95ba 77bd 841b fdbc
00000100: 7dee a43c 4fc7 c93c e7d6 313d d049 48bc
00000110: a64d 9c3c e3b9 1ebd 243b 14bd aeb8 7fbd
00000120: 6812 833d 2e8f c4bc 11b4 a53c ac2f 483d
00000130: 51bd 4fbc fab9 c53c 3700 c4bd 0085 a13c
00000140: 128f 11bc 36f3 8bbd e72c 273d fc36 d03c
00000150: 998b a23d ca89 88bd 9882 08bc 0c61 38bd
00000160: c85b 4d3d 60e6 65bd 5548 7e3c 4568 21bb
00000170: 613c a33c 0172 a03c bdd2 b7bb 3f16 3ebd
00000180: a3c4 723d 1770 28bd 3ecd e23a 38af 16bd
00000190: bf42 e5bc ca4a 09bd b22d 813c cc89 693d
000001a0: aedc 8c3c 7c53 57bc 2b84 3dbd 10c0 83bc
000001b0: f1fe 8bbd f3f9 0dbc 99cf 7dbc 7b9c a23b
000001c0: b98f 5dbb eb39 4dbd 3454 3d3d 7ca4 ca3d
000001d0: c9ef 2e3d 358b f1bc 71c2 06bc edf6 23bd
000001e0: 3e6c 163d 6272 99bd fe18 35bd e478 c9bd
000001f0: 0ae8 31bd 70f8 563d fdeb fabc 0340 9b3c
00000200: 0155 803d e3bc c9bd 010b 1ebd fd03 b13c
00000210: 2326 203c 8e70 213d 8a18 4bbc 9407 0cbd
00000220: 32ed 643b feaa 8abd 7156 60bd 6c2a 1ebd
00000230: debd 8fbc fca9 9f3d 931c abbd d6b8 ddbc
00000240: 0cae db3c 0428 aebd 5635 6e3d 10df 843d
00000250: 48a7 e53d 52ad 703d c4a9 0bbc a1bb 5b3d
00000260: 87df b63d 7c95 4cbc 23f8 8ebd c5c8 b1bd
00000270: 15d0 8dbd 40df b23d 1895 a3bd 140e 19bd
00000280: 443d 873b 8d8e d2bb 3d69 21bc d496 b23d
00000290: b3e1 163d 1cb6 423d 31a3 dc3a 35c7 5cbd
000002a0: 4c91 b63d 89c5 65bd 345b 9fbd c8cd 05bc
000002b0: c2d6 7a3a 9b5b c63d 1ee3 1dbc 65f9 bebd
000002c0: f5e0 623d 3f86 ee3c 7495 f1bb 8916 d23a
000002d0: 46c8 f33c 4123 283d 7f1a 13bd ee39 833c
000002e0: ee22 6d3d b3f1 84bd 5034 04bd 2b0c bfbc
000002f0: 633f 103d e0cf 0f3d c625 47bd bb7b 9ebd
00000300: 2de3 91bc 95c7 8c3c 11e9 023b a29f 843d
00000310: 4dbb 843c 6743 a13c 26ea 66bd 2324 143d
00000320: e1fb 1a3d 8b64 153d dbe0 78bd ea5a e1bc
00000330: 43b7 55bc 26e7 353d 6856 13bd 0a63 353d
00000340: db9a bf3b e2e7 84bd 42b4 6e3d 5246 813d
00000350: 087e 10bb 70fb f83c a5d6 ac3c 9e1b e0bc
00000360: 5d03 af3d bbc3 42bd 8141 103c c8a1 0dba
00000370: 4209 83bd 4601 b9bc 2abc 95bd 20ae 8abc
00000380: 3abb ba3d e796 b6bb f7bd 65bc 9eab 423c
00000390: b1c7 f23c 0cc6 6f3d 74da b3bd b4d7 0f3d
000003a0: f42d 843d dedb 4cbd be4e 9fbc fbd0 97bc
000003b0: e139 42bd 67b1 633c e143 09bd 96a9 35bd
000003c0: 461f 023e fbff 5fbe c273 ad3d 9a86 e83d
000003d0: 379f 203e 75c7 143e 04c5 16be db7c 63bd
000003e0: 4203 453e 583e 0fbe ba5d 55be 6d21 40be
000003f0: 2b5b 57be c652 493e ef6d 45be 74ab 30be
0.024557047 0.011504944 -0.008833383 0.015582097 0.0014760684 0.0023826892 -0.053849958 -0.05374146
0.07920045 -0.030624263 -0.0015622289 -0.0080881715 -0.020923924 -0.03328062 0.007479328 -0.019153513
0.038116444 -0.09621843 -0.07342413 0.044927377 0.027678886 -0.071892306 -0.07342129 0.020223556
0.008374752 0.017770313 -0.036873195 -0.028900689 -0.066783264 -0.015557358 0.01146564 -0.01285961
0.0094357515 -0.037719976 -0.0445829 0.043161213 0.021754853 -0.054245975 -0.049051326 0.026215868
0.009923397 0.024657523 0.028236227 0.0007797346 -0.038528476 0.00774293 0.017169576 0.048668038
-0.04682195 -0.02550958 0.0003767708 -0.004605963 0.049351048 -0.02843714 -0.039534412 -0.0129494695
0.02319557 -0.0025908127 -0.032675147 0.025147624 0.0133028645 0.013805308 -0.060480673 -0.03089691
0.020133251 0.02463117 0.043417837 -0.0122246295 0.019079994 -0.038751494 -0.036189213 -0.062431984
0.06399995 -0.023994055 0.020227464 0.04887359 -0.012679414 0.024136532 -0.095703535 0.01971674
-0.008884208 -0.06833498 0.040814307 0.025416844 0.079367824 -0.06666906 -0.008331917 -0.045014426
0.050136358 -0.056127906 0.015520175 -0.00246288 0.019926252 0.019585611 -0.0056098388 -0.046407934
0.05926956 -0.041122522 0.0017303599 -0.036788195 -0.027985929 -0.03351859 0.01576886 0.05701618
0.017195072 -0.013142463 -0.046268623 -0.016082793 -0.068357356 -0.00866555 -0.01549139 0.0049625016
-0.003380759 -0.050104063 0.04622288 0.09894654 0.042709146 -0.029485324 -0.008225069 -0.04003041
0.03672432 -0.0749252 -0.044213288 -0.09837511 -0.04343418 0.052483022 -0.030630106 0.018951422
0.06266213 -0.098504804 -0.038584713 0.021608347 0.0097747175 0.03941398 -0.012395987 -0.034186915
0.0034931418 -0.067708954 -0.054769937 -0.038614675 -0.01754659 0.07796094 -0.083550595 -0.027065676
0.02681639 -0.08503726 0.058156334 0.06487858 0.11213547 0.05875904 -0.008524362 0.053645734
0.08929353 -0.012486812 -0.06980922 -0.08680872 -0.06924454 0.08733988 -0.07987422 -0.03736694
0.0041271765 -0.006425685 -0.009851751 0.087201744 0.036836337 0.047536954 0.0016833303 -0.053900916
0.08914432 -0.056096587 -0.077810675 -0.008166738 0.00095687446 0.09685441 -0.0096366685 -0.09324912
0.055390317 0.029116748 -0.0073725525 0.0016028445 0.029758584 0.041049246 -0.03591394 0.016018834
0.05789464 -0.06491413 -0.03227645 -0.023321232 0.0352167 0.035110354 -0.048620008 -0.077384435
-0.017808521 0.017185012 0.0019975344 0.0647576 0.016202593 0.01968546 -0.056375645 0.036167275
0.037837867 0.03647284 -0.060761314 -0.027509172 -0.013044181 0.044409893 -0.035971075 0.044283904
0.0058473176 -0.06489541 0.058277376 0.06312241 -0.0022047777 0.030393332 0.021098444 -0.027356919
0.08545563 -0.047549944 0.00880468 -0.00054028304 -0.0639825 -0.022583615 -0.0731128 -0.016928732
0.09117742 -0.005572188 -0.014022342 0.011881737 0.029636236 0.05853848 -0.08781901 0.03511782
0.06454077 -0.05001437 -0.019446727 -0.018532267 -0.04741848 0.0138972765 -0.033512 -0.044351183
0.12707242 -0.21874993 0.08469345 0.11353798 0.15685736 0.14529212 -0.14723593 -0.055538993
0.19239524 -0.13988626 -0.20836535 -0.18762751 -0.21030872 0.19660482 -0.19280218 -0.17252904

mlp.0.bias f4 [128]
00000000: 49d7 bb3c 8212 2c3c 4c8a 8bbc eb73 e73c
00000010: 0172 013d cf3c 7fba 4189 b5bb fdec 583d
00000020: 4fd3 153d 2cc1 cebc ded8 d6bc 6d54 843c
00000030: ac7d 273d 5165 d73c 1b30 3ebd bc68 17bb
00000040: 2ae8 483d 6e19 533c b7e4 42bc 1a0e 313c
00000050: 6bf2 65bd 9e7e 93bc fa37 bf3b fbfd 9dbc
00000060: aef3 ef3c 57f6 d93c 16d9 75bb e115 7abd
00000070: 6e39 edbc e1b9 563d 196f 2abc ae2b 973c
00000080: da67 8c3c ddcb 423d f903 15bd dd41 c63c
00000090: b2df 33bd 5f54 9abc 4049 08bd 881b 723d
000000a0: 6dd5 febc bb6d 42bd ad44 c93c 447f da3b
000000b0: 1b75 153d 3aac 2ebd ef47 53bb 127c 493d
000000c0: e31e 923c 3913 8fbc 23fc 80bc eb2b 943c
000000d0: 2511 bc3a 3eca 55bd 8545 163d ebfa 183d
000000e0: 6e77 e5bb 0596 fdbc 5481 aebb c827 eebc
000000f0: ec3b aa3c c465 883d 5a02 debc f841 713c
00000100: ae13 bd3c f414 1fbc 543d 33bd f7d5 49bd
00000110: b3cc 15bd bbb8 203c db37 05bd f978 79bc
00000120: de50 063d 72cb cdbc bcd2 abbc ed89 55bd
00000130: a8ee 8b3c f902 2d3d 1502 3b3d 00e4 1e3b
00000140: 0399 5abc da96 5fbc bcbb bebc babb c63c
00000150: 7f64 10bd d0a7 06bd d66f 263d 539b 4d3d
00000160: c32b 1d3d 720c 643d b75a 233d 7876 6d3d
00000170: 2bd8 9bbb e6b1 0abd 3812 583a 7ed9 65bd
00000180: 9038 8a3d 7ebb 81bc be1c f6bc a6ac bfbc
00000190: a65d d4bc 19f5 27bc 6ed2 aabc 5fe2 3b3d
000001a0: 00cc 24bc 2ca0 5e3d aa42 dd3c d687 36bd
000001b0: e23e 63bb 28f1 8ebc 689a 70bd 9031 f73c
000001c0: 9f29 efbb a8e9 3ebd 4a76 91bc 189d be3c
000001d0: 1946 a8bb c385 72bd ab66 3eba 3085 c73b
000001e0: a868 d63c fd6f 383d a494 243d 5df1 033d
000001f0: 542e 75bd 1ad4 563d 3e83 db3c aadb 14bd
0.022929804 0.0105024595 -0.017033719 0.028253516 0.031602863 -0.0009736539 -0.0055400436 0.052960385
0.036578473 -0.025238596 -0.026226457 0.016153539 0.040891334 0.026293429 -0.046432596 -0.0023103198
0.049049534 0.012884481 -0.01189535 0.010806585 -0.05613939 -0.018004712 0.0058355303 -0.019286146
0.029291 0.026606722 -0.0037513427 -0.06105602 -0.028958049 0.05242336 -0.010402464 0.018453445
0.017139364 0.0475577 -0.03638074 0.024201328 -0.043914504 -0.01883906 -0.03327298 0.059108287
-0.031107629 -0.04746793 0.02456888 0.0066680033 0.036488634 -0.042644717 -0.003223892 0.04919059
0.017836994 -0.01746522 -0.015745228 0.018087348 0.0014348371 -0.052194826 0.036687393 0.03734867
-0.0070027625 -0.030955324 -0.0053254757 -0.029071704 0.020780526 0.06660035 -0.02710073 0.014725201
0.023080673 -0.009709585 -0.04375966 -0.04927632 -0.03657217 0.009809668 -0.03252397 -0.015226596
0.032791965 -0.025121424 -0.02097451 -0.05213349 0.017081574 0.042239163 0.045656282 0.0024244785
-0.013342145 -0.013646806 -0.023282878 0.024259437 -0.03525209 -0.032874882 0.040634 0.050196957
0.038371813 0.05567593 0.039881434 0.05797431 -0.004755994 -0.033861063 0.0008242461 -0.05611562
0.0674907 -0.015836474 -0.030043002 -0.023397755 -0.025923561 -0.010251307 -0.020852294 0.04587018
-0.010058403 0.05435197 0.027009327 -0.044563137 -0.0034674932 -0.017448977 -0.058741003 0.030175
-0.007298663 -0.04660955 -0.0177566 0.023268268 -0.0051353094 -0.059209596 -0.00072632235 0.0060888752
0.02617295 0.045028675 0.040180817 0.032212604 -0.059858635 0.05244837 0.02679598 -0.0363423

mlp.1.weight f4 [128]
00000000: 97d0 803f 0058 6f3f 96b4 883f 3368 7b3f
00000010: e93f 7d3f 21a4 773f b3fa 6c3f 42f2 7d3f
00000020: 210f 603f 5130 713f 3b00 803f 5941 7b3f
00000030: 9d7a 813f 635f 873f b67a 823f 0c8a 873f
00000040: 931a 833f 4fc7 823f 5997 823f 9ed9 6a3f
00000050: ee78 583f 6acf 873f c9f8 863f eab9 883f
00000060: 565d 7b3f 53c9 633f 0c54 863f 5dc5 843f
00000070: adf2 863f 3aad 7b3f f5b6 703f 377a 7b3f
00000080: 8bcf 693f 0825 893f bec7 793f 6217 6d3f
00000090: 4bcf 713f f8c3 7b3f e0e0 5e3f 46a9 6c3f
000000a0: 93f0 713f 24e8 663f 58da 5f3f 29e7 883f
000000b0: 862d 813f dcda 6e3f 084b 793f 8019 813f
000000c0: 9ebb 783f 4e10 723f 4924 743f 328f 883f
000000d0: 141d 823f 3a15 693f edd2 5d3f bff8 853f
000000e0: e350 783f 1ef9 723f 0bb4 633f e9ed 7c3f
000000f0: 084b 663f b1e4 6c3f 6041 7a3f cb3a 623f
00000100: 6bb8 853f 47a3 723f 46f1 623f 44ac 8a3f
00000110: 85cc 7c3f 6e18 783f 42a5 693f 1a01 683f
00000120: 8460 843f a739 823f b8b1 683f 8673 763f
00000130: c0ea 5e3f 86a1 7b3f 5ef2 833f 568b 8a3f
00000140: 2acf 703f 9457 7d3f 6ed2 813f 0ab0 713f
00000150: 5cba 8a3f 9d0a 763f 308b 813f 87b9 733f
00000160: 99bd 6d3f 790e 893f 6fd8 693f e0d1 753f
00000170: 47f1 603f 0e44 893f 222e 7e3f e453 7f3f
00000180: 2a34 733f de14 853f bca2 703f e17c 8d3f
00000190: d9da 673f aa12 863f dcf8 843f 27b6 793f
000001a0: 72df 7b3f 00c9 7b3f 4254 863f 4adb 823f
000001b0: 6a90 6d3f 3118 8a3f 517f 7e3f fe33 893f
000001c0: 5347 7e3f 6e8f 723f 78d7 863f b136 883f
000001d0: 1c60 833f b679 8a3f e8a9 6c3f ff1e 883f
000001e0: 7136 6d3f 2952 653f 9128 883f 6dbc 6b3f
000001f0: 8c32 863f 6c15 7f3f 3c36 7d3f bbf5 833f
1.0063657 0.9349365 1.068011 0.9820587 0.98925644 0.96734816 0.92570037 0.9919778
0.87523085 0.9421435 1.000007 0.9814659 1.0115544 1.0575985 1.0193698 1.0589004
1.0242485 1.0217074 1.0202438 0.9173831 0.84559524 1.0610173 1.0544673 1.0681736
0.98189294 0.8897907 1.0494399 1.037273 1.0542809 0.983112 0.9402917 0.9823336
0.9133231 1.0714426 0.9757041 0.92613804 0.9445693 0.983459 0.8706188 0.9244579
0.9450771 0.9019797 0.8744254 1.0695544 1.0092018 0.933027 0.97380114 1.0085907
0.9716128 0.9455613 0.95367867 1.06687 1.0165124 0.91048014 0.8664997 1.0466536
0.96998423 0.9491137 0.889466 0.9880052 0.8995824 0.92536455 0.97756004 0.8837096
1.0446905 0.9478039 0.88649404 1.0833821 0.9874957 0.96912277 0.9126779 0.9062668
1.0341954 1.0173844 0.9089618 0.96270025 0.8707695 0.9829334 1.030834 1.0823772
0.9406611 0.9896176 1.0142343 0.9440924 1.0838122 0.96109945 1.0120602 0.9520497
0.9286743 1.0707542 0.91345876 0.9602337 0.8786816 1.0723894 0.99289143 0.9973738
0.9500147 1.0396993 0.9399831 1.1053735 0.9056831 1.0474446 1.0388446 0.9754357
0.98387825 0.98353577 1.0494463 1.0223172 0.92798483 1.0788633 0.9941302 1.0718992
0.9932758 0.94750106 1.0534506 1.064169 1.0263705 1.0818393 0.92446756 1.0634459
0.92661196 0.8957849 1.063738 0.9208439 1.0484176 0.9964206 0.9891088 1.0309366

mlp.1.bias f4 [128]
00000000: 67f7 a2bd 347c 45be adf7 25be 5b11 683c
00000010: dc44 3c3c ff94 37be de25 96bd ca7a 093d
00000020: c275 20be 5579 05bd 944c f5bd 9b7f c6bd
00000030: 50ab b13c a7dd 66be 8f80 c8bc c2a4 cebd
00000040: 8076 eabc c6fd 48be c499 fd3c 318e 19bd
00000050: 71ac 0abe dd51 92bc 9cc8 8bbd f2a9 b63c
00000060: d0dc 11be 7422 3cbe 52d2 b7ba 2be0 2cbe
00000070: f50a fabd fe86 c73c 571a 23bc f12a 22be
00000080: 152b c7bd d620 ec3c b37b 79be 9537 04be
00000090: f374 25be 16d5 36be 1b23 5dbe 43d2 30be
000000a0: 2950 b0bd f05e b1bd f038 51be 97f2 adbd
000000b0: 5688 a4bd 4998 9cbe fdfb 27be bb8f 95bd
000000c0: 24a5 06be 0b11 d8bd 17a9 0dbe b9a7 fdbd
000000d0: c741 b0bc f33f d8bd 919d 07be f353 80be
000000e0: 6eff 4bbe 7226 cabd bd8c 76bd 696f e4bd
000000f0: 1895 28be 77aa c2bd 89a1 11be c095 fcbd
00000100: d5ae 5f3c 041c 77bd aee7 a6bd eb2b 303b
00000110: 04e8 543d d889 71bd 9ec5 86bd a075 2dbe
00000120: 1d81 d73b 3b10 dabd bc2d 26be 4506 53bd
00000130: b44a c4bd ae1a 2bbe 6f38 f2bd c421 433b
00000140: 4bd8 eabc f6e8 edbd ea10 0abe 4b7c 16be
00000150: cd49 103d b6f4 0ebd 40bd a13c 285d 5bbd
00000160: bc2e afbd 3005 e03b b717 e8bd a0de 9ebd
00000170: 110d d8bd b8e6 aabd 0566 ff3b 5b67 9cbd
00000180: dfff 60bc d119 8c3c e0ba f6bd 3fbb f33b
00000190: ef6b 2dbe 9a5f 00bd d1ac a6bd a864 0c3c
000001a0: abea ddbd 3952 ffbc 467d b43c 5873 53be
000001b0: f417 15be d2bc 69be 38f0 3e3c baf3 803c
000001c0: 6c7f 54bd 22ee 1fbe 85ce c13c 0a72 e1bd
000001d0: 16ce 4b3d 0a76 813c d512 cabd 0a2c d93c
000001e0: bdf5 86bd 4d72 0abe 9ac9 683c 48ef 77bd
000001f0: 3340 6dbe 11b6 953c 2b2a 0bb9 4f35 57be
-0.079573445 -0.19285661 -0.16207762 0.014164294 0.011491027 -0.17927931 -0.07331441 0.033564366
-0.15669921 -0.032586414 -0.11977497 -0.096923076 0.021688133 -0.22545491 -0.024475364 -0.10090019
-0.028620958 -0.19628057 0.03095711 -0.03748912 -0.13542344 -0.017861301 -0.068253726 0.022297833
-0.1424439 -0.18372518 -0.0014024472 -0.16882388 -0.12209121 0.024356361 -0.00995501 -0.15836693
-0.09725014 0.028824251 -0.24363594 -0.12911828 -0.16157894 -0.17854723 -0.21595423 -0.17267708
-0.08609039 -0.08660686 -0.20431876 -0.08493536 -0.080338165 -0.30584934 -0.1640472 -0.07302805
-0.13148934 -0.10550126 -0.13834034 -0.12385506 -0.02151574 -0.10559072 -0.132437 -0.25064048
-0.19921657 -0.09870614 -0.060192812 -0.11154062 -0.16463125 -0.0950517 -0.14221777 -0.1233325
0.013652523 -0.060329452 -0.08149658 0.0026881646 0.05197908 -0.05896935 -0.06580661 -0.16939402
0.006576671 -0.10647627 -0.16228384 -0.05151965 -0.09584561 -0.16709396 -0.1182717 0.0029774765
-0.02866759 -0.116166994 -0.13483015 -0.14695852 0.035226632 -0.034901343 0.019743562 -0.053555638
-0.08553836 0.006836556 -0.11332648 -0.07757306 -0.10549367 -0.08344787 0.007794144 -0.07636901
-0.013732879 0.017102154 -0.12047362 0.007438093 -0.16935705 -0.031341173 -0.08138431 0.00856892
-0.10835775 -0.031167137 0.022032391 -0.20649469 -0.14559919 -0.22825935 0.011653952 0.015741218
-0.05187933 -0.15618184 0.023658046 -0.11008079 0.049757086 0.015803356 -0.09866873 0.026510257
-0.065898396 -0.13520165 0.014208222 -0.06053093 -0.23169021 0.018275293 -0.00013271782 -0.2101643

mlp.1.running_mean f4 [128]
00000000: 12bb 303f 1bf0 23bf d36c 25bd 8174 b53e
00000010: 3c55 8ebe 07bb 543f fd27 f83d 867f 8ebe
00000020: a7fc 423f fd7a 3c3f 4ded 433f c38c 4dbe
00000030: 35a5 603f c24f 01bf 87ed 053f 5da3 bc3f
00000040: c056 123f ca72 43bd b3a2 183f d25f 3b3e
00000050: 1deb 203f 519e 0b3f dad9 e13e f430 0e3f
00000060: 6cae 403e 2a4f 2f3f 19ed ea3e c666 3d3f
00000070: a4b9 f2be 26d6 583f 9f52 1b3f bc79 223f
00000080: a77b 423f a278 4f3f af25 4e3f 6cd0 6f3f
00000090: 0560 273e 02d7 22bf 8994 603e ba0f 8c3f
000000a0: cad0 f13f 0ead 983e 3c86 85bd c459 a23e
000000b0: be14 383e 6209 a1bf cbad 423e d3bb 04be
000000c0: 46ea 5a3f 57a8 243f 52ec 6bbe e19c 803e
000000d0: 1ad4 323f a699 52bf 0022 d33d 7a97 98bf
000000e0: b76d 163f 45e9 41bf 0110 ba3d 7dcf 013f
000000f0: 810a 5fbf d7f8 3ebf 8388 533e b491 8b3e
00000100: 5a00 883f 13d3 50bd 2469 0d3e 7dd8 683f
00000110: 0608 973f 5aad bd3d af1d 123f 8435 ed3c
00000120: 1627 a83f 6ca7 8cbe 2e72 2b3f 9f4b 26be
00000130: 314b b43e a554 a1bd 22a0 5a3e fdef 5f3f
00000140: 12fa 293f dada d2bd 78bc e4bd e9b3 a03d
00000150: a1dc b63e 73bd 7ebf 9a10 b53e b469 193f
00000160: fd31 b9bd ac5a 213f ce5d f03d cd1e 7cbe
00000170: 3c74 b4bd d92b 803e b8e0 083f c243 b8bf
00000180: df63 8e3e eb3e 353f 6c2a a5be 1e37 663d
00000190: f41a 0e3f 0e51 293f afc4 eb3d b612 203f
000001a0: 82c9 cf3e db2f a2be 561d 763e 137b ac3e
000001b0: 8fab e9be 226f 9ebd 3200 083e 8514 353f
000001c0: 4cfc 533f 1897 b63d 697c 173f 800f 153f
000001d0: e355 a2bd 083a 363f 30e0 aebd b6bf 2a3f
000001e0: 5823 39be 4e7a af3e 3ada 0d3f e64f 553e
000001f0: dd57 0bbe 25dc 4a3f f0b5 123f 3e85 5dbf
0.69035447 -0.64038247 -0.040386986 0.35440448 -0.27799404 0.8309788 0.12117002 -0.27831668
0.76166767 0.73625165 0.7653397 -0.20073228 0.87752086 -0.50512326 0.5231556 1.4737355
0.5716362 -0.047716893 0.5962326 0.18298271 0.62858754 0.54538447 0.4411152 0.55543447
0.18816537 0.6848017 0.45884016 0.73984945 -0.47407258 0.84701765 0.60672945 0.63467
0.7596993 0.81043446 0.8052625 0.936774 0.16345222 -0.63609326 0.21931662 1.0942299
1.8891842 0.2981953 -0.06519744 0.3170911 0.17976663 -1.2580988 0.1901161 -0.12962274
0.8551372 0.64319366 -0.23039368 0.2511969 0.6985489 -0.822657 0.10309219 -1.1921227
0.5876116 -0.75746566 0.09085084 0.50707227 -0.871254 -0.7459845 0.20657544 0.272596
1.0625107 -0.050982546 0.13809639 0.90955335 1.1799324 0.0926158 0.57076544 0.028956182
1.3136928 -0.27471483 0.669711 -0.16239785 0.35213616 -0.07877473 0.21350148 0.8747557
0.663972 -0.10295649 -0.1116876 0.07846815 0.35715201 -0.99507827 0.35364228 0.59926915
-0.09042738 0.6302898 0.11736642 -0.24621125 -0.088112324 0.25033453 0.53467894 -1.4395678
0.2781057 0.7079913 -0.32258928 0.056204908 0.5550988 0.66139305 0.11512124 0.6252855
0.40583426 -0.31677136 0.24034628 0.33687648 -0.456387 -0.07736041 0.13281325 0.70734435
0.8280685 0.089155376 0.5917421 0.58226776 -0.07926538 0.711823 -0.08538854 0.6669878
-0.18079889 0.34273 0.5541111 0.2083126 -0.13607736 0.79242164 0.57308865 -0.86531436

mlp.1.running_var f4 [128]
00000000: 3000 273f b98c eb3e f622 453f e787 733f
00000010: 25f3 343f 23c2 f83e 2d0a 183f 0e31 333f
00000020: fcfe 253f 14f7 433f 96b1 383f d1d0 e53e
00000030: 8aeb 953f 3a59 463f 35cd 803f ea56 eb3e
00000040: 031e 503f 216e 263f 8555 943f 565c 063f
00000050: 3727 5a3f b8b5 653f ebc5 383f 0adc 973f
00000060: 5b68 4b3f 1c71 a93e cdf9 8f3f 4b13 ca3e
00000070: 63b7 3e3f 4f3b 613f 9dcb 953f 394f 593f
00000080: 5c79 203f 8b22 603f b281 f13e 60eb 5b3f
00000090: 0b1f 2e3f d997 583f e9a2 f33e 5dee d93e
000000a0: b4eb 1b3f 86df 513f bc13 623f 93e9 fd3e
000000b0: e2d1 263f 429b 273f 80aa 373f bb91 0e3f
000000c0: 58fb 233f e699 d13e efdf 023f e409 f63e
000000d0: baef 993f 1e4e 273f c99a 423f 696f 383f
000000e0: 467f 3e3f 2699 f53e 3b6f 0f3f 507c 343f
000000f0: b688 e53e 8052 163f 3a0d 043f df17 d83e
00000100: 913a 983f cb75 0a3f f12a 4f3f 4bbd 923f
00000110: 4e0c a83f a8f5 063f 8a1e bd3e 1bc6 3e3f
00000120: 039a a83f 0194 123f b246 4c3f e705 433f
00000130: 36b7 d03e f65c 083f 9770 133f 96d2 903f
00000140: f86c d83e 6155 df3e 2f52 023f 2b6f cf3e
00000150: a405 a23f f0f0 403f b542 373f c38a f93e
00000160: da26 ff3e 32e6 413f c534 5e3f 2762 383f
00000170: 3e04 0a3f f5f2 183f 9009 763f 214f de3e
00000180: 34b8 503f 48eb 793f 4ba5 4d3f d00a 793f
00000190: 84c5 f63e d4a8 3f3f 1b48 4d3f d367 4c3f
000001a0: 4c1f 163f bc42 073f 840a 9d3f a18c ee3e
000001b0: 673f fa3e c04e 053f b34c 483f ca1f 953f
000001c0: d76e 3e3f d351 053f 8192 c03f 8609 603f
000001d0: 4942 1e3f 10ec 7d3f d432 1b3f 8e6e 623f
000001e0: 3bf6 003f a94a f33e 8f90 703f ba05 093f
000001f0: e184 a23e e6e8 823f 7175 823f cad0 193f
0.6523466 0.460058 0.7700647 0.95129246 0.7068351 0.48585615 0.59390527 0.69996727
0.648422 0.76548886 0.72145975 0.44885877 1.1712506 0.774799 1.0062624 0.45964748
0.81295794 0.65011793 1.1588598 0.52484643 0.8521609 0.89730406 0.72177 1.1864026
0.7945611 0.33094108 1.1248108 0.39467844 0.74498576 0.8798112 1.1702763 0.8488651
0.6268518 0.8755271 0.47169262 0.8590603 0.6801612 0.846067 0.47585228 0.4256467
0.6090653 0.81981695 0.8831136 0.49592265 0.65164006 0.6547128 0.7174454 0.5569112
0.64055395 0.40937728 0.51122946 0.4805442 1.2026284 0.6535357 0.76017433 0.72045
0.74412954 0.47968405 0.560291 0.70502186 0.44830865 0.58719635 0.5158268 0.42205712
1.1892873 0.5408599 0.809249 1.1464018 1.3128755 0.5271859 0.36937362 0.74521035
1.3172001 0.57257086 0.7979537 0.7618088 0.4076478 0.5326685 0.57593673 1.1314266
0.42270637 0.43619826 0.5090665 0.40514502 1.2657971 0.7536764 0.7158616 0.4873868
0.4983433 0.75741875 0.8679927 0.7202477 0.53912723 0.59745723 0.9610834 0.43419746
0.8153107 0.97624636 0.8033034 0.97282124 0.48197567 0.74866986 0.8018815 0.79845923
0.58641505 0.52836204 1.2268834 0.46591666 0.48876497 0.5207329 0.78242034 1.1650326
0.7438788 0.5207798 1.504471 0.8751453 0.61819893 0.9918833 0.6062443 0.88449943
0.5037572 0.475179 0.9397058 0.53524363 0.31742004 1.0227325 1.019209 0.6008421
