backend/models/exit_model_tcn.pth (torch, 330337 bytes, 20 tensors)

page_embedding.weight f4 [4, 32]
000000 00 00 00 00 00 00 00 00 00 00 00 00 00 00 00 00
       0.0 0.0 0.0 0.0
000010 00 00 00 00 00 00 00 00 00 00 00 00 00 00 00 00
       0.0 0.0 0.0 0.0
000020 00 00 00 00 00 00 00 00 00 00 00 00 00 00 00 00
       0.0 0.0 0.0 0.0
000030 00 00 00 00 00 00 00 00 00 00 00 00 00 00 00 00
       0.0 0.0 0.0 0.0
000040 00 00 00 00 00 00 00 00 00 00 00 00 00 00 00 00
       0.0 0.0 0.0 0.0
000050 00 00 00 00 00 00 00 00 00 00 00 00 00 00 00 00
       0.0 0.0 0.0 0.0
000060 00 00 00 00 00 00 00 00 00 00 00 00 00 00 00 00
       0.0 0.0 0.0 0.0
000070 00 00 00 00 00 00 00 00 00 00 00 00 00 00 00 00
       0.0 0.0 0.0 0.0
000080 35 b8 87 3f 5c a2 53 3e c7 6f c6 3f 74 91 58 bf
       1.060309 0.20667404 1.5502862 -0.84596944
000090 34 e3 16 bf 72 3d e4 3f 3c f3 c7 be e1 af 76 3f
       -0.58940434 1.7831252 -0.3905276 0.9636212
0000a0 3c 1e 71 bf ac c7 90 3e bd ff b4 3f 31 19 f2 3c
       -0.9418676 0.28277338 1.4140545 0.029553028
0000b0 18 2f b4 be 0e e6 1e 3f 43 02 26 3f 36 7b 84 bf
       -0.3519218 0.62069786 0.648472 -1.0350101
0000c0 6f 46 04 3f 47 0a 31 3f 10 46 a9 3e 40 14 8b 3f
       0.51669973 0.69156307 0.33061266 1.0865555
0000d0 61 90 d8 be e6 8f 2f 3f e4 9c da be a6 5f 06 3e
       -0.42297652 0.68578947 -0.42697823 0.13122424
0000e0 6b 55 44 3f 2b be 9e 3c 7b b3 00 3f ce 6b 6d bf
       0.7669284 0.019377789 0.50273865 -0.9274262
0000f0 17 e1 85 3f 13 a5 a8 bf c1 c5 c2 3e b5 70 2d 3f
       1.0459317 -1.3175377 0.380415 0.677501
000100 d1 9a 07 c0 c7 d4 c6 bf 10 dd 11 be 3a 98 d2 bd
       -2.1188242 -1.5533684 -0.14244485 -0.10282941
000110 49 91 90 bf ed 78 e8 3f ce f7 11 c0 e4 af 77 bf
       -1.1294338 1.8161904 -2.2807498 -0.9675276
000120 3a c5 f8 bd c6 8b a0 3f 37 9a c4 3f 8a d7 a0 bd
       -0.12146993 1.2542655 1.5359563 -0.07853611
000130 3c 8d bc be b6 6c b8 3f d2 3c 20 c0 ee e9 e5 3b
       -0.36826503 1.4408176 -2.5037122 0.007016412
000140 2a b3 35 3e 08 58 7e bd 40 ed ad be 1e 83 c7 be
       0.17744127 -0.062095672 -0.3397007 -0.38967222
000150 0e 13 7f bf ec ab 42 3f 7d 91 a8 be 5f b3 8b 3e
       -0.9963845 0.7604358 -0.329235 0.27285287
000160 ed 23 88 3f 91 ac e5 3d 00 e1 45 3f bc 26 ab bf
       1.0635964 0.11214555 0.7729645 -1.3371196
000170 0b a3 c1 be 06 66 4e bf 99 16 92 3f f2 7f 18 bf
       -0.37819704 -0.80624425 1.1413146 -0.5957023
000180 a8 f8 89 bf d0 f1 f9 be da 0d 87 bf 71 cd 34 bf
       -1.0779009 -0.488173 -1.0551102 -0.7062598
000190 57 5c a1 3f 32 3a 04 bf b7 08 26 bf dc a1 aa be
       1.2606305 -0.516513 -0.6485705 -0.33326614
0001a0 e9 a2 a1 bf 45 b2 2e 3e 72 82 c9 bf a6 9e 4c 3f
       -1.2627841 0.17060192 -1.5742934 0.7992958
0001b0 73 13 bd bf b9 06 9a be c0 54 01 40 85 d6 9a be
       -1.477156 -0.30083254 2.0207977 -0.3024179
0001c0 a3 5f a1 bf b6 b3 35 3e 1e 5f 8a 3f 68 26 bb 3e
       -1.2607311 0.17744336 1.0810277 0.3655274
0001d0 ae 3c ad bf 4d 36 cf be 9a 88 91 3f cb ea 64 bf
       -1.3534143 -0.40471116 1.1369812 -0.89420766
0001e0 99 b4 b6 bf 92 34 d0 bf 35 61 89 bf c6 96 6f be
       -1.4273864 -1.6266043 -1.073279 -0.23397359
0001f0 87 b6 25 3e 58 ca 2a bf b6 a6 b6 be 83 34 6b 3e
       0.1618291 -0.66715 -0.35674065 0.2296925

duration_proj.weight f4 [32, 1]
000000 a9 37 08 3f b3 83 94 3e 3c 51 0d 3f fe a4 13 bf
       0.5320993 0.2900673 0.5520208 -0.57673633
000010 b5 66 4d bf a8 c6 19 bf 61 18 b2 3e 2a b2 de bd
       -0.80234843 -0.6006875 0.34784225 -0.10873826
000020 81 db 4b be 58 aa 0b 3d 65 e0 59 3f fc 17 4d bf
       -0.19907953 0.034098 0.85108024 -0.8011472
000030 c9 9d 30 be bc 9f bb be 33 0b d6 3d c4 0d a0 3d
       -0.1724769 -0.36645305 0.10451355 0.078151256
000040 b2 ba bc be 2d 36 23 bf 78 8d 4e bf a4 92 43 bf
       -0.36861187 -0.6375454 -0.80684614 -0.7639563
000050 ac 4f 38 3e 22 fb 66 bf 6e a7 34 3f e0 30 fa be
       0.17999142 -0.9022695 0.7056798 -0.48865414
000060 63 e0 b0 3e 12 f2 3d 3e e0 56 eb 3e 76 42 e8 be
       0.34546193 0.18549374 0.45964718 -0.45363206
000070 88 51 c4 3e 0f 61 17 3f 17 54 b3 be 78 85 00 bf
       0.38343453 0.59132475 -0.35025093 -0.5020366

duration_proj.bias f4 [32]
000000 dd a8 a3 bc fe a3 e4 3e 42 10 90 bd ef 18 d1 3e
       -0.019977981 0.44656366 -0.07034351 0.40839335
000010 b8 19 57 be b8 7a 8c 3c a6 81 98 be 49 bf e3 3e
       -0.21005905 0.01714836 -0.29786414 0.44481876
000020 06 0f 62 bf a7 b5 ce 3d 36 b7 7c bd 5d 19 6e 3e
       -0.88304174 0.10093241 -0.06169816 0.23251863
000030 91 c2 a0 3e b6 f2 82 bd 96 a5 32 bd 2d 4f 49 3f
       0.31398442 -0.0639395 -0.043614946 0.7863644
000040 75 0f 9b be c1 59 63 3f 8e f8 d6 3e 6e 9f 62 bf
       -0.3028523 0.8880883 0.41986507 -0.8852452
000050 e6 01 2b bf 0f c2 40 3f a2 5a 78 3f d8 7a 58 bf
       -0.6679977 0.7529611 0.97013295 -0.84562445
000060 20 a0 77 bf ef 50 22 3f a5 41 03 3f 6d b1 2e bf
       -0.96728706 0.63404745 0.5127204 -0.6823948
000070 75 e0 5e 3f 53 ee 34 3f 9d 45 27 be 2d c7 29 3f
       0.87061244 0.70676154 -0.16335149 0.66319543

combine.weight f4 [64, 64]
000000 71 9e 71 3d a5 20 7f 3d 7a 58 0c 3d 01 a7 12 3e
       0.058988992 0.06228699 0.034264065 0.1432152
000010 db c6 fb 3d 4b e2 50 bc 15 8a a0 3d 26 70 5e 3d
       0.12293788 -0.012749265 0.07838837 0.05430617
000020 f1 ca 5e 3d 9a 1c 13 be 84 b4 17 3d bc 79 14 be
       0.05439276 -0.1436638 0.037037387 -0.14499563
000030 1d be 25 3e db d1 09 be e6 24 e8 bd 6b e1 7b bd
       0.16185804 -0.1345896 -0.11335163 -0.061494272
000040 bf eb ae bd 52 cb 99 bc d3 20 91 3c 6f c1 84 3d
       -0.08541059 -0.018773708 0.017715847 0.06482207
000050 cb ae 45 3d d2 b0 8d 3d 66 23 a9 3c 57 c0 dc 3d
       0.0482624 0.069184914 0.020646762 0.107788734
000060 00 96 be 3d 7b 9a 82 3d 9f 21 24 bd e5 ec 6d bd
       0.09305954 0.06377121 -0.040071126 -0.05808725
000070 0c e4 af 3d 2b f8 5b 3d 91 6e 8a 3d 0f 2b 5a 3d
       0.08588418 0.05370347 0.0675937 0.05326372
000080 05 18 8d bd 36 2a 01 3d f4 4c a2 3c 58 ab ca bd
       -0.06889347 0.031534396 0.019812085 -0.098959625
000090 85 37 bc bd bc 68 5c bd 36 ed 81 3d 43 9a 10 bc
       -0.09190277 -0.05381082 0.063440725 -0.008825841
0000a0 96 11 42 bd bb c6 84 3d 76 d8 d6 bb 68 56 a5 3d
       -0.047380053 0.06483217 -0.006556566 0.08073121
0000b0 99 76 d6 3d 14 03 0e 3e e2 1c b5 bd 69 e1 2c 3d
       0.104718395 0.13868362 -0.088433996 0.042207155
0000c0 bb 1e b3 3d 55 ea 47 3c 1c 9b a8 3d 19 3f 8e 3d
       0.08746096 0.012201865 0.0823271 0.06945629
0000d0 d9 79 e2 3d 8b 9e 6a 3d 8b 0e 9a bd 8f b3 99 bd
       0.11058397 0.057280105 -0.07522305 -0.07504951
0000e0 ff 7e d5 bd e1 b1 a0 3d 98 72 dd 3c c4 16 d6 bd
       -0.10424613 0.07846428 0.027032182 -0.10453561
0000f0 b5 00 b0 3d a4 88 c2 bc 39 32 a0 bc 8b 77 bb 3d
       0.08593885 -0.023746796 -0.019555198 0.091536604
000100 28 57 4e 3d de 14 f2 3d 04 64 76 bc 57 7d fb 3d
       0.050376087 0.11820386 -0.015038494 0.12279766
000110 ce eb 8d 3d f4 36 e7 bd cd c7 a0 3d 2e b0 67 bd
       0.06929742 -0.11289778 0.07850609 -0.056564502
000120 2d 1e e2 3d 52 41 84 bc 24 2e 53 bd b6 6b 3e bd
       0.11040912 -0.016144428 -0.051557675 -0.04648944
000130 89 33 a5 3d b6 9b 7a bd 02 94 a8 bd e9 e4 7b bd
       0.0806647 -0.061183654 -0.08231355 -0.061497603
000140 57 47 ca bd c6 14 c8 bc 5e e1 13 be fa 4d a6 bd
       -0.09876888 -0.024423968 -0.1444144 -0.081203416
000150 4c f6 49 3c ea 23 b0 bd 7a 04 4c bd b1 51 09 3e
       0.012326788 -0.086006 -0.049808957 0.13410069
000160 84 54 bb bd 8f b6 dd 3d 14 67 de 3c ad b4 b3 3d
       -0.091469795 0.10825836 0.02714876 0.087746955
000170 24 87 ab 3d c8 23 87 bd 37 c2 2e bd 52 4b d1 3d
       0.083753854 -0.065986216 -0.042665686 0.10219444
000180 50 c4 d2 3c 10 f9 ad bc ed 57 ff bd 89 6e bb 3d
       0.025728375 -0.021236926 -0.124679424 0.09151942
000190 e8 22 57 3c 18 ce c8 3d 88 d0 13 be fe d6 78 bd
       0.013130881 0.09804934 -0.14435017 -0.060751908
0001a0 ce bb 2b 3d 7d 55 bb bd 44 59 1f 3d 6b 37 e3 3c
       0.04192715 -0.09147165 0.03890349 0.027736386
0001b0 57 f8 8e 3c b3 f9 e8 3c 2a c8 fe bd c7 b1 df bc
       0.017452402 0.028439378 -0.12440522 -0.02730645
0001c0 99 60 05 bd ac f6 67 3c fb 3a e8 3d 85 0d a1 bb
       -0.032562826 0.014157932 0.11339375 -0.0049149417
0001d0 6f 9d 53 bd 70 4d 52 bd 00 20 92 3d 6f e2 8b bd
       -0.051663812 -0.05134338 0.0713501 -0.06830298
0001e0 70 c7 c2 bc 08 70 bc bd d9 d5 55 3d a1 1a d2 bd
       -0.02377674 -0.09201056 0.052205894 -0.10258985
0001f0 d7 40 51 3d 24 77 1c 3d fa 19 b8 3d 50 75 92 3d
       0.051087227 0.03819956 0.0898933 0.07151282
000200 68 84 56 bc 85 19 33 3e 76 31 a8 bd cc de c4 3d
       -0.013093092 0.17490204 -0.08212559 0.09612808
000210 4f 33 4b 3c 00 e1 a5 3d 8b 7c 85 3d 08 c1 ac 3d
       0.01240237 0.08099556 0.06517895 0.08435255
000220 e4 98 2e 3d a4 fa bb bd 31 49 81 3d 12 0a c3 3c
       0.042626277 -0.09178665 0.06312788 0.023808513
000230 5a 16 da 3d 4b ff 20 bc 14 d1 9d 3b 35 9c d4 bd
       0.106487945 -0.009826492 0.004816184 -0.103813566
000240 2b 9f 59 bd ca 4a 0a be 4c 9a b7 3c ac 3c d7 bc
       -0.05313031 -0.13505092 0.022412442 -0.026274048
000250 4d f3 15 3e b1 71 8c bd f6 a4 0e 3d fc 61 a9 bd
       0.14643593 -0.068576224 0.034825288 -0.08270642
000260 93 63 39 bc 40 e4 4e bc 83 88 6e 3d 31 54 a0 3d
       -0.011315244 -0.012627661 0.058235656 0.07828558
000270 1a 41 a2 3d 53 fa ce bd d6 08 57 3d 11 ff 73 bc
       0.079225734 -0.10106339 0.05249866 -0.014892356
000280 79 d4 c3 3b 97 fe 4c bd 26 04 07 3d 82 6d e0 3d
       0.0059762564 -0.050047483 0.03296294 0.10958387
000290 da ac 20 bd 22 ae 79 3d 0b d0 cd 3d 55 6a f5 bc
       -0.039227344 0.06095708 0.10049447 -0.02995793
0002a0 fd d5 ee bc 5b 28 02 3e 3d 4c 94 bd bd 36 54 bc
       -0.029154772 0.12710707 -0.07241104 -0.012952504
0002b0 91 42 97 bd 21 71 ba bd f0 b0 43 3d 5a b3 55 bc
       -0.073857434 -0.09103609 0.047776163 -0.013043249
0002c0 66 9e b9 bd 00 b3 65 bd 10 af cb 3c 74 18 41 3c
       -0.09063415 -0.05607891 0.02486375 0.011785615
0002d0 ad b5 2b ba 63 d2 c1 3d 5e 9d 6e 3d 39 c2 ba 3b
       -0.0006550204 0.09463956 0.058255546 0.0056994227
0002e0 88 3f 8e bd e5 92 07 3d aa 1f f1 3d e6 bf 80 3d
       -0.069457114 0.033099074 0.117736176 0.06286602
0002f0 ba 69 38 bd 13 ac 80 bd 78 66 20 3b 40 a6 a1 3d
       -0.045022704 -0.062828206 0.0024475139 0.07893038
000300 a8 75 80 bd e7 7c 22 3e ae e9 01 3e e2 66 67 bc
       -0.06272441 0.15867959 0.12686798 -0.01412365
000310 f1 9b 59 3d 43 68 43 bd f5 84 06 bb 76 cd 00 bd
       0.053127233 -0.047706854 -0.0020526026 -0.031445943
000320 ca fd c0 3d 1d bc b8 bd 68 2a bd 3d fb 69 82 be
       0.094234064 -0.09020255 0.09236604 -0.25471482
000330 7a d9 21 3e 5d 22 90 3d 86 cd 84 bd 24 5f a8 3d
       0.15805617 0.07037804 -0.06484513 0.08221272
000340 85 ee ee 3d d9 f8 b4 3d 2c 75 8c bb 2e 3f 4f bd
       0.11666588 0.088365264 -0.004286429 -0.050597362
000350 3e 2b 30 3e 41 6a 82 3d 1b f0 28 3c 25 2c 52 3d
       0.17203996 0.063679226 0.010311152 0.05131163
000360 75 9d 42 3d 84 a5 dd 3d 2f 43 09 bd c4 e5 8f bd
       0.047513444 0.10822585 -0.033511337 -0.07026246
000370 24 ac bb 3c 6a 17 07 3d 2a 17 18 3d 1c 46 79 3d
       0.022909231 0.032981314 0.037131466 0.060857877
000380 a3 4f aa 3b d8 f4 a8 3d d5 a2 d5 3d 84 be e2 bd
       0.0051974817 0.08249825 0.10431448 -0.11071494
000390 c1 d3 06 3e 28 42 72 3d 13 be 6e bd 5b 7e 51 bd
       0.13166715 0.059145123 -0.058286738 -0.051145893
0003a0 95 ef cb 3c 18 dc 9c bc 1e aa 11 be 73 1b 96 3b
       0.024894515 -0.019147918 -0.14225051 0.004580909
0003b0 65 ab 1e 3d 63 bf 96 3d c0 03 26 bc de 9e 89 bd
       0.038737673 0.07360723 -0.01013273 -0.06719755
0003c0 a6 ad d4 3d da bf d0 3d dc c9 ee 3c 74 ce 62 bd
       0.10384683 0.10192843 0.029148988 -0.05537267
0003d0 b5 ae 0f bd c1 a6 d7 bd df 57 94 bd cf 1b fc 3b
       -0.035078723 -0.10529853 -0.072433226 0.0076937447
0003e0 03 ef cc 3c 57 5c 3f 3d d3 4c fa bb 09 83 83 bd
       0.025016313 0.04671892 -0.0076385527 -0.06421477
0003f0 de a5 87 3c 2a 5c b4 bd 42 c7 8f 3d 9a 5e c4 3d
       0.016558584 -0.088066414 0.07020427 0.09588356

combine.bias f4 [64]
000000 ad 4d ca 3d 30 3e bd bd f2 d2 3f 3d 11 77 ad 3d
       0.09878097 -0.09240377 0.046832033 0.08469976
000010 cc 5d cc bd fb d7 85 bd 98 94 5b bd 60 df b5 bd
       -0.09978828 -0.06535336 -0.053608507 -0.08880496
000020 13 c4 3e 3d bc 16 0b bd a6 34 dd 3c ae a1 01 bd
       0.04657371 -0.033957228 0.027002644 -0.03164833
000030 56 bc 84 bd 55 2f b7 3d 27 c7 89 bd 10 e6 f5 3d
       -0.06481235 0.08944575 -0.067274384 0.120067716
000040 ef 9e 7c 3d 6d 32 5c bd f5 8f 99 3d f9 2d 08 3e
       0.06167501 -0.053759027 0.07498161 0.13298787
000050 b2 e3 45 bd 0d 78 a9 3d 9b 3a 97 3d 0a a0 a7 bd
       -0.04831285 0.08274851 0.07384225 -0.08184822
000060 ea 3a bb bd 7e 6b 59 3d 99 78 6d 3d 7f 72 e2 3d
       -0.09142096 0.05308103 0.05797634 0.11056995
000070 8a ef ab 3d 3e 41 35 3d 1c 87 c8 3d 25 08 4c bd
       0.08395298 0.044251673 0.09791395 -0.049812455
000080 a3 12 00 be 24 97 d5 bd 3d 30 66 3d ff ac e0 3b
       -0.1250711 -0.104292184 0.056198347 0.0068565602
000090 81 dc c1 bd 03 af fb 3d 94 36 11 3d d7 0b ae bb
       -0.09465886 0.1228924 0.03545244 -0.00531147
0000a0 14 a3 77 bc 3c 06 85 bd a2 6a 8e 3d 97 10 1c bd
       -0.015114564 -0.0649533 0.06953932 -0.03810176
0000b0 8d 3c 22 3c 36 7b 20 bd 67 61 9e bd 01 9f eb 3d
       0.009902132 -0.039180003 -0.07733422 0.11504937
0000c0 c2 2b ee 3d 41 e0 d1 3c 52 e7 e8 3d ae 7a be 3b
       0.1162944 0.025619628 0.11372246 0.0058129644
0000d0 39 6f 65 3c 3b ee cc bd 97 de af 3c 52 75 d4 bd
       0.014003568 -0.10006376 0.021468444 -0.103739396
0000e0 00 5d 56 bc 5e ed 2b bd 82 ff 9e bd c1 3d f4 3d
       -0.013083696 -0.041974418 -0.07763578 0.11925841
0000f0 b2 db bb 3c e4 c2 01 bd 88 f1 02 3c 89 14 84 bc
       0.022931907 -0.031680003 0.007992156 -0.016123073

tcn.0.conv1.conv.weight f4 [64, 64, 3]
000000 54 1d d7 bc 9d 84 06 3d 8d 41 cb 3c 3a a5 4b 3c
       -0.026259102 0.032841314 0.02481153 0.01242953
000010 a9 14 8e 3d d9 98 f6 3d d8 e6 88 bc 92 cd 47 bd
       0.06937534 0.12040872 -0.016711637 -0.04878003
000020 9b ed 9a bd 19 45 ab 3b 74 83 96 bd 0c 48 36 3d
       -0.07564851 0.005226743 -0.073492914 0.044502303
000030 c1 37 ab bd 54 a0 b2 bc 42 0a d4 3d 30 6f 5a 3d
       -0.083602436 -0.021804966 0.10353519 0.053328693
000040 fa a6 0d bd b4 15 8c 3c 8d 64 3c 3d 1d 2d d8 3c
       -0.03458307 0.017100193 0.04599433 0.0263887
000050 b9 c0 a5 bd fc 14 53 bd 37 30 55 3d ae 48 c3 3c
       -0.080933996 -0.051533684 0.052047934 0.023838367
000060 0b 96 ea 3c 44 a0 20 bd b5 ac 98 bd 7b c9 2e 3d
       0.028636 -0.03921534 -0.07454816 0.042672615
000070 55 fc 42 3d 42 dd 15 bd d9 de 46 bb fe 58 c4 3b
       0.047603924 -0.03658796 -0.003034523 0.005992054
000080 e7 78 75 3c 0e c6 0d 3c d6 a0 44 3d 73 bc c4 3b
       0.014982439 0.008653177 0.048004948 0.00600391
000090 ac 3d 0e 3d d8 c4 6d 3d 0d 6d 57 3d 00 ad 62 3c
       0.034726784 0.058049053 0.052594233 0.013835192
0000a0 23 52 b1 bc b3 7c 98 3d b6 58 21 bd ba f2 80 3c
       -0.021645611 0.074456595 -0.039391242 0.015740741
0000b0 5e 3f 8b 3d d7 7e 5e 3d 60 15 b1 bc af c9 17 bd
       0.06799196 0.054320183 -0.021616638 -0.037057575
0000c0 f5 03 a3 3c 44 ad 4b bd 54 07 87 3c 1c 3b 8a 3c
       0.019899348 -0.049725786 0.016482987 0.016873889
0000d0 ec a1 65 bd e8 9b a0 3d d3 5b 6d 3c 76 f0 55 bd
       -0.056062624 0.07842237 0.014487225 -0.052231275
0000e0 7a d4 92 bd 41 26 26 3d 0b a7 88 3b de d2 7a 3d
       -0.07169433 0.040563826 0.0041703037 0.061236255
0000f0 5e ad 99 3d c8 6d 32 3d 11 74 96 3d bb 2a 32 bd
       0.0750377 0.043561727 0.07346357 -0.043497782
000100 7b 08 89 bd 52 69 53 3d 58 ac 15 bd 7f c9 94 bd
       -0.06691071 0.051614113 -0.036541313 -0.07264995
000110 a8 88 53 3d ec e1 87 3d 0c db 5e bd 82 26 24 3d
       0.051643997 0.06634888 -0.054408118 0.040075786
000120 ab b5 e0 bb 86 dc 5a bd 43 84 41 3d 62 8d a5 3b
       -0.006857594 -0.053432964 0.047245275 0.0050522545
000130 4c 9a 94 bd 0e f0 c2 bd 03 c6 68 bd e1 f1 2f bd
       -0.07255992 -0.09518443 -0.056829464 -0.042955283
000140 5d 94 df 3c ec d7 a1 bc eb 4e 03 bd 36 66 34 bd
       0.027292425 -0.01975628 -0.032057684 -0.04404279
000150 30 a0 e8 bc 47 d8 09 3d 3b 84 41 bc d4 fa 04 3d
       -0.028396696 0.033653524 -0.011811311 0.03246577
000160 a4 bc 35 3d 94 68 50 3d bf af 3d bd d8 3c af 3d
       0.044369355 0.050880983 -0.046310183 0.08556527
000170 5c b8 99 3a fd 44 6e bd 1c 9b 95 bc 21 30 a4 3c
       0.0011727917 -0.05817126 -0.018262438 0.02004248
000180 06 58 39 bc 43 b8 8d bd 9c 14 3c 3b b4 26 65 bd
       -0.01131249 -0.06919911 0.0028698808 -0.055945113
000190 dc a6 4c 3c d6 1f 92 bb 87 cc 6a bd 51 d1 63 3d
       0.012490954 -0.0044593615 -0.05732396 0.05561954
0001a0 7f 20 f0 bc 2f 2b 5b 3d c4 cc 36 bd a7 37 b4 3d
       -0.02931237 0.05350798 -0.044628873 0.08799677
0001b0 c7 0b ca bc ec 14 e2 bc 25 61 5e 3d 65 86 62 bd
       -0.024663819 -0.027597867 0.054291863 -0.05530395
0001c0 3d 32 b5 3a 7d 3f 0f bd bc c8 a2 3c bf b2 8a 3c
       0.0013824176 -0.034972657 0.019871108 0.016930936
0001d0 b7 68 c1 bd 10 be 84 3d 72 61 b3 bc 18 37 7e 3d
       -0.09443801 0.06481564 -0.021897051 0.06206426
0001e0 32 33 54 bd ed 1a 0f 3d c1 b7 1b bb d1 b9 83 bd
       -0.051806636 0.034937788 -0.002376065 -0.06431926
0001f0 b6 ae 98 3d ea 7f bd 3c de 29 0f bd 8c b7 9a bd
       0.074551985 0.023132283 -0.034952037 -0.0755454
000200 57 10 95 bd 20 d8 8d 3d 1d 8a 5b bd 41 58 fa bb
       -0.07278507 0.06925988 -0.053598512 -0.007639915
000210 85 93 87 3d 14 b2 7a 3d fe 79 7d 3c 71 36 fb bc
       0.06619934 0.061204985 0.01547098 -0.030665608
000220 46 c0 0f 3d a9 25 08 3d b0 e7 4f bc f1 a8 76 3b
       0.035095476 0.03323904 -0.012689516 0.0037637318
000230 76 0d 14 3d 73 1b 6d bd 48 e3 80 bd e0 b4 cd b9
       0.03614565 -0.057887506 -0.062933505 -0.0003923541
000240 91 b2 04 3d c0 35 5e bd 37 14 86 bd b5 2b cd bc
       0.032396857 -0.05425048 -0.065468244 -0.025045255
000250 98 5d 78 3d 47 31 f1 3b 21 b9 62 bc 82 2a 68 3d
       0.060636133 0.0073606106 -0.0138380835 0.056681164
000260 64 4f 3d 3d 87 55 a6 3d c6 da 1c bb d2 a6 2f 3d
       0.04621829 0.08121782 -0.002393411 0.0428837
000270 20 0b aa bc 86 6d 95 3c 10 44 a2 3d 3e ef 19 bd
       -0.020757258 0.018240701 0.07923138 -0.037581675
000280 b2 51 48 bc 6d 12 2b bd 8a f6 91 bd f8 6c 28 3c
       -0.012226509 -0.04176562 -0.07127102 0.010279886
000290 78 77 b6 bc ff 6e 1c 3d 91 33 11 bd ac 96 98 bd
       -0.022273764 0.03819179 -0.03544957 -0.074506134
0002a0 07 6c 7e bc 51 89 6e bd 66 2b 5d bd d9 34 7b bd
       -0.015528685 -0.058236424 -0.053996466 -0.061329696
0002b0 7b 3f f5 bc a1 db a4 3c 73 0e 7e 3d e7 06 1f 3d
       -0.029937496 0.020124258 0.0620255 0.038824942
0002c0 a6 dc c0 3b b4 39 2a bd bd ef e2 3c 9c d7 25 bd
       0.0058856783 -0.041558936 0.027702207 -0.040488824
0002d0 35 47 8a 3d ff 25 34 3d e3 9e 98 ba fa 0c 19 bd
       0.06751863 0.04398155 -0.0011644032 -0.03736589
0002e0 2e 84 28 3d ba 14 de bc e0 ee 10 bd 0f df 3a 3c
       0.04114168 -0.027109493 -0.03538406 0.01140572
0002f0 ea 68 13 bd 20 80 31 bd 2e 5b 25 bd 51 78 9b bb
       -0.035988726 -0.04333508 -0.04037016 -0.0047445674
000300 0f a8 16 bd 52 93 9e 3b 5e 7a 26 3d 55 07 e2 3b
       -0.036781367 0.0048393393 0.040644042 0.0068978467
000310 1d 64 80 bd ae b7 b0 3d 98 06 01 3d c3 e3 06 bc
       -0.06269095 0.08628784 0.03150043 -0.008233014
000320 03 6e 06 bd e2 c8 f1 3a fa 38 8b 3d 6f 8b 6b 3d
       -0.03281976 0.0018446709 0.06797977 0.05750602
000330 83 c9 98 3d cc c2 86 3d 7c f2 93 3d 88 d7 b4 ba
       0.0746031 0.06580123 0.072239846 -0.0013797143
000340 f9 a8 30 3d 37 c7 ba 3c a7 bb 13 3d 97 c5 df bc
       0.043129895 0.022800071 0.03606763 -0.027315898
000350 c8 a2 48 bd fa cf bb 3c c2 62 fe 3c cf fa bb 3c
       -0.048983365 0.02292632 0.03105295 0.022946743
000360 e0 eb f8 bc 65 09 b1 3c d5 07 67 bd ea 0f 14 3d
       -0.030385911 0.021610925 -0.056403954 0.03614799
000370 f9 8b 89 3c b2 32 b1 bd cb b3 6c bd a1 36 1c 3d
       0.016790377 -0.086522475 -0.05778865 0.038138036
000380 17 68 71 3d 7f d0 ab bc c5 5f 83 bd 45 32 0d 3d
       0.05893716 -0.020973442 -0.06414751 0.03447177
000390 60 ac c9 3c be 19 88 3b 4d 08 3e 3a 28 9e 9a 3d
       0.024618328 0.0041534593 0.0007249162 0.07549697
0003a0 cf c7 a3 bc 57 f1 aa 3d c3 f4 6e bd 1b 52 af 3a
       -0.019992737 0.08346813 -0.05833889 0.001337591
0003b0 d2 f8 5d 3d 1c 29 6a bb f4 cf 03 bd 09 2d 1d 3d
       0.05419237 -0.003573007 -0.03218074 0.038373027
0003c0 a7 0f 00 3d da b0 45 bd 14 75 bc bc 64 c9 54 bd
       0.031264927 -0.048264362 -0.023005046 -0.051949874
0003d0 45 2f 15 3a 9f 87 fc bc c4 52 46 bd 88 f5 28 3d
       0.00056909426 -0.030826388 -0.048418775 0.04124978
0003e0 bb 25 51 bb 0e 3c 32 bd 27 4e b9 3b fa 2f c0 3d
       -0.0031913358 -0.043514304 0.0056550684 0.09384151
0003f0 11 21 a2 ba 65 8c 96 bb d9 9a 41 bd 5c 11 a5 bc
       -0.0012369474 -0.004594373 -0.047266815 -0.02014988

tcn.0.conv1.conv.bias f4 [64]
000000 ce ee 41 3c 73 19 9c 3d a8 42 2b 39 1f e3 87 bd
       0.011836721 0.076220416 0.00016332662 -0.06635117
000010 5d e3 6a 3d 7d 0d 80 3d 59 a0 9f 3d ae ce fd 3c
       0.057345737 0.06252573 0.07794256 0.030982342
000020 bf c1 36 bd 1e ca cd 3c 3a 8c 94 3d a2 1a 5b bc
       -0.044618364 0.025120791 0.072533086 -0.013373049
000030 19 3d 3c bc 0a 1c 1c 3d 1b ea e5 bc 61 fb 43 bd
       -0.011489176 0.038112678 -0.028065732 -0.047847155
000040 c1 49 48 bd f3 a2 5a 3d ec e6 56 3d 6b 8b ac 3a
       -0.048898462 0.053378057 0.052466318 0.0013164108
000050 60 8e b2 bc c3 2e 1c bd 70 2e 45 3d 8e 81 86 3a
       -0.021796405 -0.038130533 0.04813999 0.0010261999
000060 23 da e6 bc e2 83 42 3d 69 bb 9d 39 48 08 9b 3d
       -0.028180188 0.047489055 0.00030085005 0.07569939
000070 0f e1 82 3c d7 81 c7 bc 4b c3 60 bd 42 2f 51 3d
       0.015976457 -0.024353905 -0.054873746 0.05107046
000080 dd 2f 00 3d 47 f4 15 bd 4b 19 c3 bc 1c a9 fa bb
       0.031295646 -0.036609914 -0.023815772 -0.007649554
000090 1a d9 17 3d 65 b2 2d 3d e2 f5 16 bd 10 cb 44 3c
       0.03707228 0.04240646 -0.036855586 0.0120113045
0000a0 ab a5 61 bd 36 11 00 3d ba 9e c1 3c 06 ff 74 bd
       -0.055089634 0.031266414 0.023635257 -0.05981352
0000b0 df 31 50 bd 57 ba 3e bc 31 4a 24 3d 63 f7 ac bb
       -0.05082881 -0.011641107 0.040109817 -0.005278514
0000c0 07 55 24 3d 85 1f 51 3d 9c e2 75 3d 92 0c 82 3d
       0.04012015 0.05105545 0.060030565 0.06350054
0000d0 32 e3 75 bd 7a 9a 72 3d 96 1f 4d 3d 37 96 a4 bd
       -0.060031123 0.05922935 0.05007895 -0.08036464
0000e0 d6 1f bc 3c d7 a2 d6 bc 53 81 23 3d b8 6d 6c 3d
       0.0229644 -0.026200695 0.039918255 0.057721823
0000f0 85 7d 67 3d 1c 28 12 bd dd f6 5b bd de a5 46 3c
       0.05651619 -0.035682783 -0.053702224 0.012124507

tcn.0.conv2.conv.weight f4 [64, 64, 3]
000000 5f 8e d4 3b c2 94 a1 3c 7c 53 58 3d a9 8d 56 bd
       0.0064866985 0.019724254 0.052813992 -0.05238119
000010 c0 a0 0a bd 66 69 b8 3c 91 78 43 3d 45 8c 3e bd
       -0.03384471 0.022511195 0.047722403 -0.04652049
000020 53 e8 63 3d de 32 41 bc 73 a8 bd 3b aa 2d 7d bd
       0.055641484 -0.011791913 0.005787903 -0.061811127
000030 f2 e4 0a bc 15 47 a0 3c 07 1b 8c bd 02 72 a5 bd
       -0.008477436 0.019565145 -0.068410926 -0.08078386
000040 02 c6 ea bc bb ef f3 bb 1e af 11 3c 45 d5 0d bd
       -0.02865887 -0.0074443496 0.008891849 -0.034627218
000050 cd 7e 21 3d 4a c4 41 3d d8 8a e0 3b ff 16 bb bb
       0.039427567 0.047306336 0.006852489 -0.0057095285
000060 b8 31 87 3c cf 74 30 3c 94 3f c8 bc ca 9c 62 3d
       0.0165032 0.010770037 -0.024444379 0.055325307
000070 30 0d 13 bc 40 4f 3e bd f8 08 8e bd 4f bf 56 3c
       -0.008975312 -0.046462297 -0.069353044 0.013107135
000080 7f 4a 09 3d 8f 9e 1e bd 46 7d 28 bc 16 9d 3a 3d
       0.03351831 -0.038725432 -0.010283774 0.045559965
000090 95 a8 6a 3d 73 dc 67 3c 00 8f 5d 3d da 23 80 3a
       0.05728968 0.01415168 0.054091454 0.000977631
0000a0 db e9 46 bd 81 4f b4 bb c6 d7 f7 3b 1d 7c 3c bc
       -0.048562866 -0.0055026417 0.007563564 -0.0115042
0000b0 75 78 8e bc e0 75 68 3c 81 1c f5 3c 60 3f a7 bd
       -0.017391423 0.01418826 0.029920818 -0.08166385
0000c0 4b 94 10 bd 28 fc a0 bd ea b2 f5 3c 27 b8 a6 bc
       -0.035297673 -0.07860595 0.02999254 -0.020351483
0000d0 07 42 6b bc 3e a4 82 bd cf ca d5 bc 44 e2 94 bd
       -0.014359004 -0.06378983 -0.026097683 -0.07269719
0000e0 93 44 b3 bd ec 73 39 3b 7a d3 46 bd 3e d4 68 3d
       -0.08753314 0.0028297855 -0.048541524 0.056843035
0000f0 96 f7 61 bc 04 69 e1 bc b7 71 55 3c cc e1 bc 3c
       -0.013791939 -0.027515896 0.0130276 0.023056887
000100 72 49 d0 bc f5 ae 15 bd 52 66 85 bc 44 81 79 bd
       -0.025425646 -0.036543805 -0.016284142 -0.060914293
000110 56 14 5f bd f5 06 93 bd dc ba f6 3c 65 80 42 bd
       -0.054462753 -0.07179061 0.030118398 -0.047485728
000120 1a 69 0c 3c 77 1a 24 bc 9c c3 59 bd d2 bf de bc
       0.00856998 -0.010016075 -0.053165063 -0.027191076
000130 63 f7 44 bd 07 3b 76 bd 8c 6f ce bc 5f 23 4f bd
       -0.04808749 -0.060114887 -0.025199674 -0.050570842
000140 eb 39 d4 3c 4e 93 b2 3c b8 24 9b bd 6e 94 ed 3c
       0.025906524 0.021798756 -0.07575363 0.02900144
000150 9d 34 85 bd 9a db 28 3d a2 5f 20 bd fd 6e b6 3c
       -0.06504176 0.041225053 -0.039153703 0.02226972
000160 c0 ef 97 bc e0 04 8b ba fa f8 b3 bc 0c 91 09 ba
       -0.018546939 -0.0010606311 -0.021969307 -0.0005247749
000170 e8 a9 92 bc 7b 54 34 3d d4 88 69 bd 67 08 76 bd
       -0.017903283 0.04402588 -0.057015255 -0.060066607
000180 50 a4 1a bd a5 d3 23 39 13 c9 f3 bb 44 db b2 3c
       -0.037754357 0.00015623735 -0.0074397414 0.02183307
000190 c0 3a 14 3d 65 88 0b 3d 3f 3e e3 bb 87 35 28 3d
       0.03618884 0.034065623 -0.0069349105 0.041066673
0001a0 51 ad e9 3c e3 63 58 bd ad d6 dc 3c a0 cd a0 bc
       0.028525027 -0.052829634 0.026957834 -0.0196293
0001b0 f5 27 10 3c 38 a1 00 ba 47 95 da bc ba e9 08 bd
       0.008798589 -0.0004906836 -0.02668251 -0.033426024
0001c0 21 b8 5a 3d f7 4e ec bc 27 c4 09 3d fb 38 5c bd
       0.053398255 -0.028846247 0.03363433 -0.05376528
0001d0 96 37 67 bc 79 94 bc 3c 26 d9 8e bc 8e d4 93 bd
       -0.014112374 0.023020016 -0.017437529 -0.07218276
0001e0 f2 60 1c 3d 08 98 9b bd 3b f3 c1 bd 26 ab 3e bd
       0.03817839 -0.07597357 -0.09470221 -0.04654994
0001f0 67 83 44 3d 71 45 4b bd d5 64 92 3b d5 21 0b 3c
       0.047976878 -0.04962677 0.0044675865 0.008491953
000200 ce 11 3d bc ca 78 21 bd 4b 60 37 3d 4f d8 50 bd
       -0.0115398895 -0.039421834 0.044769567 -0.050987538
000210 ab 58 0c bd 0f 78 8d bd 62 b2 69 bd 48 da 8a bd
       -0.034264248 -0.06907665 -0.057054885 -0.06779915
000220 44 8b 8c bd ea 19 9b bd b3 c8 a2 3c 22 c1 53 bd
       -0.068625 -0.07573302 0.019871091 -0.051697858
000230 41 63 a1 bd 83 e8 30 3c 57 41 b7 3b f2 08 8d bd
       -0.07880259 0.010797623 0.005592506 -0.06886472
000240 fa 55 08 3d 73 88 38 3d 26 d0 34 bc 3c b6 78 bd
       0.03328512 0.045052003 -0.011035955 -0.060720667
000250 d7 8e 9a bc 95 03 7e bd 33 25 58 3d 43 d4 d8 bc
       -0.01886694 -0.062015135 0.05276985 -0.026468402
000260 90 5e 1d bd e4 a9 92 bd 30 29 74 bd 49 3c 47 3d
       -0.03842026 -0.0716131 -0.059609592 0.048641477
000270 1c 8a 80 bd 1c d4 d0 3b f7 b9 36 bd 4a 99 6e bd
       -0.06276342 0.0063729417 -0.044610944 -0.058251657
000280 04 fd 9d bc a0 03 7d bd f4 12 8b 3b a8 55 8c bb
       -0.019285686 -0.061771035 0.0042442027 -0.004282672
000290 17 26 6b 3c 75 e2 19 3d 1b 97 23 3d 56 89 9a 3b
       0.014352343 0.037569482 0.039939027 0.0047160788
0002a0 a3 b2 c7 bc 02 6a 17 bd 22 f6 b4 3c be 71 a6 bc
       -0.024377173 -0.03696633 0.022090022 -0.020317908
0002b0 dc 70 98 bd 27 60 ad bd 5f cb 46 bd 28 60 31 3a
       -0.07443401 -0.08465605 -0.048533794 0.00067663426
0002c0 85 5c 90 bd 00 59 2e bb ff b2 8a bd 10 c9 21 3d
       -0.07048897 -0.002660334 -0.06772422 0.03949839
0002d0 09 84 1b 3d 73 db 4a 3c b0 84 5c bd 1c 6b 11 bc
       0.037967715 0.012381422 -0.05383748 -0.0088756345
0002e0 4f e5 6f 3b c7 b2 e4 3c 17 31 96 bd 58 48 80 3d
       0.0036605184 0.027917279 -0.07333582 0.062637985
0002f0 d7 67 af 3c 00 7b e3 bc 39 af 41 bd d9 e5 a5 bd
       0.02141182 -0.027768612 -0.047286246 -0.081004806
000300 c5 d8 2f 3c f0 06 1d bb d2 14 da 3c 16 c5 f8 bc
       0.010732834 -0.0023960434 0.026621256 -0.030367415
000310 4e 28 db bc 95 67 8c 3d 8c 47 e6 3c d2 92 d4 3c
       -0.026752617 0.06855694 0.028110288 0.025948916
000320 2a fc 0d 3d 8b 15 a5 3c 59 45 40 3d a9 5a a2 3c
       0.03466431 0.020151874 0.046941135 0.01981862
000330 4b 20 7a 3d 88 e0 a2 bc 02 c1 4d 3d 9d ff 9c bd
       0.061065953 -0.019882455 0.050232895 -0.07665942
000340 59 c1 05 bd df 0e b4 3b b2 31 b6 3c 15 38 dd 3d
       -0.032655094 0.005494937 0.022240493 0.108017124
000350 39 e2 00 3d 37 30 d2 3c b6 77 c8 3c bb 83 95 3c
       0.031465743 0.025657756 0.024471145 0.01825129
000360 70 12 81 3c dd a3 61 3d ea 38 a7 3d 18 76 a3 bb
       0.015755862 0.055087913 0.08165152 -0.004988443
000370 e9 89 9d 3d c4 9b 19 bd 63 97 df 3d 99 04 4f 3c
       0.0769232 -0.037502065 0.109175466 0.0126353735
000380 f7 35 cd 3d cb f1 ee 3d ad 5a c7 3d 69 c5 29 bc
       0.100200586 0.11667212 0.09734092 -0.010362008
000390 29 15 28 bd 34 7c 26 bc c5 3d 61 3c 91 19 01 bd
       -0.041035805 -0.010161448 0.013747637 -0.031518523
0003a0 b7 90 8d 3d a8 c9 04 3d 4f 1d 20 3e 26 a3 3c 3c
       0.06912368 0.032418877 0.1563618 0.011513507
0003b0 3e 84 97 3d 9d 89 fb bc 37 d7 9e 3c b5 25 55 3d
       0.0739827 -0.030705268 0.019389732 0.052037913
0003c0 56 99 11 3d ec 55 a4 3c 9a 4e 4c 3d a1 7b 7d bc
       0.035546623 0.020060502 0.049879648 -0.01547137
0003d0 a4 a7 b0 3c f5 e9 b5 3d ae 0e 09 bd b9 05 39 ba
       0.021564312 0.088825144 -0.033461265 -0.00070580427
0003e0 53 65 fb 3c 3c 70 ad bd 5f 2f 80 3d 78 af 52 bc
       0.030687964 -0.08468673 0.06259035 -0.012859218
0003f0 b5 3a 81 3d 5f 8f ed 3c 63 97 75 3d f6 b5 0d bd
       0.063100256 0.028999029 0.059958827 -0.03459736

tcn.0.conv2.conv.bias f4 [64]
000000 8e 08 97 bd 93 e4 7f bd 7a 06 92 3d 99 46 db 3c
       -0.073746786 -0.062473845 0.071301416 0.026767062
000010 e6 bc aa bc b1 c4 f3 bc 00 08 50 3d 7c d0 fb 3b
       -0.020842027 -0.029756876 0.05078888 0.0076847654
000020 8f f8 af 3c c6 ee 4d bc 24 aa c8 bc bf 3e 52 bd
       0.021480827 -0.012569135 -0.024495192 -0.05132937
000030 5f 90 58 3d 14 ac 15 bd 56 d8 90 3d bb f3 e6 bc
       0.052872058 -0.03654106 0.07072513 -0.028192392
000040 b9 54 8b bd 89 7a 39 bd 62 16 5c bd 53 e2 07 3d
       -0.06803269 -0.045282874 -0.053732283 0.033174824
000050 ff b6 30 3d b1 be de 3c ed 0a fe 3c c5 7b 31 bc
       0.04314327 0.027190538 0.03101107 -0.010832732
000060 28 92 c1 ba b1 ca 74 3d 7c cb 31 bd 24 47 c7 bc
       -0.0014768289 0.059763614 -0.04340695 -0.024325915
000070 71 61 d2 b8 94 4d bb 3d 03 69 7c bb 5c 4a 7c bd
       -0.0001003173 0.09145656 -0.003851474 -0.061594352
000080 7b 0c 8e 3d 15 36 82 3d 37 b8 59 3d 10 ed 4b 3d
       0.06935974 0.063579716 0.053154197 0.049786627
000090 49 a9 ec b9 5a 92 8f 3d 48 18 7d 3d e2 31 4c bd
       -0.00045139555 0.07010336 0.061790735 -0.04985226
0000a0 11 35 3d bd f2 98 83 3c b7 fa 83 bd 37 38 a2 bc
       -0.046193186 0.016064141 -0.064443044 -0.019802196
0000b0 19 5a 95 bb 2d 08 fc 3a ba a7 33 3d 19 96 9d 3c
       -0.0045578596 0.0019228511 0.04386113 0.019236611
0000c0 cf e9 73 bc ab 75 e3 3c 60 52 b3 3c fd 07 a4 bc
       -0.014887287 0.02776607 0.021889865 -0.02002334
0000d0 00 4a 4f bc bd 73 a0 3c c7 37 50 bc 44 07 ab 3c
       -0.01265192 0.019586438 -0.012708611 0.020877488
0000e0 6e 3a 55 bd de 18 45 bd ea c8 81 3c 3e d0 2a 3d
       -0.052057676 -0.04811942 0.015842874 0.0417025
0000f0 c3 91 84 bd 52 79 5e 3d ee d6 01 3c 5d 84 0b 3d
       -0.06473114 0.05431492 0.007924778 0.03406178

tcn.1.conv1.conv.weight f4 [64, 64, 3]
000000 8b f5 44 3c ee e0 42 3d 8d f7 3c 3d c9 12 35 bd
       0.012021433 0.04757779 0.04613452 -0.044207368
000010 fb 1f 53 3d b7 ec c2 3d d3 a8 e9 3c 1c 91 4a 3d
       0.05154417 0.09517806 0.028522884 0.049454793
000020 02 0b c3 3b 5a 63 0d 3d 62 eb 7b 3c a8 07 a7 bd
       0.00595224 0.034518577 0.015375944 -0.08155757
000030 df b1 3a bd fd f6 6a 3c 9e 4b c3 3d 2a bb a0 bd
       -0.045579787 0.014341113 0.09535907 -0.07848199
000040 9f 71 63 3d ae fd 5f 3d aa dc 42 3d 99 d5 3f 3d
       0.05552828 0.054685287 0.047573723 0.046834562
000050 5d 1e 6a 3d 2d 3b 39 bd 87 fe be 3d 56 7f 03 3d
       0.057157863 -0.04522245 0.09325891 0.03210386
000060 60 be 9c 3b 64 d9 35 3d a6 b7 2e 3d 4e d7 58 bd
       0.0047834367 0.044396773 0.04265561 -0.052939706
000070 f5 e5 10 3d 17 53 08 bd 64 87 68 3c d5 1f 69 bd
       0.035375554 -0.033282366 0.014192436 -0.056915123
000080 8b f7 04 bd 44 89 0e 3d 4c 78 89 bd a8 f7 74 bd
       -0.032462638 0.034798875 -0.06712398 -0.059806496
000090 06 85 1c 3c 6f 9e 49 bd cb 8e c8 3a 49 81 01 3c
       0.0095532 -0.04922336 0.0015301345 0.007904359
0000a0 5e 8b 21 bd 3e 26 04 bd b6 92 c8 bd e2 1d 13 bc
       -0.03943955 -0.032263033 -0.09793608 -0.008979293
0000b0 d7 dc f0 bd a5 5a 96 3d b7 40 82 3d d8 ed 48 3d
       -0.11760872 0.07341508 0.063599996 0.04905495
0000c0 a3 17 9c bd 9b 3e 7f bd c9 67 bc bd 41 e1 39 bd
       -0.07621696 -0.062315565 -0.09199483 -0.045380834
0000d0 59 2d ab 3d df 38 b0 ba 54 e7 3e bd 8e f0 b6 3c
       0.08358259 -0.0013444683 -0.04660733 0.022331502
0000e0 17 be 1a 3c 21 ab ce bc e1 30 84 3d 40 d3 12 bc
       0.009444735 -0.025228085 0.064546354 -0.008961499
0000f0 ff dd 8f 3b 93 06 d4 3c 37 66 48 3c 43 a3 5b bd
       0.0043904777 0.025882041 0.012231401 -0.053622495
000100 cf 02 f7 3c 7d e8 43 3c bd c4 31 bd f6 44 9c 3d
       0.030152706 0.011957285 -0.043400515 0.07630341
000110 29 3d a8 bc 11 1a 08 bd 28 ca 1e 3b 7b fa ea bc
       -0.020536976 -0.033227984 0.0024229381 -0.028683892
000120 7d cb 04 bd b1 e3 69 3c af 02 2b bd 6d 47 78 3d
       -0.032420624 0.014275477 -0.041750606 0.060614992
000130 60 d0 45 3b 9b 5f a1 bd a5 da 85 3c 26 9a d2 3c
       0.0030184016 -0.078795634 0.01633961 0.02570827
000140 49 d2 57 bc a6 8d 8a bd a5 07 b9 3c ed e0 99 bd
       -0.0131726945 -0.067652985 0.022586653 -0.07513604
000150 02 a2 58 bd ba 11 79 bc be 00 44 3d 2d a1 63 bc
       -0.052888878 -0.01520198 0.04785227 -0.013893408
000160 57 49 86 bc 46 84 b5 bc 3f 66 ea bd ca 3f 2b 3c
       -0.016392393 -0.0221578 -0.11445283 0.01045222
000170 7a bb 98 bd bd 81 38 3d 75 36 21 3b 0d 31 37 bc
       -0.07457633 0.045045603 0.002459911 -0.011181128
000180 a1 2f 06 3c a9 e2 69 bd 10 05 33 bd 24 0a 33 bd
       0.008190067 -0.057100926 -0.043706 -0.043710843
000190 35 47 42 bd 88 3c 85 bc 21 96 26 bd 0a f4 48 bd
       -0.04743119 -0.016264215 -0.040670518 -0.04906086
0001a0 79 3a c5 bb 42 97 b5 bc af 6e fc bc 07 57 b0 bd
       -0.0060189334 -0.022166852 -0.030814497 -0.08610349
0001b0 ad 2a 04 bd 40 0a e0 3c d8 40 24 bd d2 da f8 3c
       -0.03226726 0.027348638 -0.040100902 0.03037778
0001c0 67 79 80 bd 38 86 1c bc 67 f7 08 bd eb ac bd 3c
       -0.06273156 -0.009553485 -0.033439066 0.023153743
0001d0 3b 1a 91 bc 6e 69 b3 3c f2 8e 81 bd 7c 67 97 3c
       -0.017712703 0.021900859 -0.06326093 0.018481962
0001e0 49 a2 d5 bb c7 c1 8d 3d 7a 44 4d 3d c2 9d 70 3d
       -0.00651959 0.06921726 0.050114132 0.0587442
0001f0 50 5c a3 3d cd 71 72 3d 3b 2a 0b 3c 2f d0 2b 3d
       0.079765916 0.05919056 0.008493955 0.041946586
000200 6a a1 0d 3d 53 1e 2c bc 24 5a 31 3b 7d 4d fb bc
       0.034577765 -0.010505277 0.0027061785 -0.030676598
000210 09 d7 c8 3d be 53 71 3d ce 8a 39 bb 9b e2 6f 3c
       0.0980664 0.058917753 -0.0028311494 0.014641429
000220 5a 88 7e 3d e4 72 5a 3d 5f 91 d7 bd 01 b5 41 bd
       0.062141754 0.053332224 -0.10525774 -0.04729176
000230 aa 9a b5 bd f2 ae 44 bd 14 69 6a 3d a8 8d 3d bd
       -0.088673905 -0.048018403 0.057229117 -0.046277672
000240 3c 59 db bc 9d 2f 16 3d 89 46 9d 3d 64 af 15 3c
       -0.026775949 0.0366665 0.07679469 0.009136055
000250 80 04 cd 3c eb 76 82 3d 2b 88 20 bd 3a e7 82 3d
       0.02502656 0.06370338 -0.03919236 0.06391759
000260 65 61 79 3d aa 09 3d 3d cd c0 60 3c c5 52 6d 3d
       0.0608839 0.046151794 0.013717842 0.057940263
000270 8f 6d 49 3d 5c ec bc 3d c7 13 1e bc 5b 12 5d 3c
       0.04917675 0.092247695 -0.00964827 0.013493146
000280 c9 21 5d 3d c7 a8 94 3d b3 63 31 bb 17 ee 71 bc
       0.0539873 0.07258754 -0.0027067482 -0.014766238
000290 fb 66 3a bc 7c 17 9c 3c 21 96 f3 bc 1e 7b da bc
       -0.0113770915 0.019054167 -0.029734673 -0.026670035
0002a0 c1 7b 1d bb d6 43 08 bd 32 02 bc 3b 21 e4 0b bd
       -0.0024030062 -0.03326782 0.0057375664 -0.034153108
0002b0 c5 95 04 3b ac de 5e 3d f2 87 5a bc f8 e2 b2 bd
       0.002023087 0.054411575 -0.013338076 -0.08734697
0002c0 45 fb 1c bd 37 4c 25 3d a0 b6 9f 3c 4f 67 e6 3a
       -0.038325567 0.040355887 0.019496262 0.0017578396
0002d0 45 af d9 3c 53 82 47 bb 50 b2 13 3d e9 18 9a bc
       0.026572833 -0.003044267 0.036058724 -0.018810706
0002e0 f2 72 1e bd 86 19 54 bc 7c 6b 06 bd f0 ee aa bc
       -0.03868384 -0.012945538 -0.03281735 -0.020865887
0002f0 89 da 91 bd b4 4a c2 3c 30 39 11 bc 9d cc 54 bd
       -0.071217604 0.023717262 -0.008863732 -0.051952947
000300 4e a9 30 bc 8e 94 ce b9 5d 64 b3 bd 84 c7 fb 3a
       -0.010782553 -0.00039402064 -0.08759377 0.001920924
000310 50 1b eb ba 53 5a 95 bd 6b f0 3c 3d 27 b7 4f bd
       -0.0017937217 -0.072926186 0.046127718 -0.050711777
000320 f5 5c 7d bd 44 d0 38 3d 57 eb e3 3c 79 23 49 3d
       -0.06185623 0.045120493 0.02782218 0.049106095
000330 7a 56 d9 3c 24 f4 8a bc 35 04 b9 bd d0 37 e7 3d
       0.026530493 -0.016962118 -0.090340056 0.11289942
000340 4a f5 4b 3d be b9 c4 3d fa 82 e3 bc 1c ea 5e 3c
       0.049794473 0.0960574 -0.027772415 0.013605621
000350 2d 5f 6c 3d 33 dc 8d 3c ec db a1 3d 9b f0 1e 3e
       0.057707954 0.017316913 0.07903275 0.15521471
000360 e0 c9 1b bd ed 0a 4e bd c8 a6 e7 bc 56 09 c4 bc
       -0.03803432 -0.05030339 -0.02827777 -0.023930233
000370 ec 96 a4 3c c7 34 ee ba 36 d7 5d bb ed f3 a3 bd
       0.020091496 -0.0018173688 -0.00338502 -0.080055095
000380 be 32 4e 3b 1d 7d b5 3c 9d ca 5f 3d 34 11 8f 3d
       0.003146335 0.022154385 0.054636586 0.06985703
000390 73 99 a0 3b 0d 1a c8 bc 56 68 a5 bc e8 47 ed bc
       0.004901105 -0.024426484 -0.020191353 -0.028964952
0003a0 ed a5 32 3d 79 ef cc bc 74 41 9f 3d e3 f0 2b 3e
       0.04361527 -0.025016533 0.07776156 0.1679111
0003b0 01 8b 2d 3e 2c d4 0b 3d f9 1b cf 3d a0 91 f4 3c
       0.16947557 0.03413789 0.10112757 0.029854596
0003c0 4d a7 1b 3d fe f3 1a 3e 90 9d 29 3e 70 3f 6d 3a
       0.038001347 0.15132138 0.16564012 0.00090502854
0003d0 b9 64 0d bd 82 9d d5 bc 84 8f 1c b7 dd 4e 12 bd
       -0.034519885 -0.026076082 -9.331739e-06 -0.03571974
0003e0 55 7f 06 bd 83 95 fb bc 5f 06 8a bd c0 1c 27 bc
       -0.032836277 -0.030710941 -0.067394964 -0.010199726
0003f0 8f f7 58 3d ac 52 29 3d 80 e9 69 bb 45 97 a3 3d
       0.052970465 0.041338608 -0.0035692155 0.07987837

tcn.1.conv1.conv.bias f4 [64]
000000 d5 94 86 3d b3 55 9a 3d 9e 14 67 3c e5 f6 61 bd
       0.06571356 0.07535877 0.014104037 -0.055167098
000010 4f 54 8f ba 03 bf 6d bc 0b 15 c1 3b 97 26 20 bc
       -0.001093516 -0.014510873 0.005892401 -0.009774826
000020 d4 4c f1 bc 5a d0 81 bd a3 95 42 bc d7 50 e4 bc
       -0.02945558 -0.06338568 -0.0118764965 -0.027870579
000030 d7 52 f4 3c b7 96 09 3c d1 3b 9f bb 81 40 08 bd
       0.029824657 0.00839775 -0.0048594256 -0.03326464
000040 74 21 d1 bc 5f e4 c1 3c 4c 5f 2e 3c e6 e7 71 3d
       -0.025528647 0.023668466 0.010642838 0.059059046
000050 23 4a e4 bb 6e 5c 06 bc 05 d2 2c bd 18 a8 94 3d
       -0.0069668456 -0.008200748 -0.042192478 0.07258624
000060 f1 7b f2 3b c1 db 6a 3d 2d 30 a7 3c 46 71 94 3d
       0.007400029 0.05733848 0.020408714 0.07248168
000070 81 4f 42 bd 9e e7 2b 3d 83 c9 37 3d 9f d7 82 bc
       -0.047439102 0.041968934 0.04486991 -0.015971957
000080 2e d8 46 3d d0 0b 00 3d ff 58 9c bc ac ee b3 3d
       0.04854601 0.031261265 -0.019085405 0.087857574
000090 43 9b a0 3d 50 b0 bd bc f8 8c 93 bd cd 6a 81 3c
       0.07842114 -0.023155361 -0.07204622 0.015797997
0000a0 68 a1 77 3a a6 9a 08 bd 1a b7 ad bc 7c 09 01 3c
       0.00094463537 -0.03335061 -0.021205474 0.007875796
0000b0 3f e6 23 3c e4 63 79 3c 08 88 24 bd 74 73 3b bb
       0.010003625 0.01522157 -0.040168792 -0.002860275
0000c0 be e6 58 bd 1d 91 47 bc 74 81 b5 bc 16 e8 ad bb
       -0.052954428 -0.012180594 -0.022156455 -0.005307208
0000d0 bd ac ca 3c 71 b4 65 bd f2 1d 8a bc 4b 97 c1 3d
       0.024740571 -0.056080285 -0.016859982 0.09452685
0000e0 35 b2 b6 3c 12 56 24 3c 0b f9 c6 3d ab 1d c3 bc
       0.022301773 0.010030286 0.0971547 -0.023817858
0000f0 0b 29 6f bc e8 c4 ab 3d eb 6e 2a bd e6 43 ac bd
       -0.014597188 0.08387166 -0.041609686 -0.08411388

tcn.1.conv2.conv.weight f4 [64, 64, 3]
000000 17 ec 95 3b e4 ed a8 bd 81 a8 ef bc 7d 91 21 bd
       0.0045752632 -0.08248499 -0.029255154 -0.03944539
000010 54 7b f6 bb d2 eb 7a bd ff 84 5f 3d 05 9c 31 3d
       -0.007522026 -0.061260052 0.054570194 0.043361682
000020 2a 58 18 3d 03 ba 55 3d dc 78 77 3d 85 13 00 bc
       0.037193455 0.052179348 0.060417995 -0.007817154
000030 5b 3d 4d bd a0 8d 52 bd ee 57 95 bd a9 45 a0 bc
       -0.05010734 -0.051404595 -0.07292162 -0.019564467
000040 eb 1b 69 3d f4 42 73 bb 8e f0 1e 3b 3c cc 7c bd
       0.05691139 -0.0037118765 0.0024252268 -0.06171821
000050 73 3e 2f bd 7f 0a 5b 3d cc e9 9d bd ef ca 23 bd
       -0.042784166 0.053476807 -0.07710609 -0.039988454
000060 96 96 1c 3d 35 79 23 bd 3b 9c 8d 3c 43 f8 9b 39
       0.038229547 -0.039910514 0.01728641 0.00029748873
000070 2c 06 48 3c c1 d8 4f 3c bf cb 8b bd d5 fa 8f bc
       0.012208503 0.0126859555 -0.06825971 -0.01757566
000080 b2 3e 92 bd 2e b3 17 3d 66 4b 53 3d bf 14 4f bc
       -0.071408644 0.037036113 0.051585577 -0.012639224
000090 d6 9c 84 bd e8 d1 a1 bd 0d c9 cb bc 71 70 1b 3c
       -0.064752266 -0.079013646 -0.024876142 0.009487257
0000a0 af 23 34 bd 2b c6 89 bc fe 0f 1a bd f2 ad 61 bc
       -0.043979343 -0.016818127 -0.037612908 -0.013774382
0000b0 0a 54 4e 3b c3 49 35 bd b1 ed 6f 3c 5c cb fc 3b
       0.0031483197 -0.044259798 0.014644072 0.007714672
0000c0 13 b0 d2 bc 6e af 72 bd ba 6e a8 bd e6 55 18 bc
       -0.025718724 -0.059249334 -0.082242444 -0.0092978235
0000d0 75 b2 9a 3c 02 c0 d8 3c 72 db 6c bd 67 6f 58 bd
       0.018883923 0.026458744 -0.057826467 -0.052840617
0000e0 66 6f 15 bd ea 30 e4 bc 86 ea a2 bd 05 a2 9d 3c
       -0.03648319 -0.027855355 -0.07954888 0.019242296
0000f0 e2 ec 5a 3b f7 12 30 bc 09 db 67 bd 55 c1 5a 3d
       0.0033405353 -0.010746709 -0.056605373 0.053407032
000100 22 49 6e bd 43 ab a8 3c 23 5c 65 3d 25 9a fb 3b
       -0.058175214 0.020589476 0.05599607 0.0076782876
000110 0d cc 2d bd 6f f4 b8 3c 51 62 7b bb 5e 86 83 bc
       -0.042430926 0.022577493 -0.0038358162 -0.016055282
000120 a9 52 2a bd 69 5d 34 3d 79 fc 5d bc 08 a5 dd bc
       -0.041582737 0.044034395 -0.013548964 -0.027056232
000130 a3 20 13 3d 38 64 89 bd f6 20 9d bc b6 bd c7 bc
       0.035919797 -0.06708568 -0.019180756 -0.024382453
000140 12 77 a5 bc 9f 57 6c bd 5a dc 8a bd 08 f3 4f bb
       -0.020198379 -0.05770075 -0.0678031 -0.0031730551
000150 db a1 45 3d c7 f1 bb bc ac 87 36 bd b2 6a 5b bd
       0.04825006 -0.022942437 -0.04456298 -0.05356855
000160 5f eb 4a bd 77 f1 3c 3d bb 0c 06 3d 91 20 15 3c
       -0.049540874 0.046128716 0.032726984 0.009102003
000170 8f 2d 1f bd 51 04 fe bb 6a 0b af bd 60 ad 9b bd
       -0.038861807 -0.0077519794 -0.08547099 -0.07601428
000180 60 f4 6a bd 6a e5 f2 bc ae 73 d3 3c e3 49 a5 bd
       -0.05736196 -0.029650409 0.025811996 -0.080707334
000190 01 f3 0f 3d 2b 52 b0 3a 30 3a 41 3d 10 c0 92 3b
       0.035143856 0.0013452222 0.047174633 0.004478462
0001a0 bf f6 aa bd 19 dd 65 bc 0d 0a c4 bc 67 a0 2e bc
       -0.08347844 -0.014029765 -0.023930574 -0.01065836
0001b0 11 d2 5d bd ae 6f 65 bd 02 b5 2e 3d 2b 4e 85 bd
       -0.054155413 -0.05601471 0.04265309 -0.0650905
0001c0 64 1e fc 3c 40 b6 1b 3d bc 2c 8c 3a 9c 00 4b bd
       0.03077621 0.038015604 0.0010694484 -0.049561128
0001d0 46 9b 96 3c 9c 6e 3f 3d 1b d5 da bc a8 d7 7f bd
       0.018384587 0.046736345 -0.026712945 -0.062461525
0001e0 be 28 27 bd e7 8e 2d 3d 44 dc f3 3b f5 1f 15 3c
       -0.04081034 0.04237261 0.007442029 0.009101857
0001f0 2c 8a 9a bb 50 d8 fc bc da 59 3f bb ab 1e f8 3c
       -0.0047161784 -0.030864865 -0.0029197843 0.030288061
000200 31 08 8a bc 3b 05 19 3c bc a1 96 bd cd bc 32 bc
       -0.01684961 0.009339626 -0.07355067 -0.010909271
000210 9a cd 87 3d 09 b7 9a bd c5 c6 b0 bb fb f6 6d 3d
       0.06631012 -0.075544424 -0.005394789 0.058096867
000220 ae 2a da bc 68 ef 0b 3c 47 dc 77 3c 8b 80 26 3c
       -0.02663168 0.008540966 0.015128202 0.010162483
000230 83 82 1c bd ae 4a 97 bd a6 7a 22 3c d4 b3 17 bd
       -0.038210403 -0.07387291 0.009916937 -0.03703673
000240 23 4f 7d bd e3 09 9d 3c 6b 5a 88 bd dc 5d c8 3c
       -0.06184305 0.019169753 -0.06657871 0.024458818
000250 20 e4 9b bc 44 cc dc 3a 9f 9c ae bc 75 c6 bd 3c
       -0.019029677 0.0016845544 -0.021314917 0.02316592
000260 d0 8f 83 bc de c1 76 3d 5a 95 14 bd fe 15 d7 bc
       -0.016059786 0.06024348 -0.036275245 -0.026255604
000270 b2 ce 26 bd 20 f4 07 bd f8 06 72 bd f4 51 15 3d
       -0.040724464 -0.0331918 -0.059088677 0.03645511
000280 29 93 42 bd cc 55 a1 3b 2e c8 97 bd 69 89 a9 ba
       -0.047503624 0.004923558 -0.07411228 -0.0012934628
000290 2b 0c 17 3d cd 81 9d bd 53 fa 8e bd 01 72 bd bd
       0.03687684 -0.07690773 -0.06981339 -0.0925026
0002a0 77 49 a3 3c a9 35 76 bb 84 ac 85 bd ad 17 f7 3c
       0.019932492 -0.0037568605 -0.06527045 0.030162657
0002b0 7d d8 a5 3c 52 23 6f 3d 53 3e 7a 3c 97 4f 0a 3d
       0.020244831 0.058383293 0.015273648 0.03376731
0002c0 85 43 22 bc 7c 26 17 bd 73 91 c6 bc 96 25 78 bb
       -0.009903793 -0.036901936 -0.024239277 -0.00378642
0002d0 95 13 6d bd 36 11 6e 3d ab 18 88 3c 11 ce 8a bd
       -0.057880003 0.058121882 0.016613325 -0.06777585
0002e0 f2 18 a0 bc 2c 47 1d bd 86 99 39 bd 92 6e f4 3c
       -0.019543145 -0.038397953 -0.045312427 0.02983788
0002f0 e0 27 ce bc 0a ea 16 3d 03 a3 22 bd 74 33 32 3d
       -0.025165498 0.03684429 -0.03970624 0.0435061
000300 d0 e6 f7 3b 8a 64 27 bc e5 7a d9 bd d1 ac ba bc
       0.007565357 -0.0102168415 -0.106191434 -0.022787483
000310 cb 45 43 bc 30 3b f9 3d 5d 7d fd 3c f7 28 3f bd
       -0.011918495 0.12169492 0.030943567 -0.046669926
000320 cb 29 6c bd 8b db 91 3c 8b 32 a9 3c dc 33 81 3d
       -0.057657044 0.017804882 0.020653984 0.063087195
000330 fd 3a 97 3d e1 27 b8 3b 0c 94 45 3c 94 4e 6a bd
       0.07384298 0.0056199883 0.012059223 -0.057203844
000340 7a 89 24 3d 98 eb a5 bd 2d 0e 33 bd fb bd 03 3c
       0.04017017 -0.081015766 -0.04371469 0.0080409
000350 78 46 03 be 60 a0 81 bd 64 08 a0 bd 15 26 54 bd
       -0.1281985 -0.06329417 -0.078141004 -0.05179413
000360 8e bc 94 3d ea 86 e3 3d dd 92 01 bd 75 b7 94 bc
       0.072625265 0.11109717 -0.0316342 -0.018153885
000370 f6 ca b7 bd 0c bd fb bc 24 30 53 3d 27 1e 3a bc
       -0.089742586 -0.030729793 0.051559582 -0.011359728
000380 81 9d cb 3c fa 6b e5 bb d5 84 26 3b 25 52 c2 bd
       0.024855377 -0.007001397 0.0025408764 -0.09488324
000390 f8 12 7d 3d e5 d7 70 bd 68 9b ae bb 98 c1 5c bd
       0.061785668 -0.058799643 -0.0053285845 -0.053895563
0003a0 d2 ea 8a bd 4c d5 78 bd 19 5a d2 3d 68 82 ac 3d
       -0.0678307 -0.06075029 0.10271091 0.084233105
0003b0 02 b7 98 3d 39 50 89 bd 56 af 6e 3d ba 80 1a bd
       0.07456781 -0.067047544 0.058272682 -0.03772042
0003c0 ae 7c 12 3d 69 68 3a bd e0 86 d4 bd 81 fc 92 bd
       0.035763435 -0.04550973 -0.10377288 -0.071770675
0003d0 67 9c 82 bc fc 49 2c bd 22 cf 9c bd 9c eb 03 3d
       -0.01594372 -0.042062744 -0.07656695 0.032207116
0003e0 90 6c 51 3d 72 57 06 bc e5 7a 96 bc fb 44 11 3d
       0.051128924 -0.0081995595 -0.018369148 0.035466176
0003f0 25 11 cf bc 75 ee a3 3d e1 1a 2e 3c 73 6a 38 3d
       -0.02527673 0.080044664 0.010626526 0.045023393

tcn.1.conv2.conv.bias f4 [64]
000000 57 cd bc bd e7 11 00 bd 8d fe 35 bd c6 9e 4e 3c
       -0.09218853 -0.031267073 -0.04443221 0.012611097
000010 be 9a 59 3d ba cc b1 bd 67 9f a8 3d 38 17 1e bc
       0.05312609 -0.086816266 0.082335286 -0.0096490905
000020 f7 76 6e bc 3d 1f 90 bd fc a3 81 3d 24 4b a6 bc
       -0.014554731 -0.07037208 0.06330106 -0.020299502
000030 7a d3 e4 bc a0 1c 72 3d e9 d2 0c 3d e4 2f 84 3d
       -0.027932871 0.05910933 0.034380827 0.06454447
000040 01 c2 a3 bd 61 b1 93 bb 40 3a b4 3b aa fd b2 3c
       -0.07995988 -0.004507229 0.005500108 0.021849472
000050 66 da 3e 3b 2a d0 54 bd a6 e3 c0 bc e1 87 a6 bd
       0.0029121875 -0.051956333 -0.023546051 -0.081313856
000060 e1 56 b8 ba 8b b0 f4 3c fe 93 70 bc df 53 15 bd
       -0.0014063978 0.029869338 -0.014683722 -0.03645694
000070 de ab ec bc e3 b3 74 3d a3 17 67 bc 43 d0 b9 3c
       -0.028890546 0.059741866 -0.0141047565 0.022682315
000080 d8 85 3c 3d 63 1a b1 3d ed 58 08 ba e3 d1 5c 3d
       0.04602608 0.08647611 -0.0005201239 0.0539111
000090 08 ea 02 bd 6c 1b 67 bd f4 38 8d 3d c9 93 59 3d
       -0.03196147 -0.056422636 0.068956286 0.053119455
0000a0 24 d3 c9 ba 73 19 ac bd d4 55 c1 bd 79 84 cf bc
       -0.0015398008 -0.084032916 -0.094401985 -0.025331723
0000b0 ad 90 d7 bc 5e ab 36 bd 7e 6f 9a 3b 56 07 84 3c
       -0.026314104 -0.044597022 0.004712998 0.01611678
0000c0 93 25 94 3d a1 42 81 bd 7f f8 36 bd b0 f2 cf bc
       0.07233729 -0.063115366 -0.044670578 -0.025384277
0000d0 a4 20 4d 3d 3b 7a 75 bc 73 08 51 bd 4f 25 f7 3b
       0.050079957 -0.014982755 -0.05103345 0.0075422893
0000e0 b1 1c a0 bc 30 48 40 3d 2c a6 17 bd 78 28 92 3d
       -0.019544931 0.046943843 -0.03702371 0.07136625
0000f0 8e 5c 89 bc 49 98 80 bd d4 7c 13 3d c6 c9 96 bd
       -0.016767766 -0.06279046 0.036007717 -0.07362704
