backend/models/ft-transformer.pt (torch, 129165 bytes, 47 tensors)

cls_token f4 [1, 1, 32]
0	0xbee934e3	-0.45548162
1	0xbfd3fe23	-1.6561931
2	0xbfe78254	-1.8086648
3	0xbfa4fcda	-1.2889664
4	0xbf8b02e4	-1.0860257
5	0xbe878981	-0.26472095
6	0xbec46803	-0.38360605
7	0xbf117792	-0.56823075
8	0xbef4338c	-0.47695577
9	0x3f31a39b	0.6939027
10	0xbf095f93	-0.5366146
11	0x3ca8ba02	0.020596508
12	0x3ec3ba3b	0.3822802
13	0x3f66b178	0.90114546
14	0xbf223318	-0.6335921
15	0xbe9a3c6f	-0.30124232
16	0x3fa63d62	1.2987483
17	0xbfaf6619	-1.3703033
18	0xbd7ac586	-0.06122353
19	0xbe9bb390	-0.30410433
20	0x3d4016b6	0.04689666
21	0xbfbb668b	-1.4640669
22	0x3fa1266d	1.2589852
23	0xbeeb5f73	-0.4597126
24	0x3deb5daa	0.114924744
25	0x3f61d6f4	0.8821862
26	0xbf2c19fd	-0.67227155
27	0x3ebf0ff2	0.37316853
28	0x3e1e3785	0.15450867
29	0x3fb3b5d3	1.4039863
30	0x3e96e55c	0.29471862
31	0xbf1d7e7c	-0.61521125

embedding.embeddings.0.weight f4 [10, 32]
0	0xbe0795d2	-0.13240746
1	0x3e801885	0.25018707
2	0x3f4ca012	0.7993175
3	0x3fa0372a	1.2516835
4	0xbebe0495	-0.3711287
5	0x3d8c5267	0.068516545
6	0xbebe94f1	-0.37223008
7	0x3dcaa54e	0.098948106
8	0xbfd7255b	-1.6808275
9	0x3f171f8d	0.5903252
10	0xbf6ad806	-0.91735876
11	0xbc96c3e7	-0.01840396
12	0xbfa91e1a	-1.3212311
13	0x3f155539	0.58333164
14	0xbf81a763	-1.0129207
15	0xbeed1bfb	-0.4631041
16	0x3e8a0eca	0.26964408
17	0x3fe81e25	1.8134199
18	0xbe0dbcd0	-0.13841558
19	0xbfccf6a2	-1.6012766
20	0x3ed8cd80	0.42344284
21	0xbd3e8fe2	-0.046523936
22	0x3f9ed5c8	1.2408991
23	0xbf9089ef	-1.1292094
24	0x3f442f0d	0.76634294
25	0x3f2ce902	0.6754304
26	0x3fceb5de	1.6149251
27	0xbed8961c	-0.42302024
28	0x3fa053fc	1.252563
29	0xbf4193c4	-0.756161
30	0x401db137	2.4639413
31	0xbf3e1962	-0.7425748
32	0x3e1b84d3	0.15187387
33	0xbdea2938	-0.11433643
34	0xbe268369	-0.16261066
35	0xbdf103c8	-0.11768299
36	0x3f0d5550	0.552083
37	0x3fa8badd	1.3182026
38	0x3f148f50	0.5803118
39	0x3f005a86	0.5013813
40	0x3eb3eb0b	0.3514026
41	0xc0053012	-2.081059
42	0x3f034f69	0.51293045
43	0x3ece2e52	0.40269715
44	0x3e53b10f	0.20673011
45	0x3f28cc5f	0.65936846
46	0xbef7d9aa	-0.48408252
47	0xbe54a2ba	-0.207652
48	0x3fe22b27	1.7669419
49	0xbfb574e7	-1.4176301
50	0xbeff6317	-0.49880287
51	0xbe7c6b81	-0.24650384
52	0xbdef7c37	-0.11693614
53	0x3e7712f2	0.24128321
54	0xc020e369	-2.51388
55	0xbec90f6a	-0.39269572
56	0x3f3574f0	0.7088156
57	0xbf4d265d	-0.8013666
58	0xbed06177	-0.4069936
59	0x3ebb612f	0.36597583
60	0xbebffc9c	-0.37497413
61	0x3f0fc3a4	0.561579
62	0x3fb10384	1.3829198
63	0x3fa0ae23	1.2553142
64	0xbf4617cc	-0.7738006
65	0xbe241c07	-0.16026317
66	0xbfbf5373	-1.4947342
67	0x3f967458	1.1754255
68	0x3e1270c6	0.14300832
69	0x3e30aa94	0.1725257
70	0xbe575d50	-0.2103169
71	0x401411ef	2.3135946
72	0xbfb54e32	-1.4164488
73	0xbfef1d1a	-1.8680756
74	0x3d3381f6	0.043825112
75	0xbf82902c	-1.0200248
76	0x3f38ef27	0.7223992
77	0x3fac0163	1.3437923
78	0xbffdccb6	-1.9828098
79	0x3e787bfb	0.24266045
80	0xbff02d63	-1.8763851
81	0xbeae2442	-0.34012038
82	0x3d16d851	0.03682739
83	0xbfa0aeae	-1.2553308
84	0xbf95bd29	-1.1698352
85	0x3dcdcb86	0.10048585
86	0xbc02be19	-0.007979893
87	0x3ffebef4	1.9902024
88	0x3f21a56c	0.6314304
89	0x3f7aa242	0.97903836
90	0xbd8d8e28	-0.0691188
91	0xbd9f0c04	-0.07765964
92	0xbe62353c	-0.2209062
93	0x40282dea	2.6278024
94	0xbe6a9c22	-0.22911122
95	0x3eeddeda	0.46459085
96	0xbf3f149d	-0.7464083
97	0xbf1d184b	-0.61365193
98	0xbfaf5308	-1.3697214
99	0x3f336404	0.70074487
100	0x3eaef504	0.34171307
101	0xbf43e715	-0.7652448
102	0x3f9ee49d	1.2413517
103	0x3eba3f8f	0.36376616
104	0x3dde7b58	0.1086337
105	0x3fa5c113	1.2949547
106	0xbe04ee62	-0.12981561
107	0xbf5a38d7	-0.8524298
108	0xbe5252d7	-0.20539413
109	0x3ee07d32	0.43845516
110	0xbc00130c	-0.007817041
111	0xbf350387	-0.7070851
112	0x3f81088f	1.0080737
113	0xbf79a085	-0.9751056
114	0x3f81b4dd	1.013332
115	0x38861d74	6.395104e-05
116	0xbeef9a28	-0.467973
117	0x3f4de837	0.80432457
118	0x3f4d38a0	0.8016453
119	0xbe624040	-0.22094822
120	0x3f5472f7	0.8298792
121	0x3cb66859	0.022266554
122	0xc014c720	-2.3246536
123	0x3f8ebb05	1.1150824
124	0xbd896fd4	-0.06710783
125	0xbed6a14d	-0.41919938
126	0x3fcffbfc	1.6248775
127	0x3fb9f0fd	1.4526669
128	0x3f150329	0.58207947
129	0xbf82e6d5	-1.0226694
130	0xbe9852e2	-0.29750735
131	0x3f96eae5	1.1790434
132	0xbd364ec4	-0.04450871
133	0xbfdca82f	-1.7238826
134	0x3cf90445	0.030397544
135	0x3f5fce6e	0.8742436
136	0x3fa2a237	1.2705754
137	0xbf09e429	-0.5386377
138	0x3fc5c023	1.544926
139	0xbf826a35	-1.0188662
140	0x3f9bd77f	1.2175139
141	0xbfba06b0	-1.4533291
142	0x3f5faf21	0.873766
143	0xbf222175	-0.633323
144	0xbe909565	-0.2823898
145	0x3f21e849	0.63245064
146	0xbf5ce605	-0.8628848
147	0xbe5d0140	-0.21582508
148	0xbea1df5b	-0.3161572
149	0x3e7e18f8	0.24814212
150	0xbe40a05f	-0.18811177
151	0x3db70128	0.089357674
152	0xbe05afa0	-0.13055277
153	0x3f7c54f8	0.9856715
154	0x3f5fb828	0.87390375
155	0xbe8eabb2	-0.27865368
156	0x3f139c5a	0.5766045
157	0x3f20b355	0.6277364
158	0x3efdb8d7	0.49555084
159	0xbd915a8c	-0.070973486
160	0x3f39482b	0.72375745
161	0x3e1b8c50	0.15190244
162	0x3e3725f2	0.17885569
163	0xbe9333ad	-0.28750363
164	0xbfdcebf8	-1.7259512
165	0x3f00ed64	0.5036223
166	0x401f0e6e	2.4852557
167	0x3ea21260	0.31654644
168	0x3f49254f	0.78572553
169	0xbd83f16b	-0.06442531
170	0xbfe2cc4f	-1.77186
171	0x3f0756d2	0.5286685
172	0x3fe5b102	1.7944643
173	0xbe531b51	-0.20615889
174	0xbe73685d	-0.2377028
175	0x3f734565	0.9502776
176	0xbf78e36c	-0.9722202
177	0xbfc25b1a	-1.5184052
178	0x3e193639	0.1496209
179	0xbe40a0d9	-0.18811359
180	0xbeef7da5	-0.46775547
181	0xbff438cc	-1.9079833
182	0xbd45e85a	-0.04831729
183	0x3f887f32	1.0663817
184	0x3effe0c8	0.49976182
185	0x3fbdfa24	1.4841962
186	0x3e9b9c74	0.30392802
187	0xbf730f2e	-0.9494504
188	0x3f87bba4	1.0604138
189	0xbf60fd01	-0.87886053
190	0x3e62b417	0.22139011
191	0x3ee1ee4c	0.4412712
192	0x3edf9a05	0.43672195
193	0xbf116748	-0.5679822
194	0x3f25b3e5	0.6472762
195	0x3d72fa61	0.05932081
196	0xbf1d1321	-0.61357313
197	0x3da03920	0.07823396
198	0xbea0804a	-0.31347877
199	0x3f30018a	0.6875235
200	0xbe948c95	-0.29013506
201	0xbe5ecc1b	-0.21757548
202	0x3f1e9958	0.61952734
203	0x3ebeb9da	0.37251168
204	0x3f7c3459	0.98517376
205	0xbb9d7e04	-0.004806282
206	0x3fec7560	1.847332
207	0x3fa7c0ed	1.3105751
208	0xbec3c4f3	-0.38236198
209	0x3f2891d5	0.6584752
210	0x3fa49401	1.2857667
211	0x3f5f0311	0.87114054
212	0xbeb48d33	-0.35263976
213	0x3e63eddb	0.22258703
214	0x3fb7bce9	1.4354526
215	0x3f502d2b	0.8131892
216	0xbf17d327	-0.5930657
217	0xbf597f64	-0.8496001
218	0x3ee39518	0.44449687
219	0xbf0d6c4b	-0.55243367
220	0x40074502	2.113587
221	0xbd90956b	-0.07059749
222	0x3ef131ec	0.471084
223	0x3f3d090e	0.7384194
224	0x3ea6e7fe	0.3259887
225	0xbfef9755	-1.8718058
226	0x3f4036aa	0.7508341
227	0xbe410ed6	-0.18853316
228	0x3f28595b	0.65761346
229	0xbf3dc045	-0.74121505
230	0x3ed63c17	0.4184272
231	0xbe09d0b1	-0.13458516
232	0xbf0c3afa	-0.5477749
233	0x3ea2acfc	0.31772602
234	0x3f2feb0e	0.6871804
235	0x3e3027fc	0.17202753
236	0xbf4bee55	-0.7966054
237	0x3d84d6d1	0.064862855
238	0xbfeeeac5	-1.8665396
239	0xbd054023	-0.03253187
240	0xbe989c3f	-0.29806706
241	0x3e43f948	0.19138062
242	0x3cde591c	0.0271421
243	0xbfb21ab7	-1.3914403
244	0x3f46258c	0.7740104
245	0x3fd7999b	1.6843752
246	0xbf5f2488	-0.8716512
247	0xbcb8c523	-0.02255494
248	0xbe929d54	-0.28635657
249	0xbf679520	-0.9046192
250	0xbe20296d	-0.15640803
251	0x3fcb53f4	1.5884995
252	0x3f2a1ff5	0.6645501
253	0x3f2d76fd	0.67759687
254	0x3e15fe6d	0.14647837
255	0x3f90ebbf	1.1321944

embedding.embeddings.1.weight f4 [3, 32]
0	0x3f1e376a	0.61803305
1	0xbec43396	-0.38320607
2	0xbeb8357d	-0.35978308
3	0xbf179a5d	-0.59219915
4	0x3f242f84	0.64135003
5	0xbe4df329	-0.2011229
6	0x3fbf2df5	1.49359
7	0xbef4117d	-0.47669592
8	0xbda16e5c	-0.078823775
9	0xbfb9c23f	-1.4512404
10	0xbd78ad9d	-0.060712446
11	0x3f0bd0a1	0.5461522
12	0xbea9ec2d	-0.33188
13	0xbf7146bb	-0.9424855
14	0x40104971	2.2544825
15	0xbfff8536	-1.9962528
16	0xbf3b828f	-0.7324609
17	0x3f17fa34	0.59366155
18	0x3f910e71	1.1332532
19	0x3fdded71	1.7338086
20	0x3f7575e9	0.9588304
21	0x3f28641e	0.65777767
22	0x3dc2f899	0.095200725
23	0x3fdc23e6	1.7198455
24	0x3e9ee970	0.31037474
25	0xbfb1ed16	-1.3900478
26	0x401fb344	2.4953165
27	0xbf589d8e	-0.8461541
28	0x3fdcd102	1.7251284
29	0xbf5993b7	-0.8499102
30	0x3f3081cd	0.6894806
31	0xbea75e93	-0.32689342
32	0x3dd2902d	0.102814056
33	0xbf25beae	-0.6474408
34	0x3f588e2e	0.8459195
35	0xbf58c162	-0.8467008
36	0x3f860983	1.0471653
37	0x3dc17ff4	0.09448233
38	0xbf8c3b36	-1.095557
39	0x3fa6b443	1.3023762
40	0x3f044a51	0.516759
41	0x3f48e2ed	0.7847126
42	0x3fc8d3a1	1.5689584
43	0xbf687a54	-0.9081166
44	0x3f5cfbcc	0.8632171
45	0xbe0982a3	-0.1342874
46	0xbe9b3d0f	-0.30320022
47	0x3cb75b9c	0.02238255
48	0xbed5d689	-0.4176524
49	0x3d9d3323	0.07675769
50	0xbeb6350a	-0.3558734
51	0xbf630c6d	-0.88690835
52	0xbf81b1bf	-1.0132369
53	0xbef00079	-0.4687536
54	0xbeedc337	-0.46438
55	0x3f9dc24d	1.2324921
56	0x3e0b1a91	0.13584353
57	0xbf4b5bad	-0.7943676
58	0x3fbbea74	1.4680924
59	0xbf1dc954	-0.6163533
60	0xbed7bebc	-0.42137706
61	0x3f920380	1.1407318
62	0x3fbfa536	1.4972293
63	0x3e992fc1	0.29919246
64	0x3e19d0d5	0.1502107
65	0xbe89d809	-0.26922634
66	0xbf06ec54	-0.5270436
67	0x3f847b14	1.035006
68	0xbe8607e3	-0.26177892
69	0xbf0056fe	-0.5013274
70	0x3fbe6d00	1.4877014
71	0xbf6c6a58	-0.9234977
72	0x3e88a525	0.26688495
73	0xbf818ed7	-1.0121716
74	0x3f2c813c	0.67384696
75	0xbfc44b5e	-1.53355
76	0xbf0fe945	-0.56215316
77	0x3f3824d3	0.7193119
78	0x3f0585ae	0.52157104
79	0x3c04165b	0.008061971
80	0x3ede0389	0.43362072
81	0x3f92f536	1.1481082
82	0x3f043422	0.5164205
83	0x3f00302c	0.50073504
84	0x3e025296	0.12726817
85	0xbfa3a429	-1.2784473
86	0x3ea7eff1	0.32800248
87	0xbf99caa1	-1.2014962
88	0x3ee58851	0.44830564
89	0x3ea5850f	0.32328078
90	0xbed5f8b1	-0.417913
91	0xbf498829	-0.7872339
92	0x3f8ed482	1.1158602
93	0xbfc2f290	-1.5230274
94	0x3d80fd4f	0.06298315
95	0xbc9d8763	-0.019229596

embedding.embeddings.2.weight f4 [2, 32]
0	0xbf05e81d	-0.523073
1	0xbf0acba8	-0.54217005
2	0x3f87e6da	1.0617325
3	0x3f8b2b04	1.0872502
4	0xbf3665e7	-0.7124924
5	0x3f934c84	1.1507726
6	0xbe33e985	-0.1756955
7	0x3e6ec241	0.2331629
8	0x3fac8b4d	1.3480011
9	0xbf18c9e1	-0.5968304
10	0x3edcdc25	0.43136707
11	0x3ff9d659	1.9518539
12	0x3fcaed96	1.5853755
13	0xbf8b490f	-1.0881671
14	0x3f32ddb3	0.69869536
15	0x3faf49f3	1.3694443
16	0x3f114978	0.5675273
17	0xbf6ba203	-0.92044085
18	0xbee507fd	-0.44732657
19	0x3df40677	0.119152956
20	0xbfb57de2	-1.4179041
21	0xbfd05243	-1.6275104
22	0x3ea6b4d6	0.32559842
23	0x3f16cba4	0.5890448
24	0xbf650116	-0.8945478
25	0x3f9d5a39	1.2293159
26	0xbf98bf5d	-1.19334
27	0xbed05a47	-0.40693876
28	0xbf3f81aa	-0.74807227
29	0x3f5f0368	0.8711457
30	0xbf18c3f8	-0.59674025
31	0x3f6b53f3	0.9192497
32	0xbe888c87	-0.26669714
33	0x3f5aa1bc	0.8540304
34	0xbe010e49	-0.12603106
35	0x3f0757cd	0.5286835
36	0xbff25edb	-1.8935198
37	0x3f1ac8ed	0.6046284
38	0xbda38e28	-0.079860985
39	0x3f134e33	0.575412
40	0xbe681a66	-0.2266632
41	0x3f7de017	0.9917006
42	0xbfb42ab0	-1.4075527
43	0xbf9882b8	-1.1914892
44	0xbef7249e	-0.48270124
45	0xbfa4eb10	-1.2884235
46	0x3f0d965a	0.55307543
47	0xbf7bf33e	-0.98418033
48	0x3f122a78	0.5709605
49	0xbda64f43	-0.08120587
50	0xbf56b3db	-0.8386819
51	0xbe29aad8	-0.16569078
52	0xbf27cfab	-0.6555125
53	0xbe5b3682	-0.21407512
54	0xbeedea0b	-0.46467623
55	0xbf4fa976	-0.8111795
56	0x3fafe593	1.3741935
57	0xbe2368b9	-0.15957917
58	0x3f8e7c96	1.1131771
59	0x3f229a43	0.63516635
60	0xbf300321	-0.68754774
61	0x3f633edd	0.88767797
62	0xbef32097	-0.47485802
63	0x3e57d0c8	0.21075737

embedding.embeddings.3.weight f4 [8, 32]
0	0x3f221f3d	0.63328916
1	0xbf8c759d	-1.0973393
2	0xbf881d07	-1.0633858
3	0xbfe3c7e6	-1.7795379
4	0xbfe8a3e7	-1.8175019
5	0xbeffd50b	-0.49967226
6	0xbfd5af85	-1.6694189
7	0x3ffb523b	1.963447
8	0xbf6741a2	-0.9033452
9	0xbeea6748	-0.45781922
10	0xbf9843ec	-1.1895728
11	0xbfc84619	-1.5646392
12	0xbe4120a9	-0.18860115
13	0xbffe97f7	-1.9890126
14	0x3e69587a	0.22787657
15	0xbfc40719	-1.5314666
16	0xbfc97bdc	-1.5740924
17	0xbfc67f92	-1.5507681
18	0xbea76e75	-0.3270146
19	0x3e1b63f3	0.15174846
20	0xbf5c225d	-0.85989934
21	0x3faa5fd7	1.3310498
22	0x3eaa3d30	0.33249807
23	0x3e4c137e	0.1992931
24	0xbf5b9298	-0.8577056
25	0x3fcc27f1	1.5949689
26	0xbf8f2cf8	-1.1185598
27	0xbf4e2bde	-0.80535686
28	0xbf7156a0	-0.94272804
29	0x3ed86d85	0.42271057
30	0xbf550a7e	-0.83219135
31	0xc0102ba2	-2.2526631
32	0xbf85be2a	-1.0448658
33	0x3ecdc1c5	0.40186897
34	0x3f65aa4e	0.8971299
35	0xbeb1b55e	-0.34708685
36	0x3e2ec3b2	0.1706684
37	0x3ee14135	0.43995062
38	0x3e949a37	0.29023907
39	0x3fe9a4f9	1.8253471
40	0x3f0ed18e	0.55788505
41	0xbf3698d4	-0.7132695
42	0x3f178492	0.5918666
43	0xbfdb60c0	-1.7138901
44	0xbf89574e	-1.0729768
45	0xbd5e252a	-0.05423466
46	0xbeae4f2e	-0.34044784
47	0xbfa19451	-1.2623388
48	0xbd840957	-0.06447094
49	0x3fa78c1b	1.3089632
50	0xbef40945	-0.47663322
51	0x3fba8ead	1.4574791
52	0xbf291f21	-0.66063124
53	0x3f70d0ff	0.940689
54	0xbd0cf1dc	-0.034410343
55	0x3eb748db	0.35797772
56	0xbf591ea6	-0.8481239
57	0x3e7e4531	0.24831082
58	0x3f19e05e	0.6010798
59	0x3f8f327e	1.1187284
60	0x3e077b08	0.13230526
61	0xbf46d35b	-0.7766625
62	0xbeb6ee77	-0.3572881
63	0x3d90305b	0.07040473
64	0x3f090b6b	0.5353305
65	0x3ea8f067	0.32995912
66	0x3ebba28d	0.36647454
67	0xbe5efef8	-0.2177695
68	0xbf2eef20	-0.68333626
69	0xbe23b7e4	-0.15988117
70	0xbff01990	-1.8757801
71	0xbf828632	-1.0197203
72	0x3f21e623	0.63241786
73	0x3e26f367	0.16303788
74	0xbf84065a	-1.0314438
75	0x401eb55b	2.479819
76	0x3ede2003	0.43383798
77	0xbf36dbd7	-0.714292
78	0x3fed9f77	1.856429
79	0xbeb64e8e	-0.35606807
80	0xbf31d047	-0.6945843
81	0xbf81d4e6	-1.0143096
82	0xbf35f10f	-0.7107095
83	0xbf320752	-0.6954242
84	0xbee23fd9	-0.44189337
85	0x3f2666bb	0.65000504
86	0xbd72284d	-0.059120465
87	0xbf898260	-1.0742912
88	0x3fa353ed	1.2759987
89	0x3f29f786	0.66393316
90	0xbe38b0c2	-0.18036178
91	0xbe5d9b86	-0.21641359
92	0xbee278c6	-0.44232768
93	0xbd31d570	-0.04341644
94	0x3ed928fc	0.4241408
95	0xbeb47843	-0.35248002
96	0xbe0e94c1	-0.13923933
97	0xbf3c84f7	-0.7364039
98	0xbd1ce353	-0.03830273
99	0xbf9edc74	-1.2411027
100	0x3969787d	0.00022265497
101	0xbf4ad8d1	-0.79237086
102	0xbe8b8735	-0.27251592
103	0x3dec1ca8	0.11528903
104	0xbe07e0eb	-0.13269393
105	0x3f5ee39d	0.8706606
106	0xbd1eb7a5	-0.038749356
107	0x3f3c0038	0.73437834
108	0x3f312f6c	0.69212985
109	0xbf78c6f3	-0.9717857
110	0xbfbe048e	-1.484514
111	0xbfcf0863	-1.6174434
112	0xbea3e7f4	-0.32012904
113	0xbfbdc1b0	-1.4824734
114	0xbe439168	-0.19098437
115	0xbeb436fe	-0.35198206
116	0x3e69c08a	0.22827354
117	0xbecb63fc	-0.3972472
118	0xbfef1721	-1.8678933
119	0x3e0b9dc1	0.13634397
120	0x3ed5d67a	0.41765195
121	0xbf75be41	-0.9599343
122	0x3da06e7b	0.078335725
123	0xbeffb4d9	-0.49942663
124	0xbe1f1863	-0.15536647
125	0x3f14de7a	0.5815197
126	0xbe64e0cb	-0.22351377
127	0x3f7bf0df	0.98414415
128	0xbd9dacb7	-0.07698958
129	0xbf73c763	-0.95226115
130	0xbf1e0401	-0.6172486
131	0x3f14da90	0.58146
132	0xbeb886b2	-0.36040264
133	0x3f6e6980	0.9312973
134	0x3fa5559b	1.291675
135	0x3e499c36	0.19688496
136	0x3e4bd106	0.19903955
137	0xbe0bab59	-0.13639583
138	0x3fa73e1f	1.3065833
139	0xbf407f85	-0.7519458
140	0x403c64e1	2.9436572
141	0xbf8ffc54	-1.124888
142	0xbeda887e	-0.4268226
143	0x4010b182	2.2608342
144	0x3f8216e9	1.0163242
145	0xbe14db5b	-0.14536802
146	0xbee1f036	-0.4412858
147	0x3fd7908c	1.6840987
148	0xbfac86f1	-1.3478681
149	0x3f88f8c9	1.0700923
150	0x3e831205	0.25599685
151	0xbf1b71f2	-0.6072074
152	0x40074de1	2.1141284
153	0xbed65e66	-0.41868895
154	0x3f9d8b14	1.2308068
155	0xbee64c59	-0.44980124
156	0x3f337445	0.7009929
157	0x3e2ca944	0.16861445
158	0x3e035b1f	0.12827729
159	0xbedaf5c2	-0.42765623
160	0xbfe72770	-1.805891
161	0x3f11338c	0.5671928
162	0xbe96e124	-0.29468644
163	0xbf086953	-0.5328571
164	0x3edeeec6	0.43541545
165	0xbef99508	-0.48746514
166	0x3f2d170d	0.676133
167	0x3facab72	1.3489821
168	0xbf806963	-1.0032161
169	0x3fb618c7	1.4226311
170	0x3f879ab4	1.0594087
171	0xbd93633a	-0.0719666
172	0x3f170f06	0.590073
173	0x3fb40f7d	1.4067227
174	0xbe942ff7	-0.28942844
175	0x3e6a3e11	0.22875239
176	0xbfa69029	-1.3012744
177	0x3de2f744	0.110823184
178	0xbf30e7a3	-0.6910345
179	0xbfb32e12	-1.3998435
180	0xbfa6b345	-1.3023459
181	0x3c89e936	0.016834836
182	0x3ea736b7	0.32658932
183	0x3dd9b46d	0.106301166
184	0x3e321568	0.17390978
185	0x3ec864a4	0.39139283
186	0xbe941590	-0.289227
187	0xbeb3416f	-0.3501086
188	0x3fb77ac3	1.4334339
189	0x3eaaa913	0.33332118
190	0xbfa0de0e	-1.2567766
191	0x3f2c5ca7	0.67328876
192	0xbf3822c3	-0.7192804
193	0x400b8696	2.1800895
194	0xbfa34c63	-1.2757686
195	0xbe982bab	-0.29720816
196	0x3f4cad62	0.7995206
197	0x3f54fa49	0.83194405
198	0x3fa50c92	1.2894461
199	0x3f50a21d	0.81497365
200	0x3e64af6c	0.22332543
201	0x3f8096d1	1.0046026
202	0x3f6fcc27	0.93670887
203	0x3f6e01bc	0.92971396
204	0xbf617808	-0.8807378
205	0x3fb8aebe	1.4428327
206	0xbf5c3c4e	-0.8602952
207	0x3fa51669	1.2897464
208	0xbe3ad986	-0.18247041
209	0xbf7ccf85	-0.9875415
210	0xbfbf9de3	-1.4970058
211	0xbf904433	-1.1270813
212	0x3f44faf1	0.76945406
213	0xbf21cbc8	-0.6320157
214	0xbf2dcd92	-0.678918
215	0xbfe003c5	-1.750115
216	0x3e9e94de	0.30972952
217	0xbfc57cc2	-1.5428698
218	0xbe95ab27	-0.2923214
219	0x3d6ed5eb	0.058309477
220	0xbf5feb6b	-0.87468594
221	0xbfa20b7b	-1.2659754
222	0x3f846c9f	1.0345649
223	0x3f1f325e	0.6218623
224	0xbf70735d	-0.9392603
225	0x3fc7450a	1.5567944
226	0xbf864f3b	-1.0492929
227	0xbf5af417	-0.855287
228	0xbeac2b2c	-0.33626688
229	0x40259033	2.5869262
230	0xbf413377	-0.75469154
231	0xbf4381cb	-0.76369923
232	0x3e27378a	0.1632978
233	0xbe8956ac	-0.26823938
234	0x3fa0ed54	1.2572427
235	0xbb3148c8	-0.0027051438
236	0x3f5384fd	0.826248
237	0xbe32e5aa	-0.17470422
238	0x3f512190	0.8169184
239	0x3fa588a8	1.2932329
240	0x3e17782f	0.1479194
241	0xbf1f66d4	-0.6226628
242	0x3ddf4109	0.10901076
243	0xbf9326a6	-1.149617
244	0xbfc629bf	-1.548149
245	0xbfc6129f	-1.5474433
246	0xbf4c4fe4	-0.79809403
247	0x3ea8cbfc	0.32968128
248	0xbfa8daef	-1.3191813
249	0xc0108130	-2.257885
250	0x3fb39d92	1.4032462
251	0x3f9028dd	1.126247
252	0xbe5b3c3c	-0.21409696
253	0x3fce9be9	1.614133
254	0x3fba5c31	1.4559385
255	0xbf81ece2	-1.0150416

embedding.embeddings.4.weight f4 [13, 32]
0	0x3f87c860	1.0608025
1	0xbeb57542	-0.35441023
2	0xbee74442	-0.45169264
3	0xc0103d10	-2.253727
4	0x3f089e8e	0.53366935
5	0xbf396c00	-0.7243042
6	0x3ec49111	0.38391927
7	0x3fa6479c	1.2990603
8	0xbf03776b	-0.5135409
9	0x3f91f3be	1.1402509
10	0xbf4e843a	-0.8067051
11	0x3ef3c589	0.47611645
12	0x3f7389f3	0.9513237
13	0xbf7f4dec	-0.99728274
14	0x3ef6d493	0.48209056
15	0x3f5552d8	0.83329535
16	0xbf4556d0	-0.7708559
17	0x3f4cd31a	0.80009615
18	0x3f634670	0.88779354
19	0x3f58baeb	0.84660214
20	0xbfd75b23	-1.6824688
21	0x3e439659	0.19100322
22	0xbd156015	-0.036468584
23	0x3ff24ff4	1.893065
24	0xbef9de60	-0.4880247
25	0x3ee8f229	0.45497254
26	0x3ef1fe30	0.47264242
27	0x3ff257e3	1.8933071
28	0x3f7b9288	0.98270464
29	0xbfbb00bb	-1.4609598
30	0xbd97a75f	-0.074049704
31	0x3f41c4e6	0.7569107
32	0x3faa1f3f	1.3290786
33	0x3f81483d	1.010017
34	0x3fa75972	1.3074172
35	0x3d41d315	0.047320444
36	0x3e7a1e54	0.24425632
37	0x3e92eb4c	0.28695142
38	0xbf054a5c	-0.5206659
39	0xbf4ccf6e	-0.8000401
40	0xbf1f0b33	-0.62126464
41	0x3ea9b708	0.33147454
42	0x3f4b9149	0.7951856
43	0xbeb13cc4	-0.34616673
44	0xbe93a0a3	-0.28833494
45	0xbfd059dc	-1.6277423
46	0x3f192bbb	0.5983235
47	0x3e882412	0.2659002
48	0xbed5cf86	-0.4175989
49	0xbd11883a	-0.035530306
50	0x3e9b7429	0.3036206
51	0x3ff74407	1.9317635
52	0xbfee9ea9	-1.8642169
53	0xbf8f3b3d	-1.1189953
54	0xbfeb19ef	-1.8367289
55	0xbfcc6f14	-1.5971398
56	0x3fcecb1d	1.6155735
57	0x3ec24ddb	0.37950024
58	0x3f884d02	1.0648501
59	0xc000ce19	-2.0125792
60	0x3f8665f1	1.049986
61	0xbf3906c6	-0.7227596
62	0x3ed8da6e	0.4235415
63	0x3f38701b	0.7204606
64	0xbf5d7abe	-0.86515415
65	0xbd085e40	-0.03329301
66	0x3ed66419	0.41873243
67	0xbf9b143c	-1.211555
68	0xbea209fe	-0.31648248
69	0xbf34c30a	-0.70610106
70	0x3f490098	0.7851653
71	0x3e0704cc	0.13185424
72	0xbf24669f	-0.6421909
73	0x3ecaffe0	0.39648342
74	0x3f5dee9f	0.8669223
75	0xbf8dbf54	-1.1074014
76	0x3f10e875	0.566047
77	0xbfac7046	-1.3471763
78	0xbca1f5e0	-0.019770563
79	0x3f2c2cd3	0.67255896
80	0xbec648cc	-0.38727415
81	0xbf40c7cc	-0.75304866
82	0x3f676f20	0.9040394
83	0xbf93fb90	-1.1561146
84	0x3d8d7def	0.069087856
85	0x3ee69c0c	0.4504093
86	0x3f7401a0	0.9531498
87	0x3f89adc9	1.075616
88	0x3f49ef3f	0.78880686
89	0xbdacb168	-0.08432275
90	0xbe70e83a	-0.23526087
91	0x3d9792ca	0.07401045
92	0x3f5850d1	0.84498316
93	0x3f01b8a7	0.5067238
94	0x400234f4	2.034482
95	0x3fd18b69	1.637067
96	0xbfb009dd	-1.375301
97	0x3dbdde30	0.092708945
98	0xbfc16ae8	-1.511075
99	0x3e9d025e	0.3066587
100	0x3d73f2ee	0.059557848
101	0x3f80dd19	1.0067474
102	0xc01731fd	-2.362426
103	0x3fc1e7ad	1.5148827
104	0xbf04a799	-0.51818234
105	0xbc11e0c5	-0.008903687
106	0xbf77b9b1	-0.9676772
107	0x3f4f4f63	0.8098051
108	0xc0071b66	-2.1110473
109	0xbf71d73b	-0.9446904
110	0x3f111d56	0.5668539
111	0x3f969140	1.1763077
112	0x3e7190bb	0.23590367
113	0x3c7c4c60	0.015399069
114	0x3e27e5ac	0.16396207
115	0x3ee54a3a	0.44783193
116	0xbdc59b88	-0.09648806
117	0x3f6c5551	0.9231768
118	0xbfca83cb	-1.582147
119	0x3e58aa0a	0.21158615
120	0xbe66cd12	-0.22539166
121	0xbf0a1d6e	-0.53951156
122	0x3f44bd65	0.76851493
123	0x3ee08cb6	0.43857354
124	0xbcdc6cea	-0.026907403
125	0xbfc22638	-1.5167913
126	0x3f5dc5aa	0.86629736
127	0xbf13413e	-0.57521427
128	0x3f1dd8bb	0.6165883
129	0x3fab9ece	1.3407838
130	0xbf2b675b	-0.6695458
131	0x3e5f98cf	0.21835636
132	0x3f2c7b2e	0.6737546
133	0xbe209c2f	-0.1568458
134	0x3f9054af	1.1275843
135	0xbf913cb5	-1.1346651
136	0xbda383e8	-0.079841435
137	0xbf8049f2	-1.0022566
138	0xbdc25c5f	-0.09490275
139	0x3f2b5390	0.6692438
140	0x3e00c3e9	0.12574734
141	0x3ee335b4	0.4437691
142	0x3fb791c1	1.4341356
143	0x3fb7b528	1.435216
144	0xbf554990	-0.8331537
145	0xbe47d862	-0.19516137
146	0xbf87298f	-1.0559558
147	0xbfb6064b	-1.422067
148	0x3d25cca5	0.040478367
149	0xbe685a86	-0.22690782
150	0xbe20d06b	-0.15704505
151	0xbeef4a90	-0.46736574
152	0xc008b5cd	-2.1360962
153	0x3e51d9bf	0.2049322
154	0xbe8dfa9c	-0.27730262
155	0x3fde2d35	1.7357546
156	0xbf318598	-0.6934447
157	0x3f1407e9	0.5782457
158	0xbfb7c9eb	-1.4358495
159	0x3d8356b5	0.064130224
160	0xbf9154ab	-1.1353964
161	0xbdec823c	-0.11548278
162	0xbfe5c229	-1.7949878
163	0x3f78f347	0.9724621
164	0xbf404867	-0.7511048
165	0xbf7f8126	-0.9980644
166	0x3df9ed35	0.12203447
167	0x3f9dbc73	1.2323135
168	0x3fc3e84f	1.530527
169	0xbf8d1106	-1.102082
170	0x3f74b0d6	0.9558233
171	0x3f63fc67	0.8905701
172	0xbe5db13d	-0.21649642
173	0x3f909797	1.1296262
174	0x3e90e93d	0.28302947
175	0xbb402b92	-0.0029322845
176	0x3e88c462	0.26712328
177	0xbf805b9c	-1.0027957
178	0xbeac8979	-0.33698633
179	0xbecaaf56	-0.39586896
180	0x3ea553b1	0.32290414
181	0xbf4c4272	-0.7978889
182	0xbf744434	-0.9541657
183	0xbeeb9de4	-0.46018898
184	0x3e778af2	0.24174097
185	0xbea09ad2	-0.3136812
186	0xbf969e66	-1.1767089
187	0x3f4ce2c4	0.80033517
188	0x3d224004	0.03961183
189	0x3f073c12	0.52826035
190	0xbf1a8a55	-0.6036733
191	0x3ea484b5	0.32132497
192	0xbf976032	-1.1826231
193	0x3f535dc4	0.8256495
194	0xbf41d946	-0.7572216
195	0xbe289264	-0.16462094
196	0x3e0757ba	0.13217059
197	0xbeabe38f	-0.3357205
198	0xbeb847e0	-0.35992336
199	0xbe5af977	-0.21384226
200	0xbf4435bc	-0.7664449
201	0xc0018b40	-2.0241241
202	0xbeb23aa5	-0.34810367
203	0xbf2b9b38	-0.6703372
204	0xbf78153b	-0.96907395
205	0xbf240e3d	-0.64084226
206	0xbef3a616	-0.4758765
207	0x3f9719a2	1.1804698
208	0x3da340d0	0.079713464
209	0x3cdd1982	0.026989702
210	0x400aacb2	2.1667905
211	0x4008e28f	2.138828
212	0xbf0978a8	-0.5369973
213	0xbf14e08b	-0.58155125
214	0xbf09ac5f	-0.5377864
215	0xbebcc002	-0.3686524
216	0x3f2d9a31	0.678134
217	0x3fa51487	1.289689
218	0xc016d7f1	-2.35693
219	0xc0082ecd	-2.1278565
220	0xbf11996a	-0.56874716
221	0x3f77fa50	0.9686632
222	0x3f9258d1	1.1433355
223	0xbdc4c872	-0.096085444
224	0xbf1a1ff0	-0.6020498
225	0xbf8f84ff	-1.1212462
226	0x400e0743	2.2191932
227	0x3d71fe97	0.059080686
228	0x3f0960da	0.5366341
229	0x3f57046f	0.8399114
230	0xbf1ebd2c	-0.62007403
231	0x3fb315b8	1.3991003
232	0xbec39fd0	-0.38207865
233	0xbecee2b0	-0.40407324
234	0xbd83d6ef	-0.0643748
235	0x3fcb4e84	1.5883336
236	0xbede210b	-0.43384585
237	0xbe835082	-0.2564736
238	0x3fd990ee	1.6997354
239	0xbdffd91c	-0.12492582
240	0xbf28c964	-0.659323
241	0x3f0e7c9d	0.55658895
242	0x3ee28a85	0.44246307
243	0xbdc79091	-0.09744371
244	0x3f0734c8	0.5281491
245	0xbf9a3187	-1.2046365
246	0x3f208451	0.627019
247	0xbf910d77	-1.1332234
248	0xbf8f0198	-1.1172361
249	0x3f2145dc	0.6299722
250	0xbf8e32fd	-1.110931
251	0x3e8bf582	0.27335745
252	0x3f536839	0.82580906
253	0x3f42fd92	0.7616817
254	0x3f888cee	1.0668008
255	0x3f02da90	0.5111475

embedding.embeddings.5.weight f4 [9, 32]
0	0x3e38388b	0.1799032
1	0x3fdb4ecb	1.7133421
2	0x3d54114c	0.051774308
3	0xbf5d64d7	-0.86481994
4	0x401d4540	2.4573517
5	0x4026f64a	2.6087823
6	0x3fb600bb	1.4218973
7	0x3efd9b10	0.49532366
8	0xbfcf6ba9	-1.620473
9	0xbf658edc	-0.8967111
10	0xbf88a88a	-1.0676434
11	0xbe96265c	-0.2932614
12	0x3f82d804	1.0222173
13	0x3edf8462	0.43655688
14	0xbe9fc6b5	-0.3120629
15	0x3e60b358	0.21943414
16	0x3f517dd2	0.8183261
17	0x3a68e2a7	0.00088838715
18	0x3d7e8d43	0.062146436
19	0xbf7d92ca	-0.9905211
20	0xbf5c7927	-0.86122364
21	0xbfe3ecde	-1.7806661
22	0x3f89a9af	1.0754908
23	0xbea0eb56	-0.31429547
24	0x3f09fd90	0.5390253
25	0xbe333880	-0.17502022
26	0x3fedf787	1.8591164
27	0x3f170f56	0.59007776
28	0x3e341908	0.17587674
29	0x3fbed67f	1.4909209
30	0xbe560bcf	-0.20902942
31	0xbfe5a68b	-1.794145
32	0x3fa71545	1.3053366
33	0xbf85ef0c	-1.0463576
34	0xbe44787c	-0.19186586
35	0x3f8bae55	1.0912577
36	0x3f9b1551	1.211588
37	0xbea30e41	-0.31846812
38	0xbe894c5b	-0.26816067
39	0x3fa6b158	1.3022871
40	0xbf73c801	-0.95227057
41	0xbfcfe748	-1.6242456
42	0x3ec8d54a	0.39225227
43	0xbf6944da	-0.91120684
44	0x3f87f452	1.0621436
45	0xbf663a57	-0.8993277
46	0x3ee0fab0	0.4394126
47	0xbf4fa7ff	-0.81115717
48	0x3f044367	0.5166535
49	0xbe9e1f6e	-0.30883354
50	0xbf5a07df	-0.8516826
51	0xbf413388	-0.75469255
52	0x3f737f31	0.95115954
53	0xbd928d38	-0.071558416
54	0x3f80ca92	1.006182
55	0x3c1ba39c	0.009499457
56	0xbe84c6d4	-0.25932944
57	0xbfe40aed	-1.7815834
58	0x3fad9701	1.3561708
59	0xbf1b1bc8	-0.60589266
60	0xc002731e	-2.0382762
61	0x3e0f7bbd	0.14012046
62	0x3e440c78	0.19145381
63	0x3f6af30d	0.91777116
64	0xbf9e8946	-1.2385643
65	0x3f41566c	0.75522494
66	0x3e858e31	0.26085046
67	0xbeba7233	-0.36415252
68	0xbf9ffbbe	-1.2498701
69	0x3e99f60f	0.3007054
70	0xbf325ef7	-0.69676155
71	0xbeb3299f	-0.34992692
72	0x3e9ebef3	0.31005058
73	0x3fb72f2d	1.4311272
74	0xbe2e9d8e	-0.1705229
75	0xbfe0d2d5	-1.7564341
76	0x3f77daab	0.96818036
77	0xbf172ddd	-0.59054357
78	0xbf091cb3	-0.53559417
79	0xbe2c706b	-0.16839759
80	0xbf0d02c7	-0.5508236
81	0x40093b8d	2.1442597
82	0xbfbcd88f	-1.4753588
83	0xbf6dae8c	-0.9284446
84	0x3ddbf864	0.10740736
85	0x3dc42170	0.0957669
86	0xbf8c15ed	-1.0944191
87	0xbf422782	-0.75841534
88	0xbe529610	-0.20565057
89	0x3f0ef6d2	0.5584537
90	0x3e08b7bc	0.13351339
91	0xbdd52053	-0.10406556
92	0xbf24a9f6	-0.6432184
93	0xbf8d3b0b	-1.1033643
94	0x3f257141	0.64625937
95	0x3f231c29	0.63714844
96	0x3ebccdd2	0.36875778
97	0x3f1626a2	0.586527
98	0x3f7640fb	0.961929
99	0xbf005870	-0.50134945
100	0x3ce2e9b7	0.027699335
101	0x3f8665f3	1.0499862
102	0x400e4fc1	2.2236178
103	0x4015c50a	2.3401513
104	0xbfb9aada	-1.4505265
105	0xbf0c1a4a	-0.54727614
106	0xbe9644af	-0.29349276
107	0x3e360bc0	0.1777792
108	0xbf9b2a91	-1.2122365
109	0xbffeb9c1	-1.9900438
110	0x3c1f1f8e	0.009712113
111	0xbf44eeca	-0.76926863
112	0xbe1a1644	-0.15047556
113	0x3f1b93fa	0.6077267
114	0xbf51709f	-0.8181247
115	0xbe920fa0	-0.28527546
116	0xbfbf0ee2	-1.4926417
117	0xbda2ccf3	-0.07949247
118	0x3f7d27a3	0.98888606
119	0xc011ab58	-2.276083
120	0x3f1a3f9d	0.60253316
121	0x3db8c60a	0.09022148
122	0x3eeeb233	0.4662033
123	0x3cf31588	0.029673353
124	0x3f7f2b0d	0.99675065
125	0x3f9ba30a	1.215913
126	0xbf80f179	-1.0073692
127	0xbea166b7	-0.31523678
128	0x3eb60dbb	0.3555735
129	0xbfa7563a	-1.3073189
130	0xbfa1ee7e	-1.2650907
131	0xbe1a41bb	-0.15064137
132	0x3f5218b2	0.8206893
133	0xbe932d23	-0.28745374
134	0xbf25893e	-0.6466254
135	0xbe185f74	-0.14880162
136	0x3f7ad5f0	0.9798269
137	0x3eb5f0e0	0.35535336
138	0xbf2d9491	-0.6780482
139	0x3f939ea1	1.1532785
140	0xbf101b52	-0.5629169
141	0xbfae16b8	-1.3600683
142	0x3f597d44	0.84956765
143	0x3fdd58fd	1.7292782
144	0x3eb5981a	0.35467607
145	0x3f00d156	0.5031942
146	0xbf8f6b75	-1.1204668
147	0xbf39c379	-0.7256389
148	0xbec54087	-0.38525793
149	0x3f63a079	0.88916737
150	0x3f8ae265	1.085034
151	0xbf81be63	-1.0136226
152	0x3f0ad9dd	0.54238683
153	0x3fd9dd8b	1.7020735
154	0xbe6a3ce3	-0.22874789
155	0x3eebd104	0.46057904
156	0x3f0de876	0.5543283
157	0x3dcedca7	0.1010068
158	0xbf119116	-0.5686201
159	0x3faed067	1.3657349
160	0x3ee16770	0.4402423
161	0x3fefb50d	1.8727127
162	0x3fffcc55	1.9984232
163	0x3e217f7d	0.15771289
164	0xbf8a7daf	-1.0819606
165	0x3e92ff6c	0.28710496
166	0x3f34d9f4	0.7064507
167	0xbf4f4010	-0.80957127
168	0xbfc95c89	-1.5731364
169	0xbf55c317	-0.8350081
170	0xbfd04c52	-1.6273291
171	0xbf14d7dc	-0.58141875
172	0x3c814c8a	0.015783567
173	0xbe2759ee	-0.16342899
174	0xbfa9c20e	-1.3262346
175	0x3fb1c420	1.3887978
176	0xbef1153b	-0.4708651
177	0xbf7bbe52	-0.9833728
178	0x3e43cc80	0.1912098
179	0xbfc9a4b3	-1.5753387
180	0xbe531f11	-0.2061732
181	0x3f315146	0.6926464
182	0xbfe7610f	-1.8076495
183	0xbf023431	-0.5086089
184	0x3e8d3ffe	0.27587885
185	0x3ee4548d	0.44595757
186	0x3fe1e44f	1.7647799
187	0x3f8d9d8e	1.1063707
188	0x3e51f3ed	0.20503207
189	0xbfc75f7d	-1.5576016
190	0x3f9d9f50	1.2314243
191	0xbf825a8e	-1.0183885
192	0x3e1cfcd3	0.1533082
193	0xbfbfd940	-1.4988174
194	0xbf8484c0	-1.0353012
195	0xbf26471d	-0.6495226
196	0xbf907974	-1.1287065
197	0xbfa4281c	-1.282474
198	0xbe7c2c19	-0.24626197
199	0x3f2a2de6	0.66476285
200	0x3b2d1da7	0.002641538
201	0x3f8090fb	1.0044245
202	0x3f1f14ea	0.6214129
203	0xc00e5110	-2.2236977
204	0xbe9ac2d6	-0.30226773
205	0xbf8f5020	-1.1196327
206	0xbf623bf1	-0.88372713
207	0xbf5924df	-0.84821886
208	0xbf9ea66e	-1.239454
209	0x3ea918af	0.33026645
210	0xbf80d021	-1.0063516
211	0xbf56d361	-0.8391629
212	0xbfacdcf6	-1.3504932
213	0xbfa9c47f	-1.3263091
214	0x3f0455e9	0.5169359
215	0xbfbd8335	-1.4805666
216	0x3e6e486f	0.23269819
217	0x3e934d13	0.2876974
218	0x3fd937c6	1.6970146
219	0xbffea19b	-1.9893068
220	0xbeac0f4a	-0.33605415
221	0x3fa6a942	1.3020403
222	0x3e36774d	0.17818947
223	0xbf3dc691	-0.74131113
224	0xbd516df8	-0.051130265
225	0x3e259204	0.16168982
226	0x3e8e835e	0.278346
227	0xbff6f61b	-1.9293855
228	0x3fb48787	1.410386
229	0x3d858a83	0.0652056
230	0xbf51b369	-0.81914383
231	0xbe5bdd0f	-0.21471046
232	0x3f2931cf	0.66091627
233	0xbf0b000c	-0.54296947
234	0xc0133012	-2.299809
235	0xbd115fd3	-0.035491776
236	0xbf48ed33	-0.7848694
237	0x3f30e6f1	0.6910239
238	0x3e99cbbf	0.30038258
239	0xbf88aa54	-1.067698
240	0x3f1950bc	0.59888816
241	0xbf2329cc	-0.6373565
242	0xbe3431fe	-0.17597196
243	0xbfab97db	-1.3405718
244	0xbe24d83a	-0.16098109
245	0xbf8760a8	-1.0576372
246	0x3f81f9ef	1.0154399
247	0xbf642189	-0.8911367
248	0x3f169e78	0.58835554
249	0x3f95b19a	1.1694825
250	0x3d8ac42a	0.067756966
251	0xbf400061	-0.7500058
252	0x3e52cbe3	0.20585589
253	0xbf31a147	-0.69386715
254	0xbf54f3bd	-0.83184415
255	0x3f2feebf	0.6872367

embedding.embeddings.6.weight f4 [20, 32]
0	0xbe4b3000	-0.1984253
1	0xbf0511e5	-0.5198043
2	0xbf818614	-1.0119042
3	0x3f03a850	0.514287
4	0x3ed6e09b	0.41968235
5	0x3fa5b4f8	1.2945852
6	0x3e68473f	0.22683428
7	0x3f85e025	1.0459028
8	0x3f6cadb6	0.9245256
9	0xbca429d8	-0.020039484
10	0x3f2602a2	0.6484777
11	0xbe3f3e99	-0.18676223
12	0xbfca0e09	-1.5785533
13	0xbceb9440	-0.028757215
14	0x3fc342f8	1.5254812
15	0x3fda0d1e	1.7035253
16	0xbf6ea31d	-0.9321764
17	0x3db1f052	0.086884156
18	0xbe3ae46a	-0.18251196
19	0x3fb90dfe	1.4457395
20	0xbe93dca6	-0.2887928
21	0x3f68badd	0.9091013
22	0x3fa3bfff	1.2792968
23	0xbdcca39d	-0.09992144
24	0x3f85943b	1.0435861
25	0xbf07da32	-0.53067315
26	0x3fba9393	1.4576286
27	0xbe46cae1	-0.1941333
28	0xbfe292bf	-1.7701033
29	0xbed3074e	-0.4121651
30	0xbf439d48	-0.7641187
31	0x3cb3d230	0.021950811
32	0xbef0d85c	-0.4704007
33	0xbd3a644e	-0.045505814
34	0x3e8aa190	0.27076387
35	0x3ecae2f9	0.3962629
36	0x3e9e8e71	0.3096805
37	0x3e38e41f	0.18055771
38	0x3f0402f0	0.5156698
39	0x3f997833	1.1989807
40	0x3fad4cf8	1.3539114
41	0xbf0db49f	-0.5535373
42	0xbfd1a1db	-1.6377519
43	0x3da8064f	0.08204328
44	0x3ee2ffe1	0.44335845
45	0xbf3a599d	-0.7279299
46	0xbf3a05aa	-0.7266489
47	0x40193ffe	2.3945308
48	0x3f7cc367	0.9873566
49	0x3ea426e9	0.32060936
50	0x3f24ab24	0.6432364
51	0xbe3bc9f3	-0.18338756
52	0xbf9473ff	-1.1597899
53	0xbf78b25e	-0.97147167
54	0xbf889814	-1.067141
55	0xbf9927b9	-1.1965247
56	0xbd522d31	-0.05131263
57	0xbf595dbe	-0.84908664
58	0xbfde8bad	-1.7386376
59	0x3fbc9b66	1.4734924
60	0xc0047a31	-2.069958
61	0x3fa7817d	1.3086392
62	0x3d437570	0.04771942
63	0xbdb2423a	-0.08704038
64	0x3f2a4393	0.6650936
65	0xbe9cd9e4	-0.30634987
66	0x3f2c92cf	0.6741151
67	0xbd2d2cb8	-0.042278975
68	0xbf9069e1	-1.1282312
69	0x3f42ff02	0.7617036
70	0xbf2ad225	-0.66726905
71	0xc01ddb37	-2.4665048
72	0x3ea4d2ad	0.32191983
73	0xbfaaba52	-1.333811
74	0x3e381d0d	0.17979832
75	0xbd6238a8	-0.055229813
76	0x3f6d9508	0.9280553
77	0xbf2217b6	-0.6331743
78	0x3f189531	0.5960265
79	0x3ed487da	0.41509897
80	0x3ee8960b	0.45426974
81	0x3dbb1944	0.091356784
82	0xbff2aaff	-1.8958434
83	0xbe6b3f60	-0.22973394
84	0xbd9f2f1b	-0.077726565
85	0xbfb76fd1	-1.4330999
86	0x3e421cd1	0.18956305
87	0x3e255c4e	0.16148493
88	0x3f0a151e	0.5393847
89	0x3e0f5250	0.13996243
90	0x3d3d2646	0.04617908
91	0x403c21e7	2.9395692
92	0xbeac9a6c	-0.33711565
93	0xbcf35202	-0.02970219
94	0xbe00967d	-0.12557407
95	0x40097b0f	2.148136
96	0xbdafbb45	-0.08580641
97	0x3fac218e	1.344774
98	0xbf8fb887	-1.1228188
99	0x3da979d2	0.082751885
100	0x3fdd500d	1.7290055
101	0xbec13f6b	-0.37743697
102	0x3c96702e	0.018364038
103	0xbfc346c4	-1.5255971
104	0x401edd6c	2.4822645
105	0xbf2b32a2	-0.66874135
106	0xbe98ca6b	-0.29841933
107	0xbf96ad58	-1.177165
108	0xbfbc1a67	-1.4695557
109	0xbfb6a3b4	-1.4268708
110	0xbf11f63d	-0.57016355
111	0xbfbc1f68	-1.4697084
112	0x3faa218d	1.3291489
113	0xbe42e414	-0.19032317
114	0x3f61c592	0.88192093
115	0xbf0248bb	-0.5089223
116	0xbef2b74a	-0.47405463
117	0x40180d07	2.3757951
118	0xbe2bcade	-0.16776606
119	0xbdd05018	-0.10171527
120	0xbf614332	-0.87993157
121	0xbfe4371e	-1.782932
122	0xbfbce747	-1.475808
123	0x3dbec204	0.09314349
124	0x3f239f45	0.639149
125	0xbf9f12ca	-1.2427609
126	0x3fb3705c	1.4018664
127	0xbfbf2b9b	-1.4935182
128	0xbfd7b84b	-1.6853117
129	0xbf68c71d	-0.9092882
130	0xbf1d2f5e	-0.614004
131	0xbf33262a	-0.6998011
132	0xc0018666	-2.023828
133	0xbf8a96f6	-1.082732
134	0x3fa5243b	1.2901682
135	0x3f790e9a	0.97287905
136	0xbf47f797	-0.7811217
137	0xbf7eefbe	-0.9958457
138	0x3e7b6b35	0.24552615
139	0x402582f7	2.5861185
140	0xbe4f86eb	-0.20266311
141	0xbfa63222	-1.2984049
142	0x3e914371	0.28371766
143	0xbe47106c	-0.19439858
144	0xbf678481	-0.9043656
145	0x3f20e0c2	0.62842953
146	0x3e993735	0.29924932
147	0xbf32192e	-0.6956967
148	0xbf9bbe91	-1.2167531
149	0x3fab73e7	1.3394746
150	0xbf17bf7e	-0.5927657
151	0x3f04ff00	0.519516
152	0xbf94ba31	-1.1619321
153	0xbf290d62	-0.66036046
154	0x4016ac37	2.3542612
155	0xbe661655	-0.22469456
156	0x3f373543	0.71565646
157	0x3efcab93	0.4934965
158	0xbfb95cd7	-1.4481457
159	0xbf75ac52	-0.95966065
160	0x3f4bd733	0.7962524
161	0xbf3a6ec6	-0.72825277
162	0x3f531259	0.8244987
163	0x3f63b545	0.8894847
164	0xbfd214c1	-1.6412584
165	0x3e167675	0.14693625
166	0x3f3d7e54	0.74020886
167	0xbf101033	-0.5627472
168	0xbea57816	-0.3231818
169	0xbd5ef832	-0.054435916
170	0xbf790004	-0.9726565
171	0xbf3501c7	-0.70705837
172	0x3ffa8e95	1.9574763
173	0xbe25d567	-0.16194688
174	0xbe0f1dfe	-0.13976285
175	0xbf4e1050	-0.8049364
176	0x3ebfa824	0.3743297
177	0xbf98079a	-1.187732
178	0xbe6433ee	-0.22285435
179	0xbf1eaca5	-0.61982185
180	0x3f00d547	0.50325435
181	0x3f031412	0.512025
182	0xbed9dbb7	-0.42550442
183	0x3e604d02	0.21904376
184	0xbde0c57d	-0.10975168
185	0x3e57e1eb	0.21082275
186	0xbecb0d3c	-0.39658535
187	0xbec05705	-0.3756639
188	0x3ea9cc5a	0.3316372
189	0x3f56a8ab	0.83851117
190	0xbf1bdbdf	-0.6088237
191	0xc047babc	-3.1207724
192	0xbf1deb23	-0.61686915
193	0xbea4a030	-0.32153463
194	0xbf8e7831	-1.113043
195	0xbf181d47	-0.59419674
196	0xc018f051	-2.3896677
197	0x3ed58e86	0.417103
198	0xbe4f8736	-0.20266423
199	0x3fba6b89	1.4564067
200	0xbf574ae1	-0.8409863
201	0xbfe6279f	-1.7980841
202	0x3f79fad9	0.9764839
203	0xbeb560bd	-0.35425368
204	0x3edbc6fe	0.42925256
205	0x3f836f1f	1.0268286
206	0x40111a9b	2.2672489
207	0x3d574f0a	0.052565612
208	0xbf6e8c2d	-0.9318264
209	0x3fc87e06	1.5663459
210	0xc00e5117	-2.2236993
211	0x3f335ea9	0.70066315
212	0xbcb53733	-0.022121048
213	0xbef04687	-0.46928808
214	0xc00a4560	-2.1604843
215	0xbf914c1f	-1.1351355
216	0x3f4641ef	0.77444357
217	0x3f4b23e2	0.7935163
218	0xbf692ad0	-0.9108095
219	0xbf0c6c13	-0.5485241
220	0xbeb2ba21	-0.3490763
221	0xbecd4790	-0.4009366
222	0xbf4bbb5b	-0.79582757
223	0x3f52bfc4	0.8232386
224	0x3f444586	0.76668584
225	0x3e24c249	0.16089739
226	0xbe56d18a	-0.2097837
227	0x3f995228	1.1978197
228	0xbfc6b212	-1.5523093
229	0xbe0516d3	-0.12996988
230	0xbf32d31c	-0.6985338
231	0x3fcb823d	1.589912
232	0xbfbcbda0	-1.4745369
233	0x3f09783f	0.53699106
234	0xbfb67ed7	-1.4257458
235	0xbf867cc5	-1.0506827
236	0x3e68a797	0.2272018
237	0xbf3f68cf	-0.747693
238	0x3ffc968b	1.9733442
239	0x3df1a28a	0.1179858
240	0x3f12bde2	0.5732099
241	0xbed3f818	-0.41400218
242	0x3e6c50ae	0.23077652
243	0x3e67f859	0.22653331
244	0x3f706851	0.93909174
245	0x3fb47202	1.4097292
246	0x3fc0b1d3	1.5054268
247	0x3e816945	0.25275627
248	0x3d1d0ac4	0.038340345
249	0x3ef89122	0.48548228
250	0x401845c6	2.3792586
251	0x3bafa714	0.0053604934
252	0xbfaf5052	-1.3696387
253	0xbfc4ddaa	-1.5380147
254	0xbe0b1c88	-0.13585103
255	0x3ea28313	0.31740627

num_proj.weight f4 [32, 1]
0	0x3d80ae40	0.062832355
1	0xbed28f9d	-0.41125193
2	0xbea493cd	-0.32144013
3	0xbea65c89	-0.32492474
4	0x3f36eeeb	0.7145831
5	0xbf6e41a8	-0.93068933
6	0xbe3b8a81	-0.18314554
7	0xbe77d845	-0.24203594
8	0xbca94f22	-0.020667616
9	0x3e0acd50	0.13554883
10	0x3e989520	0.29801273
11	0xbf4f3cfd	-0.80952436
12	0xbf22bd06	-0.63569677
13	0xbe2c9b89	-0.16856207
14	0xbd329015	-0.04359444
15	0xbf029fbc	-0.51024985
16	0x3f7c8f6f	0.9865636
17	0x3f4c62d9	0.7983833
18	0x3df5b780	0.119978905
19	0xbf2b8996	-0.67006814
20	0x3f020cad	0.5080059
21	0xbf74bc57	-0.95599884
22	0x3a3b8d16	0.00071545073
23	0xbf20db8f	-0.6283502
24	0xbef3e466	-0.47635192
25	0xbf88ecad	-1.0697228
26	0xbe9bb3be	-0.3041057
27	0xbeeb2d84	-0.45933163
28	0x3f315af1	0.6927939
29	0xbf12b59c	-0.57308364
30	0xbe22b7d9	-0.15890445
31	0x3e52e1c8	0.20593941

num_proj.bias f4 [32]
0	0x3a0186c8	0.00049410434
1	0x3f6d0d95	0.9259885
2	0xbe054672	-0.13015154
3	0x3e816cc5	0.25278297
4	0x3f3d8657	0.7403311
5	0x3f5fc4d0	0.8740969
6	0x3f2daaa9	0.6783853
7	0xbebc4819	-0.36773756
8	0xbe08bfbd	-0.13354392
9	0xbef1262a	-0.4709943
10	0xbf051efe	-0.52000415
11	0x3e580ba3	0.21098189
12	0xbeadd038	-0.3394792
13	0xbeb3d973	-0.35126838
14	0x3da8b9c3	0.08238556
15	0x3f7b024d	0.98050386
16	0x3e6b020e	0.22950003
17	0xbf52de5a	-0.8237053
18	0xbf2d8664	-0.6778319
19	0x3ec46dd5	0.38365045
20	0x3e1d732e	0.15375969
21	0x3c9c890b	0.019108316
22	0xbefddb95	-0.4958159
23	0xbf274271	-0.65335757
24	0xbeb58ce9	-0.35459068
25	0x3ee3dc95	0.44504228
26	0xbcd59472	-0.02607176
27	0x3f50da19	0.8158279
28	0xbf714df9	-0.942596
29	0xbe276af1	-0.16349389
30	0xbe82a4c4	-0.2551633
31	0xbecb3d2d	-0.3969511

transformer.layers.0.self_attn.in_proj_weight f4 [96, 32]
0	0x3d895ccc	0.06707153
1	0xbd03b4e8	-0.032154948
2	0x3d6ab0bd	0.057297457
3	0x3e18f497	0.14937054
4	0xbe386a0b	-0.18009202
5	0x3e53457d	0.20631976
6	0x3d9585a0	0.073008776
7	0xbdd7875e	-0.10523866
8	0x3e06d64c	0.13167685
9	0x3e59a4b9	0.21254243
10	0x3e39d841	0.181489
11	0xbe08ae20	-0.13347673
12	0xbe3fd48a	-0.18733421
13	0x3e5d3cd9	0.21605243
14	0xbe54946c	-0.20759743
15	0xbe650dde	-0.22368571
16	0xbe348855	-0.17630132
17	0xbe44c8e1	-0.19217254
18	0xbd0aae24	-0.03385748
19	0xbdaa44ef	-0.08313929
20	0xbd66943a	-0.056293704
21	0x3c34d256	0.011036476
22	0xbe2dd92a	-0.16977373
23	0xbcf455f7	-0.029826147
24	0x3cdebf14	0.027190723
25	0x3d9afa3f	0.07567262
26	0xbbc319bc	-0.0059539955
27	0xbd3866ea	-0.04502002
28	0x3df07404	0.11740878
29	0x3d41c2d5	0.047304947
30	0x3ddb2992	0.10701288
31	0xbe5f5e1e	-0.21813247
32	0x3e448a12	0.19193295
33	0xbe609853	-0.21933107
34	0xbe3622b7	-0.1778668
35	0x3e3d91fd	0.18512721
36	0x3af71133	0.001884973
37	0x3e536116	0.20642504
38	0xbe296c77	-0.16545282
39	0xbe34b88f	-0.17648529
40	0xbe4a1611	-0.1973498
41	0xbdcf1606	-0.101116225
42	0xbe53b2e4	-0.2067371
43	0xbd8bf46b	-0.068337284
44	0xbe102085	-0.14074905
45	0x3d33d49f	0.043903943
46	0xbd9b46a5	-0.07581834
47	0xbe449703	-0.19198231
48	0x3e344cac	0.17607373
49	0x3e2c0f98	0.16802824
50	0xbd1cbff9	-0.038269017
51	0xbdd9c619	-0.10633487
52	0x3e2aa0a8	0.16662848
53	0xbe5d34db	-0.21602194
54	0xbd03a175	-0.0321364
55	0xbe481407	-0.1953889
56	0xbe5e6e99	-0.21721877
57	0x3e2cfeff	0.16894148
58	0xbe7322e4	-0.23743778
59	0xbb8c30c7	-0.0042782756
60	0x3d2cf775	0.04222818
61	0xbe11cacc	-0.14237517
62	0xbd6016fc	-0.05470942
63	0xbe133741	-0.14376546
64	0xbdc46b1c	-0.09590742
65	0xbcbdf7fb	-0.023189535
66	0x3e57ae32	0.21062544
67	0x3e1d4ae2	0.15360597
68	0x3e44c359	0.19215144
69	0x3be71df6	0.007053132
70	0xbe1f2988	-0.15543187
71	0x3d85b0a2	0.06527831
72	0xbe2797a6	-0.16366443
73	0xbe440311	-0.19141795
74	0xbe590e64	-0.21196896
75	0x3c3eb8be	0.011640726
76	0xbdbe268d	-0.09284697
77	0x3be89c6c	0.007098725
78	0x3d674316	0.056460463
79	0x3e0feb2b	0.14054553
80	0x3e5191cc	0.20465773
81	0xbd7335f6	-0.059377633
82	0xbdbb429a	-0.091435626
83	0xbcd04450	-0.025423199
84	0x3d01086d	0.031502176
85	0xbd9e993a	-0.077440694
86	0xbe48cd1b	-0.19609492
87	0x3da45034	0.0802311
88	0xbe58ff3b	-0.21191113
89	0xbd4f1809	-0.05056003
90	0xbe700b7e	-0.23441884
91	0x3e0b738b	0.13618295
92	0xbdd63ba5	-0.10460595
93	0x3e586254	0.21131259
94	0xbc04fa4f	-0.008116319
95	0x3d826dc2	0.06368591
96	0x3e3c1fb9	0.18371476
97	0x3e4c3af2	0.19944361
98	0xbe60c59d	-0.21950383
99	0x3d06626f	0.032808717
100	0x3df5ebad	0.12007842
101	0x3d8b9347	0.068152
102	0x3e2f6667	0.17128907
103	0xbe5a48f1	-0.21316887
104	0xbd090711	-0.033454005
105	0x3d97c125	0.07409886
106	0xbda881ff	-0.0822792
107	0x3e68952b	0.22713153
108	0xbc1cedf2	-0.009578215
109	0xbdb10f3a	-0.08645482
110	0xbb6d5594	-0.0036214339
111	0x3e83d3b2	0.25747448
112	0x3d71e573	0.05905671
113	0xbe079c29	-0.13243164
114	0xbd93da04	-0.072193176
115	0xbe2091db	-0.1568064
116	0xbe4fe802	-0.20303348
117	0xbe30467a	-0.17214385
118	0xbcc27a31	-0.023739906
119	0xbe6fe8ec	-0.23428696
120	0xbdf4946f	-0.11942374
121	0xbe197610	-0.14986444
122	0xbe3f1586	-0.18660554
123	0x3e5f9576	0.21834359
124	0xbc9f0863	-0.019413179
125	0xbd8cc97d	-0.06874368
126	0xbd9f4943	-0.077776454
127	0x3e16252f	0.14662622
128	0x3ddf884f	0.10914671
129	0x3d559aed	0.052149702
130	0x3d9019ee	0.07036196
131	0x3e37e72c	0.17959279
132	0xbe43ce34	-0.19121629
133	0x3e0579df	0.13034771
134	0xbd7bba75	-0.061457116
135	0x3e71d6c8	0.23617089
136	0xbdda6d93	-0.10665431
137	0xbe638bff	-0.22221373
138	0xbcfbbaa7	-0.030728651
139	0x3b95ca8c	0.0045712646
140	0x3ad1b139	0.0015998251
141	0xbdd54921	-0.10414339
142	0x3d87eb5d	0.06636689
143	0xbdf7177c	-0.12065026
144	0x3dcff311	0.10153783
145	0x3e208d60	0.1567893
146	0x3e11ace0	0.14226103
147	0x3db97938	0.09056324
148	0x3da7b0ff	0.08188056
149	0xbd8c5b0a	-0.06853302
150	0x3d9411b1	0.07229937
151	0xbd12b652	-0.035818405
152	0x3c1517fe	0.009099958
153	0xbd87cdf6	-0.06631081
154	0xbd8b769c	-0.06809732
155	0xbe25aa39	-0.16178216
156	0xbe2f979e	-0.17147681
157	0xbd00a90e	-0.031411223
158	0x3d395eeb	0.045256536
159	0xbe1456a0	-0.1448617
160	0x3e01c17e	0.12671468
161	0x3dbc9b3f	0.09209298
162	0x3e1d98a9	0.15390266
163	0x3d8c2982	0.068438545
164	0xbe0ae945	-0.13565548
165	0x3e3563fa	0.1771392
166	0xbd86bb29	-0.06578667
167	0xbe0ec53f	-0.13942431
168	0xbcd0b9a5	-0.025479147
169	0xbd64056c	-0.055669233
170	0x3e6c9e85	0.23107345
171	0x3b0c593b	0.002141549
172	0xbdcaf709	-0.099103995
173	0xbdf6ec38	-0.12056774
174	0xbd95a36a	-0.073065594
175	0x3c83b63d	0.016078109
176	0xbd992e8b	-0.074795805
177	0x3e12338f	0.1427748
178	0xbd4a6a7c	-0.049417958
179	0xbe5084c6	-0.20363149
180	0x3cf98261	0.030457677
181	0xbde9b320	-0.114111185
182	0xbd2f8698	-0.042852968
183	0xbd8faf8c	-0.07015905
184	0x3e2ab4e6	0.1667057
185	0xbe1ec255	-0.1550382
186	0xbe07918d	-0.13239117
187	0x3c847cbf	0.016172765
188	0x3d8e87a7	0.069594674
189	0x3e32481b	0.17410319
190	0x3cbe9009	0.02326204
191	0x3c92d991	0.01792601
192	0x3c98f46e	0.01867124
193	0xbdbe72ef	-0.092992656
194	0x3c6e40dc	0.014541831
195	0x3d6dedcc	0.05808811
196	0xb9be852b	-0.00036338842
197	0x3e2fe3f4	0.17176801
198	0x3dfb7685	0.12278465
199	0x3db4ca87	0.088276915
200	0x3e4104e6	0.18849525
201	0xbe4bf45f	-0.19917439
202	0x3e6e5d61	0.23277809
203	0x3d21dd67	0.039517786
204	0x3e8d877c	0.2764243
205	0x3ddb95a9	0.10721905
206	0xbdc82a22	-0.09773661
207	0x3e851c5c	0.259982
208	0xbe54e6aa	-0.20791116
209	0x3e641609	0.2227403
210	0x3dc75d05	0.09734539
211	0xbd6deeb5	-0.058088977
212	0xbe16c693	-0.14724188
213	0xbe34a456	-0.17640814
214	0x3e5b0da4	0.21391922
215	0xbe45c8f1	-0.19314934
216	0x3ced93c0	0.029001117
217	0x3d82f9db	0.063953124
218	0xbe35d77e	-0.17757985
219	0xbd503a70	-0.05083698
220	0x3be76b9c	0.0070623886
221	0x3e1c53be	0.1526632
222	0xbce219d9	-0.027600216
223	0xbe200d7a	-0.15630141
224	0x3d93ef02	0.072233215
225	0xbda3e99b	-0.08003541
226	0x3deb3b73	0.114859484
227	0xbe5ee58b	-0.21767251
228	0xbcd907b6	-0.026492935
229	0x3bef1d0e	0.0072971648
230	0x3d2f6a36	0.0428259
231	0x3c493b2e	0.012282176
232	0xbd5dabe2	-0.054119
233	0xbd856011	-0.06512464
234	0x3debb58f	0.11509239
235	0xbdbe8926	-0.09303503
236	0xbe406ddc	-0.18791908
237	0xbe1e65c5	-0.1546851
238	0xbe39d25e	-0.18146655
239	0x3e3f59d5	0.18686612
240	0x3e606cae	0.21916458
241	0xbe859c4e	-0.26095814
242	0xbd657c48	-0.056026727
243	0xbe4a813c	-0.19775862
244	0x3d9c1c22	0.076225534
245	0xbd9bc3cb	-0.07605704
246	0x3ce58fc7	0.02802266
247	0xbe86a5d2	-0.26298386
248	0x3d4108a1	0.04712737
249	0xbdd80804	-0.10548404
250	0xbb9cfb6b	-0.0047907135
251	0x3d2b8dcb	0.04188327
252	0xbdcaa85e	-0.09895395
253	0xbd2e4cd4	-0.042553738
254	0xbe58fd8d	-0.21190472
255	0x3aed4fe2	0.0018105472

transformer.layers.0.self_attn.in_proj_bias f4 [96]
0	0xbc9b0efe	-0.018928047
1	0x3be9f5a4	0.0071398783
2	0x39b35705	0.00034206375
3	0x3ca1f183	0.019768482
4	0xbd0e330a	-0.034716643
5	0xbb8e1c37	-0.0043368596
6	0xbbb40800	-0.0054941177
7	0x3d453505	0.048146266
8	0xbcb33aa4	-0.021878548
9	0xbddb0275	-0.10693828
10	0x3dcb8953	0.09938302
11	0xbbccfbd8	-0.006255608
12	0x3d8b4025	0.06799344
13	0xbb1ebd35	-0.0024221663
14	0x3d44f990	0.048089564
15	0xbafcace8	-0.0019277604
16	0x3bba2f65	0.0056819194
17	0xbc40bf92	-0.011764424
18	0x3d153b4e	0.03643351
19	0xbbf02d6b	-0.007329633
20	0x3c850579	0.016237961
21	0xbcf04012	-0.029327426
22	0xbc4fb48d	-0.012677324
23	0x3c90d150	0.017677933
24	0x3c4b82bc	0.012421306
25	0x3b2f056e	0.0026706117
26	0xbce9a39c	-0.028520398
27	0x3c742722	0.014901908
28	0xbca9da5d	-0.020734007
29	0xbd151f29	-0.03640667
30	0xbb426e3a	-0.002966775
31	0x3cbf77d6	0.023372572
32	0xb7140513	-8.822669e-06
33	0xb92f0045	-0.00016689401
34	0x391bc85e	0.00014856594
35	0x394708f0	0.00018981448
36	0x38f71a67	0.000117827956
37	0xb72849bc	-1.0030748e-05
38	0x38a5a6b0	7.898861e-05
39	0x372f0923	1.043294e-05
40	0x3960bdc0	0.00021432992
41	0x39138e3a	0.00014071996
42	0x39fe026b	0.00048448457
43	0x397a73c0	0.00023884978
44	0x3632a04a	2.6617367e-06
45	0x374c20ed	1.2167014e-05
46	0x3809e5e7	3.287746e-05
47	0x39468257	0.00018931307
48	0xb85e1955	-5.2952517e-05
49	0x37aa7721	2.0321053e-05
50	0x38f537b7	0.00011692888
51	0x38a79631	7.991156e-05
52	0xb807b36c	-3.2353608e-05
53	0xb91e6ed6	-0.00015109344
54	0x38f19c66	0.00011520907
55	0x38817c31	6.174332e-05
56	0x370fddc2	8.575096e-06
57	0xb8b31795	-8.5397776e-05
58	0xb8f786ac	-0.000118029624
59	0x390792a8	0.00012929237
60	0x38599d8c	5.188356e-05
61	0x38bae4be	8.911778e-05
62	0x376880a1	1.3858226e-05
63	0xb9920974	-0.00027854333
64	0x3bf363ff	0.007427692
65	0xbc75f92e	-0.015013022
66	0xba942b77	-0.0011304457
67	0x3c0e0bee	0.008669836
68	0x3c1090c6	0.008823579
69	0x3c788d0f	0.01517035
70	0xbc7134d5	-0.014722069
71	0x3c4363c9	0.011925646
72	0xbb564bf5	-0.0032699083
73	0xbc6af2ff	-0.014340161
74	0xbb2749f5	-0.002552626
75	0xbc7044a7	-0.0146648055
76	0x3b90ef20	0.004423037
77	0x3b57ea95	0.0032946218
78	0x3bddc090	0.00676734
79	0xbc1e4103	-0.009659055
80	0x3bf4920c	0.007463699
81	0x3c390fe6	0.011295294
82	0xbc1da319	-0.009621405
83	0xbce1a413	-0.027544057
84	0xbc882933	-0.016621208
85	0x3be0d7d7	0.0068616676
86	0x3c2cdb31	0.010550306
87	0xbccb267b	-0.024798622
88	0xbc48d8e8	-0.012258746
89	0xbbb0e2a0	-0.0053981096
90	0x3a93cc3c	0.0011276077
91	0x3b1792b5	0.0023128216
92	0x3c1e6303	0.009667161
93	0xbb76362b	-0.0037568908
94	0xbc8bc38f	-0.017061023
95	0xbc2dbb78	-0.010603778
