backend/models/tabm_k4_pruned.pth (torch, 389629 bytes, 63 tensors)

embedding.embeddings.0.weight f4 [10, 4]
0	0x3e647f03	0.22314076
1	0xbe3283c9	-0.17433085
2	0x3e80eb67	0.25179598
3	0xbf948774	-1.1603837
4	0xbf543aab	-0.8290202
5	0x3da55424	0.08072689
6	0xbda04dc0	-0.0782733
7	0xbf5c441c	-0.86041427
8	0xbeebbc87	-0.46042272
9	0xbfc94c20	-1.5726357
10	0xc005292c	-2.080638
11	0x3f8dd5aa	1.108083
12	0xbf629816	-0.88513315
13	0x3f393722	0.7234975
14	0x3e106ffa	0.14105216
15	0xbc80e380	-0.01573348
16	0x3fe65d14	1.7997155
17	0x3f048eea	0.5178057
18	0x3f0fb152	0.56129944
19	0x3fc272ed	1.5191323
20	0x40294df3	2.6453826
21	0x3f374914	0.71595883
22	0x3d4491ab	0.047990482
23	0xbfbf15ea	-1.4928563
24	0xbd8b99da	-0.06816454
25	0xbf3210d5	-0.69556934
26	0x3efed49f	0.49771592
27	0x3e1b622b	0.15174167
28	0xbf3e8b23	-0.74431056
29	0x3f23d4bb	0.63996476
30	0x3fccfb40	1.6014175
31	0x3eb6c4d2	0.35697037
32	0x3ebbc7dc	0.36675918
33	0x3f7c653e	0.98591983
34	0x3f00a948	0.502583
35	0xbf62315b	-0.8835656
36	0xbe9f211a	-0.31079942
37	0xbeed2602	-0.4631806
38	0xbf9541cf	-1.1660708
39	0x3f3f2dbe	0.7467917

embedding.embeddings.1.weight f4 [3, 4]
0	0xbeb34df3	-0.35020408
1	0xbe1b5ba5	-0.15171678
2	0xbf09072b	-0.5352656
3	0x3e800271	0.25001863
4	0xbf5a99c9	-0.8539091
5	0xbfc80221	-1.562565
6	0x3ed028d2	0.40656143
7	0xbf60add6	-0.8776525
8	0x3fb1a4a0	1.3878365
9	0xbe822616	-0.25419682
10	0x3d28727b	0.041124802
11	0x3f2c6638	0.67343473

embedding.embeddings.2.weight f4 [2, 4]
0	0xbf5b2fd3	-0.8561985
1	0xbf0b3fb2	-0.54394066
2	0xbf1c0f09	-0.6096044
3	0xbf534405	-0.82525665
4	0x4013774b	2.304156
5	0xbe7b9e91	-0.24572207
6	0x3f86d173	1.0532669
7	0xbfd0af0a	-1.6303418

embedding.embeddings.3.weight f4 [8, 4]
0	0x3dcc3d04	0.09972575
1	0xbfa4bc51	-1.286997
2	0x3e5886d6	0.21145186
3	0xbe5adcb8	-0.2137326
4	0xbe688d79	-0.22710218
5	0x3f4b915f	0.79518694
6	0xbd517ad3	-0.051142525
7	0xbe83dc96	-0.2575423
8	0xbfc157c1	-1.5104905
9	0x3ee008e3	0.4375678
10	0x3f70c7b0	0.940547
11	0xbf2c93bc	-0.67412925
12	0xbf3a2893	-0.7271816
13	0x4034cf03	2.825135
14	0x3ee8953a	0.4542635
15	0x3f019575	0.5061868
16	0xbec2dff3	-0.38061485
17	0xbfa227e7	-1.2668427
18	0xbffc622c	-1.971746
19	0xbfab90a6	-1.3403518
20	0x3f3c6b8c	0.73601604
21	0x3facdf80	1.3505707
22	0xbe9c1301	-0.3048325
23	0xbf426dc0	-0.75948715
24	0x3ebdb62f	0.37053058
25	0xbeb00ab3	-0.34383163
26	0x402e201a	2.7207093
27	0x3f73c6db	0.95225304
28	0x402e39dd	2.7222817
29	0xbe49f064	-0.19720608
30	0xbe701df1	-0.23448922
31	0x3fe89ea7	1.8173417

embedding.embeddings.4.weight f4 [13, 4]
0	0x3fd9735e	1.6988332
1	0x3e0390cb	0.12848203
2	0xbe0d3f03	-0.13793568
3	0x3e11940f	0.14216636
4	0xbf103d67	-0.5634369
5	0xbc16d2c8	-0.009205528
6	0x3f902a8d	1.1262985
7	0x3e4d0c4a	0.20024219
8	0x3f34d513	0.70637625
9	0xbeec0a0a	-0.4610141
10	0xbedcd968	-0.43134618
11	0xbf1ee0c4	-0.62061715
12	0x3f954e99	1.1664611
13	0xbe426cc4	-0.18986803
14	0xbf941921	-1.1570169
15	0x3f7bd41c	0.9837053
16	0x3e916ee4	0.28404915
17	0x3f513635	0.8172334
18	0xbf772139	-0.9653507
19	0xbd1f988e	-0.038963847
20	0x3e55ec65	0.20890959
21	0x3ee58d17	0.44834206
22	0x3f8b4b43	1.0882343
23	0x3eaa0370	0.33205748
24	0x3d72d096	0.059280954
25	0xbef79b0c	-0.4836048
26	0x3fc9083c	1.5705638
27	0xbf518889	-0.8184896
28	0xbefea71a	-0.49736863
29	0x3f85eb7f	1.0462493
30	0xbf1c084a	-0.6095015
31	0x3eefbef4	0.46825373
32	0x3f8527d6	1.0402782
33	0x3eb29df9	0.3488615
34	0x3ef9838c	0.48733175
35	0x3f40b54f	0.75276655
36	0xbfc72c35	-1.5560366
37	0x400628a1	2.0962298
38	0x3f0ba21e	0.54544246
39	0xbd5ba74f	-0.053626355
40	0xbf323623	-0.69613856
41	0xbfa7debc	-1.3114848
42	0x3f655ee2	0.89597905
43	0xbf3a8398	-0.72857046
44	0xbfc63454	-1.5484719
45	0x3f8c2e30	1.0951595
46	0x3f536e09	0.82589775
47	0x3f207d53	0.6269123
48	0x3e015ae1	0.12632324
49	0xbf628adb	-0.88493127
50	0x3ec421d9	0.38307074
51	0xbf183471	-0.5945502

embedding.embeddings.5.weight f4 [9, 4]
0	0xbf68493a	-0.90736735
1	0xbe99159e	-0.29899305
2	0x4011aa5d	2.2760231
3	0xbf51eb8f	-0.8200006
4	0xbed64d6f	-0.41855952
5	0x3f0477ad	0.5174511
6	0x3fd5d629	1.6705981
7	0x3fbdb999	1.4822265
8	0x3f7ba409	0.9829717
9	0x3f11220c	0.56692576
10	0xbeee17b1	-0.4650245
11	0xbfacae42	-1.3490679
12	0xbe6e0380	-0.23243523
13	0x3efc5376	0.49282426
14	0xbed12b01	-0.40853122
15	0x3da9d094	0.08291736
16	0x4000b7e2	2.0112233
17	0x3fa05212	1.2525046
18	0xbebd2a01	-0.3694611
19	0x3eb12e49	0.34605625
20	0xbf4662fb	-0.7749478
21	0x3f16d61b	0.5892045
22	0x3f1b006e	0.6054753
23	0xbf85c283	-1.0449985
24	0xbe426f34	-0.18987733
25	0xbeff9e93	-0.4992567
26	0x3f647db0	0.89254284
27	0x3f134fce	0.5754365
28	0x3f3c5ae7	0.73576206
29	0xbfc49ad9	-1.5359756
30	0x3eb1de22	0.34739786
31	0x3f57fc18	0.8436904
32	0xbe94d294	-0.29066908
33	0xbe91e79b	-0.28497013
34	0xbeda539b	-0.4264191
35	0xbf03ea51	-0.51529413

embedding.embeddings.6.weight f4 [20, 4]
0	0x3ef0809a	0.46973115
1	0x3d0e99a8	0.034814507
2	0x3eeb5871	0.45965913
3	0xbf0deadb	-0.55436486
4	0x3f5df274	0.8669808
5	0x3e077207	0.13227092
6	0x3ecb62c1	0.3972378
7	0x3f5f9d41	0.87349325
8	0xbfbeb5a8	-1.4899187
9	0xbecc9edf	-0.3996496
10	0x3f02afb9	0.5104938
11	0xbf0cd1e0	-0.55007744
12	0xbfbecc84	-1.4906163
13	0xbf8bc27a	-1.0918725
14	0xbecb1c42	-0.39669997
15	0x3d2f9b2a	0.042872585
16	0x3f26f6ea	0.6522051
17	0xbf1b7321	-0.6072255
18	0xbc8feeee	-0.017569985
19	0xbf5e76ca	-0.8690001
20	0xbe6bb413	-0.23017912
21	0xbf45335a	-0.7703148
22	0xbf42135e	-0.758108
23	0x3f0729b3	0.52798
24	0xbe8dfd29	-0.27732208
25	0xbfc34f1f	-1.5258521
26	0xbe53cb71	-0.20683075
27	0x3f67913e	0.90455997
28	0x3e80ed2a	0.25180942
29	0xbdd182b4	-0.10230008
30	0x3efe4829	0.4966443
31	0xbf4777a3	-0.77916926
32	0xbfb5e557	-1.4210614
33	0xbf1428ef	-0.5787496
34	0xbebbcf04	-0.36681378
35	0xbfdba8b4	-1.7160859
36	0x3e68d77e	0.22738454
37	0xbdd66500	-0.10468483
38	0x3ff82876	1.9387348
39	0xbf6ba770	-0.92052364
40	0x3e7a619b	0.24451296
41	0xbf1fd772	-0.6243812
42	0x3dc03fd8	0.09387177
43	0xbec6bc3e	-0.38815492
44	0x3f3c46a1	0.7354527
45	0x3f0b2d3e	0.5436591
46	0xbe4aa867	-0.19790803
47	0xbea27df8	-0.31736732
48	0x3f11b3e7	0.56915134
49	0xbf44ed47	-0.76924556
50	0xbfb17ae6	-1.3865631
51	0xbf8dd14b	-1.1079496
52	0xbefda0f9	-0.49536875
53	0x3fcda807	1.6066903
54	0xbec41d85	-0.38303772
55	0x3fabb603	1.341492
56	0x4027c100	2.6211548
57	0x3f5fb8ed	0.8739155
58	0xbec5c967	-0.3863022
59	0x3fa0419c	1.2520022
60	0xbc246cf1	-0.010035739
61	0x3e504e0c	0.20342273
62	0x3f1e8d9b	0.6193482
63	0x3ec6756f	0.3876147
64	0xbf29734c	-0.66191554
65	0xbfd28952	-1.6448157
66	0xbecc1370	-0.3985858
67	0x3eeda3f3	0.46414146
68	0x3f0c2d68	0.54756784
69	0x3e8cd6d8	0.27507663
70	0x4002e893	2.0454452
71	0x3fe25957	1.7683514
72	0xbe901595	-0.28141466
73	0x3e116e25	0.14202173
74	0xc01b67c6	-2.4282088
75	0xbf28865d	-0.6583002
76	0x3fd2cd59	1.6468917
77	0x3f8880fd	1.0664364
78	0xbe696ef7	-0.22796236
79	0x3f35f91f	0.71083254

bn_in.weight f4 [38]
0	0x3f7bef1b	0.9841172
1	0x3f817927	1.0115098
2	0x3f7a82ba	0.9785572
3	0x3f785005	0.969971
4	0x3f75505b	0.9582574
5	0x3f806f5c	1.0033984
6	0x3f71b52d	0.9441708
7	0x3f78acb5	0.9713853
8	0x3f72150b	0.9456336
9	0x3f72a4cb	0.94782704
10	0x3f70f9ce	0.9413117
11	0x3f75ee36	0.96066606
12	0x3f789496	0.97101724
13	0x3f77799e	0.9666995
14	0x3f7473cf	0.9548921
15	0x3f6ef001	0.93334967
16	0x3f74051a	0.95320284
17	0x3f70a726	0.9400505
18	0x3f738b90	0.9513483
19	0x3f6d561c	0.9270952
20	0x3f6cd4ca	0.9251219
21	0x3f6accb7	0.9171862
22	0x3f71dd5b	0.94478387
23	0x3f6df08f	0.9294519
24	0x3f6ff237	0.93728966
25	0x3f77f783	0.9686205
26	0x3f6ec491	0.93268687
27	0x3f743f25	0.9540885
28	0x3f7ba1df	0.9829387
29	0x3f70f42c	0.94122577
30	0x3f734734	0.9503052
31	0x3f74357f	0.9539413
32	0x3f7a28cb	0.97718495
33	0x3f7cf4b2	0.98810875
34	0x3f788347	0.97075313
35	0x3f8256b2	1.0182707
36	0x3f8c6b04	1.0970159
37	0x3f70b7c3	0.940304

bn_in.bias f4 [38]
0	0x39fa644b	0.0004775844
1	0xb6691070	-3.4729273e-06
2	0xb75ed99e	-1.3282899e-05
3	0x39bb2cc1	0.00035700764
4	0xb8d285a5	-0.000100384736
5	0xb9a17224	-0.00030793354
6	0xba1fe759	-0.0006099842
7	0x39c8911d	0.0003825509
8	0x3aa10c7c	0.0012287046
9	0x39e964e0	0.0004451638
10	0x39c8560a	0.00038211077
11	0x390301f8	0.00012493867
12	0xbaa282d7	-0.0012398612
13	0xb82b60d8	-4.085977e-05
14	0x395c8642	0.0002103085
15	0x3a02d866	0.00049913523
16	0xba142d20	-0.0005652476
17	0x39e99f04	0.000445597
18	0xba8b8830	-0.0010645445
19	0x3a21aced	0.00061674305
20	0x3941394e	0.00018427262
21	0xb8b9e709	-8.864521e-05
22	0xba2ef88c	-0.00066746096
23	0xba1c957c	-0.00059732026
24	0x3a5877ac	0.00082575786
25	0x3a1dc78d	0.000601881
26	0xb86c75c4	-5.6376462e-05
27	0x3a74af08	0.0009333943
28	0xb99edd6c	-0.0003030108
29	0x3921bf4d	0.00015425422
30	0xb9ec1c45	-0.0004503449
31	0xb9867320	-0.00025644246
32	0x3a2b6bab	0.0006539176
33	0xb8e41a92	-0.00010876836
34	0x3a0a8f85	0.00052856683
35	0xb9d9c2df	-0.00041534656
36	0xbbd90a2e	-0.006623528
37	0xb92daa86	-0.0001656209

bn_in.running_mean f4 [38]
0	0x3dec3a58	0.11534566
1	0x3e02c7ba	0.12771502
2	0x3efb30e0	0.49060726
3	0xbe749105	-0.23883446
4	0x3f906b0d	1.1282669
5	0xbe7b5c88	-0.24547017
6	0xbd171b06	-0.036891006
7	0x3f1abd36	0.6044496
8	0xbddff957	-0.1093623
9	0xbef3938c	-0.47573507
10	0xbe5e6cb9	-0.21721162
11	0xbf81f66a	-1.0153325
12	0xbed16f4e	-0.4090523
13	0x3eb347fd	0.3501586
14	0x3e5e69f3	0.21720104
15	0xbe949410	-0.29019213
16	0x3ee675e2	0.45011812
17	0x3ed75a01	0.42060855
18	0x3f31bb25	0.69426185
19	0x3e974f88	0.29552865
20	0xbe5d9875	-0.21640189
21	0x3d94e938	0.072710454
22	0x3f7bf814	0.9842541
23	0xbee6697b	-0.4500235
24	0x3f00d001	0.5031739
25	0x3ed7fbef	0.42184398
26	0xbe0c5a68	-0.13706362
27	0x3dcb8669	0.09937746
28	0x3b33672e	0.0027374732
29	0x3c75ddae	0.015006466
30	0x3d0d6142	0.03451658
31	0x3bc12e25	0.0058953934
32	0x3c3028d6	0.010751924
33	0x3bc4f13e	0.0060102036
34	0x3958b300	0.00020666048
35	0x3a86d9f0	0.0010288339
36	0xbc3729cc	-0.011179399
37	0xbc0c6e2d	-0.00857119

bn_in.running_var f4 [38]
0	0x3fb8113a	1.4380257
1	0x3ed0f92a	0.40815097
2	0x3f14de4c	0.581517
3	0x3f1d6962	0.61488926
4	0x3ec7cd11	0.3902364
5	0x3c39182b	0.011297266
6	0x3d2cd776	0.042197667
7	0x3d0d93f4	0.034564927
8	0x3fe64d8c	1.7992415
9	0x3c8aa4fe	0.016924378
10	0x3effa6fd	0.4993209
11	0x3def9064	0.11697462
12	0x3ec3d02d	0.38244763
13	0x3f6a179d	0.9144228
14	0x3e1c3306	0.15253839
15	0x3dae6b6e	0.08516584
16	0x3f071fae	0.52782714
17	0x3dd7e15d	0.105410315
18	0x3ec0b778	0.37639976
19	0x3d16f12d	0.036851097
20	0x3f267eb3	0.6503708
21	0x3e98e715	0.29863802
22	0x3fb7fac6	1.4373405
23	0x3f4038d5	0.7508672
24	0x3f3bb5ff	0.7332458
25	0x3f0dcd69	0.55391556
26	0x3ea9b85a	0.33148462
27	0x3f28d692	0.6595241
28	0x3f7e6463	0.9937193
29	0x3f9480ba	1.1601784
30	0x3fad458d	1.353685
31	0x3f8ad9e3	1.0847744
32	0x3f91f119	1.1401702
33	0x3f9a0da8	1.2035418
34	0x3f80f25e	1.0073965
35	0x3f81f4d5	1.0152842
36	0x3f626fc9	0.8845182
37	0x3f78c07b	0.971687

ensemble_blocks.0.0.weight f4 [128, 38]
0	0xbd9050f5	-0.07046691
1	0xbdfc76a0	-0.123273134
2	0x3e336775	0.17519934
3	0xbdcc9dfa	-0.09991069
4	0xbd755cab	-0.05990283
5	0xbca4261c	-0.020037703
6	0xbe129286	-0.14313707
7	0x3dd62b1d	0.10457442
8	0x3e117c27	0.14207517
9	0xbe054a7b	-0.13016693
10	0xbd06f415	-0.03294762
11	0x3d1c9a25	0.03823294
12	0xbe311319	-0.17292441
13	0x3e020ba7	0.12699758
14	0x3d21950a	0.039448775
15	0xbd344bc1	-0.044017557
16	0x3e017255	0.1264127
17	0x3df425ca	0.1192127
18	0x3d3b958a	0.04579691
19	0x3d58766a	0.052847303
20	0x3cfebce7	0.031095935
21	0x3d52755a	0.051381446
22	0x3be451d5	0.006967763
23	0x3d974f11	0.073881276
24	0xbc6a2005	-0.014289861
25	0xbdfa5e3c	-0.12225005
26	0x3ccd2b7c	0.025045149
27	0x3d6f5f8d	0.058440734
28	0x3dc64122	0.09680392
29	0x3def02b7	0.1167044
30	0x3dbe30ce	0.092866525
31	0xbe134834	-0.14383012
32	0xbb825ff4	-0.0039787237
33	0xbd87c238	-0.06628841
34	0x3e052683	0.13002972
35	0xbc4a743f	-0.012356817
36	0x3e19060f	0.14943717
37	0x3c5ec52b	0.013596813
38	0x3df3f2ec	0.11911568
39	0x3d24b25f	0.04020917
40	0x3e03ae58	0.12859476
41	0x3d9eb958	0.07750195
42	0xbb8e7276	-0.004347141
43	0x3daa1c75	0.08306209
44	0xbcb6d82a	-0.022319872
45	0xbc675237	-0.014118723
46	0xbe12f16a	-0.14349905
47	0xb9dc099e	-0.00041968835
48	0x3e19dbba	0.15025225
49	0xbe1e17fa	-0.15438834
50	0x3d3ffdc2	0.04687286
51	0x3ddbd5f8	0.10734171
52	0x3d335a33	0.043787193
53	0x3daf173e	0.08549355
54	0xbd5be342	-0.053683527
55	0x3d55d4cb	0.05220489
56	0xbe04a505	-0.12953575
57	0xbdda0ce2	-0.106469885
58	0x3d6d7852	0.057976075
59	0xbdb992a4	-0.090611726
60	0x3dc5333b	0.09628912
61	0x3decda43	0.115650676
62	0x3de4924c	0.111607164
63	0xbe0a932d	-0.13532706
64	0xbb7caa52	-0.0038553667
65	0x3e06a186	0.13147554
66	0xbd4f3dcd	-0.050596047
67	0x3dc3a053	0.09552064
68	0x3dc522c6	0.09625773
69	0x3cbc1ff0	0.022964448
70	0x3d366798	0.04453239
71	0x3cf2cc5d	0.029638464
72	0x3d5d53f5	0.054035146
73	0xbe4354c4	-0.19075304
74	0x3cf7930a	0.03022148
75	0xbc5d53d8	-0.013508759
76	0xbd574b25	-0.052561898
77	0x3cd0f731	0.025508495
78	0x3dcae532	0.09906997
79	0xbc146bf9	-0.009058946
80	0xbd90cd03	-0.07070353
81	0x3d5a97a3	0.05336727
82	0xbc09c811	-0.008409516
83	0xbdfb2cac	-0.1226438
84	0xbd921c06	-0.07134251
85	0x3cee3fef	0.02908322
86	0x3d975d54	0.07390848
87	0x3d872089	0.065980025
88	0x3d648d67	0.055798914
89	0xbc3e6977	-0.0116218245
90	0xbc8c320b	-0.017113706
91	0x3df0939e	0.11746906
92	0x3c8f0d5d	0.017462427
93	0xbcacfaea	-0.021115739
94	0x3d1f8271	0.038942758
95	0xbdf2ef15	-0.118620075
96	0x3deb0650	0.114758134
97	0xbd9c289d	-0.07624934
98	0xbe1062ae	-0.14100143
99	0xbd9f860e	-0.07789241
100	0xbd5c5b67	-0.053798106
101	0x3e2a035d	0.16602845
102	0xbe10c8fb	-0.14139168
103	0x3e021fa0	0.12707376
104	0x3e032a8f	0.12809204
105	0x3cb0dac3	0.021588689
106	0xbd2ed8fc	-0.0426874
107	0xbe1d2a8f	-0.15348266
108	0x3d8ca526	0.06867437
109	0xbd90a7d6	-0.07063262
110	0xbdbb413e	-0.09143303
111	0x3dd19144	0.10232785
112	0xbe04df5a	-0.12975827
113	0x3d8c8fd5	0.06863371
114	0x3e12adeb	0.14324157
115	0x3dc98969	0.09840662
116	0x3e0fd8ec	0.14047593
117	0xbd13f60f	-0.03612333
118	0x3e1cc3d6	0.1530908
119	0xbdb158a2	-0.086594835
120	0xbd34885e	-0.044075362
121	0x3de9c0d7	0.114137344
122	0x3bbd53e9	0.005777825
123	0x3d90a109	0.07061965
124	0x3d9ea15d	0.07745621
125	0xbd4d9f8d	-0.050200988
126	0x3e07cb7c	0.13261217
127	0xbd7d2ea5	-0.06181206
128	0x3d99eefe	0.07516287
129	0x3dd70701	0.10499383
130	0x3dad312e	0.08456646
131	0x3cd73be1	0.02627367
132	0x3e164b5c	0.14677185
133	0xbd8cd821	-0.06877161
134	0xbde5221e	-0.11188148
135	0x3dc011cf	0.09378397
136	0xbe0364c2	-0.12831405
137	0xbd5b77d5	-0.053581078
138	0xbcfdac9d	-0.030966097
139	0x3d30ab15	0.043131907
140	0xbd0d45ee	-0.03449052
141	0xbc1a6329	-0.009423056
142	0x3df57638	0.11985439
143	0x3d9530da	0.07284708
144	0x3e207f48	0.15673554
145	0xbd00893e	-0.031380884
146	0x3db1549e	0.086587176
147	0xbdc924bf	-0.09821462
148	0x3d842eb1	0.06454218
149	0x3dafaad6	0.08577506
150	0x3de843e0	0.11341071
151	0xbd92769c	-0.07151529
152	0xbd9633e6	-0.073341176
153	0xbd1c6027	-0.038177636
154	0xbcab81f8	-0.020935997
155	0xbdf152e6	-0.1178339
156	0xba876439	-0.0010329551
157	0xbd29b9f8	-0.04143712
158	0x3d98783a	0.074448064
159	0xbdfad62a	-0.1224788
160	0xbdd78713	-0.1052381
161	0xbe2b5417	-0.16731296
162	0xbe0a5cb9	-0.13511933
163	0x3dda0dc9	0.106471606
164	0xbe0bd0f2	-0.13653925
165	0xbd976094	-0.07391468
166	0xbe2bd50e	-0.16780493
167	0x3dbf8324	0.09351185
168	0xbdb652ca	-0.089025095
169	0xbdb724cb	-0.089425646
170	0xbd8efd99	-0.06981964
171	0xbe0edc0d	-0.1395113
172	0x3d75f90c	0.060051963
173	0xbe0cb340	-0.13740253
174	0xbe141a92	-0.14463261
175	0x3d430322	0.04761041
176	0x3ca70dcc	0.020392321
177	0xbc67a116	-0.014137527
178	0x3dbff1c2	0.093722835
179	0x3e2e5163	0.17023234
180	0xbc018021	-0.0079040835
181	0x3dfe787c	0.12425324
182	0xbcf34e02	-0.029700283
183	0x3da070b0	0.078339934
184	0xbda6aa92	-0.081380025
185	0xbd998839	-0.074966855
186	0x3ce575ee	0.028010335
187	0xbb8a3599	-0.004217815
188	0x3d8dc5fe	0.0692253
189	0xbbb4b196	-0.005514334
190	0xbd11b27a	-0.0355706
191	0x3dd2a5f7	0.102855615
192	0x3e1d7ab0	0.15378833
193	0xbe02debb	-0.12780277
194	0xbdbdb354	-0.0926272
195	0xbdd335e6	-0.10313015
196	0x3d50e12e	0.050995998
197	0x3e39014b	0.180669
198	0xbe0875d0	-0.13326192
199	0xbbbfd38b	-0.0058540753
200	0xbe17fa91	-0.14841677
201	0xbe19f6c1	-0.15035535
202	0xbdc527a2	-0.096267
203	0xbde996f7	-0.114057474
204	0x3e0f3afe	0.13987347
205	0xbdbf6bcf	-0.09346735
206	0x3e066de1	0.13127853
207	0x3db4b910	0.0882436
208	0x3ddcee1e	0.10787605
209	0x3d744ca7	0.059643414
210	0x3e10c6f5	0.14138396
211	0xbde552b6	-0.111974165
212	0x3e290fea	0.16509977
213	0x3d0e12d0	0.03468591
214	0xbc9acd6a	-0.018896777
215	0xbd8b3737	-0.06797641
216	0x3d73552c	0.059407398
217	0x3ddf0fb0	0.10891664
218	0x3ddb04e3	0.106942914
219	0xbdcf1f4f	-0.101133935
220	0xbd81d425	-0.063392915
221	0x3d27a959	0.040932987
222	0x3db52b7a	0.08846183
223	0xbdaad332	-0.083410636
224	0xbd96b5af	-0.07358872
225	0xbdc91ad7	-0.098195724
226	0xbdb1b14a	-0.08676393
227	0x3d3b4539	0.045720313
228	0xbc328bc8	-0.010897584
229	0xbe00f1a9	-0.12592186
230	0xbe03ef7b	-0.12884323
231	0xbda6b29b	-0.08139535
232	0x3de3702a	0.11105378
233	0x3d84375f	0.06455874
234	0x3dab14cb	0.08353575
235	0x3e2178be	0.15768716
236	0xbdf6bc40	-0.120476246
237	0x3e382598	0.17983091
238	0x3de4a5d6	0.11164443
239	0xbccfad22	-0.02535111
240	0x3c0f060a	0.008729467
241	0x3d8e3b6e	0.06944929
242	0xbd9c051e	-0.076181635
243	0xbd2f3ff4	-0.0427856
244	0x3db0dfe6	0.08636455
245	0x3de6523d	0.112461545
246	0xbe086e93	-0.1332343
247	0x3dbae1b5	0.091250814
248	0xbca937e2	-0.02065653
249	0xbc64db5d	-0.013968316
250	0x3e19e75f	0.15029667
251	0x3d1e435b	0.038638454
252	0xbe0779f4	-0.13230115
253	0xbe0ec896	-0.13943705
254	0xbe01b8f6	-0.12668213
255	0xbd91608b	-0.07098492

ensemble_blocks.0.0.bias f4 [128]
0	0xbd6b5d4b	-0.057462018
1	0xbcd3730b	-0.025811693
2	0xbd26fd07	-0.04076865
3	0xbd4e1926	-0.050316952
4	0xbd06abda	-0.032878734
5	0x3cd4cd77	0.02597688
6	0xbc8e46c3	-0.017367726
7	0x3dfa1584	0.12211135
8	0xbd8cf675	-0.068829454
9	0xbd81495a	-0.06312819
10	0xba3c460c	-0.00071820687
11	0xbda367b4	-0.07978764
12	0x3d226d5f	0.039655086
13	0x3cb8a197	0.02253799
14	0xbdf18046	-0.11792044
15	0x3e0240c1	0.12720014
16	0x3ca68279	0.020325886
17	0xbd30a989	-0.04313043
18	0x3d5b4b6a	0.053538717
19	0xbd3acbe5	-0.045604605
20	0x3d9e52da	0.077306464
21	0x3ddc29cc	0.107501596
22	0x3d14ead8	0.036356777
23	0x3df4ba25	0.11949567
24	0xbd1ba47c	-0.03799866
25	0x3df06185	0.117373504
26	0x3d0efd93	0.034909796
27	0xbdb396f6	-0.08769028
28	0x3d9aeab0	0.07564294
29	0xbc4f32fa	-0.012646431
30	0xbddd0f4d	-0.10793934
31	0xbdbd8d5b	-0.09255477
32	0x3d76fd73	0.0603003
33	0xbd82fd72	-0.06395997
34	0x3d98732e	0.07443844
35	0xbe207492	-0.15669468
36	0xbd92eac8	-0.07173687
37	0xbbc7ae61	-0.0060937856
38	0x3d826ab0	0.06368005
39	0x3e1b8daf	0.15190767
40	0x3ddd9e09	0.108211584
41	0xbe1bce3f	-0.15215395
42	0x3d733d74	0.05938478
43	0x3d13ea3a	0.036112048
44	0xbd9c3fca	-0.07629354
45	0xbd9410ec	-0.0722979
46	0xbbaae6c0	-0.005215496
47	0x3dae8196	0.0852081
48	0xbe1afd26	-0.15135631
49	0xbdf82077	-0.12115567
50	0xbccb3327	-0.024804665
51	0xbdde38a0	-0.10850644
52	0xbdd3998a	-0.103320196
53	0x3cc84443	0.024446612
54	0x3d36fdee	0.04467576
55	0xbc97ffe7	-0.018554641
56	0x3d85b38a	0.06528385
57	0x3c70a300	0.0146873
58	0xbde5cae5	-0.1122034
59	0x3e118a9c	0.14213032
60	0x3d9a7351	0.07541526
61	0xbe1ccc8f	-0.15312408
62	0xbdf67973	-0.12034883
63	0xbd52e86d	-0.05149119
64	0xbdf847f4	-0.12123099
65	0xbde67911	-0.1125356
66	0xbd643af1	-0.055720273
67	0xbe05c62d	-0.1306388
68	0x3d5b1c3f	0.053493734
69	0xbd9b5c65	-0.07585982
70	0x3d8a4d41	0.06753016
71	0xbe1e539b	-0.1546158
72	0xbccc7149	-0.024956362
73	0x3dcf4b1d	0.101217486
74	0xbe1a8a56	-0.15091833
75	0xbd939cc3	-0.07207634
76	0xbe0522fb	-0.13001625
77	0x3e1ca03c	0.152955
78	0x3e072aa4	0.1319986
79	0x3dae7a54	0.08519426
80	0x3da384bb	0.07984301
81	0xbe00b0bb	-0.12567417
82	0x3e1c4f06	0.1526452
83	0x3d758f1f	0.059950944
84	0x3e1f56ea	0.15560499
85	0xbe16ba43	-0.1471949
86	0xbda74fe8	-0.08169538
87	0x3d87473c	0.06605384
88	0x3d9390d8	0.07205361
89	0x3decc959	0.115618415
90	0xbddfd689	-0.10929591
91	0x3bbdddc1	0.0057942574
92	0x3bc4cb6a	0.006005694
93	0x3b4ebff0	0.003154751
94	0xbe1b329d	-0.15156026
95	0xbe12d625	-0.14339502
96	0x3de2b569	0.110697575
97	0xbc513bba	-0.012770588
98	0x3dd7b46f	0.10532462
99	0xbd84c977	-0.06483739
100	0xbc25cb89	-0.010119327
101	0xbd0f50f3	-0.03498931
102	0xbd20ea65	-0.039286036
103	0x3de1b92f	0.11021649
104	0x3da377ba	0.079818204
105	0x3dfc3e30	0.12316549
106	0x3c4c1b95	0.012457748
107	0x3dd39663	0.10331418
108	0x3e04dc29	0.1297461
109	0x3def6048	0.11688286
110	0xbc364dbc	-0.011126932
111	0x3d8de913	0.06929221
112	0xbd585c4a	-0.05282239
113	0x3e17fc1d	0.14842267
114	0x3e22d57d	0.15901752
115	0xbdd66e74	-0.10470286
116	0x3e1662ce	0.14686128
117	0xbdf539f5	-0.11973945
118	0xbd65179b	-0.055930715
119	0xbe09b53f	-0.13448046
120	0x3e243bff	0.16038512
121	0x3dd791ab	0.10525831
122	0xbd4225c0	-0.047399282
123	0x3dd642e3	0.104619764
124	0x3e18a678	0.14907253
125	0xbe1de976	-0.1542109
126	0x3d88bbef	0.066764705
127	0xbe16fd8c	-0.14745158

ensemble_blocks.0.1.weight f4 [128]
0	0x3f7e4a2b	0.9933192
1	0x3f80140b	1.0006117
2	0x3f7ad0ce	0.9797486
3	0x3f80ddbf	1.0067672
4	0x3f7b5cfb	0.9818875
5	0x3f79b802	0.975464
6	0x3f835009	1.02588
7	0x3f8096e9	1.0046054
8	0x3f78ff03	0.97264117
9	0x3f7976bc	0.974468
10	0x3f77963a	0.967136
11	0x3f7599cc	0.959378
12	0x3f787de0	0.9706707
13	0x3f80d845	1.0066
14	0x3f73f857	0.9530081
15	0x3f82bdcf	1.0214175
16	0x3f749459	0.9553886
17	0x3f7fe9d7	0.99966186
18	0x3f800956	1.0002849
19	0x3f764be0	0.96209526
20	0x3f78cd71	0.9718848
21	0x3f8033df	1.001583
22	0x3f79621d	0.97415334
23	0x3f775f4e	0.966298
24	0x3f795392	0.97393143
25	0x3f7891af	0.97097296
26	0x3f7c0017	0.9843764
27	0x3f7ec352	0.99516785
28	0x3f7ff38b	0.9998099
29	0x3f7c07a9	0.9844919
30	0x3f8411d5	1.0317942
31	0x3f84f1c3	1.038628
32	0x3f7d5213	0.9895336
33	0x3f8437ac	1.032949
34	0x3f80e111	1.0068685
35	0x3f810a8b	1.0081342
36	0x3f808e66	1.0043457
37	0x3f8518a2	1.0398142
38	0x3f85cba6	1.0452774
39	0x3f8229fe	1.0169065
40	0x3f7af7bf	0.9803428
41	0x3f806802	1.0031741
42	0x3f82facd	1.0232788
43	0x3f8498d8	1.0359144
44	0x3f803188	1.0015116
45	0x3f7c8287	0.9863667
46	0x3f7f6757	0.9976706
47	0x3f786025	0.97021705
48	0x3f7d7459	0.9900566
49	0x3f823fa0	1.0175667
50	0x3f7e0f28	0.99241877
51	0x3f839b66	1.0281799
52	0x3f7d0314	0.9883282
53	0x3f75c8d5	0.9600957
54	0x3f7b2f4d	0.9811905
55	0x3f80840a	1.0040295
56	0x3f7eed00	0.99580383
57	0x3f7fefca	0.99975264
58	0x3f7c7007	0.9860844
59	0x3f76f502	0.964676
60	0x3f7a1617	0.97689956
61	0x3f756e9e	0.95871913
62	0x3f84a479	1.0362693
63	0x3f827e31	1.019476
64	0x3f818182	1.0117648
65	0x3f797e4b	0.9745833
66	0x3f80d043	1.0063556
67	0x3f7f2706	0.9966892
68	0x3f80a425	1.0050093
69	0x3f78260e	0.96933067
70	0x3f802840	1.0012283
71	0x3f7eae4e	0.9948472
72	0x3f7ec3d1	0.9951754
73	0x3f7cec97	0.9879851
74	0x3f81f2ae	1.0152185
75	0x3f7995a5	0.97493964
76	0x3f74d829	0.95642334
77	0x3f7c3a6d	0.9852665
78	0x3f7e09b3	0.9923355
79	0x3f7c0010	0.98437595
80	0x3f7c5681	0.98569494
81	0x3f7779eb	0.9667041
82	0x3f7fcf53	0.99925727
83	0x3f7644ff	0.9619903
84	0x3f8183f6	1.0118396
85	0x3f77f5d5	0.96859485
86	0x3f80c604	1.006043
87	0x3f813976	1.0095661
88	0x3f82c743	1.021706
89	0x3f800753	1.0002235
90	0x3f8070f9	1.0034477
91	0x3f7abc0d	0.9794319
92	0x3f83a246	1.0283897
93	0x3f78c915	0.97181827
94	0x3f7db8a0	0.9910984
95	0x3f7d8420	0.9902973
96	0x3f84b4a6	1.036763
97	0x3f82a9b2	1.0208037
98	0x3f7705c0	0.9649315
99	0x3f73716e	0.95094955
100	0x3f7935b8	0.97347593
101	0x3f77dc4d	0.9682053
102	0x3f7a4a22	0.9776937
103	0x3f80ee52	1.007273
104	0x3f779e74	0.96726155
105	0x3f7ffbb4	0.99993443
106	0x3f82feea	1.0234044
107	0x3f78b0bd	0.9714468
108	0x3f803bd5	1.0018259
109	0x3f823f52	1.0175574
110	0x3f775768	0.96617746
111	0x3f77530c	0.96611094
112	0x3f823c50	1.0174656
113	0x3f78ca91	0.9718409
114	0x3f81720e	1.0112932
115	0x3f7b6e50	0.982152
116	0x3f7e6368	0.9937043
117	0x3f7f3666	0.9969238
118	0x3f89e20b	1.0772108
119	0x3f75732e	0.95878875
120	0x3f82f37b	1.0230554
121	0x3f817665	1.0114256
122	0x3f81587a	1.0105126
123	0x3f808f0d	1.0043656
124	0x3f7c7458	0.98615026
125	0x3f80c526	1.0060165
126	0x3f7d0f96	0.9885191
127	0x3f78f69e	0.9725131

ensemble_blocks.0.1.bias f4 [128]
0	0x3cb997e8	0.022655442
1	0xbc66a1be	-0.014076648
2	0xbc1f4542	-0.009721102
3	0x3c627212	0.013821142
4	0xbc51c69c	-0.0128037
5	0xbd055298	-0.03254947
6	0x39b6b3d6	0.00034847733
7	0x3ca3fdbb	0.020018449
8	0xbd07e1be	-0.03317427
9	0xbcf37364	-0.029718108
10	0xbd1e2ecd	-0.03861885
11	0x3c4f053d	0.012635526
12	0xbcedca49	-0.029027121
13	0x3cc6b1d0	0.02425471
14	0xbd18a397	-0.037265386
15	0x3d3dfbd8	0.046382755
16	0xbc30b751	-0.010785894
17	0x3ca8f1c2	0.020623092
18	0xbbf6d4da	-0.007532698
19	0xbcaf3d8d	-0.021391654
20	0xbca71525	-0.020395825
21	0xbc35c377	-0.011093966
22	0xbcfb88d9	-0.030704902
23	0xbcb51fb5	-0.022109846
24	0xbcbbe6d3	-0.022937214
25	0xbcb9a57f	-0.022661922
26	0x3b86f772	0.0041188532
27	0x3d457c20	0.048214078
28	0xbc1c7219	-0.009548687
29	0xbc38542b	-0.011250536
30	0x3d14d00f	0.036331233
31	0x3d5a11e0	0.053239703
32	0x3b985736	0.004649068
33	0x3c247e1c	0.010039832
34	0x3c2834d8	0.010266505
35	0xbb39c0c5	-0.002834366
36	0x3bd34f2e	0.006448648
37	0x3d35f13a	0.044419505
38	0x3d2e50d5	0.042557556
39	0x3d0a7b62	0.033809073
40	0xbca88de6	-0.020575475
41	0x3cb0f724	0.02160222
42	0x3d4fddfd	0.050748814
43	0x3cae529e	0.02127963
44	0x3c1d9699	0.009618425
45	0x3d25e86e	0.040504865
46	0x3c99f9e6	0.018795919
47	0xbc9e8ba7	-0.0193537
48	0xbc4f4251	-0.012650088
49	0x3c2edce4	0.010672782
50	0x3c9bc73a	0.019015897
51	0x3c54c424	0.012986217
52	0xbcda6112	-0.026657615
53	0xbccd81e2	-0.025086347
54	0x3b96b350	0.0045990124
55	0x3c0aaf28	0.008464612
56	0xbc64a6d9	-0.013955795
57	0x3b7274f5	0.0036995981
58	0xbc5679d9	-0.013090574
59	0xbcf55974	-0.029949881
60	0xbcebf45d	-0.028803045
61	0xbcdab9e4	-0.026699968
62	0x3c893249	0.01674761
63	0x3d3cd5b9	0.04610226
64	0x3c5b0ffd	0.013370511
65	0xbafa57ed	-0.001909969
66	0x3cc7a034	0.024368383
67	0x3cd4c9b8	0.025975093
68	0x3c116a23	0.008875403
69	0xbd25e683	-0.040503036
70	0x3d055bb5	0.03255816
71	0xbb9e2431	-0.0048260917
72	0x3cec2989	0.0288284
73	0xba933ade	-0.0011232754
74	0x3c61bf3b	0.013778503
75	0xbca683d4	-0.020326532
76	0xbd0be776	-0.034156285
77	0xbbec0454	-0.0072026644
78	0x3cc0506d	0.02347585
79	0xbb41d885	-0.0029578519
80	0x3c85fc32	0.016355608
81	0xbc900764	-0.01758165
82	0xbc700e0d	-0.0146517875
83	0xbd2c00fe	-0.041993134
84	0xbb042275	-0.002016214
85	0xb9ca6c80	-0.0003860928
86	0x3c505097	0.012714527
87	0x3c66f06e	0.014095409
88	0x3cc401d5	0.023926655
89	0x3b5e2007	0.0033893602
90	0x3cd31f4c	0.02577176
91	0xbb8d1bea	-0.004306306
92	0x3c98be42	0.01864541
93	0xbd01a168	-0.03164807
94	0x3c322865	0.010873889
95	0xbbd0a9e0	-0.006367907
96	0x3d3a8eb6	0.045546256
97	0x3c45c9e3	0.012072059
98	0xbcffbff3	-0.031219458
99	0xbcd4aa0c	-0.02595999
100	0xbbd85ccd	-0.0066028596
101	0xbce90cf7	-0.028448565
102	0xbcfded72	-0.030997012
103	0xbc0ec46c	-0.008713823
104	0xbcfe9d1f	-0.03108078
105	0xbc3c7d37	-0.011504463
106	0x3d244d2e	0.040112667
107	0xbb521e50	-0.0032061525
108	0x3bb23334	0.005438233
109	0xbb2258fd	-0.002477228
110	0xbc806f46	-0.01567806
111	0xbcc17937	-0.02361737
112	0x3b9c5ebd	0.004772036
113	0xbbab1a99	-0.0052216765
114	0x3c9ea05f	0.01936358
115	0xbb13ef3d	-0.0022573017
116	0x3c5b5a0b	0.013388167
117	0x3c30d0b3	0.010791945
118	0x3d83c855	0.06434695
119	0xbd03c2a0	-0.03216803
120	0xbaaea80c	-0.0013325228
121	0xb9e01eb4	-0.00042747485
122	0x3d14cec6	0.036330007
123	0x3c1e7f68	0.009673931
124	0x3ba7b290	0.005117722
125	0x3be37842	0.006941826
126	0xbabb4f41	-0.0014290587
127	0xbcb7695f	-0.022389112

ensemble_blocks.0.1.running_mean f4 [128]
0	0xbd6dfd11	-0.05810267
1	0xbcd3ed62	-0.025870029
2	0xbd2379c3	-0.039911043
3	0xbd50c2fd	-0.050967205
4	0xbd089971	-0.033349458
5	0x3cd7a288	0.026322618
6	0xbc8f092f	-0.017460434
7	0x3df8e6dd	0.12153409
8	0xbd8be617	-0.068309955
9	0xbd830b08	-0.063985884
10	0x3a284e77	0.00064203836
11	0xbda40035	-0.08007852
12	0x3d1f3ce9	0.038876448
13	0x3cbe00be	0.023193713
14	0xbdf1b606	-0.11802296
15	0x3e019922	0.12656072
16	0x3ca2f859	0.019893812
17	0xbd33f000	-0.043930054
18	0x3d56d90b	0.052453082
19	0xbd39a900	-0.045327187
20	0x3da0373c	0.07823035
21	0x3ddbca83	0.107319854
22	0x3d11ae34	0.035566524
23	0x3df4af84	0.119475394
24	0xbd1f0e0d	-0.03883176
25	0x3def4dba	0.11684747
26	0x3d14d808	0.036338836
27	0xbdb5edf9	-0.0888328
28	0x3d9d1949	0.076708384
29	0xbc439fd8	-0.011939965
30	0xbddeb9c7	-0.10875278
31	0xbdba2ccc	-0.090905756
32	0x3d76437b	0.06012295
33	0xbd845d73	-0.064631365
34	0x3d96d5b5	0.0736498
35	0xbe1fc957	-0.15604149
36	0xbd91004b	-0.07080134
37	0xbb9ad91e	-0.0047255894
38	0x3d85e882	0.06538488
39	0x3e1adb2c	0.1512267
40	0x3ddebcfa	0.10875888
41	0xbe1d181e	-0.15341231
42	0x3d776044	0.06039454
43	0x3d1b3385	0.03789093
44	0xbd9b2cf1	-0.07576931
45	0xbd91d514	-0.071207196
46	0xbb5c65a8	-0.0033629928
47	0x3dad5858	0.08464116
48	0xbe1aba50	-0.15110135
49	0xbdf7882f	-0.12086522
50	0xbcb96bfb	-0.022634497
51	0xbde13886	-0.10997109
52	0xbdd01694	-0.101605564
53	0x3ccdab17	0.025105996
54	0x3d31e4f2	0.04343123
55	0xbc903750	-0.0176045
56	0x3d872502	0.065988556
57	0x3c6def1f	0.014522343
58	0xbde84744	-0.11341718
59	0x3e12103d	0.14264007
60	0x3d998d35	0.07497636
61	0xbe1c8339	-0.15284432
62	0xbdf4f391	-0.11960519
63	0xbd4f33f0	-0.05058664
64	0xbdfa34cf	-0.12217104
65	0xbde61e53	-0.11236253
66	0xbd65dba4	-0.05611767
67	0xbe059a0d	-0.13047047
68	0x3d5620f8	0.052277535
69	0xbd987f2f	-0.07446133
70	0x3d8d2e3c	0.06893584
71	0xbe1cf5d9	-0.15328158
72	0xbcd84f2b	-0.026404938
73	0x3dce5c06	0.10076146
74	0xbe1b3199	-0.15155639
75	0xbd9429b0	-0.07234514
76	0xbe04f47e	-0.12983891
77	0x3e1dc1f0	0.15406013
78	0x3e06059a	0.13088074
79	0x3db07020	0.08615136
80	0x3da108ae	0.07862984
81	0xbe018a0c	-0.12650317
82	0x3e1cc3d5	0.15309079
83	0x3d777c0b	0.06042103
84	0x3e1e1dd8	0.15441072
85	0xbe17382c	-0.14767522
86	0xbdaa5b5a	-0.08318205
87	0x3d855273	0.065098666
88	0x3d9673ec	0.07346329
89	0x3def77c8	0.11692768
90	0xbdde0331	-0.108404525
91	0x3ba3c91d	0.00499834
92	0x3bc62b71	0.006047659
93	0x3b6b1215	0.0035868932
94	0xbe1a43f4	-0.15064985
95	0xbe1202c1	-0.14258863
96	0x3de65cb9	0.11248154
97	0xbc5ed230	-0.013599917
98	0x3dd73d3a	0.10509725
99	0xbd86dccf	-0.06585085
100	0xbc36a6cb	-0.011148165
101	0xbd103389	-0.035205398
102	0xbd23fe12	-0.040037222
103	0x3de2eeb8	0.11080688
104	0x3da4cd4f	0.08046972
105	0x3dfcfcb2	0.12352885
106	0x3c3ca585	0.011514072
107	0x3dd3ccc4	0.1034179
108	0x3e03cf20	0.1287198
109	0x3df299b6	0.11845724
110	0xbc3af104	-0.011410002
111	0x3d8d5323	0.06900623
112	0xbd58a93c	-0.05289577
113	0x3e18fd05	0.1494027
114	0x3e220a3e	0.1582422
115	0xbdd7f180	-0.10544109
116	0x3e170786	0.14748964
117	0xbdf6d432	-0.12052192
118	0xbd5f56f7	-0.054526296
119	0xbe08e949	-0.13370241
120	0x3e25075b	0.16116087
121	0x3dd6db23	0.10491016
122	0xbd3dbad2	-0.046320744
123	0x3dd2c91c	0.10292265
124	0x3e192bc2	0.14958099
125	0xbe1c3f1c	-0.1525845
126	0x3d8bedb0	0.06832445
127	0xbe15e9e7	-0.14640008

ensemble_blocks.0.1.running_var f4 [128]
0	0x3e67a1cb	0.22620313
1	0x3e6dff82	0.23242
2	0x3ea20c20	0.31649876
3	0x3ea3126c	0.31849992
4	0x3ed0b436	0.4076249
5	0x3e87491b	0.26422963
6	0x3ec2263b	0.37919793
7	0x3e7ca6df	0.24673031
8	0x3e650b58	0.22367609
9	0x3e9cbdd1	0.30613568
10	0x3ea372c1	0.31923488
11	0x3eeaa473	0.4582859
12	0x3e5b6290	0.21424317
13	0x3e59c5d9	0.21266879
14	0x3e940a66	0.28914183
15	0x3ea66858	0.32501483
16	0x3e86c874	0.2632481
17	0x3e708068	0.23486483
18	0x3e5d7734	0.21627504
19	0x3f00ff95	0.5038999
20	0x3ed95563	0.42447957
21	0x3e8259f8	0.25459266
22	0x3ebd252b	0.3694242
23	0x3ea3a4ca	0.31961662
24	0x3ebb0093	0.36523876
25	0x3ecfd878	0.4059484
26	0x3ec8947b	0.39175782
27	0x3e662c57	0.22477852
28	0x3e85d71a	0.26140672
29	0x3e8c173a	0.2736147
30	0x3e8dcfce	0.27697605
31	0x3e8553ad	0.26040402
32	0x3ea1de91	0.31615117
33	0x3eb69444	0.35659993
34	0x3ec650db	0.38733563
35	0x3e38df22	0.18053868
36	0x3e9e16f2	0.3087688
37	0x3ea50508	0.322304
38	0x3e5b57c8	0.21420205
39	0x3e93c015	0.28857484
40	0x3ea062f3	0.31325492
41	0x3ecc5e28	0.39915586
42	0x3e88bdfd	0.2670745
43	0x3e86980d	0.2628788
44	0x3ebd5485	0.36978546
45	0x3e102a4a	0.14078632
46	0x3e9711ea	0.29505855
47	0x3ebdf92d	0.3710417
48	0x3ea345d0	0.318892
49	0x3ebb0ed0	0.3653474
50	0x3ec36494	0.38162673
51	0x3e8fa0e4	0.28052437
52	0x3ea9b52d	0.3314604
53	0x3ebe36fb	0.37151322
54	0x3f0c0b66	0.5470489
55	0x3e969ed4	0.2941805
56	0x3e8b6664	0.27226555
57	0x3ee758eb	0.45185027
58	0x3ef96d90	0.48716402
59	0x3ed26565	0.41092983
60	0x3e66039c	0.22462314
61	0x3eb54761	0.3540602
62	0x3e12c4d1	0.14332892
63	0x3ec229b1	0.37922433
64	0x3ea066c2	0.31328398
65	0x3eb9418a	0.36182815
66	0x3ea72348	0.32644105
67	0x3e8651ae	0.26234192
68	0x3e8a8eb2	0.27061993
69	0x3ea7625d	0.32692233
70	0x3e82ddb7	0.2555978
71	0x3e7d10b4	0.24713403
72	0x3e592763	0.21206431
73	0x3e9129a3	0.2835208
74	0x3e6b00b3	0.22949485
75	0x3ea03bc4	0.31295598
76	0x3ed4fec7	0.4160063
77	0x3eac6429	0.33670166
78	0x3eb68bd0	0.35653543
79	0x3ea2ce5f	0.31798074
80	0x3e7b0a44	0.24515635
81	0x3e9f5957	0.31122848
82	0x3e73799e	0.23776862
83	0x3f056447	0.52106136
84	0x3ead15c2	0.33805662
85	0x3e3b9c29	0.18321289
86	0x3ea00ec0	0.31261253
87	0x3ebfef0d	0.3748707
88	0x3e959600	0.29216003
89	0x3ec32e66	0.38121337
90	0x3e7b87df	0.2456355
91	0x3ebd7f88	0.3701136
92	0x3e31a28e	0.17347166
93	0x3ea9755a	0.33097345
94	0x3ea48903	0.32135782
95	0x3ebaa6aa	0.3645528
96	0x3e6bc725	0.23025186
97	0x3e9c6df1	0.3055263
98	0x3e8c4f6e	0.2740435
99	0x3eb4c349	0.3530524
100	0x3e9de872	0.30841404
101	0x3eb9402f	0.3618178
102	0x3e93d8f4	0.2887646
103	0x3e68b508	0.22725308
104	0x3e88e2ce	0.26735538
105	0x3e7694ef	0.24080251
106	0x3e878a2f	0.26472613
107	0x3eb175c8	0.34660172
108	0x3e5398e0	0.20663786
109	0x3e726d96	0.23674616
110	0x3e90026e	0.28126854
111	0x3ec2e3a4	0.380643
112	0x3e9766e7	0.29570696
113	0x3ebb6845	0.3660299
114	0x3e61b349	0.22041048
115	0x3ea5683b	0.32306084
116	0x3e6b2f79	0.22967328
117	0x3ec6a7bf	0.38799855
118	0x3e8e3f29	0.27782562
119	0x3ef3556b	0.47526106
120	0x3e8bf539	0.27335528
121	0x3e67e2c1	0.22645094
122	0x3e984f7f	0.2974815
123	0x3ea34173	0.3188587
124	0x3e84735e	0.25869268
125	0x3ea67988	0.32514596
126	0x3eaeebac	0.34164178
127	0x3ea8bdad	0.3295721

ensemble_blocks.0.4.weight f4 [128, 128]
0	0xbd85d303	-0.06534388
1	0x3cc6ac47	0.02425207
2	0xbdb4da53	-0.088307045
3	0x3d80250c	0.06257066
4	0x3ce12fdd	0.027488643
5	0xbb798827	-0.0038075538
6	0xbd8752fb	-0.06607624
7	0xbd25b813	-0.04045875
8	0xbcf995b2	-0.030466888
9	0x3d436fe8	0.047714144
10	0xbd9bfbeb	-0.07616409
11	0x3c8a10cc	0.016853712
12	0xbd3204d5	-0.04346164
13	0xbd3a84b0	-0.045536697
14	0x3ca5353f	0.020166991
15	0xbd8f98a8	-0.07011539
16	0xbc13145d	-0.008977023
17	0xbd8a8923	-0.06764438
18	0x3d793485	0.060841102
19	0xbccf9ee2	-0.025344316
20	0x3d8df6ff	0.069318764
21	0x3ce09aa3	0.027417487
22	0xbb7617bf	-0.0037550775
23	0x3d5b4ed3	0.05354197
24	0x3dac4afc	0.0841274
25	0x3c768654	0.015046675
26	0xbd3cee9d	-0.046125997
27	0x3ad45277	0.0016198893
28	0xbbde4cff	-0.006784081
29	0x3d5dbf2f	0.054137405
30	0xbc610fdc	-0.013736691
31	0x3ce52f27	0.027976586
32	0xbd32abee	-0.043620996
33	0xbd113c21	-0.035457734
34	0xbd0481f5	-0.0323505
35	0xbdba8b78	-0.09108633
36	0xbd4fa278	-0.05069205
37	0xbc94f766	-0.018184375
38	0x3c97318e	0.018456247
39	0xbcea3400	-0.028589249
40	0x3c9350e5	0.01798291
41	0x3d103332	0.035205074
42	0xbdbce91b	-0.09224149
43	0xbc01b6b3	-0.007917094
44	0xbd7e0912	-0.06202037
45	0x3b2319e4	0.0024887258
46	0x3d938773	0.07203569
47	0x3d7312ae	0.059343986
48	0xbd991fd2	-0.07476772
49	0xbd55c468	-0.05218926
50	0xbdac1f42	-0.084043995
51	0x3d01bfa9	0.031676922
52	0x3d89bca0	0.067254305
53	0xbd9c0fd7	-0.07620209
54	0x3d623f58	0.05523619
55	0x3d5fd0cb	0.05464248
56	0xbd40fcfb	-0.04711626
57	0xbb16527f	-0.0022937355
58	0xbd7291a6	-0.059220932
59	0xbd35b4d0	-0.04436189
60	0xbcf17bf8	-0.029478058
61	0xbc9396c9	-0.018016236
62	0xbd3bb403	-0.04582597
63	0x3d49f9d1	0.04931051
64	0x3d923faf	0.07141053
65	0xbd4474a7	-0.04796281
66	0xbd527dc9	-0.05138949
67	0xbd6daaaf	-0.058024105
68	0x3cf731bc	0.030175082
69	0x3b49c51d	0.0030787655
70	0x3c93be6a	0.018035132
71	0x3d48d5fe	0.049032204
72	0x3d74e9b6	0.059793197
73	0xbaee57ba	-0.0018184104
74	0x3d3d5ca2	0.04623092
75	0x3d7a9e78	0.061186284
76	0x3dd3b9fc	0.10338208
77	0xbdae93b7	-0.08524268
78	0x3dd20d17	0.10256403
79	0xbd09e5ac	-0.033666298
80	0x3dbacea7	0.09121447
81	0x3ce29e06	0.027663242
82	0x3d6622f8	0.056185693
83	0x3c898f5c	0.016791992
84	0x3d508fc8	0.05091837
85	0xbd4ba885	-0.04972126
86	0xbd4415e8	-0.047872454
87	0xbd72c753	-0.05927212
88	0xbd2d878c	-0.042365596
89	0x3d229d1f	0.039700624
90	0x3bc9e785	0.0061616325
91	0xbd682ed8	-0.0566853
92	0xbaf4b714	-0.0018670284
93	0x3d21c0e9	0.039490614
94	0xbce13879	-0.027492749
95	0xbd94d575	-0.07267276
96	0x3c6806cf	0.01416178
97	0x3d7bba14	0.061456755
98	0xbac1e442	-0.0014792758
99	0xbd9c661a	-0.07636662
100	0x3b84fd0a	0.004058485
101	0x3dbd875f	0.092543356
102	0x3d5fa989	0.05460504
103	0xbcea45ca	-0.028597731
104	0xbd14498a	-0.036202945
105	0xbd0fe419	-0.03512964
106	0x3d8ea7d9	0.06965608
107	0x3c16d3eb	0.009205799
108	0x3da48f64	0.08035162
109	0x3d7f16c2	0.062277563
110	0x3d305e7b	0.043058854
111	0xbd0751da	-0.033037044
112	0xbd3dafde	-0.0463103
113	0x3d937b35	0.07201234
114	0xbd391b90	-0.0451923
115	0x3d689158	0.056779236
116	0xbda0a153	-0.0784327
117	0xbd8b1b95	-0.0679237
118	0x3d46d2f0	0.04854101
119	0xbdaabcf7	-0.083368234
120	0xbb646480	-0.0034849942
121	0xbd658309	-0.056033168
122	0x3cc9292d	0.024555767
123	0x3d78b3d5	0.060718376
124	0xbd7a40d3	-0.061096977
125	0xbd255ef6	-0.040373765
126	0xbc345225	-0.011005913
127	0x3c2ab707	0.010419614
128	0xbc348434	-0.011017848
129	0xbd5b49a4	-0.053537026
130	0xbd3da2e5	-0.046297926
131	0x3db1d323	0.08682849
132	0x3d0e058d	0.034673262
133	0xbd51ccc3	-0.051220667
134	0xbda91032	-0.08255042
135	0xbd975ac7	-0.07390361
136	0xbd5f401d	-0.054504503
137	0x3d978862	0.0739906
138	0xbd7c9d66	-0.061673544
139	0x3b920ff1	0.004457467
140	0x3c81fcdc	0.015867643
141	0xbcf441f0	-0.029816598
142	0xbd8ffeb9	-0.07031006
143	0xbd005751	-0.03133327
144	0xbd994c61	-0.07485271
145	0x3c37a69e	0.011209158
146	0x3dab587f	0.08366489
147	0xbab4d76f	-0.0013797114
148	0xbcadedd4	-0.02123157
149	0x3b85b59c	0.0040804874
150	0x3dce48da	0.10072489
151	0x3d6d4c20	0.057933927
152	0x3d964633	0.07337608
153	0xbd1a85f9	-0.037725423
154	0x39aeac9c	0.0003331647
155	0x3db4f061	0.08834911
156	0xbd4a43d0	-0.049381077
157	0xbdab0c66	-0.08351974
158	0x3dc7d84a	0.09758051
159	0x3d5189c6	0.05115678
160	0xbce9b3ac	-0.028528057
161	0x3dacfee3	0.08447053
162	0xbcb9832a	-0.022645552
163	0x3d5a52c0	0.053301573
164	0x3d620e64	0.055189505
165	0xbdbd971d	-0.09257338
166	0xbd334ff2	-0.043777414
167	0xbd5c5a72	-0.053797193
168	0xbc8f2d1d	-0.017477566
169	0x3d184a3a	0.037180163
170	0x3d390750	0.04517299
171	0xbc85dcd9	-0.01634066
172	0x3d58ea37	0.05295774
173	0x3cf3e75a	0.029773403
174	0x3c7f4bd8	0.015582047
175	0xbd5ef441	-0.054432157
176	0x3d80c70d	0.06287966
177	0x3d1a2a40	0.03763795
178	0xbd09ac04	-0.033611313
179	0x3aae6688	0.0013305703
180	0x3cfb64b2	0.030687664
181	0x3be5a87a	0.0070086094
182	0xbcb169df	-0.021656929
183	0xbda7d305	-0.08194546
184	0x3d2c11e1	0.04200924
185	0xbd42031e	-0.047366254
186	0x3d93fb62	0.07225682
187	0x3d27e5c7	0.040990617
188	0xbd598474	-0.053104833
189	0xbbd6ce64	-0.0065553654
190	0x3d22f715	0.039786417
191	0xbd6c7da3	-0.057737004
192	0x3d10d9d2	0.03536398
193	0xbd8c8af1	-0.068624385
194	0x3b42dd2a	0.0029733875
195	0xbd656ab5	-0.056009967
196	0x3c0c07e1	0.0085468
197	0x3cf8faa1	0.030392947
198	0xbce4d416	-0.027933162
199	0xbcc7a6be	-0.024371501
200	0x3dd5ca35	0.104389586
201	0x3d98dbbc	0.07463786
202	0x3d90ddd4	0.0707356
203	0xbcada1de	-0.021195348
204	0xbd7e7765	-0.062125582
205	0x3d9698af	0.07353341
206	0xbcab4b39	-0.020909892
207	0xbc3fbbae	-0.011702461
208	0xbd56c85e	-0.05243718
209	0x3b6373ba	0.003470643
210	0x3c0c87c9	0.008577296
211	0x3cc3207d	0.023819203
212	0x3d968bf2	0.07350911
213	0xbcbbfa21	-0.02294642
214	0x3d5471e7	0.05186644
215	0x3db53b72	0.08849229
216	0xbdad7df5	-0.0847129
217	0xbd474154	-0.048646286
218	0x3d855ea5	0.06512193
219	0x3d126f5d	0.035750736
220	0x3c2ae084	0.010429505
221	0xbd50b032	-0.050949283
222	0x3d917cc3	0.071038745
223	0x3db1855b	0.08668014
224	0x3d4f23db	0.050571304
225	0x3d6a4205	0.057191867
226	0x3dcb7a49	0.099354334
227	0xbd0c539d	-0.034259427
228	0x3d46eb1b	0.048564058
229	0xbcc6b8ab	-0.024257978
230	0x3d96f3a6	0.07370691
231	0xbb0d4eaa	-0.002156178
232	0x3d454e31	0.048170272
233	0x3d0aefc7	0.033920076
234	0x3da62239	0.08111996
235	0x3d9d404f	0.076782815
236	0xbd85a103	-0.06524851
237	0x3c5bd4d7	0.013417444
238	0x3d4d5443	0.050129186
239	0x3dc39df1	0.09551609
240	0x3d43166b	0.0476288
241	0xbd684b6a	-0.056712545
242	0x3c54d19d	0.012989429
243	0x3c5dfb40	0.013548672
244	0x3d928050	0.0715338
245	0xbd2ca55e	-0.042149894
246	0xbd46fdf9	-0.04858205
247	0x3d203d81	0.039121155
248	0x3d497110	0.04918009
249	0x3d08895a	0.033334114
250	0x3d0ee061	0.034881953
251	0x3caf17b3	0.021373605
252	0x3ca381a6	0.019959282
253	0xbd0d19f2	-0.03444857
254	0xbd561807	-0.052269008
255	0x3d505ed7	0.050871696

ensemble_blocks.0.4.bias f4 [128]
0	0xbcf4daca	-0.029889483
1	0x3c85dc7a	0.016340483
2	0x3cb77566	0.022394847
3	0x3dab9555	0.08378092
4	0x3c763e70	0.015029535
5	0x3da1da90	0.079030156
6	0xbd7f49a8	-0.062326103
7	0x3da81a44	0.08208135
8	0x3d12d1ec	0.03584473
9	0x3d343b93	0.044002127
10	0xbd754207	-0.05987742
11	0xbcb502a7	-0.022095991
12	0x3d8a029a	0.067387775
13	0xbd9afcf4	-0.07567778
14	0xbd208531	-0.03918952
15	0x3daff6f4	0.085920244
16	0x3d781e38	0.060575694
17	0xbdb41733	-0.087934874
18	0x3d908a7c	0.07057664
19	0x3bcac92b	0.006188532
20	0x3d41b6a1	0.04729331
21	0xbcc99f6b	-0.02461215
22	0xbbe106cf	-0.0068672667
23	0x3d9ad9a5	0.07561044
24	0xbd7a0cf4	-0.06104751
25	0x3b8c7e10	0.0042874888
26	0xbd906420	-0.07050347
27	0x3d87031c	0.0659239
28	0x3caa9df5	0.020827273
29	0x3c93577e	0.017986055
30	0x3c7be561	0.015374512
31	0xbc88e3f9	-0.016710268
32	0xbd5cbdf8	-0.053892106
33	0xbd757af2	-0.059931703
34	0x3d1d8912	0.0384608
35	0x3b3220ae	0.0027180123
36	0x3b80cd50	0.003930725
37	0xbcf2b552	-0.029627476
38	0x3c2866e6	0.010278439
39	0xbd6f4024	-0.05841078
40	0x3dafa3f1	0.08576191
41	0xbcbe9634	-0.023264982
42	0x3bc7562f	0.006083272
43	0x3db22171	0.08697785
44	0xbdb281a3	-0.087161325
45	0xbd1baada	-0.038004734
46	0xbd198a1d	-0.03748523
47	0xbd29aae8	-0.041422755
48	0xbb1841f9	-0.0023232682
49	0xbc77409e	-0.0150910895
50	0xbdb3846c	-0.08765492
51	0x3d2eb1b9	0.04264996
52	0x3d602227	0.05472007
53	0x3ae3658a	0.0017348987
54	0x3d94514c	0.07242069
55	0x39d99823	0.00041502816
56	0x3d8b62ff	0.068059914
57	0x3d6aba2c	0.057306454
58	0xbdae67ab	-0.08515867
59	0xbda43aef	-0.08019053
60	0xbda5a771	-0.080885775
61	0xbd8ebf7f	-0.06970119
62	0x3cde7f95	0.027160445
63	0x3d985dc9	0.07439763
64	0x3c598f07	0.013278729
65	0xbb8f3aa3	-0.0043710037
66	0x3cab0ccc	0.020880125
67	0xbcefd7a5	-0.029277632
68	0xbd95f7e3	-0.07322671
69	0xbd8a5602	-0.06754686
70	0x3d15d093	0.036575865
71	0x3d8f3adc	0.069936484
72	0xbd216848	-0.03940609
73	0x3d34a659	0.044103954
74	0xbd608187	-0.054811027
75	0xbc9ab2dd	-0.018884117
76	0xbd818ae9	-0.06325323
77	0x3d7dd1a5	0.06196751
78	0xbd4e50e3	-0.05037011
79	0x3d97f01e	0.074188456
80	0xbd21541b	-0.03938685
81	0xbd086836	-0.03330251
82	0x3cc48377	0.023988469
83	0x3c203381	0.0097779045
84	0xbd4ccbe8	-0.049999148
85	0xbd834907	-0.06410413
86	0xbda7ae68	-0.08187562
87	0x3c5e910b	0.013584386
88	0xbda674bc	-0.08127734
89	0x3d6550a1	0.055985097
90	0x3d7397cc	0.059470937
91	0xbd3e5531	-0.046467964
92	0xbb87ed42	-0.0041481564
93	0xbc51d3b8	-0.012806825
94	0xbc89c82a	-0.016819078
95	0x3cb876f2	0.022517655
96	0x3da8c5a3	0.08240821
97	0x3d335394	0.04378088
98	0x3cb65dc3	0.022261506
99	0xbda29621	-0.07938791
100	0x3d8817b0	0.06645143
101	0xbd937628	-0.07200271
102	0x3b69b2dc	0.0035659587
103	0xbd5b2b2e	-0.053507976
104	0x3d54579c	0.051841363
105	0xbc96bf44	-0.01840175
106	0x3d97c2cb	0.07410201
107	0xbc5bc00a	-0.013412485
108	0xbd58995a	-0.052880622
109	0xbcc7315c	-0.024315529
110	0xbb000755	-0.001953562
111	0x3d600588	0.054692775
112	0xbd531c1f	-0.05154049
113	0x3cba7a82	0.022763494
114	0xbcc816f5	-0.02442501
115	0x3d666175	0.056245286
116	0xbcdec27a	-0.027192343
117	0x3d1e725c	0.03868328
118	0xbcc3321b	-0.023827603
119	0xbcfec9ea	-0.03110214
120	0x3cadf1a1	0.021233382
121	0x3d01651a	0.03159056
122	0x3cef35a4	0.029200383
123	0xbd8491b3	-0.064731024
124	0x3d775782	0.06038619
125	0x3d48527d	0.048906792
126	0x3d8b9fe4	0.06817606
127	0xbda82699	-0.08210487

ensemble_blocks.0.5.weight f4 [128]
0	0x3f76342a	0.96173346
1	0x3f776e23	0.9665243
2	0x3f8ba955	1.0911051
3	0x3f77c831	0.9678984
4	0x3f8d7724	1.1051984
5	0x3f75b9c4	0.9598658
6	0x3f8dcef0	1.1078777
7	0x3f7620c5	0.9614375
8	0x3f79c486	0.97565496
9	0x3f77d8fe	0.9681548
10	0x3f89869f	1.0744208
11	0x3f8965d1	1.0734197
12	0x3f75a07b	0.95948
13	0x3f8b88ab	1.0901083
14	0x3f75977e	0.95934284
15	0x3f89c961	1.0764581
16	0x3f8b85f6	1.0900257
17	0x3f77fd03	0.9687044
18	0x3f8a3e7f	1.0800322
19	0x3f8ba231	1.0908872
20	0x3f7a201e	0.97705257
21	0x3f8b31e0	1.0874596
22	0x3f76a14f	0.9633989
23	0x3f896158	1.0732832
24	0x3f768e04	0.9631045
25	0x3f8abd69	1.0839053
26	0x3f78dab1	0.97208697
27	0x3f7a4678	0.97763777
28	0x3f771613	0.9651806
29	0x3f89bd13	1.0760826
30	0x3f75b208	0.9597478
31	0x3f896e44	1.0736775
32	0x3f8e65d8	1.112483
33	0x3f76e555	0.9644368
34	0x3f89d4e1	1.076809
35	0x3f763cfd	0.9618681
36	0x3f756b22	0.95866597
37	0x3f8b0dc4	1.0863576
38	0x3f8a4ed5	1.0805308
39	0x3f899f7d	1.0751797
40	0x3f8b5e60	1.0888176
41	0x3f8be533	1.0929321
42	0x3f76e77a	0.96446955
43	0x3f8d42ad	1.1035973
44	0x3f8a0bff	1.0784911
45	0x3f76849b	0.9629609
46	0x3f8b1523	1.0865825
47	0x3f897132	1.073767
48	0x3f8a4c20	1.0804482
49	0x3f8de23c	1.1084666
50	0x3f751839	0.95740086
51	0x3f769d00	0.96333313
52	0x3f75c26b	0.95999783
53	0x3f89449d	1.0724064
54	0x3f8a0e99	1.0785705
55	0x3f764f57	0.96214813
56	0x3f8be838	1.0930243
57	0x3f8cffaf	1.1015528
58	0x3f8cc35b	1.0997118
59	0x3f769a72	0.96329415
60	0x3f89d5d5	1.0768381
61	0x3f767b29	0.9628168
62	0x3f79f54c	0.9763992
63	0x3f81e674	1.0148454
64	0x3f778281	0.9668351
65	0x3f8be041	1.0927812
66	0x3f75b913	0.95985526
67	0x3f77c619	0.9678665
68	0x3f89a0d4	1.0752206
69	0x3f7bbc29	0.98333985
70	0x3f81d4b3	1.0143036
71	0x3f8c2f4a	1.0951931
72	0x3f8a0761	1.0783502
73	0x3f75f859	0.96082073
74	0x3f7614ae	0.96125305
75	0x3f8ae0fa	1.0849907
76	0x3f8b9156	1.0903728
77	0x3f77d1a4	0.9680426
78	0x3f8a73d5	1.0816599
79	0x3f891cf3	1.071196
80	0x3f74d9d3	0.95644873
81	0x3f7a530f	0.9778299
82	0x3f89c4f4	1.076323
83	0x3f7941fd	0.97366315
84	0x3f755e26	0.95846784
85	0x3f8a165a	1.0788071
86	0x3f761952	0.96132386
87	0x3f89977e	1.0749357
88	0x3f7aa80c	0.9791267
89	0x3f8b1c55	1.0868021
90	0x3f7576ae	0.95884216
91	0x3f8eddc8	1.1161432
92	0x3f7d1fda	0.98876727
93	0x3f7654ec	0.9622333
94	0x3f8adebf	1.0849227
95	0x3f76a4b8	0.9634509
96	0x3f761a58	0.9613395
97	0x3f8aa00c	1.0830092
98	0x3f89d47e	1.0767972
99	0x3f82539e	1.0181768
100	0x3f89ed86	1.0775611
101	0x3f7543b8	0.95806456
102	0x3f75d4bc	0.9602773
103	0x3f79c27b	0.9756238
104	0x3f8ce9fc	1.1008906
105	0x3f873e49	1.0565883
106	0x3f8a9ab1	1.0828458
107	0x3f896b1b	1.0735811
108	0x3f766843	0.9625284
109	0x3f89b40e	1.0758073
110	0x3f89691e	1.0735204
111	0x3f89345d	1.0719105
112	0x3f8aa8dd	1.0832783
113	0x3f8cd175	1.1001421
114	0x3f8a528e	1.0806444
115	0x3f779e17	0.967256
116	0x3f7655ce	0.9622468
117	0x3f8aa2f5	1.083098
118	0x3f771732	0.9651977
119	0x3f7760d8	0.96632147
120	0x3f781693	0.96909446
121	0x3f764751	0.9620257
122	0x3f767ab7	0.96281
123	0x3f8a0f92	1.0786002
124	0x3f86bfef	1.0527323
125	0x3f8a0469	1.0782596
126	0x3f775a4a	0.96622145
127	0x3f8cffc4	1.1015553

ensemble_blocks.0.5.bias f4 [128]
0	0xbd1c8d6a	-0.0382208
1	0xbd0db77d	-0.034598816
2	0x3db62ee0	0.088956594
3	0xbd059d9e	-0.03262102
4	0x3dca80ce	0.09887849
5	0xbd2af273	-0.041735124
6	0x3dd8e1a3	0.10589912
7	0xbd3950fe	-0.045243256
8	0xbcc51c35	-0.024061302
9	0xbd097a8a	-0.033564128
10	0x3d984292	0.07434572
11	0x3d96800e	0.07348643
12	0xbd2f0944	-0.042733446
13	0x3db8914e	0.0901209
14	0xbd279660	-0.040914893
15	0x3d99b16d	0.075045444
16	0x3dbcf220	0.09225869
17	0xbd03e5e3	-0.03220166
18	0x3da60c5c	0.08107826
19	0x3db9606a	0.09051593
20	0xbcc728ce	-0.02431145
21	0x3db75e50	0.089535356
22	0xbd283326	-0.041064404
23	0x3d99cecb	0.07510146
24	0xbd30baad	-0.043146778
25	0x3da0e408	0.078559935
26	0xbce0bf98	-0.027435109
27	0xbcbce8d5	-0.023060242
28	0xbd35f5c4	-0.044423833
29	0x3d9ac90f	0.0755788
30	0xbd2ec055	-0.04266389
31	0x3d972c04	0.07381442
32	0x3de0ca60	0.109761
33	0xbd26b7e9	-0.040702734
34	0x3d946704	0.07246211
35	0xbd3386c8	-0.04382971
36	0xbd32c31e	-0.04364311
37	0x3db07db2	0.086177245
38	0x3da70bc1	0.08156539
39	0x3d92d7af	0.07170045
40	0x3db4af5a	0.08822508
41	0x3dbb56fa	0.09147449
42	0xbd195cb9	-0.037441943
43	0x3dcc0a2d	0.099628784
44	0x3da19dd4	0.078914315
45	0xbd2e2776	-0.0425181
46	0x3daa20e4	0.08307055
47	0x3d963526	0.07334356
48	0x3da4622c	0.08026537
49	0x3dd05bd0	0.10173762
50	0xbd35092e	-0.044198208
51	0xbd1d53d1	-0.03841001
52	0xbd332ebd	-0.043745745
53	0x3d947eb0	0.07250726
54	0x3d9b0aa7	0.07570391
55	0xbd1b3a4a	-0.037897386
56	0x3dc3dbac	0.095633835
57	0x3dbc1508	0.09183699
58	0x3dc7fd03	0.09765055
59	0xbd2bf418	-0.041980833
60	0x3d9f05ba	0.07764764
61	0xbd24b24f	-0.04020911
62	0xbcc96416	-0.024583858
63	0x3c3bb0a3	0.011455688
64	0xbd0ec852	-0.03485901
65	0x3dc5a8b7	0.096513204
66	0xbd2e2b0b	-0.042521518
67	0xbd15eb79	-0.036601517
68	0x3d9a63ba	0.075385526
69	0xbc9c207f	-0.019058464
70	0x3c605ff5	0.013694753
71	0x3dbc2d06	0.09188275
72	0x3d977ab0	0.07396448
73	0xbd235c2c	-0.039882824
74	0xbd2e5dfd	-0.042570103
75	0x3dafa998	0.08577269
76	0x3db9e700	0.09077263
77	0xbd16bb47	-0.036799695
78	0x3da5413e	0.080690846
79	0x3d92f6d7	0.07175987
80	0xbd35fe9d	-0.04443227
81	0xbcc3b14c	-0.023888253
82	0x3d98bd78	0.07458013
83	0xbcde3a46	-0.027127396
84	0xbd32596e	-0.043542318
85	0x3da4283e	0.08015488
86	0xbd1f43fa	-0.038883187
87	0x3d99b8a1	0.07505918
88	0xbccef736	-0.025264364
89	0x3dabd4be	0.08390187
90	0xbd33d42f	-0.043903526
91	0x3decd117	0.11563318
92	0xbc5c8992	-0.013460534
93	0xbd26f3c5	-0.04075982
94	0x3dab6cb3	0.08370342
95	0xbd29e25b	-0.041475635
96	0xbd2661f4	-0.04062076
97	0x3da72e89	0.08163173
98	0x3da06924	0.07832554
99	0x3c77d7a8	0.0151271
100	0x3d9788c9	0.073991366
101	0xbd2d8b25	-0.042369027
102	0xbd2ff948	-0.042962343
103	0xbcc7828b	-0.02435424
104	0x3dce1984	0.100634605
105	0x3d926f25	0.071501054
106	0x3da6ca48	0.08144051
107	0x3d92f89c	0.07176325
108	0xbd218218	-0.039430708
109	0x3d97db68	0.07414895
110	0x3d93f850	0.07225096
111	0x3d99ca95	0.075093426
112	0x3daadf3b	0.08343359
113	0x3dd5ced4	0.1043984
114	0x3d9e1ce3	0.077203535
115	0xbd08ac47	-0.03336742
116	0xbd306c22	-0.043071873
117	0x3da96699	0.08271522
118	0xbd25a9a5	-0.04044499
119	0xbd22ba76	-0.039728604
120	0xbd125e26	-0.03573432
121	0xbd26e850	-0.040748894
122	0xbd309555	-0.043111164
123	0x3d9b726d	0.07590184
124	0x3d56d9fb	0.052453976
125	0x3da2f986	0.07957749
126	0xbd1057df	-0.03524005
127	0x3dccbbe0	0.09996772
