backend/models/tabm_k4.pth (torch, 388927 bytes, 63 tensors)

embedding.embeddings.0.weight f4 [10, 4]
000000 4f 96 97 3f 3d 27 e2 be fd ff 55 bf 47 4a 04 3f
       1.1842746 -0.4417056 -0.8359373 0.5167584
000010 cc 9b 97 bf 37 49 5a 3e 25 e1 72 bf 17 7d 15 bf
       -1.184442 0.21316992 -0.94874793 -0.58393997
000020 af b6 21 40 02 f0 ee bd 80 86 85 3f 8b 7d 4d bd
       2.5267751 -0.116668716 1.0431671 -0.050168555
000030 4d 65 f6 be 23 44 cf bc 8f 29 b1 be 1b 99 7a 3f
       -0.4812416 -0.025301045 -0.3460202 0.9788987
000040 ae 79 e0 bf 27 71 5f 3e 12 89 19 3f fc 43 2c bf
       -1.7537134 0.21820508 0.5997478 -0.67291236
000050 36 d4 13 bf f2 0d 94 bf 00 eb 4a be 34 ee d0 3f
       -0.57745683 -1.1566756 -0.19816208 1.6322694
000060 05 14 40 bf 70 91 90 3f a9 7f f6 bf 1a ea 21 be
       -0.7503055 1.1294384 -1.9257709 -0.15811959
000070 37 c2 ac be 39 58 2e bf bd fc df 3f 4f 1f 75 bf
       -0.33741924 -0.6810337 1.7499005 -0.957509
000080 e4 fb 1e bf f4 53 6a bf e8 62 4f 3f 38 85 77 bc
       -0.62103105 -0.9153435 0.81010294 -0.015107445
000090 df 5f 7f bf cd 8c 12 3f 7b a6 19 3f 10 b8 b9 bb
       -0.9975566 0.57246095 0.60019654 -0.005667694

embedding.embeddings.1.weight f4 [3, 4]
000000 4b 90 75 bf a3 5e af bf b9 a3 82 3e a8 a7 07 c0
       -0.959233 -1.3700756 0.25515535 -2.119608
000010 50 9a be 3f 94 c5 34 bf 97 65 e7 bf 8d 93 80 3f
       1.4890842 -0.7061398 -1.8077878 1.0045029
000020 46 36 80 3f b5 98 97 be 79 4a ba bf 7d e8 e0 be
       1.0016563 -0.29608694 -1.4553977 -0.43927374

embedding.embeddings.2.weight f4 [2, 4]
000000 b0 cd bc bf 38 4c c3 3f 05 15 ee 3f 44 91 e9 be
       -1.4750271 1.5257635 1.8600165 -0.4561864
000010 60 3f 2a bf b5 60 85 3e 8c 99 52 be e7 37 6d 3f
       -0.6650295 0.26050344 -0.20566386 0.92663425

embedding.embeddings.3.weight f4 [8, 4]
000000 09 44 42 3e 59 e7 e1 3e 3b a1 b5 3f cc ee 35 3e
       0.18971266 0.44121817 1.4189829 0.17766875
000010 fb 2a 48 3d 8c 66 93 bf 7b 43 22 40 43 17 18 bf
       0.048869114 -1.151567 2.5353687 -0.59410495
000020 5c a7 00 bf 1c 40 08 be 1f 65 8a bf 9a ef ab 3f
       -0.5025537 -0.13305706 -1.081211 1.3432496
000030 97 f6 50 be 77 68 34 bf 8f 59 af bd 8d fe 55 bf
       -0.20406567 -0.704719 -0.08562004 -0.8359154
000040 56 98 17 c0 96 bb 36 3e 8b a2 86 3e fd d2 56 3f
       -2.3686728 0.17844996 0.26295885 0.8391569
000050 7d 2b ca be 83 19 d2 3f 48 c2 d9 3f 8e 1b 78 be
       -0.39486304 1.6414036 1.7012415 -0.24229261
000060 df 57 52 bf 9c 5b b7 3f 43 24 8f be a3 fb 20 3f
       -0.8216533 1.4324832 -0.27957353 0.6288397
000070 69 d3 2c 40 27 cc 39 3e 78 ad 42 3f 33 19 38 bd
       2.7004035 0.18144284 0.7604594 -0.044945907

embedding.embeddings.4.weight f4 [13, 4]
000000 99 52 50 3f 3f ad 42 3f 1b 2f e8 3f 96 7b 6f 3e
       0.81376034 0.760456 1.8139375 0.23386988
000010 53 a2 cd bf 38 11 97 be f6 12 0f 3f ac 0a 00 bf
       -1.6065162 -0.29505324 0.5588831 -0.50016284
000020 6e a5 d5 bf dd 02 8a 3e 94 33 da bf 62 c4 c4 bf
       -1.669111 0.2695531 -1.704699 -1.5372431
000030 5b 83 3d bf 60 d8 5a 3f df f0 8c bc 23 fd f9 bc
       -0.7402856 0.8548641 -0.0172047 -0.030516213
000040 13 ea b8 bf 97 8e c6 bf 9d c1 25 3e e1 74 00 be
       -1.4446434 -1.5512265 0.16187139 -0.12544586
000050 1c 24 31 bf 1f cc c0 bf d1 8a fb 3e 74 2f 0a bf
       -0.69195724 -1.5062293 0.49129346 -0.5397866
000060 fb 98 4b 3f c3 45 4f bf ca 55 03 be 59 fe a5 3e
       0.79530305 -0.8096582 -0.12825695 0.32420614
000070 17 da e9 be bd d3 66 bf b6 7d 3b 3f 9e bb f0 3d
       -0.45674202 -0.90166837 0.73238695 0.11754535
000080 9e 80 58 bf 44 9a 0d c0 80 03 94 bf b3 89 45 bf
       -0.84571254 -2.2125406 -1.1563568 -0.7716324
000090 00 05 61 bf 57 ef 45 bf a6 e7 73 bf 72 64 bb bf
       -0.87898254 -0.7731833 -0.9527534 -1.4640028
0000a0 ef 55 ab 3f 18 3a e4 be cf 6a 70 3e 23 86 7b 3f
       1.33856 -0.44575572 0.23478244 0.9825155
0000b0 2f cb 71 3e b2 aa 28 c0 04 72 28 c0 01 58 bf bf
       0.23612665 -2.6354184 -2.631959 -1.4948732
0000c0 2e fc e1 be 1e ef 2b bf c7 dd 6e bf 26 7a a1 bf
       -0.4413771 -0.6716174 -0.93307155 -1.2615402

embedding.embeddings.5.weight f4 [9, 4]
000000 6a 90 96 3f 60 d2 22 bf 4b fe 97 3f 6c 17 01 3e
       1.1762822 -0.63602257 1.1874479 0.12606591
000010 0f f0 b4 3e 7e 71 20 bf a6 dc 73 be 6c 89 98 3e
       0.353394 -0.62673175 -0.2381464 0.29792345
000020 9b 20 7b bf c0 94 17 40 46 d2 06 3f e0 d4 db bd
       -0.98096627 2.368454 0.526646 -0.10733962
000030 04 a2 1c 3f 70 9d 94 3f 5d b7 cf 3e fb 06 27 bf
       0.61184716 1.1610546 0.40569583 -0.65245026
000040 24 8e a3 3e e7 f7 50 bf 32 77 1b 3f 85 80 91 bf
       0.31944382 -0.8162827 0.6072875 -1.1367346
000050 9d 83 1f 3f bf 44 85 3d 10 14 55 3e f8 c2 b4 3e
       0.623102 0.06507253 0.20808434 0.35305
000060 d0 f4 51 be 96 ea ef 3f 97 f9 f6 bf 7b 03 42 be
       -0.20503545 1.8743465 -1.9294919 -0.1894664
000070 7b 05 66 3f ca 67 6e 3f ea 60 b7 bd c0 d4 07 40
       0.8985211 0.9312712 -0.08954032 2.1223602
000080 83 d9 b2 bd 32 fa b2 3e a0 cd 42 3f 2f 43 bf 3f
       -0.08732893 0.3495651 0.7609501 1.4942378

embedding.embeddings.6.weight f4 [20, 4]
000000 60 ce b8 be c7 7b 40 3f 2c b9 57 bf 2a 29 15 bf
       -0.36094952 0.7518887 -0.84266925 -0.58265936
000010 c0 de 16 3e c6 ae e5 3f 24 c0 5f 3f 1c 85 d0 be
       0.1473341 1.7943962 0.8740256 -0.40726554
000020 1b 10 a0 bf 29 3f 47 3f 48 33 91 bf af 39 8b 3f
       -1.2504915 0.7783075 -1.1343775 1.0876979
000030 c9 08 20 bf 3d 31 56 3f 00 8a 3d 3f 42 bc 96 3f
       -0.62513405 0.8366888 0.74038696 1.1776202
000040 30 29 ca 3f 64 0c 30 3e a2 fb 1e bf eb c1 c9 3f
       1.579382 0.17192227 -0.6210271 1.5762304
000050 3c c6 92 3c 36 22 74 3f 7a b8 27 bf 8d c5 82 3f
       0.017916791 0.953647 -0.65515864 1.0216538
000060 02 f9 94 bf c1 1c dd 3f be 0a d5 bf 94 a2 0d 3f
       -1.1638491 1.72744 -1.6643903 0.553262
000070 bc 60 38 3d 30 8c 5f bf 5a 11 9d be bf c9 63 bf
       0.045014128 -0.87323284 -0.306773 -0.88979715
000080 0f 19 36 3d af 33 96 3e fa ea 5a 3e ae 7c a7 be
       0.04445749 0.29336306 0.21378699 -0.3271231
000090 e5 87 49 3f b3 63 fd be c9 f3 d5 3e 7f 87 bc be
       0.78722984 -0.49490127 0.41787556 -0.36822125
0000a0 41 3c 5b 3f a2 db 57 bf 83 67 61 3f 4b 77 d4 3d
       0.85638815 -0.8431951 0.8804857 0.10374316
0000b0 3e 15 e6 be f3 a7 54 bf 0f b3 e2 bf 31 6a e6 3f
       -0.44938082 -0.8306877 -1.7710894 1.8001157
0000c0 d3 fa 91 3e c9 fd 12 3f ad 6f fb bf 4d 62 3c be
       0.28511676 0.57418495 -1.9643456 -0.18396874
0000d0 b6 4d c4 bf 0f 23 b4 3e 4f 9e 12 bf de 93 0a c0
       -1.5336215 0.35182998 -0.5727281 -2.165275
0000e0 ef 7d ae be 56 5c 2b bf f2 27 12 3f 38 ad 9b bf
       -0.34080455 -0.6693777 0.570922 -1.2162237
0000f0 e9 7b 29 3f a9 e1 26 bd 22 37 1b 3f 42 0a 47 be
       0.66204697 -0.04074255 0.60631 -0.19437507
000100 96 27 84 be 16 79 e3 3f e6 a3 9c 3e 32 5f 5c be
       -0.25811452 1.7771327 0.30593795 -0.21520689
000110 63 d8 8f be dd 6d 45 be 47 2a b5 3e 7a 8f bd be
       -0.28094777 -0.19280191 0.35383818 -0.37023526
000120 68 e4 0e bf d7 f5 1d be d1 3a 73 bf 99 cf a2 be
       -0.5581727 -0.15425812 -0.9501162 -0.3179901
000130 33 83 20 bf ba 16 ee 3e 9c ff 23 c0 87 79 54 3f
       -0.62700194 0.46501714 -2.5624762 0.82997936

bn_in.weight f4 [38]
000000 97 05 79 3f f1 5b 74 3f e2 a0 81 3f 65 d2 78 3f
       0.97274154 0.9545279 1.0127223 0.97196037
000010 06 46 75 3f 1c 4e 66 3f 86 ac 6e 3f 13 2d 6d 3f
       0.9580997 0.89962935 0.93232 0.926469
000020 f2 85 67 3f ec 54 6b 3f 78 1f 72 3f fe c5 71 3f
       0.9043876 0.91926455 0.9457927 0.9444274
000030 e5 3f 6a 3f 7e b1 70 3f 67 85 77 3f e0 f0 71 3f
       0.91503745 0.9402083 0.9668793 0.9450817
000040 17 73 68 3f 23 8a 6a 3f 63 b9 6b 3f 20 f1 7a 3f
       0.90800613 0.9161703 0.9207975 0.9802418
000050 af 14 66 3f 1c 9a 66 3f d7 2b 66 3f 48 ba 68 3f
       0.8987531 0.900789 0.89910644 0.9090924
000060 9e 51 71 3f b8 28 6e 3f f2 a7 6d 3f e7 a9 70 3f
       0.9426516 0.9303088 0.9283439 0.9400925
000070 c9 c4 81 3f 55 b3 73 3f 36 db 71 3f ca 6f 6e 3f
       1.0138179 0.95195514 0.94475114 0.93139327
000080 b0 ea 7b 3f c9 8c 81 3f 0c fc 7e 3f a5 89 82 3f
       0.9840498 1.0121089 0.99603343 1.0198256
000090 3b b3 92 3f 68 40 6e 3f
       1.1460947 0.93067026

bn_in.bias f4 [38]
000000 67 b9 1d ba ee 4b 81 ba 73 9a 0d 3b b5 68 e7 b9
       -0.0006016702 -0.0009864548 0.0021606951 -0.00044137766
000010 db f8 83 3a ca 46 da b7 d5 56 09 3a b6 e5 6d ba
       0.0010068672 -2.6020589e-05 0.0005239074 -0.0009075062
000020 c8 f3 f0 b9 50 89 bd 39 c3 40 ce 39 81 6e ab ba
       -0.00045957998 0.00036151195 0.00039339633 -0.0013079197
000030 1b c3 9e b8 24 7c 5d 3a 52 b3 3c 3a 6d 8f e1 b9
       -7.570368e-05 0.00084489794 0.00071983517 -0.00043022205
000040 7a 3b ae 3a 3c 31 48 ba dd f8 a9 b8 b9 0f e1 3a
       0.0013292872 -0.0007636731 -8.1049024e-05 0.0017170823
000050 31 a6 a8 ba 9a b6 86 ba 32 9a 1a 39 9f ac 92 39
       -0.0012866912 -0.0010277808 0.00014744027 0.00027975903
000060 eb 1f 9a 39 02 9b 3d 36 25 a6 af 39 a6 d2 db ba
       0.0002939695 2.825342e-06 0.00033502388 -0.0016771152
000070 7d 94 13 bb 8c 82 24 b9 04 b6 bb 3a 00 60 93 ba
       -0.0022518926 -0.00015688891 0.0014321213 -0.001124382
000080 86 05 4d 3a d2 f6 0f 3a 72 b8 2b 3a 50 c2 39 b9
       0.00078209525 0.0005491796 0.0006550617 -0.00017715362
000090 34 00 bc bb 54 45 02 ba
       -0.005737329 -0.0004969437

bn_in.running_mean f4 [38]
000000 e5 79 17 bf b0 84 e7 bc da 59 77 be 45 7b 6b bd
       -0.5917037 -0.028261513 -0.2415537 -0.057490606
000010 ad 17 40 3f 9f 34 e1 be ee 2a 9e bf 60 69 25 bf
       0.75036126 -0.4398546 -1.2356851 -0.64613914
000020 35 fc a3 bf ef 90 9c 3f 68 08 af 3f 25 3c 01 be
       -1.2811342 1.223173 1.367444 -0.126206
000030 ad 42 fd bc f5 bf 0f bf 9c 5d b5 3f c4 4e e6 bc
       -0.030915583 -0.5615228 1.4169192 -0.02811373
000040 48 08 ba be 4f a7 7f bf 15 69 28 3f 17 d5 b6 be
       -0.36334443 -0.9986467 0.6578534 -0.3570945
000050 31 2c d7 3e 48 08 cd 3e 0e 88 03 3f fe c7 ed 3d
       0.42025903 0.4004538 0.5137948 0.11610411
000060 d6 9a da be b6 96 56 3d fe c7 58 bf 57 30 9a 3d
       -0.42696255 0.052389823 -0.84680164 0.07528751
000070 93 1e 86 bc 58 63 96 bc 88 69 7b bb 0b b7 43 bb
       -0.016372 -0.018357918 -0.0038362462 -0.002986374
000080 56 c0 4e bc 00 b5 08 bc e3 d2 85 3c 2f 70 99 3c
       -0.012619099 -0.008343935 0.01633591 0.018730251
000090 86 32 92 bc 40 88 fa 3a
       -0.017846357 0.0019114092

bn_in.running_var f4 [38]
000000 82 7e ba 3e ac 8f 3b 3f 94 1c f4 3f 43 27 3d 3f
       0.36424643 0.732661 1.9071221 0.73888034
000010 54 20 df 3e cb 4f 05 3e 27 7b a9 3e 31 94 ad 3e
       0.43579352 0.1301872 0.3310177 0.33902124
000020 d9 07 f3 3d f4 79 94 3e 30 f8 46 3f 70 14 b2 3e
       0.11866731 0.28999293 0.77722454 0.34781218
000030 76 04 e9 3d 22 61 e8 3e 00 a7 03 40 ec 10 19 3f
       0.11377804 0.45386606 2.0570679 0.59791446
000040 c7 08 d8 3e e7 d0 65 3f d5 01 12 3f b6 6f 20 3e
       0.42194197 0.89771885 0.57034045 0.15667614
000050 4d c8 24 3f d5 62 bf 3f 38 aa 1e 3f 84 49 b0 3e
       0.64368135 1.4952036 0.61978483 0.34431088
000060 8f 4a 09 3f b6 7e 25 3f 78 70 34 3f 18 bb 0c 40
       0.5362939 0.6464647 0.70484114 2.1989193
000070 57 cb 75 3f 58 96 76 3f cf 79 7f 3f 94 d9 87 3f
       0.96013397 0.96323156 0.9979524 1.0613275
000080 aa 42 81 3f e9 db 96 3f ba b1 85 3f 05 3b 85 3f
       1.0098469 1.1785861 1.0444863 1.0408636
000090 c6 fe 52 3f f0 41 86 3f
       0.82420003 1.0488873

ensemble_blocks.0.0.weight f4 [128, 38]
000000 e1 6f 98 3d d3 ca 03 be 80 eb d9 bd 38 be da bd
       0.07443214 -0.1287034 -0.10640621 -0.106808126
000010 53 75 ee bd dc 60 0e be 47 e2 1b 3d 4c cd b9 bb
       -0.116434716 -0.13904136 0.03805759 -0.0056702252
000020 cf 7f b1 3c 71 07 68 3d 04 50 a9 3b 60 84 e6 bd
       0.02166739 0.05664772 0.0051670093 -0.11255717
000030 82 ec ec 3d 08 9b 27 3d bc cf 14 be 92 d7 05 3e
       0.11568548 0.040919334 -0.1453237 0.13070515
000040 f2 8e 85 bd c3 e5 10 3d e7 e6 93 3d 06 8a 40 bd
       -0.06521405 0.035375368 0.072217755 -0.04700663
000050 4b 9b 66 bd 10 f4 bb bd 65 55 f4 3d 68 c7 c9 bd
       -0.056300443 -0.091774106 0.1193035 -0.09852487
000060 4a b8 26 be 90 64 03 bd f7 34 ad bd fb e5 2b bd
       -0.16281238 -0.032078326 -0.08457368 -0.041967373
000070 c2 67 1b bd b1 2d 69 bd bb d2 48 be 2b 5c 1b 3d
       -0.037940748 -0.05692834 -0.19611637 0.037929695
000080 ec 45 9d 3c a9 66 95 3d 74 e4 09 be 93 6c 6d bc
       0.01919838 0.072949715 -0.13466054 -0.014491218
000090 56 1b a7 3d 62 33 17 3e b4 6f 5e bd e5 ec c3 3d
       0.08159511 0.14765695 -0.054305747 0.095666684
0000a0 d8 48 cb 3c d0 3b 32 bd 24 2c 16 3e 93 47 ab bd
       0.024815008 -0.043514073 0.14665276 -0.08363261
0000b0 a5 a2 13 bd 26 41 ab 3d 4d df 86 bd 7e b3 59 bc
       -0.03604378 0.083620355 -0.0658556 -0.013287423
0000c0 da f7 b7 bc 8f c2 16 be 81 c0 f0 bd 2c 77 11 be
       -0.022457052 -0.14722656 -0.11755467 -0.14205617
0000d0 b1 59 4b 3d b1 62 e4 bd 2c b3 de bd 78 54 cc bb
       0.049646083 -0.111516364 -0.10874018 -0.0062356554
0000e0 34 19 02 be 5b dc ad bd 4a 68 dc bc 2b b7 09 3e
       -0.12704927 -0.08489295 -0.026905198 0.1344878
0000f0 b8 cd b7 3d c0 be 88 bd d5 9f 78 bc c1 d0 d8 bd
       0.089747846 -0.06677008 -0.015174826 -0.10586692
000100 8f 3a e4 3d fc 16 1b 3e 0e b7 fa 3d ac 9f a4 3d
       0.11143982 0.15145487 0.12241946 0.080382675
000110 1e b9 f2 3d dc b7 22 be 56 51 73 3d 98 4a 74 3a
       0.118517146 -0.1589045 0.05940374 0.00093189767
000120 90 27 9a 3d 12 cc 15 3d 81 53 45 bc 50 23 15 3e
       0.07527077 0.03657157 -0.012043835 0.14564252
000130 82 53 8f bc ff 63 ad 3c 95 60 ca bd 05 38 c4 3d
       -0.017495874 0.021165846 -0.09881703 0.095809974
000140 a2 f6 d0 bd 20 10 5e 3d d0 08 86 bd f5 f0 8b 3c
       -0.102032915 0.054214597 -0.065446496 0.01708267
000150 37 8a 59 3c c2 bb 2b b9 01 47 a8 3d 7d 21 ba bd
       0.013277582 -0.00016377776 0.08216668 -0.09088419
000160 0e 82 3d bc b2 51 42 3d 32 dd 31 3d 1e 27 9f 3c
       -0.011566652 0.047441192 0.04342384 0.019427832
000170 0b 1c 04 be 62 f8 51 bd 0d 45 93 3d e6 cc 16 3e
       -0.12901323 -0.051262267 0.07190905 0.147266
000180 e8 cd 18 3e b3 f2 5f 3d f8 f2 75 3d b8 dc ea 3d
       0.14922297 0.054674815 0.060046166 0.1146788
000190 ef 11 ff 3c 28 fd 06 3e ee f1 e6 bd 2b 73 82 bd
       0.031136481 0.13182509 -0.11276613 -0.06369623
0001a0 dd 73 07 be 0b f2 9c bd 10 13 05 be e4 1e f9 3b
       -0.13227792 -0.076633535 -0.12995553 0.0076025594
0001b0 e4 57 ae bd ed e3 35 bb c3 fa d8 bd 48 7d cf 3d
       -0.085128576 -0.0027754263 -0.10594704 0.101313174
0001c0 93 96 9b be 6f 3f 6f bd a1 e0 fd bc d1 33 0e 3e
       -0.30388317 -0.058410104 -0.0309909 0.13886954
0001d0 50 db bc 3d 2e 36 cf bd 37 a4 83 bd ee 76 2c be
       0.09221518 -0.10117756 -0.06427806 -0.16842243
0001e0 32 aa 9a 3d b7 e7 e1 3d b3 ae e3 bd 1b 0a 84 bd
       0.075519934 0.11030524 -0.111173056 -0.0644724
0001f0 8b 24 04 be 44 ae 36 bd 5b e4 0e bc f0 7d 96 bd
       -0.12904565 -0.044599786 -0.008721436 -0.073482394
000200 71 53 01 be 49 50 c7 3d 48 16 38 be d9 43 06 bd
       -0.12629487 0.0973211 -0.1797725 -0.03277955
000210 33 53 c8 bc 53 4c 66 bc 47 1d aa 3d 53 25 dc 3d
       -0.024453735 -0.014056283 0.083063655 0.107493065
000220 3c de 87 bd a1 0c 17 3e 2d 01 05 be 34 1a 01 3e
       -0.06634185 0.14750911 -0.1298873 0.12607652
000230 2a d4 94 bd d2 4a 79 bd ec b1 87 3d 21 87 6a 3d
       -0.072670296 -0.06086237 0.06625733 0.057257775
000240 cc 90 2b be 1e 88 34 bd 87 a6 e4 3d d4 8e a1 bd
       -0.16754454 -0.044075124 0.11164575 -0.078885704
000250 11 60 69 3d ab f0 ee 3d 11 bd d4 bd 3a 75 cc bd
       0.05697638 0.116669975 -0.10387624 -0.09983297
000260 1b e7 aa 3b 06 61 2a bc 04 e3 f7 3d ff 75 a8 3d
       0.005215538 -0.010399109 0.12103847 0.08225631
000270 bd 47 30 bd 3e 52 6d bc 99 d3 19 3d b8 14 04 3a
       -0.043037165 -0.01448494 0.03755531 0.0005038488
000280 5b ae bb 3a b8 bd a7 bd e5 bd 1e 3d 27 5a 89 bd
       0.001431893 -0.08190483 0.038755316 -0.06706648
000290 e4 e3 c1 3b 0e dd b1 bd e8 65 16 3d 65 db 31 3d
       0.0059170593 -0.08684741 0.03671828 0.04342212
0002a0 bc ca 36 bd 73 6a 10 3d 86 16 a9 bc 8c 0e 5d 3d
       -0.044626936 0.035257768 -0.020640623 0.05396895
0002b0 62 a9 8d 3d 96 c5 a2 3d 19 05 87 3d 41 0f aa bd
       0.06917073 0.07947843 0.06592769 -0.08303691
0002c0 09 06 50 3d 5d d8 c7 3c bc fb 0f 3c 50 15 30 bd
       0.050787006 0.024395162 0.0087880455 -0.042989075
0002d0 6c e7 89 3b aa 1f 29 bd 8a 92 34 3c 5e c0 24 bd
       0.004208496 -0.041289963 0.011021266 -0.04022252
0002e0 17 44 6c bd fc e2 93 bd ea e6 7d bd 84 b1 10 be
       -0.057682123 -0.07221028 -0.061987795 -0.14130217
0002f0 c3 47 a3 be 50 0d b1 3c 0e 31 44 3d 27 79 c7 bc
       -0.31890687 0.021612793 0.047898345 -0.024349762
000300 09 b5 d7 bc f1 54 0b 3e 2a 04 f3 bd 46 e5 af 3d
       -0.026331441 0.13606621 -0.118660286 0.08588652
000310 dc 3e 82 bd 0d e8 0d bd ae 0e 92 bd f3 7c 16 3e
       -0.06359646 -0.03464513 -0.07131706 0.14696102
000320 ee ca 43 bd 05 e1 9a 3c 25 ba 36 bd f1 08 fa 3d
       -0.04780095 0.018906126 -0.044611115 0.12208737
000330 b5 d1 3c 3d d5 f0 2a 3d a0 71 6c bd 45 f2 de bd
       0.04609843 0.04173358 -0.05772555 -0.10886053
000340 d6 c4 75 bd 37 44 c6 3c 82 6b 8a bc 51 90 0a 3e
       -0.06000217 0.02420245 -0.016896967 0.13531615
000350 fc c5 10 bb da 62 0a 3e 4e 27 8a bd 5c c5 9e bd
       -0.0022090664 0.13514271 -0.06745778 -0.07752487
000360 3f 4b d5 3b 89 8c 09 3d df c2 ea bd 3b 10 24 be
       0.006509214 0.03358129 -0.1146295 -0.16021816
000370 ca 0d 94 bd 0c ae 67 3d 74 0b da bd aa c7 d3 3d
       -0.072291926 0.05656247 -0.10646716 0.10340817
000380 f1 7a 97 3d 83 9f 42 be f0 aa 11 3e c7 09 09 3e
       0.07396496 -0.19006161 0.14225364 0.13382636
000390 7b 37 a6 3d 38 93 c1 ba 30 c7 b4 bd b0 c7 24 3e
       0.08116051 -0.0014768606 -0.088270545 0.160918
0003a0 c2 e6 b6 bd e6 ec 43 3d e0 fe fe bd 3b b3 14 be
       -0.08930732 0.047833346 -0.12450957 -0.14521496
0003b0 af 70 65 bc 8f 7e 8d bc 01 b3 99 bd 21 14 0f 3e
       -0.014003917 -0.017272262 -0.075048454 0.13972522
0003c0 b4 a5 af bd f2 ae e3 3d 7e 44 8a bd 6c c7 99 bd
       -0.08576527 0.111173525 -0.06751345 -0.0750874
0003d0 4c 08 b3 bd cf 54 d5 bd 37 09 c2 3d 92 01 20 bc
       -0.08741817 -0.104165666 0.09474414 -0.009765999
0003e0 05 43 43 3d 32 6a 39 3e d4 a8 88 bd b1 1d d3 3d
       0.047671337 0.18106917 -0.066728264 0.103083976
0003f0 28 8f ad bc 90 d1 c2 bd db ca 01 be d3 fb 19 be
       -0.021186426 -0.09512627 -0.1267504 -0.1503747

ensemble_blocks.0.0.bias f4 [128]
000000 42 52 b8 3c e6 f0 93 3d d6 72 e7 3d d9 c3 4c 3c
       0.022500161 0.07223682 0.113012 0.012497866
000010 5c 24 cf bd 81 1f 7f 3d e6 ea e9 bd bf c5 ca b8
       -0.10114357 0.062285904 -0.114217564 -9.668944e-05
000020 7a 53 ea 3d 62 0e af bd 3a 6d 81 bd 16 00 e8 bc
       0.11441703 -0.08547665 -0.063196614 -0.028320353
000030 be 53 99 bd aa 3a 23 be 24 54 17 be 69 aa 6d bb
       -0.07486676 -0.15940347 -0.14778191 -0.0036264902
000040 76 9d 23 bd b0 1e ef bd 18 29 d0 3d 0c 89 7e bd
       -0.03994509 -0.11675775 0.10164088 -0.062142417
000050 19 ca f4 3d b8 b6 06 be 1a cf 1f be 3c fc 88 3d
       0.119526096 -0.13155639 -0.15606347 0.06688735
000060 40 2f 9e 3d 7c 3d f5 bd a7 a4 e6 3c 6e 69 38 bd
       0.07723856 -0.11974618 0.028154684 -0.04502242
000070 61 24 9a 3d d0 33 f9 3d 33 aa 14 bd 69 ac b2 3d
       0.0752647 0.121680856 -0.036295127 0.08724291
000080 a9 b9 f4 3d bc 19 b9 bd 03 5e 9d 3b 66 13 51 3d
       0.11949474 -0.090381116 0.004802467 0.05104389
000090 b9 4c 9d 3d 15 a3 cb bc 44 b7 4d bd a8 1c 84 3d
       0.07680649 -0.024858037 -0.050223604 0.06450778
0000a0 e5 66 e7 3c 99 13 17 bd fe ec 95 3d 94 fa c8 bd
       0.028247306 -0.036883924 0.07320593 -0.09813419
0000b0 de 7c aa 3d 39 87 a9 bc 36 7d c6 bd 67 4e 24 be
       0.08324598 -0.020694362 -0.09691851 -0.16045533
0000c0 b8 35 c5 bd 79 13 fa 3d 64 01 18 be 3c f6 98 3d
       -0.09629387 0.12210745 -0.1484428 0.074688405
0000d0 69 d1 82 3d 48 e2 61 3b d5 b9 dd 3a bc 8e de 3d
       0.06387598 0.003446715 0.0016916344 0.10867068
0000e0 88 62 b6 3d 30 0e b1 bd bf d5 84 bd 1f 2f dd 3c
       0.08905512 -0.08645284 -0.06486081 0.027000008
0000f0 0d 99 13 be 10 22 e5 3d fc eb 9d 3d 20 a8 b9 bd
       -0.14413853 0.111881375 0.07711026 -0.090652704
000100 c0 ee 82 bb 7f b1 b3 3c bd 14 7a bc 95 78 38 bd
       -0.0039957464 0.021935223 -0.015263733 -0.04503687
000110 43 01 7b bc 61 15 65 3d 62 f7 ad 3d 9d ea 5b bc
       -0.015320125 0.05592859 0.0849445 -0.013422635
000120 f5 b1 ad bd e2 38 10 3d f4 58 f6 3d 83 70 41 bd
       -0.08481208 0.035210498 0.12028685 -0.04722644
000130 62 2f 6e bd 5e d0 0d 3e c3 55 23 be 67 74 11 3e
       -0.058150657 0.13849017 -0.15950684 0.1420456
000140 71 f8 c6 3d 2d 04 11 3e 79 35 41 bd b2 70 16 3e
       0.09715355 0.14161749 -0.047170136 0.14691427
000150 71 b6 dc 3c aa 0b 00 3c 0a 9f 08 bd 6a 96 ac bd
       0.026942464 0.007815281 -0.033354796 -0.08427127
000160 7e 34 1b be 6e c4 24 be 47 3d 16 3e c0 f6 cf bc
       -0.15156743 -0.16090557 0.14671813 -0.025386214
000170 94 d6 02 3e a5 39 8b 3d 72 f3 23 be 1a 95 00 be
       0.12777168 0.06798104 -0.16010836 -0.12556878
000180 42 e7 cf 3d b9 30 a9 3c 21 9e 06 be ff 76 c6 3c
       0.10151531 0.020653116 -0.13146259 0.024226664
000190 97 7c ef bc eb 9b 9e bd fc 66 a9 3d b1 de 6c bd
       -0.029234214 -0.07744583 0.08271596 -0.057829563
0001a0 0b b6 07 3e 33 1c eb bd 18 5d d6 bc ed 0c df 3d
       0.13253038 -0.11479988 -0.026167437 0.10891137
0001b0 43 f6 08 3e f6 9b 42 3d 16 4b f5 3c 3a 14 11 3e
       0.13375191 0.047512017 0.02994303 0.14167872
0001c0 20 60 1b bd 1e 8e b4 3d be 72 08 be 7a a7 e5 bc
       -0.03793347 0.08816169 -0.1332502 -0.02803396
0001d0 f5 a0 f9 bd 46 52 01 3e 0e d9 bc 3d 7f c6 9c 3d
       -0.12188903 0.12629041 0.092210874 0.076550476
0001e0 24 9b 39 bd 98 ff b7 bd e8 eb b0 3c 86 73 de 3a
       -0.04531397 -0.089842975 0.021596864 0.0016971685
0001f0 c8 0e 11 be 33 d0 b0 bd 4b 28 de 3d 6e 27 23 3e
       -0.14165795 -0.08633461 0.10847529 0.1593301

ensemble_blocks.0.1.weight f4 [128]
000000 ac 1c 81 3f fe 0c 7b 3f e5 09 89 3f 5e be 79 3f
       1.0086875 0.980667 1.0706145 0.975561
000010 cf d1 87 3f 45 25 84 3f f5 a7 78 3f 01 d8 7a 3f
       1.0610904 1.0323874 0.9713128 0.97985846
000020 37 e2 81 3f ff 1e 7a 3f f1 36 83 3f 80 9e 76 3f
       1.014716 0.97703546 1.0251142 0.963356
000030 16 6d 85 3f 49 96 84 3f e3 c9 7a 3f 51 db 75 3f
       1.0423915 1.0358363 0.97964305 0.96037775
000040 4c cf 70 3f df fc 7e 3f ac 61 77 3f fa 42 84 3f
       0.9406631 0.996046 0.9663341 1.033294
000050 98 c3 7d 3f 87 6b 81 3f d7 61 78 3f c6 48 81 3f
       0.9912658 1.011094 0.9702429 1.0100334
000060 6a 28 83 3f 55 7c 78 3f d4 5f 72 3f b5 fc 79 3f
       1.0246708 0.97064716 0.9467747 0.97651225
000070 81 77 83 3f 8f 83 78 3f 2c 56 79 3f 5d 60 7f 3f
       1.0270845 0.9707574 0.9739711 0.99756414
000080 35 c0 82 3f 6a 42 80 3f 05 49 79 3f bf 98 7e 3f
       1.0214907 1.0020268 0.97377044 0.9945182
000090 3e 8c 7d 3f a0 7f 78 3f 04 a5 80 3f b2 85 7c 3f
       0.9904212 0.9706974 1.0050359 0.986415
0000a0 e0 c7 82 3f 3b d0 84 3f c7 b4 79 3f 3d bb 7d 3f
       1.0217247 1.0376047 0.9754147 0.9911383
0000b0 80 ba 7f 3f 2d 70 75 3f 80 60 81 3f 94 3a 74 3f
       0.9989395 0.9587429 1.0107574 0.95401883
0000c0 98 0b 75 3f 19 3a 80 3f cd f5 82 3f 23 fb 82 3f
       0.95720816 1.001773 1.0231262 1.0232891
0000d0 65 31 7e 3f 65 f6 86 3f eb 58 77 3f 90 5a 78 3f
       0.9929412 1.0543944 0.96620053 0.9701319
0000e0 ef db 86 3f 11 7e 7a 3f 89 51 7a 3f f7 8e 84 3f
       1.0535868 0.9784861 0.9778066 1.035613
0000f0 76 85 75 3f 39 91 7f 3f ac b0 7d 3f f7 24 71 3f
       0.9590677 0.9983097 0.99097705 0.9419703
000100 48 53 80 3f 40 6e 83 3f aa e8 73 3f 2d 98 82 3f
       1.0025415 1.0268021 0.9527689 1.020269
000110 41 df 81 3f 7e 9b 85 3f 6b b9 78 3f 2f c8 7d 3f
       1.0146257 1.0438077 0.97157925 0.9913358
000120 14 f5 73 3f 28 8d 83 3f 1f 45 77 3f 94 a6 83 3f
       0.95295835 1.0277452 0.96589845 1.0285211
000130 8c 0b 81 3f 1f 95 84 3f 22 e7 77 3f 9b 32 7e 3f
       1.0081649 1.0358008 0.96837056 0.9929597
000140 af a9 84 3f ba e3 80 3f 6e e9 79 3f 0d 67 80 3f
       1.0364283 1.0069497 0.9762181 1.0031449
000150 68 61 81 3f 7d b5 7c 3f 58 e1 7d 3f 2c ec 7c 3f
       1.0107851 0.9871443 0.9917197 0.9879787
000160 f0 bf 7c 3f 31 c3 84 3f 70 7f 85 3f 97 1d 7f 3f
       0.98730373 1.0372068 1.0429516 0.99654526
000170 4e 21 7b 3f 7d 1d 82 3f 2d f2 6d 3f b2 1d 83 3f
       0.98097694 1.0165249 0.92947656 1.0243437
000180 03 58 76 3f 80 c1 82 3f a2 2e 81 3f bf 7e 77 3f
       0.96228045 1.0215302 1.0092356 0.96677774
000190 61 11 81 3f a9 d2 78 3f 5b fe 79 3f 2c d1 7c 3f
       1.0083429 0.9719644 0.9765374 0.9875667
0001a0 00 85 88 3f 19 bf 80 3f 6b 29 85 3f ce 11 7d 3f
       1.0665588 1.0058318 1.0403265 0.9885529
0001b0 cd e9 72 3f 78 2d 81 3f 8c 1e 88 3f ab ca 79 3f
       0.94888 1.0092001 1.0634322 0.9757487
0001c0 d7 f6 7c 3f 58 6f 81 3f be c3 80 3f 00 ce 82 3f
       0.9881415 1.0112104 1.0059736 1.0219116
0001d0 76 3f 75 3f d5 27 80 3f 90 62 81 3f cb 16 78 3f
       0.9579996 1.0012156 1.0108204 0.9690978
0001e0 ac ca 7e 3f 93 d9 84 3f c2 91 81 3f 6b 76 73 3f
       0.99528 1.0378898 1.0122607 0.95102566
0001f0 23 97 7b 3f 3a 5b 84 3f f9 12 81 3f 54 eb 7a 3f
       0.9827749 1.034034 1.0083915 0.9801533

ensemble_blocks.0.1.bias f4 [128]
000000 d0 70 42 3b 64 ec ae bc 61 db 47 3c 61 80 8b bd
       0.0029669292 -0.021352954 0.0121983 -0.06811596
000010 33 8a 43 3d a9 94 61 3d d5 96 d9 bc 0c 06 1d bd
       0.04773922 0.055073414 -0.02656118 -0.038335845
000020 8a 2e 18 bc 99 11 29 bd 5f 8e 05 bc be 88 05 bd
       -0.0092884395 -0.041276548 -0.00815162 -0.03260111
000030 20 04 ca 3c f3 5c 03 bc 9c bb 99 3c ba b7 3d bd
       0.02466017 -0.008017766 0.018766217 -0.046317793
000040 1e c9 24 3c 17 41 85 3c 0a 3e 81 bd f3 08 84 3c
       0.010057716 0.016266389 -0.06310661 0.016117549
000050 a4 8b d1 bc 20 76 9c bb ab 2b 48 bc 65 11 23 3c
       -0.025579281 -0.004774824 -0.0122174425 0.009952878
000060 2d 77 06 3d dc f6 e3 bc b2 fb 73 bd 0f 43 f1 bc
       0.0328285 -0.027827673 -0.059566207 -0.029450921
000070 b1 bf a4 bc 84 26 f6 bc 13 8e ed bc 49 e4 e9 bc
       -0.020110937 -0.030047663 -0.02899841 -0.028551238
000080 66 ed 2f 3c 46 33 5a 3a 66 84 b0 bc 55 92 cf ba
       0.010737753 0.00083236804 -0.021547507 -0.0015836457
000090 12 79 25 bc 1d 08 db bb e4 ba f6 bb 26 b6 36 bb
       -0.010099666 -0.006684317 -0.0075296033 -0.0027879565
0000a0 55 f4 07 3c 3e 17 b6 3c 9b f6 19 bd 0c fe 24 bc
       0.008297999 0.02222788 -0.037588697 -0.010070335
0000b0 6e cb ce 3a 8a 7d d9 bc 52 b2 9c bb b0 75 3f bd
       0.001577718 -0.02654912 -0.0047819996 -0.046743095
0000c0 be cc 60 bd fa cf 5a 3d 9c 68 72 ba e5 56 29 3c
       -0.054882757 0.053421 -0.00092471554 0.010335659
0000d0 26 10 de bc 11 f1 0a 3d 90 15 ae bb ac 4a 22 bd
       -0.02710731 0.033921305 -0.005312629 -0.039621994
0000e0 77 7b 28 3d c4 49 27 bb 95 9f 82 bc 13 cd 7e 3b
       0.04113337 -0.0025526145 -0.015945235 0.0038879558
0000f0 a9 4c f4 bc 55 4e dc 39 b8 f1 7d 39 64 ca 2b bd
       -0.02982171 0.00042020032 0.00024218007 -0.04194106
000100 9f 6e 9b 3c ef a5 fd 3c 45 12 13 bd 86 4c 62 3d
       0.018973647 0.030962912 -0.035906095 0.05524876
000110 09 54 13 bd b5 51 23 3b 43 30 7e bc 21 fe cd bb
       -0.035968814 0.0024920527 -0.015514436 -0.006286398
000120 fe 24 65 bd a9 2d a2 3c 2a ea 6e bd 8b 05 a0 bc
       -0.05594348 0.019797163 -0.058328785 -0.019533893
000130 72 d8 02 3b c8 0c 15 3d f8 4d ae bc 72 24 55 3c
       0.0019965437 0.036389142 -0.021277413 0.0130091775
000140 2d 56 e3 3c 6a 78 59 3d 90 f2 c5 bc 3d 3d 9c 3c
       0.027751053 0.05309335 -0.024163514 0.01907217
000150 b2 6d 2f bb 66 b5 42 3b 3e 55 01 3c 0d d4 c5 bc
       -0.0026768264 0.0029710173 0.0078938585 -0.024148965
000160 e6 8b 57 bc ae 61 33 3b 7d 1d c5 3b 1d 0d 31 b9
       -0.013155913 0.0027371454 0.006015478 -0.0001688492
000170 0b cc a0 bc c8 07 14 3d 86 86 59 bd 78 a1 04 bc
       -0.019628545 0.036140233 -0.053106807 -0.008095138
000180 96 0b 38 bd f4 ca 98 ba bd 9b 9a bb 1e 98 4e bb
       -0.044932924 -0.0011657164 -0.0047182725 -0.0031523774
000190 81 a9 82 3c 4a 76 4d bc a2 96 ad bc 70 8d 83 bd
       0.015949966 -0.012540409 -0.021189991 -0.064234614
0001a0 95 69 5b 3d 34 87 c5 3c b9 e6 22 3c 17 47 3c 3d
       0.053567488 0.024112321 0.009942704 0.045966234
0001b0 f2 1e 67 bc 63 44 91 3a 5b a8 f6 3b bb 35 a2 3b
       -0.014106499 0.0011083003 0.0075273938 0.004950253
0001c0 db e6 85 bc 25 73 af bc cc dc 36 3d b4 9c 02 3d
       -0.016345432 -0.02141721 0.044644162 0.031887725
0001d0 cf d0 89 3c b0 55 e5 3b 63 bc 95 3c 89 08 10 bd
       0.0168232 0.00699874 0.018278306 -0.03516439
0001e0 ac 96 0b bd 36 98 67 bc cd ea 91 3c be 1c 3c bd
       -0.03407924 -0.014135411 0.017812157 -0.04592585
0001f0 86 85 e1 bb e9 33 9a 3c f7 e8 8e bd 1c e7 cd 3c
       -0.0068823723 0.01882358 -0.06978028 0.025134616

ensemble_blocks.0.1.running_mean f4 [128]
000000 04 95 ae 3c 74 a4 93 3d d3 40 eb 3d f3 3d 4b 3c
       0.02131129 0.07209101 0.114869736 0.012404907
000010 92 73 ca bd 9e e8 7a 3d 74 e7 e9 bd af 9f 9c 3a
       -0.098853245 0.061256997 -0.11421099 0.0011949445
000020 78 d5 e7 3d f7 35 b1 bd 5f b8 80 bd c6 11 ed bc
       0.11320013 -0.08652871 -0.06285166 -0.02893914
000030 af cd 95 bd 72 eb 21 be 9e 82 15 be 9c 14 98 bb
       -0.07314622 -0.15812472 -0.14600608 -0.0046411287
000040 15 ef 2a bd 10 21 ee bd a9 6d d3 3d 0b df 75 bd
       -0.041731913 -0.116274 0.103236504 -0.060027163
000050 e8 20 f6 3d 5a ce 05 be 35 49 20 be 37 a7 89 3d
       0.12017995 -0.13066998 -0.15652926 0.06721347
000060 af bf 9f 3d 91 9a f0 bd 12 c8 e5 3c 5b 44 35 bd
       0.078002326 -0.11748231 0.028049503 -0.044254642
000070 8d e6 9c 3d 64 04 fb 3d 95 83 17 bd 09 af b6 3d
       0.076611616 0.12256697 -0.03699072 0.08920104
000080 25 80 f2 3d 1b 7d b5 bd db 66 9d 3b b0 06 55 3d
       0.11840848 -0.088617526 0.004803521 0.05200833
000090 86 ea 9d 3d ef b5 d0 bc da ef 4c bd bf fd 81 3d
       0.077107474 -0.025477378 -0.050033428 0.06347226
0000a0 84 b7 de 3c 5e 76 14 bd 25 11 95 3d f0 69 c9 bd
       0.027187116 -0.036245696 0.07278661 -0.09834659
0000b0 d7 d5 ad 3d 68 40 ac bc c9 73 c7 bd 87 80 23 be
       0.08488052 -0.021026805 -0.09738881 -0.15966998
0000c0 b4 e7 c4 bd bf cf f5 3d 41 3f 17 be fc 27 9c 3d
       -0.09614506 0.12002515 -0.14770223 0.07624814
0000d0 b5 0f 7e 3d 28 73 a4 3b d6 79 8a 37 74 ae dc 3d
       0.0620267 0.0050186105 1.6507616e-05 0.10775462
0000e0 0e 2b bb 3d eb 66 ad bd cb 88 83 bd f1 b0 d7 3c
       0.091390714 -0.08466896 -0.064225756 0.02632949
0000f0 24 7f 13 be 2b 90 e4 3d ef 86 9f 3d 63 a2 b8 bd
       -0.14403969 0.1116031 0.077894084 -0.09015348
000100 85 f7 d5 ba 88 6c c5 3c 11 62 6c bc 3c 02 32 bd
       -0.0016324377 0.024099603 -0.014427678 -0.043459162
000110 09 64 73 bc e6 eb 6c 3d 99 97 b0 3d 54 ef 4e bc
       -0.014855393 0.057842158 0.08622665 -0.012630302
000120 0f 36 ae bd 4d 60 13 3d 29 b9 f6 3d 57 5f 3c bd
       -0.085064046 0.03598051 0.12047035 -0.04598936
000130 b1 42 6f bd 83 62 10 3e cf a8 23 be dd 1d 13 3e
       -0.05841321 0.14100079 -0.15982364 0.1436686
000140 9a 3f cb 3d 32 b1 12 3e 14 74 43 bd a4 03 18 3e
       0.099242404 0.14325407 -0.047718123 0.14845139
000150 bb 00 ee 3c ce 6a ec 3b 71 f0 09 bd b2 c2 af bd
       0.029053083 0.0072148805 -0.03367657 -0.08582057
000160 cf ec 1a be 5a 3a 24 be b1 c7 17 3e 39 65 c5 bc
       -0.15129398 -0.16037884 0.1482227 -0.024096118
000170 cf e5 02 3e a2 08 89 3d c4 81 24 be 50 16 00 be
       0.12782978 0.066911 -0.16065127 -0.12508512
000180 20 4e ce 3d 0f 47 a6 3c b6 49 07 be dc 0c c8 3c
       0.10073495 0.020297555 -0.13211712 0.024420194
000190 8e 36 fa bc 6c 81 9f bd c2 df a7 3d 42 ba 68 bd
       -0.030543592 -0.07788357 0.08196975 -0.056818254
0001a0 f6 3d 09 3e f3 43 e6 bd 64 94 c6 bc 30 84 e3 3d
       0.13402542 -0.11243429 -0.02424068 0.11109197
0001b0 78 a8 07 3e 02 00 47 3d 59 ca ff 3c 2f a5 11 3e
       0.1324786 0.04858399 0.031224417 0.14223169
0001c0 a6 50 21 bd 40 40 b7 3d 58 38 07 be 37 a3 d4 bc
       -0.039383553 0.089478016 -0.13205087 -0.025956733
0001d0 55 1d fc bd de 3e 00 3e 25 6b b9 3d 5b 63 9b 3d
       -0.12310282 0.12523982 0.09053639 0.0758731
0001e0 a0 0d 37 bd 3d c2 b4 bd 11 65 b8 3c c3 00 e1 3a
       -0.04469073 -0.088261105 0.02250913 0.0017166365
0001f0 97 a7 11 be 03 c2 ae bd 1a 93 df 3d 59 f2 21 3e
       -0.14224087 -0.085330985 0.10916729 0.15815105

ensemble_blocks.0.1.running_var f4 [128]
000000 4e f8 8d 3e bc 04 d9 3e d9 bf c9 3e e8 fe 90 3e
       0.27728504 0.42386425 0.3940418 0.28319478
000010 89 b4 54 3e c4 8e 4e 3e 49 0d 4d 3e 7c 97 db 3e
       0.20771994 0.20171648 0.20024599 0.4288901
000020 a8 d0 b0 3e d4 f5 a8 3e 8b 6a 8d 3e f2 31 8e 3e
       0.34534192 0.33000052 0.27620348 0.2777248
000030 fd 68 92 3e f0 2a 39 3e e9 90 71 3e ef 68 f6 3e
       0.28595725 0.18082786 0.23590435 0.48126933
000040 52 6d 84 3e b1 67 11 3f 5e dc f6 3e da 76 e9 3e
       0.25864655 0.56798846 0.48215002 0.4559849
000050 e6 cf ec 3e 4b 25 f5 3e 42 75 92 3e a0 06 79 3e
       0.46252364 0.47880015 0.28605086 0.24318933
000060 08 65 2c 3e 3b 34 a8 3e 0f 44 1c 3f 58 ab d4 3e
       0.16835415 0.3285235 0.6104135 0.41536975
000070 4d d8 09 3f cd f1 61 3e 4f 58 f7 3e e1 78 da 3e
       0.53845674 0.22064896 0.48309562 0.42670348
000080 a0 b4 f6 3e 22 45 b2 3e ba 72 ab 3e 0c 91 77 3e
       0.4818468 0.3481837 0.33485967 0.24176425
000090 66 09 92 3e ac 0b cb 3e 95 31 ac 3e 91 1b e9 3e
       0.28522795 0.39657342 0.33631578 0.45528844
0000a0 df ae 4f 3e ad 02 5e 3e 6c 1a 84 3e 3d 59 bb 3e
       0.20281552 0.21680708 0.25801408 0.3659152
0000b0 97 50 71 3e c0 d4 71 3e b4 d9 b7 3e d9 9d af 3e
       0.23565899 0.23616314 0.35908282 0.34300116
0000c0 89 31 b1 3e 31 e8 24 3e 0f 5b 8d 3e 22 a6 ac 3e
       0.34608105 0.16104199 0.27608535 0.337205
0000d0 8d b3 02 3f 64 e1 ae 3e 2d ae 06 3f 3e 4e aa 3e
       0.5105522 0.34156334 0.5260952 0.3326282
0000e0 bd 08 8a 3e 5d d9 19 3f 08 4d 20 3f 72 61 94 3e
       0.26959792 0.60097295 0.6261754 0.28980595
0000f0 dc e7 bc 3e fe 6d 99 3e b0 94 da 3e 80 d0 83 3e
       0.36895645 0.2996673 0.42691565 0.2574501
000100 d7 e4 66 3e 97 ed ad 3e 49 de cc 3e d0 07 b3 3e
       0.22548233 0.3397033 0.4001334 0.34966898
000110 dd c9 9e 3e d7 f9 9a 3e f9 cb 01 3f 75 d1 ad 3e
       0.31013384 0.30268738 0.5070186 0.33948866
000120 7b 79 d6 3e fc c9 94 3e 8a 72 67 3e 81 4c 36 3e
       0.41889557 0.29060352 0.22602287 0.17802621
000130 fe 88 e5 3e e0 27 e8 3e dc 0a cc 3e bb fb 87 3e
       0.4483108 0.45342922 0.39852035 0.26559243
000140 e9 d0 b1 3e 93 b4 70 3e 6d 47 9a 3e 14 32 93 3e
       0.34729698 0.23506384 0.3013262 0.28749144
000150 9b cb 96 3e b5 c4 ce 3e 4a 2f 91 3e ed b0 5e 3e
       0.29452214 0.4038445 0.2835639 0.2174718
000160 3c fa 95 3e d8 cb 0b 3e c6 c3 96 3e 79 86 0d 3f
       0.29292476 0.13651979 0.29446238 0.55283314
000170 10 c4 1f 3e 16 83 0f 3e 57 07 3a 3f 37 d6 ee 3e
       0.15602136 0.14014849 0.7266745 0.46647808
000180 e0 e9 f8 3e 58 3e 84 3e 1b 7c 42 3e 9d e3 47 3e
       0.48615932 0.25828815 0.18992655 0.19520421
000190 60 98 a6 3e 50 fb b6 3e c1 27 e9 3e 03 4a b4 3e
       0.32538128 0.3573861 0.45538142 0.35212716
0001a0 d2 32 66 3e d5 36 db 3e 6a ce b6 3e c5 06 5f 3e
       0.22480324 0.4281527 0.35704356 0.21779926
0001b0 4b 6b 40 3e 74 6b c1 3e ff db ca 3e 0b e8 a2 3e
       0.18790929 0.37777293 0.3962097 0.3181766
0001c0 c7 f9 7c 3e 00 ae 8f 3e e1 00 ba 3e 59 d6 f7 3e
       0.24704657 0.2806244 0.36328796 0.48405722
0001d0 f2 88 88 3e 69 01 90 3e 94 ea 9a 3e 8c 02 9b 3e
       0.2666698 0.28126076 0.30257094 0.3027538
0001e0 da 53 4f 3e ca 09 9a 3e 87 18 d3 3e 43 17 ea 3e
       0.2024683 0.30085593 0.4122965 0.45720872
0001f0 84 5b 92 3e 16 49 88 3e de 6e 3d 3e 61 06 37 3e
       0.28585446 0.2661826 0.18499324 0.17873527

ensemble_blocks.0.4.weight f4 [128, 128]
000000 f7 08 0f bb b4 3e a9 3d c8 b9 c9 3d 4a 02 37 3d
       -0.0021825412 0.08263913 0.09849888 0.044679917
000010 a1 ed bd 3c ee 71 16 bd 9c 4c 89 3d 8b 97 83 3d
       0.0231846 -0.036729746 0.06704065 0.06425389
000020 d6 57 06 3c f3 e4 17 bd cc b8 34 3d 69 4a db bc
       0.008199653 -0.037083577 0.04412155 -0.02676888
000030 df a4 a6 3d 61 43 05 3d 5f 8b 9b 3c 04 4c 95 bd
       0.081369154 0.03253496 0.018987356 -0.072898895
000040 f7 eb 61 bd 3b 0f 1c bd 7d ef 1d 3d 29 10 94 3d
       -0.055156674 -0.038100462 0.038558472 0.07229645
000050 e3 4d 71 bc 8c 82 d2 3d fe a0 6e bd 6e 9d 98 3c
       -0.014728042 0.10278806 -0.058259003 0.018629756
000060 ac a6 f6 bb 55 b1 78 3d c8 60 3d 3d dd 4f 9e 3b
       -0.007527193 0.060715992 0.046234876 0.004831298
000070 b3 0d 8f 3d d8 f0 f3 3c a7 1e b2 3c aa 99 2a 3d
       0.06985035 0.02977793 0.021743132 0.04165045
000080 07 99 4d bc 26 8d 1c 3c 27 d3 27 bd 9b af ad bc
       -0.012548692 0.009555137 -0.040972855 -0.0212019
000090 e9 56 5c 3d 66 d9 c7 3c b7 af 83 3c e7 a4 9a bc
       0.05379382 0.024395656 0.016074998 -0.01887746
0000a0 ec 8d 18 3b 09 a6 e4 bc 5c 6d 5d 3d 39 18 af 3d
       0.0023277951 -0.027911203 0.05405937 0.08549542
0000b0 d6 16 58 3d 56 df 3a 3d 36 3a 17 bb ac bf 15 3d
       0.052756153 0.045623146 -0.0023075468 0.036559746
0000c0 36 dc c9 bc a2 25 6c bd 1f 63 76 3d 7e 39 a3 bd
       -0.024641138 -0.057653077 0.060153123 -0.0796995
0000d0 32 b8 36 3d 67 26 b0 3c 97 10 d7 bd 18 27 8a bd
       0.044609256 0.021502687 -0.10501211 -0.06745738
0000e0 80 b1 9a 3d dd b0 86 3b de 59 0f 3c 6f da 37 bd
       0.07553387 0.004110439 0.008749453 -0.04488605
0000f0 fa 5f cb 39 20 47 de 3b 23 b3 08 bd bb b1 4f bc
       0.00038790685 0.006783381 -0.033373963 -0.012676652
000100 e9 7d 43 bd bd b2 0a 3d be 30 6a 3c 8c 0f 90 3d
       -0.0477275 0.033861864 0.014293848 0.07034215
000110 64 d7 78 3d e1 33 bc 3d b1 04 54 bd 3a 55 9a 3c
       0.060752288 0.091895826 -0.051762287 0.018839467
000120 6a 29 82 bd b1 47 be 3d ba cf ba bc d8 50 f3 3c
       -0.06355555 0.09291018 -0.02280413 0.029701635
000130 7f 24 9a 3d f0 26 f3 3c ec 42 79 3d 59 9f a2 bd
       0.07526492 0.029681653 0.060854837 -0.079405494
000140 77 10 7f bd b9 f9 80 bc e6 42 8e bd b6 36 9e 3d
       -0.06227156 -0.015744077 -0.069463536 0.07725279
000150 9a 12 22 3d a7 b9 85 3c 2f bc 5a 3c a2 80 9e bd
       0.03956852 0.016323877 0.0133505305 -0.077393785
000160 b3 68 77 3b 6b d0 0d 3d 3c 8b 1f 3d cd 0e 57 3d
       0.0037751615 0.03462259 0.038951144 0.05250435
000170 57 2c dd 3c 6f 8b 45 bd dc 2b af bd d1 14 aa 3d
       0.026998682 -0.048228677 -0.085532874 0.08304752
000180 d6 37 95 bd c8 01 a8 bd de 0d 3b 3d ac de ae bc
       -0.072860405 -0.08203465 0.04566752 -0.021346413
000190 76 c2 30 3d b7 d1 76 3d 24 b0 8a 3c 8f 03 8e 3d
       0.043154202 0.060258593 0.016929694 0.069342725
0001a0 b4 f3 d0 3d 75 16 bf 3d 17 3e b1 3c df 2e 78 3d
       0.10202733 0.09330455 0.021636052 0.060591575
0001b0 3d ca 41 bd fb 82 01 3d 51 44 27 3d 9a 58 53 3d
       -0.04731201 0.031619053 0.040836636 0.05159817
0001c0 d4 94 b5 bc b9 5c 67 bc 62 74 ad 3d 2f a0 c0 3c
       -0.022165693 -0.014121228 0.08469464 0.023513881
0001d0 a5 7d 1f bd 23 d4 9e 3c 29 88 03 bd f9 29 f6 3b
       -0.038938183 0.019388264 -0.032112274 0.0075123277
0001e0 73 79 3c bd 53 c2 9e 3d f2 71 24 bd 89 a7 3d 3d
       -0.04601426 0.07751908 -0.04014773 0.046302352
0001f0 26 aa 59 3c 65 ef a2 3d 58 31 ac bd 25 92 43 3c
       0.013285195 0.07955817 -0.08407849 0.011936699
000200 8a fb 00 be 8c 9d 9a bd 63 ce de bc 4c c1 01 3d
       -0.12595955 -0.07549581 -0.027198022 0.031678483
000210 5e 8e 57 3d f1 54 e3 bd 33 f1 46 3d 82 d9 91 3d
       0.052626006 -0.11100186 0.04856987 0.071215644
000220 d8 04 57 bc 2c 09 7a bc 53 c7 ee bd 23 e2 e2 bd
       -0.013123713 -0.015260976 -0.11659112 -0.110782884
000230 75 2d 0c 3d ac a2 3e ba 43 53 09 bd e6 36 9a 3c
       0.03422304 -0.0007272165 -0.03352667 0.018825006
000240 94 66 1e 3d e3 04 a3 3b 2a 38 03 bd 63 43 18 bd
       0.038672045 0.004974948 -0.032035984 -0.03717364
000250 a7 a2 9c 3d f4 20 95 3d 4f 7e c5 bc f1 7a 16 3b
       0.07648211 0.07281676 -0.02410808 0.0022961462
000260 c1 df 0b 3d fd 15 81 bd 73 5c 0b 3d 3a 72 54 bd
       0.034148935 -0.06303022 0.034023713 -0.051866747
000270 65 8f 75 bd 57 8a 73 bd 0b 41 aa 3d 20 cd 92 3c
       -0.059951205 -0.059458103 0.08313187 0.017920077
000280 e3 70 44 3d a7 2b e5 bb cb 2d 60 bd 6d 87 b2 bc
       0.04795922 -0.006993729 -0.05473117 -0.021793092
000290 81 30 82 bc f7 cd 6b 3d 16 38 df bd ac 84 8b bc
       -0.01589227 0.05756947 -0.108993694 -0.017031036
0002a0 08 67 c6 bd 06 17 2d bd 33 cf 79 bd 45 75 7e bc
       -0.096876204 -0.042258285 -0.060988616 -0.015530889
0002b0 ff fd a9 3d f3 5d 42 3c 26 a6 4c bd 8a 4a 5c bd
       0.08300399 0.01186322 -0.04996314 -0.053782023
0002c0 b8 1f 92 3c 3a b6 15 3d 35 db 71 3c 59 ad eb 3c
       0.01783739 0.036550738 0.014761736 0.028769182
0002d0 f6 00 5e bc c4 3c c3 3c 36 cb 48 3d 98 28 34 bd
       -0.013550034 0.023832686 0.049021922 -0.043984026
0002e0 69 18 b9 3d 1b ad 74 3d c4 fb 8a bd 9e d9 bf bd
       0.09037859 0.0597354 -0.06786302 -0.09367679
0002f0 a9 c1 0f 3c 53 c6 99 bd 4b 0c 19 3d fb 4f 6e bd
       0.0087741995 -0.075085305 0.03736524 -0.058181744
000300 42 58 32 bb 70 7d 89 3c b2 82 98 3d 4c 92 97 bd
       -0.002721325 0.016783446 0.07446803 -0.07400951
000310 cb 3e 83 bd 05 ff a0 3d 09 84 48 bc 96 9b 89 3d
       -0.06408461 0.07861141 -0.012238511 0.06719129
000320 0f 37 94 bb 6c 76 99 3d 7f 79 80 3d 08 3e 7a 3d
       -0.004523165 0.0749329 0.062731735 0.061094314
000330 da 70 bc 3b f9 6b 9e bb 49 1c 9d 3d 2b 1e 0f bd
       0.0057507576 -0.0048346487 0.076714106 -0.03494088
000340 e4 02 e6 bc f9 17 98 3d 87 ac 3a bb 59 55 e9 3d
       -0.02807755 0.074264474 -0.0028484182 0.11393232
000350 1d 2f cf bb 3a 87 09 3d fc cb 46 bd 31 cb 1e 3d
       -0.006322755 0.033576228 -0.04853438 0.038767997
000360 d6 74 98 bd 24 43 00 3e b5 cb 8c 3d b8 3d 79 bd
       -0.0744416 0.12525612 0.068747915 -0.060849875
000370 a2 fd bc bd 5b 13 f8 3c 8e 73 8a bd 59 91 84 3d
       -0.09228064 0.030282667 -0.067603216 0.06473035
000380 a1 ac 9e bd 1e 89 66 bd da 7a d2 bc e8 81 a6 bd
       -0.0774777 -0.05628311 -0.025693346 -0.081302464
000390 21 dd 3b bd cd 76 20 bd a6 35 43 3d 38 2d 21 bd
       -0.04586518 -0.039175797 0.047658585 -0.039349765
0003a0 a8 e0 ce 3d 82 26 1a bc 55 d8 0b bd 2b 9f 65 3d
       0.101014435 -0.009408595 -0.034141857 0.056059998
0003b0 5c 8d 8d bd 82 7a 3d 3c 65 16 13 3b 2d 88 4f 3d
       -0.06911728 0.011564853 0.0022443768 0.050666977
0003c0 6d 42 f1 3b fb 45 80 3a 59 ec c5 ba 67 c2 08 bd
       0.007362655 0.0009786481 -0.0015100344 -0.03338852
0003d0 63 54 89 3c a2 bd 82 bd 26 52 ac bd c4 e2 84 3d
       0.016763872 -0.06383826 -0.08414106 0.064885646
0003e0 b6 73 05 bc a6 45 86 bc c4 c0 90 3b 9a 80 00 3d
       -0.008145263 -0.016390633 0.0044175107 0.031372644
0003f0 90 4d 76 3b f0 0e ce 3d 1d 89 51 3d a2 28 56 3d
       0.0037582852 0.10061443 0.051156152 0.052284844

ensemble_blocks.0.4.bias f4 [128]
000000 98 26 5c 3c 25 cf 72 bd cb 65 4a 3d 0c 9b 82 bc
       0.013436936 -0.05927958 0.049413484 -0.015943073
000010 ae cd 2f 3d 99 c8 1c bd 5e 12 46 3d 0f d2 0b 3d
       0.04292076 -0.038277242 0.04835736 0.034135874
000020 bc 7b 79 3c d2 19 b2 bb 93 04 4c bd f3 28 3d bd
       0.0152272545 -0.005435207 -0.04980905 -0.04618163
000030 75 36 75 bb 91 cc 8e 3c b3 df 76 bd 66 14 9d bd
       -0.0037416492 0.01743153 -0.06027193 -0.07669906
000040 a5 5e 54 bc d6 d6 a5 bd ad 1d 4a 3c 15 af 6c bd
       -0.012962018 -0.08097617 0.012336177 -0.05778416
000050 59 77 52 3d 61 f2 a2 3a 92 10 84 3d 6b 36 1d bc
       0.05138335 0.0012431854 0.06448473 -0.009595494
000060 27 41 8e bd dc 0b 0f bd c7 2a 62 bd 06 e3 9e 3d
       -0.069460206 -0.03492342 -0.055216577 0.07758145
000070 36 8d 12 3d eb 56 30 bd 9a b7 6c 3b c6 d5 08 bd
       0.0357792 -0.04305164 0.0036120177 -0.033406995
000080 4c 26 0a bd 4b 85 1a 3d 4e f0 95 bd 5e e3 1f bc
       -0.03372793 0.037724774 -0.07321225 -0.009758798
000090 3d de 97 bb 1d 7c 28 bd 0c b8 24 bd ff 98 c5 3c
       -0.004634647 -0.04113399 -0.040214583 0.024120806
0000a0 5a 56 75 3b 1a 85 ac bd 90 ab 16 3d 50 52 a5 bd
       0.0037435503 -0.084238246 0.03678471 -0.080723405
0000b0 1f f7 7b bb 93 2a 3f bd 17 f3 27 3c d1 43 84 bd
       -0.0038446856 -0.04667146 0.010250828 -0.064582475
0000c0 95 2a 94 3d 90 ad 5a 3d 0e f5 02 3d da 46 ab 3d
       0.072346844 0.05338818 0.031971984 0.08363123
0000d0 56 c1 2e bd b8 60 fa 3c be 57 07 3d 21 07 39 3d
       -0.04266485 0.030563697 0.03304266 0.045172814
0000e0 9e ce a3 bd 91 59 96 bd 16 94 b0 3d 52 53 4a bd
       -0.079983935 -0.07341302 0.08621995 -0.049395867
0000f0 6f a5 af bd 87 78 91 bd 1d c9 28 bd 20 4a 9e bb
       -0.08576476 -0.07103067 -0.04120742 -0.0048306137
000100 b9 de c3 bc 9f 9e 99 3c b1 59 df 3c fa 8c db 3c
       -0.023909913 0.018752394 0.027264448 0.026800621
000110 c9 c3 7e bc 44 6f a1 bd c8 2d 9d bd d8 77 6e bd
       -0.0155496085 -0.0788255 -0.07674748 -0.05821976
000120 a3 7c a6 bd 88 59 d3 bc 56 33 2b bc 52 24 a5 3d
       -0.08129241 -0.025799528 -0.010449251 0.08063568
000130 a5 b5 01 bc a2 b0 0f bc e3 d6 41 bd 75 e5 29 bd
       -0.007916843 -0.00877014 -0.047324073 -0.041478593
000140 00 46 fb 3c 82 01 a7 3c ee dc a5 3d 73 33 a4 3d
       0.030673027 0.020386461 0.080987796 0.08017626
000150 a2 5c af bd 83 6c 91 b8 5a af 5c bd b4 dc aa 3d
       -0.0856259 -6.934351e-05 -0.053878166 0.08342877
000160 09 f1 3b 3d 41 60 83 bc 1d 4a 87 3d 5d ce a4 bc
       0.045884166 -0.016037108 0.06605933 -0.020117933
000170 4e 9e c6 bc 61 a2 01 bc 9d 69 c8 bc d6 72 7c bd
       -0.024245407 -0.007912249 -0.024464423 -0.061632954
000180 ae 10 af 3d 73 c2 a9 bd f7 10 fb 3a 78 82 55 bd
       0.08548103 -0.08289041 0.0019154836 -0.052126378
000190 27 0b aa bd 06 c3 30 bd c2 86 52 3d 30 83 ff 3c
       -0.083029084 -0.04315474 0.051398046 0.031190485
0001a0 21 f6 ac 3a 46 fa 88 3d b8 67 97 3d 18 17 85 3d
       0.0013195911 0.06688361 0.0739283 0.064985454
0001b0 7a 55 f2 bc 4c b1 88 3d fa d2 73 3d a8 b4 a4 bd
       -0.029581774 0.06674442 0.059527375 -0.0804227
0001c0 dd ec 57 bd 78 17 04 3d dd 6a 1e 3d 82 63 a8 3d
       -0.052716125 0.032248944 0.03867613 0.082221046
0001d0 1c 43 8c 3d 2c 44 73 bd c2 ce 43 bd 58 57 34 bd
       0.068487376 -0.059391186 -0.0478046 -0.04402861
0001e0 7a 55 f5 3a f0 20 4b 3d e8 6b 9a bd de 1e 2d bd
       0.0018717491 0.04959196 -0.07540113 -0.042265765
0001f0 cc 00 40 bd fb bc 5c bc bc 2b 93 3d 11 8f 60 3d
       -0.04687576 -0.013472791 0.07186076 0.05482394

ensemble_blocks.0.5.weight f4 [128]
000000 06 c0 92 3f b5 1c 8c 3f b5 31 8a 3f 7f fd 8c 3f
       1.1464851 1.0946261 1.0796419 1.1014861
000010 da 41 78 3f b9 9b 81 3f 97 85 8c 3f 6a d4 8d 3f
       0.9697548 1.0125648 1.0978268 1.1080449
000020 94 ef 8c 3f 78 6c 91 3f c4 7c 7c 3f 89 aa 94 3f
       1.1010613 1.1361227 0.9862788 1.1614543
000030 4c d6 93 3f c4 ac 77 3f 22 46 8c 3f 22 d0 8c 3f
       1.1549773 0.96747994 1.0958903 1.1001017
000040 a7 1f 8b 3f 16 24 8d 3f f0 bd 81 3f a2 c6 89 3f
       1.0869035 1.1026638 1.0136089 1.0763743
000050 3a f0 79 3f cb 72 84 3f f2 d6 8d 3f b5 6b 8b 3f
       0.9763218 1.0347532 1.1081221 1.0892245
000060 db 2c 79 3f b8 13 7d 3f cd f8 8b 3f 5a a9 8b 3f
       0.9733407 0.98858213 1.0935303 1.0911057
000070 95 71 8e 3f 00 b7 76 3f 9c 29 90 3f 71 21 90 3f
       1.1128412 0.96372986 1.1262698 1.1260206
000080 45 af 8b 3f 08 69 90 3f 5b fb 76 3f f2 9c 7c 3f
       1.0912863 1.1282053 0.9647729 0.9867698
000090 58 43 78 3f 60 d9 8c 3f a1 54 8b 3f c8 54 93 3f
       0.9697776 1.1003838 1.0885202 1.1510248
0000a0 55 f8 80 3f 8a 13 8c 3f f2 53 90 3f bf 7d 78 3f
       1.0075785 1.0943463 1.1275618 0.97066873
0000b0 e4 93 79 3f 08 da 8d 3f 14 b3 7a 3f 1c 13 8c 3f
       0.9749129 1.1082163 0.979295 1.0943332
0000c0 0a d8 78 3f 51 b7 8c 3f c8 9d 8c 3f 3b 15 8e 3f
       0.9720465 1.0993444 1.0985651 1.1100229
0000d0 2e 98 8b 3f 41 52 8d 3f 81 67 8e 3f bc 56 77 3f
       1.0905817 1.1040727 1.1125337 0.9661672
0000e0 d4 0b 8b 3f de 2c 8e 3f 05 f4 77 3f 93 74 8c 3f
       1.0862985 1.1107442 0.9685672 1.0973076
0000f0 3b 6a 78 3f 53 f3 75 3f 0f 0e 7c 3f f5 59 78 3f
       0.97037095 0.9607441 0.9845895 0.97012264
000100 86 a1 8e 3f 0f a1 8c 3f 8f 4d 8e 3f c2 ca 78 3f
       1.1143043 1.0986651 1.1117419 0.97184384
000110 6e f0 78 3f e9 22 78 3f f9 89 8b 3f e3 88 8a 3f
       0.97241867 0.9692827 1.0901481 1.0823025
000120 a1 e7 76 3f 37 9c 7f 3f d1 cd 8d 3f 8d c6 8b 3f
       0.9644719 0.9984774 1.1078435 1.0919968
000130 90 a8 82 3f b9 d4 77 3f 5b cd 76 3f 7e 73 8b 3f
       1.0207691 0.96808964 0.964071 1.089462
000140 cb 80 91 3f bc ec 8b 3f c4 81 77 3f 21 77 8c 3f
       1.136743 1.0931621 0.9668238 1.0973855
000150 f2 f0 78 3f bb 79 75 3f 53 96 78 3f dc aa 8e 3f
       0.97242653 0.9588887 0.97104377 1.1145892
000160 1c bc 76 3f e3 fd 90 3f cc 2d 8e 3f 47 71 77 3f
       0.9638078 1.132748 1.1107726 0.9665722
000170 77 9a 78 3f 40 6f 8a 3f 46 5d 90 3f 7f 92 8b 3f
       0.97110695 1.0815201 1.1278465 1.0904082
000180 27 b0 8a 3f cb cf 89 3f c8 6a 76 3f e8 ed 8e 3f
       1.0835007 1.0766538 0.96256685 1.1166353
000190 87 56 81 3f ab df 91 3f 34 aa 8d 3f ca 56 8c 3f
       1.0104531 1.1396383 1.1067567 1.0963986
0001a0 dc 37 79 3f 78 6a 7c 3f 4c 51 8c 3f 4d 50 92 3f
       0.9735086 0.9859996 1.096231 1.1430756
0001b0 bd a0 93 3f f3 ca 8d 3f 9b 27 90 3f a0 66 76 3f
       1.1533428 1.107756 1.1262087 0.96250343
0001c0 07 fb 8e 3f 2e 95 8b 3f 54 3d 92 3f 44 11 7f 3f
       1.1170357 1.0904901 1.1424966 0.9963572
0001d0 7b a3 81 3f 9a 0d 77 3f 98 e2 8b 3f ab ff 76 3f
       1.0128015 0.9650513 1.0928526 0.9648387
0001e0 8d df 8c 3f a6 1f 78 3f 36 2b 8b 3f 72 89 8c 3f
       1.1005722 0.9692329 1.0872562 1.0979445
0001f0 65 fd 8b 3f c3 be 7b 3f ea f0 88 3f db 0b 78 3f
       1.0936705 0.98337954 1.0698521 0.9689309
