backend/models/tabm_k4.pt (torch, 388927 bytes, 63 tensors)

embedding.embeddings.0.weight f4 [10, 4]
00000000: 76af 09bf 55b5 07bf feaa 663d e7d9 91bf
00000010: 1322 b6bf 56fd 8abf cc3d 503f 09cd 283d
00000020: d8b1 74bf b827 7abf d48a 96be 82d6 0d3d
00000030: 9dac 39bf 7000 a73e 1e93 3b3f 7bd0 c13f
00000040: 02f9 8d3f 2921 0e3f 5de7 1abf c937 7bbf
00000050: 82a1 8e3e 577b 39bf 9594 863e 59a4 113f
00000060: 3a9f 0a40 78b1 2cbf 0ff8 db3e d1ce 9b3f
00000070: 4fb0 703e 7457 59be 1793 0b3e 8beb 00c0
00000080: b5e6 00bf 4381 4d3e 3773 71be 1e17 1cbf
00000090: 3a5e f7be a33c e33f d736 dabf 2126 993e
-0.5378336 -0.53011066 0.056315415 -1.1394624 -1.4229149 -1.0858562 0.81344295 0.04121116
-0.9558387 -0.97716856 -0.29402792 0.0346284 -0.7252901 0.3261752 0.7327136 1.5141748
1.1091616 0.5551935 -0.6050928 -0.98131996 0.27857596 -0.72453827 0.26285234 0.568914
2.1659684 -0.67458296 0.4296269 1.217249 0.23504756 -0.21224767 0.13630329 -2.0143764
-0.5035203 0.2006884 -0.23579107 -0.60972774 -0.48314077 1.775288 -1.7047986 0.29911903

embedding.embeddings.1.weight f4 [3, 4]
00000000: 33f8 a4bd 4bb1 7a3f ecda 7d3e f978 02be
00000010: 6207 fa3f 08f7 90bf 0672 573f 0051 e13e
00000020: d0ad cdbe e105 003f 3d4e 263f eea6 f23e
-0.08055153 0.9792678 0.24790543 -0.1274146 1.9533503 -1.1325388 0.8415836 0.4400711
-0.4017167 0.5000897 0.6496313 0.47392982

embedding.embeddings.2.weight f4 [2, 4]
00000000: 92c1 c23f 659e 88bf bccf 55be b06c df3c
00000010: b4f8 cc3f 0c9c 05bf c536 203f ea1d 9e3f
1.5215323 -1.0673338 -0.20880026 0.027273506 1.6013398 -0.52191234 0.6258357 1.2352879

embedding.embeddings.3.weight f4 [8, 4]
00000000: 2743 183e bcb9 f33e 2993 92be e3eb f73d
00000010: 1ae9 ee3e 7d01 833f b913 143f cfdd 87be
00000020: f8a4 62bf d09e 433e 8e0a 4bc0 485f 1e3f
00000030: 447e 19be d874 d0bf 5a6c d73e 6683 02c0
00000040: 9a00 5cbf bdb0 7abf 3286 ca3e 1cf7 f8be
00000050: b585 cc3f 9774 82bf a32f 8ebe f728 21be
00000060: 68fb a3bf 5e0c 9cbf 84f9 babd de28 8bbf
00000070: 752c 83be 0c2d 95bf 30b5 7fbf f2d4 fabe
0.14869367 0.47602642 -0.286279 0.12105539 0.46662217 1.0234829 0.57842594 -0.26536414
-0.8853297 0.19103551 -3.1725192 0.6186414 -0.14989573 -1.6285658 0.42074853 -2.03927
-0.8593842 -0.9792593 0.39555508 -0.4862603 1.5978304 -1.019183 -0.2777072 -0.15738283
-1.2811098 -1.2191274 -0.091296226 -1.0871847 -0.25619856 -1.1654372 -0.99885845 -0.4899059

embedding.embeddings.4.weight f4 [13, 4]
00000000: aa71 1e3f e9f2 653e 986e 2b3f 719a 73bf
00000010: d68c b63f dbdc b7bf f1ad aebd 9bb5 003f
00000020: cf98 4fbe fbeb 2b3f aeba 9fbe 47d3 753d
00000030: 8026 163f bb27 0ebf 7d7b 1cc0 062b 6cbf
00000040: 0b8a c93f f082 b0be b011 3dbe 280c c33e
00000050: 7598 7cbe e217 46bd 5b83 3940 ec53 2a3e
00000060: fc13 293e 6fdf 8bbf ef7f c1bf 5947 9c3f
00000070: e995 e63e 8b46 0140 f850 953f 8620 8dbe
00000080: e481 12bd b8de 923f a5a6 e73e a422 983f
00000090: 804a ce3e 83bf b23f fb45 6dbf ecc3 3f3f
000000a0: a5f3 50bf bb77 7cbe 575c 9bbf 964a ecbe
000000b0: cd87 293f 7616 18c0 be11 91bf ef40 9ebe
000000c0: cecd 803f 4670 f5bf 1034 1d3f 11ba 2b40
0.6189219 0.22455944 0.6696563 -0.95157534 1.426173 -1.4364275 -0.085292704 0.5027711
-0.20273136 0.6715695 -0.31197113 0.060015943 0.58652496 -0.55529374 -2.4450371 -0.9225315
1.5745252 -0.34474897 -0.18463778 0.38095212 -0.24667533 -0.04836262 2.8986423 0.16633576
0.1651153 -1.0927562 -1.5117167 1.2209274 0.45036247 2.0199306 1.1665335 -0.27563876
-0.035768405 1.1474218 0.45244327 1.1885571 0.40291214 1.3964695 -0.92684907 0.7490833
-0.8162177 -0.24655049 -1.2137555 -0.46150655 0.6622284 -2.376371 -1.133354 -0.30908915
1.0062807 -1.9174888 0.61407566 2.6832316

embedding.embeddings.5.weight f4 [9, 4]
00000000: 6f22 e63f 5ba8 673d 3210 723b e723 383d
00000010: c100 0b40 25b3 c5bd 738b 16bf e24e 3ebe
00000020: e6b8 213f 54e3 08bf e943 ba3e ec81 103e
00000030: 8fd7 af3f 1691 d73f 4997 c0bf cfb1 b23d
00000040: 2761 36bf 0c23 6d3f 958a c73f d30a 08bf
00000050: 1387 093f f165 843f a995 4bbd 5e33 a2be
00000060: ccc0 8cbf 93ee 83bf 999b 803e e98c 09bf
00000070: e4e5 e0be 20fc 173e 69b2 f13f 1571 7fbf
00000080: 6186 bebe 3567 943e 9f68 ffbf 530a 22bc
1.7979258 0.05655704 0.0036935923 0.044956114 2.171921 -0.0965331 -0.5880653 -0.18584779
0.6317276 -0.53471875 0.36379936 0.14112061 1.3737658 1.6841152 -1.5046169 0.087253205
-0.7124199 0.926316 1.5589167 -0.53141516 0.5372173 1.034361 -0.049703274 -0.31679815
-1.0996337 -1.0307182 0.25118712 -0.53730637 -0.43925393 0.14842272 1.8882571 -0.99781924
-0.37211898 0.2898499 -1.9953803 -0.009890157

embedding.embeddings.6.weight f4 [20, 4]
00000000: 849b 1dbf 8789 e33d 5818 4a3f 1a50 30bf
00000010: df10 96bd d705 243d a6a3 ccbf c4d5 493e
00000020: ee0b 8b3f 55e8 0bc0 8b7e 70be bda0 143f
00000030: dd52 90bf 14b2 95bf 5493 a3bf 2a2e f33e
00000040: 81c6 23bf 30f3 c23d 693d 08bf 3e07 2540
00000050: 8fa3 10c0 85e0 7cbf fe68 7b3f 663b 77bf
00000060: 5d7a 87be 6b1e df3f a73c 16bf c54b 94bf
00000070: 084f b93e 9cf4 87bd 8808 b83f 2505 06c0
00000080: bb77 1f3f 6642 a6bf 38ea 1ebb 52f4 ba3f
00000090: 41a3 ce3f 3d09 63bf 9e24 143f 6f68 2dbf
000000a0: 6218 363f 46a1 583f abfa 5b3f 6b87 143f
000000b0: dcd7 113f 9f82 923f 8b89 9f3f 2d5f a93f
000000c0: 4567 4d3f d7ba a33e 56d7 d6ba 343e 07bf
000000d0: 9488 d63e 9074 a1be d4dd bbbf 119c 68be
000000e0: 244e cc3e 69fd 9c3f 86de 1d3f 7e17 273f
000000f0: 724d 923f ec1a f63e 6992 fa3e 7c74 cc3f
00000100: cbe6 80bf 95cf 203f 5f79 3ebf f85e a7bf
00000110: 77d8 213f 1dba 7dbf 3af2 233e 04c4 2ebf
00000120: 20d5 0fbf 52c5 8fbf 70c6 bd3f 73c9 36bf
00000130: 8c3f 563f 0856 f7be 6298 2f3d b508 eabf
-0.61565423 0.11110216 0.78943396 -0.68872225 -0.07327437 0.04004463 -1.5987442 0.19710451
1.0863016 -2.1860554 -0.23485772 0.5805777 -1.1275288 -1.169497 -1.2779336 0.47496158
-0.6397477 0.095190406 -0.53218704 2.578567 -2.2599828 -0.9878009 0.9820708 -0.9657501
-0.26460543 1.7431158 -0.586863 -1.1585623 0.3619311 -0.066384524 1.4377604 -2.094064
0.6229207 -1.2989013 -0.0024248492 1.4605811 1.6143571 -0.8868597 0.57868373 -0.6773748
0.71130955 0.84621084 0.85929364 0.5801913 0.5697 1.1446112 1.246385 1.323217
0.802357 0.31978485 -0.0016391079 -0.5282929 0.41901076 -0.31534243 -1.4677072 -0.22715785
0.39903367 1.2264835 0.6166767 0.6527022 1.1429884 0.48067415 0.48939827 1.5973048
-1.0070432 0.62816745 -0.7440395 -1.3075857 0.63220924 -0.9911211 0.16010371 -0.68267846
-0.5618458 -1.1232092 1.4826183 -0.7140114 0.83690715 -0.48307824 0.042869933 -1.8283907

bn_in.weight f4 [38]
00000000: ed1f 733f 95a8 7f3f 92fd 793f 8c0a 833f
00000010: d876 593f 84de 693f 49af 693f 4469 6d3f
00000020: 0f8c 683f af0a 683f 9877 633f bbfd 6d3f
00000030: 09bc 6c3f 7990 663f bee2 713f 6d8c 6a3f
00000040: 104c 673f 1ec5 6c3f 2f57 6e3f ae80 613f
00000050: 468c 673f b0d7 683f 8310 693f 5d21 643f
00000060: 6d31 743f b4d2 693f 1dc1 773f 4d52 6c3f
00000070: 1590 833f d568 723f c8f4 6e3f 6c74 633f
00000080: d24a 7a3f 472c 7a3f 065a 753f 406c 853f
00000090: 71fd 963f 4195 6a3f
0.9497059 0.9986661 0.9765254 1.0237594 0.84946966 0.91355157 0.9128309 0.9273875
0.9083871 0.906413 0.8885436 0.92965287 0.9247442 0.900642 0.94486606 0.9162052
0.9035044 0.92488277 0.9310178 0.88086975 0.90448415 0.90954113 0.9104082 0.8911341
0.9538792 0.9133713 0.9677904 0.9231308 1.0278345 0.9469121 0.93342257 0.8884952
0.97770417 0.9772381 0.9584049 1.042366 1.1796094 0.91633993

bn_in.bias f4 [38]
00000000: 20a1 c9ba 3ee1 933a dbc1 a93b c7f5 7cbb
00000010: 38f5 ad38 7fc3 8fbb 1daf 1d3b 77ae 323b
00000020: bfab a0bb 44ed bfbb 3bba 7cbb c398 a63a
00000030: 3e38 73b9 3643 bb3a 51e9 95bb fc4c bfbb
00000040: f5ee 70bb 02b1 c8bb 6a94 503a 4fbb deba
00000050: b1f2 863b aec3 393b 4e37 a53a 2f6c 9cba
00000060: 4668 bc3b e1ff c2bb 98b1 42bb 37d2 a83a
00000070: 02a1 013b d026 d836 a464 8b3b b0a7 e6ba
00000080: a4f7 d93b 4c00 7eb8 2e04 733b 7d8f 223a
00000090: 094a 72bc 68f6 003c
-0.0015383102 0.0011282337 0.00518058 -0.0038598643 8.2949584e-05 -0.0043873186 0.0024060674 0.0027264634
-0.004903286 -0.0058571417 -0.003856315 0.0012710321 -0.00023195238 0.0014286998 -0.0045749326 -0.0058380347
-0.0036763523 -0.0061246166 0.0007956686 -0.0016993078 0.0041182865 0.0028345394 0.0012604983 -0.0011934097
0.005749735 -0.0059509133 -0.0029707905 0.0012880032 0.0019779806 6.44182e-06 0.0042539407 -0.0017597582
0.0066518355 -6.0558596e-05 0.0037081349 0.0006201191 -0.014788159 0.007871248

bn_in.running_mean f4 [38]
00000000: 5960 dc3e bce4 e2be 2694 753e 4a0f 82bd
00000010: b73d aebe 9d92 0e3f b186 173f c31f c83e
00000020: a918 c53f 2349 71bf 018b 79bc bcb3 9d3e
00000030: 2fab d43d 784b 1e3f 50c3 b9be 1aec a3bd
00000040: c554 e93c 22ab 123e 239c 0240 ea81 c5bc
00000050: b327 893f 4307 e13d f8dd afbd 3b86 88bd
00000060: 6f13 123e eabe d53e 371d 933e f0be da3e
00000070: 74c7 323c 03db 623c 9947 b2bb 900d 2d3b
00000080: 1084 d6ba 7eb9 3abb a613 26bc 64bf 52bc
00000090: 68bc 0a3c 350d 363d
0.43042257 -0.44315135 0.23982295 -0.063505724 -0.3403146 0.55692464 0.591899 0.39086732
1.5398151 -0.9425222 -0.015230895 0.3080119 0.10384213 0.61833906 -0.36281824 -0.08004017
0.028482804 0.14323094 2.0407798 -0.0241098 1.071524 0.10987713 -0.08587259 -0.066662274
0.14265226 0.41747218 0.28733227 0.427238 0.010911811 0.013846162 -0.005440664 0.002640579
-0.0016366262 -0.002849191 -0.0101365205 -0.012863014 0.008467771 0.04444619

bn_in.running_var f4 [38]
00000000: 1734 c33f 110d b13e bca8 753e c3d7 c93f
00000010: 7460 483d 9bfd 403d 98ea 9c3c c0f4 313d
00000020: de7a 983a 7df4 5e3d f727 ff3d cc30 853e
00000030: 3827 8b3e 03dc b53e 87e4 0340 fde4 8c3e
00000040: e7b7 333e 9623 d33e 38db bd3f 0d44 943e
00000050: af38 6c3f a606 ec3e e3fa 1f3f 39bc 8e3d
00000060: ec48 af3e bceb 0e3f 17da 8f3f f064 893f
00000070: a38d 803f 7cce 913f 7f53 763f b506 823f
00000080: a233 633f 9466 543f cd3e 773f 4885 793f
00000090: 289b 823f fbf5 923f
1.5250272 0.3458028 0.23990148 1.576897 0.04892011 0.047116857 0.019154832 0.043446302
0.0011633297 0.05443238 0.124587946 0.26013792 0.2717836 0.35519418 2.0608232 0.27518454
0.17550622 0.41238087 1.4832525 0.2895817 0.9227399 0.46098822 0.624922 0.069694944
0.34235322 0.5582845 1.1238431 1.0733929 1.0043224 1.1391139 0.96221155 1.0158297
0.8875066 0.8296902 0.965802 0.97468996 1.02036 1.1481317

ensemble_blocks.0.0.weight f4 [128, 38]
00000000: 7865 c1bd c933 70bc aee2 b43b 864f 00bc
00000010: 216c e33d 3a44 4e3d 40c7 66bd 56eb 70bd
00000020: a1bb f8bd 06ec 083e 4668 be3d ae29 053e
00000030: c229 9e3c e7d1 a33d a429 843d 31f4 a6bd
00000040: 4e6c e3bb f891 2bbe 6da6 ca3d c71a a03d
00000050: ca78 293d aa6a ad3d e72a fcbd d0ae c63d
00000060: 0a5f 90bd 8943 dd3d 8923 a9bd c00f debd
00000070: 0518 d33b c388 49bd f188 3dbe f4d7 26bd
00000080: 2908 10be bb3e 2cbd bd2b 793c cf17 f1bc
00000090: b844 4abe 6a27 38be c5cd 53bc 1888 8a3d
000000a0: 6fc0 cabd d36b b13c d007 0dbd 2041 0c3e
000000b0: 688d 11be f873 cd3d 0f6a ab3d e722 e83d
000000c0: 22a5 e0bd 506e e9bc f297 6cbd 2d8d 763d
000000d0: 5289 0dbe 48c8 f53c 3d14 01be c269 163e
000000e0: fce1 843c aed1 a9bd adf1 f7bc 5abb 3f3e
000000f0: 79c8 2abd 0fb7 9abd 539f 28be 0744 0a3e
00000100: fa3d 1abc f275 af3d 4393 ab3a 6d0a 133e
00000110: 69da d33d 4438 28be 1ed2 af3d 0167 93bd
00000120: 1822 debd 6803 14be 05d7 a3bd 539c f53d
00000130: eb80 eebd 5294 843c 5377 b53d c56b c8bc
00000140: 3b8c 2bbc 210b ee3d a273 ac3d 461f 7abd
00000150: 0279 2ebe a00c 063e 4c43 0d3e 2e6c 71bd
00000160: 4228 b93c 908e b73d c571 73bc c3f4 6e3d
00000170: 5943 cbbd 9fd8 11bd f30c 723d 54b3 4c3c
00000180: c228 cc3d 8747 d9bd 0a27 00be 04fb f13d
00000190: a989 bebd 01aa dd3c 229a b6bd 98f4 a4bd
000001a0: e8dd 99bd bc53 67bd f417 c13d 4d3e 063e
000001b0: 7dee 973d 54ef 1ebe ab1f bcbd cb92 34be
000001c0: 53e4 163e bde9 b5bc ce88 2b3d 885f 853d
000001d0: 490d 93bd 9cf4 a3bd 3bfc a93d 8af8 e13d
000001e0: 4465 e33d eab3 a8bd 6221 26bd 79fb 74bd
000001f0: 8c8e 36bc c488 133e fe66 a43c c140 a43c
00000200: c3aa 2d3e f8b0 a2bd 69c9 82bd d218 143e
00000210: ce62 073e ff66 b0bd 3e2f 8dbd 7954 9abd
00000220: 1a61 8d3c 1a6b 52bd 9bc1 2cbe e82a c2bd
00000230: 6984 3c3d 3164 04be 920e 9b3d 2570 95bd
00000240: d7fe 9e3d 94f2 3d3d 91ac 19bd e724 173d
00000250: d8d0 e6bd d81d e63d 98ca 033d d2e3 703d
00000260: 4bb4 eb3d 49a9 7fbd 3ab1 0f3e c531 e2bb
00000270: 6e53 91bc 04d3 083d 5cd6 53bd e812 03be
00000280: 06de 7d3d 14fd 95bd 431e a93d 3ee8 e4bd
00000290: f2d7 0fbe b990 3ebd b800 323d 34ac 173d
000002a0: d994 e9bd 0e9c d5bd 4e72 58bc 0c0f 2e3d
000002b0: 3d79 043d f373 19be 88fe 0c3d be8e 4bbd
000002c0: cf43 7ebc a973 99bd f69e 953d f0a2 a9bd
000002d0: 6c9a 30bd 540c a8bc 1074 1f3d 277f c5bd
000002e0: 6f38 4b3d f971 55be 2eaa 74bd 785d 673d
000002f0: 2ee7 68be 503a acbd 48a1 b6bd f221 6fbd
00000300: 8ec1 3abd 7652 33bc aa27 5a3d 5260 4ebd
00000310: b366 323e 32d6 a13c 007f ed3c 2e2e f5bd
00000320: fe4b 883d 8993 a7bd 0c43 ce3d 4961 883d
00000330: 4181 0e3e 2f4e b93d 0b62 b6bd 1a72 e3bc
00000340: 2613 893d b2d8 f23d d936 dc3d 696d 2bbd
00000350: 9893 a9b7 3368 f8bd dcf2 c9bc 45ea c1bd
00000360: 657d 25be 5117 ea3c 5b97 34be 23de 133e
00000370: 47cd 193e 849c cebd 4a19 e23d ad46 5abd
00000380: 3a82 ef3d d0c1 38be ebb3 eb3d a44c ce3b
00000390: 81f4 013e 8648 fa3d b5b9 ffbc 3b56 953c
000003a0: 40ed c5bd 0b3d aabd 9198 70bd 64da 10be
000003b0: 6561 0abe d916 ca3d 7cc9 613d 3e81 1e3e
000003c0: b792 93bd 68fb fc3d 95c7 0f3e bf10 cabd
000003d0: e0e4 403d 5f4a 1c3e 5aa1 203e b151 39bd
000003e0: fbb4 ad3b 3e94 433d f07a 353d b42e a33d
000003f0: b6d9 adbd dbbf ce3d 70e3 82bd f7c7 c1bd
-0.09443182 -0.014660784 0.0055201864 -0.00783146 0.11104608 0.050358035 -0.056342363 -0.058818184
-0.121451624 0.13371286 0.09297232 0.13004181 0.019307021 0.0799902 0.06453255 -0.081520446
-0.006940401 -0.16754901 0.098950244 0.078176074 0.04137496 0.0846761 -0.123128705 0.097013116
-0.07049377 0.10803897 -0.08258731 -0.10842848 0.0064420723 -0.04920269 -0.1850927 -0.040733293
-0.14065613 -0.042052012 0.015208182 -0.029430298 -0.19752777 -0.17983785 -0.012927477 0.06764239
-0.09899985 0.02165786 -0.03443128 0.13696718 -0.14214098 0.10031885 0.083698384 0.11334782
-0.109689966 -0.028494984 -0.057762094 0.06019323 -0.13821915 0.030002728 -0.12605377 0.14688781
0.016221039 -0.08291946 -0.030266607 0.18723813 -0.041695092 -0.07554447 -0.16467027 0.13502513
-0.00941419 0.08567418 0.0013090152 0.14359446 0.10344393 -0.16427714 0.085849985 -0.07197381
-0.108463466 -0.14454424 -0.07999996 0.11992707 -0.11645683 0.016184006 0.0886065 -0.024465451
-0.010470445 0.116232164 0.08420493 -0.06106498 -0.17038348 0.13090754 0.13795203 -0.05894106
0.022602204 0.089627385 -0.014858668 0.05833889 -0.09924955 -0.035606977 0.05909438 0.012493927
0.099687114 -0.10609346 -0.12514892 0.118154556 -0.093036 0.027058603 -0.08916117 -0.08054465
-0.075130284 -0.05647634 0.09428397 0.13109703 0.07418535 -0.15520984 -0.09185728 -0.17634122
0.14735536 -0.022206182 0.041878514 0.06512362 -0.07180268 -0.0800564 0.08300062 0.11033733
0.11103299 -0.08237441 -0.04055918 -0.059810136 -0.011142384 0.1440764 0.020068642 0.020050408
0.16959672 -0.0794391 -0.06386072 0.14462593 0.13221285 -0.08613395 -0.06893776 -0.07535643
0.017258216 -0.05137167 -0.1687073 -0.0948084 0.046024714 -0.12928845 0.075711384 -0.072967805
0.077634506 0.04637392 -0.037518088 0.036900427 -0.112703025 0.11236161 0.03217563 0.058811016
0.115089975 -0.062417302 0.1403245 -0.0069029056 -0.017739978 0.033404365 -0.0517181 -0.12800181
0.061979316 -0.073236614 0.08257725 -0.11177109 -0.1404722 -0.046524737 0.043457717 0.03702946
-0.114053436 -0.10430156 -0.013210846 0.04249482 0.032342184 -0.14985637 0.034422427 -0.049696676
-0.0155190965 -0.074927635 0.0730571 -0.08283031 -0.04311602 -0.020513691 0.038929045 -0.09643393
0.049614366 -0.20844258 -0.05973261 0.056485623 -0.22744438 -0.0840956 -0.08917481 -0.058381982
-0.045594744 -0.010944953 0.053260483 -0.050384827 0.17421989 0.019755457 0.028991222 -0.11971699
0.06655119 -0.08182437 0.10071382 0.06659181 0.13916494 0.090481155 -0.08905419 -0.027764369
0.066931054 0.118577376 0.10752649 -0.04185239 -2.0215099e-05 -0.121292494 -0.024651937 -0.094685115
-0.16161115 0.028575571 -0.17635863 0.14440207 0.15019713 -0.10088447 0.1103998 -0.053290058
0.116947606 -0.18042684 0.11508926 0.0062957574 0.12690927 0.12220864 -0.031216482 0.018229594
-0.096643925 -0.08312424 -0.05873925 -0.1414581 -0.13513716 0.09867639 0.05512379 0.1547899
-0.07205718 0.123526394 0.14040978 -0.09866475 0.047093272 0.15262745 0.1568655 -0.045243923
0.0053011156 0.047748797 0.044306695 0.07967892 -0.08488791 0.10095187 -0.063910365 -0.094619684

ensemble_blocks.0.0.bias f4 [128]
00000000: 1dec 0a3e ae57 cabd dec4 153e 4d5c f53c
00000010: 8653 c63c 7d42 033e 7d9a f8bd 74cd 24bd
00000020: 4020 a1bc e51f ecbd ee36 133d dd7d bb3c
00000030: d196 18be e0cc 12bd 8a37 163e e968 483d
00000040: 1638 21be 2a83 d23d 4001 89bd 10c9 c7bd
00000050: f4f1 a7bd b698 933d e6df 193e 1eaa 1ebe
00000060: a605 f13d d361 013e 9916 473d b9a2 e2bd
00000070: 84c9 b7bd 2d49 71bd bb25 13be aa9a f4bc
00000080: dc14 f4bc 82d0 1bbd f3ea ec3c 4ced 93bd
00000090: 2bb4 09be bf9d c63d fb2e a6bd 5ac5 14be
000000a0: 86fe c53d 5a77 fc3d 1cee 733d 6bfb 1b3e
000000b0: 99ae c5b9 1a91 ad3d 1a06 5cbc 7765 e1bd
000000c0: 69c1 a7bd 3a11 febd 2c5f d73b b32f e73c
000000d0: de96 943d 98ce b6bd 7c0a babb 2877 c23c
000000e0: fb67 35bd 7c8a 8f3d 4f96 30bd 1304 383d
000000f0: ecca f0bd 149d 9dbb e102 debd ca3c 08be
00000100: 9006 033e 24ee 17be 91db b73d 6da3 21bc
00000110: a07b 50bc bf24 bc3d 509f ce3c 5ed2 2fbd
00000120: e07e d4bc 6197 86bd 08be 0a3d 248c debc
00000130: e481 f0bd 13f2 203e 63b8 61bd 4d8e cabd
00000140: 0e09 0c3e 3ef4 013e c2d7 9f3d 9f8a edbd
00000150: 0f01 653c 6d3f f9bd bb27 54bd 59d1 d93c
00000160: 8712 8f3d 3206 a13c 6735 e1bb a715 993d
00000170: c3d1 bf3d 8ccc 333c 9884 14be 6785 87bd
00000180: a336 f8ba d356 83bd e013 f53d a134 0e3e
00000190: 3ba3 cebd d2fe 083e ed7c 8cbc 43a8 dcbc
000001a0: 7ddb 113e c4ed 74bd b79c 23be 23da 833c
000001b0: ca99 d73d f4c1 603d ef94 0cbe da59 8abd
000001c0: b3e6 8bbd ca9c 13be d88d 243e edee 1ebd
000001d0: 1441 b43d a86a 9f3d 6032 d6bd ab30 5d3d
000001e0: cbe1 d73d daf8 dabc 6796 f0bd 22b0 033e
000001f0: 6b57 953d f9a8 373c 815d 7d3c 3629 453d
0.13566633 -0.09880005 0.1462588 0.029951239 0.024209749 0.12818332 -0.12138841 -0.040234998
-0.019668698 -0.11529521 0.035941057 0.022887165 -0.14901282 -0.035839915 0.14669624 0.048928175
-0.15744051 0.10278924 -0.066896915 -0.097551465 -0.08200446 0.07206862 0.15026817 -0.15494582
0.117686555 0.12634973 0.048605535 -0.11066193 -0.08973983 -0.058907676 -0.14369862 -0.029858906
-0.029795103 -0.038040645 0.028920626 -0.07222995 -0.13447635 0.096980564 -0.081144296 -0.14528409
0.09667687 0.12327452 0.05955325 0.15232627 -0.00037704853 0.084749416 -0.013429189 -0.11005681
-0.08191187 -0.124056295 0.0065726247 0.028220987 0.07255338 -0.089261234 -0.0056775194 0.023738459
-0.044288617 0.07008836 -0.043112095 0.04492576 -0.11757454 -0.004809985 -0.10840393 -0.13304439
0.12795472 -0.14836937 0.08977426 -0.009865624 -0.012724787 0.09186696 0.02522245 -0.04292523
-0.025939405 -0.06571842 0.033872634 -0.027166434 -0.11743525 0.15717344 -0.055107486 -0.09890423
0.13675329 0.12690827 0.078048244 -0.115987055 0.013977303 -0.12170301 -0.051795702 0.026589083
0.06985956 0.019656274 -0.006872821 0.07474833 0.09366181 0.010974061 -0.14503706 -0.06617241
-0.0018937181 -0.06413045 0.119666815 0.13887264 -0.100897275 0.13378456 -0.017149413 -0.026935702
0.14243884 -0.059797063 -0.1597775 0.016095227 0.1052738 0.054872468 -0.13728689 -0.06755419
-0.06831112 -0.14415279 0.16069734 -0.038802076 0.08801475 0.07784015 -0.10458827 0.05400149
0.105411135 -0.02672999 -0.11747437 0.12860158 0.07292064 0.01120972 0.015464188 0.048135005

ensemble_blocks.0.1.weight f4 [128]
00000000: d8f6 7c3f c41b 783f 28eb 7c3f 48a1 833f
00000010: 930c 7e3f f9c0 833f 7fc1 803f f88c 803f
00000020: 3a9d 7b3f e9e7 7a3f 3094 833f 208a 7b3f
00000030: bb79 863f a882 803f d50c 7c3f df6a 803f
00000040: cc12 873f 33a1 7f3f 7705 6d3f e8a9 803f
00000050: 93cb 813f 5c6c 7b3f 55cc 803f 301f 833f
00000060: a647 7a3f b722 7f3f 24d3 853f 4ecb 7e3f
00000070: dc58 8d3f 3d70 7d3f 0a05 813f a2e5 713f
00000080: 903a 7c3f 5005 793f d21d 7b3f e09d 783f
00000090: d9d2 7a3f 7dde 883f 9937 763f 640d 853f
000000a0: c024 863f 187e 823f 3b25 853f 7971 823f
000000b0: cc0c 813f 9bc5 7d3f 5aa3 7c3f b67b 7b3f
000000c0: e8a2 863f f20b 753f 9633 823f 9406 813f
000000d0: 893e 7e3f 4b83 813f 6275 743f b033 823f
000000e0: 483f 823f 9571 7d3f 4372 813f 934e 7f3f
000000f0: 1bf4 863f 6c8d 803f e9c8 7e3f 5c87 7e3f
00000100: 34b5 7d3f 7c77 833f 46c9 7c3f 736a 733f
00000110: a523 873f 4665 783f 8891 7b3f 17c4 7a3f
00000120: 9cac 833f 830a 7e3f d955 7e3f a825 7c3f
00000130: ba3e 763f 8823 833f 487d 7e3f 1b38 833f
00000140: 4985 743f 2cb8 7a3f 7ca8 783f bc29 793f
00000150: ca6a 7b3f 1ccb 763f 9c4e 753f b02b 7b3f
00000160: 6850 813f d2a6 7a3f c787 7a3f 300a 813f
00000170: d9fc 753f c486 7d3f 2376 7f3f 349c 833f
00000180: ab1c 833f ea7b 7a3f 133e 773f a9a4 7e3f
00000190: 917a 733f 9dec 803f a422 783f 8930 813f
000001a0: a731 833f 0490 813f dbfc 753f c759 7e3f
000001b0: 83e2 823f 1c3b 853f 2a48 7d3f b73a 7e3f
000001c0: 1a2e 7f3f d5fb 7e3f f10c 833f 9f2f 733f
000001d0: 3803 7c3f 1454 873f 76d9 783f c63a 803f
000001e0: 19c8 823f ec43 7e3f 493e 853f 6e1b 833f
000001f0: 2376 7d3f 47fb 8d3f 4006 883f 6a1e 833f
0.98814154 0.96917367 0.9879632 1.0283594 0.99237937 1.0293266 1.005905 1.004302
0.98286784 0.98010117 1.0279598 0.9825764 1.0505899 1.0039873 0.9845708 1.0032614
1.0552611 0.99855345 0.92586464 1.0051851 1.0140251 0.9821222 1.0062357 1.0243893
0.97765577 0.99662346 1.045506 0.9952897 1.1042743 0.9899939 1.0079663 0.94491017
0.9852686 0.9727373 0.9809238 0.971159 0.9797798 1.0692898 0.96178585 1.0394711
1.0479965 1.0194731 1.0401987 1.0190879 1.008203 0.99129647 0.98686755 0.9823564
1.0518465 0.9572135 1.0171993 1.0080132 0.9931417 1.0118192 0.9549161 1.0172024
1.0175562 0.9900144 1.0112995 0.9972927 1.0543245 1.0043159 0.99525315 0.9942529
0.9910462 1.0270839 0.9874462 0.95084304 1.0557753 0.9702953 0.9826894 0.9795546
1.0287051 0.9923479 0.99349743 0.9849496 0.96189463 1.0245218 0.99409914 1.0251497
0.95515877 0.97937274 0.97132087 0.97329307 0.9820982 0.9640367 0.95823073 0.98113537
1.0102663 0.979108 0.9786343 1.0081234 0.9608894 0.9903376 0.9978964 1.0282044
1.0243124 0.9784533 0.9657909 0.9947 0.95108896 1.0072209 0.9692786 1.0092937
1.0249528 1.0122075 0.9608895 0.9935574 1.0225376 1.0408664 0.9893824 0.9930834
0.9967972 0.99603015 1.0238324 0.9499454 0.9844241 1.0572534 0.9720682 1.0017936
1.0217315 0.9932239 1.0409633 1.0242746 0.9900839 1.1092309 1.0626907 1.0243657

ensemble_blocks.0.1.bias f4 [128]
00000000: f751 223b 1778 1cbd a5d4 6a3c e517 06bd
00000010: 9ca6 31bd e88a 1a3b 3703 1fbc 0d8f 97bd
00000020: 15f2 68bd 2929 64bc 7ee0 f23c 84b7 8abd
00000030: a8b7 8bbc 92e2 1abd c0d0 88bc b1d3 9b3a
00000040: 684e cfbb 62f4 11bd 9a36 2bbd 0792 27bc
00000050: 9cd4 803c aee1 d93c 5223 61bd 700c 1bbd
00000060: 23fc 25bd 22eb 1fbc 7e45 c1bc 76fd 0bbb
00000070: 3e22 02bc 9b8a a9bc 86dd dfbb ed7c 98bd
00000080: 9a97 87bd 2921 48bd 40da 943c f9a1 f7bc
00000090: 40b0 d8bb 363f 1d3d 7535 44bd c622 9abb
000000a0: 9686 49bc 201a d1bc 58c7 f23b 864b 89bc
000000b0: c0e0 403c 0db5 32bd bf91 abbc 2d6a 1dbd
000000c0: a76d a2bc a290 40bd ed52 08bd e7a3 f63b
000000d0: 945d fdbc 61a1 7fbc 3588 4abd 58e7 373c
000000e0: 9840 07bd dd4f 91bd 96b9 28bd 9434 04bc
000000f0: b5bc 053d 1170 b4ba 0183 2cbc 24f5 2cbd
00000100: d813 a6bc 8b00 41bc 5df6 1ebd 526e 2abd
00000110: b345 cd3c ad97 16bd 41b8 76bc 4043 51bd
00000120: bda3 4d3d d6e3 eabc 210a 23bd 617e 4d3c
00000130: 5eb1 83bc 8f8b 97bc a37c 533b 85f0 7fbc
00000140: 4b63 06bd 0a81 39bd 3c08 2dbc 1346 40bd
00000150: a72c 30bd 48c6 dabc 69b4 81bc 88b2 b9bc
00000160: e4c4 a8bb 7af3 0abd e72d 46bd d494 9a3a
00000170: 5f46 91bd 0894 eabb 0bac 28bc 1704 4cbc
00000180: 816f 893c 9e3d 52bd 43f1 96bc 7935 c7bc
00000190: c495 49bd 1212 3dbd 778a aebc ba64 243c
000001a0: f3dd eebb 52a5 99bc f8c6 fbbc 987e 22bd
000001b0: cff9 18bd 32e3 093a 4131 d1bc 3807 9e3b
000001c0: c186 9fbc df1b 4abb 2b9a d7bb e3e9 3fbd
000001d0: 40bf 1d3b 3b56 863c 4a62 1abc afa9 c6bc
000001e0: 5c4d 8439 82ff 95bc f8f8 acbc 2c74 f3ba
000001f0: 20bf 7b3c 7b91 d0bb 1186 0c3d 1bf3 65bc
0.0024768093 -0.038200464 0.014332925 -0.03273763 -0.04337178 0.002358133 -0.009705356 -0.07400332
-0.056871492 -0.013925829 0.029648062 -0.06773284 -0.017055348 -0.03781373 -0.016701102 0.001188865
-0.0063264854 -0.035633452 -0.04180012 -0.010227687 0.01572638 0.02659687 -0.054965325 -0.03785366
-0.04052366 -0.00976065 -0.023592707 -0.0021360791 -0.007942734 -0.020695975 -0.0068318276 -0.07445703
-0.066207126 -0.04885975 0.018170476 -0.030228602 -0.0066128075 0.03839036 -0.047902543 -0.0047038523
-0.012300154 -0.025525153 0.0074090175 -0.016759645 0.011772335 -0.043629695 -0.02094352 -0.038431335
-0.019827677 -0.047012933 -0.03328221 0.007526863 -0.03092841 -0.015602441 -0.049446303 0.01122459
-0.033020586 -0.07095311 -0.041192614 -0.008069176 0.03265067 -0.0013766309 -0.010529281 -0.04222597
-0.020273134 -0.011779915 -0.03880917 -0.041609116 0.02505765 -0.036765743 -0.015058578 -0.051089525
0.05020498 -0.028673094 -0.03980458 0.012542338 -0.016075786 -0.018499164 0.0032270334 -0.015621309
-0.032809537 -0.045289077 -0.010561045 -0.046941828 -0.043011334 -0.026705876 -0.015833097 -0.022668138
-0.0051504243 -0.033923604 -0.04838362 0.0011793622 -0.070935 -0.00715876 -0.0102949245 -0.012452147
0.016776802 -0.051328294 -0.01842559 -0.02431749 -0.049215093 -0.04615981 -0.02130626 0.010033781
-0.007289642 -0.018755589 -0.030734524 -0.03967151 -0.03734761 0.000525999 -0.025536181 0.004822638
-0.019473435 -0.0030839366 -0.0065796576 -0.04685391 0.0024070293 0.01639854 -0.009422848 -0.024250833
0.0002523464 -0.018310312 -0.021114811 -0.0018574051 0.015365392 -0.006364999 0.034307543 -0.014035012

ensemble_blocks.0.1.running_mean f4 [128]
00000000: 83cb 0a3e 124f cabd 0308 133e 4f25 e93c
00000010: 07c8 de3c fa78 043e e096 febd f664 28bd
00000020: c840 9fbc 54aa e8bd edff 273d cbe7 bd3c
00000030: b46a 15be d327 0cbd fa33 153e a3cf 393d
00000040: 5c20 1fbe 9621 d03d a6f6 89bd bda9 c7bd
00000050: 1d36 a2bd 77d4 903d 0214 1e3e 701e 1cbe
00000060: e65d f13d 913d fd3d f70d 543d e11c efbd
00000070: 907f afbd 866c 82bd 3890 15be 8191 edbc
00000080: 2325 08bd 4e1c 1bbd bc59 ea3c 3609 a0bd
00000090: 15a4 04be e6f3 d03d b956 a2bd d6c5 12be
000000a0: b493 cc3d 4221 013e 5b07 6f3d d3da 183e
000000b0: 648c 80b9 1508 b03d 8066 7dbc 5e0e dabd
000000c0: 9b88 9abd f299 f4bd 4641 863b c197 063d
000000d0: ad38 913d 38f2 adbd 9242 b7bb c6bb f43c
000000e0: 75cc 41bd 6995 853d c789 30bd d413 4c3d
000000f0: b263 eabd a6fc 38bb 8c5a e1bd 8e81 04be
00000100: de4b 073e 1cd8 13be a8f2 ae3d 081e dcbb
00000110: e660 1cbc e011 c23d 9ea7 b43c 472a 3cbd
00000120: b482 c1bc 1e79 89bd ce55 053d 1201 e1bc
00000130: c88d ecbd fcc9 223e 54f3 6abd 3c8d cebd
00000140: 4efe 083e 1bcc 053e aa9f 9b3d 563d edbd
00000150: ba9e 333c 14de fabd 0250 61bd 1e7a a03c
00000160: 3876 833d f519 883c 1bad 7f39 5f3f a83d
00000170: ef66 c43d a94c 403c 3c2f 17be dda1 78bd
00000180: afa9 6abb e40d 96bd 5e38 f53d 3ebc 0e3e
00000190: 687e c4bd 202f 0c3e 8c15 93bc 220e f1bc
000001a0: 5f1a 143e ed2a 84bd e05a 24be 4278 713c
000001b0: 450e d83d 4e22 6e3d 6380 0ebe 063e 9cbd
000001c0: 8346 8ebd 7989 10be 4ea2 293e 97d1 09bd
000001d0: a3e4 bb3d 8553 a83d 466d cfbd e73c 4f3d
000001e0: 313a d83d 3594 b5bc 4028 eabd 25a9 093e
000001f0: 181e 983d 97c0 563c c6ba 563c fb72 4e3d
0.13554196 -0.09878363 0.14358525 0.028460173 0.02719499 0.12936774 -0.12431121 -0.04111191
-0.01944007 -0.113606125 0.041015554 0.023181817 -0.14591485 -0.034217667 0.14570609 0.045364033
-0.15539688 0.10162656 -0.067364976 -0.09749172 -0.079204775 0.070717745 0.1543732 -0.15245986
0.11785488 0.123652585 0.05177113 -0.1167543 -0.085692525 -0.063683555 -0.14605796 -0.029000046
-0.03323854 -0.03786879 0.028607242 -0.07814257 -0.12953217 0.1020277 -0.07926697 -0.14333281
0.0998911 0.12610343 0.058356624 0.14927225 -0.00024518662 0.085952915 -0.015466332 -0.106472716
-0.07545587 -0.11943425 0.0040971367 0.032859568 0.07090888 -0.08493465 -0.0055926526 0.029874694
-0.047314126 0.06522638 -0.043100145 0.049823597 -0.114447966 -0.0028226762 -0.110035986 -0.12940046
0.13212535 -0.14437908 0.08542377 -0.006717447 -0.009544587 0.09476066 0.022052582 -0.045938756
-0.023621894 -0.067125544 0.032552533 -0.02746633 -0.1155048 0.15897363 -0.057360962 -0.10085532
0.1337826 0.13066141 0.07598813 -0.115839645 0.010963136 -0.12249389 -0.055007942 0.01958948
0.06419033 0.01661394 0.00024383182 0.08215212 0.095899455 0.011737027 -0.14764112 -0.06070124
-0.0035806706 -0.07326868 0.11973642 0.13938996 -0.095944226 0.13689852 -0.01795461 -0.029425684
0.14463185 -0.064535 -0.16050291 0.014738144 0.10549597 0.058138184 -0.13916163 -0.076290175
-0.06947043 -0.14114942 0.1656582 -0.033647146 0.09174468 0.08219055 -0.10128264 0.05059519
0.10557974 -0.022165397 -0.11433458 0.1344343 0.07427615 0.01310744 0.013106054 0.050402623

ensemble_blocks.0.1.running_var f4 [128]
00000000: 36d8 ce3e e565 aa3e 1be5 863e afe0 6d3e
00000010: 56d7 9f3e 4448 7f3e 5242 903e 5cc2 843e
00000020: c2b1 ef3e 3ca3 8a3e e3e7 b63e c0f7 ae3e
00000030: ee68 a63e 3679 ce3e 9d3d c53e 066f 6a3e
00000040: fd6b ae3e 755f 223f 134f ef3e 5d23 553e
00000050: 3f53 603e 778f 383e d21a 893e 2510 8b3e
00000060: 324a 933e 54d9 853e ce16 843e be7c 863e
00000070: 5a75 8b3e a063 af3e 53af 993e 19bc 703e
00000080: a7d5 b73e 27df ec3e 0573 b43e cfaf ff3e
00000090: 77bd 7c3e 5a80 a83e 44a7 923e 0fbe c63e
000000a0: b433 b13e 5210 213f 4bff 913e db29 153e
000000b0: b6af 7c3e 21a2 4c3e ca5b a33e 9bcb c23e
000000c0: 8e92 9c3e 8d6a bd3e 4693 8b3e 988c c13e
000000d0: 02af 543e 866d 983e 99da f53e ffee ce3e
000000e0: 8a9f 9a3e c4aa f23e 2a9d 8e3e fa11 d43e
000000f0: 2017 ee3e 2000 8f3e 82ed 633e 3c38 be3e
00000100: c8c2 b93e 13c0 d93e f123 6f3e bc2c a43e
00000110: e0f1 7b3e 9563 a43e 55d6 373e 97c1 a23e
00000120: a861 793e 7d7b ad3e 5558 9f3e 65d3 9d3e
00000130: 920f e03e 8c58 573e 5f0a a53e 04e5 923e
00000140: f8a2 893e 0730 c03e 3cc7 823e 4a20 f53e
00000150: cf3b 823e f735 953e 4019 923e a592 c03e
00000160: c2dd c23e 88fe ae3e e4cd 183f 39d1 c03e
00000170: 6882 863e 1d0b 703e bd1e a33e afbc 023f
00000180: a82d 653e 7c8e ec3e 5a95 bd3e 96ab cf3e
00000190: d2b5 753e c512 a53e b319 923e 7873 5e3e
000001a0: 03d9 b13e 3153 983e 2b5e dd3e 098c f83e
000001b0: a9d1 d73e 9864 923e b68e 7b3e ced8 c43e
000001c0: 3fc9 b33e 1bb3 053f 69d1 e23e d700 1d3f
000001d0: 8970 763e bf96 9a3e e5b0 193f cf2a 953e
000001e0: 20f5 b43e 8c82 983e eb5a 7f3e b6b3 e13e
000001f0: 82b0 f83e 9a92 a53e 1ad8 573e a49b a43e
0.4039933 0.33280864 0.2634667 0.23230241 0.31218976 0.24929911 0.28175598 0.25929534
0.46815306 0.27077663 0.3572379 0.34173393 0.3250193 0.40326852 0.3852357 0.22893915
0.34066764 0.63426906 0.46740016 0.20814271 0.21906756 0.18023477 0.26778275 0.27160755
0.28767544 0.2614237 0.2579865 0.26267046 0.2723797 0.34255695 0.30016574 0.23509254
0.3590519 0.46264002 0.35244003 0.4993882 0.2468165 0.32910424 0.2864324 0.38816878
0.3460976 0.6291553 0.28515086 0.14566748 0.24676403 0.19983722 0.31905967 0.38045964
0.30580562 0.36995354 0.27260798 0.37802577 0.20769885 0.2977106 0.4801834 0.40416715
0.30199844 0.4739591 0.27854282 0.41419965 0.46502018 0.27929783 0.22258571 0.37152278
0.3628142 0.42529353 0.23353554 0.3206538 0.24603987 0.32107225 0.17952855 0.31788322
0.24353659 0.33883277 0.3112208 0.30825344 0.4376188 0.21029872 0.32234475 0.2869035
0.26882148 0.37536642 0.2554263 0.47876197 0.25436255 0.29142734 0.2853489 0.3761188
0.38059813 0.34178567 0.59689164 0.37659624 0.26271367 0.2344174 0.3185939 0.5106916
0.22380698 0.46202457 0.3702801 0.40560597 0.2399514 0.32240883 0.28535232 0.21723735
0.3473588 0.2975097 0.43235907 0.48544338 0.42152146 0.28592372 0.24566159 0.3844666
0.35114476 0.5222642 0.44300392 0.61329406 0.24066366 0.30193135 0.60035545 0.29134223
0.35343266 0.297871 0.24937026 0.4408242 0.48572165 0.3233841 0.2107853 0.32149994

ensemble_blocks.0.4.weight f4 [128, 128]
00000000: 492b 8ebd e081 09bd af3f 163d ba88 90bb
00000010: 5afc 193d 16b6 be3d d227 93bc 36af 443d
00000020: bfa5 923d 63d1 a73c 0d3b 9dbd 6042 41bd
00000030: b198 93bd e48a 073d c150 9abc 151f 6fbc
00000040: 5589 a43c b5e5 2e3d 3cee 5dbd 0227 5ebd
00000050: d99d 11bb eea6 09bd ae36 fbb9 8aff 25bd
00000060: a220 4c3d 2cc6 6ebc 618b 253d 6569 babd
00000070: 0893 08bd 7e41 ab3d 833a 05bd 65cb 323d
00000080: cacb c43d 57d4 3fbb 56c9 a43d 5b6e 2b3d
00000090: 310a b6bd 8ffa 363d cf4e ca3c eb9f c6bd
000000a0: da2a c8bd 3c2f dabd 04aa b33d 1916 013e
000000b0: 774e 903c 55a0 eebd 1959 16bd d35c d8bd
000000c0: 7197 99bd 8361 37bd e530 0b3e 7407 a03c
000000d0: d7fe 89bd 4dc4 e33b ca30 1c3c 6da7 b23b
000000e0: 0d13 9f3d b94f c5bd edc1 e03d 4a5d dfbd
000000f0: bef3 5cbd 8d32 25bb d790 923d 267e b4bd
00000100: 8109 7bbd 924a 90bc c6f4 843d 4b26 b8bd
00000110: 0bbf d3bd db70 1c3d e52c 803d 54e8 593d
00000120: 43be e0bc 7643 02be ed0b 973d 65ff 843d
00000130: 216e 0d3d b5c9 b43d eb24 b73c c63c 4a3d
00000140: 89dd a8bd 5fb8 bd3d 0f4e 37bd 7f9f 75bb
00000150: a5f9 3e3d c56c 4abc e4ec 73bd 3b6a 8bbd
00000160: 8a8e b73c 59ea abbd e1c2 f7bc ea4f cfbc
00000170: 652a 40bd ffdc b23c 92c9 3fbd 7908 b73c
00000180: 7f24 db3d af43 8abc b601 01bd c395 db3c
00000190: d8ef c8bd f69d ab3c 23db d23d befb 81bd
000001a0: baaa 063d 5b5a 2ebd 1a80 3e3d fffa 893d
000001b0: eb56 853d 87ef f53b 27f2 18bd dfe3 a1bb
000001c0: bda8 9ebd fff3 013d acc8 d0bd 5a94 5b3d
000001d0: 564e 703d 8ab0 423d 47d6 ba3c abaa 51bd
000001e0: 122c b6bd 43c5 4fbd 1b79 aebd f2d9 fd3c
000001f0: 0562 43bd 57cf 5b3d ec43 673d 8a31 0dbc
00000200: 00a2 1bbd 21c3 1d3d 3dea 543d d36c 3f3d
00000210: e2a0 09bd e504 12bd 87e0 5a3d 5d81 a5bc
00000220: 0db3 0cbd 45e5 673c 1842 243d 2ecc 5d3c
00000230: 8f81 4dbc 64c5 c93d c397 f6bc cacd 3dbd
00000240: 2728 fe3d 2c5c 273d 5080 c3bc e0f5 2bbc
00000250: 6374 84bc e70b 8e3c c5f0 413d d159 733b
00000260: c5b8 943c 55f8 2e3d 189d 0b3e c0b0 8a3d
00000270: afce 6d3d d429 09bc 3795 c03d 522d 31bc
00000280: b481 32bd b31c 9ebb 0bd9 0b3b d900 26bd
00000290: c591 2e3c 9d0b 4bbc eb81 6dbc 91f5 9c3d
000002a0: 1509 b5bc e8b6 8bbd 3555 6ebd f5a9 26bd
000002b0: cad3 ecbc ba45 ef3d 22d8 823d 65b5 fbbc
000002c0: efbf 0c3e 8bf3 803d b69a 473d b277 58bd
000002d0: 134e a7bd ca9e cebc ae7b be39 0c0c 52bd
000002e0: e0c5 51bc 4431 6dbd 7622 9bbd 51b1 81bd
000002f0: 9e30 9a3d 4ce1 03bd 36a5 14bb 5e00 b03d
00000300: 8a1f ccbc cc49 c0bc 049b 0f3d 386d 4f3d
00000310: 73fd ff3d 2d43 c23d 793e 0abd 43f4 93bd
00000320: 0395 febd 5198 0a3c 059f 3dbd 6188 8fbd
00000330: 9ec1 57bd d1f1 d03c 50fd ef3c 540f bfbd
00000340: 0c4b ad3b 50de db3b 4d7c 28bd 249e ccbc
00000350: 8004 193b fbf7 873d ddd2 023d 1b47 05bd
00000360: 0d98 51bd 4ee7 fdbc 2f7a 8c3d 3206 443d
00000370: 085f 533d 5d35 3d3c 770f 22bc 402d 643d
00000380: 86a4 60bd 74b7 0f3d 281d 5abd c14f 4f3d
00000390: 89c5 8d3d 86f4 013d 4a5b 363d 5b35 153d
000003a0: 036a 5cbd 45f9 aa3d e0ce 243d c9bd bbbc
000003b0: ba2e 54bd 35ec e83c 99e5 3dbd e332 5e3c
000003c0: 769c 23bb 6d45 533d 0fb5 2bbd 98b9 2fbd
000003d0: 89c2 703d 4088 43bc 01a8 18bd e6a1 043d
000003e0: 9f9c b13d b07c ee3c fd36 e8bc 63e4 3dbd
000003f0: 4f16 013d 650b bb3d 6dd5 e0bd 6cd4 3fbd
-0.0694185 -0.033571124 0.036681827 -0.0044108303 0.037594177 0.09312074 -0.017963324 0.048018657
0.0716052 0.020485586 -0.07677279 -0.04718244 -0.07206858 0.03309144 -0.018837335 -0.014594813
0.020085016 0.042699534 -0.054182276 -0.05423642 -0.0022219329 -0.033606462 -0.0004791519 -0.040526904
0.04983581 -0.014573615 0.040416125 -0.09102134 -0.033343345 0.08362101 -0.032526504 0.043651003
0.09609182 -0.0029270852 0.08046214 0.04185329 -0.088886626 0.044672545 0.024695782 -0.09698471
-0.09773798 -0.106535405 0.08772662 0.12606086 0.01761554 -0.11651675 -0.036706064 -0.1056458
-0.07499588 -0.04477073 0.1359287 0.019534804 -0.0673806 0.006950891 0.009533117 0.0054520876
0.077673055 -0.096343465 0.109744884 -0.10906465 -0.05394339 -0.0025207133 0.07156532 -0.088131234
-0.06128836 -0.017613683 0.06491999 -0.08991679 -0.10339173 0.038193565 0.06258563 0.05320008
-0.027434474 -0.12721047 0.073753215 0.06494025 0.034528855 0.08827535 0.022356471 0.049374364
-0.082453795 0.092636816 -0.044752177 -0.00374791 0.0466248 -0.012355034 -0.05955209 -0.06807371
0.022406835 -0.08394308 -0.030244293 -0.02530666 -0.04691543 0.021833895 -0.04682309 0.022342907
0.107003205 -0.016877977 -0.031495772 0.02680481 -0.098113716 0.020949345 0.10295703 -0.06346844
0.03287766 -0.04256664 0.046508886 0.06737327 0.06510719 0.0075053605 -0.03734031 -0.0049404944
-0.07747028 0.031726833 -0.10194525 0.053608276 0.058668457 0.047531642 0.022807254 -0.051188152
-0.088951245 -0.050725233 -0.08519193 0.030987713 -0.0477009 0.05366453 0.05646126 -0.008617768
-0.037996292 0.038516168 0.0519812 0.046734642 -0.033600695 -0.0356492 0.053436782 -0.020203287
-0.034350444 0.014153783 0.040102094 0.01353745 -0.012543096 0.098521024 -0.030101663 -0.046338834
0.12410002 0.040859386 -0.023864895 -0.010495633 -0.016168779 0.01733966 0.047348756 0.0037132392
0.018154511 0.042717297 0.13634145 0.06771994 0.058058437 -0.008371789 0.094034605 -0.010814028
-0.043580726 -0.0048251986 0.0021339084 -0.040528152 0.010654871 -0.012392906 -0.014496307 0.076640256
-0.022099057 -0.06821996 -0.05818673 -0.040689427 -0.028909583 0.11683221 0.0638888 -0.030726144
0.13745092 0.06296452 0.04873153 -0.052848525 -0.08169188 -0.0252222 0.00036331773 -0.05128102
-0.012803525 -0.05790831 -0.07574932 -0.063326485 0.07528804 -0.03219728 -0.0022681481 0.0859382
-0.024917383 -0.02347269 0.035059944 0.05064127 0.124995135 0.09485469 -0.033750985 -0.072243236
-0.124307655 0.008459167 -0.04629423 -0.07008434 -0.052674882 0.025505932 0.029295594 -0.093290955
0.0052884873 0.0067098513 -0.041134167 -0.024977751 0.002334863 0.066390954 0.031939376 -0.032538515
-0.051170398 -0.030994084 0.06859242 0.04785747 0.0516043 0.011548367 -0.009891382 0.055707216
-0.0548444 0.035087064 -0.05325046 0.05061317 0.069224425 0.031727336 0.044520654 0.036427837
-0.05381204 0.08348326 0.040236354 -0.022917645 -0.051802374 0.028432945 -0.04636154 0.013561937
-0.0024965084 0.05157988 -0.041920718 -0.042901605 0.058779273 -0.01193434 -0.037269596 0.03238096
0.08672451 0.02911219 -0.028346533 -0.046360385 0.031515416 0.09133033 -0.10978208 -0.04683344

ensemble_blocks.0.4.bias f4 [128]
00000000: a4a7 883d c795 9abc 7529 213d 5b4d 97bc
00000010: a513 263d f36b b3bc 7ff4 36bd e0ae 5cbd
00000020: d6bc a73d 9fc3 5d3d 4cf8 a8bd 3e26 85bd
00000030: 5c98 16bd 74a9 c13c 2d86 b5bd cda0 0d3d
00000040: 804f 89bd fd89 cabc b5b5 8cbc 8bd9 9dbd
00000050: a5dc 82bd 2f36 1dbd eccb 48bd 4ba9 903d
00000060: abf1 8f3d 5355 563d 490e 34bd 02cd 863d
00000070: 90bc 763c 2331 75bd eda9 183d a1ae 7b3d
00000080: d6ae 4f3c f931 d73c b789 a7bd cff9 99bd
00000090: 8f09 f8bc 2312 9dbd d33c 573b 26ba 763b
000000a0: 05dd 2e3c 8ba0 373d 6e9b 723c eb23 8c3d
000000b0: 4133 913d e758 b2bb 738a f5ba 154a 87bc
000000c0: a495 b33d cdd1 8b3d 1b6d 5f3d a56a eabb
000000d0: 276d f23b 6412 16bd dbef 7abd 5874 1a3d
000000e0: 70c9 e2bc a0f2 1d3d 44dd 413d 649f a93d
000000f0: ffb4 7bbd 4ce0 a33d 1368 383d bb59 8a3d
00000100: 89ef 83bd 8923 b2bc 8bd1 f53b beaa 6f3c
00000110: 770a ab3d ed71 8e3d 7bea 7b3d ae00 a7bd
00000120: 63d7 603d d390 773d d37f a43d 928f 903d
00000130: a3c0 36bc beb6 9a3c b0af 053c 3cbc 883c
00000140: 27bb f43c aecb 38bd 6c37 1b3c d909 bc3c
00000150: 61be 093d c90d febc bf49 99bd b23d 9b3d
00000160: ac8e 9dbd 4ba0 b5bd 706c b13d 1895 d53c
00000170: 9b45 a6bd cf57 9b3c 00e3 9abd ab4b 84bc
00000180: 5908 093d d9d1 a4bd 105c 2ebc 554a 803d
00000190: ecd2 c0bc 9b9e 9ebc 87a3 9dbd dd06 42bd
000001a0: cffe 93bc 13d9 9a3d eac0 95bd a716 c7bc
000001b0: 84da 0d3d 7233 8dbd 70e9 9bbd 989c 793b
000001c0: 528d b03d 5d7a 8dbd e42e 8c3d 1290 87bc
000001d0: 2db2 9ebd 229e 423d 49aa 5bbd 7212 5b3d
000001e0: 99ab bfbc 5538 973c e90e dbbc b879 2d3d
000001f0: 2c2b c9bc d1dc 15bd c055 473d 39e2 63bd
0.066726 -0.018870248 0.039346177 -0.018469503 0.04054608 -0.02190206 -0.044666763 -0.05387771
0.081903145 0.054141637 -0.08250484 -0.06501435 -0.036766395 0.023640372 -0.088634826 0.03457718
-0.067046165 -0.024724001 -0.017176488 -0.07707509 -0.06389741 -0.03838175 -0.0490226 0.0706354
0.070285164 0.052327465 -0.043958936 0.06582071 0.015059605 -0.059861314 0.03727143 0.061445836
0.0126759615 0.026268946 -0.08180564 -0.0751835 -0.030277995 -0.07669475 0.003284265 0.0037647574
0.010672812 0.04483084 0.014807565 0.06842788 0.07089854 -0.005442727 -0.0018733278 -0.016514817
0.08768776 0.06827126 0.05454741 -0.0071538263 0.007398266 -0.036638632 -0.0612639 0.03770861
-0.027683944 0.038561463 0.047330156 0.082823545 -0.06145191 0.080017656 0.045021128 0.06755396
-0.06442172 -0.02174546 0.007501786 0.01462811 0.083516054 0.06955323 0.061502915 -0.081544265
0.05489291 0.06044085 0.08032193 0.07058634 -0.011154327 0.018885966 0.008159563 0.01669132
0.029874397 -0.04511612 0.009473663 0.022953914 0.033628825 -0.031012433 -0.07484769 0.07580127
-0.07693228 -0.08868464 0.08663261 0.02607207 -0.08118745 0.018962769 -0.07562828 -0.016149363
0.033455227 -0.08047838 -0.010642067 0.06264178 -0.023538075 -0.019362738 -0.07697206 -0.047369827
-0.018065838 0.07560935 -0.07312186 -0.024302794 0.03463222 -0.06894578 -0.07612884 0.0038087722
0.08620705 -0.069081046 0.06844881 -0.01654819 -0.07748828 0.04751409 -0.053629193 0.053484388
-0.023397254 0.018459478 -0.026740508 0.04235241 -0.024556719 -0.03658754 0.048665762 -0.055635665

ensemble_blocks.0.5.weight f4 [128]
00000000: 762e 863f 83af 933f a704 813f f3a0 8e3f
00000010: 2ca0 823f ad0b 933f 27e2 8b3f 6376 813f
00000020: b439 833f 5ac7 873f 6eac 903f 6b28 913f
00000030: bfc3 813f cb18 8c3f a06c 973f a854 813f
00000040: bfa8 803f 5948 953f abab 7b3f 8363 813f
00000050: cd3a 933f 8afd 833f 49a0 7e3f cbcb 933f
00000060: b116 7e3f 3a38 933f 7c03 863f f7c7 7c3f
00000070: 60ec 843f b278 7c3f b734 7b3f f86e 963f
00000080: 3552 953f 4065 7a3f 2bc8 853f 578e 843f
00000090: 227f 833f 738c 823f 1e9c 7b3f a814 823f
000000a0: 5cd1 863f 2cf9 903f a303 923f de0e 8f3f
000000b0: 8114 853f 5390 963f e5bb 883f e5a3 803f
000000c0: 1714 7d3f be97 7b3f 05f7 8d3f a96a 7a3f
000000d0: b9ed 953f fda2 933f da28 8c3f 39ce 963f
000000e0: 2656 7b3f f027 843f 37f1 953f 2fd1 903f
000000f0: f317 863f bbd7 873f 0e47 833f fb9f 7c3f
00000100: 83fd 803f 7ca4 7b3f 231f 7d3f fd99 943f
00000110: 6bb9 913f 1b56 813f a327 823f 0be4 963f
00000120: 8f8b 823f 4638 933f 6f58 7c3f 8278 903f
00000130: e7e0 843f f216 843f b206 823f 624a 853f
00000140: 6266 8f3f 3426 923f 467a 913f bf46 903f
00000150: 8ba9 963f 9467 8c3f d946 8d3f 96e1 923f
00000160: 1df3 783f 1790 923f d10f 793f 1050 963f
00000170: 86a2 863f 346b 8a3f c28c 953f f1f4 803f
00000180: 1891 8c3f 0e56 7d3f 72b8 823f 6c85 7c3f
00000190: 98fb 823f f65a 923f a65d 833f a498 943f
000001a0: 9a11 883f cc6d 853f 33f4 8b3f 3958 873f
000001b0: 78f3 913f 3f32 843f 56a7 893f 3fff 8e3f
000001c0: a359 7e3f feb8 883f 3b90 873f 9e4d 933f
000001d0: 6611 863f 3f07 933f e358 893f 58ba 933f
000001e0: 2331 7b3f 67cd 8b3f 0cc6 853f 3f27 913f
000001f0: c730 833f c8e3 873f 626f 883f 6457 873f
1.0482929 1.1537937 1.0079545 1.1142868 1.020513 1.1487938 1.0928391 1.0114254
1.0251985 1.0607712 1.1302621 1.134046 1.0137862 1.0945066 1.1830025 1.010396
1.0051497 1.1662704 0.9830882 1.0108494 1.150232 1.0311749 0.99463326 1.1546568
0.99253374 1.1501534 1.0469813 0.9874262 1.0384636 0.98621666 0.9812731 1.1752615
1.1665713 0.97810745 1.0451711 1.0355939 1.0273173 1.0199112 0.9828509 1.0162554
1.0532641 1.1326041 1.140736 1.1176412 1.0396882 1.1762794 1.0682341 1.0050017
0.9885878 0.98278415 1.1091009 0.97819 1.1713172 1.1534115 1.0949967 1.1781684
0.9817833 1.0324688 1.1714238 1.1313838 1.0476059 1.0612711 1.0256059 0.9868161
1.0077366 0.9829786 0.98875636 1.1609493 1.138471 1.0104402 1.0168346 1.1788343
1.019884 1.1501548 0.9857244 1.1286776 1.0381135 1.0319502 1.0158293 1.0413325
1.120312 1.1417909 1.136544 1.127159 1.177049 1.096911 1.1037246 1.1475093
0.9724596 1.1450223 0.9728976 1.1743183 1.0518348 1.0813966 1.1683581 1.007475
1.0981779 0.98959434 1.0212538 0.98641086 1.023303 1.1434009 1.0262954 1.1609082
1.0630372 1.0424132 1.0933899 1.0573798 1.1402426 1.0327834 1.0754192 1.1171645
0.99355525 1.0681455 1.0590891 1.1508062 1.047406 1.1486586 1.0730251 1.1541243
0.9812185 1.0922059 1.0451064 1.1340102 1.0249261 1.0616388 1.0658991 1.0573545

ensemble_blocks.0.5.bias f4 [128]
00000000: 2913 e73c 44d2 9b3d 0100 a1bb cb77 453d
00000010: a957 d3bc 8b55 673d f963 563d 681d 92bc
00000020: 2ffc 393a 8c91 aabc a00b 803d 7dcf 863d
00000030: 0133 823c 5f07 043d 686e 9d3d d3b7 a33c
00000040: d49e 163c 81b3 b83d f26f d5bc be5a dabc
00000050: b5f0 9c3d 7ecf 84bc ab57 053c e7ba 983d
00000060: f71f 93bc 24a2 b03d 5ee5 f43c 2292 f3bc
00000070: 0653 bb3c 7f1a ac3a 79e4 b2bb 4f1c b53d
00000080: 6eaf a43d 798d c3bc 83b0 c63c beeb 533c
00000090: bcee 27bb 9585 af3b ee64 80bc 0620 8f3c
000000a0: 2fd2 7a3c 808c 4d3d 6c89 a43d f592 803d
000000b0: 92c9 a3bb e1e9 a13d d3cd a03c 9158 223c
000000c0: ea71 8fbc 71b0 05bd 877a 433d 06be 14bd
000000d0: e4b7 9a3d bc56 9b3d 08b5 4a3d 93eb a63d
000000e0: 6fde 71bc b249 4f3a acb9 a13d 49a9 5f3d
000000f0: 9a1b 1d3a 8441 063d 3912 d73c 259e cebc
00000100: 76c2 253b 2618 573c 7d00 fbbc dcc7 923d
00000110: d621 643d 7501 4dbc 1f75 07bc f049 b23d
00000120: 2176 cdbc ce25 b83d 4cb4 8ebc e424 343d
00000130: 1042 92bc 3d72 943a 67ee 9b3c e200 82bc
00000140: 4c87 0d3d 8007 8c3d 1959 8f3d 3741 813d
00000150: c79d c43d 279e d83c 6819 a03d 92e6 aa3d
00000160: e24c 1abc 1dc4 a53d 3feb 04bd 8fa8 a93d
00000170: 7b04 90bb 3bd4 1f3d 62f2 6e3d b03d ca3c
00000180: 35ac 473d 5ee1 dabc a706 8cbc 0905 893c
00000190: 4372 3ebc 6190 803d e0e4 8dbc 7754 813d
000001a0: 2e52 063d f1fa 1eb9 c58f 793d be76 e23b
000001b0: bd76 a13d a408 54bc e27c 4d3d 4308 333d
000001c0: 60b9 15bd 1b66 b13c f724 193d ed10 513d
000001d0: 19be 803c 87b3 543d 1729 7f3c ab5e ca3d
000001e0: 1284 39bd bc03 2d3d 9598 bc3c cdb5 833d
000001f0: bd27 de3b d124 4b3d d194 523b 43d5 de3c
0.028207378 0.07608464 -0.0049133305 0.048209947 -0.025798636 0.056478065 0.052341435 -0.017836288
0.0007094768 -0.020821355 0.06252217 0.06582544 0.015893461 0.032233592 0.07687074 0.019985115
0.009193141 0.09018613 -0.026054356 -0.026654597 0.07663099 -0.016212221 0.008138577 0.07457524
-0.017959578 0.08624676 0.029894527 -0.029732767 0.022866737 0.0013130455 -0.005459365 0.0884329
0.08041273 -0.02387117 0.02425409 0.012934623 -0.0025624475 0.0053565004 -0.015673127 0.017471325
0.015308901 0.05018282 0.08034024 0.0627803 -0.0049983943 0.07905937 0.019629395 0.009908811
-0.017510373 -0.03263897 0.047724273 -0.036314033 0.075546056 0.07584903 0.04948905 0.08150401
-0.014762505 0.0007907405 0.07896742 0.054604802 0.00059931877 0.032777324 0.026253806 -0.025221894
0.002529291 0.013128316 -0.030639881 0.071670264 0.05569633 -0.012512554 -0.00826767 0.08705509
-0.025080742 0.08991586 -0.017419957 0.043980494 -0.017853767 0.001132555 0.019034578 -0.015869562
0.034552857 0.06837368 0.06999416 0.06311267 0.09600406 0.0264426 0.07817346 0.08344759
-0.009417744 0.08094046 -0.03245091 0.08284103 -0.0043950654 0.039020758 0.058336623 0.024687618
0.048748214 -0.026718792 -0.017093016 0.016726034 -0.011623922 0.06277538 -0.01732105 0.063149385
0.032793216 -0.00015161537 0.060928125 0.006911128 0.07883976 -0.012941513 0.050167926 0.04370905
-0.03655374 0.021655133 0.037388768 0.051041532 0.015715646 0.051929023 0.015573761 0.09881338
-0.045291968 0.04223989 0.023021976 0.0643116 0.0067796395 0.049595658 0.0032132159 0.0272013

ensemble_blocks.0.5.running_mean f4 [128]
00000000: 8732 2dbd 2b00 1b3e 94ca c53d 70b4 423e
00000010: 4a50 e3bd 4df0 443e 2414 e73d 4a18 7f3c
00000020: 8aa7 783e 6f08 8bbb 8867 f53d f680 ae3e
00000030: b20a 753a 286f 85ba 4e46 6b3e 66ad 0ebe
00000040: 427e 6abe b30c 6c3e 25cf 0c3e ccf1 56be
00000050: c788 3c3e 9d77 1bbe b95a 8abe fa11 be3e
00000060: 9302 f9bd 53bd 473e f33e a53e 0b86 02bd
00000070: db29 2c3d dd3a b7be 4424 3cbe 7efd 313e
00000080: 54ea ab3e 59fa 793d 18fe 23be ab98 48be
00000090: a800 71be a70c 693e 7921 1dbe 432f 36bc
000000a0: 7ba5 ca3e 6268 593e 41ca 363e c677 753e
000000b0: dae1 2e3d 1ec0 873e fcfb 8e3d 55bc 92be
000000c0: 6677 a2bc 4764 b1bc d4bc 893e df61 0d3e
000000d0: c6bc 8e3d c787 893e 5ff0 dcbc d05f 8b3e
000000e0: d647 80be e0e8 25b9 345f be3e 8df7 cb3e
000000f0: 4160 11be c90c 153e ed25 af3d a40b 80be
00000100: 03ac 6ebe 24d7 133d 035c cabd 3eee 8e3e
00000110: 042f 9f3e ad2f 1e3d 3db8 c1bd 2a0c 143e
00000120: a6a9 d83c 8c5b f83e 6d2e 973e 065e db3e
00000130: 4f59 7fbe 1724 dcbd ef3a 9fbe 34e5 15bd
00000140: 105c d63e ab5e 2d3e 33a7 f1bc b05e 2c3e
00000150: fb29 993e 9481 633e 4aa7 c43d 1fd8 bf3e
00000160: 836a f7bc e1bc c03d fbc8 5fbd 692b 833e
00000170: 0603 1ebe ca49 203e 10a6 6d3e 5043 eebd
00000180: e2e1 273b fbd8 afbe 8659 00be ee42 87bd
00000190: 73f4 213d b5ff 343e 010a 51bd c3ae 303e
000001a0: 5257 57bd 9a86 d3bd 2fc0 663e dc27 b6be
000001b0: 474f 3b3e 9ac0 b0bd 3405 003d 6e18 8e3d
000001c0: 4721 c33d 115f c33e ca1d 1c3e 6263 7d3e
000001d0: 9de2 c6bc e5a8 173e 2443 3cbd 8406 d53e
000001e0: 6a79 22bd 88c5 023e fa52 94bd e9ee 843e
000001f0: e877 83bd 00eb b33d fc20 303d c578 61be
-0.042284515 0.15136783 0.09657779 0.19014144 -0.11099298 0.19232292 0.112831384 0.015569756
0.24282661 -0.0042429487 0.11982638 0.34082764 0.0009347602 -0.0010180222 0.22976038 -0.13933334
-0.22899726 0.2305172 0.13750894 -0.20990676 0.18411551 -0.15182348 -0.2702234 0.3712309
-0.12158694 0.19505815 0.3227459 -0.031866115 0.042032104 -0.35787097 -0.18373209 0.17381856
0.33577216 0.061029766 -0.16014898 -0.19589488 -0.23535407 0.22758733 -0.153448 -0.0111196665
0.39579377 0.21231225 0.17850591 0.23971471 0.042695858 0.2651376 0.06981656 -0.2865931
-0.019832324 -0.021654261 0.26901877 0.13806866 0.069695994 0.26861402 -0.026970087 0.27221537
-0.25054806 -0.00015822379 0.3718201 0.39837304 -0.14196874 0.14555658 0.08552156 -0.2500888
-0.23307805 0.036093846 -0.09880831 0.2791614 0.31090558 0.038619686 -0.09458969 0.14457765
0.026448082 0.48507345 0.29527608 0.42845172 -0.24936412 -0.10749071 -0.3109965 -0.03659554
0.41867113 0.16930644 -0.029498672 0.16832995 0.2991484 0.22217399 0.0960222 0.37469575
-0.030202156 0.09411026 -0.05463503 0.25619057 -0.15430841 0.15653148 0.23207879 -0.116339326
0.0025616814 -0.3434523 -0.1253415 -0.06604563 0.039539766 0.1767567 -0.05103493 0.17254166
-0.05257351 -0.103284076 0.2253425 -0.35577285 0.1829196 -0.08630486 0.031254962 0.06938253
0.095278315 0.38158467 0.15245739 0.24744943 -0.02427798 0.14810522 -0.045962468 0.41606534
-0.03966657 0.12770665 -0.07242389 0.25963524 -0.06419355 0.08785057 0.043000206 -0.22018726
