backend/models/tabm_k2_pruned.pth (torch, 197949 bytes, 37 tensors)

embedding.embeddings.0.weight f4 [10, 4]
000000 12 86 87 bf 9d a4 3d 3f f9 c7 8f 3e 37 81 5e 3f
       -1.058779 0.74079305 0.28082255 0.86915916
000010 37 c3 c1 bf ab 72 23 3e 57 b1 1e bf 7e 34 e7 bf
       -1.51377 0.15961711 -0.6198935 -1.8062894
000020 b8 b1 a0 be 3f f5 42 bf d6 9b a8 bf fd b8 95 3e
       -0.3138559 -0.76155466 -1.3172557 0.29242697
000030 98 02 a3 bf f6 ea 50 3d f6 36 b1 bf 24 85 8a 3f
       -1.2735167 0.051005326 -1.3844898 1.0821881
000040 e1 5d fd be 04 30 c4 be 8a 0c 25 3f bd a8 36 bf
       -0.49485686 -0.38317883 0.6447226 -0.71351224
000050 97 15 9f bf c1 a3 92 be f5 bf 96 bf cd 14 90 bf
       -1.2428464 -0.2864056 -1.1777331 -1.1256348
000060 48 a0 39 3d 5d a1 96 bd 94 15 6a bf 0e 83 f5 bd
       0.04531887 -0.07354996 -0.91439176 -0.11987887
000070 f6 88 fc bf 51 b5 34 3f e4 b1 97 be d3 0c 23 3f
       -1.9729297 0.70589167 -0.29627907 0.63691443
000080 79 87 da bf 0c 63 c7 bf 6c 2a de be 47 37 9f bc
       -1.7072593 -1.5577102 -0.4339174 -0.019435538
000090 52 a4 35 bf 1e 2b 6a bf 4d 03 c4 be fe 26 df 3f
       -0.7095386 -0.9147204 -0.38283768 1.7433774

embedding.embeddings.1.weight f4 [3, 4]
000000 dd 93 8b be 58 43 df 3e 4c 80 e9 be 94 d0 15 3e
       -0.27261248 0.43606067 -0.45605695 0.14630347
000010 ce b1 1e 3f be a2 12 3e bf c1 5a 3e 73 cc 15 bc
       0.6199006 0.14319894 0.21362971 -0.009142983
000020 91 61 ac 3e b3 4a 69 3f c9 c0 11 40 55 ea f8 bf
       0.33668187 0.91129607 2.2773917 -1.9446512

embedding.embeddings.2.weight f4 [2, 4]
000000 38 b8 29 bf df 72 d8 3f d6 0b 17 bf 5c cf 7a 3f
       -0.6629672 1.6910056 -0.59002435 0.97972655
000010 d0 3a 01 3e 67 ef d8 be d3 d0 1e be e1 77 cf bf
       0.12620091 -0.4237015 -0.15509348 -1.6208459

embedding.embeddings.3.weight f4 [8, 4]
000000 e2 49 cb 3f eb f1 93 be 80 2b 8d 3f a7 b9 8d 3f
       1.5881922 -0.28895506 1.10289 1.1072282
000010 4e dc 79 3f e6 bb f2 bd 4e ea 0b c0 93 d1 0d c0
       0.97601783 -0.11852245 -2.1861758 -2.2159164
000020 38 96 ad 3e 15 4e 0b 3f b1 17 f8 3e e7 1a 88 3f
       0.3390367 0.5441602 0.48455575 1.063321
000030 05 db a5 bf 84 95 3c bf 1d 52 b4 be 10 94 1b 3f
       -1.2957464 -0.7366564 -0.35218897 0.607728
000040 23 46 d5 bd 93 01 5f 3e f9 08 8b bd 67 18 a4 bf
       -0.10413768 0.21777944 -0.06788821 -1.2819947
000050 65 c7 35 c0 05 15 da 3f 34 75 75 3e 70 d6 b5 be
       -2.840295 1.7037665 0.2397049 -0.35515165
000060 6a 4f 81 be 48 5d bb 3d f3 02 a1 bf a2 a5 ea 3d
       -0.252559 0.09148651 -1.2579025 0.11457373
000070 9d 23 bf bd e9 ab 16 bf 94 32 5f bf 43 ff 9d 3e
       -0.093329646 -0.58856064 -0.8718655 0.30858812

embedding.embeddings.4.weight f4 [13, 4]
000000 bf af f6 bf 28 7f ce be 45 fd d1 3e c4 38 19 bf
       -1.9272383 -0.40331388 0.41013542 -0.5985224
000010 7c 62 de bf 2e f9 50 3e d3 9d 8f 3e ef b4 08 bf
       -1.7373805 0.20407555 0.28050098 -0.5340108
000020 24 50 de bf 76 8c 21 c0 6f 98 75 be ff e3 13 3d
       -1.7368207 -2.524198 -0.2398393 0.036106106
000030 85 34 07 c0 c0 a5 c8 be d4 4d a1 3f 94 a1 47 3f
       -2.1125805 -0.39188957 1.2601876 0.77980924
000040 d8 48 ab 3f 31 e7 8c 3f 6c 5e 7f 3f dc 50 30 3f
       1.3381605 1.1008054 0.9975345 0.6887338
000050 f1 7c be bf e4 f0 73 bf 95 ff 87 3f 05 a6 fa be
       -1.4881879 -0.95289445 1.0624872 -0.48954788
000060 47 f6 95 3f 00 89 55 bf 4c 1e 66 3f 40 58 67 3d
       1.1715783 -0.8341217 0.8988998 0.056480646
000070 04 29 55 3f 08 89 94 bf 67 31 91 3d fe fb 2c bf
       0.8326571 -1.1604319 0.07089501 -0.6757201
000080 96 d9 ea 3d 4d ff e0 3e 76 48 4c be 8b 61 f3 be
       0.114672825 0.4394478 -0.19949517 -0.47535357
000090 8a c5 22 3e ea 75 7d bf 16 1a 67 bf 1a 79 d7 3e
       0.15895668 -0.9900805 -0.9027418 0.4208458
0000a0 13 e4 d4 3e 50 fa dd 3e 4e 0d 49 bf c6 82 f1 3e
       0.41580257 0.43355036 -0.78535926 0.47170085
0000b0 d4 a9 17 3f 98 91 c3 3f 79 78 cb 3d 34 b8 16 bf
       0.5924351 1.5278807 0.09935088 -0.5887482
0000c0 d7 dc c9 3f 59 7d 8d 3f e2 2f ff 3f 28 98 cf 3e
       1.577052 1.1053878 1.9936488 0.40545774

embedding.embeddings.5.weight f4 [9, 4]
000000 9d 6e 31 3e 33 31 e2 3f 78 8f 97 be 21 3b 57 be
       0.17327352 1.7671264 -0.29601645 -0.2101865
000010 5f fd 36 bf eb 3b 4a bf 65 01 27 3f 4e 08 31 be
       -0.71480364 -0.7899768 0.652365 -0.17288324
000020 db 91 e2 bf 49 9f 48 bf 6b 18 b2 3f aa 59 5f 3f
       -1.7700762 -0.7836805 1.3913702 0.8724619
000030 31 84 5b bf 53 de b0 be 77 ee 9c 3f d9 fa 75 be
       -0.85748583 -0.3454462 1.2260274 -0.24021472
000040 c6 16 8d be de b8 be 3e f7 d7 f2 bd ec e0 66 3e
       -0.27556437 0.37250417 -0.11857598 0.22546738
000050 5c 55 9c 3e d8 f1 6c 3f 7c c6 d2 bf e1 e7 51 3e
       0.30533874 0.92556524 -1.6466823 0.20498611
000060 bd d2 f9 be e8 7b 93 bf c0 1c 32 3f 0a 53 c4 bf
       -0.48793593 -1.1522188 0.6957512 -1.5337842
000070 86 c7 72 bf 52 f6 41 3f 8a 83 e5 bf ba 52 9d bf
       -0.948357 0.7576648 -1.7930768 -1.2290871
000080 8a 8f d6 3e a7 eb 48 3f 32 04 c2 bf 7f 61 ca bf
       0.41906387 0.78484577 -1.515753 -1.5811003

embedding.embeddings.6.weight f4 [20, 4]
000000 8e 41 3a 3f 05 05 c4 3f 38 2f 19 3e 9a ce c4 3e
       0.7275628 1.5314032 0.14959419 0.38438874
000010 dc d1 eb 3e 4a 86 06 be 1f c2 45 bf 89 e3 9f bf
       0.46058547 -0.13137165 -0.7724933 -1.2491313
000020 11 d2 e8 be be 49 8a bf 37 ef c6 bf 70 b2 8a bf
       -0.45472768 -1.0803754 -1.5541753 -1.0835705
000030 ad 92 9b 3e 3f d1 14 c0 3f b3 ae 3e 24 48 77 3f
       0.30385342 -2.3252714 0.3412113 0.9659445
000040 b5 57 ce bf 1a 86 30 bf 9d 5d 58 3f ed 3a 21 bf
       -1.6120516 -0.6895462 0.8451784 -0.6298054
000050 e7 a4 31 bf 97 23 c4 be de 38 40 3e b8 d8 94 bf
       -0.69392246 -0.38308403 0.18771693 -1.1628637
000060 2c 89 5c bf 08 5a 17 bf f7 7c 60 bf d9 5a b0 bf
       -0.8614681 -0.5912175 -0.8769068 -1.3777725
000070 e7 ca 48 bf 08 cd b3 3e 00 75 b4 3d 1f 6f fa 3d
       -0.78434604 0.35117364 0.088113785 0.12228226
000080 95 5e 12 bf b3 f9 e9 3e 87 fb c9 3f f0 ef 2a 3f
       -0.5717557 0.45698318 1.5779885 0.66772366
000090 69 68 4f 3e 8f 9e 0d be 5d 0f c9 bd af 9d cd 3e
       0.20254673 -0.13830017 -0.098173834 0.40159366
0000a0 e9 35 17 3f 4b 4b b4 bd fe 92 b8 3f 94 cf 84 3f
       0.59066635 -0.088034235 1.4419858 1.0375848
0000b0 18 07 dd 3e 7d 54 a3 3d 2c 41 17 c0 3b cd b2 be
       0.43169475 0.07975099 -2.3633528 -0.34922203
0000c0 b3 27 be bf 53 0f 3d 3f ec e2 8d 3f 98 f0 9f bf
       -1.4855865 0.7385151 1.1084876 -1.2495298
0000d0 d1 76 0b be 8d cd a1 be 02 0b ab bd 7d b8 d0 3f
       -0.13619544 -0.31602135 -0.08351709 1.6306301
0000e0 48 f1 95 3f 58 21 bc bf 1e 4e 1d 3f 3a 51 b3 3f
       1.1714258 -1.4697676 0.6144732 1.4009163
0000f0 15 0e bb be 3d ef 77 3f 51 88 82 3f 8f be b4 3f
       -0.3653418 0.96849424 1.019785 1.4120654
000100 b8 f4 f3 3f 65 3e 6a 3f 54 02 17 3f 26 93 a1 3e
       1.9059057 0.91501456 0.5898793 0.31557578
000110 d0 39 8a be d1 73 78 be 9e 8e c3 3f 50 b7 95 3f
       -0.26997232 -0.2426293 1.5277898 1.1696568
000120 3c 36 06 c0 55 ef bc be 90 45 08 40 df 42 cb 3d
       -2.0970602 -0.36901346 2.1292458 0.09924864
000130 ad 48 db bf 40 c3 89 be 86 31 43 bf 62 1d b6 3f
       -1.7131554 -0.26906776 -0.7624744 1.4227717

bn_in.weight f4 [38]
000000 16 51 7f 3f 25 d7 70 3f f6 7b 75 3f 9c 06 7c 3f
       0.997331 0.94078285 0.95892274 0.98447585
000010 06 11 70 3f d0 09 7b 3f 4c d3 78 3f 1e 02 74 3f
       0.93775976 0.9806185 0.97197413 0.9531573
000020 02 e4 70 3f b2 45 78 3f 03 0d 7b 3f 13 f2 73 3f
       0.9409791 0.96981347 0.9806673 0.9529125
000030 fc 72 6e 3f 86 3d 73 3f 08 5e 71 3f 92 26 74 3f
       0.931442 0.9501575 0.94284105 0.95371354
000040 9c 88 70 3f 99 0b 6e 3f 5d 41 73 3f 1e 3c 75 3f
       0.9395845 0.92986447 0.9502161 0.95794857
000050 82 99 67 3f a6 6a 6d 3f bb 22 70 3f c3 8c 6f 3f
       0.9046861 0.9274086 0.93802994 0.9357416
000060 49 ae 74 3f f5 97 70 3f 8c d7 70 3f a5 0e 70 3f
       0.9557844 0.9398187 0.940789 0.93772346
000070 fa 95 81 3f 73 64 77 3f cd 48 6e 3f 3a 67 6e 3f
       1.0123894 0.9663765 0.93079835 0.9312626
000080 ab 53 78 3f 6b 91 7d 3f 07 80 85 3f 8f e5 7e 3f
       0.9700267 0.99050015 1.0429696 0.9956903
000090 59 dc 8e 3f 41 ee 6b 3f
       1.1160995 0.9216042

bn_in.bias f4 [38]
000000 ab b6 11 38 47 b0 25 3a 0d 3d 3e b9 18 9d 25 3b
       3.4740817e-05 0.0006320518 -0.00018142555 0.0025270637
000010 f5 14 bf 39 7b a8 bd b9 5e ab 3b 38 df 17 6e 39
       0.00036445973 -0.00036174417 4.4743872e-05 0.00022706341
000020 a9 08 12 ba cf 64 a5 ba 78 07 6b 39 8b 54 4a 3a
       -0.00055707485 -0.0012618544 0.00022414129 0.00077182864
000030 5d aa 56 39 bc 66 8a 3a 6c 9a 6b b9 b5 ee 06 3a
       0.00020472096 0.0010559182 -0.00022468873 0.00051472645
000040 07 0c ad ba 4b 5b a1 ba e1 09 dd 39 0e 2a 0e 3a
       -0.0013202437 -0.0012310533 0.00042159765 0.0005423137
000050 40 0b 8c 39 67 93 8c 39 91 a7 09 ba d7 98 89 ba
       0.00026711263 0.00026812704 -0.00052511046 -0.001049782
000060 9f 53 47 3a 74 b9 30 38 9b e7 9a ba 2b fe 0e 3b
       0.0007603708 4.2134387e-05 -0.0011818291 0.0021818976
000070 f7 ea 8a ba dc 4f e7 36 86 06 91 ba 00 bb 77 3a
       -0.001059859 6.8936333e-06 -0.0011064566 0.00094501674
000080 01 fd e3 39 c7 b6 b8 39 bc 9e 50 ba fe c8 79 ba
       0.00043485317 0.00035231395 -0.00079582236 -0.00095285464
000090 76 2e 91 bb 5d eb 85 ba
       -0.0044305874 -0.0010217238

bn_in.running_mean f4 [38]
000000 f3 cb 88 bf 8a 82 eb 3c bc 90 2c bf cb f1 4b be
       -1.068724 0.02874877 -0.6740835 -0.19916455
000010 25 6e 84 3e e4 f0 57 3f b7 97 f3 3f 6c e0 d3 bf
       0.25865284 0.84351945 1.9030675 -1.6552863
000020 9a f5 f3 be 9e 9c 98 3f d3 14 fa be 68 6b bb 3e
       -0.47648317 1.1922796 -0.48844013 0.36605382
000030 6a 1e 5d 3f 54 68 21 bd b4 74 5d bf 87 f1 35 bf
       0.86374533 -0.039406136 -0.865062 -0.71071666
000040 56 03 a4 bf 36 db 3f bf 3e 67 44 3f 9e c5 fd be
       -1.2813518 -0.74943864 0.76720035 -0.49564832
000050 7e 9b f0 be fc 77 ec 3e 81 46 28 3e e3 95 e2 bd
       -0.4699363 0.4618529 0.16433145 -0.11063745
000060 7c 10 7a 3e a3 6c 09 3e fe 25 11 bf d6 ef 90 3e
       0.24420351 0.13420348 -0.56698596 0.2830798
000070 00 cb b6 38 a0 a9 70 3c 10 65 29 bc 56 a5 75 bb
       8.716248e-05 0.014688879 -0.010339037 -0.003748258
000080 40 4d 9a bc 8f 86 1b bc 86 bf 00 3c 3e 74 52 3c
       -0.018835664 -0.0094925305 0.007858163 0.012845097
000090 9e 1f 50 3c d2 b9 7d 3b
       0.012702851 0.0038715494

bn_in.running_var f4 [38]
000000 56 48 1b 3f fb f4 9c 3e 89 ae 42 3e b1 8b 6a 3f
       0.6065725 0.30655655 0.19011892 0.916194
000010 b0 eb 30 3d 6a ff f0 3c a5 53 5f 3f 2d a6 04 3f
       0.04319352 0.029418666 0.87237006 0.51816064
000020 c3 f1 e5 3d 55 1f 4f 3f c1 99 0e 3d f6 6d 9c 3f
       0.11227753 0.80907184 0.0348146 1.2221057
000030 96 39 c5 3e a0 fe e7 3d 0d 19 08 40 62 09 28 40
       0.38520497 0.11327863 2.126529 2.6255727
000040 f5 b1 22 3f 06 02 4c 3e cc 62 52 3e eb c1 fd 3c
       0.6355279 0.19922647 0.205455 0.030976256
000050 7b ea 17 3f 97 fe ad 3f 4b bf 79 3f c5 8d e4 3e
       0.59342164 1.359332 0.97557515 0.44639412
000060 b1 23 33 3f 65 99 45 3f 57 03 e8 3f 13 b9 49 3f
       0.69976336 0.77187186 1.8126019 0.78798026
000070 1f 29 83 3f 57 2b 92 3f 03 21 74 3f 32 25 82 3f
       1.0246924 1.1419476 0.9536287 1.0167601
000080 b7 c9 70 3f 6f d4 9a 3f e6 f3 83 3f 25 d2 83 3f
       0.9405779 1.209608 1.0308807 1.0298506
000090 31 28 83 3f 13 7c 83 3f
       1.024664 1.027224

ensemble_blocks.0.0.weight f4 [128, 38]
000000 8c b9 10 3e 52 da 1f 3e b3 24 98 3d 72 c8 af bb
       0.1413328 0.15610626 0.07428875 -0.005364471
000010 4e f8 9a bd 0e 2a 57 bd 8a 55 1a 3e fb 3b a1 bd
       -0.075668916 -0.05253034 0.15071693 -0.078727685
000020 e5 17 25 3e af fe 99 3d 71 32 33 bd b7 49 07 3e
       0.16122396 0.0751928 -0.043749277 0.13211714
000030 a0 32 0d bc f8 ab b1 bd c7 21 c4 bb 83 0c 42 bc
       -0.008618027 -0.086753786 -0.005985472 -0.011843803
000040 76 ab 03 be b0 3b 04 be 87 7e 9f 3d 64 c7 4e bd
       -0.12858376 -0.12913394 0.07787805 -0.050483122
000050 96 57 98 3d a1 7f 4c bd f1 c6 04 3e 96 f3 0a be
       0.07438581 -0.049926404 0.12966515 -0.13569483
000060 68 d1 08 3e 94 13 35 3e 79 d2 94 3d 78 03 91 3d
       0.13361132 0.1768325 0.07266707 0.0708074
000070 f8 a3 77 bd 2a 62 f8 3c 1c e9 17 3d 48 71 13 3d
       -0.060459107 0.030320246 0.037087545 0.035996705
000080 ff cc af bd 90 35 84 3c 50 18 b4 bd 23 18 81 bc
       -0.08584022 0.016138822 -0.087937 -0.01575858
000090 89 ad 83 be 14 cf 2f 3d 32 ba fa 3d d0 65 8a bc
       -0.25718334 0.042922094 0.12242545 -0.016894251
0000a0 50 d6 22 bd 89 4b 7d bd a8 a8 cd bd 88 e8 8e bd
       -0.039755166 -0.061839614 -0.10041934 -0.069779456
0000b0 48 e5 cb 3c d5 12 11 be 56 48 8a bd 00 f2 ab 3c
       0.024889603 -0.1416734 -0.06752078 0.020989418
0000c0 a4 9e 28 3e 2c 80 66 3d 78 af 65 3b c2 77 6d bd
       0.16466767 0.056274578 0.0035047214 -0.057975538
0000d0 3b 24 a3 3d 5a b2 f1 bc fe 01 fd bd 51 c9 a5 bd
       0.07965895 -0.02950399 -0.123538956 -0.08095039
0000e0 df e3 d4 bd 91 fa 41 3d a3 f8 e1 bd 8a 98 57 bd
       -0.103950255 0.0473581 -0.11033752 -0.052635707
0000f0 90 36 94 bd ce 29 8d 3b 33 7a e4 bc 0d d6 84 bd
       -0.072369695 0.004307962 -0.0278903 -0.064861394
000100 bb 96 b2 bd 97 0c 3f 3d 8e 96 ef bd 9d b6 81 bd
       -0.08720156 0.046642866 -0.11698638 -0.06333659
000110 70 49 0e 3d 7a c2 27 bc 7b 02 ca 3c 7b 2b 87 3d
       0.034738004 -0.010239238 0.024659386 0.0660009
000120 d4 3c 59 bd 99 ee 06 bd 66 99 55 be 13 73 6d bd
       -0.053036526 -0.03294239 -0.20859298 -0.05797107
000130 ff 36 d9 bd 31 96 e3 bd 88 8f fd bd 8e 07 05 be
       -0.10606193 -0.11112631 -0.12380892 -0.12991163
000140 0a b4 b4 3d 1e c5 ef bd 0c 60 d8 bd 7a 23 f6 3d
       0.08823402 -0.11707519 -0.105651945 0.12018485
000150 38 7b 41 bd d4 48 f3 bc 97 5c 5e bd 7a 74 07 bb
       -0.04723665 -0.029697813 -0.05428752 -0.002066879
000160 ba 6a 90 bd eb b2 62 bd e0 56 0a bd 28 9d 1c be
       -0.070516065 -0.05534641 -0.033774257 -0.15294325
000170 6d ba 9f bd b3 4e 1a 3b b4 c2 91 bd b5 74 ee bd
       -0.0779923 0.0023545444 -0.07117215 -0.11643354
000180 62 13 07 3d f9 fc db 3c a6 31 57 ba 26 e2 f2 3c
       0.03297747 0.026854025 -0.00082089973 0.029648852
000190 fe 4c ac 3c 5a 16 e5 3d d7 df b5 3d 71 be 92 bd
       0.021032806 0.11185904 0.08880585 -0.0716523
0001a0 21 c8 bf bd a2 5b 44 bd 4e 17 9f 3d ed 24 df bd
       -0.093643434 -0.04793895 0.07768117 -0.10895715
0001b0 6f 4d f5 3d 00 8d a7 3c 99 22 c5 bd 1b a1 04 be
       0.1197766 0.020452976 -0.096257396 -0.12952082
0001c0 d6 9a 81 be 81 6c f7 bc ee 3d 1c bc c1 9b a4 3d
       -0.25313443 -0.030203106 -0.00953625 0.0803752
0001d0 fb 40 7f bc 99 2c 8b 3d 72 93 a3 3d f1 e1 c4 3d
       -0.015579457 0.06795616 0.07987107 0.096134074
0001e0 88 b1 f5 3d 8a c0 0c 3e ae 9a 04 3e 06 8a ee 3d
       0.11996752 0.13745323 0.1294963 0.1164742
0001f0 b4 50 76 bd 80 da 31 bd d0 e0 b2 3d f5 b3 2a 3e
       -0.06013556 -0.04342127 0.08734286 0.1667021
000200 69 97 d2 bd 8b d6 d6 bd 50 99 8e bc 63 21 1c 3e
       -0.102827854 -0.104901396 -0.01740709 0.15247111
000210 51 02 08 3e 49 5e 6e bd a7 5c 17 be d8 16 c7 3c
       0.13282134 -0.058195386 -0.14781438 0.024302885
000220 53 53 db 3d c7 f6 03 be ea 1e 56 bd 8b 46 bf bd
       0.10709252 -0.12887107 -0.052275576 -0.09339627
000230 02 78 1d 3e 40 01 31 3d 48 93 d1 bc 32 0c 05 be
       0.1537781 0.043214083 -0.025582924 -0.12992933
000240 43 08 1d 3d e9 60 b9 3d a1 0f ed 3d 96 47 0a be
       0.038337957 0.09051687 0.115752466 -0.1350387
000250 7c 76 de bd 7a 89 f8 3d 45 7d 0d be a7 e5 dd bd
       -0.10862443 0.121355966 -0.13817318 -0.10834818
000260 b0 c0 fc 3d 38 d6 e4 3d 37 bb aa 3d 76 8a e5 3d
       0.1234144 0.111736715 0.0833649 0.1120805
000270 88 d7 cd 3d 53 6a 89 3d 3b 03 c9 bc 82 8a 90 bd
       0.10050875 0.06709733 -0.024537673 -0.07057668
000280 9a 41 25 be 3b bc 28 3d cc 8c e9 bd 11 7e cd bd
       -0.16138306 0.041195136 -0.11403808 -0.10033811
000290 a3 59 8f bd 01 f7 6c 3d 7d 96 17 3e 39 8e de bd
       -0.06999519 0.05785275 0.148035 -0.108669706
0002a0 79 63 4c bc c7 9d 44 bd 0c 69 84 3d 05 a6 ca bc
       -0.012474888 -0.04800203 0.064653486 -0.024737367
0002b0 41 e7 85 bc 7e 26 39 3e 10 82 da bb 5c a3 bc bd
       -0.016345622 0.1808109 -0.0066683367 -0.09210846
0002c0 db 6a be 3d 0f 55 e2 3d f4 61 06 be fd d4 54 3d
       0.09297725 0.1105138 -0.13123304 0.051960934
0002d0 b2 f3 14 be 80 7c f9 bd 6b 32 06 3e 42 1f a5 3d
       -0.14546087 -0.121819496 0.1310517 0.080626026
0002e0 77 93 16 be 18 ec 1b be 10 d5 96 bd ae 56 9a 3d
       -0.14704691 -0.15226781 -0.07364857 0.07536064
0002f0 eb d9 93 3c 53 dd 2b be 09 ac e2 3d 2f 99 d3 3c
       0.018048247 -0.16783647 0.11067969 0.02582988
000300 1d b1 13 3e 20 0e 09 be 7e 21 64 3d c7 1c e8 bd
       0.14423032 -0.13384295 0.055696003 -0.11333614
000310 81 60 9f 3d 5a f5 95 3d 4f 65 2f bd 12 cb 3d 3e
       0.077820785 0.07322188 -0.042821225 0.18534496
000320 32 66 83 bc 62 12 94 bd 22 62 b6 b9 84 d1 b5 bd
       -0.016039941 -0.07230069 -0.0003478686 -0.088778526
000330 e9 55 af 3d 6a ca a2 3d 69 a9 0f 3d 4c ec 8d bd
       0.08561308 0.07948764 0.03507367 -0.06929836
000340 09 32 d2 3d ce 1e 81 3d 6e bf b2 3d 34 79 a6 3c
       0.1026345 0.06304704 0.087279186 0.020321466
000350 c9 0f 01 3e 5b 0b 0f 3d 34 11 05 3e c1 eb 20 3e
       0.12603678 0.03492294 0.12994844 0.15714933
000360 c0 3f b6 bd a3 5d 02 be bd e0 1c bd 8d a4 0b 3d
       -0.08898878 -0.12731032 -0.038300265 0.034092475
000370 f2 3f b2 3c 78 19 b1 3d 49 dd cc 3d b1 37 13 3d
       0.021759007 0.08647436 0.10003144 0.035941783
000380 35 0b 88 3d 85 a9 df bd 7e 13 38 3e 30 e6 bd bd
       0.066427626 -0.10921005 0.17976186 -0.092724204
000390 5b 70 ba bd 6a 7b c6 3c b3 0f 4f bc 6b 92 53 3d
       -0.09103461 0.02422877 -0.01263802 0.051653307
0003a0 e3 64 9e 3d 31 8e 03 be 45 e6 c9 3d 4e 53 6c 3d
       0.07734086 -0.1284721 0.098583736 0.057696633
0003b0 6f a4 d3 3d c1 b5 d0 3d f8 da ee bc 91 d3 12 3e
       0.103340976 0.10190917 -0.029157147 0.14338519
0003c0 d1 95 d5 bd 77 0e fb 3d 1a fc d2 bd 33 c5 4b 3e
       -0.10428966 0.12258618 -0.10301991 0.19899444
0003d0 b6 e4 eb bb 50 d0 8a 3d 04 bf 13 be ce a1 c4 bd
       -0.0071988953 0.06778014 -0.14428335 -0.09601174
0003e0 dd b5 03 bb ec a0 9a bd 6a f3 e5 3c 77 43 37 bd
       -0.0020097413 -0.07550225 0.02807017 -0.044742074
0003f0 a7 92 21 3e db 8f f3 bc 7f bc bb 3c a8 bf 93 bd
       0.157786 -0.029731682 0.02291703 -0.0721429

ensemble_blocks.0.0.bias f4 [128]
000000 3e 2f 0c bb be bf 11 be 74 56 90 3d 7e 86 90 3d
       -0.0021390463 -0.142333 0.070477396 0.07056902
000010 71 f4 10 3e a9 cb 08 3d 24 f1 6c bd c4 16 21 bd
       0.14155747 0.03339735 -0.057847157 -0.03932835
000020 d6 86 12 3e d3 c6 bd bd 2a 8e 02 be 6b 3c 36 bd
       0.14309248 -0.09266438 -0.12749544 -0.044491213
000030 3d 1c 87 3d 23 f6 0c 3e 53 c9 fb bd 90 3e c7 3c
       0.06597183 0.13765769 -0.12294259 0.024321824
000040 a6 15 d6 3d c9 19 ad 3d e4 17 00 bc 9e 84 8f 3c
       0.10453348 0.08452184 -0.007818196 0.017519291
000050 68 c4 98 bc 56 41 e0 bd e4 d2 f4 3d d4 92 57 bc
       -0.018648341 -0.10949962 0.11954287 -0.013157565
000060 6a 2e ec bb aa 0b 0f 3e 0e 90 1f be d3 03 8e bd
       -0.0072076814 0.13969293 -0.15582296 -0.06934323
000070 df 4d e6 3d b0 96 55 3d cb d4 c0 bd e5 65 b8 3d
       0.112453215 0.05214566 -0.09415587 0.0900381
000080 f7 a2 08 bd 14 29 6e bd 22 b7 e7 3d e2 0c 24 be
       -0.03335854 -0.058144644 0.11314227 -0.1602054
000090 8a eb 06 3e 89 69 ed bd 78 bd 8b 3c 51 3a b4 bb
       0.13175789 -0.11592395 0.01705812 -0.005500116
0000a0 08 f3 17 be 52 01 ba 3b 88 d5 cc 3d 56 a7 15 be
       -0.14838803 0.005676427 0.10001665 -0.14614615
0000b0 b6 40 74 3c f1 a2 06 be 69 9c 1a 3e 32 63 e7 bd
       0.014908006 -0.13148095 0.15098728 -0.11298217
0000c0 c9 0c 11 3e 5b f8 b9 bd 75 a7 6d 3d 5f 1b 78 3d
       0.14165033 -0.09080573 0.058021028 0.060572978
0000d0 99 c5 e2 3d eb f6 22 3e f8 73 45 3d 71 94 0c 3e
       0.11072845 0.15914504 0.0482063 0.13728501
0000e0 44 85 16 be d2 02 2d bc 9a 59 cc bd 2c 50 de bd
       -0.14699274 -0.010559754 -0.09978028 -0.10855135
0000f0 22 12 2a bd 04 b7 0b be bc 09 91 3d e9 cf a7 3c
       -0.0415212 -0.13644034 0.07081935 0.020484881
000100 0b 07 11 3e ec b1 46 bd 1a 30 18 3e 3f 7b b8 bd
       0.14162843 -0.048509523 0.148621 -0.09007882
000110 03 1a ec 3d b8 82 91 3d 22 6f 1f 3d b4 c4 25 3e
       0.11528399 0.07105011 0.038924344 0.16188318
000120 1b cc 54 3d fd 54 05 3e 08 b9 c0 3d 82 64 5a bd
       0.051952463 0.13020702 0.09410292 -0.053318508
000130 44 7e c6 bd f4 5d 08 be f9 e2 f9 bd 60 a2 49 bd
       -0.09692052 -0.1331709 -0.12201495 -0.04922712
000140 16 4a 6c 3d a3 9d ca 3c 24 54 cf 3d 44 e6 6f 3d
       0.05768784 0.02473337 0.101234704 0.058569208
000150 74 11 4b 3d da 09 f0 bd 77 c4 a7 3c 39 db a3 3d
       0.04957719 -0.11720629 0.020479424 0.08000798
000160 20 64 d4 bc af d4 11 3e cb 64 a8 3c 21 e6 5a bd
       -0.02592665 0.14241289 0.020555874 -0.053442124
000170 69 32 45 3d 7f 75 12 be 8f f8 9e bb 46 8c 1c 3e
       0.048143778 -0.14302634 -0.004851408 0.15287885
000180 9b 12 86 3d b7 6a 06 bc e1 53 fd bd 6b 6f 2c ba
       0.065465175 -0.008204154 -0.12369514 -0.0006577882
000190 d3 51 fc bd 5a 30 1b be f2 47 67 bd 48 fb 45 3d
       -0.12320294 -0.15155163 -0.056465097 0.048335344
0001a0 71 3a 11 3e 7c e6 1f bd 5e a5 20 be 7b f2 91 3d
       0.1418245 -0.039038166 -0.15688083 0.071263276
0001b0 27 ca 9c 3c 11 b1 a3 3d 34 27 10 be 48 27 e4 bd
       0.019139362 0.07992757 -0.14077455 -0.11140305
0001c0 e5 01 da bd 5c 6e 95 3b 22 5e a7 bc d3 5b 18 be
       -0.106448926 0.004560275 -0.020430628 -0.14878778
0001d0 58 0d f0 bc 4e cb d0 3d cc b1 cc bc ea 39 3f 3d
       -0.029303238 0.10195027 -0.024987124 0.04668609
0001e0 aa 89 ff 3d 03 15 49 3d 33 e6 f5 bd fa 06 fe 3c
       0.12477429 0.049092304 -0.12006798 0.031009186
0001f0 d5 7d d9 3d 31 6a e8 bd e5 7c ca 3d 29 6c 28 bd
       0.10619704 -0.113483794 0.09887103 -0.041118775

ensemble_blocks.0.1.weight f4 [128]
000000 7c 49 84 3f 0c be 86 3f f7 1a 7f 3f 3d f4 80 3f
       1.0334926 1.0526748 0.9965052 1.0074536
000010 c2 8f 7a 3f c0 ca 82 3f 04 d4 7c 3f 69 bc 7f 3f
       0.97875607 1.0218124 0.9876101 0.99896866
000020 58 9c 7b 3f 94 67 7a 3f 1d e7 82 3f b4 1e 83 3f
       0.98285437 0.978143 1.022678 1.0243745
000030 36 3f 80 3f e7 b5 7e 3f 95 cb 7a 3f 15 8e 7e 3f
       1.001929 0.9949631 0.9796689 0.9943555
000040 63 05 7f 3f 4d e0 77 3f 39 51 81 3f 19 a4 82 3f
       0.99617594 0.9682663 1.0102912 1.0206329
000050 3c d1 7e 3f 27 b1 86 3f b7 40 81 3f 1b d3 75 3f
       0.99538016 1.0522813 1.0097874 0.96025246
000060 84 57 80 3f 12 e7 7e 3f a1 3e 78 3f 2c ef 80 3f
       1.0026708 0.99571335 0.96970564 1.007299
000070 80 bf 79 3f 13 63 81 3f 59 d5 79 3f d0 5e 80 3f
       0.9755783 1.010836 0.9759117 1.0028934
000080 9d 7e 81 3f 96 95 80 3f 3e ef 82 3f 4f ff 7c 3f
       1.0116764 1.004565 1.0229261 0.9882707
000090 86 f9 83 3f 0d 71 82 3f ca 25 74 3f fa 55 77 3f
       1.0310524 1.019075 0.9537016 0.96615565
0000a0 ae ad 78 3f a5 0a 7f 3f 46 d1 7e 3f f9 fc 79 3f
       0.97140014 0.9962562 0.99538076 0.9765163
0000b0 ad 4a 82 3f fb 39 78 3f 33 2c 82 3f 23 60 83 3f
       1.0179039 0.9696347 1.0169739 1.0263714
0000c0 de c4 7b 3f 40 21 7a 3f 48 09 73 3f a8 a5 78 3f
       0.9834727 0.97706985 0.9493604 0.9712777
0000d0 e1 f0 7d 3f 74 81 80 3f 24 97 80 3f 54 5d 77 3f
       0.9919568 1.0039506 1.0046124 0.9662678
0000e0 47 f2 7c 3f 94 13 77 3f dd b4 79 3f a5 23 83 3f
       0.98807186 0.9651425 0.975416 1.0245253
0000f0 37 ab 80 3f 34 06 7b 3f 7a 50 87 3f 63 1e 86 3f
       1.0052251 0.9805634 1.0571434 1.0478023
000100 e7 71 82 3f c5 93 7b 3f b2 c8 72 3f 1a f6 85 3f
       1.019101 0.98272353 0.94837487 1.0465729
000110 1f 5e 75 3f 9a 23 79 3f 80 f3 7c 3f b5 8a 77 3f
       0.9584674 0.9731995 0.9880905 0.96696025
000120 3e bd 83 3f 2e 6a 75 3f 18 95 80 3f 6d 45 7d 3f
       1.0292127 0.9586514 1.00455 0.9893406
000130 64 69 7a 3f 55 bc 74 3f 45 53 7c 3f 78 af 81 3f
       0.97817063 0.9559987 0.9856456 1.0131674
000140 10 3d 73 3f 6d 75 78 3f 73 57 7b 3f bf e5 7a 3f
       0.9501505 0.9705418 0.9818031 0.98006815
000150 d9 75 7a 3f 94 50 7d 3f e6 36 7f 3f d0 45 74 3f
       0.9783607 0.9895108 0.99693143 0.95419025
000160 f7 41 7f 3f de 9c 7d 3f 99 2b 73 3f a5 2b 7e 3f
       0.9971003 0.99067485 0.949884 0.99285346
000170 e4 f9 81 3f 42 49 6f 3f fa 67 7e 3f bb 76 80 3f
       1.0154386 0.9347116 0.99377406 1.0036234
000180 d7 49 80 3f 9f 61 82 3f d0 9c 82 3f d3 8f 82 3f
       1.0022534 1.0186042 1.0204105 1.0200142
000190 81 aa 7f 3f 38 55 76 3f c0 2f 80 3f 01 f7 7a 3f
       0.99869543 0.96223783 1.0014572 0.9803315
0001a0 77 9b 74 3f 64 ff 77 3f 9a 6d 81 3f 59 63 7a 3f
       0.9554972 0.9687407 1.0111573 0.9780784
0001b0 f3 4c 80 3f 04 41 81 3f 36 2b 7e 3f 86 2b 7f 3f
       1.0023483 1.0097966 0.99284685 0.99675786
0001c0 92 e4 73 3f 00 9c 7b 3f d0 c9 79 3f 74 95 7d 3f
       0.95270646 0.9828491 0.97573566 0.9905617
0001d0 22 92 81 3f 9f 02 86 3f 76 f0 77 3f e7 7e 81 3f
       1.0122721 1.046955 0.9685129 1.0116853
0001e0 df f1 82 3f 01 d3 83 3f 24 f7 80 3f 51 65 81 3f
       1.0230063 1.0298768 1.0075421 1.0109044
0001f0 65 e0 7f 3f 9b 91 7f 3f 0e 75 7c 3f 11 b0 7d 3f
       0.99951774 0.9983155 0.9861611 0.9909678

ensemble_blocks.0.1.bias f4 [128]
000000 ca 32 d0 3c 64 05 29 3d 4f 43 fd bb 5d ad 4b 3c
       0.025414843 0.041264907 -0.007728971 0.01243147
000010 6f 31 19 bc bf bb 13 3d 54 37 ad ba f0 2d 9c 3b
       -0.009350165 0.03606772 -0.0013215342 0.0047662184
000020 fb 26 c4 bc 53 32 5d bc d2 bb 56 3b a8 d1 11 b9
       -0.023944369 -0.013500768 0.0032765758 -0.0001390638
000030 f2 73 cb 3b ce d1 03 3a 15 78 10 bd 7e 7a 59 bc
       0.00620889 0.0005028517 -0.03527077 -0.013273833
000040 98 ac 6d bb 7c 1e 18 3c 4e 02 3f bb bc 4c 24 3d
       -0.0036266204 0.009284612 -0.002914566 0.040112242
000050 37 16 40 3d cd 09 8d 3d 3c e9 b3 3c f9 b5 a1 bc
       0.046896186 0.06886635 0.0219618 -0.019740092
000060 a3 48 21 3c db b1 22 3c 37 47 4c 3c 58 c6 06 3d
       0.009843978 0.009930099 0.012468151 0.032904
000070 cc 12 46 bc 02 b0 92 3c 54 84 d4 bb ef b2 72 3a
       -0.012089442 0.017906193 -0.0064855013 0.00092582306
000080 98 60 eb 3c fb 28 fa 3c 10 bd 07 bc b0 59 b9 3b
       0.028732583 0.03053712 -0.008284822 0.0056564435
000090 b6 15 cb 3c 89 f1 7a 3d 6d b2 23 bd db 98 0d bd
       0.024790626 0.061265502 -0.039965082 -0.034569602
0000a0 a2 48 08 bd ce 9e 30 3b fd 66 31 bc 7f 28 e1 bc
       -0.033272393 0.0026950124 -0.010827777 -0.02748513
0000b0 d2 6c 0d 3c b3 ab d0 bc 04 8a 26 3d 30 96 af 3b
       0.008631902 -0.025472498 0.040658966 0.00535848
0000c0 25 eb b6 3b 74 91 a6 bc 62 8a e8 bc 2a 98 5e bb
       0.0055822306 -0.02033303 -0.028386299 -0.0033965209
0000d0 d4 46 de bc 9b ec 21 3d bb 9d d4 3c 94 0f f7 bc
       -0.027133383 0.039532285 0.025954118 -0.030158795
0000e0 e3 57 b1 bb 63 3e ad bc 60 3e a3 bc b0 17 b7 3c
       -0.0054120882 -0.021147912 -0.019927204 0.022350162
0000f0 3e 4a 1d 3b 52 e7 f7 bc 50 42 a8 3c ad 61 48 3d
       0.002400055 -0.03026167 0.020539433 0.048921276
000100 a3 90 0a 3d ca 05 cf bc b8 73 1e bd 57 40 69 3d
       0.033829343 -0.025271315 -0.038684577 0.056946125
000110 45 e8 12 bc b0 46 b9 3b aa 06 d2 3b fb 0e 16 bc
       -0.00896651 0.0056541786 0.006409486 -0.009158845
000120 34 5a 0f 3d 8b d6 74 bc df 48 89 3c ad d2 1d bc
       0.034998134 -0.014943729 0.01675838 -0.009632749
000130 bd 0c 32 bd 36 cc 27 bd de 2a 1f 3d 21 04 06 3d
       -0.04346918 -0.040966235 0.03885924 0.03271878
000140 79 4a 22 bd 8f cc 25 bc 10 56 19 bd d1 47 ed bc
       -0.039621804 -0.010119571 -0.03743559 -0.028964909
000150 44 80 ab bb 9d 65 09 bb c8 74 fb bb 4e ea 46 bc
       -0.0052337963 -0.0020965107 -0.0076738335 -0.0121408235
000160 1e fe 5b bc 90 f9 f2 bb bf 6f d3 bc 32 66 b6 bb
       -0.0134272855 -0.007415004 -0.02581012 -0.005566382
000170 28 dc 94 3a 1d 49 eb bc 32 d6 3f bc 58 93 26 3c
       0.0011357116 -0.028721387 -0.011708783 0.010166965
000180 4f 6e 73 3c 31 2e 08 3c 07 2b 75 3d c1 b7 93 3c
       0.014857843 0.008311794 0.059855487 0.018031957
000190 52 2a de bc 64 20 21 bd 58 bd 23 3c 3f 0a 81 bb
       -0.02711979 -0.03933753 0.009993874 -0.003937989
0001a0 c8 c0 e7 bc 74 6a fc bc b3 a7 29 3c 51 46 a9 bc
       -0.028290167 -0.03081248 0.010354924 -0.020663412
0001b0 07 ae fa 3b 9c a5 ff 3b 17 f5 18 bb 97 74 71 bc
       0.00765014 0.0078017246 -0.0023339444 -0.01473727
0001c0 1f a1 34 bc 0e 15 b8 bb a3 88 06 bb f5 ff cc bb
       -0.011024742 -0.0056177443 -0.002052822 -0.0062560984
0001d0 b5 70 92 bc ed 15 49 3d 4b ee a1 3c 38 1e c1 3c
       -0.017876009 0.049093176 0.019766947 0.02357398
0001e0 8c f3 30 3d 5b 49 61 3c 88 c5 ae 3c 9e 3d 50 3d
       0.043201014 0.013750399 0.021334425 0.050840013
0001f0 af e2 9e 3b 89 50 67 3c 24 1a 96 bc cb e3 c9 bb
       0.0048488 0.014118322 -0.018323012 -0.0061611882

ensemble_blocks.0.1.running_mean f4 [128]
000000 f7 94 ae b9 2b 7c 10 be 51 75 92 3d 9b 17 92 3d
       -0.00033298854 -0.14109866 0.071512826 0.07133409
000010 fd 9f 11 3e f2 1d 04 3d c8 86 67 bd 35 d0 25 bd
       0.14221187 0.03225512 -0.05652502 -0.040481765
000020 9d 0e 15 3e 6c 24 bd bd f9 9b 03 be ed 0f 2f bd
       0.14556356 -0.092354625 -0.12852468 -0.042739797
000030 96 7d 88 3d 37 f9 0b 3e 34 d2 fb bd e2 af c1 3c
       0.066645786 0.13669287 -0.122959524 0.023643438
000040 0e 0e d6 3d 2c fc ab 3d db 2b 05 bc 56 d8 9d 3c
       0.104518995 0.08397707 -0.008128132 0.019268196
000050 4f 14 a0 bc 28 70 dc bd fa 21 f5 3d 58 42 68 bc
       -0.019540934 -0.107635796 0.11969371 -0.014175974
000060 2d ea 0c bc 07 5f 0f 3e 77 b5 1e be 80 46 8f bd
       -0.008600754 0.14001094 -0.15498911 -0.06995869
000070 6c 42 e6 3d 07 d3 5d 3d 72 2c bf bd 83 9c b5 3d
       0.11243138 0.05415633 -0.09334649 0.08867743
000080 9a 73 07 bd b8 20 68 bd a0 f8 e8 3d dd ec 22 be
       -0.03306923 -0.056671828 0.113755465 -0.15910669
000090 c7 64 06 3e c4 68 ef bd cb b0 86 3c 11 43 ae bb
       0.13124381 -0.11689904 0.016441723 -0.0053180535
0000a0 a6 54 18 be 3f 96 c8 3b 91 dd cf 3d 9d 24 15 be
       -0.14876041 0.0061214264 0.10149682 -0.14564748
0000b0 0f fe 86 3c b0 49 05 be f8 f7 19 3e d3 45 e5 bd
       0.016478566 -0.13016391 0.15035999 -0.111949585
0000c0 3a 2d 11 3e 48 4b b7 bd da 39 70 3d 00 bf 7a 3d
       0.14177409 -0.08949906 0.05864892 0.061217308
0000d0 fc 90 e4 3d 23 c7 22 3e 86 b9 40 3d e8 38 0b 3e
       0.11160466 0.15896277 0.04705193 0.13595927
0000e0 73 83 15 be ed b9 12 bc b5 30 ca bd 9f 44 e0 bd
       -0.14600925 -0.008955461 -0.098725714 -0.109505884
0000f0 78 10 2b bd 3c 5c 0b be c1 be 92 3d 2d f9 b8 3c
       -0.041763753 -0.13609403 0.0716529 0.022579754
000100 d9 e6 11 3e 24 93 47 bd c8 68 18 3e de 6f b9 bd
       0.14248218 -0.04872431 0.14883721 -0.0905454
000110 9b f8 ec 3d cc f7 90 3d 57 95 23 3d 11 8b 25 3e
       0.11570855 0.070785135 0.039937343 0.16166331
000120 72 dc 4f 3d 86 cd 04 3e 56 7c c3 3d 76 00 59 bd
       0.050747342 0.12969026 0.095451996 -0.052978955
000130 35 cb c4 bd 26 fc 08 be c2 e5 f5 bd 46 cf 48 bd
       -0.09609071 -0.13377437 -0.120067134 -0.049025796
000140 5a 31 69 3d d1 b8 cd 3c b2 3b ce 3d a3 40 75 3d
       0.05693183 0.025112541 0.1006998 0.059876096
000150 57 82 4b 3d 05 e8 ee bd 26 f1 a1 3c 4d 2f a3 3d
       0.04968485 -0.11665348 0.019768309 0.07968006
000160 55 f6 d4 bc 8d aa 12 3e 13 b1 a7 3c 5b df 55 bd
       -0.025996367 0.14322872 0.020470178 -0.05221496
000170 4b 4f 46 3d 62 03 13 be b3 7e 86 bb 62 81 1c 3e
       0.048415463 -0.14356759 -0.004104459 0.1528373
000180 c4 af 87 3d 24 ed fa bb 62 f0 fd bd a4 27 76 3a
       0.066253215 -0.007657664 -0.12399365 0.0009390062
000190 a0 b1 f9 bd 66 d8 1a be 10 17 69 bd 67 73 4a 3d
       -0.121920824 -0.15121612 -0.05690676 0.049426463
0001a0 1f 74 12 3e 47 5a 21 bd e4 d1 20 be e1 15 93 3d
       0.14302109 -0.039392736 -0.15705067 0.071819074
0001b0 6b fe 9b 3c 56 10 a0 3d 1f ea 10 be 1d 2b e6 bd
       0.019042214 0.07815616 -0.1415181 -0.11238692
0001c0 70 a2 d7 bd d6 50 a3 3b df fc ac bc bf e3 17 be
       -0.10529029 0.0049840016 -0.021116672 -0.14832972
0001d0 0c 9a f2 bc e8 ea d3 3d 90 80 d3 bc 1d 3a 3f 3d
       -0.02961447 0.10347539 -0.02581814 0.04668628
0001e0 b8 5b fc 3d ec 5a 47 3d 88 42 f8 bd 7b ac fd 3c
       0.123221815 0.048670694 -0.12122065 0.030966034
0001f0 3d 0e d8 3d 51 c7 e7 bd a9 9d c7 3d a5 cd 28 bd
       0.10549591 -0.113173135 0.09746868 -0.041211743

ensemble_blocks.0.1.running_var f4 [128]
000000 a3 a6 9a 3e c1 fb 11 3e 01 a8 a9 3e e1 0c 74 3e
       0.3020526 0.14256193 0.3313599 0.23833038
000010 cb 8d b5 3e 93 45 8c 3e ea af 8c 3e 10 ff 1e 3e
       0.35459742 0.2739683 0.27477962 0.15526986
000020 b8 f8 c6 3e 20 51 7c 3e ef 63 ad 3e ec 3e 52 3e
       0.38861632 0.24640322 0.33865306 0.20531815
000030 81 89 8c 3e b4 b5 f4 3e e9 2d 9c 3e 8e 25 8c 3e
       0.27448657 0.47794878 0.30503777 0.27372402
000040 57 65 9f 3e d9 29 ad 3e 36 f4 bb 3e 27 47 ac 3e
       0.31132004 0.3382099 0.36709756 0.33648035
000050 59 b2 9a 3e 21 38 95 3e 78 97 78 3e 8c 12 0e 3f
       0.30214193 0.29144385 0.2427653 0.5549705
000060 dc dc 8c 3e 0a ff af 3e 29 16 52 3e c7 51 b6 3e
       0.27512252 0.34374267 0.20516266 0.35609266
000070 c3 67 ce 3e b4 0c 5c 3e ad 68 7d 3e 1c 9b a2 3e
       0.4031354 0.21489221 0.24746962 0.31758964
000080 3d 5b e1 3e f6 4a a0 3e 19 6d 87 3e ab a4 af 3e
       0.44014922 0.3130719 0.26450422 0.3430532
000090 fd b8 7a 3e a6 c8 53 3e 7e a8 b1 3e 56 07 12 3f
       0.2448463 0.2068201 0.34698862 0.57042444
0000a0 87 7e 6a 3e 14 8f 3b 3f c2 6c 66 3e ba a7 93 3e
       0.22899829 0.73265195 0.22502425 0.28838903
0000b0 e2 32 b3 3e 6b bc 9d 3e 5e 45 e9 3e c3 03 a3 3e
       0.34999758 0.30807814 0.45560735 0.31838807
0000c0 2e 90 b8 3e a1 c3 9a 3e ca b2 12 3f 71 1b 24 3f
       0.360475 0.30227378 0.5730406 0.6410437
0000d0 02 40 a2 3e 55 b2 35 3e ab cc 39 3e 45 9d b7 3e
       0.3168946 0.1774381 0.18144481 0.35862175
0000e0 d3 95 8d 3e d7 de 9b 3e 7d 7f 8a 3e b2 76 8a 3e
       0.2765337 0.3044345 0.2705039 0.27043682
0000f0 35 13 a4 3e f6 d5 ae 3e db df 67 3e be 2f dc 3e
       0.32045904 0.34147614 0.22643988 0.43005174
000100 0a 3e 3c 3e 13 a8 75 3e a9 c2 80 3e 07 f3 8a 3e
       0.18383041 0.23989896 0.25148514 0.2713854
000110 09 3e ec 3e 71 53 8f 3e f7 ca 75 3e 07 a6 94 3e
       0.4614108 0.27993348 0.24003206 0.2903292
000120 eb 73 3e 3e fd 33 fd 3e 14 36 a5 3e f5 ab eb 3e
       0.18598907 0.49453726 0.3226782 0.4602963
000130 19 e9 81 3e c9 22 de 3e e8 cc 92 3e d5 9e 92 3e
       0.25373152 0.43385914 0.28671956 0.28636804
000140 e6 30 82 3e e6 fa 76 3e 49 a6 a3 3e cb b8 97 3e
       0.25427932 0.24119148 0.31962803 0.29633173
000150 52 48 7a 3e da 35 88 3e 3d 43 9e 3e e9 d1 22 3f
       0.2444165 0.26603585 0.30910674 0.6360155
000160 69 6a a9 3e ce 23 e0 3e 2e a9 a3 3e 64 2c 79 3e
       0.33088997 0.43777317 0.3196501 0.2433334
000170 39 3a 73 3e 12 cb c6 3e 73 f6 fe 3e 03 13 d1 3e
       0.23752679 0.38826805 0.497974 0.40834817
000180 d2 6b b4 3e f9 35 4c 3e d5 ee 55 3e cb 5e 6c 3e
       0.3523851 0.19942464 0.20891888 0.23083036
000190 f6 b4 8e 3e 3f f6 54 3e 3d 17 b6 3e df 46 86 3e
       0.27872437 0.2079706 0.35564604 0.26225945
0001a0 d0 7c a3 3e 85 6b a2 3e 34 ca 05 3f 7b 93 90 3e
       0.31931162 0.31722656 0.5226166 0.2823752
0001b0 ae b1 53 3e 58 ca 81 3e e7 c7 a0 3e 6e ba 0e 3f
       0.20673248 0.2534969 0.31402513 0.5575322
0001c0 ad a5 8e 3e 33 53 00 3f 7f e3 6d 3e ed a0 6d 3e
       0.27860776 0.5012695 0.23231314 0.2320592
0001d0 59 e6 88 3e d3 3b 8a 3e c0 d3 73 3e 40 a1 00 3f
       0.2673824 0.26998767 0.23811245 0.5024605
0001e0 ae 7a 44 3e d6 64 e0 3e 0b 5a a6 3e be e8 b7 3e
       0.19187424 0.43826932 0.32490572 0.35919756
0001f0 0b e0 b2 3e 62 62 59 3e 89 eb a2 3e 86 1e 4c 3e
       0.34936556 0.21228936 0.31820324 0.19933519

ensemble_blocks.0.4.weight f4 [128, 128]
000000 9a a2 c7 3d 32 98 c1 3d 6a 8b a2 bd ef e7 5a bd
       0.09747811 0.09452857 -0.07936747 -0.053443845
000010 2e a8 4e bd a6 e2 fe bc cf 98 ab 3d f1 7f a6 3d
       -0.050453357 -0.031113934 0.08378755 0.08129872
000020 b9 9b 83 bd 45 3b f2 3c 75 37 9e 3d 17 5b f6 3c
       -0.06426186 0.029569278 0.07725421 0.030072732
000030 18 16 24 b9 8b 86 2d 3c 5c 40 83 3d 8d 1d a1 3c
       -0.0001564849 0.01059116 0.0640876 0.019667411
000040 fe a5 5c 3b 14 80 f4 bc b9 b2 dd bc a5 13 c7 3d
       0.0033668275 -0.029846229 -0.02706276 0.09720544
000050 ca 6d 8d bd 66 a9 66 3b f1 da 60 3d 6f 82 62 3d
       -0.06905706 0.0035196184 0.0548963 0.055300172
000060 22 55 42 3d 1d d9 82 bd 1a de 38 3d 6a 3c aa bd
       0.04744447 -0.06389067 0.045133688 -0.08312304
000070 13 31 84 bd 1e be 55 3c db 3f ec bd c8 b7 26 3c
       -0.06454673 0.013045816 -0.11535617 0.010175653
000080 0b 32 82 bc 3a 80 87 3d ce 79 c9 bc 39 4f 16 3d
       -0.015893003 0.06616254 -0.024594214 0.036696646
000090 a2 0e 48 3c 8e 04 a5 3d fe bb 00 3c 8d 37 9c bd
       0.01221052 0.08057509 0.007857321 -0.07627783
0000a0 05 80 8c 3c 33 19 cc bd 50 47 d6 bb 6b 31 22 3d
       0.017150888 -0.09965744 -0.006539263 0.03959791
0000b0 f2 d9 52 bd 43 47 b9 3c 84 9d 97 3d 3e 3b 9c 3d
       -0.05147738 0.022616988 0.074030906 0.07628487
0000c0 d9 78 01 be 74 4b e7 3b 97 17 ac bb e8 ee 34 bd
       -0.12643756 0.0070585553 -0.0052518356 -0.04417315
0000d0 79 ec 2f bd d6 0d 20 bd 9b 94 22 3d 69 65 08 bd
       -0.042950127 -0.039075695 0.039692502 -0.033299837
0000e0 81 bb a1 3d 7d 7c ac bd ad af 31 3d 8e f6 3d bc
       0.07897092 -0.08422182 0.043380428 -0.011594428
0000f0 1c a6 12 bc d4 b5 36 3d e8 98 00 bd d8 6b d2 3d
       -0.008950736 0.044607 -0.031395823 0.10274476
000100 91 74 56 3d f2 17 99 3d f6 bb 0d bd b4 22 8d 3d
       0.05235726 0.0747527 -0.03460308 0.06891385
000110 00 e5 22 3d 7f 85 8f 3d c7 c0 1e 3d d5 e8 ef 3b
       0.039769173 0.07007884 0.038758066 0.007321457
000120 d0 ee 64 bc 01 52 67 bd 0f af 8a bd 35 89 d4 3c
       -0.013972953 -0.05647469 -0.06771671 0.025944332
000130 da d1 49 bd 38 9d 2c 3d e0 2e 94 bc de b4 99 bc
       -0.049272396 0.042142123 -0.018088758 -0.018763002
000140 f5 00 c7 3d 87 3c a0 bd 0c e0 7b bd b4 17 6e bd
       0.097169794 -0.07824045 -0.061492965 -0.058128074
000150 f9 77 03 3d ab 7c ba bd ff 0d c5 3d ad 27 bb 3d
       0.032096837 -0.0910581 0.0962181 0.09138427
000160 31 37 03 be 3f bc de bc a8 2d 79 bd 95 d6 57 3d
       -0.12814023 -0.027189372 -0.060834557 0.052694876
000170 ac 98 42 bc 96 14 8a bd 54 14 36 bc 3b 59 41 bc
       -0.01187722 -0.06742208 -0.011113245 -0.011801059
000180 9e ba c3 3c 54 07 3c bd 65 aa 6e bd 23 85 0d 3d
       0.023892697 -0.045905426 -0.05826797 0.034550797
000190 ef 5c d4 3c 41 2a c9 3c a7 04 47 bd 9b 3d dc 3c
       0.02592322 0.024556281 -0.04858842 0.026884845
0001a0 b1 22 c8 bc 34 62 14 bd 81 0b 70 3d 7c 01 6b bd
       -0.024430605 -0.036226466 0.05860472 -0.057374462
0001b0 82 55 02 bd 6c 5a 6d 3d d7 91 58 bb 79 c3 b5 3d
       -0.031819828 0.05794756 -0.0033045912 0.08875174
0001c0 dd f1 e3 bc 3b a9 83 bc 3c 23 c8 3c 90 04 f3 bb
       -0.02782529 -0.016071906 0.024430864 -0.0074163154
0001d0 83 07 a0 3c b1 40 6c 3d 81 92 e2 3d 42 14 8a bc
       0.019534832 0.057678882 0.110631 -0.016855363
0001e0 f4 2d 57 3b 2a e4 1f 3d 8a 98 9a 3d a9 69 a1 3c
       0.0032833787 0.039035954 0.07548626 0.019703703
0001f0 6a 22 a0 bd e0 af 8b 3d cd 91 99 3c 18 2f 75 bc
       -0.07819064 0.06820655 0.018746281 -0.014964841
000200 20 56 2d bd a5 fa 06 3c 73 70 96 3d 79 70 72 3d
       -0.042318463 0.008238469 0.07345667 0.059189294
000210 aa 23 3d bd a3 7d 42 bd aa 77 e9 3c bd 83 71 bd
       -0.04617659 -0.047483098 0.028499443 -0.058963526
000220 6e f2 56 bc 4e 9b 2c bd 35 a5 70 3d 1b 45 a5 bd
       -0.013119323 -0.042140298 0.058751304 -0.080698214
000230 e9 8f 83 3c b7 61 92 bd 3a a6 d7 bd 3f b9 1f 3c
       0.016059833 -0.07147544 -0.10529752 0.009748756
000240 4f 5a e1 3b a0 07 33 3d 4c 1d 9e bd 5a f5 b7 3b
       0.0068772207 0.043708444 -0.07720432 0.005613965
000250 87 14 f8 bc 39 3a 72 bc 96 bd 51 bd 27 d3 53 3d
       -0.030283226 -0.014784389 -0.051206194 0.051715042
000260 20 fb e2 bc 53 c6 03 3d bd 5b 98 bd 48 d4 80 bd
       -0.027707636 0.03217156 -0.07439373 -0.062904894
000270 08 3a 83 3d 7a 04 8e bd d5 bf 29 39 5c ad a8 bc
       0.06407553 -0.069344476 0.00016188559 -0.020590477
000280 27 82 3b 3b 8c e7 ea bd 97 0c b6 3b 7b 4f de bd
       0.0028611512 -0.11469945 0.0055557 -0.108550034
000290 33 11 7d 3d 5c 64 9f 3d 6c 96 b1 3d f0 d2 70 3d
       0.06178398 0.07782814 0.08671269 0.058794916
0002a0 cd f8 bd 3d f6 4e 0d bc b4 e2 85 bd 34 9c 88 bd
       0.092759706 -0.008624783 -0.06537381 -0.066704184
0002b0 54 31 22 3b f8 74 62 3d 70 70 15 3d 1a 44 8f 3c
       0.002474864 0.05528733 0.036484182 0.017488528
0002c0 e2 fa 97 bd f8 01 50 bc 53 61 3a bc 4e 87 0c 3c
       -0.07420899 -0.012695782 -0.011375743 0.008577181
0002d0 37 83 ec bc 26 a6 45 3d 19 16 5a bd 82 da d4 3c
       -0.028871162 0.048254155 -0.05324373 0.025983099
0002e0 ac 6a 54 3d 5a a6 75 bd 3f 51 e1 bd b8 17 2b 3d
       0.051859543 -0.0599731 -0.110018246 0.041770667
0002f0 a2 7f 72 bd b9 e3 45 3d 19 f3 0a 3d 41 e5 32 3d
       -0.05920375 0.048312876 0.033923242 0.043675665
000300 67 02 ba 3c f1 7c 55 bd 75 b1 7b bd 21 87 2d bd
       0.022706224 -0.052121107 -0.061448533 -0.042365197
000310 34 bd 88 bc 9a e6 04 bd 9a 54 88 bd b2 09 34 bd
       -0.016691782 -0.03244648 -0.066567615 -0.04395456
000320 eb a8 68 bb e5 c0 6f bc 31 9e 2f bd d3 14 96 bd
       -0.0035501074 -0.014633392 -0.042875472 -0.07328191
000330 9a 53 74 bd 91 00 a0 bd 14 27 1a bc de 51 54 3d
       -0.05965004 -0.07812608 -0.009408731 0.051835887
000340 08 38 73 bd 5b 9d 1a bd f4 e1 10 bd cf cd 05 3c
       -0.059379607 -0.037747722 -0.035371736 0.008166744
000350 c9 58 04 bd 51 a1 72 3d 2f ab f1 3c 46 5f 8c 3d
       -0.032311235 0.059235875 0.029500572 0.068541095
000360 5c dd 35 3d 40 62 95 bd d9 f5 75 bc d1 4c 13 3c
       0.044400558 -0.0729413 -0.015012228 0.008990482
000370 fb 4e 6a bd 8e 99 f0 bc bd e9 52 3d cf ff 8b 3d
       -0.057204228 -0.029370096 0.05149244 0.06835901
000380 18 03 45 bd 1d 6f 52 3d ba cc c5 bc 7c 18 cd bd
       -0.048098654 0.051375497 -0.024145473 -0.10014436
000390 5b 54 8d bd 71 77 3b bd 8a e3 0c bd b4 f6 8d 3b
       -0.06900855 -0.045768205 -0.034396686 0.004332388
0003a0 1a b9 6f bd e2 b5 c4 3c b6 08 5a bc a6 74 16 bd
       -0.058526136 0.02401251 -0.013307741 -0.03673234
0003b0 ec 2e 69 b9 0a 7e de 3d 6d f4 4d bc b7 8a d3 bd
       -0.00022238091 0.10863884 -0.012570483 -0.10329192
0003c0 44 e0 37 3c c6 4b a7 3d f2 50 76 3d 82 8c 9a bc
       0.011222903 0.081687495 0.06013579 -0.018865827
0003d0 54 02 1c 3d 77 f3 75 bc 97 9f 90 3d d0 c0 a5 3d
       0.038088158 -0.01501166 0.07061689 0.08093417
0003e0 a3 42 04 bd e2 57 bf 3d 30 15 20 bd 82 c8 6a bd
       -0.032290112 0.09342934 -0.039082706 -0.057320125
0003f0 9d ed 6e 3d 8b b0 7c 3d dd 82 94 3d 5c f3 83 bd
       0.058332074 0.061691802 0.07251523 -0.064429015

ensemble_blocks.0.4.bias f4 [128]
000000 25 1c a7 3d 3d 2f 66 3d 71 52 03 3c eb e6 4d bd
       0.08159665 0.056197394 0.008015261 -0.05026905
000010 1d 2a 64 3d 96 65 c3 bc 7e a7 0b 3c bf 51 2c 3d
       0.055704225 -0.02385215 0.00852382 0.042070147
000020 54 aa 07 bd 4a 9d a5 bc c4 3a 04 3d dd 66 09 3a
       -0.033121422 -0.020216603 0.032282606 0.0005241463
000030 e8 9a 22 3c f0 60 fa 3c 32 80 a0 bd 4f a8 96 bd
       0.009924628 0.030563802 -0.07836951 -0.07356321
000040 ba 5d 66 bd d6 55 58 bd d3 49 cd bc a2 81 ee 3b
       -0.05624173 -0.052816235 -0.025059616 0.007278637
000050 55 ac 8d bc 8e 75 b9 bb 62 cb 1f 3b cd a5 91 bd
       -0.017294088 -0.0056597656 0.00243827 -0.07111702
000060 5d e4 a6 3d bc 82 8d bc 3d 12 89 3d 38 40 83 bb
       0.081490256 -0.017274253 0.06692932 -0.004005458
000070 58 06 68 bd 97 07 21 3d f1 25 76 3d d9 67 91 bd
       -0.056646675 0.03931388 0.060094777 -0.070998855
000080 80 1f 13 bd 9e d4 4b bb e3 ec 82 bd df b5 a5 3d
       -0.035918713 -0.0031102072 -0.06392839 0.0809133
000090 9d 82 ee bc 61 69 56 bd 40 04 89 bd cf 50 7f bc
       -0.029115016 -0.05234659 -0.06690264 -0.015583231
0000a0 f0 53 37 bd 21 b1 cc 3c dd d6 83 bd a8 b2 11 3d
       -0.044757783 0.024986805 -0.06437466 0.03557077
0000b0 fb 04 f3 3b 36 6f 96 bd ef 85 39 bd 9b be 99 3c
       0.007416365 -0.073454306 -0.045293745 0.018767646
0000c0 88 91 3e 3d 5e c6 4e bd e2 8c cb 3c f3 fd 86 bc
       0.04652551 -0.050482146 0.024847452 -0.016478514
0000d0 63 e3 91 3d 2a b7 41 bd 09 20 86 bc 2a 81 d1 bc
       0.07123449 -0.04729382 -0.016372697 -0.025574286
0000e0 0d 2e 9a 3d ba d3 4e 3d 14 ba 9d bd 10 02 b5 bd
       0.07528315 0.050494887 -0.07701507 -0.08838284
0000f0 5d 60 7a bd bf 4c 76 bd 27 33 31 bc d7 35 76 3c
       -0.061127055 -0.060131785 -0.010815418 0.015027485
000100 1c 2d 38 bd a4 8d 49 3d 1e 61 14 bd 03 22 72 3c
       -0.044964895 0.049207345 -0.03622543 0.014778617
000110 55 03 8b bd 1e df 99 3d 3f 82 80 3d 95 28 8e bd
       -0.06787745 0.07513259 0.062748425 -0.06941334
000120 02 92 31 3d 84 bc 36 3c d8 c0 21 bd e7 b7 b1 bc
       0.043352135 0.011153344 -0.03949055 -0.021694137
000130 a3 63 78 bd 0f a3 11 bd 43 b7 62 bd eb 2f 83 bd
       -0.060641896 -0.035555895 -0.055350553 -0.06405624
000140 33 e4 97 3d 25 87 b2 bd 22 82 1e bd fb 6b 82 3c
       0.074165724 -0.08717183 -0.038698323 0.01592063
000150 76 f3 2c 3d ab ee 4d bd 66 33 42 bd 34 af 09 bc
       0.04222437 -0.05027644 -0.0474123 -0.008403588
000160 01 dc fe 3c 32 15 8d bd f7 b0 04 bc fc 5e 5b 3c
       0.031110765 -0.06888808 -0.008098832 0.013389345
000170 7c fa 4f 3c 07 6f 8e bd b8 9e d9 bb 9c 97 1b 3c
       0.0126939975 -0.069547705 -0.006641235 0.009496596
000180 37 34 30 3d 66 c8 8e 3d d5 ac d6 bc ba 75 74 3d
       0.043018546 0.06971817 -0.02620546 0.059682585
000190 ee db 32 bd 3b 00 ec bc 7c 86 5a 3d a5 98 db bc
       -0.043666773 -0.028808704 0.05335091 -0.026806185
0001a0 58 aa cd 3c 90 fe 67 3d c3 d1 6f 3c 93 38 aa bd
       0.02510564 0.056639254 0.014637413 -0.08311572
0001b0 c2 eb 6d 3d 58 3f 23 bd 89 1f 2d bd 52 9c 81 3d
       0.058086164 -0.03985533 -0.042266402 0.06328644
0001c0 b6 43 9a bd 28 9b a1 bc 61 f5 a8 3d 24 d2 86 3c
       -0.07532446 -0.019727305 0.08249927 0.016457625
0001d0 b8 b4 9a bd 9e e6 48 bc b3 cf 37 3d cf 99 92 3d
       -0.075540006 -0.012262015 0.04487581 0.07158243
0001e0 87 ba 5d bc 9d c6 8b bd 7a da 8b 3d e5 33 ab bd
       -0.013533241 -0.06824992 0.068287805 -0.083595075
0001f0 be 3e 42 3d ce 93 8a bd 12 0c 24 bc cf df dd bc
       0.047423117 -0.06766473 -0.010012643 -0.02708426

ensemble_blocks.0.5.weight f4 [128]
000000 d8 3e 88 3f f4 79 75 3f b4 38 8d 3f 91 cd 74 3f
       1.0644178 0.9588921 1.103293 0.9562617
000010 0c aa 78 3f 16 be 8a 3f 55 16 90 3f 33 a2 8a 3f
       0.9713447 1.083926 1.1256815 1.0830749
000020 a3 1b 8a 3f 3b fb 8b 3f dd 01 77 3f 3c 03 8d 3f
       1.0789684 1.0936044 0.9648722 1.1016612
000030 f0 b4 76 3f 85 44 8b 3f a0 29 7d 3f ad e9 8e 3f
       0.9636984 1.0880286 0.9889164 1.1165062
000040 86 80 8f 3f 10 8b 8a 3f 7a f7 76 3f 7b 76 8e 3f
       1.1211097 1.0823689 0.9647137 1.1129907
000050 77 13 91 3f 4d 37 76 3f 6e 95 81 3f 17 2b 8a 3f
       1.1334065 0.9617813 1.0123727 1.07944
000060 00 63 90 3f 5f bc 8d 3f 37 c2 8c 3f bd fe 8a 3f
       1.1280212 1.1073111 1.099677 1.085899
000070 fe 3a 8a 3f d4 71 8f 3f 19 dc 75 3f 60 35 8a 3f
       1.0799253 1.1206613 0.9603897 1.0797539
000080 83 cb 8c 3f b5 be 77 3f 68 d3 84 3f c2 6c 76 3f
       1.0999607 0.9677537 1.0377016 0.962597
000090 16 c1 76 3f 25 a6 75 3f 13 b3 77 3f 67 d0 8c 3f
       0.96388376 0.9595664 0.9675762 1.1001099
0000a0 00 c0 8d 3f c3 22 77 3f 51 82 8b 3f ea 05 76 3f
       1.1074219 0.9653742 1.0899144 0.96102774
0000b0 61 bd 75 3f b5 c1 8a 3f 03 f7 8d 3f f1 10 78 3f
       0.95992094 1.0840365 1.1091007 0.9690085
0000c0 10 cc 8a 3f c1 cd 8a 3f 57 74 76 3f 08 b3 79 3f
       1.0843525 1.0844041 0.9627127 0.97538805
0000d0 15 77 91 3f 78 d5 75 3f 9c d2 75 3f 53 25 75 3f
       1.1364466 0.9602885 0.9602449 0.9576008
0000e0 3c 33 77 3f 64 88 8c 3f 84 1f 75 3f 86 5d 79 3f
       0.9656255 1.0979123 0.95751214 0.9740833
0000f0 c0 4c 78 3f c3 58 8b 3f 89 51 7e 3f 85 ea 78 3f
       0.9699211 1.0886463 0.9934316 0.9723285
000100 62 b7 77 3f fd 69 8d 3f de 5c 78 3f 6f ed 8e 3f
       0.96764195 1.104797 0.97016704 1.1166209
000110 cd d9 8b 3f df b7 76 3f e9 c5 7b 3f 30 03 76 3f
       1.0925843 0.96374315 0.9834886 0.96098614
000120 c1 3a 87 3f 38 6b 76 3f c7 8a 75 3f c4 b6 8c 3f
       1.0564805 0.9625735 0.9591488 1.0993276
000130 35 96 76 3f db 50 77 3f 59 be 8a 3f 03 65 8b 3f
       0.9632295 0.9660775 1.083934 1.0890201
000140 c6 93 8a 3f e1 dc 78 3f f6 98 77 3f cb 65 8b 3f
       1.0826347 0.97212034 0.96717775 1.089044
000150 79 81 8a 3f 5a f2 8e 3f 8b 1c 8a 3f a4 fd 8a 3f
       1.0820762 1.116771 1.0789961 1.0858655
000160 08 9f 8b 3f 5c b0 8f 3f 6b 56 8e 3f ee 31 8a 3f
       1.0907907 1.1225696 1.1120123 1.0796487
000170 67 e4 90 3f e4 3d 78 3f 20 a7 8c 3f 4f db 8a 3f
       1.1319703 0.9696944 1.0988503 1.0848178
000180 60 60 8b 3f 47 f6 78 3f 38 00 86 3f b6 d7 8b 3f
       1.0888786 0.9725079 1.0468817 1.0925205
000190 a1 cd 78 3f ab a1 8a 3f 2d b3 8b 3f 34 2c 8c 3f
       0.97188765 1.0830587 1.0914055 1.095099
0001a0 f3 2c 77 3f 32 60 8a 3f dc c6 8b 3f d4 03 79 3f
       0.9655296 1.0810606 1.0920062 0.97271466
0001b0 02 b0 8d 3f 92 4a 8a 3f ad 99 75 3f 0b cf 78 3f
       1.1069338 1.0804007 0.95937616 0.9719092
0001c0 77 3b 76 3f 19 f7 87 3f b4 4a 7d 3f e7 81 76 3f
       0.96184486 1.0622283 0.9894211 0.96291965
0001d0 26 da 8a 3f 04 3f 76 3f 31 59 8a 3f 8b 82 79 3f
       1.0847824 0.96189904 1.0808469 0.9746482
0001e0 97 67 77 3f 2c 9c 76 3f 0d 8b 90 3f d1 3d 8b 3f
       0.9664244 0.9633205 1.1292435 1.087824
0001f0 76 08 81 3f e7 8a 8b 3f a6 b5 76 3f 1e 52 8b 3f
       1.0080707 1.0901765 0.96370924 1.0884435
