backend/models/tabm_model.pt (torch, 683286 bytes, 108 tensors)

input_bn.weight f4 [17]
00000000: 6b52 7e3f ea13 713f 905b 633f 367d 573f
00000010: 3dd9 773f 04d7 773f deb2 713f cf4a 8b3f
00000020: b569 963f b147 5d3f 542c 8a3f f52e 663f
00000030: f156 423f f423 613f 3158 573f 4527 473f
00000040: 7df2 603f
0.9934451 0.9417101 0.8881159 0.8417543 0.96815854 0.9681246 0.94413555 1.0882205
1.1751009 0.8643752 1.0794778 0.899154 0.7591391 0.87945485 0.84118944 0.77794296
0.8787001

input_bn.bias f4 [17]
00000000: b40a 61bb c8a3 6fbb 6595 7e3a b30d ea3a
00000010: d19d b83b 6277 ddbb a373 44bc 417f b0bb
00000020: 1f00 9abc b2d2 5e3a e1b3 f4bb ca08 08b9
00000030: 2f48 ae3b df4a 88ba add0 18ba c5a2 3c3a
00000040: 74d2 c13a
-0.0034338655 -0.0036566127 0.00097115926 0.0017856866 0.0056340476 -0.0067586163 -0.011990461 -0.0053862636
-0.018798886 0.0008500024 -0.0074677323 -0.00012973245 0.0053186635 -0.001039829 -0.0005829435 0.00071958854
0.0014787451

input_bn.running_mean f4 [17]
00000000: ddf0 4ebc c277 5ebc 8958 f0ba 3871 0dbc
00000010: 1179 e43b ce38 263c 4afa aa3c d716 8c3c
00000020: e0eb 53bc fe92 df3b 9550 1b3c 7324 8ebb
00000030: 42b2 75bc 8049 0cbc b3c2 fabb d70d c83c
00000040: 72ab e8bb
-0.0126306685 -0.013578357 -0.0018336932 -0.0086329505 0.00697244 0.010145379 0.0208713 0.017100735
-0.012934655 0.0068229428 0.0094796615 -0.004337841 -0.014996113 -0.008562446 -0.0076526045 0.024420662
-0.007100516

input_bn.running_var f4 [17]
00000000: 8eb7 773f 61c0 833f 07cc 853f f809 813f
00000010: 17cc 8b3f 4c40 a23f 0331 863f 9532 843f
00000020: 83a4 693f 7ae5 843f 7073 7a3f ecce 743f
00000030: 473f 773f 975f 7d3f 4592 793f d8ea 723f
00000040: 6b4c 7d3f
0.9676446 1.0293084 1.0452889 1.0081167 1.0921658 1.2675872 1.0483707 1.0327936
0.9126665 1.0382531 0.97832394 0.9562824 0.9658093 0.98973984 0.97488815 0.94889593
0.9894473

ensemble_blocks.0.fc1.weight f4 [128, 17]
00000000: 8b42 05bd 37c2 07be ff56 28be 032c 493e
00000010: bd21 69bd d3fd e6bd 271a ebbd e6fc d7bd
00000020: 12b9 debe b615 9dbd f726 c13c d5a7 393d
00000030: 8287 c63d 0c7e 5abc 7fa2 0f3e e6fc be3d
00000040: a235 ccbc d32d fbbd 205d 22be 31a1 11be
00000050: 3011 123e 66b6 5c3e 89d4 87bd 4975 35bd
00000060: 9735 57be 11a3 cfbc 98d9 6fbd 63b0 19be
00000070: 4e7b 53be 525a febd 9044 203e 845a 593e
00000080: 786e 77bb 802d 74be bc2d 593e 67eb 02bd
00000090: 0823 24be 66db 5bbb 2639 79be 9017 5cbe
000000a0: f97b 1ebe c890 823e 4e54 7a3d 6221 b9bb
000000b0: 93ef 4a3e a9df 2ebe a4c6 213e bfd7 95bd
000000c0: 3cd2 1fbb f3fb 0bbd 4302 cbbc f937 66bd
000000d0: 61f0 5cbd 51b7 10be a7b0 203e 7128 3fbb
000000e0: 3961 0b3e 1d5a 1ebd 9b37 7bbe 4c62 ecbe
000000f0: 0cfd 383d e991 ca3d 0937 24bd e87f 07be
00000100: 3539 1ebe 7e99 fb3d b100 623e 131c a43d
00000110: a6cd 243c d79e 4a3e 6ffb b13d 3f30 463e
00000120: 8e9d e2bc ab45 80bc 812c f8bc 1760 633d
00000130: 72be f43d 4490 3f3e aa3c 6d3e 2a6c 073e
00000140: 1fb8 d33d fc32 35be 9646 703e bc16 acbd
00000150: 6c82 ef3d 17d8 cabd 6eef b33d d08e 8abe
00000160: fa75 94be 5a35 a13d 04c6 5f3d 8126 2f3e
00000170: 4bc9 cbbd e627 2fbe f162 afbd 533e a8bd
00000180: 70d7 023e 3b65 393e c0d9 b6bd 57de 123e
00000190: 38c7 683e 3763 a3bd cd92 debd 2c70 b4bd
000001a0: f088 a5bd 2d47 143e d31b 1cbd 9157 033d
000001b0: 78cd 56bb 0a8b 2bbe dd51 c8bc 6568 e63d
000001c0: 1b44 82be e082 943e a7c9 35be 7336 06be
000001d0: 27ca 98bd 682b b63d 017b ddbd 2d1c 6b3e
000001e0: 4220 843d edca c23d 25ed 353c c0fd 53be
000001f0: a646 393e fd4a 533e 74ca 1c3e dce2 803d
00000200: 81e0 4d3e 2f5a 603d 9f3a 21be 7bb2 b23d
00000210: 8a56 173e 6be8 75be 7e78 3fbe 7b79 013e
00000220: 3c05 e4ba b961 af3d 6431 5e3d 40ca 16be
00000230: 0488 7f3e cfa6 93be 741c 0f3e 4476 66ba
00000240: 703e a9be aed4 013e 023d 87bc d7db c53c
00000250: 3ba9 083d 9deb 9ebc af7a 293c d097 9abd
00000260: 150e 86bd d84b c3bc 36a8 3dbe d3b2 143d
00000270: 8f0e 9fbe 0951 4b3c 1771 4c3e 4e09 143e
00000280: bcff 173e 2c73 75bc f232 ea3d 5faf dbbc
00000290: 0036 14be e2d6 a0bd 66d4 4b3e b12e 563e
000002a0: 4f4c f6bd 437c 8f3d e0e1 083e 4ad8 d4bd
000002b0: 7176 2cbe eadd 1d3e e040 04be 6de4 ecbd
000002c0: 332a b2bc 7a2e e5bb c999 01bf 9964 3b3e
000002d0: 284f 4d3c 1efd 863d eeab d8bd 1e3f 4d3c
000002e0: 1c75 593d b511 8ebc e6c4 babd ddd4 3ebd
000002f0: a5aa 063e b83e e3bd 929b b5bd d539 eb3d
00000300: f4b4 07bd 905f d5bd b641 243e c09a 863d
00000310: cef6 a2be 3752 5abe 9375 6ebe 2016 0cbe
00000320: 3ea8 71be 5598 0ebe 2e82 1fbe eb0f cbbd
00000330: a6f7 23be 62c4 0d3e d7b4 87be 4df2 823c
00000340: f6b5 7fbb 4539 823d 358e 5a3d b556 883d
00000350: 6e1f 3f3d 7641 c53d c2df 3b3e c589 3dbe
00000360: c1ab 333d 94e9 53be 71c6 0dbd c111 c4bd
00000370: 3f9c 2bbe e980 e9bd 2fa0 253e 6cfe 29be
00000380: 722f 9fbd 00e7 12bd 0c8c 54bd fc6a 753c
00000390: 8ae6 a83d 1b8b 79be 4225 debc c9ba fd3d
000003a0: 28dd 56bd df1c c63d a819 fb3d 5088 f1bd
000003b0: b29b 023e d17b 453d 21ee 18bd 9a0b 20bd
000003c0: c9df 23be 0677 643e f2ef 023e bd6b 2dbe
000003d0: f139 033e ed41 313e 00a2 66be 1e71 843d
000003e0: c5b0 753e 08fe 023e 74fd 7dbe a0d7 de3c
000003f0: 028c ccba fb2d 333d 1d73 383e 541b 4f3c
-0.032534163 -0.13257681 -0.16439436 0.19645695 -0.05691694 -0.11278882 -0.114795975 -0.105462834
-0.43500572 -0.07670157 0.02357815 0.045326073 0.09693815 -0.013335716 0.14026831 0.0932558
-0.024927918 -0.122646 -0.15855837 -0.14221646 0.14264369 0.21553954 -0.06632335 -0.044301305
-0.21016537 -0.02534631 -0.058557123 -0.15008692 -0.20652506 -0.12419571 0.15651155 0.21225935
-0.0037755053 -0.23845482 0.21208853 -0.03196278 -0.16028988 -0.003354752 -0.24338207 -0.21493363
-0.1547698 0.25501084 0.061115555 -0.0056497315 0.19817953 -0.17077507 0.15798432 -0.07316541
-0.0024386784 -0.034175824 -0.024781352 -0.056205723 -0.05394018 -0.1413243 0.15692388 -0.0029168392
0.13611306 -0.038660157 -0.2453293 -0.46168745 0.0451632 0.098911114 -0.040091548 -0.13232386
-0.1545151 0.12285136 0.22070576 0.08013167 0.010058796 0.19787155 0.08690535 0.19354342
-0.027663019 -0.01565822 -0.030294659 0.05551156 0.11950387 0.18707377 0.23167673 0.13224855
0.10337853 -0.1769523 0.23464426 -0.08402774 0.11694798 -0.09904497 0.08785902 -0.27062082
-0.2899626 0.07871504 0.0546322 0.17104532 -0.09950503 -0.17105064 -0.085637935 -0.082150124
0.12777495 0.18105023 -0.08928251 0.14342628 0.22732246 -0.07977908 -0.10867844 -0.088104576
-0.080827594 0.14480276 -0.038112473 0.03206593 -0.0032776278 -0.16752258 -0.024453098 0.112503804
-0.25442585 0.290061 -0.17752706 -0.13106708 -0.074604325 0.08894998 -0.10814477 0.22959967
0.06451465 0.09511361 0.011103903 -0.20702267 0.18093356 0.20634075 0.15311605 0.0629327
0.20105173 0.054773506 -0.15745018 0.08725449 0.14779106 -0.24014442 -0.18698308 0.12643997
-0.001739658 0.08563561 0.05424632 -0.1472559 0.2495423 -0.28838202 0.13975698 -0.00087914267
-0.3305545 0.12678787 -0.016508583 0.02415268 0.033364516 -0.019399459 0.010344191 -0.07548487
-0.06545655 -0.023839876 -0.18521199 0.036303353 -0.31065795 0.012409457 0.19965015 0.14456674
0.14843649 -0.014981072 0.11435498 -0.026817022 -0.14473724 -0.07853486 0.19905242 0.20916249
-0.120262735 0.07006123 0.13367414 -0.10392816 -0.16842057 0.15416685 -0.12915373 -0.11567006
-0.021748638 -0.006994066 -0.5062528 0.18300094 0.012531079 0.06591247 -0.10579668 0.012527255
0.0530902 -0.017342428 -0.09119587 -0.04658972 0.13151033 -0.11095947 -0.08867563 0.1148564
-0.033131555 -0.10418618 0.16040692 0.06572485 -0.31828922 -0.21320425 -0.23287039 -0.13680315
-0.23599336 -0.13925298 -0.15577003 -0.099151455 -0.16012439 0.13844445 -0.26505157 0.015984679
-0.003901837 0.063585795 0.053358275 0.06657163 0.046660833 0.09631626 0.18347076 -0.18509586
0.04386497 -0.20694572 -0.034613077 -0.09573699 -0.16758822 -0.11401541 0.16174386 -0.1660096
-0.07772721 -0.03586483 -0.05189137 0.01497912 0.08247097 -0.24369471 -0.027117375 0.12389142
-0.052457005 0.096734755 0.12260753 -0.11793578 0.12754706 0.048213784 -0.037336472 -0.039073564
-0.16003336 0.22311029 0.12786844 -0.1693563 0.12815072 0.17310305 -0.22522736 0.06466888
0.23993213 0.12792218 -0.24803716 0.027202427 -0.001560569 0.043745022 0.18012662 0.012640793

ensemble_blocks.0.fc1.bias f4 [128]
00000000: 0d75 a53d 23fc ce3d 6268 473d fce0 09be
00000010: 8f47 8fbd 368a 20be b704 903c 31ea 663e
00000020: f3ad 513e 3be4 6f3e d7f6 6ebe 1179 3bbe
00000030: 6aad 043d 3a2b febd 4488 223e fd28 8bbd
00000040: 17ce d73c aa4d 203e 18e3 51be f4d4 56be
00000050: c1e4 a33d 986f 343d 68ea 443d 75a6 62be
00000060: 3a8d d03c e4d9 6e3e 11b9 44be 46e9 acbc
00000070: b943 493e d3a6 053e 1d1b 723d 9c44 dcbd
00000080: 3d93 3b3e 1f8f a7bd f0f8 60bc c525 e63c
00000090: 68cb 2a3e 14b8 e5bd f329 283d 8094 00bc
000000a0: 63f0 1d3e 03a0 19bc 4847 933d 5943 39be
000000b0: 7c14 b7bd 9715 0d3e 946c da3d 220c 37be
000000c0: 42ae fcbc d804 003e f883 6f3e be67 3c3e
000000d0: e450 e0bd 88f3 52be e180 95bb d70c 32be
000000e0: 858f 75be bbbe 69be 6ba3 07be 461a d4bc
000000f0: 8e35 863d 75c1 95bd c93c 76bd 2c4c 34bc
00000100: 0b40 8c3d 34ea 91bc 6f40 96bd 317d febd
00000110: 3102 63be b67c 1bbe 7cf4 153e e902 10bd
00000120: 73ef 44be 2eae 58be 47ae 253e e1b4 7bbd
00000130: 2a1b 453e 933c 643e 6e49 c43d 12a9 8e3d
00000140: e6d9 74be 6e32 a63d 1797 38be 08a4 6d3e
00000150: 6070 54be 5a5f 423e 2f6a 983d 44a2 21be
00000160: 1839 dbbd 7100 253e 03c1 a53d 309a bd3d
00000170: 538a 31bd cd2f f1bd 7198 93bd 53cd 27be
00000180: 535f ecbc aad1 3cbe 0c74 e2bd c76a 283e
00000190: 68e3 e5bc 65e7 4cbe 2522 113e 4e54 0c3e
000001a0: e7ff 06bd f737 043e 85c6 513e 473c a4bd
000001b0: ff7d 11be b240 1cbc 40bc c4bd b9b3 b9bd
000001c0: d875 653e e9e9 5f3e 5d29 183e a3be 9b3d
000001d0: 9100 3b3c c5fa 37be 4133 4b3e b548 863d
000001e0: ce34 06be e037 41bc c418 853d 276f 4e3d
000001f0: cec0 5c3e 0602 37be b039 3c3e ce87 a13d
0.08078966 0.10106685 0.04868353 -0.13464731 -0.069960706 -0.15677723 0.017580373 0.22550274
0.20476513 0.23426907 -0.2333635 -0.18307902 0.032391943 -0.124105886 0.15872294 -0.06794927
0.026343388 0.15654626 -0.20496786 -0.20979673 0.08002616 0.044051737 0.04807511 -0.22133811
0.025457967 0.23325306 -0.19211222 -0.021107327 0.1965474 0.1305192 0.05910789 -0.10755274
0.18317886 -0.08181595 -0.013731226 0.028094182 0.16679156 -0.11216751 0.04105563 -0.007847905
0.15423732 -0.009376529 0.0719133 -0.18092097 -0.08939454 0.13777767 0.10665241 -0.17875722
-0.030844811 0.12501848 0.23390186 0.1839895 -0.10952929 -0.20600712 -0.0045624827 -0.1738771
-0.2398053 -0.22826664 -0.13245933 -0.025891434 0.065531835 -0.073122896 -0.060116563 -0.011004489
0.06848153 -0.017811872 -0.073365085 -0.12426222 -0.22168805 -0.15184292 0.14644045 -0.035159025
-0.19231968 -0.21160194 0.16179763 -0.061451796 0.19248644 0.22288732 0.09584318 0.06965841
-0.23911247 0.081150874 -0.18026386 0.23207104 -0.20745993 0.18981686 0.07442128 -0.15784556
-0.10704249 0.1611345 0.08093455 0.092579246 -0.043344807 -0.117766954 -0.0720681 -0.16386919
-0.028854048 -0.18439355 -0.110572904 0.16446982 -0.028062537 -0.20010145 0.14173181 0.13704035
-0.03295889 0.12911974 0.20485885 -0.080193095 -0.1420822 -0.009536909 -0.09606218 -0.090674825
0.22408235 0.21866573 0.14859529 0.076047204 0.011413709 -0.17966755 0.1984377 0.065568365
-0.13106081 -0.011793107 0.06498864 0.050398972 0.21557924 -0.17871866 0.18381381 0.07887231

ensemble_blocks.0.bn1.weight f4 [128]
00000000: 7fdb 813f 8f0f 873f 6b61 793f b971 813f
00000010: f4c6 6a3f a0dd 723f 907d 823f 0093 7a3f
00000020: 502a 953f cf81 733f 4643 8f3f df47 7f3f
00000030: 825d 833f 6d3b 793f fa8d 833f a733 853f
00000040: abe7 833f bc00 7c3f d1b2 813f 3868 783f
00000050: c6a4 833f 4faa 8a3f 6e85 803f 0820 6d3f
00000060: c22a 863f dd4e 823f 73ae 813f f9f8 783f
00000070: b439 6f3f d222 773f f20b 8a3f 12b2 6b3f
00000080: d017 7d3f 51da 783f ffda 7e3f 93c8 683f
00000090: af07 933f ef8e 7e3f 48e3 7c3f bd20 7f3f
000000a0: 9612 8b3f d242 6a3f 8fbe 7a3f 2451 7d3f
000000b0: 9bdb 673f 6059 833f 3256 873f 8856 7f3f
000000c0: e6f8 813f 90b7 803f 44ee 6d3f 76a5 6e3f
000000d0: 6e63 823f 8a43 843f 9984 813f 5de6 853f
000000e0: cb3a 733f 2695 803f 82f7 683f 415c 763f
000000f0: e89c 8a3f 136f 933f 579a 813f 68a0 893f
00000100: 1c60 863f fabe 7c3f 72f6 753f fb0b 813f
00000110: 1879 6e3f 8797 823f bff6 793f 3b75 853f
00000120: f3d3 733f 28d3 6c3f 1f3e 713f 1d92 823f
00000130: fcc3 893f 48e9 7a3f 0a6e 783f ced9 7e3f
00000140: 04dc 7a3f f203 803f 3bd9 8b3f f0db 753f
00000150: a721 833f afe6 813f 57d8 873f da4c 7a3f
00000160: a549 7b3f 7b33 863f f3a8 743f 0592 653f
00000170: 4799 983f ae34 8c3f 561e 793f d9dc 793f
00000180: 6264 843f 83cf 7a3f 89cf 773f 394c 893f
00000190: 4388 883f 69cc 7d3f 5f0a 7b3f 7693 733f
000001a0: bcd9 7e3f 70e7 733f 056d 763f 9925 823f
000001b0: e8ff 843f 952d 6a3f e07d 853f f272 803f
000001c0: 83d6 833f 7fd4 663f a36b 813f 6f4e 7d3f
000001d0: dfe5 883f 9ed2 773f 7b4b 823f 1212 783f
000001e0: 3717 873f ae9e 6e3f 6e22 743f 0638 8f3f
000001f0: a930 833f 4983 7b3f 4fa8 823f 556b 803f
1.014511 1.0551623 0.97414273 1.011283 0.9170983 0.9486942 1.0194569 0.97880554
1.1653538 0.9511995 1.1192405 0.9971904 1.0262911 0.973563 1.0277703 1.0406388
1.0305074 0.9843862 1.0132695 0.97034025 1.028466 1.0833224 1.004072 0.92627
1.0481799 1.0180317 1.0131363 0.972549 0.93447423 0.96537507 1.0784895 0.9206859
0.9886446 0.97208124 0.9955291 0.9093105 1.148672 0.9943685 0.98784304 0.9965933
1.0865047 0.9150821 0.9794702 0.98951936 0.90569466 1.026165 1.057318 0.9974141
1.0154083 1.0056019 0.9294169 0.93221223 1.0186594 1.0333111 1.011859 1.0460926
0.95011586 1.0045516 0.91002667 0.9623452 1.0829134 1.1518272 1.0125226 1.0752077
1.049808 0.9872891 0.9607917 1.0081781 0.93153524 1.0202492 0.9764213 1.0426401
0.95245284 0.925097 0.94235414 1.020084 1.0762935 0.9801221 0.97042906 0.99551094
0.9799197 1.0001204 1.0925668 0.96038723 1.0244645 1.0148524 1.0612897 0.97773516
0.9815925 1.048446 0.95570296 0.89675933 1.1921777 1.0953577 0.97311914 0.9760261
1.0343134 0.9797289 0.9680105 1.0726386 1.0666584 0.9914003 0.980627 0.9514688
0.99550986 0.9527502 0.962601 1.0167724 1.0390596 0.914758 1.0429039 1.0035079
1.0299839 0.90167993 1.0110973 0.98947805 1.0695151 0.9680575 1.0179285 0.96902573
1.055396 0.93210876 0.95365036 1.1188972 1.0249225 0.982472 1.0207614 1.0032755

ensemble_blocks.0.bn1.bias f4 [128]
00000000: e16d 82bd fde2 50bd eddb 5ebd 1dc9 f4bc
00000010: 6249 15be 10da 01be 114f 34bd e9a0 83bd
00000020: 878c e9bc 3c15 00be 63d2 883c 55d0 953c
00000030: d98d afbd 02ff 25bd c57a 60bd 7cfc e23b
00000040: 6bdd febc c9ff 89bd 43de 06bd 2f4d eebc
00000050: e749 753c 0f7c eb3b 66f2 453b 973b f2bd
00000060: 1252 a5bd 881a 46bd 07d4 8cbd 346c 53bd
00000070: 42cd 493c afce 1bbe 19dd a1bd 4c8c 98bc
00000080: 1306 34bd e8df 0cbe b1cf e2bb d237 06bd
00000090: b4b4 b9bc ca4d b7bc 34c7 93bd dfc9 a2bc
000000a0: 34b7 8ebd 3f12 e6bd 0056 d6bd 09ef 17bd
000000b0: 0dc9 95bd 5d84 90bd 2834 54bb cb37 393d
000000c0: d0ac 9cbd 378c 1cbd 16cf 5dbd 7583 b6bd
000000d0: 5953 0abd 2f04 71bd 457a 00bd c2cd 88bc
000000e0: 7d30 0cbd ede2 cdbd f168 eebd c1c6 31bd
000000f0: 3ea4 cdbc 2ebd 063d 2918 d43c 2482 c9bb
00000100: d44f 91bd cd8b a5bc aac9 81bc 98e4 21be
00000110: e677 9dbd a60a 5cbd 6585 b8bc 1353 27be
00000120: ce3a d73c 252f c6bd 005b a3bd 522d 20bd
00000130: 2010 94bc d811 1fbd 9f59 2fbd 8144 2fbd
00000140: da60 64bd 9b50 85bd 3bb8 083c 9a21 80bd
00000150: efc7 56bc 5256 65bd 10d7 acbc 9ad0 89bd
00000160: 265f dbbd e6de 32bc 3b91 acbd daf2 07be
00000170: eded 02bd 7c31 5c3c 1572 7bbd 20c4 8dbd
00000180: b2eb 52bd 4dfc 873d 24fd 09be 78a9 bebb
00000190: 5cf5 2f3c 5f2d 073d be50 22bd 1d46 bbbd
000001a0: 3910 4cbd 4d57 52bd 2982 14bd 161b 09be
000001b0: 05de 5fbc a35e bcbd 9431 28bc 82be 2cbe
000001c0: d90b c53c 54f7 86bd a819 8bbd 3466 9d3c
000001d0: d6bd 0ebd cc70 a6bd 752f 43bd 903e d7bc
000001e0: d26f f8bc 5047 08be 7cb3 b6bd 9f8b dfbd
000001f0: 20f9 2bbd 4123 c1bc f304 fa3c 7095 d6bc
-0.06368614 -0.050997723 -0.054408956 -0.029881055 -0.14578775 -0.1268084 -0.044020716 -0.064271756
-0.028509391 -0.125081 0.016701883 0.018287817 -0.08571977 -0.040526398 -0.054804582 0.006927071
-0.03111144 -0.0673824 -0.03292681 -0.029089538 0.014971233 0.00718642 0.0030204295 -0.11827772
-0.08072294 -0.048365146 -0.068763785 -0.051616862 0.012317004 -0.15215562 -0.07903499 -0.018621586
-0.043951105 -0.13757288 -0.0069217314 -0.03276808 -0.022669174 -0.02237596 -0.07215729 -0.01987165
-0.06968537 -0.11233949 -0.10465622 -0.037093196 -0.07313738 -0.07056496 -0.003237972 0.045219224
-0.07650149 -0.038219657 -0.05415257 -0.08911792 -0.033770893 -0.05884188 -0.031366605 -0.016699675
-0.03422593 -0.10053048 -0.1164111 -0.043402437 -0.02510273 0.03289526 0.025890427 -0.006149547
-0.07095304 -0.020208264 -0.015843231 -0.15809858 -0.076888844 -0.053721093 -0.022524545 -0.16340284
0.026273157 -0.09676961 -0.07976341 -0.03910572 -0.018074095 -0.038835377 -0.04281008 -0.04278994
-0.055756427 -0.06509515 0.008344705 -0.06256409 -0.013109191 -0.055990525 -0.021098644 -0.06729241
-0.107115075 -0.010917401 -0.08426138 -0.13276234 -0.031965185 0.013439532 -0.061388094 -0.069221735
-0.051494308 0.066399194 -0.13475472 -0.005818542 0.010739651 0.033002254 -0.039627783 -0.091442324
-0.04982016 -0.051352788 -0.036256943 -0.13389239 -0.013663773 -0.09197738 -0.010265727 -0.16869548
0.024053501 -0.06590143 -0.06792003 0.019213773 -0.03484901 -0.08126983 -0.04765268 -0.02627495
-0.030326758 -0.13308454 -0.08920953 -0.109153025 -0.04198563 -0.02357638 0.030519938 -0.026194304

ensemble_blocks.0.bn1.running_mean f4 [128]
00000000: ecb0 bd3d 89b6 d83d 5262 3f3d 9455 00be
00000010: 4f3c 96bd 94d3 1dbe 1a59 a83c 4c67 5f3e
00000020: 97d1 593e af3a 6c3e 8749 65be cca4 3bbe
00000030: 13e7 eb3c cceb f6bd 482d 243e 21c0 76bd
00000040: f31c ee3c 59df 223e e41b 56be ab67 57be
00000050: 06ad 963d 9046 643d d6e2 3e3d 8885 61be
00000060: 77f4 ce3c 138c 7b3e 5ee7 47be f0f6 96bc
00000070: 2e4f 443e 803e 083e b427 713d 1777 dfbd
00000080: ee9f 3c3e 8e05 afbd da9c 1abc de53 fd3c
00000090: f16f 253e c06e cfbd 95ea 403d b487 efb9
000000a0: 9ec7 243e a38a 4abb 7a13 a83d 81f5 3abe
000000b0: 73ae b8bd 61d8 073e d37e d23d e735 38be
000000c0: 2ef3 0ebd f3c5 003e f29f 713e ce97 383e
000000d0: e693 d1bd 9ada 54be f0a8 60bb 6122 2abe
000000e0: 0c4a 6ebe 3f8e 63be 9e5e 06be a63f febc
000000f0: f0d8 863d 51f1 89bd 27ba 56bd 527b 2f3a
00000100: 2683 803d 9082 82bc f25b a0bd 2de7 fcbd
00000110: 4801 62be cf50 1cbe 5c13 1c3e 9c88 14bd
00000120: 0a3d 43be 0575 5cbe a0a5 293e ec8f 56bd
00000130: 5804 413e c79b 6d3e 9c83 c73d 5e11 893d
00000140: 11d3 7bbe c4b0 a23d 7c8a 38be 037a 753e
00000150: 6733 4cbe febf 473e 9390 913d 5fef 26be
00000160: af9f d4bd a8b2 243e ae69 a33d f645 c73d
00000170: 989e 33bd f526 e7bd d704 9abd fa44 26be
00000180: a5e2 e5bc db6e 3cbe cc60 e2bd 2d80 263e
00000190: aff8 cabc 3a86 47be aff6 103e eed5 063e
000001a0: ad6e 06bd a6d9 0c3e 6479 523e f09b a1bd
000001b0: 781b 0abe 36a2 c0bb 9bbd c9bd 035f bdbd
000001c0: e331 663e 5ba5 5b3e da9a 183e da5b b13d
000001d0: 4b5c 9a3c feb0 33be ff14 4e3e 3411 6a3d
000001e0: 1280 05be d400 3abc 8665 7b3d a247 793d
000001f0: 9cb8 5c3e 9b0a 39be 61c4 453e 7ee4 a03d
0.09262261 0.10581691 0.046724625 -0.12532645 -0.07335722 -0.15412742 0.0205503 0.21816748
0.21271358 0.23069261 -0.2239133 -0.18324584 0.028796708 -0.120566934 0.16032898 -0.060241822
0.029066538 0.15905513 -0.20909077 -0.2103564 0.0735722 0.055731356 0.046603046 -0.22023594
0.025263054 0.24565153 -0.19521853 -0.018428296 0.1917083 0.13305092 0.058875754 -0.109113865
0.18420383 -0.08545981 -0.00943681 0.03092378 0.16155984 -0.10128546 0.047098715 -0.0004568674
0.16091773 -0.0030905388 0.0820684 -0.18257715 -0.090176485 0.13266136 0.10278096 -0.17989312
-0.034899883 0.12575512 0.2359617 0.18026659 -0.102332875 -0.20786515 -0.0034280382 -0.16614677
-0.23270434 -0.22222231 -0.13122031 -0.03103621 0.06584346 -0.067354806 -0.052423622 0.00066940964
0.062750146 -0.015931398 -0.07830037 -0.12348781 -0.22070801 -0.15265201 0.1524176 -0.036263093
-0.19066253 -0.21529014 0.16567087 -0.05238335 0.18849313 0.23203956 0.09741899 0.06692766
-0.24592234 0.079438716 -0.18021578 0.23972325 -0.19941483 0.19506833 0.071076535 -0.1630225
-0.1038202 0.16083777 0.07979141 0.09730141 -0.04385242 -0.11286727 -0.075204544 -0.1623725
-0.028062174 -0.18401663 -0.11053619 0.16259833 -0.024776785 -0.19484797 0.14156602 0.13167545
-0.032820392 0.13754901 0.2055412 -0.07891071 -0.13487041 -0.005878712 -0.098506175 -0.09246638
0.22479968 0.21449797 0.14902821 0.086600974 0.018842837 -0.17547986 0.20125197 0.057145312
-0.13037136 -0.0113527365 0.061376117 0.06085933 0.21554798 -0.18070452 0.19313194 0.078560814

ensemble_blocks.0.bn1.running_var f4 [128]
00000000: 5474 be3e db97 863e ae9e aa3e 71da f23e
00000010: 6c92 a33e c246 b13e d94e 693e 417f 933e
00000020: a2e1 6e3e 9c21 913e cf55 f83e dfcc a83e
00000030: 12c8 723e 4d4f 823e ad47 cb3e 4b68 a43e
00000040: 20dc b33e 61e2 953e 461e 4b3e af89 a93e
00000050: 0459 a63e 3eb7 013f 2f50 e13e 431a c83e
00000060: 4578 763e ed0e 943e 5278 953e 8ece 3e3e
00000070: 0eb2 df3e 2afe 813e 934f 2f3e fb5c 343f
00000080: ae83 c03e 9638 233e a441 cd3e 41af 1f3f
00000090: b2ab 953e b731 5f3f 6e04 8e3e cca5 763e
000000a0: 52a9 b93e b3a8 f73e 5e7d 5a3e 3888 5e3e
000000b0: edf7 9d3e 8d4c a33e 7d67 743e c37d 643e
000000c0: a9ca 523e 5986 693e c233 463e 13df 8a3e
000000d0: 759e d23e ddad 463e 2763 8d3e 3402 d73e
000000e0: 18b3 8a3e 868d 4a3e ef97 863e 2cfa b73e
000000f0: 28b4 a73e 2760 653e 4f51 cc3e 3c34 a83e
00000100: 9361 893e ed5d 913e e6fa 573e 9ade 4f3e
00000110: 4dd6 053f 13ea d73d e7df 9a3e d13c aa3e
00000120: 19b4 a33e 3b14 973e 6084 c13e f0e7 a73e
00000130: dd0b 9b3e 51d6 a53e 0f77 7d3e f9a3 2a3f
00000140: 887d 0f3f da8b 983e 4c3f d23e 0652 d13e
00000150: c68f 273f 81e2 473f 79cd bd3e 1b86 a23e
00000160: 363d 6f3e 3476 a53e 3f18 9d3e ea03 e73e
00000170: 8687 763e 20c4 f23e 0eb6 e23e 2ff2 ea3e
00000180: 3481 bb3e eaef 943e 481d 733e 1279 3b3e
00000190: 437c ce3e ecda 953e 4af4 9a3e 0e46 a83e
000001a0: 57a2 883e 30ee 9d3e 7fe0 eb3e bd4d 873e
000001b0: 65a9 483f 44d1 b13e ea25 ae3e c311 8a3e
000001c0: 3ffe be3e 7687 bc3e f904 843e ca11 cd3e
000001d0: 8452 a03e 2182 753e 644b 653e b29b d23e
000001e0: e8fe 2e3e 0058 8a3e 5626 873e c8e4 0c3f
000001f0: 164f 3e3e 0710 903e b808 953e 18ae 083f
0.37198126 0.26287732 0.33324188 0.47432283 0.3194765 0.34624296 0.22783984 0.28808025
0.2332826 0.28345954 0.48502967 0.32968804 0.23709133 0.25451127 0.39703122 0.3211082
0.3512888 0.29274276 0.19835767 0.33112857 0.3248979 0.5067023 0.44006488 0.39082536
0.24069317 0.28917637 0.2919336 0.18633482 0.43690532 0.25389224 0.17120199 0.70454377
0.37600464 0.15939555 0.40089142 0.6237679 0.29232556 0.87185234 0.27737755 0.24086684
0.36261994 0.48370895 0.21336886 0.21731651 0.30853215 0.3189434 0.23867603 0.223136
0.20585121 0.22805156 0.19355682 0.27123317 0.41136518 0.19402261 0.2761471 0.41993868
0.27089763 0.1978055 0.2628779 0.35933053 0.32754636 0.2239996 0.39905784 0.32852352
0.26832256 0.28391972 0.21091804 0.2029976 0.5228012 0.10542693 0.3024895 0.33249524
0.3197334 0.29507622 0.37796307 0.32794142 0.30282488 0.32390073 0.24752448 0.6665645
0.5605092 0.29794198 0.41063917 0.4088289 0.65453756 0.7807999 0.37070826 0.3174294
0.23363194 0.32316744 0.3068256 0.45120174 0.24075136 0.47415257 0.44279522 0.45887896
0.36622012 0.2908929 0.23741639 0.18307903 0.4032918 0.29268587 0.30264503 0.32865947
0.26686355 0.30845785 0.46069714 0.26426497 0.78383476 0.3472997 0.340133 0.26966676
0.3730335 0.36822098 0.25785044 0.40052634 0.31312954 0.23975421 0.2239204 0.4113441
0.17089427 0.27020264 0.26396435 0.5503659 0.18584856 0.28137228 0.29108214 0.53390646

ensemble_blocks.0.fc2.weight f4 [128, 128]
00000000: 778d 623d 30dc d33d 5220 2ebc 7683 603d
00000010: 01a2 a33b f15d ee3c e304 48bb 01e5 6dbd
00000020: 6a02 daba 2fcf af3d 4422 1c3d bb38 fa3c
00000030: 6c32 14bd 2339 91bc 50e2 9fbd f282 62bd
00000040: de67 42bd 973b 74bc 60b6 5f3d 1ba8 4fbd
00000050: 86c1 283d 4568 82bc 3e6f 833d bdd9 513d
00000060: f85d 7e3d d7ce a3bc bf12 27bd 36d4 9d3c
00000070: 56e1 0f3d 4f3e 383d c432 4dbc 1ad7 51bc
00000080: 0efd 453c b619 c3bc ad71 1cbb e0ae 8e3d
00000090: cdff 38bd f44e 903d c2cd 0a3d 5373 30bd
000000a0: 6b04 2e3c d31d 493d cc2a 393d d22e b6bc
000000b0: e78e 52bd dfbc cbbb 2cc7 5c3d c3c6 073c
000000c0: 1e7c 863d ccd8 c53b 583d 883c 64a4 113d
000000d0: 15d0 a53d 3f3e 6bbc 98b4 343d 3b5b 88bd
000000e0: e298 ddbc 277a 443d 6536 583d f1d9 48bd
000000f0: 85d8 eb3c 3ff2 ed3c 0321 a8bd af3c 9abd
00000100: 69dc 313d 867f 873d fdf1 bbbb fc21 8c3d
00000110: 07b3 1bbd cf30 4f3d 53a6 96bd 3427 8abd
00000120: b7f7 ecbc c9cf 5e3b a235 febc a861 b1bd
00000130: 05f5 873d 9f50 55bc 42af afbc a239 90bd
00000140: 23ee a13c ba9e f73b c9b8 14bd 0a86 293c
00000150: ee4a 823c 5d3f 803d 85aa 213b 87ca 6b3c
00000160: 5fcf 21bd 7496 1c3e 3461 3e3d 1f26 a7bc
00000170: 0cdc 803c b783 acbc e73c 70bc ff02 f63d
00000180: e6be 89bb 6833 543c 0a85 c93d 0cb9 f23d
00000190: 3c52 c03c 8c31 1d3c d985 c03d ca45 5dbd
000001a0: b795 993c cb4f 97bc feb0 1d3b cb88 d73d
000001b0: 274d 00bd 4054 0cbd da70 c53b cd49 5f3d
000001c0: 223d 983d faae 2abd fe64 543d 5478 72bd
000001d0: b78f 9dbc 84d9 a03d 6386 313d f17f aa3d
000001e0: 7218 913d 5055 30bd e153 cbbd a535 253c
000001f0: 3100 4c3b 9cf2 713d 800d 7abd 9bb4 cbbc
00000200: 2973 863d 6cec af3d 3146 94bd a020 57bd
00000210: 4ba4 e53c 6db7 a23c 68ea 543d 2bfe 093e
00000220: 53e9 743d 0a60 92ba d35f 2d3d a0f2 bbba
00000230: 00fa 0bbd 5026 3d3d 7eaa 953d 14ff d33b
00000240: d969 403d b729 de3c e112 52bd 327b 66bd
00000250: 1d63 6bbd 33ce 90bc d658 203c 497b 53bd
00000260: c5d2 bd3d 72b8 8dbd da5f 833d cd6e 203d
00000270: 49a1 923d 2957 dabd b04f 143e 0276 5f3d
00000280: d8f1 94bd e826 b03b 8601 883d 0327 39bd
00000290: c40e 0f3d ee53 3fba 4bda 4b3d c89f 9e3c
000002a0: 9562 a2bd b645 2cbd 7e6d 96bd 0572 013e
000002b0: 6bb4 5c3d 879a abbd 1568 bd3d 5fe3 c6bc
000002c0: fd57 fabc d4f5 a73d 7f7d 9fbc 02d4 aebc
000002d0: fdb0 43bc c570 8cbc b0ff 37bc 78c5 93bd
000002e0: 8ac5 7e3d fdf4 e33c 5ab3 753d 040c 74bc
000002f0: 6343 a13d e07f 3bbc a3f2 34bc d9d0 c7bc
00000300: e0bf 2c3d 0823 49bd 218a 033d 9d26 05be
00000310: 3a3e 013a 93f7 c33c a622 f43c 9ef7 e63d
00000320: fffa d1bd 51cc 6c3c a1da b93c 6b3e 00bd
00000330: ef07 d2bc d387 22bd f4e9 913c 54a6 ec3b
00000340: e80c dabc b407 10bc 1ac9 07bd 022e 75bb
00000350: 9679 cdbd d417 c1bc 34c5 bb3d 0d3f 42bc
00000360: cdae 753d 1cc6 cfbd 32c5 72bd 897c 1e3d
00000370: c166 10bd 93d6 c8bd 1872 053e ca51 4a3c
00000380: 2bf3 103a 87b1 6c3d 4cb8 97bc b886 753d
00000390: d685 9cbd 202e 3b3d 05cd 60bb ae45 973c
000003a0: 5c66 9e3d 48da 7dbd b553 babb a6dc 15bd
000003b0: 7edc 76bc d262 babd d4a6 0d3e b871 a13b
000003c0: 9374 f5ba 6489 d33d bdc4 2dbd b83f db3d
000003d0: b4a4 39bd 4163 5abd e61e 24bd ba14 29bd
000003e0: eafa 1abe 4f84 693d ba8c b1bc fe8c a1bb
000003f0: 6e94 6dbd 2ce6 f33a 371d 773d 09f5 b0bc
0.055310693 0.10344732 -0.010627823 0.05481287 0.0049936776 0.02909753 -0.003052049 -0.058079723
-0.00166328 0.08584439 0.038118616 0.03054463 -0.0361809 -0.01772744 -0.078068376 -0.05530066
-0.047462337 -0.014906785 0.054617286 -0.050697427 0.041200183 -0.01591886 0.06417702 0.051233042
0.062101334 -0.01999609 -0.040789362 0.01926623 0.035127006 0.044981297 -0.0125243105 -0.012807632
0.012084259 -0.02381597 -0.0023871467 0.069669485 -0.045165826 0.07046309 0.033887632 -0.04307873
0.0106211705 0.04910071 0.04520683 -0.022239123 -0.051405814 -0.0062175835 0.053900883 0.008287135
0.06566642 0.006037807 0.016630813 0.035557166 0.08096329 -0.014358102 0.04411754 -0.06658026
-0.02705044 0.047968056 0.05278625 -0.04903597 0.028789768 0.029046176 -0.082094215 -0.07531106
0.04342309 0.0661612 -0.0057356344 0.068424195 -0.03801253 0.050583657 -0.073559426 -0.06745759
-0.028926713 0.0033998361 -0.031031433 -0.086612046 0.06638531 -0.01301971 -0.021445874 -0.070422426
0.019766873 0.0075567635 -0.036309037 0.010346899 0.01590487 0.062620856 0.0024668288 0.014391548
-0.039504405 0.15291768 0.04647942 -0.02040392 0.015729927 -0.0210589 -0.014662958 0.1201229
-0.004203665 0.012951709 0.09839828 0.11851701 0.023476712 0.009594332 0.094005294 -0.054021634
0.018748147 -0.018470665 0.0024061794 0.10524138 -0.03132358 -0.034260035 0.006025416 0.05451374
0.07433535 -0.041670777 0.051854126 -0.059196785 -0.019233568 0.07853988 0.04334105 0.08325184
0.07084741 -0.04305011 -0.09928108 0.010083591 0.0031128044 0.05906926 -0.06104803 -0.024866393
0.06564934 0.08590016 -0.072399504 -0.052521348 0.028032443 0.019862855 0.05198136 0.13475864
0.059792828 -0.0011167538 0.042327713 -0.0014339276 -0.034173965 0.046179116 0.073079094 0.0064696167
0.046975944 0.0271195 -0.051287536 -0.056269832 -0.05746757 -0.017676448 0.009786805 -0.051631246
0.09268717 -0.06919946 0.064147666 0.039168168 0.07159669 -0.10661156 0.14483523 0.0545559
-0.072726905 0.0053757317 0.066409156 -0.04520322 0.03492619 -0.0007298578 0.049768727 0.019363299
-0.07928959 -0.04205867 -0.07345103 0.12641151 0.053882997 -0.08379083 0.09248368 -0.02427834
-0.030559534 0.08201185 -0.01946902 -0.021341328 -0.011944053 -0.017143616 -0.011230394 -0.072153986
0.062200107 0.02782678 0.059985496 -0.014895443 0.07874181 -0.011444062 -0.011044177 -0.024391579
0.042175174 -0.049105674 0.032114152 -0.13003011 0.0004930232 0.023921764 0.029801678 0.11277698
-0.10252952 0.01445301 0.022687258 -0.031309526 -0.025638549 -0.039680313 0.017811753 0.0072219763
-0.026617482 -0.008790899 -0.03315077 -0.0037411456 -0.10032956 -0.023570932 0.09168473 -0.011855853
0.059981156 -0.10145208 -0.05927009 0.038692985 -0.035254244 -0.09806552 0.13031805 0.012348602
0.0005529399 0.05778649 -0.018520497 0.05994293 -0.07642715 0.045698285 -0.0034301889 0.018465843
0.07734367 -0.061975747 -0.005686248 -0.03658738 -0.015067218 -0.0910088 0.13833171 0.0049268864
-0.0018726758 0.103289396 -0.042423952 0.10705513 -0.04532309 -0.053317312 -0.04006853 -0.041279532
-0.15134779 0.057010945 -0.021673549 -0.0049301377 -0.05800288 0.0018608025 0.060330596 -0.021601217

ensemble_blocks.0.fc2.bias f4 [128]
00000000: 0211 a4bd 456c 333d 3864 913d 5f73 5cbd
00000010: 489c 34bd 6955 9d3d 6b9f 24bd 0b66 3cbd
00000020: aaa9 87bd 1971 57bd ab2d 743c 9b8f 43bd
00000030: 1b2a b23d 9686 23bd c67f c03b 645a a7bd
00000040: 1fbd f3bb 29ee 84bd 90a4 8fbd 4779 9bbd
00000050: b20c a3bd f267 2a3d b3c6 40bd 3970 84bd
00000060: c44c 4ebd 30f0 99bc 98ae 0dbd 9201 2f3c
00000070: b8c2 a5bd cd62 3bbd 2866 abbd 38be 373c
00000080: 2c23 15bd 1f1f 6a3d 7605 543d 5b33 4a3d
00000090: 1e95 0bbc 58b2 a73d 64c8 a0bd 0ff5 b23c
000000a0: cbc0 773c 4830 8bbd 6f2c 39bd eb4a 823d
000000b0: 882e 18bd 29c6 8dbd 17cb 543c dc24 1b3c
000000c0: d024 083d 4328 d43c 608d b3bc 3fe5 5bbd
000000d0: 47c9 8e3d 0ac6 4bbd bbc9 943d df30 4d3d
000000e0: b48f 85bd d97d 23bd 7412 3abd 1684 a6bd
000000f0: e222 a23c f379 2ebd a13b 983d 1c66 fa3c
00000100: 947a bfbc 7a0e 99bd 8788 39ba c1b0 97bd
00000110: bd48 aa3c e1a2 2cbd 1294 743d ab37 253d
00000120: 0795 143d 1628 05bc 7eaf 963d 38ba a03c
00000130: 4d38 a8bd 981e 9d3d 4e79 b33c c72c 58bd
00000140: c2ce dcbc d065 bc3c 1502 4c3d f2db 063d
00000150: d0f1 493d 8e74 cabc 60f8 503d ea41 033d
00000160: 5a44 ff3b 8ee6 82bd 4f1c 613d 64e0 e639
00000170: 4468 073d dea3 9c3d 37a9 a1bd 49ef 053c
00000180: 40e4 80bd 762e 9cbd 3137 183d 78b2 47bd
00000190: 22c2 313c 2180 3f3d 40a5 94bd 8a2c 97bd
000001a0: 5ca4 51bd 4c56 86bd ef26 56bd b81a a0bd
000001b0: 3915 2bbd f208 27bc 334b bd3c 2c7b 10bd
000001c0: 3f22 f23c 5f1e 92bd 45cf 1bbd cc1b 3dbd
000001d0: 5df4 a5bd 9619 203d 539b 9cbc 2d2b 233c
000001e0: 9bd8 8e3d cdc8 353d aaf5 23bd cee2 89bd
000001f0: 7b5b abbc c4bb 4bbd eca4 2abd 1c26 10ba
-0.080110565 0.043804426 0.07099193 -0.053820964 -0.044094354 0.07682306 -0.040191095 -0.045995753
-0.06624158 -0.052598093 0.014903466 -0.047744375 0.08699437 -0.039923273 0.005874607 -0.081715375
-0.0074383165 -0.06490738 -0.0701381 -0.07591491 -0.07961406 0.041603036 -0.047064494 -0.06466717
-0.05036618 -0.018791288 -0.034590334 0.010681527 -0.0809378 -0.04574852 -0.08369094 0.011214785
-0.036410496 0.057158586 0.05176302 0.049365383 -0.008519439 0.08188313 -0.078507215 0.021845369
0.015121649 -0.06796318 -0.04520839 0.06361946 -0.03715375 -0.06922562 0.0129878735 0.009469237
0.033238232 0.025898105 -0.021917999 -0.053685423 0.06971984 -0.04974941 0.072650395 0.050095435
-0.0652155 -0.03991494 -0.045427755 -0.08130662 0.019792024 -0.04259677 0.07433248 0.030566268
-0.02337388 -0.07473464 -0.0007077534 -0.0740676 0.020786637 -0.04214752 0.059711523 0.040336292
0.036274936 -0.008127233 0.07357691 0.019620046 -0.082138635 0.07671851 0.021908429 -0.052777078
-0.026954059 0.022997767 0.049806673 0.0329246 0.049302876 -0.02471378 0.05101812 0.032045282
0.0077901306 -0.06391631 0.054958638 0.00044036203 0.03305842 0.07648443 -0.07893603 0.008174726
-0.06293535 -0.07626049 0.03716201 -0.048754185 0.0108495075 0.046753053 -0.072580814 -0.07381542
-0.051182136 -0.065594286 -0.052283224 -0.07817596 -0.041768286 -0.010195004 0.023107147 -0.035273716
0.029557345 -0.07134699 -0.038039465 -0.046169087 -0.08103249 0.0390869 -0.019117033 0.009959024
0.06974908 0.04438095 -0.040029205 -0.06732713 -0.020917645 -0.049739614 -0.041661188 -0.0005498843

ensemble_blocks.0.bn2.weight f4 [128]
00000000: 6044 7c3f f124 8b3f 30d8 933f ca53 7d3f
00000010: 6015 9d3f a4fa 803f f38f 7b3f 265f 753f
00000020: a5c5 803f ae60 843f 1477 983f d9aa 953f
00000030: 3acd 933f cb5c 7d3f 388e 993f 1eaf 773f
00000040: beb1 9a3f a6ff 933f e42a 8d3f 4977 893f
00000050: fab0 803f 5dc8 923f 621a 933f 960d 8f3f
00000060: aa8c 793f 50cc 933f b624 983f f2e0 943f
00000070: 86c0 773f 44c5 953f 74bc 903f 7082 963f
00000080: dfcb 853f d203 9e3f 073f 7c3f 8c0d 903f
00000090: 6bcf 813f 56ea 8f3f 90f6 8f3f a577 823f
000000a0: 2288 843f 5c69 923f 75e9 913f 49eb 953f
000000b0: 8e47 833f c08b 903f b56b 783f db77 793f
000000c0: 7440 903f deb4 833f 580f 973f 436a 7d3f
000000d0: aa62 8e3f dd81 943f 9aa9 843f 10f8 8e3f
000000e0: 470c 953f 78e6 993f b43e 803f a87a 8e3f
000000f0: 46fc 923f dba6 8d3f 00fb 8f3f 9e0e 903f
00000100: a14d 973f 069f 973f cf5e 983f 3544 823f
00000110: 1987 813f 4308 893f 11f9 803f 228a 783f
00000120: 59ca 8e3f 418d 963f 86a9 903f 42c0 743f
00000130: 2603 8f3f 4627 923f 7408 953f 9575 773f
00000140: 06f0 903f 853a 733f d98b 833f d4a0 903f
00000150: b35e a33f 9b0a 803f 162a 813f d801 9b3f
00000160: ca39 7e3f ca76 983f 1360 8b3f db0f 8f3f
00000170: 445c 973f 8e71 8c3f 6b8d 793f 6b75 963f
00000180: ed16 7b3f 7c00 783f 2aac 903f 3711 913f
00000190: d7f3 7d3f 920e 7b3f 9c00 9b3f 2240 823f
000001a0: 2c20 8b3f 3e76 753f f86d 8f3f 5ee2 7f3f
000001b0: b5e4 803f 6b95 903f baeb 933f 28b0 903f
000001c0: 40fc 983f 99b1 933f 2f11 813f 8b3c 843f
000001d0: a780 813f 9437 8f3f 5cba 963f d628 973f
000001e0: 6d41 a43f fb3e 8d3f 7098 903f ea85 7b3f
000001f0: 2444 923f 5593 813f 7e60 953f cb5a 913f
0.9854183 1.0870649 1.155035 0.98955977 1.2272148 1.007649 0.98266524 0.9584831
1.0060316 1.0342004 1.191134 1.1692764 1.1547005 0.98969716 1.1996527 0.9675158
1.2085493 1.1562393 1.1028714 1.0739528 1.0054009 1.1467396 1.1492426 1.1176021
0.9748026 1.1546726 1.1886203 1.1631148 0.9677814 1.1700826 1.1307511 1.1758556
1.0452842 1.2344916 0.9853367 1.1254134 1.0141424 1.1243389 1.124712 1.0192763
1.0354044 1.1438403 1.139937 1.1712428 1.0256212 1.1292648 0.9703935 0.9744851
1.126967 1.0289571 1.1801558 0.9899027 1.112386 1.1602131 1.0364258 1.1169453
1.1644372 1.2023458 1.0019135 1.1131182 1.1483238 1.1066545 1.1248474 1.1254461
1.1820565 1.1845405 1.1903933 1.0177065 1.0119354 1.0705646 1.0076009 0.97085774
1.1155502 1.1761857 1.1301734 0.9560586 1.1172836 1.1418235 1.1643205 0.9666379
1.1323249 0.9501117 1.0277053 1.1299081 1.2763275 1.0003237 1.0090969 1.2109938
0.9930693 1.1911252 1.0888695 1.1176714 1.1825032 1.0972154 0.9748141 1.1754583
0.98081857 0.9687574 1.130254 1.1333379 0.99200195 0.9806911 1.2109561 1.0175822
1.0869193 0.9588355 1.1205435 0.99954784 1.0069796 1.1295599 1.1556313 1.1303759
1.195198 1.1538574 1.0083369 1.0330976 1.0117387 1.1188836 1.1775622 1.1809337
1.2832466 1.1034845 1.129652 0.9825121 1.1427045 1.0123087 1.1670072 1.1355833

ensemble_blocks.0.bn2.bias f4 [128]
00000000: 2cb8 a0bc de7e 07bd 9062 603d 71b4 0abc
00000010: fcee 9a3d d256 afbc 79fe e0bc 2f89 1bbd
00000020: 0df5 80bc ab60 9ebb 34c8 903d 9ff5 2a3d
00000030: 9f03 833d 3d82 76bd 6724 823d 172a 24bd
00000040: 57b5 a73d 50a1 3c3d 2e69 4b3d c1ab 88bd
00000050: acf2 e2bc 7f71 913d de85 403d 811a 853d
00000060: 6e00 a7bc 3449 463d 51d6 5e3d 7680 653d
00000070: 5ee5 4cbd 6e09 a43d 9c0b 653d 9b91 813d
00000080: ba2a b1bc 8ac4 db3d c995 01bd 65e3 083d
00000090: eb06 4ebc e9f2 a03d d8d4 7a3d dc64 63bc
000000a0: 9d6f 49bc 5475 213d fbb8 903d 59a7 9b3d
000000b0: 8991 28bc 9886 413d c601 fcbc e73a 4abd
000000c0: 28d8 413d fa8b bbbd 456a 923d 8068 94bc
000000d0: 4feb bc3b 5187 4e3d 3e14 70bd fcc7 273d
000000e0: 82dd 2f3d 3ef0 923d 439b 88bc 711a 5a3d
000000f0: 3148 42bc abcd fe3c 6337 5f3d b182 363d
00000100: 395a 683d 9245 bf3d e5a1 ad3c 1cd1 59bd
00000110: ea54 dbbc eec4 c1bd 1ea4 9bbc 259b 37bd
00000120: 1364 5dbd c21f 663d 5f7f 813d 7bc7 d5bc
00000130: de36 853c 9224 a63d 1829 793d 5aec c7bc
00000140: 7e67 343d 3e57 08bd f598 dcbc 92c5 713d
00000150: 3858 af3d 7118 95bc 690a 7ebd 702e 5c3d
00000160: 62db edbc 1ab6 873d 355e 6e3d a24a 763d
00000170: 7277 263d 3d12 1f3d c683 a4bc 4f9a 453d
00000180: 7392 d1bc 8dca debc 64b8 5b3d 2d1f 763d
00000190: 70ee 43bc 358a 82bc ef90 823d d0e0 8ebd
000001a0: 5ae0 1ebd 17a0 02bd 5222 943d d5b1 06bd
000001b0: 5790 8bbd cd07 ef3c 48be 7e3d f83a 2e3d
000001c0: 17f6 6c3d 7761 5b3d cd64 74bd 1556 63bd
000001d0: 9bc5 fbbb 533e 413d 2a8d eb3c 0b38 973d
000001e0: 023d 9e3d ef4d 473d f98c 573d 68a9 93bc
000001f0: e1bc 333d 08c3 63bc 2891 b03c 42a6 503d
-0.01961907 -0.033079974 0.054781497 -0.008465872 0.07565114 -0.021403704 -0.027465092 -0.037972625
-0.01574185 -0.004833301 0.07069436 0.04173815 0.06397175 -0.0601828 0.063545994 -0.040079203
0.08188885 0.046052277 0.049660854 -0.066733845 -0.027703606 0.07101726 0.047002666 0.06499196
-0.020385947 0.048409656 0.054403607 0.056030713 -0.05002343 0.08009611 0.055919275 0.063266
-0.021626819 0.10730846 -0.031636987 0.033419985 -0.012574892 0.078588314 0.06123814 -0.013879027
-0.012294677 0.039418533 0.07066532 0.076002784 -0.010288605 0.0472475 -0.030762564 -0.04937258
0.047325283 -0.09157558 0.071491756 -0.018116236 0.0057653557 0.050422017 -0.058613054 0.040962204
0.042935856 0.07174729 -0.016675597 0.053247873 -0.011858032 0.03110393 0.05449618 0.04455823
0.056726668 0.09339441 0.021195361 -0.053177938 -0.026773889 -0.094613895 -0.018999156 -0.04482569
-0.054050516 0.05618263 0.06323122 -0.026096096 0.016261514 0.08112444 0.060830206 -0.024404693
0.04404401 -0.033286326 -0.026928404 0.05902631 0.08561748 -0.018200131 -0.062021647 0.053755224
-0.029035274 0.0662653 0.05819531 0.06012977 0.040641256 0.038835753 -0.020082366 0.048242863
-0.025582528 -0.027196193 0.053642645 0.060088325 -0.011958703 -0.015935043 0.063753 -0.06976473
-0.038788177 -0.031890955 0.072331086 -0.032884438 -0.0681464 0.029178524 0.062193185 0.042536706
0.057851877 0.053559747 -0.059666444 -0.055502016 -0.0076834685 0.047178578 0.028753836 0.07383736
0.0772648 0.048658308 0.052624676 -0.018025115 0.0438813 -0.01390148 0.02155359 0.050939806

ensemble_blocks.0.bn2.running_mean f4 [128]
00000000: 3fee 593e 1e32 203e c5bb 9e3d 6f67 63be
00000010: e87e b7bd 608d 26bd f8fe c0bd b1fa d33d
00000020: 0a36 27be a637 64be fe22 ce3c a83a 4ebe
00000030: caa7 453e 3832 b0bd d97d 6abc 93c5 a1be
00000040: 9e67 983e 9e58 b4bd 0934 d4bd f889 363e
00000050: 3195 893a fc29 febc faa4 a93d 1938 a73d
00000060: 04df e43d 41b7 ae3e 5380 c3bb 59b1 71bd
00000070: c1bb f1bb 204f 973d d977 2a3e 5d86 343e
00000080: ae89 d13d 0a70 b73e 9d22 bf3e 7534 b0bd
00000090: 2c8d e23e 2eab 63be f84a c6be fd21 bf3e
000000a0: 663c eebe 3c25 09be 325f 913d 584b ac3e
000000b0: 83ed efbd bf7b d6be 776c d83d 728b 58bd
000000c0: 7e39 3cbe 655a 9abd 048d fcbd 61dd a73e
000000d0: 06b4 8f3d 82dd 3e3e 7674 af3d 1e71 363e
000000e0: 4d2c b2be 1f29 f03d 0b35 e23c 0f25 32be
000000f0: 0ae7 4bbe 8d0b 89be 2dff b13e a01b de3d
00000100: a733 293d cfcf d2bd 3f8e 2abe 3dae c03d
00000110: 4088 613e 28a3 2b3e 03c5 ab3e a485 07bd
00000120: 22ed 003d f717 bf3d c0d5 13be be8c a23d
00000130: 3b3c 87be b65b c7be b72a 91be db9e a63e
00000140: 8fcc 58be 77ec eb3d 07cd ff3b c2de c9bd
00000150: 94b4 253e e938 b13e e8ae dd3d 24d1 103e
00000160: ed89 063e 7501 64bd 56a1 fd3b a6e8 2dbe
00000170: 90e3 95bd 21a9 cb3b a894 97be fbf5 ffbd
00000180: 8280 6dbc 978a 0fbe 07fe d2bd 8e95 c8bd
00000190: fc1a 8c3d 30f8 823e 401b a8bd 4c73 23be
000001a0: 18e6 35be 2355 90be 5764 e9bc 1956 cf3d
000001b0: 1f3d 61be f84c 3cbc 0e3c 9a3e 32fe 9fbc
000001c0: 18c3 893e 95f9 19bd fd77 e13b ceb8 e2bd
000001d0: adc4 c53e a20a 47be 67ce 623e 0488 a73d
000001e0: aae5 e53d e619 cbbe 2ca2 9b3b 8504 21be
000001f0: d549 593e 8118 fd3d 1c6f 2c3e b2fd 4c3b
0.2128229 0.15644118 0.07750658 -0.22207426 -0.08959752 -0.04066217 -0.094236314 0.1035055
-0.16329208 -0.22286853 0.02516317 -0.20139563 0.19302288 -0.086033285 -0.014312231 -0.3159605
0.29766554 -0.08805965 -0.103614874 0.17826068 0.0010496733 -0.03102588 0.0828342 0.08164997
0.11175349 0.34124187 -0.005966225 -0.059007023 -0.0073771183 0.07388139 0.16647281 0.1762938
0.102313384 0.35827667 0.37331095 -0.086037554 0.4424833 -0.22233269 -0.38729072 0.37330619
-0.46530455 -0.1339311 0.07098235 0.33651233 -0.11715224 -0.41891286 0.10567563 -0.05286736
-0.18381307 -0.07536773 -0.12331584 0.32786086 0.070167586 0.18639186 0.08567135 0.17816588
-0.34799424 0.11726593 0.027613183 -0.17396949 -0.19912353 -0.26766625 0.34764996 0.10845113
0.041309025 -0.102935426 -0.16655825 0.09408233 0.22024632 0.16761458 0.33548746 -0.033086434
0.031476147 0.09330743 -0.14437008 0.07937001 -0.2641314 -0.38937157 -0.283529 0.32543072
-0.21171783 0.115197115 0.0078064236 -0.09856941 0.16182166 0.34613732 0.10824376 0.14142281
0.13138552 -0.055665452 0.00774018 -0.1698328 -0.07318795 0.00621523 -0.29605603 -0.12498089
-0.014495971 -0.14017712 -0.10302358 -0.0979415 0.06841084 0.25579977 -0.082083225 -0.15961951
-0.17763555 -0.28189954 -0.028490229 0.10123844 -0.21995972 -0.01149296 0.30123943 -0.01953039
0.26906657 -0.037591536 0.006880759 -0.11070405 0.38626614 -0.1943765 0.22149049 0.0818024
0.112254456 -0.39668196 0.004749557 -0.1572438 0.21219571 0.123581894 0.1683926 0.0031279144

ensemble_blocks.0.bn2.running_var f4 [128]
00000000: c103 3e3e 5ae1 233e 0ddb 323e 5f5e 893e
00000010: 5959 063e 780e 383e 46be 333e 8ecb 0e3e
00000020: 1ff5 073e 1042 153e 58de 203e bb5c 2d3e
00000030: 9a44 283e ed4a 453e 8b3d ee3d 5b85 293e
00000040: 39f5 153e c5c8 f63d 3655 763e 850a 103e
00000050: 85e5 273e edd3 093e 6a54 403e 4b65 093e
00000060: 2ddc 403e 5c7d 443e 356f 393e d05a 1f3e
00000070: 9670 fe3d 8c76 023e b7c7 0b3e ae8c 493e
00000080: 05ec 0b3e d1d1 193e 41c6 303e d86b 3f3e
00000090: 6114 1f3e edc6 0d3e 34c8 293e 7e03 033e
000000a0: bfd3 273e b27e 883e 6204 623e f18c 433e
000000b0: 7017 163e 434e 433e d7a7 033e b296 733e
000000c0: ccf3 6d3e bf7b 1c3e 6a80 153e 9fba 0f3e
000000d0: 1e09 4f3e 4dae 553e 501e 633e 4862 243e
000000e0: 0868 173e c22d 253e 2c38 1a3e f172 653e
000000f0: c08f 103e 823e 4b3e 042a 083e 9ca9 2a3e
00000100: f2c3 223e 581c 263e 978d 423e 34cc 5a3e
00000110: 328c d43d 4662 1f3e 3436 053e 9c1c 1a3e
00000120: e324 1a3e 2b29 633e 6d44 693e ad0d 303e
00000130: 0707 423e 4df3 583e 4125 3c3e 999a 053e
00000140: aa5b 0d3e 5fc2 053e c8a0 073e 4525 163e
00000150: 0bb0 173e 4015 0a3e 6401 4e3e fc12 0f3e
00000160: c08f 0c3e 8471 683e b066 583e a7bb 643e
00000170: 438b 083e 46f6 773e 3337 3b3e 10bd 303e
00000180: a9bf c43d 5b8b 8a3e d2dd 0a3e a86c 233e
00000190: cf21 043e 5e9d 2f3e 1726 2f3e 26e1 833e
000001a0: 64b9 2e3e 78f9 0f3e 3cd7 293e 6e45 ec3d
000001b0: 0938 583e 42f7 d03d 3f33 713e abbf 083e
000001c0: 748a 253e bb52 2e3e 504f 5a3e 0201 843e
000001d0: 7828 213e 9eaf 353e 9e58 f03d 53ac 3e3e
000001e0: 7524 1a3e e927 763e a8ba 1b3e 1515 383e
000001f0: af70 2c3e 7e2e 193e d825 1c3e 3497 fd3d
0.1855612 0.16003934 0.17466374 0.26829812 0.13120021 0.1797427 0.17553052 0.13944837
0.132771 0.14575982 0.15709817 0.16929905 0.1643242 0.19266863 0.11632832 0.16554777
0.14644326 0.120500125 0.24055943 0.14066513 0.16396149 0.1345975 0.18782201 0.13417546
0.1883399 0.19188446 0.18108828 0.15561986 0.12423818 0.12740535 0.13650404 0.19682571
0.13664253 0.15021445 0.17263128 0.18693483 0.15535118 0.13845415 0.16580278 0.12794301
0.16389368 0.2665916 0.22071984 0.19096734 0.14657378 0.19072823 0.12856995 0.23787954
0.23237532 0.1528158 0.14599767 0.14036034 0.20218322 0.20867272 0.22179532 0.16053116
0.14785779 0.16130736 0.1506049 0.22407128 0.14117336 0.19848064 0.13297278 0.16666263
0.1589506 0.1622175 0.18999325 0.2136696 0.10378303 0.15564832 0.13008958 0.15049976
0.15053134 0.22183673 0.22780009 0.17192717 0.18947993 0.21186562 0.18373586 0.13047256
0.13804498 0.13062428 0.13244927 0.14662655 0.14813249 0.13484669 0.20117718 0.13972086
0.13726711 0.22699553 0.21132922 0.22337209 0.13334374 0.2421504 0.18282776 0.17259622
0.09606869 0.27059445 0.1356118 0.15959418 0.12903522 0.17149875 0.17104374 0.25757712
0.17062908 0.14060009 0.16586012 0.1153668 0.21115126 0.10203411 0.23554705 0.13354366
0.16166097 0.17023747 0.21319318 0.2578202 0.15738094 0.17742774 0.117356524 0.18620424
0.1505297 0.24038662 0.15207922 0.17976792 0.1683986 0.14959142 0.15248811 0.12382355
