backend/models/tabm_best.onnx (onnx, 41258 bytes, 10 tensors)

embedding.embeddings.0.weight f4 [10, 4]
-1.5009599 -1.2364774 -0.39800084 1.2193687 0.16806562 0.27813572 -1.3208556 -0.46452177
0.33166635 -0.6993973 -1.2672125 0.081171505 0.10918162 0.8701861 0.9893317 0.09898838
-0.6248396 0.22430512 0.38341987 -0.5001662 0.35265288 1.5996071 -1.0497118 -0.33070463
0.9199292 0.5013519 2.944007 0.16099054 1.577429 -1.1469731 -0.45398524 0.24215844
0.8621253 1.0123379 0.0711578 -0.2591638 0.6713468 -0.08221586 -0.7645208 -0.80381763
00000000: 741f c0bf e444 9ebf c4c6 cbbe 4614 9c3f
00000010: 6519 2c3e ce67 8e3e cc11 a9bf ccd5 edbe
00000020: 2cd0 a93e b40b 33bf 0534 a2bf 3f3d a63d
00000030: 9d9a df3d 84c4 5e3f d844 7d3f 6bba ca3d
00000040: 7df5 1fbf 3eb0 653e 9c4f c43e e40a 00bf
00000050: eb8e b43e edbf cc3f f55c 86bf 1e52 a9be
00000060: 7b80 6b3f 9958 003f 9c6a 3c40 b4da 243e
00000070: 32e9 c93f 04d0 92bf c170 e8be 62f8 773e
00000080: 3eb4 5c3f 4a94 813f 2ebb 913d 1eb1 84be
00000090: 62dd 2b3f ca60 a8bd a3b7 43bf fec6 4dbf

embedding.embeddings.1.weight f4 [3, 4]
1.0537509 -0.3029601 -0.9688043 -1.2465944 0.5148876 1.1292764 -0.2792061 0.082359724
1.6513971 0.27976108 0.9563194 -1.367408
00000000: 4fe1 863f 961d 9bbe 8f03 78bf 6890 9fbf
00000010: accf 033f 218c 903f 1af4 8ebe 37ac a83d
00000020: fb60 d33f d83c 8f3e 59d1 743f 3a07 afbf

embedding.embeddings.2.weight f4 [2, 4]
0.043259796 1.7957447 0.25045294 0.92470545 1.6135577 -1.2919457 1.1691629 1.0743175
00000000: 2f31 313d f6da e53f 5e3b 803e 7fb9 6c3f
00000010: 0f89 ce3f 7a5e a5bf 21a7 953f 3c83 893f

embedding.embeddings.3.weight f4 [8, 4]
-0.18159063 0.77408147 -1.4525925 0.91100705 1.1474416 -0.4386311 -0.39838043 0.28980342
0.095813446 -0.86958754 -2.0678456 -0.6774073 -0.24117282 -0.05225421 0.8117269 0.82015854
1.809617 -0.7219372 -0.29119408 -0.85040677 0.33969533 -0.694286 0.7239688 -0.24058874
-0.06495265 -0.5370516 0.2494726 -1.2598445 0.8355527 -0.87729055 -0.575924 -0.24395289
00000000: e5f2 39be 342a 463f 8dee b9bf c237 693f
00000010: 5edf 923f 4194 e0be 85f8 cbbe 1d61 943e
00000020: d739 c43d 4a9d 5ebf 9557 04c0 916a 2dbf
00000030: 02f6 76be 8308 56bd 56cd 4f3f e9f5 513f
00000040: 88a1 e73f e0d0 38bf 6417 95be 42b4 59bf
00000050: 8cec ad3e babc 31bf 0556 393f e55c 76be
00000060: e505 85bd 377c 09bf bf75 7f3e 9642 a1bf
00000070: c8e6 553f 1d96 60bf c16f 13bf c9ce 79be

embedding.embeddings.4.weight f4 [13, 4]
1.5281585 0.8324088 -1.0398704 -0.67181385 -0.72278655 -0.013232124 1.4786807 -1.2518185
0.08278829 1.8733271 -0.3012501 0.8481943 -1.3073868 0.48169595 -0.68114644 1.6651957
0.94836473 0.85666746 1.081598 -0.95400894 -1.0933275 0.61013347 -0.70991397 0.36583704
-0.93453544 0.50588423 0.25068924 -3.1314566 -0.3639125 -1.5045558 0.23045884 0.21504764
-0.23521914 -0.13013797 -1.2456193 0.19462235 -0.21325302 -0.9344381 -1.0373482 -2.3655427
1.0256821 0.5091594 -0.18916538 0.47530597 0.3790776 2.0534225 0.5689879 -1.5711133
0.7013661 0.56030756 0.4507668 1.0427107
00000000: b39a c33f be18 553f 791a 85bf fefb 2bbf
00000010: 8a08 39bf 8dcb 58bc 6945 bd3f 973b a0bf
00000020: e88c a93d 2fc9 ef3f 743d 9abe 4323 593f
00000030: 7358 a7bf daa0 f63e 9d5f 2ebf 2225 d53f
00000040: 08c8 723f 8f4e 5b3f ce71 8a3f ee39 74bf
00000050: 28f2 8bbf b531 1c3f ecbc 35bf fe4e bb3e
00000060: b73d 6fbf a181 013f 575a 803e c969 48c0
00000070: bd52 babe 4995 c0bf 67fd 6b3e 7335 5c3e
00000080: 49dd 70be e342 05be 7470 9fbf 154b 473e
00000090: 005f 5abe 5637 6fbf d3c7 84bf 0d65 17c0
000000a0: 8d49 833f 4558 023f 92b4 41be 4e5b f33e
000000b0: 7616 c23e 466b 0340 31a9 113f 3e1a c9bf
000000c0: bb8c 333f 5170 0f3f e8ca e63e 8b77 853f

embedding.embeddings.5.weight f4 [9, 4]
1.7488858 -0.6999627 -0.41859993 1.0042392 -0.84852475 0.69124687 1.2278239 -1.3916489
1.8370845 -0.40779486 -0.033991937 2.399032 -0.9610775 0.786138 0.38118285 0.7761227
-0.9073935 0.34644175 0.41046757 -0.22520386 -1.9203196 -1.1740606 -0.2325068 -2.2042897
-0.7810205 -0.74639225 0.3676771 -0.09370498 -1.0896528 1.4019567 -0.77675366 1.1103326
0.54121447 2.0144863 -0.55409086 -1.6679132
00000000: 7ddb df3f c130 33bf bb52 d6be e98a 803f
00000010: eb38 59bf 8ef5 303f 5529 9d3f 8d21 b2bf
00000020: 9625 eb3f 7dca d0be 213b 0bbd be89 1940
00000030: 2d09 76bf 5740 493f 662a c33e faaf 463f
00000040: f14a 68bf d060 b13e ce28 d23e d79b 66be
00000050: 08cd f5bf 9e47 96bf 4316 6ebe 1513 0dc0
00000060: f6f0 47bf 9013 3fbf 2c40 bc3e 66e8 bfbd
00000070: be79 8bbf 5173 b33f 54d9 46bf 611f 8e3f
00000080: 088d 0a3f 58ed 0040 e6d8 0dbf 2e7e d5bf

bn_in.weight f4 [38]
0.9717343 0.95727795 0.99878454 0.94423544 0.9077827 0.98437715 0.93456745 0.9018076
0.9689677 0.9523026 0.95173776 0.9477244 0.9238027 0.9318976 0.9479023 0.95870847
0.92287666 0.9023754 0.90352905 0.9597157 0.9454882 0.8751782 0.92762214 0.9141902
0.9456029 0.9413209 0.96305996 0.9387551 1.0471582 0.9478174 0.9320013 0.89382344
0.97532153 0.99363875 0.9937404 0.94016945 1.1805078 0.91095155
00000000: 94c3 783f 2b10 753f 58b0 7f3f 6ab9 713f
00000010: 7264 683f 2400 7c3f d03f 6f3f dddc 663f
00000020: 440e 783f 1aca 733f 16a5 733f 119e 723f
00000030: 557e 6c3f d790 6e3f baa9 723f eb6d 753f
00000040: a541 6c3f 1302 673f ae4d 673f eeaf 753f
00000050: 840b 723f ae0b 603f a578 6d3f 5e08 6a3f
00000060: 0813 723f 68fa 703f 198b 763f 4152 703f
00000070: 4809 863f 29a4 723f a397 6e3f 9dd1 643f
00000080: acae 793f 1c5f 7e3f c565 7e3f f2ae 703f
00000090: e11a 973f 1f34 693f

bn_in.bias f4 [38]
0.0023289206 0.0024464428 -0.0011614504 -0.0014815792 -0.0009149771 0.0009437093 0.0023379955 0.00061551906
0.00075482385 0.000879507 7.0626666e-05 -0.0012366627 -0.0024957035 0.00022376006 -0.00033661418 -0.0013787333
-0.0028556376 0.00038556303 -0.0011502461 -0.0014076144 -0.0013338976 0.00076528685 0.00022011838 0.0011109714
-0.0012192632 -0.00039748102 0.0021766312 0.0019287732 0.002098105 0.00087049004 -0.0003950111 -0.00043376288
0.0013208862 -0.0020948427 -0.0012912832 -0.0023072648 0.000139202 -0.0023869772
00000000: cea0 183b 8054 203b cf3b 98ba 8c31 c2ba
00000010: 13db 6fba 4263 773a 0e39 193b c95a 213a
00000020: 5fdf 453a b78e 663a 671d 9438 8417 a2ba
00000030: f58e 23bb 22a1 6a39 977b b0b9 9db6 b4ba
00000040: a625 3bbb 6525 ca39 dbc3 96ba b47f b8ba
00000050: 2dd6 aeba 889d 483a 94cf 6639 049e 913a
00000060: afcf 9fba 0065 d0b9 d0a5 0e3b e4ce fc3a
00000070: 5c80 093b 9931 643a 7e19 cfb9 ab6a e3b9
00000080: 9621 ad3a a149 09bb 4640 a9ba 7b35 17bb
00000090: c1f6 1139 d56e 1cbb

bn_in.running_mean f4 [38]
0.7300091 0.17162764 0.33682424 -0.024868386 1.5631093 0.20897697 0.6912378 -1.3402631
0.40087903 1.0929598 0.45923164 0.95923805 0.59385824 -0.25888035 -0.91579205 0.23811722
-0.43997884 0.4828883 -0.6701962 0.010974373 0.6708631 -0.18996534 -0.052685786 0.6274533
0.41816163 -0.2761194 -0.047174405 -0.5843625 -0.0010788487 0.013257457 0.01550765 -0.0066091563
-0.008151752 -0.002506075 0.0118713565 0.015104375 -0.005251252 0.0070980527
00000000: e0e1 3a3f 28bf 2f3e 3a74 ac3e c9b8 cbbc
00000010: f713 c83f 0ffe 553e f6f4 303f be8d abbf
00000020: 0440 cd3e 1be6 8b3f 6920 eb3e a090 753f
00000030: 1807 183f f78b 84be 5971 6abf 00d5 733e
00000040: e844 e1be 233d f73e fa91 2bbf dbcd 333c
00000050: afbd 2b3f 4686 42be 0dcd 57bd c8a0 203f
00000060: 4819 d63e 865f 8dbe f339 41bd c898 15bf
00000070: 2868 8dba ce35 593c cc13 7e3c 9f91 d8bb
00000080: ed8e 05bc f63c 24bb 1480 423c 5778 773c
00000090: b212 acbb c896 e83b

bn_in.running_var f4 [38]
0.46302724 0.89497745 2.8357966 0.14745805 0.049539402 0.04575738 0.43430245 0.017207935
0.43363485 1.6783442 0.14896974 0.0038463436 0.37041166 0.3237998 0.59732145 0.2847173
1.0789928 0.3514139 0.20960367 0.43309632 1.9193949 0.65251243 0.26797736 1.875958
0.7916068 0.53790605 1.2992128 0.6491391 1.0072762 1.0944182 1.05271 0.88912845
0.90495855 0.95854264 1.0273975 1.0208752 0.9122063 1.0164983
00000000: e811 ed3e 3e1d 653f b17d 3540 3eff 163e
00000010: d4e9 4a3d 176c 3b3d e45c de3e a8f7 8c3c
00000020: 6305 de3e fcd3 d63f 868b 183e f012 7c3b
00000030: 99a6 bd3e 16c9 a53e 0fea 183f 77c6 913e
00000040: 701c 8a3f 86ec b33e 58a2 563e cdbe dd3e
00000050: bbae f53f 0e0b 273f 5434 893e 641f f03f
00000060: bea6 4a3f 36b4 093f 9b4c a63f fb2d 263f
00000070: 6dee 803f e515 8c3f 34bf 863f ec9d 633f
00000080: 5dab 673f 0d63 753f c381 833f 0aac 823f
00000090: 5a86 693f 9e1c 823f
