backend/models/tabm_optimized.onnx (onnx, 157150 bytes, 4 tensors)

input_bn.weight f4 [17]
00000000: 2320 7f3f 345c 723f f9e5 623f c6a9 503f
00000010: 9076 723f 9735 773f ef3d 7b3f 3902 8a3f
00000020: 5bab 903f 1d9f 5e3f 7d8e 893f 7d91 803f
00000030: f97c 503f 4739 6c3f 496e 713f eea0 4c3f
00000040: 9b31 683f
0.9965841 0.9467194 0.8863216 0.81509054 0.9471216 0.96566147 0.9814138 1.0781928
1.1302294 0.8696154 1.0746609 1.00444 0.81440693 0.922749 0.94308907 0.7993306
0.9070069

input_bn.bias f4 [17]
00000000: bb0c 07bb 3e5c ab3a 7c80 3bbb dd3c 8f3b
00000010: c506 7fbb b079 6dba e815 073b bdf1 1d3c
00000020: ac67 023c 2a1e 17b9 fe09 1d3b d9c4 8639
00000030: ad49 89ba 9496 28bb 33fe 1b3b 447a c5b9
00000040: ceb7 163a
-0.0020606953 0.0013073755 -0.0028610518 0.004371269 -0.0038913947 -0.00090589654 0.0020612422 0.009640154
0.007959288 -0.00014411719 0.0023962255 0.00025705135 -0.0010474228 -0.0025724517 0.0023802638 -0.00037665863
0.0005749435

input_bn.running_mean f4 [17]
00000000: de93 fb3b 89bd f33b 579b b8bb 8e6b c53b
00000010: 9d41 b8bb f5b4 05bc 677e 8b3b 9666 333b
00000020: 4239 953b 2c70 303c 2dc9 a540 1111 c6bb
00000030: a389 4dbc 8dcd 9abc 7861 ca3b 89e4 db3f
00000040: dd41 693e
0.0076775393 0.007438366 -0.0056337523 0.0060247844 -0.005623056 -0.008160819 0.0042570117 0.0027374378
0.004553945 0.010768931 5.1808076 -0.006044515 -0.012545022 -0.018896842 0.00617617 1.7179118
0.22779031

input_bn.running_var f4 [17]
00000000: abcf 813f 9ea9 843f 0668 7b3f d6b3 873f
00000010: e084 7f3f ad12 8b3f 88b6 813f da6b 813f
00000020: 1a49 823f 9fad 823f 3c07 b340 c3ac 7f3f
00000030: 06f1 743f e1b4 7d3f e55e 803f fc6e f43e
00000040: d83c 343e
1.01415 1.0364263 0.982056 1.0601757 0.99812126 1.0865074 1.0133829 1.0111039
1.0178559 1.0209235 5.594633 0.9987299 0.9568027 0.99104124 1.002896 0.47740924
0.17601335
