backend/models/tabm_k1.pth (torch, 101647 bytes, 24 tensors)

embedding.embeddings.0.weight f4 [10, 4]
00000000: c814 8abe c1c2 c23e 502f c03b 6a2c 423f
00000010: 5170 c83d 8f56 e2bf 0da9 31c0 d0af ccbf
00000020: a242 e83f f64f a7be c965 b2bf 7205 d9be
00000030: 1ecd 4b3f 8594 13bf 6855 693d a131 833e
00000040: 6810 b33e 79b8 e3bd 4b4f 743f c9a0 8b3e
00000050: 9b29 afbe 0efd 0340 4557 51be 7014 52be
00000060: d074 673f e212 6c3e a0cd 563f aed2 ba3f
00000070: 421d f3be ed30 a9bf 3556 773f 0593 9c3f
00000080: 2a10 aebb d043 d73f 577c 62be 172e 0fbf
00000090: 1234 8c3e 3428 8e3f 4371 543f 9169 4fbf
-0.2696898 0.3803921 0.005865015 0.7584902 0.09787048 -1.7682666 -2.775943 -1.5991154
1.8145335 -0.32678193 -1.3937312 -0.42386967 0.7960986 -0.576485 0.056966215 0.256238
0.34973454 -0.1111917 0.9543349 0.27271107 -0.3421143 2.0623202 -0.20443447 -0.20515609
0.90412617 0.23054078 0.8390751 1.4595544 -0.4748326 -1.3218056 0.96615916 1.2232367
-0.0053119855 1.681757 -0.22117744 -0.559297 0.27383476 1.1106019 0.82985324 -0.81020457

embedding.embeddings.1.weight f4 [3, 4]
00000000: 185f 55be 5345 c83c d7c5 073f 2f5d c5bf
00000010: a673 113f 319e ccbf 9738 ccbe f03e d33f
00000020: 56d0 673f 0b87 a3be dc74 8dbf 4f99 373f
-0.20837057 0.024447119 0.53036255 -1.5419062 0.5681709 -1.5985776 -0.39886925 1.6503582
0.9055227 -0.31938967 -1.1051288 0.71718305

embedding.embeddings.2.weight f4 [2, 4]
00000000: 3c2f 0240 4f71 d8bd aa67 1ebf c580 e4bf
00000010: c7be 70bf 7009 ad3e 5271 ac3d 8ed0 0b3f
2.034133 -0.10568487 -0.6187693 -1.7851797 -0.94041103 0.33796263 0.08420052 0.54615104

embedding.embeddings.3.weight f4 [8, 4]
00000000: f857 3b3f 6dc2 483e 2549 13bf 107e 13bf
00000010: 4972 7abf 0a96 8fbe 392c 3abe 910a 243e
00000020: 4967 273e 7b2e c83d 0d6c d13d 0413 363e
00000030: a797 6e3e 6f54 fdbe bdc1 96be 8411 7dbf
00000040: 50e4 ad3e f7ad d6bd d709 8fbe 40be 7cbf
00000050: c9c3 b9be 77e3 eb3f 539c 0c3f c712 bfbe
00000060: 97d6 0f3e 84e8 82bf b1d4 adbe fb27 1dbf
00000070: 4ef7 583d 59bc 983f 1262 b53e ca7d fdbe
0.73181105 0.19605418 -0.57533485 -0.5761423 -0.97830635 -0.28044158 -0.18180932 0.16019656
0.16347994 0.097744904 0.10225687 0.17780691 0.23300038 -0.4947848 -0.29444686 -0.9885485
0.3396325 -0.104824 -0.27937195 -0.987278 -0.36282185 1.8428792 0.5492603 -0.37319013
0.14046703 -1.0227208 -0.33951333 -0.6138913 0.052970223 1.1932479 0.35426384 -0.49510032

embedding.embeddings.4.weight f4 [13, 4]
00000000: b911 c63e 1587 03c0 de1b bd3f ec5c b0be
00000010: a008 dbbe 944f c0bd c9c9 933e 085a 19bf
00000020: f9af 8ebf e9fe af3f 6d1e 80be 1484 aa3f
00000030: 433f 1abe cba6 9a3f d8ce 92bf 7220 06bf
00000040: 4040 6bbd ccf2 0c3f e79e d23c f3cd cd3e
00000050: f010 113f a13c a4be 1623 c43f 041c 97bf
00000060: a1df 87bf 0cfc 593f 5c59 753f 01be 283f
00000070: 9467 12bf d2cd 273f 87e6 cbbf 31ed f3be
00000080: 5409 2b3f 2c9b 0bbf e70c d73f 1bee dc3f
00000090: c726 d13e f74e 0a3f d55c 71bd d9ec 6cbf
000000a0: 6fec ef3d fe13 663e 61e7 b63e 3151 3cbd
000000b0: 2a6b 2040 2224 c3be 6c7b 783f d534 373e
000000c0: 4a77 2f3f fd04 023f 495c a2be 6867 7fbf
0.38685396 -2.0551198 1.4774129 -0.34445894 -0.42780018 -0.09390178 0.28864887 -0.59903
-1.1147453 1.3749667 -0.25023213 1.3321557 -0.15063195 1.2082151 -1.1469374 -0.5239326
-0.05743432 0.5505798 0.025710536 0.4019619 0.5666647 -0.32077506 1.5323207 -1.1805425
-1.0615121 0.8515022 0.95839477 0.6591492 -0.571893 0.6554843 -1.5929726 -0.476419
0.6681111 -0.5453365 1.6800812 1.7260164 0.40849897 0.5402674 -0.058926422 -0.925489
0.11715018 0.22468564 0.35723403 -0.045975868 2.5065408 -0.38113505 0.97063327 0.17891248
0.68541396 0.5078886 -0.31711033 -0.9976716

embedding.embeddings.5.weight f4 [9, 4]
00000000: d688 ebbf d661 f33f d02b 153e 4501 c83f
00000010: 2078 f8bf f48c b73d 35dc c53e 681c abbf
00000020: 5f51 673e 2269 b13e 72e3 73bf 8e64 463f
00000030: fe79 873e a82d c5bf fa06 f53e 05ed 0840
00000040: b5bd e7bd 3aae 613f aadd 5bbf fa5f f1be
00000050: 6215 0540 883c 6e3e 919b 713f 69d6 81be
00000060: 6861 4b3f d589 853f b201 7cbd 86c4 a73f
00000070: 67ef d7bf e3b2 d53e 36b4 0440 3f96 fabe
00000080: cc3c 55be 0d4f a33f 0e56 1c3f 9e0e 723f
-1.8401134 1.9014232 0.14567494 1.5625387 -1.9411659 0.089624316 0.38644567 -1.3368044
0.22589634 0.34650522 -0.9526893 0.77497184 0.2646026 -1.5404558 0.47856885 2.1394665
-0.113154806 0.88156474 -0.8588511 -0.47143537 2.07943 0.23265278 0.94378 -0.25358894
0.79445505 1.0432688 -0.061525054 1.3106849 -1.6869935 0.41738042 2.0734992 -0.48942754
-0.20823973 1.2758499 0.6106881 0.94553554

embedding.embeddings.6.weight f4 [20, 4]
00000000: 331b 6c3f c244 a9bf 31ed 55be 2e8f febf
00000010: 92cb d6bf c387 9f3f f240 11bf 271f 26bf
00000020: ec60 47be fd3c 71be 1572 82bf 6ce7 a6bf
00000030: 34ff 863f 2f98 bd3f bb1a 9d3f 78cb 26be
00000040: 6315 21bf 8317 783e 7fe6 bb3f 98e0 da3e
00000050: f2c5 6abf a9ce 8ebe d8a7 7e3f 86ba 22bd
00000060: f02c e4bf 371f 99be 11f7 883f f4bc 36c0
00000070: 021a 0b3f 0dab 6bbf ba02 b4bf d46f b03f
00000080: 129e 7a3f 9bb4 ab3e aec4 96bf cc54 5ebe
00000090: 78fe 4cbf ebba e33f bf76 24be 1f71 56bf
000000a0: 29ac 10bf 41fe 173e 8683 a0be cd92 0c40
000000b0: 86cc 48bf 098d 31bf 9308 90bf 01c3 c6bf
000000c0: 3cdf 3dbf 9122 8f3e 06db fbbc c30c 7abf
000000d0: 0328 63bf cc8d 633e f5c4 5f3f 6e70 29bf
000000e0: e926 8a3e 0302 1f3f b753 343f 8434 07bf
000000f0: 801c 12bf 0142 53bf 6179 52be ace3 9bbd
00000100: f07a 06b7 8f00 44bf cf9c a43f 86a6 5a3f
00000110: a37a 85bf 29f0 873f 2e0e 11bf 3043 953f
00000120: 5524 543d a82e a3bf dbd9 a03e 09e5 72bf
00000130: 96c1 a9bf 5337 283d 6b1e 17be 9b58 5fbf
0.92229 -1.3224108 -0.20891263 -1.9887445 -1.6780875 1.2463306 -0.56739724 -0.64891285
-0.19470567 -0.23558421 -1.0191065 -1.3039374 1.0546632 1.4812068 1.2273782 -0.16288555
-0.6292326 0.24227719 1.4679717 0.42749476 -0.9170829 -0.27892044 0.9947486 -0.039728664
-1.7826214 -0.29906628 1.0700399 -2.8552828 0.5433656 -0.9205788 -1.4063332 1.3784127
0.97897446 0.3353623 -1.1778772 -0.21712035 -0.8007579 1.7791418 -0.16060923 -0.8376636
-0.56512696 0.14843084 -0.31350344 2.19646 -0.7843708 -0.6935583 -1.1252617 -1.552826
-0.74168754 0.2795606 -0.030744087 -0.9767572 -0.8873293 0.2222206 0.8740991 -0.6618718
0.2698281 0.62112445 0.7044024 -0.5281451 -0.5707474 -0.8252259 -0.20554115 -0.07611784
-8.015646e-06 -0.7656335 1.2860354 0.85410345 -1.0428051 1.0620166 -0.5666226 1.1661129
0.05179246 -1.2748613 0.3141621 -0.9488073 -1.3262203 0.041068386 -0.14757697 -0.87244576

bn_in.weight f4 [38]
00000000: 8d9f 833f a3f2 7b3f 5378 793f c105 783f
00000010: 5cb6 723f ac98 6a3f 65d9 6b3f 09bb 703f
00000020: d9a6 703f aa26 6f3f e8a3 773f 0cbe 6c3f
00000030: 187b 733f 3302 733f a8e5 7d3f 3a60 663f
00000040: a915 613f 91c2 6c3f 36ff 713f 6dc8 633f
00000050: 721d 663f 5310 6c3f 16e2 693f 1efb 5e3f
00000060: 1f40 7f3f 1ca5 7d3f 4bf6 6e3f 6509 803f
00000070: 13ed 823f 661c 723f 1902 743f ba74 633f
00000080: d130 7e3f e90b 783f c22a 843f 5a72 793f
00000090: 7462 983f 3b15 723f
1.0283066 0.9841711 0.97449225 0.9688378 0.9480951 0.9163921 0.9212859 0.94035393
0.9400459 0.9341837 0.96734476 0.9247749 0.951097 0.9492523 0.9917855 0.8999058
0.87923676 0.92484385 0.94530046 0.889777 0.8988868 0.9221241 0.91360605 0.87101924
0.99707216 0.9908006 0.93344563 1.0002867 1.0228599 0.9457458 0.953157 0.88849986
0.9929324 0.96893173 1.0325549 0.9744011 1.1905046 0.94563645

bn_in.bias f4 [38]
00000000: 7170 bbba 4357 b4ba e28e 70b9 272b 17ba
00000010: a921 2339 f7ca 903a b0b6 153a d1d3 ce38
00000020: c4b1 1cbb 1062 c5ba 33c4 94ba d48a 56ba
00000030: 7a97 22bb 5cb1 f4ba 99e7 e5ba 1f59 fd3a
00000040: ee5e 8dbb ad1c 25ba 75c6 ab3a 09b8 ae37
00000050: a92e 653a 2001 093b 817f ad3a 9b85 c53a
00000060: 9b8c 83ba 4185 bf3a 5124 7cba 8e22 90ba
00000070: 0a09 d638 0c37 a53a 4bf0 103b 9d1a f03a
00000080: 19d9 d23a 5d8d cfba 2ca4 a639 fe88 1b39
00000090: 67d8 37bb ee8f 043b
-0.0014300478 -0.0013758916 -0.00022941412 -0.0005766623 0.00015557431 0.0011046816 0.00057111215 9.862299e-05
-0.0023909668 -0.0015059132 -0.0011349976 -0.0008184139 -0.0024809525 -0.001866858 -0.0017540335 0.0019328928
-0.004314295 -0.00062985235 0.001310541 2.0828114e-05 0.00087426096 0.0020905212 0.0013236852 0.0015069725
-0.001003641 0.0014611856 -0.00096184487 -0.0010996626 0.00010205999 0.0012604906 0.0022115882 0.0018318478
0.0016086429 -0.0015834976 0.00031784305 0.00014832985 -0.002805257 0.002022739

bn_in.running_mean f4 [38]
00000000: be93 223e e672 95bd e433 903d a62d d53e
00000010: 1264 413f 5a87 91be aa35 62bf 9b77 da3e
00000020: 168e a83f 80a4 cf3a b002 e6be 2b89 9cbf
00000030: 8081 a7be 192a c2bd 1c5f 51be b370 1bbd
00000040: 75bb e93e 90a9 15bf 58dc a33f 8ac0 4dbf
00000050: 0a17 3cbf 3dfa 5c3f 8db6 ab3d d5fb 643f
00000060: e852 abbe 11fe cebe 2db8 b6bd 9638 8bbf
00000070: 2b8f 1c3d 10e6 663c 853e d63c 8cd0 a03c
00000080: e071 1f3c 534a 463c 5ffa 00bc b404 50bc
00000090: 58bf 0cbb f0f0 94bb
0.15876672 -0.07297306 0.07041147 0.4163639 0.7554332 -0.28423578 -0.88363135 0.42669377
1.3168361 0.0015841872 -0.44923925 -1.222936 -0.32715988 -0.09480686 -0.20446438 -0.037949275
0.4565083 -0.58461857 1.2801619 -0.80371916 -0.73472655 0.86319333 0.08384428 0.89446765
-0.3346169 -0.40428212 -0.089218475 -1.0876644 0.038222473 0.014092937 0.026152859 0.019630693
0.00973174 0.012102681 -0.007872193 -0.012696434 -0.0021476354 -0.0045453236

bn_in.running_var f4 [38]
00000000: 7288 b33e f048 dc3f f366 c93f 4485 993f
00000010: 19f5 113e 5cc7 e13c 0ff9 9d3e d8e1 183f
00000020: 1c6f cf3f 19f4 123d a455 b93d b5ca 7e3f
00000030: 7472 063f 6a85 8a3d 15a4 563d 9191 003e
00000040: 7a2e 1a3e ca32 1d3f a0da 173f e382 dd3e
00000050: effc cb3f 13b0 883f d8fe ec3e 4b08 803f
00000060: 3c6b 103f 1951 073f f882 4b3f 59d3 243f
00000070: b353 893f c218 8e3f 3ef3 8b3f 7a17 933f
00000080: 0847 7c3f 6458 a43f 7986 7e3f c4c9 7c3f
00000090: f05c 643f 172f 7e3f
0.35065037 1.7209759 1.5734543 1.1993794 0.14253654 0.027560882 0.3085408 0.5971961
1.6205783 0.03587732 0.09049538 0.99528056 0.5251839 0.06763728 0.052402575 0.12555529
0.15056792 0.6140562 0.5931797 0.4326392 1.5936564 1.0678734 0.4628818 1.0002531
0.56413627 0.5285812 0.7949672 0.6438499 1.0728668 1.1101305 1.0933607 1.149154
0.98545885 1.2839475 0.9942394 0.9874537 0.8920431 0.99290603

ensemble_blocks.0.0.weight f4 [128, 38]
00000000: 1ae1 cf3d 9948 f83c 7492 023d 4d11 213e
00000010: f7de 49be e1b4 a3bd 8374 8dbd 932c fb3d
00000020: d480 d93d 18b6 a8bd eb9e 9fbd 8d12 3f3d
00000030: fe8b 823d 0ec2 823c d582 24bd 51fd 753b
00000040: 3a32 593d d806 44bb 742f 7abc dd68 25be
00000050: 51e0 c1bc d415 abbd 89e5 f8bc 6a70 0f3e
00000060: b8e0 e73d 8ee3 90bd 122f 85bc 2f36 0a3e
00000070: 2f97 a23c 87ca 86bb 19b4 af3d bce1 053e
00000080: ebb8 e93d d48f cabd b3b2 02be f043 47be
00000090: ca46 68be 6427 cbbd 7f57 3bbd b513 dd3d
000000a0: c9e5 7bbd 4c62 35bc a0e9 a53d 1516 0a3d
000000b0: e547 d23d 924b d43c 27b3 36bc 318a 91bd
000000c0: c3de f93d 6f2b 343e d41a f63d ebf3 d53d
000000d0: 1f37 373e d1bb 26bd c587 3e3d e376 41be
000000e0: 6e5d 95bd dc01 9fbd a42a 8c3d eb90 b0bd
000000f0: 353c 2bbd 36ac ce3d f28a 413d 2349 083e
00000100: 8ec0 e7bc 05ca ec3d 112a 083e b4a8 c73d
00000110: 4022 3fbd 8219 443d 5c26 8e3d 2ce6 e23d
00000120: cfe1 b83d 5842 963d 5bff 25bc f6ed 34be
00000130: 1562 dabd 005c babd 00f3 453d d191 223d
00000140: 1f34 00be 81ab ff3d 23fb 2d3d 5e23 3a3e
00000150: 741c 1cbe dec4 183d 8c6e e4bd 52e6 7bbd
00000160: bdbc b4bd 2bfe b73d fd98 f9bd 7036 913d
00000170: 607e a33d af2f b7bd 7a39 943d 2564 d2bd
00000180: ebfd 003d a6bf 4dbd 815c e93c 561e 023e
00000190: ab5b 1a3e 966f 1e3c 7671 013d ec8d db3d
000001a0: f12c bf3d 579a 31be aa22 16bd bb65 d93d
000001b0: 6e27 e5bd 1b4b f6bc d1db 963d d333 23bd
000001c0: acea 7f3d 69ca 9ebd 8cec bd3d 10ca 83bd
000001d0: 02ed af3c d7e5 4b3d 9783 b9bd e0fe 1b3e
000001e0: 041b 2d3e e830 083e f8f0 d43d 3946 023d
000001f0: 8040 83bb e6f8 9a3d d502 79bd e618 763d
00000200: 5ba3 06be a337 193e 66a6 16bd 96ab babc
00000210: e657 ca3a ec14 a4bc 3b7b c73d 1106 c63c
00000220: 071f 03bc c4ff 10be e67d 3abd 5a3c 863d
00000230: 19f7 54bd 8ed4 ed3d 6fbd 36be 38b5 213e
00000240: b0c7 3cbe ded3 ec3d b4c4 09be ff6c 48be
00000250: 7798 9abd 5bf5 52be b46c d43c 7820 493c
00000260: 2666 15bd e2d0 193e 6411 f6bd ac68 ddbc
00000270: 319e 7e3c e4f7 b43d 7daa e2bd c372 6d3c
00000280: c8f7 eebd 7621 b1bd 5eac f4bd c289 e1bd
00000290: 8e17 c73d 0a97 9ebd 94ff d0bd eea9 7c3d
000002a0: 84ee 9dbd 3256 073d 71d8 f6bc e917 18be
000002b0: 1101 b8ba 9840 e6bc 87fe 003e 310d 16bd
000002c0: e61f 3c3e 4ac5 3ebd 8a20 e9bc 486c d23c
000002d0: 2ebc 123d 0922 1fbe 5100 06be a1f2 adbd
000002e0: 3bd6 213e eb18 62bd 8f77 983d db23 b43d
000002f0: 5233 4dbe 5bf7 cc3c d18e 5e3d a33d 943c
00000300: 640d 07be 68e6 773d ff93 f5bd 09d6 1ebd
00000310: 3d6a c1bc c305 b43d b59f 0abd 1589 cf3d
00000320: 3bc3 14be ca11 093e 7bd8 f53c 4ad4 1e3c
00000330: b1a1 e63c c4a1 53bd fb1e 8abd e40f c3bd
00000340: f952 b43d 7c7b 0dbe 3161 f7bc 25c4 cf3d
00000350: 645f 4e3d a315 acbc 13b5 f4bd ae96 01be
00000360: 020d 043d 1a9d 903c ac7f 13be ea4f 9bbc
00000370: fefc 233d 36c6 0abd e6f5 62bd bb85 f63d
00000380: 75cd 393d 455e 733c c01c a6be 95bc 87bd
00000390: e256 a8bd 0598 ffbd d8e2 523d eb53 483d
000003a0: 126b b3bc f7ee b83c db1f 113e f156 023e
000003b0: a716 c33c a63b aa3d 6def 5f3d d1b5 05bd
000003c0: 3509 0cbe 8633 933d fc27 02bc 2ec0 00be
000003d0: 280d cb3d 8c47 28be 9ad1 3cbe 6d52 da3d
000003e0: 940b e3bd b966 ac3c a24d c6bc ee1c 303e
000003f0: c34c 8abd 3768 07be f8bd d63d 3868 a6bd
0.101503566 0.030308055 0.03187795 0.15729256 -0.1971396 -0.07993484 -0.069069885 0.12264361
0.10620275 -0.082378566 -0.07793983 0.04664855 0.06374358 0.015961673 -0.040163834 0.0037535022
0.053026415 -0.0029911306 -0.015270103 -0.16153283 -0.023666533 -0.08353773 -0.030382888 0.14007726
0.113221586 -0.070746526 -0.016257796 0.13497232 0.01984748 -0.0041134986 0.08579273 0.13074392
0.114122234 -0.09890714 -0.12763481 -0.1945951 -0.22683254 -0.099196225 -0.04573774 0.107947744
-0.061498437 -0.011070799 0.08101201 0.033712465 0.10267619 0.025914941 -0.011151112 -0.07106436
0.122006916 0.17594694 0.12016836 0.10446914 0.17892121 -0.04070646 0.0465162 -0.18893008
-0.07293211 -0.077640265 0.068440706 -0.08621391 -0.041805465 0.100914404 0.04725165 0.1330915
-0.02829006 0.1156197 0.13297297 0.097489744 -0.046663523 0.04787589 0.0694091 0.11079058
0.090274446 0.07336873 -0.010131682 -0.176689 -0.10663239 -0.09099579 0.048327446 0.039689843
-0.12519883 0.12483884 0.04247583 0.18177554 -0.15245229 0.037297122 -0.11153898 -0.061498947
-0.088250615 0.089840256 -0.12187383 0.07090461 0.079830885 -0.08944642 0.07237525 -0.10273007
0.031492155 -0.0502316 0.028486492 0.12706885 0.15074031 0.009670159 0.031602345 0.10720429
0.09334744 -0.17344032 -0.036654152 0.10615107 -0.11189161 -0.03006511 0.073661454 -0.039844345
0.06247966 -0.077534504 0.09273633 -0.06435025 0.021475319 0.04977974 -0.09058302 0.15233946
0.16904837 0.13299906 0.10397524 0.03180525 -0.0040054917 0.07567005 -0.060793716 0.06008234
-0.13148253 0.1496263 -0.036779784 -0.022786897 0.0015437573 -0.020029508 0.09740301 0.024172815
-0.008003003 -0.14160067 -0.045530222 0.0655448 -0.051993463 0.11612807 -0.178457 0.15791786
-0.1843555 0.11563848 -0.13453943 -0.19572829 -0.075486116 -0.20601408 0.02593074 0.012275808
-0.03647437 0.15021089 -0.12015036 -0.02702745 0.015540645 0.08836344 -0.11067674 0.014492693
-0.11668354 -0.0864896 -0.11946939 -0.11012603 0.097212896 -0.07743652 -0.10204998 0.061685495
-0.07711509 0.033041187 -0.030132504 -0.14852871 -0.0014038404 -0.028106973 0.12597094 -0.036633674
0.18371543 -0.04657487 -0.028457899 0.025686398 0.035823993 -0.15540327 -0.13086058 -0.084935434
0.15804379 -0.055199545 0.07444679 0.087959014 -0.20039108 0.025020292 0.05433542 0.018095797
-0.13188702 0.060522467 -0.11991119 -0.03877834 -0.023610229 0.087901615 -0.033843715 0.10133568
-0.145276 0.13385692 0.030010452 0.009694168 0.028153272 -0.051667944 -0.0674419 -0.09524515
0.08804888 -0.13816637 -0.030197712 0.101448335 0.05038394 -0.021006411 -0.119486 -0.12655136
0.032238968 0.017653037 -0.14404172 -0.018959004 0.040036194 -0.033880435 -0.05541029 0.12037226
0.045361955 0.014854019 -0.3244381 -0.06627766 -0.082196966 -0.12480167 0.051485866 0.048908155
-0.021901641 0.022574885 0.14172308 0.12728478 0.023814512 0.08312158 0.054671694 -0.032644097
-0.13675387 0.07187562 -0.007944103 -0.1257331 0.09914619 -0.16433543 -0.18439332 0.10660253
-0.11086193 0.021045076 -0.02420694 0.17198536 -0.067529224 -0.13223349 0.104854524 -0.08125347

ensemble_blocks.0.0.bias f4 [128]
00000000: 054c 9c3d 031e d3bd cab7 123e 4faa 203e
00000010: 5785 683d b4e3 31bb a707 15be a897 203e
00000020: 2278 073e d099 333d 61e0 c0bd 23f3 a03d
00000030: ca03 073e 685c 91bc 03ae ff3d c0d1 2c3d
00000040: 83d1 0d3e da78 873c ccba 253d 0e53 613d
00000050: d0ad fb3c a45d 943d 2195 1bbe 193b 1cbd
00000060: ed5b 1cbe f7a0 f63d 244b d83c 9528 94bd
00000070: 73a1 02be e24d c83c 9053 1c3d d54d babd
00000080: 814e 02be 4b72 23be 2266 58bd eadc 0cbe
00000090: 707c ecbd 3538 b23d 4e94 e0bd c2fc 22be
000000a0: 689a 9dbc 86d2 19bc d7fd 683d 2f45 8d3d
000000b0: 17b2 813d bb4d a83d 5702 75bd fb6a 81bd
000000c0: 1cb8 b3bd 1b55 1cbc 5148 cd3d 3c01 24be
000000d0: 0b49 133e efe1 d33d e2f9 833c 935c 49bd
000000e0: 1336 9f3c 9e1f f0bd f8b1 a63c 0723 bf3d
000000f0: 02b3 a9bd 55c9 62bd e1c1 b3bc 6928 27bd
00000100: 9830 9dbd a2ff f23d a677 b83d 5d31 b8bd
00000110: 49eb 873d 8e6b 0abc 063d 123c def5 483d
00000120: 53f9 68bb 91bc d1bc 39a4 a13d 2adf 1c3e
00000130: a44e 9fbd 3aa7 e5bd 184a 8b3d 4702 5d3c
00000140: 3c42 bbbd 5897 093e e37e c4bd 6d53 253e
00000150: 15cc 103e 5979 a5bd 2928 9c3d cce1 063e
00000160: 32e9 b1bd 8192 aa3d fe68 f9bc 430d 8d39
00000170: 76aa 333d 6358 183e 62b2 55bd c6d4 ff3d
00000180: 05b1 02be cacd 963d 13ab 8d3d f494 253d
00000190: 18e3 fabd 5444 0bbd d268 edbd 52a7 093e
000001a0: 0e62 0bbe d3eb 9ebc 1981 ac3b 0e3d 23be
000001b0: 8c00 c63d 6613 0e3e 59f9 04bd ddda 14bd
000001c0: 9c17 0bbe 83a4 84bd 91b1 9cbc b6be 993d
000001d0: 3f0a d53d 5816 be3d de40 203e 5b15 13be
000001e0: 68f6 213e d084 f03c 02f3 233c 4ef8 fc3c
000001f0: 353e fcbd f94c d73d f91e 57bc 04de 0fbe
0.07631687 -0.10308459 0.14327922 0.15689968 0.056767788 -0.0027143778 -0.145537 0.15682852
0.13229421 0.04384786 -0.09417797 0.07858875 0.13185039 -0.017744258 0.12484362 0.04219222
0.13849454 0.016537119 0.040461347 0.055010848 0.030722529 0.07244423 -0.15193607 -0.038142297
-0.15269442 0.1204242 0.026403017 -0.07234303 -0.127569 0.0244512 0.03816563 -0.090968765
-0.1272526 -0.15961568 -0.052831776 -0.13756147 -0.11547172 0.08702127 -0.10965787 -0.15916732
-0.019238666 -0.009388572 0.056882706 0.06897961 0.06332796 0.08217951 -0.059816685 -0.06319233
-0.087753505 -0.009541775 0.10023559 -0.16016096 0.14383332 0.10345828 0.016110364 -0.04916055
0.019434964 -0.117247805 0.020348534 0.09332853 -0.08286096 -0.055367786 -0.021943035 -0.040810023
-0.07675284 0.11865164 0.09007196 -0.0899379 0.06636674 -0.008448495 0.008925682 0.049062602
-0.0035549 -0.02560261 0.07892651 0.15319505 -0.077786714 -0.112135366 0.06801242 0.0134893125
-0.091434926 0.1343664 -0.09594514 0.16145106 0.14140351 -0.08079786 0.076248474 0.13172072
-0.086870566 0.08328725 -0.030445572 0.00026903496 0.043863736 0.14877467 -0.052172072 0.12491755
-0.1276284 0.0736347 0.069173954 0.040425256 -0.12250346 -0.03400071 -0.115922585 0.13442734
-0.13611624 -0.01939956 0.005264413 -0.1594126 0.09668073 0.13874587 -0.03246436 -0.036341537
-0.13583225 -0.064766906 -0.019127639 0.07507078 0.10402345 0.092816055 0.15649745 -0.14363615
0.15816653 0.029360205 0.010006668 0.03088012 -0.123165525 0.10512728 -0.013129943 -0.14049536

ensemble_blocks.0.1.weight f4 [128]
00000000: 9821 7a3f b29e 7a3f dfe9 813f bf05 873f
00000010: f3ce 833f c182 833f b868 803f f7e4 873f
00000020: f9d8 833f d120 823f ccad 803f 0e17 733f
00000030: 779f 813f 9fc3 803f 452f 883f 32d5 763f
00000040: c39b 813f 56e0 763f deb3 763f f077 7c3f
00000050: 6c57 7e3f 6f75 813f 5eb1 853f 63f1 7d3f
00000060: 7f1e 793f aba8 773f f5ac 783f 6cb2 763f
00000070: aa5b 7f3f 3243 813f 183d 833f f319 823f
00000080: 2a26 813f 4c97 833f 3827 713f b6bd 803f
00000090: ba77 7a3f b248 7d3f 8beb 7d3f 3780 773f
000000a0: ab99 7c3f efd9 843f 6847 7e3f 7f7a 813f
000000b0: e926 7a3f 5516 823f 1d6e 863f 1bbe 843f
000000c0: 62b8 763f 1cb2 793f 205f 823f 2be3 763f
000000d0: 62f9 833f 9eb3 7b3f c22c 813f 5f3f 7f3f
000000e0: 644c 803f 1647 7f3f 87a2 813f 9ac3 7e3f
000000f0: ad7b 813f 2357 783f 677b 813f 8dad 7c3f
00000100: fa39 7c3f 9b89 7c3f 2d8a 763f d7bb 7b3f
00000110: 17db 833f 45e8 823f f8a5 813f 2cdb 733f
00000120: 52b9 813f dc92 813f 2f03 7f3f 08b8 823f
00000130: 4bb0 7f3f 3fb5 7c3f f74e 823f 84c2 843f
00000140: aacf 7f3f 08d1 7f3f fdea 7d3f 8a65 7f3f
00000150: cc9b 7d3f 90eb 813f 7085 833f cfee 813f
00000160: ad4d 813f 2447 803f 4c95 773f 8a2f 813f
00000170: ee34 7b3f 2285 823f 4678 843f 5730 813f
00000180: 1c30 823f cc95 843f 5a62 833f ba45 813f
00000190: 0477 843f ffbb 833f 669f 7c3f e0ba 823f
000001a0: 11e9 823f c037 813f d3a2 793f 61ec 7a3f
000001b0: fb89 823f e282 703f bb41 803f 88d6 7d3f
000001c0: c47e 7b3f 2c67 823f 6de4 7d3f 3406 783f
000001d0: a5ce 733f 4769 813f 2df2 773f f0d3 7b3f
000001e0: 6050 803f 765e 7e3f 6e00 813f b7ea 7a3f
000001f0: 0e7c 823f ac09 843f 84b9 6b3f bfc9 7c3f
0.9770751 0.978984 1.0149497 1.0548629 1.0297531 1.0274278 1.0031958 1.061675
1.030059 1.0166265 1.0053039 0.94957054 1.012679 1.0059699 1.0639426 0.9641906
1.012566 0.9643606 0.96368206 0.9862051 0.99352145 1.0113963 1.0444753 0.9919645
0.9731216 0.9674174 0.9713891 0.96366 0.99749243 1.0098631 1.0253019 1.0164169
1.0089772 1.0280547 0.9420047 1.0057895 0.9783894 0.9893905 0.99187535 0.96680015
0.9867198 1.0379008 0.9932771 1.0115508 0.9771562 1.0163065 1.0502354 1.0370516
0.96375096 0.975374 1.018528 0.9644038 1.031048 0.9832095 1.0091784 0.9970607
1.0023313 0.99717844 1.0127724 0.99517214 1.0115868 0.9700796 1.0115784 0.9870232
0.98525965 0.9864747 0.9630459 0.98333496 1.0301236 1.0227133 1.0128775 0.95256305
1.013468 1.0122943 0.9961423 1.0212412 0.99878377 0.9871406 1.0180348 1.0371861
0.99926245 0.9992833 0.9918669 0.9976431 0.9906585 1.0150013 1.0275097 1.0151004
1.010183 1.002171 0.96712184 1.0092633 0.9812764 1.0196879 1.0349205 1.0092877
1.0170932 1.0358214 1.026439 1.0099404 1.0348821 1.0291747 0.9868072 1.021328
1.0227376 1.0095139 0.97514075 0.98016936 1.0198358 0.9394971 1.0020059 0.99155474
0.98240304 1.0187736 0.99176675 0.96884465 0.9523719 1.0110253 0.96853906 0.98370266
1.0024529 0.99362886 1.0078256 0.98014396 1.0194108 1.0315452 0.9207995 0.9874534

ensemble_blocks.0.1.bias f4 [128]
00000000: 6400 cfbc 9450 2fbc 260d b03b 2e33 133d
00000010: e6a3 d4bb 28f4 df3c 7b4e 2dbd f008 793c
00000020: bb57 c1bc 7c7d 563d f501 cbbc 182c 1fbd
00000030: f5d5 e5bb 6dd7 b8ba fc6e 473b 477a d1bc
00000040: 8d63 2ebd adad 24bd a296 47bd d215 5bbd
00000050: 64bf 1ebd 80db 81bc e297 05bb bcf0 82bc
00000060: b2a4 0ebc 37fd 0dbd 0dde 56bd 09bf f0bb
00000070: ac67 fc3c b566 a0bc e7e7 863b d75e 4bbc
00000080: 6d4f fcba 1dba b23c 0129 18bc 2b0e 28bd
00000090: 2bb0 05bd bb54 19bd 6b27 15bc af37 22bd
000000a0: 0444 7abd aeef 9d3c 6edb 65bc 154f 393c
000000b0: 48ef 86bd dd21 13bc 272a 153d 372f 29bb
000000c0: 564d 4ebd aa1c 3bb9 0ad9 f3ba 0cc3 80bc
000000d0: ad18 d73c 9060 593d 1c27 bbbb d8ba 27bd
000000e0: 5333 08bc fe36 4dbc 31ca 75bc fad0 223d
000000f0: 0419 953c 7207 04bd cda5 3ebc ce3c b1bc
00000100: 90e6 93bc 3082 4dbc a5c4 443c 00b2 593c
00000110: b464 64bd 878b 98bc 1459 18bd 73b6 5bbd
00000120: 20a9 e0bc 77b5 aabc fa19 acbc 6753 46bc
00000130: ac88 5ebd 1516 77bd 249c 453c bdf7 61bc
00000140: f0fa 333b 07ad 9e3d 34ba c5bc a526 a93c
00000150: 8351 86bd efe6 cdbc 283d 56bd b60d 263d
00000160: 86b0 a8bc afd0 dbbb 2270 253c 5a4a 553d
00000170: d838 45bd 2e07 1a3d 2060 bdbb f103 17bb
00000180: 5184 2fbd ccc3 1bbc f4bf ee3c 9c0c 04bc
00000190: 3cfe 8b3c 3ce9 263d 6c59 3bbc 9c03 f1bb
000001a0: 152a ecbc dfd3 d43c 73ba e43c a023 16bd
000001b0: 8688 cc3c bcbf f1bb b942 98bb b121 01bd
000001c0: c0a5 f4bc 0cbf e43c 56d7 6ebd c42a 27bd
000001d0: 3775 a53c fcad 1bbd 2198 893b bbe0 55bd
000001e0: a684 d03b 1619 32bb 01bb 7dbb 8169 58bc
000001f0: 34ce 0c3d b9e5 953c 20c0 5ebd dfa2 70bd
-0.025268741 -0.010700364 0.005372661 0.03593748 -0.006489265 0.027338102 -0.042311173 0.015199885
-0.023601403 0.052365765 -0.024781207 -0.03886041 -0.007014031 -0.0014102288 0.0030431142 -0.025571002
-0.042575408 -0.040204693 -0.04872764 -0.053487606 -0.038756743 -0.015851736 -0.0020384719 -0.015983932
-0.008706259 -0.034665313 -0.052457858 -0.007346992 0.030811153 -0.019580225 0.0041170004 -0.012412748
-0.0019249745 0.021817261 -0.00928712 -0.041029137 -0.03263871 -0.03743432 -0.009103636 -0.039603885
-0.06110002 0.019279327 -0.014029367 0.0113103585 -0.06588608 -0.008980242 0.036417153 -0.0025815496
-0.050366722 -0.00017844388 -0.0018604111 -0.015718006 0.026256884 0.053070605 -0.0057114493 -0.040949672
-0.008313018 -0.012525318 -0.0150018195 0.039750077 0.018200405 -0.032233663 -0.01163621 -0.02163544
-0.018054277 -0.012543246 0.012009774 0.013287067 -0.0557601 -0.01862122 -0.037194327 -0.053640794
-0.027424395 -0.020838482 -0.02100848 -0.012104846 -0.05432956 -0.060323793 0.012061153 -0.013791976
0.0027462803 0.07747846 -0.02413664 0.02064831 -0.06558516 -0.025134532 -0.052304417 0.04054042
-0.020591985 -0.0067082266 0.010097535 0.05207286 -0.048149914 0.037604503 -0.0057792813 -0.002304312
-0.042850796 -0.009507131 0.029144265 -0.008059647 0.017089002 0.040749773 -0.011434894 -0.0073551666
-0.02882866 0.025979934 0.027920937 -0.03665507 0.024967443 -0.007377593 -0.004646626 -0.03152627
-0.029864192 0.02792313 -0.05831083 -0.04081227 0.020197494 -0.03800772 0.0041990434 -0.052216273
0.006363469 -0.0027175597 -0.00387162 -0.013208748 0.034376338 0.018298017 -0.054382443 -0.058749076

ensemble_blocks.0.1.running_mean f4 [128]
00000000: 4f14 9c3d 6ff2 d5bd ff20 133e 8335 213e
00000010: a8aa 6d3d fe05 07bb e79c 14be 7e80 203e
00000020: 6b44 083e ca72 303d 0b22 c0bd b865 a03d
00000030: 35ed 063e 41cf 90bc 2030 013e 17c9 2f3d
00000040: 955b 0f3e 7dea 803c 107f 283d 26dc 633d
00000050: bfba f63c 4327 993d 430f 1cbe 7869 1dbd
00000060: b77a 1cbe 64f4 f73d 9c39 ce3c 0b99 92bd
00000070: 78d6 00be fb0e c53c 1812 213d ab60 bebd
00000080: 985f 03be 2df1 22be 6a21 63bd bb2b 0cbe
00000090: bdbb e9bd bc37 b03d a7cd e1bd 82ae 23be
000000a0: 0c25 9dbc 56e5 22bc 2400 693d 2c6b 8c3d
000000b0: a617 823d 13dd ac3d b39d 72bd 51e8 81bd
000000c0: e574 b4bd ec96 14bc 6e0e d03d 3e2a 24be
000000d0: 9ba9 133e da34 d13d b653 863c 0484 49bd
000000e0: 0c46 8c3c 87dd eebd 39f8 a53c b3de c03d
000000f0: 2085 aabd 676a 64bd 50b7 b9bc c60a 27bd
00000100: f813 a0bd 2b25 f33d d834 b53d 38e4 b6bd
00000110: 0102 8a3d 2d3c 0cbc 6882 233c b516 4e3d
00000120: 80ab faba 5529 c8bc 463a a13d ecad 1d3e
00000130: 560c 9ebd d66b e4bd 9758 8b3d 0d37 643c
00000140: aeb5 babd d9e4 083e 1e9b c7bd 1e1d 263e
00000150: 055c 113e 0722 a3bd 031b 9c3d f40b 093e
00000160: 6740 b6bd 9102 aa3d aaff febc ae5a 01bb
00000170: 55fd 2e3d bc05 183e d41b 59bd 8f71 003e
00000180: a3c2 01be c9e2 963d bd9b 8d3d c9a4 2b3d
00000190: 7602 fcbd a479 0cbd 7ad9 ebbd 5808 0b3e
000001a0: 38e0 0bbe b10e a7bc f536 653b d711 22be
000001b0: 7bed c73d fc44 0f3e 7d8b fbbc a381 12bd
000001c0: 1a26 0abe 8717 86bd 462e a9bc fa30 9a3d
000001d0: be3c d53d 87d1 bc3d 07e4 1f3e 421c 12be
000001e0: 1cfd 203e c468 e23c b171 273c 018c ff3c
000001f0: 16f3 fdbd bf40 d83d 16f7 3fbc 7ce2 0ebe
0.07621061 -0.10446631 0.14368056 0.1574307 0.05802408 -0.0020602937 -0.14512978 0.15674016
0.1330735 0.04307822 -0.09381493 0.07831901 0.13176425 -0.017676951 0.12616014 0.042916384
0.1399978 0.015736813 0.0411368 0.05562987 0.030118344 0.07478192 -0.15240197 -0.03843066
-0.15281187 0.12107161 0.025173955 -0.07158097 -0.12581813 0.024054995 0.039323896 -0.09295782
-0.12829435 -0.15912314 -0.055451788 -0.13688557 -0.11412761 0.086043805 -0.11025553 -0.15984538
-0.019182704 -0.009942373 0.0568849 0.06856379 0.06352167 0.08440604 -0.059232425 -0.06343139
-0.08811358 -0.009069186 0.10159002 -0.16031739 0.14420168 0.10215159 0.016397338 -0.049198166
0.017123245 -0.11663347 0.020259963 0.094174765 -0.08326173 -0.055765536 -0.022670418 -0.04078176
-0.07816309 0.118723236 0.0884797 -0.08930248 0.067386635 -0.008559269 0.009979822 0.050314624
-0.0019124597 -0.024433771 0.07872443 0.15398377 -0.07717197 -0.111533806 0.068040065 0.013929141
-0.09116684 0.13368548 -0.09746383 0.16222045 0.14195259 -0.079654746 0.076223396 0.13383466
-0.088990025 0.08301271 -0.03112777 -0.0019737887 0.042722065 0.14845937 -0.053005055 0.12543319
-0.12671904 0.073674746 0.0691447 0.0419052 -0.12305157 -0.034295693 -0.1151609 0.13577402
-0.13659751 -0.020392748 0.0034975384 -0.15827118 0.09762093 0.13991159 -0.030706162 -0.035768162
-0.13491097 -0.06547456 -0.020651948 0.07528873 0.10411976 0.09219652 0.1561433 -0.14268592
0.15721554 0.027637847 0.010219977 0.031194689 -0.123998806 0.10559224 -0.011716625 -0.13953584

ensemble_blocks.0.1.running_var f4 [128]
00000000: 62eb a83e 7034 ab3e 738d 243e 07a3 ba3e
00000010: ecff bb3e 7edd 8c3e 1ff5 a13e 64f5 923e
00000020: 10d9 7c3e bb52 b83e a26d 8b3e e744 3e3e
00000030: 397d 923e 6129 e03e a2f2 503e 512a 9d3e
00000040: efdf 843e 8395 863e 1624 c83e 1b08 ea3e
00000050: 3489 913e 8d7a 9d3e c2a3 383e 54fc 6d3e
00000060: 62e5 d13e 1442 923e 1f81 883e 7d76 a73e
00000070: a456 8d3e c9e8 613e cf7d 853e bfe4 943e
00000080: 9902 a63e c8ff 5a3e deef c63e 76d1 253e
00000090: 34d9 943e 28d0 a13e 8b1b c33e 905c 833e
000000a0: a2c3 353e 272b 3f3e f6bc 9c3e 34fc 8d3e
000000b0: f37c 543e c9a4 7a3e 6450 6f3e 4011 493e
000000c0: be8e d83e bf15 883e bca1 a83e 0473 c93e
000000d0: 4be9 913e cb44 b43e 8126 a33e 32d6 a23e
000000e0: 2a33 a93e 86c0 893e ffd3 683e cd0b 383e
000000f0: b8f7 a83e 637d 543e e461 da3e 2dd1 c13e
00000100: ffc0 a93e af85 213e 94d5 ab3e 4f3d e53e
00000110: 7902 923e 7cbd e83e d08d b13e a6b3 a73e
00000120: aeda a73e 81b8 b53e b71a 843e 4390 493e
00000130: b12c d33e d38c 9b3e aa1b 9b3e 65ae c33e
00000140: 9170 b23e 28bc 3d3e 6805 b23e 779c 9e3e
00000150: 29e8 083e 1982 e33e d79d aa3e 01f2 8f3e
00000160: e9de 863e 5d94 cf3e 79e2 e63e b2ab 913e
00000170: 1def 6d3e 04fc a13e b928 a43e 291c a63e
00000180: f555 9b3e 0a4a 9e3e 9f0b d93e 4bc7 b03e
00000190: 88fb bd3e 5b86 633e 82d5 a93e d386 843e
000001a0: d32b 513e c406 523e 1997 743e 2904 843e
000001b0: 061a 853e fd41 aa3e 86c9 a43e d728 b73e
000001c0: 3b57 863e 5f41 7c3e cfa9 ea3e 560c 913e
000001d0: 9c82 893e 40a6 a93e 9ac9 fa3e 2384 9b3e
000001e0: 5cb9 7b3e 9018 b73e da7e 893e aeba 793e
000001f0: bec1 6b3e f000 533e 61a0 b73e 6aa3 823e
0.32992083 0.33438444 0.16069584 0.36452505 0.3671869 0.27512735 0.31632325 0.28702843
0.24692178 0.36000618 0.2723208 0.18580972 0.28611162 0.4378157 0.20405057 0.30696347
0.25952098 0.26285943 0.3909003 0.4570931 0.2842499 0.3075756 0.18031219 0.23240787
0.40995318 0.2856604 0.26661012 0.32707587 0.27605164 0.22061457 0.26072547 0.2908077
0.32423857 0.21386635 0.3885488 0.16193184 0.29071963 0.31604123 0.3810695 0.25656557
0.17750409 0.18668805 0.30612916 0.27731478 0.2075079 0.24476923 0.2337051 0.19635487
0.42296404 0.2657909 0.32935894 0.39345562 0.284983 0.35208735 0.31865314 0.31804043
0.33046848 0.26904696 0.2273712 0.17973252 0.33001494 0.20750956 0.4265281 0.378549
0.33155057 0.15773652 0.33561385 0.44773337 0.2851751 0.45457065 0.34678507 0.32754248
0.32784027 0.35492328 0.25801632 0.19683938 0.41245034 0.30380878 0.30294544 0.3821899
0.34851506 0.18528807 0.3476975 0.30978748 0.13369812 0.44435194 0.33323547 0.28114322
0.26341942 0.4054288 0.4509466 0.28451306 0.23235746 0.31637585 0.3206232 0.3244336
0.30339018 0.30915862 0.4239168 0.34527048 0.37105966 0.22219221 0.33170706 0.25884113
0.20426874 0.20510393 0.23885764 0.25784424 0.25996417 0.3325347 0.32185 0.35773346
0.26238427 0.24634312 0.4583268 0.28329724 0.2685746 0.3313465 0.48981935 0.3037425
0.24582428 0.35760927 0.26854593 0.24387619 0.23023126 0.20605826 0.35864547 0.255153

ensemble_blocks.0.4.weight f4 [128, 128]
00000000: 66c0 9abb de28 8d3d 9a63 dc3d 92e0 b33d
00000010: 900d e03c ace1 823d 1f3c 5dbc cb0e 293d
00000020: 7b31 013d 92b1 5bbb be78 11bd 39db 9c3d
00000030: a47a 07bd 9fe9 a73c f29a 7a3d ef16 20bd
00000040: 546f 88bd 30c1 663d 1bf8 55bb d37e 12bd
00000050: 9f3c debd dc12 bc3d 1355 a93d ad26 233d
00000060: 6b88 7b3d 40a0 cd3c 3f53 0f3d a3e4 873c
00000070: 044c 3a3d 693c eabc 587d 103d 38e3 5c3d
00000080: d3e2 2fbd f9ac fbbc 2b84 903d b047 523c
00000090: cde8 efbd ee0a 943c 6908 443c 3c82 a63d
000000a0: 9677 2d3c 13b9 583c 781f 933d 5914 b7bc
000000b0: dd89 d83d a18f 823c 1de7 663c 8695 93ba
000000c0: 546c a1bd ec77 fa3b 2ee4 de3c 54fd 07bd
000000d0: 66a9 83bd 2e79 b43d 2dd4 8b3d 727f a2bd
000000e0: 22a2 123d d35e a0bd 1e2c 803d cd90 abbd
000000f0: 3b13 2ebb cc90 533d b232 953c c4c1 7fbc
00000100: 83fb 12bb 3135 86bc 9955 543b f4e1 293d
00000110: 6674 e73c 5ce4 72bc fa90 67bc bf94 c0bc
00000120: 2710 98bc 0340 dfbd 978b abbd fd09 23bd
00000130: 16ca c3ba f479 8abd 06ed e53d 0c1e 8c3d
00000140: 1d65 16bc 0941 853d 1ce7 b53d d0f7 10bd
00000150: dd23 80bb 2384 65bd 3a4c 6cbd 0bf9 6dbd
00000160: c05d 383c 82c9 543c 61da 0abd c89c c2bc
00000170: 0d53 4cbd 00ef 833d b7e4 cd3d ad7f 2dbd
00000180: 994d 54bd 562e a9bc 1629 813d 9e36 25bc
00000190: cf36 ba3c 1359 dcbc 9025 13bd 0ad9 8f3d
000001a0: ce74 7f3d 6914 27bd 76a4 ea3c 9906 a1bd
000001b0: a083 26bc c084 983d 2e4c 573c 8b89 7dbd
000001c0: 4a3f 67bd d8a0 843d 78ab 823d 8e7d 433d
000001d0: 0209 35bd be4e 6f3d 9c6b 6fbd ec35 27bc
000001e0: dabe 723d 37c3 19bd 49e3 76bd 2799 643d
000001f0: b22b 70bc e14d 943c 3421 a9bd 109e 1a3c
00000200: 1f9c 813d 146e 183d 2f0f d33c a40a f7bc
00000210: ead3 633d 14d5 79bd 93e8 0abb eb66 82bd
00000220: 0f25 9bbd 552a 513d 9808 d13c 59ad 3cbd
00000230: 26a0 97bc 57d4 603c c106 04bc 47ec aa3c
00000240: 0912 463d 8eb3 fabb 9e9f c3bc c86a a2bc
00000250: 092b 7f3d d324 eb3c 982f 2ebc eebb d23d
00000260: 27c3 473c 7bd1 1a3d 373a 043c 2145 ed3d
00000270: 9200 9a3d c32b 10bd e55d e0bc 588b 573c
00000280: dd05 71bc 102b 843d 046d 3fbd 04e7 a2bc
00000290: 4db6 423d 1bbb 04bd 1f9e 86bc 0f2a ac3d
000002a0: ec11 2d3d 4bdc 11bd 2f40 d9bc dc63 1dbb
000002b0: 56ea ca3d af8e 62bd a5ab 4cbb 5a4f 093d
000002c0: 6b00 abbd 355a 3dbd 2311 a1bb e07c 723d
000002d0: 3449 3f3c 65b6 42bd 3153 893d 1b45 d93d
000002e0: 0d86 253d 393d c03d 3cd6 733c 5e03 da3c
000002f0: 0331 50bc 0fc9 9b3c ce95 4bbd 22ab 953d
00000300: 2e61 91bd f1e9 9b3c 9e61 5cbc 150c 98bd
00000310: b379 eb3c 8969 9f3c 6bd2 98bd 13ac 2dbc
00000320: b1f0 a03d c87a abbd fe87 8e3d 0ef5 213d
00000330: 7aca 88bd dc65 933d 86c6 c53c bc0b 85bd
00000340: 6deb c53b 2122 2e3c 62e3 d83c 2b7a 7ebd
00000350: e793 3fbd 52e7 443d 57b9 cabc 7818 eabd
00000360: 10d7 873d 6aae a93d 9eb4 13bd f93b 3abd
00000370: 62a4 b2bd 3938 833d c065 42bc d460 d83d
00000380: cdb3 28bd e8eb 9e3c 0827 1e3c b4c2 a9bb
00000390: 802f 99bd ec5b be3d 22e6 c83c ca3f 193d
000003a0: 3cf4 29bd f770 d13d 1e58 7ebc 2e5d 55bc
000003b0: bb2c bcbd 93b6 bd3d 478b af3d ffb1 6dbd
000003c0: 868d 293b 632f 2a3d 3d87 a0bc b0b0 b23c
000003d0: dad4 a23c 92b6 773c a23f c03d ce06 b1bd
000003e0: a276 ac3d 8d0c 80bc 2f7f a0bd aa91 a73d
000003f0: c126 bf3c 0797 e5bb 977a ae3b 5903 32bd
-0.0047226427 0.068925604 0.10761185 0.08783068 0.027350217 0.063907 -0.0135031035 0.041273873
0.03154133 -0.0033522588 -0.03551554 0.07659001 -0.033075944 0.020497141 0.061182924 -0.03908437
-0.06661859 0.05633658 -0.0032649103 -0.03576548 -0.10851406 0.09183285 0.0826818 0.039831806
0.061409395 0.025100827 0.0349915 0.016588515 0.04548265 -0.028593259 0.035275787 0.05392763
-0.042940926 -0.030722128 0.07056459 0.012834474 -0.11714325 0.018071618 0.011964896 0.08130309
0.010587594 0.013227719 0.071837366 -0.02234857 0.1057317 0.015937628 0.014093188 -0.0011259771
-0.0788199 0.0076436903 0.027208414 -0.033200577 -0.064287946 0.08812176 0.06827579 -0.079344645
0.035799153 -0.07830586 0.06258415 -0.08377228 -0.0026561755 0.05165176 0.01821265 -0.015610162
-0.0022427745 -0.016382786 0.0032399653 0.04147525 0.028253745 -0.014824953 -0.014133686 -0.023508428
-0.01856239 -0.10900881 -0.08376234 -0.039804447 -0.0014937546 -0.06761542 0.11226849 0.068416685
-0.009179381 0.06506545 0.08881971 -0.035392582 -0.0039105252 -0.05603422 -0.057689883 -0.058098834
0.0112528205 0.012987496 -0.03389967 -0.0237564 -0.04988389 0.0644207 0.100533895 -0.04235809
-0.051831815 -0.020651978 0.06306665 -0.0100838225 0.022731213 -0.026897943 -0.035924494 0.07023819
0.062367253 -0.04079095 0.028642874 -0.078625865 -0.010163218 0.07447195 0.013140721 -0.06189875
-0.05645684 0.06475991 0.06380361 0.04772716 -0.044198044 0.058424704 -0.058452234 -0.010205727
0.05926404 -0.037539687 -0.06027535 0.05581012 -0.014658855 0.018103542 -0.08258286 0.009437099
0.06328606 0.037214354 0.025764076 -0.030156441 0.05562202 -0.060994223 -0.0021195754 -0.06367286
-0.07575428 0.05106576 0.025516793 -0.046063755 -0.018508982 0.013722501 -0.008058251 0.020864619
0.048357043 -0.007650799 -0.023879822 -0.019826308 0.0622969 0.028704083 -0.010631464 0.10289751
0.012192524 0.037797432 0.00807052 0.11585451 0.0751964 -0.035197984 -0.027388522 0.013155781
-0.014710871 0.06453526 -0.046734825 -0.019885547 0.047537137 -0.032405 -0.01643282 0.084064595
0.04225342 -0.03561048 -0.026519863 -0.002401582 0.09907977 -0.055311855 -0.0031230238 0.03352294
-0.08349689 -0.046228606 -0.004915373 0.05920112 0.011675168 -0.047537226 0.067053206 0.10608884
0.040411044 0.09386677 0.01488262 0.026612934 -0.012706998 0.01901677 -0.04970341 0.073080316
-0.07098614 0.01903245 -0.013451008 -0.074241795 0.028744554 0.019459503 -0.07462009 -0.010600108
0.07858408 -0.08373028 0.06959532 0.039540343 -0.06679244 0.071971625 0.024142515 -0.06496379
0.006040028 0.010628254 0.026475612 -0.062128227 -0.04677191 0.048072167 -0.02474658 -0.11430448
0.06632817 0.0828522 -0.03606092 -0.04546735 -0.0872276 0.06407208 -0.011865079 0.105653435
-0.041187096 0.019399598 0.00965286 -0.005180681 -0.07479763 0.092948765 0.024523798 0.03741435
-0.041492686 0.102266245 -0.015523938 -0.013022704 -0.09188219 0.09263339 0.08571487 -0.05803108
0.0025871708 0.041549098 -0.019595737 0.021812767 0.019876886 0.015119212 0.09387137 -0.08643876
0.08421065 -0.015630985 -0.07836758 0.0818208 0.023333909 -0.0070065293 0.0053246724 -0.043460224

ensemble_blocks.0.4.bias f4 [128]
00000000: 50c1 c4bc 353e afbc d098 babc 6286 363d
00000010: f5db bdbc b25b 393d 99ca 44bc 74e7 ad3c
00000020: 578d ab3d 8950 5b3d 2910 813d 5f90 e9bc
00000030: f194 ebba 8c2c 413d 9498 7cbd 31a0 ad3d
00000040: 5302 173d 68ab 463d 9097 423c 044a 943d
00000050: 1ef0 2abc 51f6 7bbd 4a1b 10bd 80c4 86bc
00000060: 9dbb 77bd 89c0 453d 6a8c 4a3d 4918 15bd
00000070: 504d 773d 8bc5 273d f4c2 173c 6758 48bd
00000080: 6ea6 593d 3c0b b2bd 8303 a33d 2caf f3bc
00000090: dbd4 b6bb 9209 513d 3400 afbd 09ae 153d
000000a0: 4daf f9bc 8a95 913d 1003 a03d b36b e93b
000000b0: 8055 4bbd 7902 53bd 268b 26bd 3969 c73c
000000c0: a605 2ebd a4e7 4ebc 92f2 d6bc 705a 713d
000000d0: 22a0 73bd eb2e 373d 8f23 22bc 8751 a9bc
000000e0: 3a98 1dbd 56bf 31bd 1a59 863d d601 1b3d
000000f0: 884c 623d b97f 973d 1b76 2c3d 8463 363d
00000100: 60f9 5fbd a0ae a03c c585 863d 8dce 943d
00000110: 8b6b 0ebd d1a7 9f3d a16b 84bd e69c b3bd
00000120: e20d 2dbd 7b42 69bd 3745 743d 7136 d53c
00000130: f300 91bd e53e a13d cde4 47bd 29bf 65bd
00000140: 8bba 79bd afc8 3b3d 81e6 2dbd 3dc4 56bd
00000150: f70b 883b 2297 ecbc d9fa c33c f48d 7f3d
00000160: b1ba 193d e1d2 a23b 0286 66bb 8760 5ebc
00000170: 4f21 15bd fdf4 813d bccb 1ebd 91ad c33c
00000180: 205d 90bd 8f74 70bd 3cad 543c 5405 a63d
00000190: 72f3 aebc 6d75 6ebc 17ab 97bd 299a 223d
000001a0: 0908 863d 6a4a 733b b78b 9abd 66f1 aebd
000001b0: 8bf8 613d 746e 473d 16bf 91bd eda5 993d
000001c0: 9695 003d 43ea 5fbc a493 c03c 172f 423c
000001d0: 06e0 edbc e3f2 42bd 2e6b da3c 17a7 01bd
000001e0: 4448 8ebd 161d cc3c 64a8 a7bd d994 b13c
000001f0: c22b 893d 904b 763c 5aff e3bb b672 82bd
-0.02401796 -0.021391967 -0.022777945 0.04456175 -0.023176173 0.045253463 -0.012011194 0.02122853
0.08376568 0.0535436 0.063019104 -0.028511224 -0.0017973465 0.047161624 -0.061668947 0.0847782
0.03686745 0.04850331 0.011876956 0.0724068 -0.010433225 -0.061514203 -0.035182275 -0.01645112
-0.060481656 0.04827932 0.049450316 -0.036400113 0.060376465 0.040959876 0.009262789 -0.048912432
0.053137235 -0.08693549 0.07959654 -0.029746614 -0.0055795736 0.051034518 -0.085449606 0.036542926
-0.030479098 0.071086004 0.07813084 0.0071234345 -0.049642086 -0.05151603 -0.040660046 0.024342166
-0.042485856 -0.01262847 -0.026238713 0.05892414 -0.059478886 0.04472248 -0.009896173 -0.020668758
-0.038475253 -0.043395363 0.065599635 0.037843548 0.055248767 0.07397408 0.04210482 0.0445285
-0.054681182 0.019614518 0.06568483 0.07265959 -0.03477053 0.0779568 -0.06465841 -0.087701604
-0.042249568 -0.056948166 0.05963632 0.026026936 -0.07080259 0.07873324 -0.048802186 -0.056090508
-0.060968917 0.045845684 -0.042456154 -0.05243324 0.004151817 -0.02888066 0.023923324 0.062391236
0.03753156 0.0049689864 -0.003517509 -0.013572819 -0.03640872 0.06345556 -0.038768515 0.023886474
-0.07049012 -0.05870491 0.012980755 0.08106485 -0.021356318 -0.014554364 -0.0740568 0.0396978
0.06544501 0.0037123212 -0.0754618 -0.08542137 0.05516867 0.04868932 -0.07116525 0.07502351
0.031392656 -0.013666692 0.0235079 0.011852047 -0.029037487 -0.047594916 0.026662435 -0.03165349
-0.06947377 0.024916213 -0.08186415 0.021677421 0.06697799 0.015032664 -0.0069579305 -0.063695356

ensemble_blocks.0.5.weight f4 [128]
00000000: 100f 7f3f 0c3a 7a3f 0615 8e3f 6062 8b3f
00000010: fbc0 7b3f c34b 8d3f f6e7 7a3f 6e54 773f
00000020: fb3d 8c3f 3a6f 8b3f ad3a 833f a9c6 8f3f
00000030: 04a0 8d3f 3931 793f 8db1 8d3f b3b2 783f
00000040: d642 8f3f 8ebc 8e3f 6c6e 893f c14e 913f
00000050: 104d 7d3f bb77 883f 334b 8f3f 3491 913f
00000060: f15f 8b3f 1c39 8b3f 0f69 8c3f 3b57 893f
00000070: b4d3 913f 9bf2 803f 6fc3 8c3f 9078 8c3f
00000080: 1be1 923f 5123 8e3f 1c34 8e3f 0790 903f
00000090: b02d 953f 1dd8 913f 3614 803f 7777 943f
000000a0: c7c9 773f 8479 833f 33f0 8e3f 0259 793f
000000b0: 533c 783f ebb9 8a3f 03cf 8f3f a63a 803f
000000c0: 4053 893f ee49 793f 4bc0 7a3f 7645 833f
000000d0: 5ed8 803f 0894 8b3f 47e5 8c3f 5f5b 8d3f
000000e0: 0259 7b3f 973e 7a3f 4d48 8e3f 66c4 823f
000000f0: 0d20 813f 78c5 8b3f 578f 8d3f 9c02 803f
00000100: dcb0 8e3f d533 8d3f 75a3 7b3f 5698 783f
00000110: fba9 8c3f 269c 8f3f 0aa9 8b3f f6d9 7b3f
00000120: 025d 8c3f ac8f 783f ce68 783f 4cd6 933f
00000130: b258 8a3f 6741 923f 04de 923f cdc5 8e3f
00000140: 0093 8d3f 9bc3 8d3f bbcc 7a3f 896c 8e3f
00000150: beae 8c3f 9b0e 923f ed3d 8c3f ade8 7f3f
00000160: 35cc 843f d59c 7b3f abf5 8e3f 05b1 8b3f
00000170: 182b 8d3f 3e9c 8b3f 25f9 913f d596 8c3f
00000180: 03dc 873f 5799 793f 4472 8d3f ff26 8e3f
00000190: 23e3 8f3f 75ac 903f 24fa 783f c9a0 8e3f
000001a0: 86da 803f 5041 7b3f 4fd5 8c3f 20cc 803f
000001b0: 1e5f 903f 7048 7a3f 966b 8c3f 56a6 8e3f
000001c0: 6ae4 8d3f 9927 8f3f 2f5a 803f 8e82 783f
000001d0: db31 8c3f 1201 943f 9b15 7a3f 408e 8c3f
000001e0: d79d 913f f028 8e3f d654 8e3f 905e 843f
000001f0: cd22 8b3f a513 7b3f fafd 7d3f 1319 7b3f
0.9963236 0.9774482 1.1100166 1.0889397 0.9834134 1.1038746 0.98010194 0.96613204
1.0956415 1.0893319 1.0252281 1.1232501 1.1064458 0.9734073 1.1069809 0.97147673
1.1192272 1.1151292 1.0736823 1.1352159 0.98945713 1.0661539 1.1194824 1.1372437
1.0888654 1.0876803 1.0969561 1.0729746 1.1392732 1.0074037 1.0997142 1.0974293
1.1474947 1.1104528 1.1109653 1.1293954 1.1654568 1.1394078 1.0006168 1.1598958
0.9679226 1.0271459 1.1167053 0.9740144 0.9696705 1.0837988 1.123505 1.0017898
1.0728531 0.9737843 0.97949666 1.0255573 1.006603 1.090455 1.100747 1.1043509
0.9818269 0.97751755 1.1115814 1.0216186 1.0087906 1.0919638 1.1059369 1.0000796
1.1147723 1.1031443 0.9829629 0.97107446 1.0989374 1.1219528 1.0910962 0.98379457
1.0965884 0.97094226 0.9703492 1.1549773 1.0808318 1.1426209 1.1474004 1.1154114
1.1060486 1.1075319 0.97968644 1.1126872 1.0990827 1.1410707 1.0956398 0.9996441
1.0374819 0.9828618 1.1168722 1.0913397 1.1028776 1.0907056 1.1404158 1.098353
1.0614017 0.97499603 1.1050496 1.1105651 1.1241192 1.130263 0.97256684 1.1142818
1.0066688 0.98146534 1.1002597 1.0062294 1.1279027 0.9776678 1.0970333 1.1144512
1.1085331 1.1183959 1.0027522 0.9707421 1.0952715 1.1562827 0.9768922 1.0980911
1.1376294 1.1106243 1.111964 1.0341358 1.0869995 0.9807685 0.9921566 0.98085135

ensemble_blocks.0.5.bias f4 [128]
00000000: e526 afbc 8b58 dfbc eee9 9b3d 1252 903d
00000010: 0661 b1bc f2cd ab3d 5e53 ecbc 0ecd 03bd
00000020: b4dd 903d 08ca a03d 7def b83c e050 b13d
00000030: 7d88 aa3d a70f febc f469 9c3d fee5 debc
00000040: 87b6 9d3d 00c8 9b3d 5da5 813c e41b cc3d
00000050: 0399 b6bc b1c1 003d 38a1 933d b4e7 b93d
00000060: 7bd0 893d dc82 973d 11d8 8e3d 032b 9d3d
00000070: 65cc c93d 9812 0fbd d862 903d b710 963d
00000080: b4bd b53d 8ade 9a3d ee35 8b3d 0770 953d
00000090: 573f c43d 3066 ae3d ec03 33bc 0b17 f43d
000000a0: 2883 14bd 4d10 a93a 9dd0 a33d 13a5 e8bc
000000b0: fb4a 1cbd 202f 903d be4d a73d 3ddb f2bc
000000c0: 2956 8b3d 18bd 07bd b2ed fdbc 85d3 48bc
000000d0: 17ee 0abd afdf 933d de41 9a3d f414 9b3d
000000e0: 70e9 06bd 28ab 15bd f768 943d b9d0 c3ba
000000f0: b44c 9abb f463 8b3d 6ed3 a33d 95f2 a83b
00000100: 1b7e 973d 135b 8f3d d8eb fcbc 3373 1ebd
00000110: 3731 9f3d ae08 a53d 7fe2 9f3d 27b4 1abd
00000120: 7ec7 983d f37b 06bd 83ce 07bd 9a3c cc3d
00000130: b4f7 973d e547 e33d 56fa d33d ab6d a13d
00000140: ca7e 983d 3454 ac3d 344f f1bc cb8e aa3d
00000150: 5f5b a23d 0fea dc3d 5765 933d 496b d7bc
00000160: ffa2 98ba 30be d9bc b7dc b03d a1b8 993d
00000170: 2163 9f3d 8e63 963d caf8 ca3d 5b69 883d
00000180: 94db 39bb 64f6 ddbc 2dda 8b3d 3b03 9a3d
00000190: b365 a83d a40f ce3d 4548 09bd f460 b63d
000001a0: 2eb7 d0bc de63 d9bc b1a2 943d 8882 bfbc
000001b0: 394a f33d 0eee edbc ad2a 8f3d 8adf a43d
000001c0: a2ba af3d 180f a73d 328f 0abd 4137 19bd
000001d0: 9046 7d3d c227 c93d f92d 5cbc ac66 8d3d
000001e0: 41ee bf3d 7243 8f3d 707e a63d 7e34 113d
000001f0: 1b50 893d 7ebc fbbc 9f45 f7bc 7b7d cbbc
-0.021380851 -0.0272639 0.07612978 0.07046904 -0.02165271 0.0838889 -0.028848346 -0.032177977
0.070735365 0.078510344 0.022575134 0.08658004 0.08326814 -0.031013323 0.076373965 -0.027209278
0.0770083 0.07606506 0.015825922 0.09966257 -0.022289759 0.03143472 0.072084844 0.09077397
0.067292176 0.07398006 0.06974805 0.076742195 0.09853438 -0.03492984 0.07050103 0.07327407
0.088740736 0.07561977 0.06797396 0.07296758 0.095823936 0.085155845 -0.010926228 0.119184576
-0.036257893 0.0012898535 0.07998774 -0.028399026 -0.038157444 0.070402384 0.08169125 -0.029645557
0.06803543 -0.03313932 -0.030997131 -0.012257461 -0.033918466 0.07220399 0.075320944 0.07572356
-0.032937467 -0.03654018 0.07246583 -0.0014939524 -0.0047088508 0.06806174 0.079993114 0.005155871
0.073970996 0.06999793 -0.030874178 -0.03868408 0.07773059 0.08058296 0.078068726 -0.037769463
0.07459925 -0.03283305 -0.03315593 0.09972496 0.074202925 0.11097697 0.10350482 0.07882246
0.07446058 0.08414498 -0.029456712 0.08328017 0.07927584 0.10786831 0.071970634 -0.026296275
-0.0011645256 -0.026579946 0.08635848 0.07505918 0.07782579 0.07343207 0.09910734 0.0666072
-0.0028359639 -0.027095027 0.06828723 0.075201474 0.082225226 0.10061577 -0.033516187 0.08905211
-0.025477972 -0.026536878 0.072575934 -0.023377672 0.11879391 -0.029044177 0.06990562 0.08050449
0.08580519 0.08157176 -0.033827968 -0.03740621 0.06183487 0.09822036 -0.013438695 0.06904349
0.09371615 0.06995286 0.08129585 0.03545045 0.06704732 -0.030729529 -0.030184565 -0.024840107

ensemble_blocks.0.5.running_mean f4 [128]
00000000: 107c 443e a175 633e 943c ac3e bee6 8ebe
00000010: 8f1a 533e 8e4c 723e 7121 363e 7ebf 7f3e
00000020: 995e 273e 82f1 c03d f3f0 16be 80ae 89be
00000030: 6b7f cb3d 52fd ba3e aece 583e 4a24 503e
00000040: 9442 8d3e dceb 173e 2611 ccbc 0b63 2d3e
00000050: 2ebf 9d3e 63ad 06bd 24e6 1abe a23a 8b3d
00000060: 3b40 35be c2c5 99bc 86cb 483e ec93 ec3d
00000070: 82de b9bd 05c2 7f3c 9d9d e53d 5f85 493e
00000080: 991e 6e3e dc96 4a3e ddca 7c3e e370 a93e
00000090: 11a0 093e 8c16 92bd d8f1 82be e5a2 ebbb
000000a0: 5f0f 01be 6880 d3bd cbc1 033e 9873 5c3e
000000b0: b64b a33e 6833 aebc 83a9 c53d a136 ee3d
000000c0: 1228 dcbe 4cb7 96bc ac70 6e3c 600b d53d
000000d0: f978 853d fbb4 af3e 3170 6dbe 7ab6 043d
000000e0: 2a8b f3bc 8b7a 2fbe f98e 843e 203f 2bbe
000000f0: 4b1b be3d 9cd7 893d 00dd 603e 9702 853e
00000100: f019 4c3d c7e7 083e 22f7 a0bd 7e96 233e
00000110: 21e1 ab3e e030 9d3e 1be4 d5bc bbbb f7bd
00000120: 6c97 b33e 8050 e3bd 8777 4f3b a776 853d
00000130: 25ef 4abe 7dcf 1cbe 37d6 cabd 238e febd
00000140: d673 9ebe 19c8 4abe e74d bc3e 9a09 72be
00000150: 2b41 7dbe da6a d43d e8e9 66bd 99ce 033e
00000160: 6722 47bc ac38 da3d 6c4c 833e 7ca7 2d3e
00000170: d048 1a3e 77fc 273e 33b0 553e 9942 8d3e
00000180: cae9 cfbe 84df 71bd ec8b 963e a5ae 833e
00000190: c114 943d 52c9 833e 7b5d 92bd 3668 a93d
000001a0: 04f2 003e 427b 143e 4963 0f3d ff75 b23d
000001b0: 1c51 9f3d a05a 6b3e d0a9 94be 7b07 e8bd
000001c0: 5062 a23d 46d6 e8be 6b90 29bd 08ff 5e3b
000001d0: 93a1 d5bd 7f20 ea3e e449 823d 6067 43bc
000001e0: edee e43d c5b2 af3c 74a3 93be fedf 61be
000001f0: af6a 8dbc 98ac d43d 8a94 2fbe 0e0a 113e
0.19187951 0.2221284 0.33639967 -0.27910417 0.206156 0.23662016 0.17786194 0.24975392
0.1634468 0.09421064 -0.14740352 -0.26890945 0.099364124 0.36521393 0.21172592 0.20326343
0.27589858 0.14836067 -0.02491052 0.16932313 0.3080992 -0.0328802 -0.15126854 0.06798293
-0.17700283 -0.018771056 0.19608888 0.11551651 -0.09075643 0.015610223 0.11211703 0.19679783
0.2325386 0.19784111 0.24686761 0.33093938 0.13439967 -0.07133207 -0.25575137 -0.0071910494
-0.1260352 -0.10327226 0.12866895 0.2152847 0.318937 -0.021264747 0.096514724 0.116315134
-0.4299932 -0.01839795 0.01455323 0.1040256 0.06517214 0.34317765 -0.23187329 0.032400586
-0.029729445 -0.1713659 0.2589033 -0.16723299 0.092825495 0.06730577 0.21959305 0.25978538
0.049829423 0.13369666 -0.07859637 0.15975377 0.33570197 0.3070135 -0.026109746 -0.120963536
0.35076463 -0.110993385 0.0031656937 0.06516772 -0.19817789 -0.15313525 -0.099041395 -0.12429454
-0.3094775 -0.19802894 0.36778185 -0.23636475 -0.24731891 0.10371943 -0.056375414 0.1287178
-0.012154198 0.106553406 0.25644243 0.16958421 0.15066838 0.16404901 0.20867996 0.27589872
-0.40608054 -0.05905105 0.29403627 0.2571918 0.07230521 0.25739533 -0.07146736 0.0827183
0.12592322 0.14500144 0.035006795 0.08713912 0.07779142 0.2298379 -0.29035807 -0.11329552
0.07928908 -0.45475978 -0.041397493 0.0034026522 -0.104312085 0.45727918 0.0636175 -0.011926502
0.11178384 0.021447549 -0.28835642 -0.22058102 -0.017262785 0.10384482 -0.17146507 0.14163992
