backend/models/tabm_k2_pruned.onnx (onnx, 50210 bytes, 10 tensors)

embedding.embeddings.0.weight f4 [10, 4]
-1.058779 0.74079305 0.28082255 0.86915916 -1.51377 0.15961711 -0.6198935 -1.8062894
-0.3138559 -0.76155466 -1.3172557 0.29242697 -1.2735167 0.051005326 -1.3844898 1.0821881
-0.49485686 -0.38317883 0.6447226 -0.71351224 -1.2428464 -0.2864056 -1.1777331 -1.1256348
0.04531887 -0.07354996 -0.91439176 -0.11987887 -1.9729297 0.70589167 -0.29627907 0.63691443
-1.7072593 -1.5577102 -0.4339174 -0.019435538 -0.7095386 -0.9147204 -0.38283768 1.7433774
00000000: 1286 87bf 9da4 3d3f f9c7 8f3e 3781 5e3f
00000010: 37c3 c1bf ab72 233e 57b1 1ebf 7e34 e7bf
00000020: b8b1 a0be 3ff5 42bf d69b a8bf fdb8 953e
00000030: 9802 a3bf f6ea 503d f636 b1bf 2485 8a3f
00000040: e15d fdbe 0430 c4be 8a0c 253f bda8 36bf
00000050: 9715 9fbf c1a3 92be f5bf 96bf cd14 90bf
00000060: 48a0 393d 5da1 96bd 9415 6abf 0e83 f5bd
00000070: f688 fcbf 51b5 343f e4b1 97be d30c 233f
00000080: 7987 dabf 0c63 c7bf 6c2a debe 4737 9fbc
00000090: 52a4 35bf 1e2b 6abf 4d03 c4be fe26 df3f

embedding.embeddings.1.weight f4 [3, 4]
-0.27261248 0.43606067 -0.45605695 0.14630347 0.6199006 0.14319894 0.21362971 -0.009142983
0.33668187 0.91129607 2.2773917 -1.9446512
00000000: dd93 8bbe 5843 df3e 4c80 e9be 94d0 153e
00000010: ceb1 1e3f bea2 123e bfc1 5a3e 73cc 15bc
00000020: 9161 ac3e b34a 693f c9c0 1140 55ea f8bf

embedding.embeddings.2.weight f4 [2, 4]
-0.6629672 1.6910056 -0.59002435 0.97972655 0.12620091 -0.4237015 -0.15509348 -1.6208459
00000000: 38b8 29bf df72 d83f d60b 17bf 5ccf 7a3f
00000010: d03a 013e 67ef d8be d3d0 1ebe e177 cfbf

embedding.embeddings.3.weight f4 [8, 4]
1.5881922 -0.28895506 1.10289 1.1072282 0.97601783 -0.11852245 -2.1861758 -2.2159164
0.3390367 0.5441602 0.48455575 1.063321 -1.2957464 -0.7366564 -0.35218897 0.607728
-0.10413768 0.21777944 -0.06788821 -1.2819947 -2.840295 1.7037665 0.2397049 -0.35515165
-0.252559 0.09148651 -1.2579025 0.11457373 -0.093329646 -0.58856064 -0.8718655 0.30858812
00000000: e249 cb3f ebf1 93be 802b 8d3f a7b9 8d3f
00000010: 4edc 793f e6bb f2bd 4eea 0bc0 93d1 0dc0
00000020: 3896 ad3e 154e 0b3f b117 f83e e71a 883f
00000030: 05db a5bf 8495 3cbf 1d52 b4be 1094 1b3f
00000040: 2346 d5bd 9301 5f3e f908 8bbd 6718 a4bf
00000050: 65c7 35c0 0515 da3f 3475 753e 70d6 b5be
00000060: 6a4f 81be 485d bb3d f302 a1bf a2a5 ea3d
00000070: 9d23 bfbd e9ab 16bf 9432 5fbf 43ff 9d3e

embedding.embeddings.4.weight f4 [13, 4]
-1.9272383 -0.40331388 0.41013542 -0.5985224 -1.7373805 0.20407555 0.28050098 -0.5340108
-1.7368207 -2.524198 -0.2398393 0.036106106 -2.1125805 -0.39188957 1.2601876 0.77980924
1.3381605 1.1008054 0.9975345 0.6887338 -1.4881879 -0.95289445 1.0624872 -0.48954788
1.1715783 -0.8341217 0.8988998 0.056480646 0.8326571 -1.1604319 0.07089501 -0.6757201
0.114672825 0.4394478 -0.19949517 -0.47535357 0.15895668 -0.9900805 -0.9027418 0.4208458
0.41580257 0.43355036 -0.78535926 0.47170085 0.5924351 1.5278807 0.09935088 -0.5887482
1.577052 1.1053878 1.9936488 0.40545774
00000000: bfaf f6bf 287f cebe 45fd d13e c438 19bf
00000010: 7c62 debf 2ef9 503e d39d 8f3e efb4 08bf
00000020: 2450 debf 768c 21c0 6f98 75be ffe3 133d
00000030: 8534 07c0 c0a5 c8be d44d a13f 94a1 473f
00000040: d848 ab3f 31e7 8c3f 6c5e 7f3f dc50 303f
00000050: f17c bebf e4f0 73bf 95ff 873f 05a6 fabe
00000060: 47f6 953f 0089 55bf 4c1e 663f 4058 673d
00000070: 0429 553f 0889 94bf 6731 913d fefb 2cbf
00000080: 96d9 ea3d 4dff e03e 7648 4cbe 8b61 f3be
00000090: 8ac5 223e ea75 7dbf 161a 67bf 1a79 d73e
000000a0: 13e4 d43e 50fa dd3e 4e0d 49bf c682 f13e
000000b0: d4a9 173f 9891 c33f 7978 cb3d 34b8 16bf
000000c0: d7dc c93f 597d 8d3f e22f ff3f 2898 cf3e

embedding.embeddings.5.weight f4 [9, 4]
0.17327352 1.7671264 -0.29601645 -0.2101865 -0.71480364 -0.7899768 0.652365 -0.17288324
-1.7700762 -0.7836805 1.3913702 0.8724619 -0.85748583 -0.3454462 1.2260274 -0.24021472
-0.27556437 0.37250417 -0.11857598 0.22546738 0.30533874 0.92556524 -1.6466823 0.20498611
-0.48793593 -1.1522188 0.6957512 -1.5337842 -0.948357 0.7576648 -1.7930768 -1.2290871
0.41906387 0.78484577 -1.515753 -1.5811003
00000000: 9d6e 313e 3331 e23f 788f 97be 213b 57be
00000010: 5ffd 36bf eb3b 4abf 6501 273f 4e08 31be
00000020: db91 e2bf 499f 48bf 6b18 b23f aa59 5f3f
00000030: 3184 5bbf 53de b0be 77ee 9c3f d9fa 75be
00000040: c616 8dbe deb8 be3e f7d7 f2bd ece0 663e
00000050: 5c55 9c3e d8f1 6c3f 7cc6 d2bf e1e7 513e
00000060: bdd2 f9be e87b 93bf c01c 323f 0a53 c4bf
00000070: 86c7 72bf 52f6 413f 8a83 e5bf ba52 9dbf
00000080: 8a8f d63e a7eb 483f 3204 c2bf 7f61 cabf

bn_in.weight f4 [38]
0.997331 0.94078285 0.95892274 0.98447585 0.93775976 0.9806185 0.97197413 0.9531573
0.9409791 0.96981347 0.9806673 0.9529125 0.931442 0.9501575 0.94284105 0.95371354
0.9395845 0.92986447 0.9502161 0.95794857 0.9046861 0.9274086 0.93802994 0.9357416
0.9557844 0.9398187 0.940789 0.93772346 1.0123894 0.9663765 0.93079835 0.9312626
0.9700267 0.99050015 1.0429696 0.9956903 1.1160995 0.9216042
00000000: 1651 7f3f 25d7 703f f67b 753f 9c06 7c3f
00000010: 0611 703f d009 7b3f 4cd3 783f 1e02 743f
00000020: 02e4 703f b245 783f 030d 7b3f 13f2 733f
00000030: fc72 6e3f 863d 733f 085e 713f 9226 743f
00000040: 9c88 703f 990b 6e3f 5d41 733f 1e3c 753f
00000050: 8299 673f a66a 6d3f bb22 703f c38c 6f3f
00000060: 49ae 743f f597 703f 8cd7 703f a50e 703f
00000070: fa95 813f 7364 773f cd48 6e3f 3a67 6e3f
00000080: ab53 783f 6b91 7d3f 0780 853f 8fe5 7e3f
00000090: 59dc 8e3f 41ee 6b3f

bn_in.bias f4 [38]
3.4740817e-05 0.0006320518 -0.00018142555 0.0025270637 0.00036445973 -0.00036174417 4.4743872e-05 0.00022706341
-0.00055707485 -0.0012618544 0.00022414129 0.00077182864 0.00020472096 0.0010559182 -0.00022468873 0.00051472645
-0.0013202437 -0.0012310533 0.00042159765 0.0005423137 0.00026711263 0.00026812704 -0.00052511046 -0.001049782
0.0007603708 4.2134387e-05 -0.0011818291 0.0021818976 -0.001059859 6.8936333e-06 -0.0011064566 0.00094501674
0.00043485317 0.00035231395 -0.00079582236 -0.00095285464 -0.0044305874 -0.0010217238
00000000: abb6 1138 47b0 253a 0d3d 3eb9 189d 253b
00000010: f514 bf39 7ba8 bdb9 5eab 3b38 df17 6e39
00000020: a908 12ba cf64 a5ba 7807 6b39 8b54 4a3a
00000030: 5daa 5639 bc66 8a3a 6c9a 6bb9 b5ee 063a
00000040: 070c adba 4b5b a1ba e109 dd39 0e2a 0e3a
00000050: 400b 8c39 6793 8c39 91a7 09ba d798 89ba
00000060: 9f53 473a 74b9 3038 9be7 9aba 2bfe 0e3b
00000070: f7ea 8aba dc4f e736 8606 91ba 00bb 773a
00000080: 01fd e339 c7b6 b839 bc9e 50ba fec8 79ba
00000090: 762e 91bb 5deb 85ba

bn_in.running_mean f4 [38]
-1.068724 0.02874877 -0.6740835 -0.19916455 0.25865284 0.84351945 1.9030675 -1.6552863
-0.47648317 1.1922796 -0.48844013 0.36605382 0.86374533 -0.039406136 -0.865062 -0.71071666
-1.2813518 -0.74943864 0.76720035 -0.49564832 -0.4699363 0.4618529 0.16433145 -0.11063745
0.24420351 0.13420348 -0.56698596 0.2830798 8.716248e-05 0.014688879 -0.010339037 -0.003748258
-0.018835664 -0.0094925305 0.007858163 0.012845097 0.012702851 0.0038715494
00000000: f3cb 88bf 8a82 eb3c bc90 2cbf cbf1 4bbe
00000010: 256e 843e e4f0 573f b797 f33f 6ce0 d3bf
00000020: 9af5 f3be 9e9c 983f d314 fabe 686b bb3e
00000030: 6a1e 5d3f 5468 21bd b474 5dbf 87f1 35bf
00000040: 5603 a4bf 36db 3fbf 3e67 443f 9ec5 fdbe
00000050: 7e9b f0be fc77 ec3e 8146 283e e395 e2bd
00000060: 7c10 7a3e a36c 093e fe25 11bf d6ef 903e
00000070: 00cb b638 a0a9 703c 1065 29bc 56a5 75bb
00000080: 404d 9abc 8f86 1bbc 86bf 003c 3e74 523c
00000090: 9e1f 503c d2b9 7d3b

bn_in.running_var f4 [38]
0.6065725 0.30655655 0.19011892 0.916194 0.04319352 0.029418666 0.87237006 0.51816064
0.11227753 0.80907184 0.0348146 1.2221057 0.38520497 0.11327863 2.126529 2.6255727
0.6355279 0.19922647 0.205455 0.030976256 0.59342164 1.359332 0.97557515 0.44639412
0.69976336 0.77187186 1.8126019 0.78798026 1.0246924 1.1419476 0.9536287 1.0167601
0.9405779 1.209608 1.0308807 1.0298506 1.024664 1.027224
00000000: 5648 1b3f fbf4 9c3e 89ae 423e b18b 6a3f
00000010: b0eb 303d 6aff f03c a553 5f3f 2da6 043f
00000020: c3f1 e53d 551f 4f3f c199 0e3d f66d 9c3f
00000030: 9639 c53e a0fe e73d 0d19 0840 6209 2840
00000040: f5b1 223f 0602 4c3e cc62 523e ebc1 fd3c
00000050: 7bea 173f 97fe ad3f 4bbf 793f c58d e43e
00000060: b123 333f 6599 453f 5703 e83f 13b9 493f
00000070: 1f29 833f 572b 923f 0321 743f 3225 823f
00000080: b7c9 703f 6fd4 9a3f e6f3 833f 25d2 833f
00000090: 3128 833f 137c 833f
