backend/models/tabm_k1.pth (torch, 101647 bytes, 24 tensors)

embedding.embeddings.0.weight f4 [10, 4]
-1.5009599 -1.2364774 -0.39800084 1.2193687 0.16806562 0.27813572 -1.3208556 -0.46452177
0.33166635 -0.6993973 -1.2672125 0.081171505 0.10918162 0.8701861 0.9893317 0.09898838
-0.6248396 0.22430512 0.38341987 -0.5001662 0.35265288 1.5996071 -1.0497118 -0.33070463
0.9199292 0.5013519 2.944007 0.16099054 1.577429 -1.1469731 -0.45398524 0.24215844
0.8621253 1.0123379 0.0711578 -0.2591638 0.6713468 -0.08221586 -0.7645208 -0.80381763
00000000: 741f c0bf e444 9ebf c4c6 cbbe 4614 9c3f
00000010: 6519 2c3e ce67 8e3e cc11 a9bf ccd5 edbe
00000020: 2cd0 a93e b40b 33bf 0534 a2bf 3f3d a63d
00000030: 9d9a df3d 84c4 5e3f d844 7d3f 6bba ca3d
00000040: 7df5 1fbf 3eb0 653e 9c4f c43e e40a 00bf
00000050: eb8e b43e edbf cc3f f55c 86bf 1e52 a9be
00000060: 7b80 6b3f 9958 003f 9c6a 3c40 b4da 243e
00000070: 32e9 c93f 04d0 92bf c170 e8be 62f8 773e
00000080: 3eb4 5c3f 4a94 813f 2ebb 913d 1eb1 84be
00000090: 62dd 2b3f ca60 a8bd a3b7 43bf fec6 4dbf

embedding.embeddings.1.weight f4 [3, 4]
1.0537509 -0.3029601 -0.9688043 -1.2465944 0.5148876 1.1292764 -0.2792061 0.082359724
1.6513971 0.27976108 0.9563194 -1.367408
00000000: 4fe1 863f 961d 9bbe 8f03 78bf 6890 9fbf
00000010: accf 033f 218c 903f 1af4 8ebe 37ac a83d
00000020: fb60 d33f d83c 8f3e 59d1 743f 3a07 afbf

embedding.embeddings.2.weight f4 [2, 4]
0.043259796 1.7957447 0.25045294 0.92470545 1.6135577 -1.2919457 1.1691629 1.0743175
00000000: 2f31 313d f6da e53f 5e3b 803e 7fb9 6c3f
00000010: 0f89 ce3f 7a5e a5bf 21a7 953f 3c83 893f

embedding.embeddings.3.weight f4 [8, 4]
-0.18159063 0.77408147 -1.4525925 0.91100705 1.1474416 -0.4386311 -0.39838043 0.28980342
0.095813446 -0.86958754 -2.0678456 -0.6774073 -0.24117282 -0.05225421 0.8117269 0.82015854
1.809617 -0.7219372 -0.29119408 -0.85040677 0.33969533 -0.694286 0.7239688 -0.24058874
-0.06495265 -0.5370516 0.2494726 -1.2598445 0.8355527 -0.87729055 -0.575924 -0.24395289
00000000: e5f2 39be 342a 463f 8dee b9bf c237 693f
00000010: 5edf 923f 4194 e0be 85f8 cbbe 1d61 943e
00000020: d739 c43d 4a9d 5ebf 9557 04c0 916a 2dbf
00000030: 02f6 76be 8308 56bd 56cd 4f3f e9f5 513f
00000040: 88a1 e73f e0d0 38bf 6417 95be 42b4 59bf
00000050: 8cec ad3e babc 31bf 0556 393f e55c 76be
00000060: e505 85bd 377c 09bf bf75 7f3e 9642 a1bf
00000070: c8e6 553f 1d96 60bf c16f 13bf c9ce 79be

embedding.embeddings.4.weight f4 [13, 4]
1.5281585 0.8324088 -1.0398704 -0.67181385 -0.72278655 -0.013232124 1.4786807 -1.2518185
0.08278829 1.8733271 -0.3012501 0.8481943 -1.3073868 0.48169595 -0.68114644 1.6651957
0.94836473 0.85666746 1.081598 -0.95400894 -1.0933275 0.61013347 -0.70991397 0.36583704
-0.93453544 0.50588423 0.25068924 -3.1314566 -0.3639125 -1.5045558 0.23045884 0.21504764
-0.23521914 -0.13013797 -1.2456193 0.19462235 -0.21325302 -0.9344381 -1.0373482 -2.3655427
1.0256821 0.5091594 -0.18916538 0.47530597 0.3790776 2.0534225 0.5689879 -1.5711133
0.7013661 0.56030756 0.4507668 1.0427107
00000000: b39a c33f be18 553f 791a 85bf fefb 2bbf
00000010: 8a08 39bf 8dcb 58bc 6945 bd3f 973b a0bf
00000020: e88c a93d 2fc9 ef3f 743d 9abe 4323 593f
00000030: 7358 a7bf daa0 f63e 9d5f 2ebf 2225 d53f
00000040: 08c8 723f 8f4e 5b3f ce71 8a3f ee39 74bf
00000050: 28f2 8bbf b531 1c3f ecbc 35bf fe4e bb3e
00000060: b73d 6fbf a181 013f 575a 803e c969 48c0
00000070: bd52 babe 4995 c0bf 67fd 6b3e 7335 5c3e
00000080: 49dd 70be e342 05be 7470 9fbf 154b 473e
00000090: 005f 5abe 5637 6fbf d3c7 84bf 0d65 17c0
000000a0: 8d49 833f 4558 023f 92b4 41be 4e5b f33e
000000b0: 7616 c23e 466b 0340 31a9 113f 3e1a c9bf
000000c0: bb8c 333f 5170 0f3f e8ca e63e 8b77 853f

embedding.embeddings.5.weight f4 [9, 4]
1.7488858 -0.6999627 -0.41859993 1.0042392 -0.84852475 0.69124687 1.2278239 -1.3916489
1.8370845 -0.40779486 -0.033991937 2.399032 -0.9610775 0.786138 0.38118285 0.7761227
-0.9073935 0.34644175 0.41046757 -0.22520386 -1.9203196 -1.1740606 -0.2325068 -2.2042897
-0.7810205 -0.74639225 0.3676771 -0.09370498 -1.0896528 1.4019567 -0.77675366 1.1103326
0.54121447 2.0144863 -0.55409086 -1.6679132
00000000: 7ddb df3f c130 33bf bb52 d6be e98a 803f
00000010: eb38 59bf 8ef5 303f 5529 9d3f 8d21 b2bf
00000020: 9625 eb3f 7dca d0be 213b 0bbd be89 1940
00000030: 2d09 76bf 5740 493f 662a c33e faaf 463f
00000040: f14a 68bf d060 b13e ce28 d23e d79b 66be
00000050: 08cd f5bf 9e47 96bf 4316 6ebe 1513 0dc0
00000060: f6f0 47bf 9013 3fbf 2c40 bc3e 66e8 bfbd
00000070: be79 8bbf 5173 b33f 54d9 46bf 611f 8e3f
00000080: 088d 0a3f 58ed 0040 e6d8 0dbf 2e7e d5bf

embedding.embeddings.6.weight f4 [20, 4]
-0.27086362 -0.1962136 -1.434833 -1.8576369 1.1552032 1.2156471 -2.5314915 -0.26087016
0.2473229 0.2170628 -0.3092201 -0.9267604 -0.13116957 -0.387473 -0.41283992 0.19691056
-0.10423856 0.859844 0.048658617 -0.6576051 0.80505466 -0.60579836 0.49088246 -0.6183075
0.8835079 1.5979103 0.28524125 -1.5221469 -1.6012691 0.57668203 -0.5443082 1.2480685
0.27134547 -1.051885 -1.0364561 0.38579696 0.32554862 -0.22492579 -0.11377423 -0.51054186
0.045228124 -0.47322834 -1.2466743 1.5285072 1.6087514 -1.0060736 0.33328304 0.1880461
-0.8514831 -1.7777257 1.5463536 0.3295634 -0.40895158 0.43017358 1.7069774 -0.9179632
-0.40676486 -0.7376011 -0.85009575 0.0008260181 0.5073123 -0.8124813 0.58770293 0.7302565
0.18639491 -0.24330105 0.0833895 -1.2328727 0.90009207 -0.6361093 -0.5280896 -0.8537889
0.15737966 1.1048167 0.34827375 -0.6960516 1.0634315 0.23952827 -0.25424612 -0.40190306
00000000: a3ae 8abe 38ec 48be 9ca8 b7bf 0cc7 edbf
00000010: b3dd 933f 539a 9b3f f503 22c0 c690 85be
00000020: 3742 7d3e b645 5e3e 1952 9ebe 2b40 6dbf
00000030: 5151 06be dc62 c6be c15f d3be eca2 493e
00000040: 077b d5bd bd1e 5c3f 424e 473d cf58 28bf
00000050: 1018 4e3f 9a15 1bbf f254 fb3e 6649 1ebf
00000060: 932d 623f 5388 cc3f 240b 923e b6d5 c2bf
00000070: 63f6 ccbf 6fa1 133f c857 0bbf b5c0 9f3f
00000080: cbed 8a3e 2ba4 86bf 98aa 84bf 2e87 c53e
00000090: 4fae a63e f252 66be 7702 e9bd dfb2 02bf
000000a0: 2041 393d fc4a f2be 0693 9fbf 20a6 c33f
000000b0: 91eb cd3f 05c7 80bf 13a4 aa3e 288f 403e
000000c0: ccfa 59bf 848c e3bf eaee c53f 89bc a83e
000000d0: 1a62 d1be b63f dc3e 3c7e da3f a3ff 6abf
000000e0: 7c43 d0be 6dd3 3cbf e09f 59bf 2389 583a
000000f0: 38df 013f c6fe 4fbf b373 163f 17f2 3a3f
00000100: 4fde 3e3e e923 79be 1dc8 aa3d c6ce 9dbf
00000110: 6f6c 663f 0fd8 22bf e130 07bf e991 5abf
00000120: 2228 213e a26a 8d3f f050 b23e 7030 32bf
00000130: 861e 883f e646 753e 8c2c 82be 3dc6 cdbe

bn_in.weight f4 [38]
0.9717343 0.95727795 0.99878454 0.94423544 0.9077827 0.98437715 0.93456745 0.9018076
0.9689677 0.9523026 0.95173776 0.9477244 0.9238027 0.9318976 0.9479023 0.95870847
0.92287666 0.9023754 0.90352905 0.9597157 0.9454882 0.8751782 0.92762214 0.9141902
0.9456029 0.9413209 0.96305996 0.9387551 1.0471582 0.9478174 0.9320013 0.89382344
0.97532153 0.99363875 0.9937404 0.94016945 1.1805078 0.91095155
00000000: 94c3 783f 2b10 753f 58b0 7f3f 6ab9 713f
00000010: 7264 683f 2400 7c3f d03f 6f3f dddc 663f
00000020: 440e 783f 1aca 733f 16a5 733f 119e 723f
00000030: 557e 6c3f d790 6e3f baa9 723f eb6d 753f
00000040: a541 6c3f 1302 673f ae4d 673f eeaf 753f
00000050: 840b 723f ae0b 603f a578 6d3f 5e08 6a3f
00000060: 0813 723f 68fa 703f 198b 763f 4152 703f
00000070: 4809 863f 29a4 723f a397 6e3f 9dd1 643f
00000080: acae 793f 1c5f 7e3f c565 7e3f f2ae 703f
00000090: e11a 973f 1f34 693f

bn_in.bias f4 [38]
0.0023289206 0.0024464428 -0.0011614504 -0.0014815792 -0.0009149771 0.0009437093 0.0023379955 0.00061551906
0.00075482385 0.000879507 7.0626666e-05 -0.0012366627 -0.0024957035 0.00022376006 -0.00033661418 -0.0013787333
-0.0028556376 0.00038556303 -0.0011502461 -0.0014076144 -0.0013338976 0.00076528685 0.00022011838 0.0011109714
-0.0012192632 -0.00039748102 0.0021766312 0.0019287732 0.002098105 0.00087049004 -0.0003950111 -0.00043376288
0.0013208862 -0.0020948427 -0.0012912832 -0.0023072648 0.000139202 -0.0023869772
00000000: cea0 183b 8054 203b cf3b 98ba 8c31 c2ba
00000010: 13db 6fba 4263 773a 0e39 193b c95a 213a
00000020: 5fdf 453a b78e 663a 671d 9438 8417 a2ba
00000030: f58e 23bb 22a1 6a39 977b b0b9 9db6 b4ba
00000040: a625 3bbb 6525 ca39 dbc3 96ba b47f b8ba
00000050: 2dd6 aeba 889d 483a 94cf 6639 049e 913a
00000060: afcf 9fba 0065 d0b9 d0a5 0e3b e4ce fc3a
00000070: 5c80 093b 9931 643a 7e19 cfb9 ab6a e3b9
00000080: 9621 ad3a a149 09bb 4640 a9ba 7b35 17bb
00000090: c1f6 1139 d56e 1cbb

bn_in.running_mean f4 [38]
0.7300091 0.17162764 0.33682424 -0.024868386 1.5631093 0.20897697 0.6912378 -1.3402631
0.40087903 1.0929598 0.45923164 0.95923805 0.59385824 -0.25888035 -0.91579205 0.23811722
-0.43997884 0.4828883 -0.6701962 0.010974373 0.6708631 -0.18996534 -0.052685786 0.6274533
0.41816163 -0.2761194 -0.047174405 -0.5843625 -0.0010788487 0.013257457 0.01550765 -0.0066091563
-0.008151752 -0.002506075 0.0118713565 0.015104375 -0.005251252 0.0070980527
00000000: e0e1 3a3f 28bf 2f3e 3a74 ac3e c9b8 cbbc
00000010: f713 c83f 0ffe 553e f6f4 303f be8d abbf
00000020: 0440 cd3e 1be6 8b3f 6920 eb3e a090 753f
00000030: 1807 183f f78b 84be 5971 6abf 00d5 733e
00000040: e844 e1be 233d f73e fa91 2bbf dbcd 333c
00000050: afbd 2b3f 4686 42be 0dcd 57bd c8a0 203f
00000060: 4819 d63e 865f 8dbe f339 41bd c898 15bf
00000070: 2868 8dba ce35 593c cc13 7e3c 9f91 d8bb
00000080: ed8e 05bc f63c 24bb 1480 423c 5778 773c
00000090: b212 acbb c896 e83b

bn_in.running_var f4 [38]
0.46302724 0.89497745 2.8357966 0.14745805 0.049539402 0.04575738 0.43430245 0.017207935
0.43363485 1.6783442 0.14896974 0.0038463436 0.37041166 0.3237998 0.59732145 0.2847173
1.0789928 0.3514139 0.20960367 0.43309632 1.9193949 0.65251243 0.26797736 1.875958
0.7916068 0.53790605 1.2992128 0.6491391 1.0072762 1.0944182 1.05271 0.88912845
0.90495855 0.95854264 1.0273975 1.0208752 0.9122063 1.0164983
00000000: e811 ed3e 3e1d 653f b17d 3540 3eff 163e
00000010: d4e9 4a3d 176c 3b3d e45c de3e a8f7 8c3c
00000020: 6305 de3e fcd3 d63f 868b 183e f012 7c3b
00000030: 99a6 bd3e 16c9 a53e 0fea 183f 77c6 913e
00000040: 701c 8a3f 86ec b33e 58a2 563e cdbe dd3e
00000050: bbae f53f 0e0b 273f 5434 893e 641f f03f
00000060: bea6 4a3f 36b4 093f 9b4c a63f fb2d 263f
00000070: 6dee 803f e515 8c3f 34bf 863f ec9d 633f
00000080: 5dab 673f 0d63 753f c381 833f 0aac 823f
00000090: 5a86 693f 9e1c 823f

ensemble_blocks.0.0.weight f4 [128, 38]
-0.07484919 0.054679267 -0.01745125 0.059456106 -0.15019752 -0.15227114 -0.1552323 -0.06571555
0.15781575 0.13145714 0.08363511 0.10864722 0.037400644 0.020123996 -0.03755258 -0.09276811
-0.011656927 -0.103607014 0.03654781 -0.07846155 0.03334124 0.10848455 0.0020517756 0.035714917
0.11966263 -0.123809196 -0.009894478 -0.0026696967 0.06053154 0.014550968 -0.121448636 -0.059820425
-0.18681264 -0.19186917 -0.19105583 -0.1774281 0.06958117 0.10936636 -0.10486181 -0.10640844
0.14216602 0.13429677 -0.07319602 0.0982703 -0.099810705 0.029218182 -0.19311377 0.16563217
0.03211478 0.0927901 0.16541347 -0.1292825 0.043178 -0.122933485 -0.0022047027 -0.00075720047
0.005674133 -0.034873866 0.09338034 0.09966464 -0.030124646 0.04761558 -0.026504142 0.077294454
-0.08127493 0.090898246 -0.16406135 0.11080973 -0.050063185 0.05872215 -0.065651424 -0.1500944
0.14369786 -0.018380774 0.05602442 0.013272205 -0.025891153 0.066657014 -0.08229147 -0.03342681
-0.17907742 0.073663265 0.08536411 -0.021172512 -0.12697583 0.00969941 0.10327068 -0.027885454
0.012616357 0.039013825 -0.030790253 0.053949703 -0.022547973 -0.025615023 0.03789749 0.017831793
-0.015034981 -0.08618345 0.004360595 0.048568025 0.108436435 0.009654746 -0.04126736 -0.08208372
-0.16184106 -0.05610526 -0.038540166 -0.10369117 -0.02308845 -0.009391264 -0.039031662 -0.047563728
-0.20090424 0.12472539 -0.054392207 -0.089983016 -0.03872147 -0.030985763 -0.060434546 0.039515406
0.062441114 0.058743257 -0.10515788 -0.017041516 0.09034934 0.115267836 -0.12908837 -0.08639871
0.13814704 0.04178276 -0.061963562 -0.10018563 0.0031106248 0.037176553 -0.15055007 -0.047747254
-0.03604905 -0.08990406 -0.06373693 0.15401646 0.06379285 0.06383216 0.068955325 0.10192177
0.13049233 -0.0826365 -0.0063680257 -0.045906205 -0.10176863 -0.040963978 0.20452955 -0.001819416
-0.07095546 0.1073708 -0.054077767 0.01272622 -0.045629285 -0.042177185 -0.12007717 -0.076706134
-0.021379165 0.12887482 -0.1795197 -0.009468712 -0.019343417 0.051352434 -0.11115986 0.090219885
-0.09028771 -0.020786418 0.08713693 0.109362856 0.16618988 0.057084244 -0.10399635 -0.10127289
0.1564054 0.028039832 0.06429256 0.10320946 0.075501546 0.124447316 -0.05464807 0.00015775538
-0.056909297 -0.16570768 0.13557592 0.023283772 0.060582276 0.09818371 0.050940648 0.008388119
0.13625263 0.14194486 -0.010401005 0.026199058 0.04727414 -0.115164205 0.06667841 0.10397685
-0.12918557 -0.042799708 -0.03078613 -0.019093804 -0.014601816 0.13498479 0.069509745 0.13901003
-0.008520687 0.06267256 0.07315232 0.1046589 0.12041394 -0.014419034 -0.13781263 -0.06015129
-0.05872398 -0.13009049 0.0016323896 0.03921947 -0.070468895 -0.15384915 -0.048680145 -0.065153755
0.032524932 -0.043938104 0.1441639 0.010068796 0.107776105 0.17587133 -0.014218554 0.1615787
0.13803068 -0.16777654 -0.103206076 0.065738946 0.11592026 0.007529338 0.07777803 0.08952567
0.14474331 -0.110259555 0.12612872 -0.14436239 -0.122631066 0.13141407 -0.014062775 0.105527274
0.07760781 -0.025615374 0.076951474 0.013575374 -0.067612626 -0.057592154 0.012189758 0.090212926
00000000: 884a 99bd 5ef7 5f3d edf5 8ebc 3f88 733d
00000010: 61cd 19be f7ec 1bbe 37f5 1ebe e095 86bd
00000020: 749a 213e b39c 063e e248 ab3d 6f82 de3d
00000030: 6b31 193d 14db a43c bcd0 19bd 35fd bdbd
00000040: b2fc 3ebc ea2f d4bd 28b3 153d 73b0 a0bd
00000050: d390 083d 262d de3d 1577 063b ce49 123d
00000060: ae11 f53d ad8f fdbd 731c 22bc 14f6 2ebb
00000070: ecef 773d 2f67 6e3c 10ba f8bd 4306 75bd
00000080: d04b 3fbe 5a79 44be 24a4 43be b6af 35be
00000090: 9380 8e3d 78fb df3d cac1 d6bd abec d9bd
000000a0: f893 113e 1885 093e cce7 95bd f041 c93d
000000b0: 8e69 ccbd f85a ef3c 9ebf 45be 7b9b 293e
000000c0: ca8a 033d bc08 be3d 2662 293e a262 04be
000000d0: 6adb 303d 8dc4 fbbd c67c 10bb dd7e 46ba
000000e0: 14ee b93b e6d7 0ebd 313e bf3d fa1c cc3d
000000f0: f6c7 f6bc 8e08 433d 371f d9bc 8e4c 9e3d
00000100: 7873 a6bd dc28 ba3d b3ff 27be 36f0 e23d
00000110: 0e0f 4dbd a386 703d 4174 86bd 59b2 19be
00000120: 8825 133e 4793 96bc dd79 653d aa73 593c
00000130: af19 d4bc 7983 883d 6e88 a8bd 8dea 08bd
00000140: 1260 37be c4dc 963d 61d3 ae3d fa71 adbc
00000150: f405 02be 46ea 1e3c 947f d33d 0970 e4bc
00000160: d6b4 4e3c f6cc 1f3d d73b fcbc 5dfa 5c3d
00000170: 87b6 b8bc 99d6 d1bc 663a 1b3d fb13 923c
00000180: 4855 76bc f380 b0bd 52e3 8e3b 44ef 463d
00000190: ec13 de3d f12e 1e3c f707 29bd 821b a8bd
000001a0: aab9 25be a1ce 65bd 4bdc 1dbd 095c d4bd
000001b0: fd23 bdbc d1dd 19bc aadf 1fbd 2fd2 42bd
000001c0: d7b9 4dbe 0670 ff3d 5dca 5ebd 0449 b8bd
000001d0: 679a 1ebd dbd5 fdbc 378a 77bd e8da 213d
000001e0: 41c2 7f3d c59c 703d 045d d7bd a69a 8bbc
000001f0: 1309 b93d 8b11 ec3d be2f 04be cff1 b0bd
00000200: 6b76 0d3e 6624 2b3d 81cd 7dbd 202e cdbd
00000210: a0db 4b3b 7146 183d cc29 1abe a092 43bd
00000220: 2ba8 13bd 9f1f b8bd 8288 82bd 7eb6 1d3e
00000230: d3a5 823d 6fba 823d 7338 8d3d 5cbc d03d
00000240: c89f 053e 533d a9bd dfaa d0bb 2508 3cbd
00000250: 126c d0bd d8c9 27bd 3270 513e 7879 eeba
00000260: 1951 91bd 39e5 db3d a680 5dbd a381 503c
00000270: c6e5 3abd fcc1 2cbd 05eb f5bd 1b18 9dbd
00000280: 5c23 afbc c3f7 033e 03d4 37be a822 1bbc
00000290: 1676 9ebc ee56 523d c8a7 e3bd 34c5 b83d
000002a0: c3e8 b8bd 4748 aabc d974 b23d a2f9 df3d
000002b0: ae2d 2a3e 2bd1 693d 0afc d4bd 2968 cfbd
000002c0: bd28 203e cab3 e53c d1ab 833d 7b5f d33d
000002d0: 8ea0 9a3d 3cde fe3d a8d6 5fbd 236b 2539
000002e0: b919 69bd 46af 29be 6ad4 0a3e 9cbd be3c
000002f0: 1f25 783d 8a14 c93d 24a7 503d 526e 093c
00000300: cf85 0b3e fe59 113e fa68 2abc 689f d63c
00000310: 87a2 413d 36db ebbd b18e 883d d1f1 d43d
00000320: 3949 04be bf4e 2fbd 3233 fcbc 9c6a 9cbc
00000330: 753c 6fbc 7439 0a3e 205b 8e3d a558 0e3e
00000340: 5a9a 0bbc 795a 803d e2d0 953d 6857 d63d
00000350: 959b f63d d03d 6cbc c11e 0dbe 3361 76bd
00000360: 8e88 70bd 7136 05be e8f5 d53a 98a4 203d
00000370: ff51 90bd a28a 1dbe d564 47bd 556f 85bd
00000380: dd38 053d 71f8 33bd b49f 133e 97f7 243c
00000390: b8b9 dc3d 9d17 343e f0f4 68bc e374 253e
000003a0: ea57 0d3e 9dcd 2bbe b55d d3bd 24a2 863d
000003b0: 9a67 ed3d aab8 f63b 164a 9f3d 3c59 b73d
000003c0: 9737 143e c3cf e1bd e327 013e bcd3 13be
000003d0: ff25 fbbd 6991 063e 8e67 66bc af1e d83d
000003e0: d8f0 9e3d 55d7 d1bc bc98 9d3d 3f6b 5e3c
000003f0: 7d78 8abd c0e5 6bbd 8db7 473c 8ec1 b83d

ensemble_blocks.0.0.bias f4 [128]
-0.1607742 -0.11249187 0.12924 -0.007896967 -0.1320482 -0.05199167 0.00363734 0.11469668
-0.054252766 -0.11686505 -0.07857374 -0.014215045 -0.14462747 0.036399126 0.14654674 0.04919337
0.10758013 0.06766794 0.13127397 -0.11739632 -0.13966016 -0.113477126 0.14573886 -0.13630614
0.007078154 0.12899238 0.09521178 0.115083955 0.024275204 -0.08182517 -0.062262602 0.027942954
-0.099586055 0.08460296 -0.016285636 -0.02455484 -0.05200515 0.039635677 -0.013452441 -0.0318123
-0.14529276 0.069488354 0.15250187 -0.04412694 -0.13706033 -0.08252935 0.116529755 0.010742402
-0.08512245 0.09228291 -0.15343791 -0.033481378 -0.05953423 0.027847555 0.087247185 -0.09504515
0.017469728 0.052112117 0.07845629 0.08311315 0.11691421 0.021159105 -0.03867421 0.054513734
0.018236032 -0.00011630524 0.09863373 0.023868922 0.15972885 -0.08400098 -0.008303621 -0.05782814
-0.0745712 -0.06504362 -0.014349887 -0.05675162 -0.10131946 0.14745358 -0.05457907 0.14258783
0.02401251 0.13152371 0.03252558 -0.15393342 0.0025628617 0.09746169 0.04955732 -0.07487123
0.08866136 -0.027275419 -0.13208419 -0.109003015 -0.016446387 -0.123862684 0.036952462 -0.12275965
0.12094871 -0.05262041 0.072435774 -0.06789932 0.04091602 -0.024212962 -0.14224422 0.13366875
0.09843768 -0.052256454 -0.015062114 0.06923697 -0.11888031 0.08467909 -0.102588415 -0.015168308
0.043256767 -0.12827294 -0.03371937 -0.084033355 -0.12646748 0.013836845 -0.04751577 -0.09548179
0.092504054 0.15741405 0.046388056 -0.006584401 -0.1390528 -0.14249045 0.10350351 -0.03128392
00000000: fea1 24be 2362 e6bd 7e57 043e 4862 01bc
00000010: a537 07be 38f5 54bd 7060 6e3b 18e6 ea3d
00000020: 2638 5ebd f156 efbd 45eb a0bd 38e6 68bc
00000030: 3919 14be 4017 153d 5910 163e fd7e 493d
00000040: f952 dc3d 7d95 8a3d af6c 063e 7b6d f0bd
00000050: 1303 0fbe b266 e8bd 913c 153e d693 0bbe
00000060: dcef e73b 9416 043e 65fe c23d 23b1 eb3d
00000070: cbdc c63c f493 a7bd 1207 7fbd 9fe8 e43c
00000080: c6f3 cbbd 5144 ad3d 7469 85bc 3b27 c9bc
00000090: 5a03 55bd 0559 223d a167 5cbc 9d4d 02bd
000000a0: a0c7 14be e94f 8e3d 7329 1c3e 73be 34bd
000000b0: 8b59 0cbe 2605 a9bd 27a7 ee3d e600 303c
000000c0: ae54 aebd d3fe bc3d d41e 1dbe c523 09bd
000000d0: 2ada 73bd 8e20 e43c a7ae b23d 08a7 c2bd
000000e0: ad1c 8f3c 8473 553d b1ad a03d 3a37 aa3d
000000f0: b870 ef3d dc55 ad3c d968 1ebd cb49 5f3d
00000100: bb63 953c e6e8 f3b8 7b00 ca3d c288 c33c
00000110: f68f 233e b508 acbd e90b 08bc 33dd 6cbd
00000120: c9b8 98bd 9735 85bd ca1b 6bbc 6374 68bd
00000130: 9480 cfbd 12fe 163e 4e8e 5fbd 8b02 123e
00000140: e2b5 c43c 27ae 063e 8b39 053d b9a0 1dbe
00000150: aff5 273b ff99 c73d 9efc 4a3d 1656 99bd
00000160: 1694 b53d b370 dfbc 1441 07be f93c dfbd
00000170: 93ba 86bc b8ab fdbd 775b 173d 6969 fbbd
00000180: f5b3 f73d 8088 57bd 3559 943d cc0e 8bbd
00000190: 8e97 273d 435a c6bc 78a8 11be 76e0 083e
000001a0: b299 c93d dd0a 56bd 16c7 76bc 1dcc 8d3d
000001b0: 8577 f3bd 3b6c ad3d e019 d2bd 7f84 78bc
000001c0: 022e 313d fb59 03be 521d 0abd ae19 acbd
000001d0: b180 01be efb3 623c e59f 42bd f58b c3bd
000001e0: c472 bd3d 2631 213e 6701 3e3d f5c1 d7bb
000001f0: db63 0ebe 04e9 11be a6f9 d33d 9123 00bd

ensemble_blocks.0.1.weight f4 [128]
0.9911376 0.9791902 1.0382133 1.0097398 0.9711647 0.97730696 0.986167 1.0587856
0.97702605 1.0421064 1.0573337 0.9975904 1.0218827 1.0101355 0.9839559 1.0437912
1.0128075 0.97282654 0.992186 0.98373425 0.9566066 1.0031466 1.0156384 0.9979478
0.96936774 1.0170193 1.0089204 0.97135943 0.99911046 0.95582527 0.9573422 0.9660912
1.0261552 0.9772673 1.0053142 0.971757 0.96846163 0.98489535 0.99691355 0.9912839
0.9848866 0.9261325 1.0390924 1.0564957 1.0234126 0.99532783 1.0433885 1.022318
1.0057554 0.95525616 0.9690306 0.97685754 0.9971816 1.0167719 0.9820792 0.9884174
0.98602 0.9722121 1.0270784 0.9975664 1.0310366 0.996519 0.98824006 1.017748
0.9622683 1.0139011 0.9962423 1.0868254 1.00041 1.0540031 0.9851273 0.99583006
1.0029937 1.008718 1.0297997 1.0047675 0.9852087 1.0549716 1.0064205 0.9713897
1.0539815 1.0157781 0.9609525 1.0117521 0.9888705 0.96783656 1.0076482 0.9789258
1.0097471 1.0120803 0.9737714 1.0390713 1.0365908 1.0036061 0.98722994 1.0409002
1.0177745 0.98631746 0.9860329 0.9962746 0.97784287 0.97764313 0.9973582 1.0086529
0.97929955 0.9984304 1.0187193 0.9911974 0.9453751 1.0658921 0.9828473 1.0053248
1.0061508 0.97665554 1.0102704 1.0022556 1.0227516 0.98594034 0.99740124 1.0144922
1.0125177 0.9930611 0.99107295 0.9780488 0.9845512 1.0095246 1.0311043 0.9579885
00000000: 32bb 7d3f 35ac 7a3f 2ce4 843f 273f 813f
00000010: 409e 783f ca30 7a3f 7175 7c3f 4986 873f
00000020: 611e 7a3f be63 853f b656 873f 1662 7f3f
00000030: 0dcd 823f 1f4c 813f 89e4 7b3f f39a 853f
00000040: ada3 813f 290b 793f e7ff 7d3f 02d6 7b3f
00000050: 2ce4 743f 1c67 803f 7000 823f 8279 7f3f
00000060: 7c28 783f b02d 823f 4e24 813f 03ab 783f
00000070: b4c5 7f3f f7b0 743f 6114 753f c151 773f
00000080: 0e59 833f 312e 7a3f 23ae 803f 11c5 783f
00000090: 1aed 773f 1a22 7c3f ba35 7f3f c8c4 7d3f
000000a0: 8721 7c3f 0517 6d3f fb00 853f 403b 873f
000000b0: 2fff 823f cecd 7e3f c18d 853f 51db 823f
000000c0: 98bc 803f ab8b 743f 6412 783f 5613 7a3f
000000d0: 4b47 7f3f 9525 823f 8b69 7b3f ec08 7d3f
000000e0: cf6b 7c3f e4e2 783f 4e77 833f 8360 7f3f
000000f0: 02f9 833f df1b 7f3f 4dfd 7c3f 9145 823f
00000100: 3757 763f 83c7 813f bc09 7f3f 181d 8b3f
00000110: 6f0d 803f 93e9 863f 4d31 7c3f b8ee 7e3f
00000120: 1962 803f ac1d 813f 7ad0 833f 399c 803f
00000130: a336 7c3f 4f09 873f 63d2 803f ffac 783f
00000140: dee8 863f 0405 823f fc00 763f 1881 813f
00000150: 9e26 7d3f 23c4 773f 9efa 803f e29a 7a3f
00000160: 653f 813f d98b 813f 1549 793f 4a00 853f
00000170: 02af 843f 2a76 803f 1abb 7c3f 383c 853f
00000180: 6f46 823f 4d7f 7c3f a76c 7c3f da0b 7f3f
00000190: e953 7a3f d246 7a3f de52 7f3f 8a1b 813f
000001a0: 60b3 7a3f 2299 7f3f 6565 823f 1dbf 7d3f
000001b0: 1a04 723f 276f 883f e19b 7b3f 7cae 803f
000001c0: 8dc9 803f 1906 7a3f 8a50 813f e949 803f
000001d0: 86e9 823f 9666 7c3f b055 7f3f e1da 813f
000001e0: 2e9a 813f 4139 7e3f f5b6 7d3f 6861 7a3f
000001f0: 8c0b 7c3f 1a38 813f 3afb 833f bc3e 753f

ensemble_blocks.0.1.bias f4 [128]
0.009649001 -0.0036318516 -0.021347793 0.06986863 -0.013002955 -0.02011312 0.017535767 0.029240472
0.009892664 0.047143977 0.0036576525 0.008902447 0.03893014 0.010410606 0.006256958 0.024773572
0.04224562 -0.020012174 -0.021552686 -0.002186105 -0.034210317 0.03355016 -0.0039605987 0.017889934
-0.06508121 -0.047290165 0.04086621 -0.009742592 0.007331826 -0.0290415 -0.0027583991 -0.0021966537
-0.009492911 -0.01568877 -0.011272946 -0.030581467 -0.05299094 -0.020861253 -0.011913122 -0.041914463
0.006105511 -0.018641068 0.03023194 0.08196985 -0.0032220953 -0.01092968 0.016904043 -0.024093688
-0.026250256 -0.017443119 -0.011841556 0.016072026 0.043574784 -0.026371004 -0.00022647611 0.007071318
0.028907817 0.00075286767 0.037373543 -0.08093157 -0.01680054 0.03741487 -0.020265782 0.004719684
-0.0665074 -0.02177601 0.0044855378 0.05091316 -0.010512712 0.020832255 -0.016728945 0.004947154
0.009768287 0.047698446 0.017889056 0.037745297 -0.06631331 -0.0038410472 -0.026281632 -0.06993591
-0.039250266 -0.035667397 -0.03817997 -0.0074597327 -0.02541328 -0.027325088 0.033767954 -0.006341456
-0.0049477434 -0.023944227 -0.040523477 0.023794184 0.031159878 0.02005466 -0.025625085 -0.012488259
0.034204505 0.032284647 0.032582916 -0.016784145 -0.026619313 -0.04188475 -0.0069324104 0.0030108797
-0.025990928 0.0029492318 0.04485416 0.0038193502 -0.038946375 0.025050795 0.0016014923 0.0028810636
-0.0028667198 -0.00083635416 0.013262237 0.022769274 -0.027540416 -0.031036813 -0.03009975 0.056653004
-0.019115975 -0.011583483 -0.00729492 -0.023380267 -0.019788591 -0.048319843 0.003427804 -0.043285735
00000000: d816 1e3c 5c04 6ebb 91e1 aebc 4917 8f3d
00000010: 590a 55bc 45c4 a4bc 2ba7 8f3c b789 ef3c
00000020: d714 223c 0b1a 413d 3ab5 6f3b 92db 113c
00000030: 3675 1f3d 3f91 2a3c 2b07 cd3b f2f1 ca3c
00000040: be09 2d3d 92f0 a3bc 428f b0bc c144 0fbb
00000050: 1e20 0cbd e46b 093d e9c7 81bb e98d 923c
00000060: 4c49 85bd 55b3 41bd 5463 273d 659f 1fbc
00000070: d03f f03b 71e8 edbc 42c6 34bb bcf5 0fbb
00000080: 2888 1bbc bc85 80bc 2ab2 38bc fc85 fabc
00000090: 070d 59bd 38e5 aabc 412f 43bc 80ae 2bbd
000000a0: bd10 c83b 27b5 98bc f9a8 f73c cfdf a73d
000000b0: ca29 53bb 6712 33bc 597a 8a3c 2060 c5bc
000000c0: c70a d7bc dfe4 8ebc 1603 42bc 7ba9 833c
000000d0: 797b 323d 0108 d8bc 387a 6db9 84b6 e73b
000000e0: 16d0 ec3c 185c 453a 0015 193d 73bf a5bd
000000f0: 49a1 89bc 5640 193d 6d04 a6bc 94a7 9a3b
00000100: 0835 88bd 9a63 b2bc 6bfb 923b 518a 503d
00000110: 833d 2cbc 68a8 aa3c 240b 89bc bc1b a23b
00000120: 2a0b 203c 725f 433d 128c 923c d09a 1a3d
00000130: 46cf 87bd 14ba 7bbb 944c d7bc 8f3a 8fbd
00000140: e3c4 20bd fa17 12bd 9a62 1cbd c670 f4bb
00000150: 832f d0bc ddd8 dfbc 4450 0a3d fdcb cfbb
00000160: ae20 a2bb af26 c4bc f2fb 25bd 05ec c23c
00000170: 0043 ff3c ac49 a43c b3eb d1bc 8e9b 4cbc
00000180: 061a 0c3d e83c 043d aa75 053d e77e 89bc
00000190: bf10 dabc 588f 2bbd 4629 e3bb 2e52 453b
000001a0: edea d4bc e647 413b ffb8 373d 104e 7a3b
000001b0: 3c86 1fbd 5337 cd3c 2ae9 d13a 3ad0 3c3b
000001c0: 94df 3bbb c73e 5bba db49 593c a186 ba3c
000001d0: 709c e1bc ea40 febc c093 f6bc fb0c 683d
000001e0: 1b99 9cbc a6c8 3dbc 390a efbb f987 bfbc
000001f0: af1b a2bc 07eb 45bd 02a5 603b 624c 31bd

ensemble_blocks.0.1.running_mean f4 [128]
-0.1602964 -0.113922626 0.12884088 -0.007027455 -0.13217795 -0.052155387 0.004024026 0.115454175
-0.05240117 -0.11737731 -0.07816837 -0.0146175055 -0.14398031 0.037145033 0.14697546 0.049374186
0.10784285 0.06846848 0.13061574 -0.11889609 -0.1391423 -0.113143906 0.14567652 -0.1359971
0.0072276406 0.12869614 0.09409202 0.11376539 0.024561385 -0.080814615 -0.061660267 0.027406042
-0.09983891 0.08390782 -0.016865464 -0.023854837 -0.052358877 0.040223595 -0.014256848 -0.032230727
-0.14751162 0.06871299 0.1511351 -0.045014605 -0.13742192 -0.08277771 0.11685394 0.011421972
-0.08613083 0.09221031 -0.15313843 -0.03432512 -0.060640354 0.026738435 0.087717846 -0.096208304
0.017369723 0.052475177 0.07950049 0.08452399 0.11565781 0.021931902 -0.039840426 0.05373164
0.016584776 -0.001655853 0.09857607 0.023165626 0.15890627 -0.0846221 -0.0085148215 -0.057850048
-0.07469625 -0.06511254 -0.014667927 -0.056859925 -0.1014602 0.14715435 -0.05431322 0.14253804
0.024392858 0.13015643 0.03299754 -0.15297689 0.003966108 0.09674974 0.04890987 -0.07534349
0.08677913 -0.026411043 -0.13146748 -0.10878 -0.016157057 -0.123033695 0.03527675 -0.12344597
0.12182231 -0.05443804 0.07186037 -0.06849745 0.04126763 -0.022335248 -0.14330445 0.13295986
0.09754324 -0.05251671 -0.015667565 0.069716126 -0.118886285 0.08433377 -0.10075715 -0.0148656415
0.04299987 -0.12810002 -0.03334957 -0.08436395 -0.12699337 0.013450039 -0.048772898 -0.09599534
0.09300366 0.15711674 0.04670955 -0.0072245514 -0.13877302 -0.14371988 0.10263983 -0.031841442
00000000: bd24 24be 4450 e9bd ddee 033e 9146 e6bb
00000010: a859 07be e3a0 55bd fadb 833b 3d73 ec3d
00000020: 9ca2 56bd 8463 f0bd bd16 a0bd 437e 6fbc
00000030: 936f 13be 6425 183d bc80 163e 963c 4a3d
00000040: b6dc dc3d 3439 8c3d 22c0 053e cb7f f3bd
00000050: 527b 0ebe feb7 e7bd 3a2c 153e d342 0bbe
00000060: d8d5 ec3b ecc8 033e 51b3 c03d d4fd e83d
00000070: f534 c93c 2282 a5bd 7a8f 7cbd a382 e03c
00000080: 5878 ccbd ddd7 ab3d 7129 8abc 386b c3bc
00000090: 4376 56bd 7fc1 243d 8e95 69bc 5e04 04bd
000000a0: 490d 17be 65b9 8c3d 29c3 1a3e 3c61 38bd
000000b0: 55b8 0cbe 5c87 a9bd 1e51 ef3d 3923 3b3c
000000c0: 5c65 b0bd c2d8 bc3d 52d0 1cbe 7f98 0cbd
000000d0: 0562 78bd 900a db3c 6aa5 b33d dc08 c5bd
000000e0: f34a 8e3c 36f0 563d 27d1 a23d ea1a ad3d
000000f0: 00de ec3d 88aa b33c b72f 23bd b515 5c3d
00000100: ccdc 873c 3509 d9ba 40e2 c93d d7c5 bd3c
00000110: 53b8 223e 5a4e adbd c081 0bbc 2cf4 6cbd
00000120: 59fa 98bd b959 85bd bf51 70bc f4e5 68bd
00000130: 5eca cfbd a1af 163e 8a77 5ebd 7ef5 113e
00000140: 88d3 c73c ba47 053e 6e28 073d f9a5 1cbe
00000150: 20f6 813b ba24 c63d b755 483d b04d 9abd
00000160: 42b9 b13d f95b d8bc 699f 06be 0cc8 debd
00000170: ce5b 84bc 17f9 fbbd 5a7e 103d 3ed1 fcbd
00000180: fa7d f93d 6cfa 5ebd 882b 933d 6448 8cbd
00000190: 3f08 293d 69f8 b6bc 67be 12be a126 083e
000001a0: c0c4 c73d c31b 57bd 4459 80bc 54c7 8e3d
000001b0: a77a f3bd 2fb7 ac3d c459 cebd 058f 73bc
000001c0: a220 303d a72c 03be 8f99 08bd 02c7 acbd
000001d0: 8d0a 02be 8d5d 5c3c 17c6 47bd 3499 c4bd
000001e0: b478 be3d 36e3 203e 8352 3f3d eebb ecbb
000001f0: 841a 0ebe 4e2b 13be d534 d23d 2c6c 02bd

ensemble_blocks.0.1.running_var f4 [128]
0.65641487 0.36842427 0.20930347 0.23504083 0.35135904 0.3091156 0.41878006 0.26972154
0.24845216 0.3662336 0.18655092 0.28308833 0.19111486 0.41858634 0.5421909 0.24338803
0.38281038 0.31542188 0.21994218 0.2835031 0.29394573 0.41984147 0.44974852 0.27212423
0.3598378 0.294821 0.19477175 0.15936339 0.30079958 0.48665068 0.33306554 0.26787564
0.45339352 0.2730571 0.3617245 0.3000772 0.29575512 0.297861 0.27543834 0.35468528
0.38378817 0.27681124 0.40493983 0.23979338 0.35410926 0.25184155 0.36144993 0.31498283
0.31198996 0.3581927 0.60635173 0.37871388 0.23289093 0.34863663 0.21741676 0.3957913
0.47919783 0.49251962 0.3279622 0.43901464 0.55215436 0.3646709 0.246279 0.21827604
0.24073867 0.44640502 0.2784462 0.2969862 0.22758423 0.32257658 0.32485634 0.31802684
0.22123596 0.20359784 0.34686172 0.3899814 0.26930374 0.53926444 0.2877705 0.32280603
0.17281131 0.2606853 0.3256531 0.23503539 0.4000233 0.4859828 0.28601456 0.4384617
0.3095922 0.53447616 0.3973554 0.3018216 0.2541051 0.2383805 0.38796285 0.32465824
0.24421689 0.3317484 0.2867832 0.39806908 0.35016927 0.2743806 0.28156066 0.28442198
0.29463133 0.36920813 0.39926985 0.34443158 0.37446716 0.28420347 0.38361606 0.24524187
0.3239689 0.4986045 0.4293859 0.25421578 0.36764473 0.6151955 0.43809083 0.22010857
0.25748637 0.2517677 0.41387728 0.24688014 0.24185316 0.37354672 0.32735544 0.2139212
00000000: ce0a 283f 1ba2 bc3e a653 563e 8bae 703e
00000010: 55e5 b33e 6644 9e3e 576a d63e f118 8a3e
00000020: 3e6a 7e3e f882 bb3e 3407 3f3e f4f0 903e
00000030: 9db3 433e f350 d63e 06cd 0a3f b63a 793e
00000040: b9ff c33e fa7e a13e 8638 613e 5127 913e
00000050: 0e80 963e 76f5 d63e 7045 e63e de53 8b3e
00000060: a93c b83e c7f2 963e 3f72 473e 2830 233e
00000070: 6702 9a3e 472a f93e 9187 aa3e ff26 893e
00000080: 3223 e83e 24ce 8b3e f433 b93e b8a3 993e
00000090: 376d 973e 3d81 983e 4106 8d3e 4f99 b53e
000000a0: e27f c43e 34ba 8d3e 4654 cf3e 658c 753e
000000b0: cf4d b53e 60f1 803e f70f b93e 6e45 a13e
000000c0: 26bd 9f3e 0965 b73e de39 1b3f c9e6 c13e
000000d0: f67a 6e3e 8080 b23e 80a2 5e3e 28a5 ca3e
000000e0: 6b59 f53e 882b fc3e a9ea a73e 87c6 e03e
000000f0: fd59 0d3f 25b6 ba3e 9030 7c3e c183 5f3e
00000100: 3384 763e 338f e43e 8090 8e3e 930e 983e
00000110: d70b 693e c228 a53e 9253 a63e 6ad4 a23e
00000120: ae8b 623e f47b 503e dc97 b13e a4ab c73e
00000130: 2ee2 893e 3c0d 0a3f a856 933e d546 a53e
00000140: 73f5 303e 8b78 853e 01bc a63e 1ead 703e
00000150: dbcf cc3e bdd2 f83e 8070 923e 0d7e e03e
00000160: de82 9e3e 6ed3 083f 2b72 cb3e 5c88 9a3e
00000170: 101a 823e 051a 743e 11a3 c63e 9b39 a63e
00000180: fe13 7a3e edda a93e 3fd5 923e b6cf cb3e
00000190: 6349 b33e 9d7b 8c3e b828 903e c29f 913e
000001a0: ebd9 963e d908 bd3e 196d cc3e 5659 b03e
000001b0: 29ba bf3e 1e83 913e 5369 c43e af20 7b3e
000001c0: 40df a53e 1749 ff3e 78d8 db3e 9228 823e
000001d0: ee3b bc3e 747d 1d3f 714d e03e 2464 613e
000001e0: 41d5 833e b2e7 803e b9e7 d33e 26ce 7c3e
000001f0: 5ba8 773e 8441 bf3e 229b a73e 290e 5b3e

ensemble_blocks.0.4.weight f4 [128, 128]
-0.008059525 0.047732115 -0.0052269497 -0.0683267 0.09367 0.04633237 0.019296452 -0.0029711518
0.039368823 -0.0047102273 -0.01654327 -0.076461114 -0.025958993 -0.05156958 0.021422736 -0.06398003
0.06617791 -0.005656716 0.03137307 0.013760508 0.054910123 0.03550651 0.03441784 -0.009437252
0.07502651 0.08771021 -0.030501349 -0.05610585 0.043596957 -0.0063416976 0.07936802 -0.014113002
-0.0077911974 -0.0729567 -0.057991277 -0.012413484 0.012926258 -0.0996968 0.054949474 0.061187796
0.0070922305 -0.0061852355 -0.013866831 0.05625485 -0.0016314167 -0.116991706 -0.01818997 -0.050279226
-0.017764207 -0.035250105 -0.06930529 -0.0074248672 -0.025278334 -0.0073079774 -0.009189471 -0.024594259
0.051963873 -0.065247126 0.062657505 -0.012810723 -0.0053198785 -0.05208759 0.055183128 0.00780139
-0.053468682 0.07877719 -0.02480282 0.118907794 -0.046310607 0.058827847 0.06242175 -0.02726687
0.051936734 -0.0028668782 -0.010422037 -0.054486156 0.0075247143 0.120299414 0.0199811 -0.053157784
-0.087477975 -0.029249359 0.086611025 0.0031684546 0.068759 -0.045194667 0.110795796 -0.102150396
0.044575807 0.070105836 -0.03086751 -0.030170226 0.0844106 0.059805468 0.067740254 -0.013663784
0.076522864 -0.036419354 0.00510409 0.0022064613 -0.011011129 -0.07354997 -0.07166038 0.08139918
-0.04930838 -0.11058492 -0.069742806 -0.11019358 -0.08184418 0.07621468 0.06832176 -0.017621428
-0.029064508 0.05918383 0.0564558 -0.08555705 0.057480134 -0.09871618 -0.020455044 -0.030481879
-0.08447014 0.00818455 -0.07406968 -0.022259723 0.042306412 0.079591095 0.020447262 0.07248336
-0.05353063 -0.06422436 0.09735677 0.017485995 0.016803186 0.013029432 0.058646295 0.05857277
0.0062873065 0.02720946 -0.046231836 -0.055994038 0.036492735 -0.01388835 0.04014616 -0.050329022
0.0142570045 -0.058231894 0.08828389 0.01542879 -0.02830635 0.041358005 0.019225953 -0.0010666444
0.039236963 -0.040383395 -0.028691405 0.04136916 0.0024775886 0.014437166 -0.013392076 0.012900863
0.08195768 0.042692017 -0.069847986 -0.049754683 -0.03663977 -0.02187972 0.013575504 0.0026867776
-0.10174724 -0.034670383 0.022422843 0.1110742 0.02508082 -0.033480577 -0.005843893 0.053014822
-0.054153286 0.04109803 0.0139212245 -0.08363134 -0.058926307 0.064504765 0.06752856 0.07632776
0.06482249 0.008302999 0.073612705 -0.07807185 -0.068153575 -0.06618123 0.010623485 0.01068324
-0.100076154 0.00901668 -0.029322594 0.05829948 0.03643144 0.0826981 0.045601368 0.046192463
-0.061165635 0.045240063 0.048752252 -0.10955691 -0.07168677 0.10935945 0.017010128 0.003386119
0.07864418 -0.042920496 0.056791537 0.013542875 -0.016327605 -0.10539638 0.115460604 -0.0814284
-0.046847 0.037873898 0.042768013 -0.11040525 0.1118983 0.03472674 0.011449453 0.039653897
0.083915085 0.00053092424 -0.039823987 -0.06633622 0.0051649455 -0.0622448 -0.0075028343 -0.055322826
-0.057536576 -0.01904527 0.053869125 -0.06250108 0.003400724 -0.04947262 0.03393878 0.07154558
0.009940936 -0.07599439 -0.058620255 -0.08804741 -0.07452526 -0.029477812 0.009122982 -0.024180202
0.0074585723 0.03166632 -0.023165863 -0.00395821 0.0021876278 -0.057378177 -0.011298963 -0.047229283
00000000: 190c 04bc c082 433d d546 abbb deee 8bbd
00000010: 0fd6 bf3d 03c7 3d3d 9813 9e3c a8b7 42bb
00000020: 3441 213d 4058 9abb c085 87bc a597 9cbd
00000030: f4a7 d4bc a03a 53bd bc7e af3c f607 83bd
00000040: 4988 873d f95b b9bb 0c81 003d c173 613c
00000050: 70e9 603d 466f 113d b9f9 0c3d b49e 1abc
00000060: 80a7 993d 69a1 b33d f7dd f9bc 3fcf 65bd
00000070: b992 323d 04ce cfbb b38b a23d 393a 67bc
00000080: 4d4d ffbb 536a 95bd 4388 6dbd ed61 4bbc
00000090: a8c8 533c d62d ccbd b312 613d 0ea0 7a3d
000000a0: f165 e83b 84ad cabb b431 63bc 7c6b 663d
000000b0: 43d5 d5ba 5999 efbd 2203 95bc 97f1 4dbd
000000c0: 3e86 91bc 6a62 10bd efef 8dbd 4d4c f3bb
000000d0: 8214 cfbc c277 efbb 6f8f 16bc e679 c9bc
000000e0: 12d8 543d 49a0 85bd 9452 803d 11e4 51bc
000000f0: 6052 aebb cc59 55bd b407 623d cda2 ff3b
00000100: fa01 5bbd ef55 a13d 492f cbbc ee85 f33d
00000110: 31b0 3dbd 78f5 703d f3ad 7f3d c55e dfbc
00000120: 9dbb 543d 3ce2 3bbb 31c1 2abc e02c 5fbd
00000130: e191 f63b 8a5f f63d 67af a33c fabb 59bd
00000140: a727 b3bd 5a9c efbc 1f61 b13d d9a5 4f3b
00000150: 85d1 8c3d 0b1e 39bd e8e8 e23d 3a34 d1bd
00000160: 1f95 363d a693 8f3d dcdd fcbc 8d27 f7bc
00000170: 77df ac3d 94f6 743d 67bb 8a3d 10de 5fbc
00000180: 05b8 9c3d 762c 15bd 3640 a73b 479a 103b
00000190: 0668 34bc 5ea1 96bd adc2 92bd 9db4 a63d
000001a0: 95f7 49bd 597a e2bd 51d5 8ebd 2cad e1bd
000001b0: ec9d a7bd 7116 9c3d 47ec 8b3d d05a 90bc
000001c0: b118 eebc be6a 723d 323e 673d 8938 afbd
000001d0: 4a70 6b3d b52b cabd 5691 a7bc 22b5 f9bc
000001e0: aefe acbd 7e18 063c d8b1 97bd 065a b6bc
000001f0: 7d49 2d3d a800 a33d 0481 a73c 2872 943d
00000200: ef42 5bbd 1088 83bd fc62 c73d ca3e 8f3c
00000210: d6a6 893c 6679 553c 1937 703d 00ea 6f3d
00000220: c005 ce3b 60e6 de3c 985d 3dbd 015a 65bd
00000230: 6879 153d f68b 63bc 4d70 243d ce25 4ebd
00000240: 3696 693c 9184 6ebd 2fce b43d 09c9 7c3c
00000250: b8e2 e7bc 0367 293d bf7f 9d3c a6ce 8bba
00000260: f0b6 203d 0f69 25bd 3d0a ebbc b572 293d
00000270: 0a5f 223b dd89 6c3c 706a 5bbc 245e 533c
00000280: 6ed9 a73d d3dd 2e3d 760c 8fbd 91cb 4bbd
00000290: 9513 16bd 193d b3bc ca6b 5e3c a614 303b
000002a0: db60 d0bd 8802 0ebd 1cb0 b73c df7a e33d
000002b0: 4b76 cd3c ee22 09bd 217e bfbb 1226 593d
000002c0: d6cf 5dbd 6856 283d d915 643c e846 abbd
000002d0: b65c 71bd 131b 843d 6a4c 8a3d bb51 9c3d
000002e0: a7c1 843d 4d09 083c 42c2 963d 22e4 9fbd
000002f0: 1a94 8bbd 068a 87bd 200e 2e3c c208 2f3c
00000300: baf4 ccbd b2ba 133c f035 f0bc 6fcb 6e3d
00000310: 2239 153d 9f5d a93d 80c8 3a3d 4f34 3d3d
00000320: d188 7abd a54d 393d 71b0 473d 605f e0bd
00000330: 83d0 92bd d9f7 df3d d358 8b3c a6e9 5d3b
00000340: 3310 a13d 67cd 2fbd 3e9e 683d efe2 5d3c
00000350: 78c1 85bc 0fda d7bd 9c76 ec3d efc3 a6bd
00000360: a4e2 3fbd a921 1b3d 832d 2f3d 261c e2bd
00000370: f02a e53d a03d 0e3d 7d96 3b3c 206c 223d
00000380: acdb ab3d b92d 0b3a 7a1e 23bd 49db 87bd
00000390: b43e a93b 67f4 7ebd 56da f5bb 309a 62bd
000003a0: 79ab 6bbd d304 9cbc dfa5 5c3d 9100 80bd
000003b0: aede 5e3b cda3 4abd 6403 0b3d 7d86 923d
000003c0: 4fdf 223c f2a2 9bbd cb1b 70bd 3352 b4bd
000003d0: b3a0 98bd 747b f1bc 8f78 153c 8f15 c6bc
000003e0: 0a67 f43b 8bb4 013d 56c6 bdbc dfb3 81bb
000003f0: 4e5e 0f3b 6105 6bbd 491f 39bc 7e73 41bd

ensemble_blocks.0.4.bias f4 [128]
-0.058418937 0.062237177 0.07320987 -0.027776625 -0.015552402 -0.04124937 0.011367301 -0.059404638
-0.0027437215 0.0729697 -0.0719659 -0.019019848 0.059906453 -0.010334713 -0.050734516 0.047424182
-0.055585183 -0.0039607207 0.0022118364 -0.015998626 -0.01909273 -0.0076839295 0.05527721 -0.082864285
-0.047573064 -0.025394827 -0.056829862 0.030899579 0.07787974 -0.035295185 0.05330391 0.038739704
0.042596772 -0.052952215 0.0083302865 0.06180466 -0.051790603 0.076219946 -0.031844325 0.024469735
-0.012941877 -0.066528656 0.056414768 0.04795365 0.046954595 0.011828171 0.075740226 -0.0417306
0.048000008 0.07927866 0.040822394 0.06792992 0.021400409 0.02658219 -0.00090778293 0.06816978
-0.040823273 -0.0014037403 0.021134427 0.079438694 -0.023696022 -0.008040196 0.0064784386 -0.00909121
0.0117254285 0.0676773 -0.07505746 0.07748444 -0.08395626 0.086051136 -0.06142789 -0.05860985
-0.07867463 0.07957769 0.08017678 -0.032070283 0.064952984 -0.020216068 0.01713485 0.059293527
0.07296711 -0.0040124124 -0.04760777 -0.0770012 -0.047182925 0.088931665 0.05399568 -0.0697798
-0.0065468065 0.06657754 -0.063612856 0.056295723 -0.059328284 0.061584998 0.07501873 0.049999848
-6.4745027e-06 0.034624066 0.07806355 0.03513184 0.08405784 -0.072076336 0.050619274 0.0004223424
0.08002312 0.0055767917 -0.039480854 0.02190218 0.08402461 0.04625058 0.072604336 0.041176755
0.005602308 0.040607363 0.0780915 -0.045118555 0.051974945 0.035114773 -0.04070929 0.06310655
0.0045291246 -0.05508613 0.04662834 -0.08744026 -0.0081796 0.058499943 -0.0131973345 -0.0364722
00000000: b248 6fbd 69ec 7e3d 0eef 953d ce8b e3bc
00000010: 80cf 7ebc 19f5 28bd eb3d 3a3c 4752 73bd
00000020: 02d0 33bb 2371 953d dc62 93bd 83cf 9bbc
00000030: 7860 753d ee52 29bc ffce 4fbd dc3f 423d
00000040: 4aad 63bd efc8 81bb 75f4 103b 8d0f 83bc
00000050: 5b68 9cbc 79c9 fbbb 5b6a 623d c0b4 a9bd
00000060: f9db 42bd d008 d0bc 6ec6 68bd 1d21 fd3c
00000070: 6a7f 9f3d af91 10bd 3355 5a3d 86ad 1e3d
00000080: f479 2e3d 6ce4 58bd c17b 083c e226 7d3d
00000090: 6222 54bd 3419 9c3d 326f 02bd c174 c83c
000000a0: 2b0a 54bc 2d40 88bd 2c13 673d 0c6b 443d
000000b0: 7653 403d f2ca 413c b11d 9b3d b5ed 2abd
000000c0: a89b 443d da5c a23d 6235 273d d81e 8b3d
000000d0: e94f af3c e5c2 d93c 48f8 6dba 999c 8b3d
000000e0: 4e36 27bd b5fd b7ba 1b22 ad3c c1b0 a23d
000000f0: 291e c2bc 07bb 03bc 1549 d43b 4cf3 14bc
00000100: 031c 403c 659a 8a3d bab7 99bd 29b0 9e3d
00000110: 42f1 abbd 943b b03d d09b 7bbd e210 70bd
00000120: 2a20 a1bd a1f9 a23d b933 a43d 215c 03bd
00000130: 1206 853d 2b9c a5bc 635e 8c3c c5dd 723d
00000140: c86f 953d 8e7a 83bb 5d00 43bd ceb2 9dbd
00000150: e242 41bd ce21 b63d 932a 5d3d b6e8 8ebd
00000160: 9886 d6bb ce59 883d 7547 82bd 5896 663d
00000170: 3702 73bd 8d40 7c3d 6ba3 993d a4cc 4c3d
00000180: 8e3f d9b6 f7d1 0d3d c8df 9f3d 67e6 0f3d
00000190: 8426 ac3d c29c 93bd 2856 4f3d d66d dd39
000001a0: 29e3 a33d 85bd b63b adb6 21bd 336c b33c
000001b0: 1815 ac3d 4071 3d3d 95b1 943d f5a8 283d
000001c0: 9193 b73b e853 263d 70ee 9f3d 3cce 38bd
000001d0: aee3 543d 82d4 0f3d c9be 26bd 023e 813d
000001e0: 0d69 943b fea1 61bd 5cfd 3e3d e113 b3bd
000001f0: bb03 06bc a39d 6f3d a239 58bc e063 15bd

ensemble_blocks.0.5.weight f4 [128]
1.0951203 1.0915743 0.96704704 1.1345879 1.1024299 0.9654247 0.9663936 1.092954
1.112314 1.106965 0.97272563 0.96406597 1.1451273 1.1261947 1.1005458 1.1513879
1.1347942 1.1424692 0.97441024 0.9688686 1.1348821 1.094617 1.1298496 1.0966376
1.1687526 1.0728285 1.1731222 1.10643 0.9626534 1.1262192 1.100156 1.1335565
0.9753536 1.1677964 1.1050171 1.1143987 1.1452849 1.009399 0.96613824 1.1565044
0.96691924 0.96384764 0.96976656 1.0974371 1.1251273 1.1258523 1.1365184 0.9621615
1.0633394 0.98131263 1.0566474 1.109926 0.9634946 0.96399295 1.101345 0.96112543
1.0936793 0.96854943 0.9661015 1.1074592 1.086747 1.1007608 1.0210037 1.1178942
1.0341436 1.1219441 0.9635903 0.9628335 0.9644373 0.9622658 1.1074953 1.1031674
0.9656815 1.1140591 1.1078902 1.1604208 0.9697052 1.141367 0.99288386 1.1215045
1.1395403 1.1119789 1.1018039 1.1114118 1.0841397 1.1079152 1.1281242 1.1117129
0.9853845 0.97569734 1.0978812 1.1444235 1.0197012 1.092898 1.0912503 1.1077663
0.9631682 0.9591128 1.1297636 1.015512 0.9691394 0.9654158 1.0934923 0.9689003
1.028372 1.1074232 0.9580768 1.0913517 1.1253027 1.092906 1.1070421 0.9708375
1.106636 0.97198427 1.109101 0.9903739 1.1406468 1.1092271 0.974064 1.118471
0.9602745 0.9580925 0.9704718 0.97546226 0.96733874 0.9679127 0.97531706 0.96951157
00000000: e72c 8c3f b5b8 8b3f 6590 773f 2d3a 913f
00000010: 6c1c 8d3f 1326 773f 9265 773f ebe5 8b3f
00000020: 4e60 8e3f 07b1 8d3f 8c04 793f 07cd 763f
00000030: 8893 923f 2627 903f afde 8c3f ae60 933f
00000040: f040 913f 6e3c 923f f372 793f c607 783f
00000050: d143 913f 691c 8c3f e99e 903f 9f5e 8c3f
00000060: af99 953f 7252 893f de28 963f 809f 8d3f
00000070: 7470 763f f327 903f e9d1 8c3f 6118 913f
00000080: c6b0 793f 5a7a 953f 3371 8d3f 9ea4 8e3f
00000090: b298 923f fd33 813f d654 773f 5608 943f
000000a0: 0588 773f b8be 763f 9f42 783f d278 8c3f
000000b0: 2c04 903f ee1b 903f 6f79 913f 3750 763f
000000c0: 811b 883f 4e37 7b3f 3940 873f 0e12 8e3f
000000d0: 95a7 763f 3ec8 763f dff8 8c3f 510c 763f
000000e0: affd 8b3f dbf2 773f 6e52 773f 39c1 8d3f
000000f0: 871a 8b3f bbe5 8c3f 40b0 823f 2817 8f3f
00000100: d15e 843f dd9b 8f3f dbad 763f 427c 763f
00000110: 5de5 763f 0d57 763f 68c2 8d3f 9734 8d3f
00000120: e736 773f 7d99 8e3f 59cf 8d3f ab88 943f
00000130: 9a3e 783f 5018 923f a32d 7e3f 768d 8f3f
00000140: 75dc 913f 5355 8e3f e907 8d3f be42 8e3f
00000150: 17c5 8a3f 2ad0 8d3f 6066 903f 9c4c 8e3f
00000160: 2942 7c3f 4dc7 793f 5f87 8c3f 787c 923f
00000170: 9285 823f 15e4 8b3f 17ae 8b3f 49cb 8d3f
00000180: 3192 763f 6b88 753f 189c 903f 4cfc 813f
00000190: 8519 783f 7d25 773f 8ef7 8b3f da09 783f
000001a0: b2a1 833f 0bc0 8d3f 8544 753f 6ab1 8b3f
000001b0: eb09 903f 58e4 8b3f 8eb3 8d3f ce88 783f
000001c0: 40a6 8d3f f6d3 783f 06f7 8d3f 2589 7d3f
000001d0: b700 923f 27fb 8d3f 425c 793f 0f2a 8f3f
000001e0: 8dd4 753f 8d45 753f d770 783f e5b7 793f
000001f0: 83a3 773f 20c9 773f 61ae 793f e931 783f

ensemble_blocks.0.5.bias f4 [128]
0.08782641 0.087736286 -0.04488571 0.11176461 0.09307996 -0.044155058 -0.033418946 0.08933486
0.10105471 0.08985384 -0.039205894 -0.04228481 0.13307662 0.12865305 0.08649068 0.14119743
0.120011255 0.12198681 -0.024792688 -0.03222298 0.1301355 0.088898286 0.10877719 0.088240065
0.13047525 0.059545904 0.14624579 0.10056484 -0.04555359 0.11663035 0.089565754 0.10602365
-0.04441916 0.15136023 0.09584876 0.08797555 0.12989084 0.005854104 -0.04060647 0.13763307
-0.03704733 -0.043048564 -0.031506304 0.09224274 0.102136 0.11128126 0.10963869 -0.03967795
0.04940825 -0.017701833 0.02602705 0.10586866 -0.043804348 -0.04648882 0.09933252 -0.043697543
0.08415665 -0.031725924 -0.035088733 0.10587952 0.07305405 0.09110153 0.0013280219 0.1027408
0.027099386 0.09619272 -0.03994739 -0.042391144 -0.043726563 -0.040837523 0.103034526 0.09580127
-0.036345504 0.09677963 0.098178774 0.14158684 -0.033494055 0.13456616 -0.013641783 0.1121482
0.11739293 0.10576217 0.08794195 0.09943344 0.06491225 0.09848317 0.11420344 0.09653366
-0.014147829 -0.02546372 0.09406656 0.12643224 0.007194042 0.08466103 0.08407794 0.10148536
-0.03896639 -0.044892486 0.11912508 0.020937914 -0.043226276 -0.036716375 0.08713249 -0.02875731
0.012625293 0.093102194 -0.042943384 0.08510313 0.12993523 0.090852745 0.09734437 -0.03937117
0.09272494 -0.04203816 0.09954695 -0.014765701 0.13325034 0.10837388 -0.030467458 0.107992835
-0.044369545 -0.04419422 -0.0431163 -0.030172799 -0.038999185 -0.033607423 -0.042074367 -0.037470188
00000000: 55de b33d 15af b33d 14da 37bd d8e4 e43d
00000010: b5a0 be3d efdb 34bd 4ee2 08bd 32f5 b63d
00000020: c6f5 ce3d 4a05 b83d 5c96 20bd d632 2dbd
00000030: 3d45 083e a0bd 033e 0722 b13d 0f96 103e
00000040: 76c8 f53d 38d4 f93d 091a cbbc 3efc 03bd
00000050: 3e42 053e 4e10 b63d 93c6 de3d 35b7 b43d
00000060: 4e9b 053e 68e6 733d 75c1 153e f0f4 cd3d
00000070: 6796 3abd e5db ee3d 406e b73d ed22 d93d
00000080: ddf0 35bd 2dfe 1a3e 5b4c c43d 862c b43d
00000090: 1b02 053e c9d3 bf3b f852 26bd afef 0c3e
000000a0: f1be 17bd b153 30bd c10c 01bd c3e9 bc3d
000000b0: ae2c d13d 6ee7 e33d 408a e03d 5985 22bd
000000c0: 4e60 4a3d 6f03 91bc ae36 d53c abd1 d83d
000000d0: 306c 33bd 106b 3ebd d96e cb3d 32fc 32bd
000000e0: 525a ac3d 0bf3 01bd 34b9 0fbd 5dd7 d83d
000000f0: 5d9d 953d 7093 ba3d 0511 ae3a c569 d23d
00000100: 88ff dd3c b000 c53d e09f 23bd 56a2 2dbd
00000110: a01a 33bd 3f45 27bd c403 d33d 7533 c43d
00000120: 06df 14bd 6634 c63d f411 c93d 24fc 103e
00000130: 1031 09bd b6cb 093e c981 5fbc f5ad e53d
00000140: b46b f03d d699 d83d e91a b43d c2a3 cb3d
00000150: b7f0 843d 8bb1 c93d 7ee3 e93d 71b3 c53d
00000160: 4ccc 67bc 4b99 d0bc f8a5 c03d 7477 013e
00000170: 00bc eb3b c362 ad3d 0e31 ac3d 8ed7 cf3d
00000180: 399b 1fbd 2fe1 37bd daf7 f33d fd85 ab3c
00000190: 090e 31bd e963 16bd 8572 b23d 7394 ebbc
000001a0: 51da 4e3c 5dac be3d 67e5 2fbd 8d4a ae3d
000001b0: be0d 053e 0111 ba3d 7c5c c73d aa43 21bd
000001c0: 93e6 bd3d 3530 2cbd 45df cb3d d7eb 71bc
000001d0: c772 083e 20f3 dd3d e496 f9bc 592b dd3d
000001e0: d7bc 35bd 0005 35bd b89a 30bd f22c f7bc
000001f0: 9cbd 1fbd f0a7 09bd 2c56 2cbd 577a 19bd

ensemble_blocks.0.5.running_mean f4 [128]
-0.055957343 0.036531065 0.20093627 -0.041931704 0.07228933 0.07601644 -0.32035527 -0.2878736
0.29750696 0.14203174 0.039895944 0.07230808 -0.015695898 -0.23267543 -0.03384636 -0.017504865
-0.22788137 -0.27990255 -0.067541085 -0.017796347 0.11213985 0.2489471 -0.0046260334 -0.19985034
0.074884646 -0.279655 0.056879003 -0.053461127 -0.006890378 0.38578668 0.26195458 0.23682857
-0.1173441 0.09455186 -0.16718543 -0.27290395 0.16803806 -0.06791082 -0.048274826 0.3060441
0.051416352 0.2666747 0.18291545 -0.046772346 0.072826676 0.07074824 0.2548617 -0.07300713
0.0986402 -0.0766591 -0.27370638 -0.0372645 -0.114484385 -0.024206482 -0.051720478 0.14328597
-0.0028173304 0.11542621 -0.14046553 0.17617996 -0.14505322 -0.078707084 -0.035642117 0.187689
0.16449185 0.19075277 0.18912096 0.2217461 0.020594276 0.13668048 -0.20568125 -0.06860304
0.2167512 -0.034174383 0.3642178 0.012665874 -0.085990936 -0.18001361 -0.039263625 -0.00054233737
-0.084480375 0.19999929 -0.4951879 0.04374562 -0.43898258 0.24852875 0.08998867 0.087327905
0.1360041 -0.2965626 -0.30834383 0.18530272 -0.029074857 0.14222354 0.09964697 -0.024584107
0.17444746 0.27353016 -0.12255565 -0.14713214 0.32733503 -0.13888055 0.0051324107 -0.23957962
0.36997387 0.15409195 0.21772681 0.16217504 -0.17087002 0.21636635 -0.20343935 0.02842213
0.28262123 -0.14074188 0.03235753 -0.08791282 0.30212972 -0.3028478 -0.15057583 0.022442447
-0.008395769 -0.13528919 0.07686778 -0.345563 -0.105970725 0.31421816 0.02426055 -0.038667154
00000000: 8733 65bd 99a1 153d 3dc2 4d3e 94c0 2bbd
00000010: 6e0c 943d 82ae 9b3d 9b05 a4be 2b64 93be
00000020: d552 983e c570 113e ee69 233d 4216 943d
00000030: af94 80bc 7842 6ebe 7ba2 0abd 5d66 8fbc
00000040: bc59 69be 634f 8fbe fb52 8abd a5c9 91bc
00000050: 94a9 e53d fdeb 7e3e fb95 97bb 91a5 4cbe
00000060: 1f5d 993d f12e 8fbe f5f9 683d 0efa 5abd
00000070: aec8 e1bb d585 c53e e91e 863e 3083 723e
00000080: 1a52 f0bd 68a4 c13d a832 2bbe 11ba 8bbe
00000090: 2b12 2c3e d414 8bbd d3bb 45bd d0b1 9c3e
000000a0: f499 523d 9689 883e 304e 3b3e 5c94 3fbd
000000b0: 2726 953d 74e4 903d 3c7d 823e c384 95bd
000000c0: e003 ca3d 72ff 9cbd 3e23 8cbe a9a2 18bd
000000d0: ca76 eabd ac4c c6bc dad8 53bd 8fb9 123e
000000e0: f6a2 38bb 9464 ec3d 32d6 0fbe 8568 343e
000000f0: d588 14be 2e31 a1bd 78fd 11bd 8c31 403e
00000100: 8d70 283e b254 433e eda8 413e 6911 633e
00000110: 54b5 a83c f8f5 0b3e 1b9e 52be c07f 8cbd
00000120: 07f4 5d3e 70fa 0bbd c17a ba3e 8784 4f3c
00000130: 041c b0bd 7d55 38be e5d2 20bd a52b 0eba
00000140: 0c04 adbd 9dcc 4c3e 4589 fdbe 9b2e 333d
00000150: 53c2 e0be 527e 7e3e fb4b b83d f9d8 b23d
00000160: a944 0b3e 0ed7 97be 3edf 9dbe ffbf 3d3e
00000170: 652e eebc 0ca3 113e b613 cc3d 9c64 c9bc
00000180: 5ba2 323e 250c 8c3e 75fe fabd cfa9 16be
00000190: 7598 a73e b436 0ebe c82d a83b 5c54 75be
000001a0: 376d bd3e 48ca 1d3e c7f3 5e3e 3711 263e
000001b0: 8df8 2ebe 248f 5d3e 6852 50be 87d5 e83c
000001c0: bbb3 903e a41e 10be 5489 043d a30b b4bd
000001d0: bfb0 9a3e de0e 9bbe 8d30 1abe 39d9 b73c
000001e0: 688e 09bc 4089 0abe db6c 9d3d a2ed b0be
000001f0: 2e07 d9bd 34e1 a03e 10be c63c 7361 1ebd
