backend/models/tabm_k4.pt (torch, 388927 bytes, 63 tensors)

embedding.embeddings.0.weight f4 [10, 4]
0	0xbef596df	-0.47966668
1	0xbf7e75b4	-0.9939835
2	0x3eef4518	0.46732402
3	0x3bb1cff7	0.0054264027
4	0xc004585a	-2.0678926
5	0xbe06efad	-0.13177367
6	0xbfb0095a	-1.3752854
7	0x3daa94a5	0.08329133
8	0xbee616ae	-0.44939178
9	0xbe523d8a	-0.20531288
10	0xbec959e0	-0.39326382
11	0x3f8d7452	1.1051123
12	0xbf135495	-0.57550937
13	0x400f6565	2.2405636
14	0xbfe3285d	-1.7746693
15	0xbf6380ae	-0.88868225
16	0x3eb76a25	0.3582317
17	0xbd6eaac9	-0.058268342
18	0x3f9f10c8	1.2426996
19	0xbe5f81e3	-0.21826892
20	0x3f28f39e	0.6599673
21	0x3f7e5af8	0.9935756
22	0x3f55e54b	0.83553
23	0xbef25d53	-0.47336826
24	0x3f39ab3a	0.72526896
25	0x3d8dea9d	0.069295146
26	0x3f25374f	0.6453752
27	0x3f9076fd	1.1286312
28	0x3f4a7640	0.79086685
29	0xbfdf7bfd	-1.7459713
30	0xbe32931d	-0.17438932
31	0x3ee904f4	0.4551159
32	0x3f0cc4e0	0.5498791
33	0xbefc674b	-0.49297556
34	0x3fd5c999	1.6702148
35	0x3e310dbe	0.17290398
36	0x3fabec27	1.3431443
37	0xbe45febd	-0.19335456
38	0x3fb26f44	1.3940206
39	0x3e91dc35	0.28488317

embedding.embeddings.1.weight f4 [3, 4]
0	0x3ca7f1c0	0.020501018
1	0xbffbf706	-1.968476
2	0xbfe95e83	-1.8231968
3	0x3e408203	0.18799596
4	0x3f0404da	0.515699
5	0xbf2948ab	-0.6612651
6	0x3f2dd6b0	0.6790571
7	0x3fa5a1f3	1.2940048
8	0xbf0a45d7	-0.5401282
9	0xbf78accb	-0.9713866
10	0x3f697d29	0.91206604
11	0xbe8ec6f1	-0.27886155

embedding.embeddings.2.weight f4 [2, 4]
0	0xbeab7095	-0.3348433
1	0xbf167c1d	-0.5878313
2	0xbfae648e	-1.3624437
3	0x3eb21cb7	0.34787533
4	0xbf9ad6f8	-1.2096853
5	0xbfa64049	-1.2988368
6	0x3e2aa82b	0.16665713
7	0xbf8fa77f	-1.1222991

embedding.embeddings.3.weight f4 [8, 4]
0	0x3e22782c	0.15866154
1	0x3f9fb111	1.2475911
2	0x3f7b2a3f	0.9811134
3	0x3ec7c2fa	0.39015943
4	0x3e690a9a	0.2275795
5	0x3f185493	0.5950405
6	0x3fab8457	1.3399762
7	0x3fd88130	1.6914425
8	0x3ea7d8fe	0.3278274
9	0x3f8ee380	1.1163177
10	0xbfe0a362	-1.754986
11	0x3fb80d52	1.4379065
12	0xbf840309	-1.0313426
13	0x3f2ef0e7	0.6833634
14	0x3fa24c6c	1.2679572
15	0x404428eb	3.0649974
16	0x3e586541	0.21132375
17	0x3e72b391	0.23701312
18	0xbf0e555a	-0.55598986
19	0xbfc60565	-1.5470396
20	0x3fbd957b	1.4811243
21	0xbe7d92da	-0.2476305
22	0xbfb669d8	-1.4251051
23	0xbf4b0345	-0.79301864
24	0x3d8094dd	0.062783934
25	0xbf7252e8	-0.94657755
26	0x3e5829c0	0.21109676
27	0x4004e2c4	2.0763407
28	0x3fb36603	1.4015507
29	0xbf9195ed	-1.1373879
30	0x3f547ca2	0.83002675
31	0x3eafc829	0.34332398

embedding.embeddings.4.weight f4 [13, 4]
0	0x3f145331	0.5793944
1	0xbf23eb3a	-0.640308
2	0xbed4162c	-0.41423166
3	0x3ef6d238	0.4820726
4	0xbfc9d3bc	-1.5767741
5	0xbe014843	-0.12625222
6	0x40018d88	2.0242634
7	0xbf0d56cd	-0.5521057
8	0x3f883c5a	1.0643418
9	0xbfc6a16b	-1.5518011
10	0xbf849ab3	-1.035971
11	0xbd103a40	-0.0352118
12	0x3ebb4d19	0.36582258
13	0xbfcc4c3a	-1.5960763
14	0xc01fa544	-2.494462
15	0x3f07a832	0.5299102
16	0xbeb0089e	-0.34381574
17	0x3fe70fd5	1.8051707
18	0x3f9f437f	1.2442473
19	0xbda5d9d7	-0.0809819
20	0x40030b5f	2.047569
21	0x3f11d747	0.5696911
22	0x3fd58d6a	1.6683781
23	0xbf667c8e	-0.90033805
24	0x3f441201	0.7658997
25	0x3e0a25c0	0.13490963
26	0xbf245259	-0.6418815
27	0x3ef42448	0.4768393
28	0xbd8dafa7	-0.06918269
29	0x3d838f18	0.06423777
30	0xbe843673	-0.2582279
31	0x3f606779	0.87657887
32	0x3fd429e7	1.6575288
33	0xbfb1f803	-1.3903812
34	0x3f3f26f8	0.74668837
35	0x3f3e6694	0.7437527
36	0xbf7d0c10	-0.9884653
37	0x3e8c213a	0.273691
38	0x3f1081ec	0.56448245
39	0xbfc3865a	-1.5275376
40	0xbfa98158	-1.3242598
41	0x3f870e5c	1.0551257
42	0xbee92e97	-0.45543358
43	0xbeb2ab62	-0.3489638
44	0xbe1db687	-0.1540166
45	0x3f46baa7	0.7762856
46	0x3f2f95d8	0.6858802
47	0x3ca4be54	0.020110287
48	0x3e8e91a9	0.27845505
49	0x3faaf066	1.3354614
50	0x3f9fd9e5	1.2488371
51	0xbe222b3d	-0.15836807

embedding.embeddings.5.weight f4 [9, 4]
0	0xbf9d4870	-1.2287731
1	0xbdbe00a3	-0.09277465
2	0xbff4fe6d	-1.9140145
3	0xc001ab9d	-2.0260994
4	0xbf4ed9f9	-0.8080135
5	0xc00ff521	-2.2493365
6	0x3ea510e9	0.32239464
7	0xbdd9494e	-0.10609685
8	0x3f703ce2	0.938429
9	0xbf05c37b	-0.52251405
10	0xbf0b4126	-0.54396284
11	0xbe1e4d17	-0.15459095
12	0xbfd4305d	-1.6577259
13	0xbd98ad80	-0.074549675
14	0xbfa70f55	-1.3051554
15	0xbfa45f3e	-1.2841566
16	0x3f25e0cc	0.6479614
17	0x3dbc54ba	0.09195848
18	0x3dd70f29	0.105009384
19	0xbebe140a	-0.37124664
20	0xbed5a411	-0.41726735
21	0x40107001	2.2568362
22	0x3f01a38e	0.5064019
23	0xc01d28ea	-2.4556222
24	0xbf39e9bd	-0.7262228
25	0xbf2b4dc2	-0.66915524
26	0x3f23c1de	0.6396769
27	0xbfc0c227	-1.505925
28	0xbdbe0919	-0.09279079
29	0xc00cc891	-2.1997416
30	0x401436ec	2.3158522
31	0xbd5d32c7	-0.054003503
32	0x3f570d31	0.84004503
33	0x3d8e27c8	0.069411814
34	0x3f862574	1.048018
35	0xbe035c57	-0.12828194

embedding.embeddings.6.weight f4 [20, 4]
0	0x3fc7c3f9	1.5606681
1	0x3f354fc6	0.7082485
2	0x3f56dac4	0.8392756
3	0x3f05ba92	0.5223781
4	0x3f5acc14	0.8546765
5	0xbeb7d537	-0.35904858
6	0xbfe08257	-1.7539777
7	0xbce7fe82	-0.028319601
8	0x3f8594a1	1.0435983
9	0x4001b780	2.026825
10	0x3f797692	0.9744655
11	0xbf98fc3b	-1.1951975
12	0xbe558871	-0.2085283
13	0xbfe0e0c0	-1.7568588
14	0x3fd2c6ef	1.646696
15	0xbf244dc1	-0.64181143
16	0xbca95665	-0.020671079
17	0x3d6cc6e9	0.057806883
18	0x3d196101	0.037446026
19	0x3f9b6b0a	1.2142041
20	0x3eb921ff	0.3615875
21	0xbf04fc33	-0.51947325
22	0xbdd5dad1	-0.104421265
23	0xbd89e18d	-0.067324735
24	0x3ffc2c7a	1.9701073
25	0x3f3190c9	0.6936155
26	0xbf9c9a55	-1.2234598
27	0xbe4877b6	-0.19576916
28	0xbf5221cd	-0.82082826
29	0x3f2f5935	0.68495494
30	0x3faef75b	1.3669237
31	0x3fa109d7	1.2581128
32	0x3f5aa895	0.85413486
33	0x3feae05e	1.8349721
34	0x3e274426	0.1633459
35	0x3f1b757a	0.6072613
36	0x3d227c8e	0.039669566
37	0x3f02645b	0.5093438
38	0xbfb978eb	-1.4490026
39	0x4015e0a6	2.3418365
40	0xbd9c1072	-0.07620324
41	0x3f3fa471	0.7486029
42	0x3c22b8c1	0.009931744
43	0x3f7b2c4c	0.98114467
44	0x3f872735	1.055884
45	0x3e62a5e4	0.22133595
46	0x3f468099	0.77539974
47	0xc0040bfc	-2.0632315
48	0xbea473eb	-0.32119688
49	0xbf7ade9a	-0.97995913
50	0x3f0f05b1	0.5586806
51	0x3f6b6ec9	0.9196592
52	0x3f20977f	0.62731165
53	0xc00f7ba5	-2.2419217
54	0x3ff92f1d	1.9467503
55	0x401028fc	2.2525015
56	0xbf9c9c65	-1.2235228
57	0x3f3ae4f9	0.73005635
58	0x3e48ca00	0.19608307
59	0x3e19e26b	0.15027778
60	0xbfb98443	-1.4493488
61	0x3d9dca7b	0.07704636
62	0x3fd1e89e	1.6399114
63	0x3f112121	0.56691176
64	0x3fc66441	1.5499345
65	0x3fa8d58a	1.3190167
66	0x3fa3d977	1.280074
67	0xbfa92f49	-1.3217555
68	0xbea9856c	-0.33109605
69	0x3fc8fbf5	1.5701891
70	0x4068cbfc	3.6374502
71	0xbd3f885a	-0.046760894
72	0xbeb796ea	-0.35857326
73	0x3f0a85c4	0.5411036
74	0xbd1be6a0	-0.038061738
75	0xbe310ca8	-0.17289984
76	0x3f3a12cd	0.7268494
77	0x3ebd91b3	0.37025222
78	0x3ca77434	0.020441152
79	0xbf20d1be	-0.6282004

bn_in.weight f4 [38]
0	0x3f795e4b	0.97409505
1	0x3f7bd179	0.98366505
2	0x3f80fd1b	1.0077242
3	0x3f7d73cf	0.99004835
4	0x3f6f37c4	0.93444467
5	0x3f6a2688	0.91465044
6	0x3f698224	0.91214204
7	0x3f74c131	0.95607287
8	0x3f6c958c	0.9241569
9	0x3f68d79a	0.9095398
10	0x3f6e835e	0.931692
11	0x3f7778b8	0.9666858
12	0x3f63225f	0.8872432
13	0x3f67f0aa	0.906016
14	0x3f6dd73d	0.9290655
15	0x3f6dc695	0.9288114
16	0x3f66f87f	0.90222925
17	0x3f6e0080	0.9296951
18	0x3f673c2c	0.9032619
19	0x3f6b9a12	0.9203197
20	0x3f657336	0.8962892
21	0x3f5fdcd1	0.87446314
22	0x3f718248	0.9433942
23	0x3f6b6735	0.91954356
24	0x3f71649d	0.9429415
25	0x3f77a980	0.9674301
26	0x3f712e06	0.9421085
27	0x3f745992	0.95449173
28	0x3f818ade	1.0120504
29	0x3f74022b	0.9531581
30	0x3f7228cf	0.9459352
31	0x3f6a2de0	0.9147625
32	0x3f74ca6e	0.95621383
33	0x3f72cb69	0.9484163
34	0x3f7aa782	0.97911847
35	0x3f83bfe0	1.0292931
36	0x3f93afd3	1.1538032
37	0x3f6c406d	0.92285806

bn_in.bias f4 [38]
0	0x3a8e29bd	0.0010846179
1	0x3b6976fd	0.00356239
2	0xbb0b418b	-0.0021248783
3	0xba5f8c94	-0.00085277227
4	0xb91b1d16	-0.00014792787
5	0xb9f488f5	-0.00046641348
6	0xbad5fc18	-0.001632574
7	0xb9319bfd	-0.00016938146
8	0xbad8ff46	-0.001655557
9	0x3a569354	0.0008185406
10	0xb9173bc5	-0.00014422748
11	0x39af9dd6	0.00033496198
12	0x38cf9209	9.89773e-05
13	0xb9e3f5fa	-0.0004348008
14	0xba6dc2af	-0.00090698426
15	0x3aad1c69	0.001320732
16	0x38bb030a	8.917421e-05
17	0x3a7a240c	0.00095421146
18	0xba373ee8	-0.000699027
19	0xb9d31cbb	-0.00040266462
20	0xb9ff19ac	-0.00048656517
21	0xb9742366	-0.0002328284
22	0x3990672d	0.00027542692
23	0x38c05150	9.170419e-05
24	0x3a958f2e	0.0011410469
25	0xb916ca4f	-0.0001438048
26	0xb96561e3	-0.00021875607
27	0xbaa87f48	-0.0012855316
28	0xbae4cc62	-0.001745593
29	0xba04f802	-0.00050723564
30	0xbabe1fb1	-0.0014505294
31	0xbadfa684	-0.0017063175
32	0xba086966	-0.0005203694
33	0x39607a56	0.00021407878
34	0xbab557c2	-0.0013835358
35	0x3adc1fa1	0.0016794094
36	0x3b1376b4	0.0022501172
37	0xb9dbef21	-0.000419491

bn_in.running_mean f4 [38]
0	0x3e7d1001	0.24713136
1	0xbe734992	-0.23758534
2	0x3e438f0e	0.1909754
3	0x3eb49a8f	0.3527417
4	0xbee87232	-0.45399624
5	0xbf8d54b7	-1.1041478
6	0x3f0a0f4d	0.539296
7	0xbe505b83	-0.20347409
8	0xbf0c10d0	-0.54713154
9	0xbf428c1b	-0.75995034
10	0xbf7db4a0	-0.99103737
11	0xbc202bea	-0.009776095
12	0x3e49001f	0.19628952
13	0x3f543a7b	0.82901734
14	0x3f169012	0.58813584
15	0x3fb457e1	1.4089319
16	0x3fbb8c24	1.4652143
17	0x3e5d550e	0.21614477
18	0x3f8646aa	1.0490315
19	0xbedd650e	-0.4324116
20	0xbf09b695	-0.53794223
21	0xbea0f8bf	-0.31439778
22	0xbf3cb6f8	-0.7371669
23	0xbf9ac636	-1.2091739
24	0x3f389219	0.7209793
25	0xbd04c36d	-0.032412935
26	0x3f4fec62	0.81220067
27	0xbde871d0	-0.11349833
28	0xbbd5a0cb	-0.006519412
29	0x3bc63c46	0.0060496656
30	0xbc4ed241	-0.012623371
31	0xbbac3cd0	-0.005256273
32	0xbbd813be	-0.0065941503
33	0xbc4ecae4	-0.012621615
34	0x3caf6746	0.02141155
35	0x3cb27903	0.021786219
36	0xbbb9c2c0	-0.005668968
37	0x3b0a67f0	0.002111908

bn_in.running_var f4 [38]
0	0x3f7f126d	0.9963749
1	0x3f8515d2	1.0397284
2	0x3f4f7d01	0.81050116
3	0x3ebb364d	0.36564866
4	0x3d338b40	0.04383397
5	0x3df0c809	0.11756904
6	0x3f5ffaa1	0.87491804
7	0x3d33c686	0.0438905
8	0x3e10f528	0.1415602
9	0x3dc05289	0.09390742
10	0x3edd3008	0.43200707
11	0x3ecbd096	0.39807576
12	0x3da03319	0.07822246
13	0x3def1f9d	0.11675952
14	0x3fc4f3d7	1.5386914
15	0x3ec4e163	0.38453206
16	0x3f4c05ec	0.79696536
17	0x3eb438b0	0.351995
18	0x3f55e445	0.83551437
19	0x3efd7a6c	0.49507463
20	0x3f606a52	0.8766223
21	0x3f7121ac	0.94192004
22	0x3fb0570b	1.3776563
23	0x3f4f35d7	0.8094153
24	0x3f33276a	0.69982016
25	0x3f9a9f17	1.20798
26	0x3f209cf3	0.62739486
27	0x401e4986	2.4732375
28	0x3f7719d2	0.96523774
29	0x3f85be63	1.0448726
30	0x3f789d20	0.97114754
31	0x3f7bc0df	0.9834117
32	0x3f747fc7	0.9550747
33	0x3f712d09	0.94209343
34	0x3f882132	1.063513
35	0x3f877090	1.0581226
36	0x3f654f23	0.8957388
37	0x3f825fef	1.0185527

ensemble_blocks.0.0.weight f4 [128, 38]
0	0xbe15540b	-0.14582841
1	0x3cb292fb	0.021798601
2	0xbd970809	-0.073745795
3	0x3e0615d0	0.13094258
4	0xbc0c49ea	-0.008562544
5	0xbaa5e5a4	-0.0012656939
6	0xbd69875b	-0.05701385
7	0xbd091616	-0.03346833
8	0x3e02b5b9	0.12764634
9	0x3e1cabd0	0.15299916
10	0xbe0eab48	-0.13932526
11	0x3ce0b622	0.027430598
12	0xbdc000f6	-0.09375183
13	0xbe182b36	-0.14860234
14	0xbdb8df0f	-0.0902692
15	0x3dac8890	0.08424485
16	0xbde6c0d1	-0.112672456
17	0x3e047ba3	0.12937789
18	0x3a938e5c	0.0011257636
19	0xbdadc3c2	-0.084846035
20	0x3d25a6d2	0.040442295
21	0xbdfe2cb5	-0.12410871
22	0x3de1032e	0.109869346
23	0xbd78a296	-0.06070193
24	0x3ddfa77d	0.10920618
25	0xbdf6cd73	-0.12050905
26	0x3de36ce7	0.11104756
27	0x3da2b6ed	0.079450466
28	0xbd5af126	-0.053452633
29	0x3a8bbf87	0.0010661938
30	0xbe2403d2	-0.16017082
31	0xbd72bf1b	-0.059264284
32	0xbe139e31	-0.14415814
33	0xbe1b4a86	-0.15165147
34	0xbde03f1d	-0.10949538
35	0xbd3e173c	-0.046408877
36	0xbe1540cf	-0.14575504
37	0xbbdd798e	-0.006758875
38	0x3d31b58d	0.04338603
39	0x3d114354	0.0354646
40	0xbc045d3e	-0.008078871
41	0xbdfa0721	-0.12208391
42	0x3d9c61ba	0.07635827
43	0x3de50fce	0.11184655
44	0xbd99b735	-0.07505647
45	0x3de05998	0.10954589
46	0x3e0d1494	0.13777381
47	0xbaa9018a	-0.0012894135
48	0xbdf5be5c	-0.11999199
49	0xbe21a5fb	-0.15785973
50	0xbc6e3c7f	-0.014540791
51	0x3de78ac4	0.11305764
52	0x3e063dd9	0.1310953
53	0x3cf6ea5e	0.030141052
54	0x3dc771e1	0.097385176
55	0xbc1d3e36	-0.009597352
56	0xbde90099	-0.11377067
57	0x3d36e44c	0.044651315
58	0xbd9d23ca	-0.07672842
59	0xbbbd3fb2	-0.0057754153
60	0x3ddace62	0.10683896
61	0x3df218cd	0.118211366
62	0x3d0959e1	0.03353298
63	0xbc9c1712	-0.01905397
64	0xbd7a5482	-0.06111575
65	0xbd7f52db	-0.062334877
66	0xbdc99230	-0.09842336
67	0x3c59867b	0.013276692
68	0xbe3cf8d6	-0.18454298
69	0x3db9c000	0.09069824
70	0x3d9d9715	0.07694832
71	0xbc2a86e7	-0.01040814
72	0x3c37cd74	0.011218417
73	0x3c3d8a45	0.011568611
74	0xbe855ce7	-0.2604744
75	0x3da51a12	0.08061613
76	0xbcb84c9f	-0.022497473
77	0x3c72a762	0.014810415
78	0x3caf8eb6	0.021430355
79	0x3e1956a1	0.14974453
80	0xbe00b3b6	-0.12568554
81	0xbcbc98fa	-0.023022164
82	0x3e0cf6cb	0.13766019
83	0x3d2026ef	0.03909963
84	0xba4784f6	-0.000761106
85	0x3df0506c	0.11734089
86	0x3d483c38	0.048885554
87	0xbd0a570b	-0.033774417
88	0xbd18e2fd	-0.037325848
89	0xbe15e22d	-0.1463706
90	0x3d416ad4	0.04722102
91	0xbcf33e73	-0.029692864
92	0xbc9c6262	-0.019089881
93	0xbd9b57e1	-0.07585121
94	0x3dc720a2	0.09723021
95	0x3ddf81de	0.10913442
96	0xbd2f76d6	-0.04283794
97	0x3de8a11a	0.11358853
98	0x3c1320f9	0.008980029
99	0xbdc45c5b	-0.09587928
100	0xbdd57ad0	-0.10423815
101	0x3da5e55f	0.0810039
102	0x3b171176	0.002305118
103	0xbd8fcd34	-0.07021561
104	0x3cec5d62	0.028853122
105	0x3d9b3650	0.07578719
106	0x3d3e1298	0.04640445
107	0xbe023cac	-0.12718457
108	0xbe0e14c6	-0.13875112
109	0xbd76f243	-0.060289633
110	0xbdbacd23	-0.09121158
111	0xbe0987e4	-0.13430744
112	0xbe688d4f	-0.22710155
113	0x3d9d7606	0.07688527
114	0x3dfcf6dc	0.12351772
115	0xbc3f4d2f	-0.011676117
116	0xbdbc725d	-0.092015006
117	0x3cae2b1c	0.02126079
118	0xbe191727	-0.14950238
119	0xbb85e54a	-0.0040861713
120	0xbd14c553	-0.036320996
121	0xbe091dec	-0.1339032
122	0xbd84f628	-0.06492263
123	0xbe2708fe	-0.16312024
124	0x3cccd7f6	0.025005322
125	0x3d9eb134	0.077486426
126	0x3dcb2fef	0.09921252
127	0x3ddda7f5	0.10823051
128	0x3ddb5801	0.10710145
129	0x3da06157	0.07831066
130	0xbc85fccb	-0.016355893
131	0x3dcb4600	0.09925461
132	0xbd9d7993	-0.07689204
133	0x3cf226f3	0.029559588
134	0x3cf8c68e	0.030368116
135	0x3d17e7c2	0.037086256
136	0x3cec7d15	0.028868238
137	0xbdf97de6	-0.12182216
138	0x3da282ca	0.07935102
139	0xbd9e3f5b	-0.07726928
140	0xbd9944ea	-0.074838474
141	0x3dec3b80	0.11534786
142	0x3db2ca12	0.08729948
143	0x3d0d75b3	0.034536075
144	0xbe10f8e8	-0.1415745
145	0x3d9e5cca	0.07732542
146	0x3c90e187	0.017685665
147	0xbbe6c894	-0.0070429537
148	0xbcef0bca	-0.029180426
149	0xbe1757ad	-0.1477954
150	0x3e1c6560	0.15273046
151	0xbd845616	-0.06461732
152	0x3c8bf7ae	0.017085876
153	0x3e0bfd19	0.13670768
154	0x3de87ab2	0.11351527
155	0x3cbadd19	0.022810506
156	0x3dede447	0.11615806
157	0x3e07df28	0.13268721
158	0x3d0a991f	0.033837434
159	0x3da1400c	0.07873544
160	0xbdb4d2c9	-0.088292666
161	0x3df7467c	0.12073991
162	0x3de05578	0.10953802
163	0x3dd338e0	0.103135824
164	0x3d0a7674	0.033804372
165	0x3db7605b	0.08953925
166	0xbb10ae91	-0.0022076706
167	0x3e1c26c8	0.15249169
168	0x3ccae477	0.024767144
169	0x3d8bddc6	0.06829409
170	0xbda4472b	-0.08021387
171	0xbc9e7e88	-0.019347444
172	0xbcf826fd	-0.030292029
173	0xbd551972	-0.05202622
174	0xbd6164e4	-0.055027857
175	0xbd54cb72	-0.051951833
176	0xbd0412e1	-0.032244567
177	0xbdb18e1f	-0.086696856
178	0xbda70143	-0.081545375
179	0x3e18bc17	0.149155
180	0xbde4d6a9	-0.11173756
181	0xbc9a9834	-0.018871404
182	0xbdacd2e7	-0.08438664
183	0x3e09c682	0.13454631
184	0xbd33b377	-0.043872323
185	0xbe16efb5	-0.14739878
186	0xbced47b5	-0.028964857
187	0x3d9d8bdd	0.076926924
188	0xbe88a8be	-0.2669124
189	0xbe229d93	-0.15880422
190	0x3dc46921	0.09590364
191	0xbdafdfb9	-0.085875936
192	0xbe1555c4	-0.14583498
193	0xbe2c4856	-0.16824469
194	0xbdb75b52	-0.08952965
195	0x3e115946	0.14194211
196	0x3dad3b46	0.08458571
197	0x3de6ccbd	0.112695195
198	0xbcee24b7	-0.029070241
199	0xbb9295b1	-0.004473411
200	0x3e0a0fe0	0.13482618
201	0x3d5bf730	0.053702533
202	0xbcf4ec3d	-0.029897803
203	0xbd0e6fdd	-0.03477465
204	0x3d619e56	0.05508264
205	0xbd531668	-0.05153504
206	0x3da393c9	0.07987172
207	0x3d2df724	0.04247202
208	0xbde9bd33	-0.1141304
209	0x3da66655	0.08124987
210	0xbdb02dde	-0.086024985
211	0x3d0884a5	0.033329625
212	0x3d8113d8	0.06302613
213	0x3e092b43	0.1339541
214	0xbd006786	-0.031348728
215	0x3c969261	0.018380346
216	0xbde87e23	-0.11352184
217	0x3da111ee	0.07864748
218	0x3d8995fc	0.067180604
219	0x3e15f6a9	0.14644875
220	0x3c756e87	0.014979965
221	0x3e086795	0.13320763
222	0x3d58c1fa	0.052919365
223	0x3cadde0a	0.02122404
224	0xbe07457e	-0.13210103
225	0xbe2d77b9	-0.16940202
226	0x3bd2497d	0.006417452
227	0xbe40c151	-0.18823744
228	0xbe2367a1	-0.159575
229	0xbc37a87f	-0.011209606
230	0xbdb02c48	-0.08602196
231	0xbe20c9ad	-0.15701933
232	0xbe32e4c2	-0.17470077
233	0xbdb7a23f	-0.08966493
234	0x3dbc791a	0.09202786
235	0xbd7ea236	-0.062166415
236	0x3e0def7d	0.13860889
237	0x3b11d537	0.002225233
238	0x3e147485	0.14497574
239	0xbcaca70c	-0.021075748
240	0xbc6fad04	-0.0146286525
241	0x3e05c3b3	0.13062935
242	0xbdf87337	-0.121313505
243	0xbd6c4ff5	-0.05769344
244	0x3dff1b69	0.124564
245	0xbd0ad8bf	-0.03389811
246	0x3bf666d2	0.0075195814
247	0xbc0603fa	-0.008179659
248	0xbc58e094	-0.013237137
249	0xbd958838	-0.07301372
250	0xbd019678	-0.03163764
251	0xbc50b240	-0.012737811
252	0xbd51820d	-0.051149417
253	0xbccaccd0	-0.024755865
254	0xbdfd6dcd	-0.123744585
255	0xbb6d3169	-0.003619278

ensemble_blocks.0.0.bias f4 [128]
0	0xbd196209	-0.03744701
1	0x3bdb2c08	0.0066885985
2	0xbdb88e02	-0.09011461
3	0xbcbdb04b	-0.023155352
4	0xbdb2da5f	-0.08733057
5	0xbba9e3e9	-0.0051846397
6	0x3c8762c9	0.016526597
7	0x3c99621e	0.018723544
8	0xbe17c13d	-0.14819808
9	0xbdda0a1d	-0.1064646
10	0x3e23760c	0.15963
11	0xbccb4946	-0.024815213
12	0x3c2e32d9	0.01063224
13	0x3d9129e5	0.07088069
14	0xbdf7a92a	-0.12092812
15	0x3e1c8bda	0.15287724
16	0x3dcaa2c4	0.09894326
17	0x3b087019	0.0020818769
18	0xbda620aa	-0.08111699
19	0x3e0c5448	0.13704026
20	0xbd55c156	-0.052186333
21	0x3a8ee968	0.0010903301
22	0xbc6fe2eb	-0.014641504
23	0xbd2dca48	-0.04242924
24	0x3d42227e	0.047396176
25	0xbde681ce	-0.11255227
26	0xbdaa28a5	-0.083085336
27	0x3dd9008b	0.10595807
28	0xbda62697	-0.08112829
29	0x3db8d09a	0.090241626
30	0x3c462689	0.012094148
31	0x3d6d26b9	0.057898257
32	0x3d01b709	0.031668697
33	0x3b9e52fd	0.0048316703
34	0xbd8c57fb	-0.068527184
35	0xbdc2b4e6	-0.0950716
36	0x3e0a7de8	0.13524592
37	0xbd99300b	-0.074798666
38	0x3d95b799	0.07310409
39	0x3dbd9ca7	0.09258395
40	0x3dacddd1	0.084407456
41	0xbd995aad	-0.07487998
42	0x3d464e93	0.048414778
43	0xbe1fdece	-0.15612337
44	0x3c48b83b	0.012250955
45	0xbd91a0d5	-0.071107544
46	0xbd846b45	-0.064657725
47	0xbdc83f80	-0.09777737
48	0xbdd5677c	-0.10420129
49	0xbd2e9609	-0.042623553
50	0xbd46cf2d	-0.048537422
51	0x3da71253	0.08157792
52	0x3e0d4d06	0.13798913
53	0xbd8ea37c	-0.06964776
54	0xbc033253	-0.008007604
55	0x3e01e144	0.12683588
56	0x3dcaf3ca	0.0990978
57	0xbddff7e5	-0.10935954
58	0x3e1e05d6	0.15431914
59	0x3ddefc91	0.10888017
60	0xbd3c95fd	-0.046041477
61	0x3dbc248e	0.0918666
62	0xbcc4f246	-0.024041306
63	0x3e24d195	0.16095574
64	0xbe0e032d	-0.13868399
65	0x3dbea9ad	0.09309707
66	0x3e002f50	0.12518048
67	0xbd3b1db0	-0.04568261
68	0x3dd0db89	0.10198123
69	0xbdb81d31	-0.08989943
70	0x3cdb6ab4	0.026784278
71	0x3d67ac43	0.056560766
72	0xbdac14b1	-0.08402384
73	0x3d6840ad	0.056702305
74	0xbd1fb4d9	-0.03899083
75	0xbceddc81	-0.029035809
76	0xba7b1049	-0.0009577317
77	0x3e0c2165	0.13684614
78	0xbd74fd61	-0.059811953
79	0x3c26493a	0.0101492945
80	0xbe1fa735	-0.15591128
81	0xbdab5577	-0.083659105
82	0xbe151fbb	-0.14562885
83	0xbda7ac07	-0.081871085
84	0xbe1ecb95	-0.15507348
85	0xbe1168ba	-0.14200106
86	0xbdb438b0	-0.08799875
87	0x3e145274	0.14484578
88	0xbded76fd	-0.11594961
89	0x3e1077c4	0.14108187
90	0x3da22943	0.07918026
91	0xbdbe63ba	-0.09296365
92	0xbe17c461	-0.14821006
93	0x3dd80c60	0.10549235
94	0xbded0c9f	-0.11574673
95	0x3dca2cfa	0.0987186
96	0x3cbd9640	0.023142934
97	0xbd91fae4	-0.07127932
98	0x3dee4eb6	0.11636107
99	0xbdc3771b	-0.09544202
100	0x3d8832ee	0.06650339
101	0xbe140d64	-0.14458233
102	0x3d7104a3	0.058842313
103	0x3dec5d80	0.11541271
104	0xbe1f1c19	-0.15538062
105	0x3cbb4724	0.02286107
106	0xbe1d2bc6	-0.1534873
107	0x3cc7a994	0.024372853
108	0x3e13d19e	0.14435431
109	0xbc282734	-0.010263253
110	0x3dfea535	0.124338545
111	0xbd4b9b98	-0.049708933
112	0x3db4887a	0.08815093
113	0x3dd5eebf	0.10445928
114	0xbdd9a3f9	-0.106269784
115	0x3db0c93e	0.08632134
116	0xb9b0c627	-0.0003371697
117	0x3dedc954	0.11610666
118	0x3d80f423	0.062965654
119	0x3d32506f	0.04353374
120	0xbc304884	-0.010759477
121	0xbd74dc91	-0.05978066
122	0xbd7a146d	-0.061054636
123	0xbd1ebf7c	-0.038756832
124	0xbc792154	-0.0152057
125	0x3d56b9f0	0.052423418
126	0x3dd452e7	0.10367375
127	0xbe099aa7	-0.13437901

ensemble_blocks.0.1.weight f4 [128]
0	0x3f7ed1d2	0.9953891
1	0x3f8296a5	1.0202223
2	0x3f82c8f4	1.0217576
3	0x3f82eb2c	1.0228019
4	0x3f855527	1.0416611
5	0x3f7dab4b	0.990895
6	0x3f7cce03	0.9875185
7	0x3f81eacb	1.0149778
8	0x3f85205c	1.04005
9	0x3f7e4947	0.9933056
10	0x3f7f0f37	0.9963259
11	0x3f823bae	1.0174463
12	0x3f805430	1.0025692
13	0x3f71a33d	0.94389707
14	0x3f783571	0.96956545
15	0x3f813a7c	1.0095973
16	0x3f7d51d0	0.9895296
17	0x3f822f94	1.017077
18	0x3f849e6a	1.0360844
19	0x3f8389b0	1.0276394
20	0x3f822c94	1.0169854
21	0x3f8ac5c9	1.0841609
22	0x3f7aa2e4	0.979048
23	0x3f87f06b	1.0620245
24	0x3f796836	0.9742464
25	0x3f81a38b	1.0128034
26	0x3f804f54	1.0024209
27	0x3f81de46	1.0145957
28	0x3f830e28	1.0238695
29	0x3f8099ea	1.0046971
30	0x3f87dce9	1.0614291
31	0x3f827900	1.0193176
32	0x3f798820	0.97473335
33	0x3f81a2b5	1.0127779
34	0x3f828fa1	1.0200082
35	0x3f7cfb69	0.9882112
36	0x3f81df47	1.0146264
37	0x3f7c0ca1	0.9845677
38	0x3f80f186	1.0073707
39	0x3f7d5b09	0.98967034
40	0x3f769e40	0.9633522
41	0x3f7a71aa	0.9782969
42	0x3f83ef07	1.030732
43	0x3f83a7db	1.02856
44	0x3f746559	0.95467144
45	0x3f770197	0.964868
46	0x3f813ff3	1.0097641
47	0x3f7e889f	0.9942722
48	0x3f7c9855	0.9866994
49	0x3f812d7d	1.0092007
50	0x3f7e0f3b	0.9924199
51	0x3f7c123d	0.9846533
52	0x3f85ef8b	1.0463728
53	0x3f8730aa	1.0561726
54	0x3f7c7ac8	0.9862485
55	0x3f7be633	0.9839813
56	0x3f874fae	1.0571191
57	0x3f830c97	1.0238217
58	0x3f7f2532	0.9966613
59	0x3f85093b	1.0393442
60	0x3f839f83	1.0283054
61	0x3f7c3728	0.9852166
62	0x3f769a98	0.9632964
63	0x3f826592	1.0187247
64	0x3f7b3be9	0.9813829
65	0x3f76e1f2	0.96438515
66	0x3f8e4e29	1.1117603
67	0x3f82b90b	1.0212721
68	0x3f8068cc	1.0031981
69	0x3f83e1e2	1.0303309
70	0x3f76cbf4	0.9640496
71	0x3f7ee7b1	0.99572283
72	0x3f807b12	1.0037558
73	0x3f7af228	0.9802575
74	0x3f7b7d33	0.98237914
75	0x3f758b68	0.9591584
76	0x3f7c0b1d	0.9845446
77	0x3f8128cd	1.0090576
78	0x3f7e9486	0.9944538
79	0x3f73b643	0.95199984
80	0x3f81b7a5	1.0134169
81	0x3f84ae84	1.0365758
82	0x3f8060f8	1.0029593
83	0x3f815498	1.0103941
84	0x3f82deba	1.0224221
85	0x3f7e2ed1	0.99290186
86	0x3f7c98d3	0.9867069
87	0x3f74d448	0.95636415
88	0x3f778e7a	0.96701777
89	0x3f81181e	1.0085485
90	0x3f7aee01	0.98019415
91	0x3f81b062	1.0131953
92	0x3f7f327a	0.99686396
93	0x3f8398fb	1.0281061
94	0x3f812fb1	1.0092679
95	0x3f7e2159	0.99269634
96	0x3f751519	0.9573532
97	0x3f7af6ac	0.9803264
98	0x3f81480b	1.0100111
99	0x3f7edd04	0.99555993
100	0x3f7d30f3	0.98902816
101	0x3f7ac299	0.9795318
102	0x3f839ea5	1.028279
103	0x3f76e42d	0.9644192
104	0x3f828e2b	1.0199636
105	0x3f72df39	0.9487186
106	0x3f7f450c	0.9971473
107	0x3f81e555	1.0148112
108	0x3f80e79a	1.0070679
109	0x3f7a533e	0.9778327
110	0x3f8254c3	1.0182117
111	0x3f78fcf1	0.9726096
112	0x3f75179c	0.9573915
113	0x3f83389c	1.0251651
114	0x3f81beda	1.0136368
115	0x3f7c28c8	0.9849973
116	0x3f7d7918	0.990129
117	0x3f7a432f	0.97758764
118	0x3f83e05b	1.0302843
119	0x3f842773	1.0324539
120	0x3f77cf88	0.9680104
121	0x3f7efe7c	0.9960706
122	0x3f8132e4	1.0093656
123	0x3f75a365	0.95952445
124	0x3f816417	1.010867
125	0x3f7e921b	0.9944169
126	0x3f7b5e01	0.98190314
127	0x3f78ff7a	0.97264826

ensemble_blocks.0.1.bias f4 [128]
0	0x3bea2602	0.007145644
1	0x3d02773b	0.03185199
2	0x3bf516b4	0.007479513
3	0x3d2e5e51	0.042570416
4	0x3d1a87fa	0.037727334
5	0xbd2782d6	-0.04089626
6	0xbbf0e827	-0.0073518935
7	0x3cfe11db	0.031014374
8	0x3c513c24	0.012770686
9	0xbd0c1e78	-0.034208745
10	0x3bb97194	0.0056592915
11	0x3d26a7bd	0.04068731
12	0x3c44f24f	0.0120206615
13	0xbd86127d	-0.06546495
14	0xbc4cff24	-0.012512002
15	0xbc9a1385	-0.018808136
16	0xbc39f6fd	-0.0113503905
17	0x3bc87eac	0.006118616
18	0x3c1e61e4	0.009666894
19	0x3d1e4069	0.038635645
20	0xbabad990	-0.0014255513
21	0x3d50b6bf	0.05095553
22	0xbdaaff97	-0.08349531
23	0x3d29bd66	0.04144039
24	0xbd6670a9	-0.056259785
25	0x3c6500b3	0.0139772175
26	0xbb05a148	-0.002039032
27	0x3c10445f	0.008805363
28	0x3cff59c0	0.031170726
29	0x3d7419b1	0.059594814
30	0x3cb8ffb1	0.02258286
31	0xbc255a91	-0.0100923935
32	0xbd3f584b	-0.046715062
33	0x3cd13f8c	0.025542997
34	0xbc36f10f	-0.011165871
35	0x3bf2b0c2	0.007406325
36	0x3bb8fb6f	0.0056452076
37	0xba980d94	-0.0011600726
38	0xbcc3919e	-0.023873147
39	0xbd38d5b0	-0.045125663
40	0xbc9b8739	-0.018985378
41	0xbce7d754	-0.028300919
42	0xbc352933	-0.011057186
43	0xbc752ab6	-0.014963796
44	0xbd4c016a	-0.049806036
45	0xbc9b4080	-0.018951654
46	0xbc27c4a3	-0.010239753
47	0xbadd06e9	-0.0016863021
48	0xbc9b47b3	-0.018955087
49	0x3ca36fd7	0.01995079
50	0x3a4f1d78	0.00079008145
51	0xbbf8058d	-0.007569021
52	0x3d6e78b0	0.058220565
53	0x3c817f5f	0.015807806
54	0xbcb8d179	-0.022560822
55	0xbcb8fd26	-0.022581648
56	0x3d6df368	0.05809346
57	0x3d21dcdb	0.039517265
58	0x3b117ee6	0.0022200882
59	0x3d0fe14c	0.03512697
60	0x3cdb5597	0.02677421
61	0xbd075ee3	-0.033049475
62	0xbc0e4507	-0.00868345
63	0x3c4a3d2e	0.012343688
64	0xbc94e59a	-0.018175889
65	0xbc7ea1b9	-0.015541487
66	0x3ce3cc5c	0.027807407
67	0x3cc297f1	0.023754092
68	0xbca53971	-0.020168992
69	0x3c1e6213	0.009666937
70	0xbd36669f	-0.04453146
71	0xbcd99a8f	-0.026562957
72	0xbc3d0095	-0.011535783
73	0xbd4833b2	-0.048877425
74	0x3bdf18ca	0.006808375
75	0xbd3069d4	-0.043069676
76	0xbce21c0a	-0.02760126
77	0xb99fd9f8	-0.00030489243
78	0xbc20f8f3	-0.009824979
79	0xbd1b99cb	-0.037988465
80	0xbc3bc8d2	-0.0114614535
81	0xbc6f9930	-0.014623925
82	0xbcd54167	-0.026032163
83	0xbba5d378	-0.0050606094
84	0xbb3211f8	-0.0027171355
85	0xbb14f8f7	-0.0022731402
86	0xbcbf1aaa	-0.023328144
87	0x3b01721c	0.0019751852
88	0xbd16dcc4	-0.036831632
89	0xbd0dd21a	-0.034624197
90	0xbcc1ece3	-0.023672527
91	0xbb8bc6b5	-0.004265631
92	0xbd10af80	-0.03532362
93	0xbc668afe	-0.014071224
94	0x3c8f04dc	0.017458372
95	0xbbfd4a5d	-0.007729812
96	0xbcde4e4f	-0.02713695
97	0xbd3fb742	-0.046805628
98	0x3cced68e	0.025248792
99	0x3c45cbe1	0.012072534
100	0x3b429f0c	0.002969685
101	0xbc747328	-0.0149200335
102	0x3cba2012	0.02272037
103	0xbc6d80a0	-0.014495999
104	0x3b5c22d5	0.0033590097
105	0xbd12ac82	-0.035809048
106	0xbd3e48b1	-0.046456043
107	0xbd1757d8	-0.03694901
108	0x3c2fc204	0.010727409
109	0xbcd1cdf3	-0.0256109
110	0x3c519dad	0.0127939405
111	0xbc5c68cb	-0.013452719
112	0xbd02629e	-0.03183233
113	0xbcaa4894	-0.020786561
114	0xbd060590	-0.03272015
115	0xbb56b022	-0.0032758792
116	0xb931e956	-0.0001696696
117	0xbcd8b0fe	-0.026451584
118	0x3c792948	0.015207596
119	0xbc8cf209	-0.017205255
120	0xbc5fcc62	-0.0136595685
121	0xbc186901	-0.009302379
122	0x3bf042a9	0.0073321653
123	0xbd4e5544	-0.050374284
124	0xbb85760b	-0.0040729097
125	0xbc2fb996	-0.0107253995
126	0xbb31f78e	-0.002715561
127	0xba5aa841	-0.0008341112

ensemble_blocks.0.1.running_mean f4 [128]
0	0xbd1705d9	-0.03687081
1	0x3bd18d89	0.006395046
2	0xbdbaadcc	-0.091151804
3	0xbcba6bf5	-0.022756556
4	0xbdb2d31f	-0.087316744
5	0xbbbbfbd9	-0.0057368097
6	0x3c856b50	0.016286522
7	0x3c9bde98	0.01902704
8	0xbe16c718	-0.14724386
9	0xbddba52b	-0.10724863
10	0x3e22d77c	0.15902513
11	0xbccc94b7	-0.024973257
12	0x3c381489	0.011235365
13	0x3d91c930	0.071184516
14	0xbdf77f74	-0.12084857
15	0x3e1d363e	0.15352723
16	0x3dcc21d4	0.0996739
17	0x3b26f079	0.0025472923
18	0xbda48f7d	-0.08035181
19	0x3e0b0b11	0.1357844
20	0xbd57a9bc	-0.052652106
21	0x3a9feada	0.0012200729
22	0xbc73b5f8	-0.014874928
23	0xbd2f91c5	-0.042863626
24	0x3d3ebed1	0.046568695
25	0xbde7b233	-0.11313286
26	0xbda97221	-0.082737215
27	0x3dd9a4c7	0.10627132
28	0xbda64a15	-0.08119599
29	0x3db9837d	0.090582825
30	0x3c4cfc04	0.012511257
31	0x3d6ef557	0.058339443
32	0x3cf7df97	0.030257983
33	0x3b874390	0.004127927
34	0xbd8b4085	-0.067994155
35	0xbdc550e6	-0.09634571
36	0x3e0b24a7	0.135882
37	0xbd98c344	-0.07459119
38	0x3d92ebac	0.07173857
39	0x3dbce16c	0.09222683
40	0x3dabef39	0.083952375
41	0xbd968b46	-0.07350783
42	0x3d414283	0.04718257
43	0xbe1fd627	-0.15609036
44	0x3c46c592	0.012132065
45	0xbd91160b	-0.070842825
46	0xbd85c7ef	-0.06532275
47	0xbdc93dcb	-0.09826239
48	0xbdd711fa	-0.10501476
49	0xbd3173b7	-0.043323245
50	0xbd457ba3	-0.048213612
51	0x3da92689	0.08259303
52	0x3e0dc4f9	0.1384467
53	0xbd90ab0f	-0.07063877
54	0xbbe40740	-0.006958872
55	0x3e018899	0.12649764
56	0x3dcbd31d	0.09952376
57	0xbdde3bac	-0.10851225
58	0x3e1eca2f	0.15506814
59	0x3ddf2d68	0.108973324
60	0xbd3fafaa	-0.046798386
61	0x3dbe6261	0.09296108
62	0xbcc14494	-0.02359227
63	0x3e2470a9	0.16058601
64	0xbe0dc0ba	-0.1384305
65	0x3dbc33d1	0.09189571
66	0x3dff168d	0.12455473
67	0xbd3d1c92	-0.046169825
68	0x3dd11ed9	0.10210962
69	0xbdb863ed	-0.09003434
70	0x3cd6e5a8	0.026232556
71	0x3d6ad7d7	0.057334747
72	0xbdac2080	-0.084046364
73	0x3d661bd9	0.0561789
74	0xbd1c8197	-0.038209524
75	0xbcf28fc7	-0.029609574
76	0xba1aef40	-0.0005910285
77	0x3e0ba6f4	0.13637906
78	0xbd7357af	-0.059409793
79	0x3c305a86	0.01076377
80	0xbe203be7	-0.15647851
81	0xbdab6405	-0.083686866
82	0xbe14758f	-0.1449797
83	0xbda9b96e	-0.08287321
84	0xbe1f2cc2	-0.15544418
85	0xbe11b311	-0.14228465
86	0xbdb51f07	-0.088438086
87	0x3e143bca	0.14475933
88	0xbdeeab35	-0.11653749
89	0x3e1146ee	0.14187214
90	0x3d9f33d6	0.07773559
91	0xbdbba7ee	-0.091628894
92	0xbe17d22c	-0.14826268
93	0x3dda67fe	0.10664366
94	0xbdf039fb	-0.11729809
95	0x3dc8539e	0.09781574
96	0x3cbc4131	0.022980304
97	0xbd94fa6a	-0.07274325
98	0x3dece701	0.11567498
99	0xbdc5f052	-0.09664978
100	0x3d887a1e	0.06663917
101	0xbe12a732	-0.14321592
102	0x3d70b534	0.05876656
103	0x3dedbc76	0.11608212
104	0xbe203fe0	-0.15649366
105	0x3cc57ffc	0.02410888
106	0xbe1df0d3	-0.15423898
107	0x3ccd3810	0.025051147
108	0x3e13b7b0	0.1442554
109	0xbc33bbfe	-0.010970114
110	0x3dfeed77	0.124476366
111	0xbd4b74d0	-0.049671948
112	0x3db17c0d	0.08666239
113	0x3dd4e4f1	0.103952296
114	0xbddb2a72	-0.10701455
115	0x3db00407	0.08594518
116	0xba11a170	-0.0005555367
117	0x3df02193	0.11725154
118	0x3d807751	0.06272758
119	0x3d3675f0	0.044546068
120	0xbc383262	-0.011242481
121	0xbd780733	-0.06055374
122	0xbd7d0aad	-0.06177776
123	0xbd246480	-0.040134907
124	0xbc71fa11	-0.014769093
125	0x3d5479fa	0.05187414
126	0x3dd373fc	0.10324857
127	0xbe08c887	-0.13357745

ensemble_blocks.0.1.running_var f4 [128]
0	0x3f183fde	0.59472454
1	0x3e65d659	0.22445048
2	0x3e85ad5a	0.2610882
3	0x3e59a925	0.2125593
4	0x3eb10c79	0.34579828
5	0x3ed5ec2f	0.41781756
6	0x3e801897	0.2501876
7	0x3ec853d8	0.39126468
8	0x3ea68b33	0.32528076
9	0x3e576038	0.21032798
10	0x3e3eb1ae	0.18622467
11	0x3e762a2b	0.24039523
12	0x3e973480	0.29532242
13	0x3e8200e6	0.2539131
14	0x3e8814aa	0.26578265
15	0x3e89362f	0.2679915
16	0x3ed6a7b0	0.4192481
17	0x3ee65fe9	0.4499505
18	0x3ea2a295	0.31764665
19	0x3ec102e5	0.3769752
20	0x3ea2cc47	0.31796476
21	0x3e794fe8	0.24346888
22	0x3ef06d9a	0.4695862
23	0x3e97965c	0.29606903
24	0x3ec91a00	0.3927765
25	0x3e87b4a6	0.2650501
26	0x3ef86828	0.48516965
27	0x3ea34d26	0.31894797
28	0x3e8726b5	0.2639672
29	0x3e586748	0.21133149
30	0x3e86bc7a	0.2631567
31	0x3e8fabd7	0.2806079
32	0x3e5b8951	0.21439101
33	0x3eb9b317	0.36269447
34	0x3e5b8c69	0.21440281
35	0x3e76141a	0.24031106
36	0x3e9c7e14	0.3056494
37	0x3ee0523e	0.43812746
38	0x3e97ee53	0.29674014
39	0x3e6ca640	0.23110294
40	0x3e4624ff	0.1935005
41	0x3ea1b442	0.31582838
42	0x3eabdbc1	0.33566096
43	0x3eb622e5	0.35573497
44	0x3e88acc7	0.2669432
45	0x3ebf6f76	0.37389725
46	0x3e8e3913	0.2777792
47	0x3e739d66	0.23790511
48	0x3ecf71e3	0.40516576
49	0x3e79b3fc	0.24385065
50	0x3e3da353	0.18519334
51	0x3eb82092	0.3596235
52	0x3e711cf1	0.23546197
53	0x3e8e18a9	0.2775319
54	0x3e9eafc5	0.30993477
55	0x3ead338c	0.3382839
56	0x3e84274e	0.25811237
57	0x3e830407	0.2558901
58	0x3e962306	0.29323596
59	0x3e7591a4	0.23981339
60	0x3e7bc7c0	0.24587917
61	0x3e9d2887	0.30694982
62	0x3eb1a8f6	0.3469922
63	0x3e5824c9	0.21107782
64	0x3e94e9cd	0.29084626
65	0x3ebc6737	0.36797497
66	0x3ecb8d11	0.39756063
67	0x3e3a5781	0.18197443
68	0x3ed9b2d0	0.42519236
69	0x3e799cce	0.24376222
70	0x3eac0c3a	0.33603078
71	0x3e850d74	0.25986826
72	0x3e386d28	0.1801039
73	0x3e7a8c41	0.24467565
74	0x3e253ef9	0.16137303
75	0x3e723c78	0.2365588
76	0x3e3fb383	0.18720822
77	0x3ead0d5f	0.33799264
78	0x3e780b1a	0.24222985
79	0x3ec5e058	0.38647723
80	0x3e992eae	0.29918426
81	0x3e889cf4	0.26682246
82	0x3eeb7e9d	0.45995036
83	0x3ea61ec6	0.32445353
84	0x3ed02af3	0.40657768
85	0x3e9b1cd2	0.30295426
86	0x3f0625d2	0.5240146
87	0x3eb7e8ad	0.35919705
88	0x3e8f85ab	0.28031668
89	0x3e93bcb0	0.28854895
90	0x3eab5dac	0.33469903
91	0x3e9c4ae5	0.3052589
92	0x3e96f199	0.294812
93	0x3e666254	0.22498447
94	0x3e9ee63c	0.3103503
95	0x3ea9befc	0.33153522
96	0x3ebae8d3	0.36505756
97	0x3e9773b3	0.2958046
98	0x3e94e2f2	0.29079396
99	0x3e7ae71d	0.24502225
100	0x3e678059	0.22607554
101	0x3e51b582	0.20479396
102	0x3e0f6f24	0.1400724
103	0x3f18c454	0.5967457
104	0x3e99d1e0	0.30042934
105	0x3e80f312	0.25185448
106	0x3e9c573e	0.3053531
107	0x3e8ec564	0.27884972
108	0x3e9c69a7	0.30549356
109	0x3e8a782b	0.27044806
110	0x3ece2770	0.40264463
111	0x3ea749f3	0.32673606
112	0x3eb48ba5	0.3526279
113	0x3e99308a	0.29919845
114	0x3ee6311f	0.4495935
115	0x3ed01c48	0.40646577
116	0x3e6f65e4	0.23378712
117	0x3e5deceb	0.21672408
118	0x3e8ccdb6	0.27500695
119	0x3ed73c63	0.4203826
120	0x3e73e939	0.23819436
121	0x3e7150b1	0.23565938
122	0x3e97029f	0.29494187
123	0x3e85b9e1	0.26118377
124	0x3e5f67d5	0.21816953
125	0x3eb9c859	0.36285666
126	0x3ec21df3	0.37913474
127	0x3ea3f876	0.32025498

ensemble_blocks.0.4.weight f4 [128, 128]
0	0x3d669105	0.056290645
1	0xbc85ffca	-0.016357321
2	0x3bb2ac0c	0.0054526385
3	0xbcfbeadd	-0.03075164
4	0xbbe215c6	-0.0068995683
5	0x3d3038da	0.043022968
6	0xbcb280ed	-0.021789992
7	0x3d374d86	0.044751666
8	0xbc9a2439	-0.0188161
9	0xbda02b28	-0.078207314
10	0x3daabd0f	0.08336841
11	0xbdade31b	-0.084905826
12	0xbd15c3d8	-0.036563724
13	0xbdb26de2	-0.08712365
14	0xbcb9dc2c	-0.022687994
15	0x3d688f4a	0.056777276
16	0x3dce9ad8	0.10088128
17	0xbd3b4c04	-0.04572679
18	0xbcc33315	-0.023828069
19	0x3d66d7f0	0.056358278
20	0xbd29f13b	-0.04148982
21	0xbd18b3f3	-0.037280988
22	0x3d8dc4c8	0.06922299
23	0x3d352ee0	0.044234157
24	0xbd09edc1	-0.033674005
25	0x3d4d7677	0.050161805
26	0x3da80c83	0.082055114
27	0x3d0c664a	0.034277238
28	0x3cd3d5fd	0.025858874
29	0x3d558708	0.05213073
30	0xbc53ff3c	-0.012939271
31	0xbc30a205	-0.010780816
32	0x3d835477	0.06412595
33	0xbcd5ff83	-0.026122814
34	0x3dac50b5	0.08413831
35	0x3d300c03	0.042980205
36	0x3d1d6f53	0.038436245
37	0x3d0af4df	0.033924934
38	0x3d69774e	0.056998543
39	0x3d8ecd41	0.06972743
40	0x3d33e965	0.043923754
41	0x3d1c4a1d	0.038156617
42	0x3cb412ae	0.021981563
43	0x3d9d78c1	0.076890476
44	0x3d72c9aa	0.059274353
45	0xbd5193d0	-0.051166356
46	0x3adefa50	0.0017011855
47	0xbc109ea0	-0.008826882
48	0x3d9473ed	0.072486736
49	0x3ceed455	0.029153982
50	0xbc811cc9	-0.015760796
51	0xbc514b6b	-0.012774329
52	0x3d2d3bdf	0.042293426
53	0x3d3d13a3	0.046161305
54	0xbd4951f0	-0.049150407
55	0x3cbeb89e	0.023281392
56	0xbc207906	-0.009794479
57	0x3d95c473	0.0731286
58	0x3cfa9205	0.030587206
59	0xbd051a40	-0.032495737
60	0xbd26cb86	-0.04072144
61	0xbcac02dd	-0.02099746
62	0x3d003959	0.03130469
63	0x3dd00aeb	0.101583324
64	0xbd052853	-0.03250916
65	0xbcf2eb28	-0.029653147
66	0xbcf969ea	-0.030446012
67	0xbd440556	-0.04785665
68	0x3cd65517	0.02616362
69	0x3d0b0817	0.033943262
70	0xbc0b22e1	-0.0084922025
71	0xbc93829b	-0.018006613
72	0xbb1421cc	-0.0022603152
73	0x3d48843b	0.04895423
74	0x3d5983cc	0.053104207
75	0x3d8e0e8e	0.0693637
76	0x3d3e2ddd	0.046430457
77	0x3d81cb37	0.06337588
78	0x3c1ccd56	0.00957044
79	0x3d8e6ef4	0.069547564
80	0xbd2ec914	-0.04267223
81	0x3c87d389	0.01658036
82	0xbd587a16	-0.052850805
83	0x3d561343	0.052264463
84	0xbd852b78	-0.06502432
85	0xbda5a1d4	-0.08087507
86	0xbd7ed0dc	-0.062210903
87	0x3c910890	0.017704278
88	0xbd6d944b	-0.05800275
89	0xbd3e352d	-0.04643743
90	0x3c9e5bf8	0.019330963
91	0x3aa73357	0.0012756389
92	0x3d8b69c6	0.06807284
93	0x3d8a44bd	0.06751392
94	0xbdbc8fe3	-0.09207132
95	0x3a485a30	0.00076428335
96	0xbdac53d2	-0.08414425
97	0x3d002f0d	0.03129487
98	0xbcfa9aa6	-0.03059132
99	0xbd1f430f	-0.03888231
100	0x3d51eca0	0.051251054
101	0xbce02b82	-0.027364496
102	0xbd92eefc	-0.07174489
103	0x3d43e78b	0.04782824
104	0xbdac8867	-0.08424454
105	0x3a8413cf	0.0010076704
106	0x3cc1fa63	0.023678964
107	0xbc258716	-0.010103008
108	0xbda8ca9a	-0.08241768
109	0x3d4f012c	0.050538227
110	0x3d52db88	0.051478893
111	0x3db4dbb5	0.08830968
112	0x3d8d78eb	0.06907829
113	0x3dad480c	0.084610075
114	0x3af6c370	0.0018826555
115	0xbd0e47c6	-0.034736417
116	0x3d51e473	0.051243257
117	0xbb4586b0	-0.0030140094
118	0xbc22b235	-0.009930183
119	0x3d02817e	0.031861775
120	0x3d75deb7	0.06002685
121	0x3c832966	0.016010951
122	0xbc89ee8b	-0.016837379
123	0x3d599b46	0.053126596
124	0x3c59c55a	0.013291681
125	0xbd882d66	-0.06649284
126	0x3d0277ac	0.03185241
127	0x3dcd9c81	0.100396164
128	0x3cf52033	0.02992258
129	0xbd458c9d	-0.048229802
130	0xbd39239a	-0.045199968
131	0xbd2140ec	-0.039368555
132	0x3d2179bd	0.03942274
133	0x3c8710ff	0.016487597
134	0xbd91e65e	-0.07124017
135	0xbd3b4bc3	-0.04572655
136	0xbd50fcf0	-0.05102247
137	0xbdd0f0ce	-0.1020218
138	0x3c4432df	0.011975019
139	0x3cb38b36	0.021916967
140	0xbc27cd01	-0.010241748
141	0xbd98ac2d	-0.07454715
142	0xbd1fea1a	-0.039041616
143	0xbd377d9a	-0.044797517
144	0xbd5f0809	-0.054451022
145	0x3bebbd2a	0.007194181
146	0x3a8b7449	0.0010639514
147	0x38c664ea	9.4601724e-05
148	0x3d9a78b8	0.075425565
149	0xbb7cc806	-0.0038571372
150	0xbc25d70e	-0.010122074
151	0x3d30d144	0.04316832
152	0xbd6f7f87	-0.05847123
153	0xbd085135	-0.03328057
154	0x3caec8b4	0.021335937
155	0xbde5a8ef	-0.11213862
156	0x3da553cb	0.08072623
157	0xbd1d6aa4	-0.03843178
158	0xbdd9b31a	-0.10629864
159	0x3cffa839	0.031208145
160	0xbc9f2cf6	-0.019430619
161	0xbd4fa7bf	-0.050697085
162	0xbe014211	-0.12622859
163	0x3d8d2290	0.06891358
164	0x3d97951f	0.074014895
165	0x3c9e677f	0.01933646
166	0xbcf8c467	-0.03036709
167	0xbe02d5e6	-0.12776908
168	0x3d3d7aa2	0.04625953
169	0x3b5c1e75	0.003358749
170	0x3ce88bd8	0.028386995
171	0x3d149520	0.03627503
172	0xbd516eb4	-0.051130965
173	0x3d3617be	0.044456236
174	0x3dbe45bc	0.092906445
175	0xbc164b25	-0.009173189
176	0xbc1e06bb	-0.009645159
177	0xbd3be26c	-0.04587023
178	0xbd486124	-0.048920766
179	0xbd8936d3	-0.0669991
180	0xbb4186f9	-0.0029529913
181	0xbda33a7f	-0.079701416
182	0xbdeebe3e	-0.116573796
183	0x3d8a623d	0.06757019
184	0x3bfd8c83	0.0077376976
185	0x3d43f830	0.047844112
186	0xb9d9c99f	-0.00041539685
187	0x3b909037	0.004411723
188	0xbb755822	-0.0037436564
189	0xbd08f0c8	-0.033432752
190	0x3d3dec80	0.046368122
191	0x3d67c1d1	0.056581322
192	0xbdb853f0	-0.09000385
193	0xbc520789	-0.012819179
194	0x3d52c1ef	0.05145448
195	0xbd2a3727	-0.041556504
196	0xbd5e9a01	-0.05434609
197	0x3d5fda74	0.054651693
198	0xbd5cde4c	-0.053922936
199	0x3d80ce9f	0.0628941
200	0xbd6b8620	-0.05750096
201	0xbc2391cf	-0.009983494
202	0x3d59712a	0.053086437
203	0xbd80e126	-0.06292944
204	0xbd746416	-0.059665762
205	0xbd738cc5	-0.05946042
206	0x3da3b60c	0.07993707
207	0x3d77bf20	0.060485005
208	0xbd633217	-0.05546769
209	0x3bd5c160	0.0065232962
210	0xbd81ec04	-0.063438445
211	0x3db9b063	0.09066846
212	0x3d4552a5	0.04817452
213	0x3d8bdfae	0.06829773
214	0xbcf0707b	-0.02935051
215	0x3c961f09	0.018325346
216	0xbc9d025d	-0.019166166
217	0xbd94f2f6	-0.072729036
218	0x3d0907d8	0.033454746
219	0x3cd895c7	0.026438607
220	0x3d23b82d	0.039970566
221	0xbd136369	-0.035983477
222	0xbd23f8e6	-0.04003229
223	0xbd7802f7	-0.060549702
224	0xbd879d0b	-0.066217504
225	0xbc261584	-0.010136966
226	0x392518b0	0.00015744823
227	0xbbef7a27	-0.007308263
228	0x3b05e63c	0.002043142
229	0x3be95c37	0.0071215886
230	0x3ccc9545	0.024973521
231	0xbd163d27	-0.036679413
232	0x3c6f04e8	0.014588572
233	0xbd1acb3e	-0.037791483
234	0xbd2ceb70	-0.04221672
235	0xbd9e5792	-0.077315465
236	0x3d3e7f80	0.046508312
237	0x3c6b1af7	0.014349691
238	0xbd871b04	-0.0659695
239	0xbd6087b3	-0.054816913
240	0xbc8a0784	-0.016849287
241	0xbd678650	-0.056524575
242	0xbd260136	-0.0405285
243	0xbdacddf4	-0.08440772
244	0xbd39ceac	-0.045363113
245	0xbc0e67ef	-0.008691772
246	0x3db072d4	0.08615652
247	0xbc465821	-0.0121059725
248	0x3d5aac78	0.053387135
249	0xbcc8cd0a	-0.024511833
250	0x3d133d90	0.035947382
251	0xbcc4994f	-0.023998884
252	0xbd2c9328	-0.042132527
253	0xbd9b06cf	-0.07569658
254	0x3d6194a9	0.055073414
255	0x3ca3d473	0.019998765

ensemble_blocks.0.4.bias f4 [128]
0	0x3da87d3e	0.08227013
1	0xbd981661	-0.074261434
2	0xbd964865	-0.07338027
3	0x3be45561	0.006968186
4	0xbd601dab	-0.054715794
5	0x3db3db01	0.08782006
6	0x3d06c4f5	0.032902677
7	0x3b4e63b2	0.0031492529
8	0x3c029b2e	0.007971568
9	0xbd736fd8	-0.059432834
10	0xbd6697b3	-0.056297015
11	0xbba2a04b	-0.004962956
12	0x3d9db719	0.07700939
13	0xbd3e6693	-0.04648454
14	0xbd3cd8bf	-0.046105143
15	0x3d2f20a2	0.04275573
16	0xbc036f6d	-0.008022171
17	0x3cf7bed8	0.030242369
18	0x3c9216a8	0.017833069
19	0x3ad64857	0.0016348463
20	0x3c028e51	0.007968501
21	0x3be5fdda	0.007018787
22	0xbd7a23d7	-0.061069336
23	0xbd1955ff	-0.037435528
24	0xbd5b6997	-0.053567495
25	0xbd93ab3b	-0.07210394
26	0xbc22d1e5	-0.009937738
27	0xbd1b778f	-0.037955817
28	0xbd759269	-0.05995408
29	0xbd8727fe	-0.06599425
30	0xbda8a29d	-0.08234141
31	0xbd9133fb	-0.070899926
32	0xbc71f033	-0.014766741
33	0xbdad654f	-0.08466589
34	0xbd925d70	-0.07146728
35	0xbd6d3f1e	-0.05792152
36	0x3be52964	0.0069934595
37	0x3d37041f	0.044681665
38	0xbd442003	-0.04788209
39	0xbd368589	-0.044560943
40	0x3db45ca5	0.08806733
41	0xbd4c4aa0	-0.049875855
42	0x3d81be95	0.06335179
43	0xbd7b9b1e	-0.06142723
44	0x3d226454	0.03964646
45	0xbc258c33	-0.010104227
46	0x3c38808f	0.0112611195
47	0x3c68e477	0.0142146265
48	0x3d2dda19	0.042444322
49	0x3cd2cb46	0.025731694
50	0xbd1bf65d	-0.038076747
51	0xbb97ea9a	-0.004636121
52	0x3d122e0a	0.035688438
53	0xbaa05065	-0.0012230991
54	0xbc37e86b	-0.011224846
55	0xbd9f89d9	-0.07789964
56	0x3d9e8218	0.07739657
57	0x3cc65c8e	0.024214055
58	0x3d6b0583	0.057378303
59	0xbd5462bb	-0.05185197
60	0x3d3306a5	0.04370751
61	0x3d7975b1	0.060903255
62	0xbbe17cc2	-0.0068813274
63	0xbd92499f	-0.07142948
64	0xbd9b8227	-0.07593184
65	0xba1b4d88	-0.0005924334
66	0x3d7f6808	0.06235507
67	0xbcb5551e	-0.022135314
68	0xbd51eba6	-0.051250122
69	0x3cef39b3	0.029202318
70	0x3d0398fa	0.03212831
71	0x3c0c9740	0.008580983
72	0xbc0a8850	-0.008455351
73	0x3c90240b	0.017595312
74	0xbd7e7a97	-0.06212863
75	0xbd8035f4	-0.06260291
76	0xbc8ac9c8	-0.01694192
77	0xbd65049f	-0.05591261
78	0xbd228247	-0.039675023
79	0x3d00fb50	0.03148967
80	0xbd1ed710	-0.03877932
81	0xbd2421d5	-0.040071327
82	0x3be42390	0.006962247
83	0x3d915328	0.07095939
84	0xbcca8c67	-0.024725152
85	0x3d34451f	0.04401123
86	0x3da4631a	0.080267146
87	0x3d7bd583	0.061482918
88	0x3caf3d15	0.02139143
89	0x3d87e691	0.06635774
90	0x3cdf3e88	0.027251497
91	0x3d47930a	0.04872421
92	0xbd09ab12	-0.03361041
93	0x3d255525	0.040364403
94	0x3d88f884	0.066880256
95	0x3b00f994	0.001968001
96	0xbccc0797	-0.024905963
97	0x3c4ff5d3	0.012692886
98	0xbdb489c8	-0.08815342
99	0xbc7db64c	-0.0154853575
100	0x3db3e5b2	0.08784045
101	0x3cd91442	0.026498917
102	0x3daac4e4	0.08338335
103	0x3da01789	0.07816989
104	0x3ceb2335	0.028703311
105	0xbd440f8b	-0.047866385
106	0xbaf169aa	-0.0018418331
107	0x3d8faf4a	0.070158556
108	0xbbe46b76	-0.006970818
109	0xbc033574	-0.00800835
110	0xbcd9cf0a	-0.026587982
111	0x3d97be6d	0.07409368
112	0xbc84794d	-0.016171122
113	0x3c8bdf9e	0.017074402
114	0xbd3549b2	-0.044259734
115	0x3d9ec9a4	0.07753304
116	0xbd406456	-0.046970688
117	0xbccd2ee6	-0.025046777
118	0x3d4a4a06	0.049387
119	0xbc6148ec	-0.013750296
120	0xbd75bcfe	-0.05999469
121	0xbd850539	-0.06495137
122	0xbdaae9aa	-0.08345349
123	0x3d4b56f2	0.049643464
124	0xbda9ae32	-0.08285178
125	0xbd9dde05	-0.077083625
126	0x3d8ee2dc	0.06976864
127	0xbdb55679	-0.08854384

ensemble_blocks.0.5.weight f4 [128]
0	0x3f7835b6	0.96956956
1	0x3f8e16f1	1.1100751
2	0x3f8facb8	1.1224585
3	0x3f76c0e2	0.96388066
4	0x3f8ccd6b	1.1000189
5	0x3f7a5f8b	0.97802037
6	0x3f77e1a1	0.9682866
7	0x3f8c0cb9	1.0941383
8	0x3f8f0638	1.1173773
9	0x3f77fbd5	0.9686864
10	0x3f8c59ea	1.096494
11	0x3f8ac924	1.0842633
12	0x3f91d2ca	1.1392453
13	0x3f8e9155	1.1138102
14	0x3f8a898e	1.0823228
15	0x3f8bcc09	1.0921642
16	0x3f78b863	0.9715635
17	0x3f8670eb	1.050321
18	0x3f8cca63	1.0999264
19	0x3f790971	0.9728003
20	0x3f8e67e5	1.1125456
21	0x3f7a1df6	0.97701967
22	0x3f8f6840	1.120369
23	0x3f7a52f6	0.9778284
24	0x3f808bdc	1.0042682
25	0x3f7834e5	0.9695571
26	0x3f8c89f1	1.0979596
27	0x3f77f193	0.9685299
28	0x3f8dcbf1	1.1077863
29	0x3f90e971	1.1321241
30	0x3f8b75ce	1.0895326
31	0x3f7e3e3b	0.99313706
32	0x3f7ad761	0.9798489
33	0x3f8cef0e	1.1010454
34	0x3f940832	1.1565001
35	0x3f7b304f	0.9812059
36	0x3f79c9c1	0.9757348
37	0x3f79b46d	0.9754093
38	0x3f92b760	1.1462212
39	0x3f8d2829	1.1027881
40	0x3f8cb938	1.0994024
41	0x3f8cf161	1.1011163
42	0x3f836567	1.026532
43	0x3f7e4fe4	0.99340653
44	0x3f945719	1.158908
45	0x3f8d1b7b	1.1024011
46	0x3f8c2cf3	1.0951217
47	0x3f7aeea5	0.9802039
48	0x3f772744	0.9654429
49	0x3f8a3d52	1.0799963
50	0x3f788f81	0.9709397
51	0x3f8b9440	1.0904617
52	0x3f8bf2ab	1.0933431
53	0x3f781e67	0.9692139
54	0x3f8d7c9b	1.1053652
55	0x3f8e47e4	1.1115689
56	0x3f8d6bea	1.1048558
57	0x3f7a3f63	0.9775297
58	0x3f923018	1.1420927
59	0x3f8c181c	1.0944858
60	0x3f795ffa	0.97412074
61	0x3f8c2311	1.0948201
62	0x3f7bdfff	0.98388666
63	0x3f8e8009	1.1132823
64	0x3f8db256	1.1070049
65	0x3f8b44d8	1.0880384
66	0x3f8ad58c	1.0846419
67	0x3f789bdd	0.9711283
68	0x3f8976d2	1.0739386
69	0x3f8c5981	1.0964814
70	0x3f8bd54d	1.0924469
71	0x3f8c322c	1.0952811
72	0x3f89b1f8	1.0757437
73	0x3f8c3123	1.0952495
74	0x3f7882c4	0.9707453
75	0x3f8c90ef	1.098173
76	0x3f8d4a05	1.1038214
77	0x3f91a844	1.1379476
78	0x3f7969b7	0.97426933
79	0x3f7ac819	0.97961575
80	0x3f8bcc3f	1.0921706
81	0x3f91b881	1.1384431
82	0x3f8d25bb	1.102714
83	0x3f8eb322	1.1148417
84	0x3f9037f2	1.1267073
85	0x3f7979af	0.974513
86	0x3f8f2058	1.1181746
87	0x3f7b388f	0.98133177
88	0x3f944745	1.158425
89	0x3f8ba0e4	1.0908475
90	0x3f8cfb16	1.1014125
91	0x3f8c152d	1.0943962
92	0x3f78b84f	0.9715623
93	0x3f8c364d	1.0954071
94	0x3f8ce4b6	1.1007297
95	0x3f8c26f8	1.0949392
96	0x3f8cc6f1	1.0998212
97	0x3f855cbd	1.0418926
98	0x3f9185d7	1.136897
99	0x3f797cd8	0.9745612
100	0x3f7a44b7	0.977611
101	0x3f8e7c57	1.1131696
102	0x3f79f7ed	0.9764393
103	0x3f7e3b84	0.99309564
104	0x3f8dd01d	1.1079136
105	0x3f8fc98b	1.1233381
106	0x3f779c30	0.967227
107	0x3f8be228	1.0928392
108	0x3f76920a	0.9631659
109	0x3f8c7bdb	1.0975298
110	0x3f8b266c	1.08711
111	0x3f7881cc	0.97073054
112	0x3f79d47b	0.97589844
113	0x3f783e95	0.9697049
114	0x3f7b5227	0.9817223
115	0x3f7f73ea	0.99786246
116	0x3f8dc083	1.1074375
117	0x3f8b4a30	1.0882015
118	0x3f8bf63e	1.0934522
119	0x3f7ccb9d	0.9874819
120	0x3f8c072e	1.0939691
121	0x3f788bf0	0.9708853
122	0x3f8d6839	1.1047431
123	0x3f8c96fa	1.0983574
124	0x3f8b852c	1.0900016
125	0x3f8b963e	1.0905225
126	0x3f8d580a	1.1042492
127	0x3f78ed8e	0.9723748
