backend/models/tabm_k2.onnx (onnx, 51378 bytes, 10 tensors)

embedding.embeddings.0.weight f4 [10, 4]
-0.029137671 -1.6810523 0.9487916 0.16037731 0.17927948 -0.32546353 1.2660843 0.2511601
1.1339997 1.119952 0.5461165 -1.1517745 0.31466267 2.3511658 -0.3576813 -0.6971267
-0.5066947 0.4047336 1.8632581 0.47412625 0.075149186 -0.85580355 -0.023126846 -2.1948032
0.78116465 1.5910546 1.2685404 1.0912852 -1.6194109 -0.8115902 0.21695264 -1.3683031
1.9072775 0.17688102 -0.83836716 0.6076531 0.18456845 -1.5476968 0.36833307 0.93300384
00000000: 20b2 eebc b92c d7bf 02e4 723f f339 243e
00000010: 0a95 373e 28a3 a6be 0d0f a23f 0e98 803e
00000020: e726 913f 965a 8f3f 4ace 0b3f 596d 93bf
00000030: 771b a13e 8079 1640 0122 b7be e576 32bf
00000040: beb6 01bf 3e39 cf3e 3e7f ee3f adc0 f23e
00000050: d1e7 993d f115 5bbf 8374 bdbc a877 0cc0
00000060: 68fa 473f ada7 cb3f 885f a23f 3caf 8b3f
00000070: db48 cfbf 60c4 4fbf d528 5e3e 8e24 afbf
00000080: ab21 f43f 4c20 353e 3b9f 56bf 278f 1b3f
00000090: 83ff 3c3e ee1a c6bf 2796 bc3e 57d9 6e3f

embedding.embeddings.1.weight f4 [3, 4]
-1.059932 0.84073204 -1.2655541 -0.069861665 -1.4024723 0.8537949 -0.043102004 0.7489554
0.71027064 0.09239381 2.172853 -0.44912332
00000000: daab 87bf 373a 573f adfd a1bf a213 8fbd
00000010: 3684 b3bf 4d92 5a3f ba8b 30bd 8bbb 3f3f
00000020: 4cd4 353f f738 bd3d 0610 0b40 7ef3 e5be

embedding.embeddings.2.weight f4 [2, 4]
0.18281244 -1.1994228 -0.34669915 -0.32890156 -0.48531178 -0.51531446 -1.3335098 0.4784541
00000000: 2f33 3b3e b086 99bf 8d82 b1be c965 a8be
00000010: c97a f8be a6eb 03bf 73b0 aabf f0f7 f43e

embedding.embeddings.3.weight f4 [8, 4]
0.5898076 -0.13601455 1.2256137 0.5204119 0.542568 1.5996354 -0.56224567 -0.69000584
-0.50000256 1.2911417 -0.30649137 0.35583374 -1.5729203 1.6406169 -0.47724557 -0.531851
-0.25079638 -0.8382846 -1.1693196 -0.84210324 -1.7639107 -1.3047489 -0.6349121 0.7438584
-0.8733779 -0.5304043 -0.092411876 0.36037463 -0.907913 0.12530847 -0.6249196 -0.7138357
00000000: a2fd 163f 6647 0bbe e9e0 9c3f b739 053f
00000010: bde5 0a3f dac0 cc3f 55ef 0fbf 39a4 30bf
00000020: 2b00 00bf 2244 a53f 70ec 9cbe d72f b63e
00000030: 7455 c9bf bcff d13f 8859 f4be 6327 08bf
00000040: 6268 80be d299 56bf 44ac 95bf 1494 57bf
00000050: d3c7 e1bf 0302 a7bf 9989 22bf 816d 3e3f
00000060: b295 5fbf 94c8 07bf 7042 bdbd 0683 b83e
00000070: fd6c 68bf dd50 003e bbfa 1fbf f0bd 36bf

embedding.embeddings.4.weight f4 [13, 4]
-0.5916234 0.6083885 -0.35962522 3.3675945 0.22878781 0.20156235 0.40301457 0.6526038
-0.2225029 -0.5279999 -0.19824502 1.341112 0.46200618 0.36894032 1.0882229 1.1012316
-0.37118936 -0.661976 -1.1933621 1.0959133 -1.4178987 -0.012282772 0.2650403 0.25228426
-0.5087792 0.9816645 -1.122364 -0.7301036 -0.5621361 -1.4829962 -0.227934 -0.73703724
-0.6857741 0.8122614 -0.16552031 0.5105471 0.23206149 -1.307165 -1.5229895 1.0690626
2.038866 1.2703078 2.5073826 0.9344204 -1.0159546 -0.15025699 1.7531807 0.12299978
-0.9894418 1.5494908 0.28561428 -1.273316
00000000: a274 17bf 59bf 1b3f cc20 b8be ab86 5740
00000010: 5a47 6a3e 5c66 4e3e ed57 ce3e 0b11 273f
00000020: cdd7 63be 002b 07bf be00 4bbe 8fa9 ab3f
00000030: 138c ec3e bfe5 bc3e e34a 8b3f 28f5 8c3f
00000040: 880c bebe 4277 29bf 17c0 98bf e346 8c3f
00000050: b47d b5bf ae3d 49bc 5db3 873e 672b 813e
00000060: 5b3f 02bf 5d4e 7b3f a0a9 8fbf 12e8 3abf
00000070: 27e8 0fbf d2d2 bdbf 8867 69be 79ae 3cbf
00000080: e48e 2fbf 5df0 4f3f 287e 29be 37b3 023f
00000090: 87a1 6d3e 2f51 a7bf 52f1 c2bf 0bd7 883f
000000a0: c87c 0240 7299 a23f f578 2040 2d36 6f3f
000000b0: cd0a 82bf f8dc 19be 3a68 e03f 4fe7 fb3d
000000c0: 0f4c 7dbf b755 c63f 093c 923e 05fc a2bf

embedding.embeddings.5.weight f4 [9, 4]
0.33991027 0.83718836 -0.12589532 -1.1397319 0.10225445 1.0693439 -0.946874 0.24021378
1.2229347 -0.047886252 -0.29426435 0.950054 1.0690855 -1.1825213 0.07206542 0.687659
0.9649525 0.524429 0.6867089 0.23329802 -0.7912289 0.84857947 0.4171282 0.2672078
-2.2486956 0.055322062 -0.050394714 0.46650788 0.13286765 -1.2944895 -0.19749066 -0.23969212
-1.4492408 0.18718672 -0.91112 -0.32626048
00000000: b808 ae3e fa51 563f b4ea 00be bce2 91bf
00000010: c86a d13d 43e0 883f 5666 72bf 9afa 753e
00000020: 2089 9c3f 6024 44bd d1a9 96be bd36 733f
00000030: cbd7 883f dc5c 97bf 0997 933d 6c0a 303f
00000040: 2107 773f fb40 063f 28cc 2f3f ade5 6e3e
00000050: fa8d 4abf 813c 593f d491 d53e 76cf 883e
00000060: a1ea 0fc0 6399 623d b06a 4ebd 1fda ee3e
00000070: 750e 083e d5b1 a5bf fe3a 4abe da71 75be
00000080: b980 b9bf e0ad 3f3e 293f 69bf 9d0b a7be

bn_in.weight f4 [38]
0.9932926 1.0057746 0.971771 0.9962482 0.88623035 0.8793498 0.91402584 0.9219206
0.9297712 0.9010961 0.95036644 0.9430277 0.91065395 0.9703172 0.942894 0.9536865
0.92019 0.901396 0.93161464 0.9218868 0.91288954 0.92020154 0.90908825 0.8986313
0.9144096 0.9730423 0.9615609 0.9126334 1.0086677 0.96387434 0.9380995 0.92748266
0.9667365 0.98893297 1.0054433 1.0350513 1.1737846 0.89086866
00000000: 6d48 7e3f 39bd 803f fcc5 783f 1f0a 7f3f
00000010: fedf 623f 121d 613f 99fd 693f fd02 6c3f
00000020: 7c05 6e3f 3cae 663f 374b 733f 436a 713f
00000030: 9e20 693f b566 783f 8061 713f cc24 743f
00000040: 9291 6b3f e3c1 663f 4c7e 6e3f c600 6c3f
00000050: 21b3 693f 5492 6b3f 02ba 683f b30c 663f
00000060: bf16 6a3f 4d19 793f db28 763f 58a2 693f
00000070: 061c 813f 78c0 763f 4a27 703f 816f 6d3f
00000080: 0b7c 773f b62a 7d3f 5eb2 803f 907c 843f
00000090: 933e 963f f80f 643f

bn_in.bias f4 [38]
-8.636103e-05 -0.0002532716 -0.00033429964 -0.00035533344 0.0021943569 0.00041619115 -0.0018629789 0.00017864736
0.002684537 -0.0007194028 0.0016624962 0.002039304 0.00073052786 -0.000560124 0.0012249771 -0.0003054268
0.00060827885 -0.00011140422 -0.001181809 0.001867925 0.0005266708 5.0733095e-05 -0.0011553359 -0.0011148712
-0.0004569179 0.0001281725 0.0011079117 0.0010394593 0.0026302629 0.00093485316 0.0024832126 0.0013484631
0.0034390385 -0.00042070233 0.0011900173 -0.0011617021 -0.0066388315 -0.0004044188
00000000: ba1c b5b8 8ac9 84b9 f044 afb9 0c4c bab9
00000010: 33cf 0f3b 3b34 da39 332f f4ba 4953 3b39
00000020: 0fef 2f3b 4e96 3cba 1ee8 d93a d8a5 053b
00000030: e580 3f3a 49d5 12ba 698f a03a b121 a0b9
00000040: e774 1f3a afa1 e9b8 eee6 9aba 2ad5 f43a
00000050: 4710 0a3a 3fca 5438 a46e 97ba df20 92ba
00000060: 7b8e efb9 0b66 0639 5937 913a 773e 883a
00000070: 7d60 2c3b ef10 753a 65bd 223b eabe b03a
00000080: 7e61 613b b691 dcb9 5bfa 9b3a 4144 98ba
00000090: 8e8a d9bb 2c08 d4b9

bn_in.running_mean f4 [38]
-0.046855286 0.054895934 0.6096348 -0.31475204 0.43924776 0.2059791 1.6605189 -0.38549146
0.026091656 -1.0389403 -0.5781897 -0.13950616 0.24103937 1.1636106 -0.13999262 -0.21975681
-1.0944659 0.049138393 0.07447553 0.8358221 0.24855404 0.3513403 -0.186793 -0.13594723
-0.08295557 -0.097071104 -0.30857918 0.071689874 0.026983377 0.009774909 0.017214457 0.022108052
-0.007918681 -0.009282485 0.0107547855 0.0021561198 -0.0019985312 0.0023395661
00000000: 54eb 3fbd 8fda 603d 0711 1c3f 2e27 a1be
00000010: 15e5 e03e 2fec 523e e28b d43f 235f c5be
00000020: 2bbe d53c fffb 84bf 3d04 14bf b4da 0ebe
00000030: 06d3 763e 31f1 943f 3a5a 0fbe ee07 61be
00000040: 7517 8cbf 5745 493d a086 983d 70f8 553f
00000050: f384 7e3e e0e2 b33e aa46 3fbe c035 0bbe
00000060: 9ce4 a9bd 37cd c6bd 17fe 9dbe 24d2 923d
00000070: 3e0c dd3c f126 203c 5505 8d3c f21b b53c
00000080: 5bbd 01bc 9015 18bc d734 303c b04d 0d3b
00000090: caf9 02bb 6853 193b

bn_in.running_var f4 [38]
1.027436 1.3710355 0.4478791 1.5360166 0.41244745 0.07230285 1.4813317 0.027463248
0.08027055 0.08414608 0.17508812 0.11719519 0.33506253 0.48696917 0.49311644 0.30785373
0.23735571 0.26741955 0.18572094 1.6573281 0.86685646 0.4839361 0.13400559 0.73619884
0.28476393 0.62146896 0.17953625 0.8129502 1.0520238 1.0263481 1.0481684 1.208203
0.92224646 0.8643031 1.0454327 1.0282458 0.8659485 1.0126277
00000000: 0683 833f 177e af3f 6950 e53e 319c c43f
00000010: 502c d33e 8413 943d 479c bd3f 9bfa e03c
00000020: e364 a43d c854 ac3d 4d4a 333e 0804 f03d
00000030: 518d ab3e 0654 f93e c279 fc3e 019f 9d3e
00000040: 600d 733e 37eb 883e a12d 3e3e 5423 d43f
00000050: 4eea 5d3f 79c6 f73e c338 093e 8777 3c3f
00000060: 94cc 913e 9718 1f3f 5ad8 373e 811d 503f
00000070: b7a8 863f 605f 833f 622a 863f 65a6 9a3f
00000080: 5818 6c3f f842 5d3f bdd0 853f 8f9d 833f
00000090: cdae 5d3f c99d 813f
