backend/models/tabm_k4.onnx (onnx, 70548 bytes, 10 tensors)

embedding.embeddings.0.weight f4 [10, 4]
000000 6c 0c 14 be 42 23 e5 bf 78 aa a8 3f e9 22 d7 bf
       -0.14457864 -1.7901385 1.3177023 -1.6807529
000010 64 21 0f c0 e4 fa f2 be f0 96 9f 3e d4 75 ce be
       -2.236413 -0.4745704 0.31169844 -0.4032427
000020 15 2d 53 3e b1 d0 9b be a5 6c ad 3f eb ca a4 bf
       0.20622666 -0.30432656 1.3548781 -1.2874426
000030 85 b9 3b bf f5 90 d9 bf 4d cc 83 be 27 9c 2e bf
       -0.73329955 -1.6997362 -0.25741807 -0.6820702
000040 90 90 d4 3e d7 c2 50 bf 0d fe fc bd f9 e5 e1 be
       0.41516542 -0.815473 -0.12353144 -0.44120768
000050 99 79 56 3f f5 d2 d3 be f5 4d 5a bf e2 ad 28 bf
       0.83779293 -0.41371885 -0.85275203 -0.65890324
000060 42 f2 99 3f 68 80 10 be e8 13 d2 3e d3 37 c8 be
       1.2027056 -0.14111483 0.41030812 -0.3910509
000070 0c 5e 1b bf 95 ab 18 c0 11 b7 fe bd cd 4d 59 bf
       -0.6069038 -2.3854725 -0.12437261 -0.8488434
000080 37 7a f7 be 94 29 73 3f 97 c0 11 c0 15 e0 92 3e
       -0.4833543 0.9498532 -2.2773798 0.28686586
000090 1f 5d 8c 3d b8 34 33 3f f5 96 40 bf d9 91 c0 3d
       0.06853699 0.7000232 -0.7523034 0.09402818

embedding.embeddings.1.weight f4 [3, 4]
000000 03 73 d9 bf e1 27 95 bf 29 39 0c 3f fa 62 14 bf
       -1.6988224 -1.1652795 0.5477472 -0.57963526
000010 9f 96 52 bf 1f bd b9 3f 87 3d 9d be 42 c2 90 bf
       -0.8226108 1.451084 -0.30711004 -1.1309283
000020 7b ce 90 3f 06 64 3f 3f 2d 6e 63 3f fd d1 33 bf
       1.1313013 0.74762 0.8883999 -0.7024229

embedding.embeddings.2.weight f4 [2, 4]
000000 b0 d8 26 3e a2 b1 01 3e 22 8b ae be 1f 95 fe bd
       0.16293597 0.12665418 -0.34090525 -0.12430786
000010 6a 56 4e 3f e1 57 49 3f 63 ff 78 bf 7d 1e 29 3f
       0.8060061 0.7864972 -0.9726469 0.66062146

embedding.embeddings.3.weight f4 [8, 4]
000000 d6 5b 71 bf 21 81 83 bf ba f8 f3 be 48 db 9f bf
       -0.94280756 -1.0273782 -0.476507 -1.2488794
000010 3e 9a 28 bf 08 b2 b0 be 29 a1 e4 be 40 8b 8f 3e
       -0.65860355 -0.34510827 -0.44654205 0.28035927
000020 83 b6 82 3e df be 8a 3f ae 3b ab bf dc 6a ad 3f
       0.2552987 1.0839499 -1.3377588 1.3548236
000030 27 88 32 bd 3e 4d 29 3f 96 ac 20 3f bd 48 a3 3f
       -0.043586876 0.6613349 0.62763345 1.2756573
000040 1c 5d f9 bf ec 08 bd 3f 05 ce ce bf 09 5b 1a 3f
       -1.948154 1.4768348 -1.6156622 0.6029516
000050 71 74 d8 bd ec 87 3d 3f f8 2b 6d 3f 9d a6 ee bd
       -0.105690844 0.74035525 0.92645216 -0.11652873
000060 4d be 0d 3f b5 51 19 3f 42 10 5a be 97 f5 09 bf
       0.553685 0.598903 -0.21295264 -0.53890365
000070 85 fc 19 be 1e fe 02 be 06 fc bb 3f 8d 4d ae 3e
       -0.15037735 -0.1279225 1.4686286 0.34043542

embedding.embeddings.4.weight f4 [13, 4]
000000 b8 e0 85 3e a9 74 8e bd 64 a0 79 bf 53 69 19 bf
       0.2614801 -0.06955845 -0.9751036 -0.59926337
000010 dd a1 a1 bf d0 d5 52 3e c6 2a 8d 3e 7f 2a 28 bf
       -1.2627522 0.20589375 0.27571696 -0.65689844
000020 7f dd ac 3f 67 0d f3 bf ed 28 2f 3e f0 8a fb 3e
       1.3505095 -1.8988465 0.17105456 0.49129438
000030 c1 88 9a 3f d7 29 64 3e 60 30 20 3f 93 25 a7 be
       1.2072984 0.22281586 0.62573814 -0.32645854
000040 79 c0 51 3e 82 f9 e6 3f ac 3a dd be a0 0f a9 bf
       0.20483579 1.8044894 -0.43208826 -1.3207893
000050 24 80 90 bf 9c 8c 04 be 57 de 0a 3e 05 94 6e 3d
       -1.1289105 -0.12944263 0.13561378 0.05824663
000060 2d d0 c3 3f 8f 52 3b 3f 30 de d9 bd f5 50 80 3e
       1.5297905 0.7317285 -0.10638082 0.25061765
000070 ac bb b9 3f af 3f 85 bc 53 01 50 bf 1e 63 83 be
       1.4510398 -0.016265718 -0.8125202 -0.25661558
000080 dd fd b4 3e b6 d7 90 bd 85 62 b2 bf 6d 95 b6 bf
       0.35349932 -0.070723936 -1.3936316 -1.4264351
000090 74 d2 eb be 42 10 e8 3f 2e 60 b4 3f e0 02 a3 bd
       -0.46059 1.8129961 1.4091852 -0.07959533
0000a0 f7 91 fc bd e6 5b 05 40 74 0d 9f be fb ae a7 3f
       -0.12332528 2.083734 -0.3106495 1.3100275
0000b0 c3 f7 05 bf a4 1c e8 3e 5c 31 18 bf 70 c3 51 bf
       -0.5233118 0.4533435 -0.59450316 -0.8193884
0000c0 d8 83 2e bf 8d a2 93 bf bb e7 20 3f d0 6f da 3d
       -0.6816993 -1.1533982 0.6285359 0.10665858

embedding.embeddings.5.weight f4 [9, 4]
000000 88 1f 0f 3d 14 57 44 3d 9b fe 14 3f cb a5 3d bf
       0.03494218 0.047934607 0.58201 -0.74081105
000010 97 55 d3 bd 1a 6a 07 bf dc be 2d bf a2 1d a1 be
       -0.10319059 -0.52896273 -0.67869353 -0.3146792
000020 92 e8 d2 be 9c 03 0a c0 b4 0f 88 bd 84 0d 82 3e
       -0.41193062 -2.1564703 -0.0664362 0.25400937
000030 90 8b 86 be 61 8d 58 bf 30 12 f6 be bb d6 8d 3f
       -0.26278353 -0.8459073 -0.4806075 1.1081156
000040 33 34 82 3f ff ca 8b 3f 1f 92 8f be df 49 02 3f
       1.017218 1.0921324 -0.2804117 0.5089397
000050 cd 31 00 3e 9e f7 52 3f d0 2a 8d 3f 2a 4b 44 bf
       0.12518997 0.82409084 1.102869 -0.7667719
000060 03 9a e0 3e 72 1a a3 3f 05 9d ad bf 1f 9c 3b bc
       0.43867502 1.2742445 -1.3563544 -0.011450796
000070 93 53 4d bf bc dd 62 3e d4 7c 11 3f 0d 47 d0 be
       -0.8020565 0.22154897 0.568311 -0.40679207
000080 6b 06 7b bf 1c 2f aa bf 20 7d 85 bd 85 07 a6 bf
       -0.9805667 -1.3295627 -0.06518006 -1.2971045

bn_in.weight f4 [38]
000000 3f c0 80 3f bc ae 7b 3f be 39 79 3f 70 26 7a 3f
       1.0058669 0.983135 0.9735373 0.977149
000010 48 51 76 3f 6e 0f 6d 3f 72 3a 6c 3f ec 4d 68 3f
       0.96217775 0.9260167 0.9227668 0.907439
000020 53 25 6c 3f f3 f2 71 3f 23 d0 68 3f 58 a4 72 3f
       0.9224445 0.94511336 0.9094259 0.9478202
000030 10 d9 6a 3f 96 0e 6f 3f 6c 9a 6b 3f f4 82 70 3f
       0.9173746 0.9338163 0.92032504 0.9394982
000040 24 9e 65 3f f7 3a 69 3f 32 4d 69 3f aa ff 71 3f
       0.8969443 0.911056 0.91133416 0.9453074
000050 5e 80 69 3f 0d b0 67 3f bb 04 6a 3f 30 64 69 3f
       0.912115 0.9050301 0.9141347 0.911685
000060 5e 3a 70 3f 02 39 78 3f b1 8f 6f 3f 68 91 75 3f
       0.9383906 0.96961987 0.9357863 0.95925
000070 34 7a 84 3f c3 00 72 3f e4 a8 72 3f ad 58 6b 3f
       1.0349793 0.9453241 0.94788957 0.91932184
000080 87 9f 77 3f 10 28 7c 3f e0 43 80 3f f5 44 82 3f
       0.96727794 0.9849863 1.0020714 1.0177294
000090 5b 86 92 3f db 46 69 3f
       1.1447252 0.9112374

bn_in.bias f4 [38]
000000 27 a2 25 3a c0 63 1f 3a f8 f5 5c b9 da 52 10 ba
       0.0006318413 0.00060802326 -0.00021072465 -0.000550551
000010 d1 b4 a3 ba 3d bc c7 39 b2 92 d4 b9 60 d9 9b ba
       -0.00124898 0.00038096486 -0.00040545088 -0.0011890344
000020 cc 9d c3 ba aa c7 9e 3a a1 83 00 3a 85 e4 46 3a
       -0.0014924346 0.0012113948 0.0004902427 0.00075871526
000030 ab 10 63 b9 b4 a4 d0 ba 5e 72 63 3a 20 fd cc 39
       -0.00021654616 -0.0015918226 0.0008676405 0.00039098505
000040 c8 67 c3 39 9f 07 8d b9 f1 ab 15 3a c5 22 6d 3a
       0.0003727062 -0.00026899294 0.000570952 0.00090460136
000050 7a 87 cd 3a c7 05 17 ba 53 48 e7 39 c8 5a af 3a
       0.0015680634 -0.0005761054 0.0004411364 0.0013378495
000060 27 36 c2 ba 40 cc 0d ba c3 25 ca 3a b4 b1 da b9
       -0.0014817164 -0.0005409159 0.0015422631 -0.000417126
000070 f0 8c a4 ba e3 30 1b ba 87 5b 7d b8 ec 62 f7 39
       -0.001255421 -0.00059200655 -6.0405142e-05 0.00047185214
000080 43 aa 0e 3a bb cb ff ba 1c ce b3 3a 4c 12 af 3a
       0.0005442241 -0.0019515672 0.0013718042 0.0013356893
000090 97 bb 24 3c ed 80 a2 39
       0.0100544905 0.00030995105

bn_in.running_mean f4 [38]
000000 8a 2d 02 bd e4 84 53 bf 66 79 97 bd dc ed 10 bf
       -0.03178171 -0.8262465 -0.07396202 -0.56612945
000010 0b 0a 39 3f c0 41 fa 3e c4 93 54 3f 3d 4a 30 bf
       0.7228095 0.48878288 0.8303797 -0.6886328
000020 1f 13 9f 3e 7f 9c 8e 3e 7d e4 f8 be 71 3f 68 3d
       0.31069276 0.27853772 -0.48611823 0.056701127
000030 88 5d ff be d5 70 16 be 2c 9b 13 bf 3c 08 63 3e
       -0.49876046 -0.1469148 -0.5765865 0.2217111
000040 20 ec 17 bf d0 f4 39 bd 7b c6 48 be a3 46 32 be
       -0.59344673 -0.045399487 -0.19606964 -0.17409758
000050 88 7f eb bd 07 67 e6 be 53 1b ca 3d 51 70 7f be
       -0.11498934 -0.4500048 0.09868493 -0.24945189
000060 35 e0 20 3e 34 5e fc be a0 85 50 3e 96 3a 99 be
       0.15710528 -0.4929062 0.20363474 -0.2992751
000070 f4 84 c7 3b 03 3d 51 3c 49 62 35 3c 0c 34 8a 3c
       0.0060888473 0.012770894 0.011070796 0.016870521
000080 e5 6b 28 bc 96 8b 3c bb ac 01 22 3c 96 24 4a 3c
       -0.01027963 -0.0028769723 0.009888094 0.012337824
000090 c2 d4 b9 bb bb 99 9b 3a
       -0.0056711147 0.0011871377

bn_in.running_var f4 [38]
000000 4d e8 aa 3f e6 4e 86 3f a7 45 02 3f 72 e3 08 3e
       1.3352143 1.0492828 0.5088753 0.13368014
000010 2f f2 79 3f 5a 40 e3 3e 2e 44 d0 3c 11 bf 65 3b
       0.9763517 0.44385034 0.025423136 0.0035056511
000020 69 cd 97 3d 5c 53 9f 3d 44 68 92 3d 24 bb e0 3d
       0.07412226 0.077795714 0.07148793 0.10973194
000030 0c 00 3c 3e 56 0a 07 3f d5 aa 68 3e 45 f1 44 3f
       0.18359393 0.52750146 0.22721417 0.7693065
000040 02 10 29 3f 7b 40 c4 3d 38 e0 a0 3e dd cd 20 3e
       0.6604005 0.09582611 0.31421065 0.1570353
000050 af 2a 09 3e a4 9d 8c 3f 34 7a c3 3e fc 9c d2 3e
       0.13395189 1.0985608 0.3817917 0.41135395
000060 14 d5 2d 40 04 f4 2a 40 26 a2 94 3f d2 43 7d 3f
       2.7161303 2.6711435 1.1611984 0.9893161
000070 58 ca 81 3f e2 2b 8d 3f af 51 8d 3f 7a b3 94 3f
       1.0139875 1.1029017 1.1040553 1.1617272
000080 e0 9f 63 3f 6d d5 91 3f bf bb 82 3f d6 26 82 3f
       0.88915825 1.1393257 1.0213546 1.0168102
000090 78 15 6d 3f 24 c7 81 3f
       0.92610884 1.0138898
