backend/models/tabm_k2.pth (torch, 197471 bytes, 37 tensors)

embedding.embeddings.0.weight f4 [10, 4]
00000000: 20b2 eebc b92c d7bf 02e4 723f f339 243e
00000010: 0a95 373e 28a3 a6be 0d0f a23f 0e98 803e
00000020: e726 913f 965a 8f3f 4ace 0b3f 596d 93bf
00000030: 771b a13e 8079 1640 0122 b7be e576 32bf
00000040: beb6 01bf 3e39 cf3e 3e7f ee3f adc0 f23e
00000050: d1e7 993d f115 5bbf 8374 bdbc a877 0cc0
00000060: 68fa 473f ada7 cb3f 885f a23f 3caf 8b3f
00000070: db48 cfbf 60c4 4fbf d528 5e3e 8e24 afbf
00000080: ab21 f43f 4c20 353e 3b9f 56bf 278f 1b3f
00000090: 83ff 3c3e ee1a c6bf 2796 bc3e 57d9 6e3f
-0.029137671 -1.6810523 0.9487916 0.16037731 0.17927948 -0.32546353 1.2660843 0.2511601
1.1339997 1.119952 0.5461165 -1.1517745 0.31466267 2.3511658 -0.3576813 -0.6971267
-0.5066947 0.4047336 1.8632581 0.47412625 0.075149186 -0.85580355 -0.023126846 -2.1948032
0.78116465 1.5910546 1.2685404 1.0912852 -1.6194109 -0.8115902 0.21695264 -1.3683031
1.9072775 0.17688102 -0.83836716 0.6076531 0.18456845 -1.5476968 0.36833307 0.93300384

embedding.embeddings.1.weight f4 [3, 4]
00000000: daab 87bf 373a 573f adfd a1bf a213 8fbd
00000010: 3684 b3bf 4d92 5a3f ba8b 30bd 8bbb 3f3f
00000020: 4cd4 353f f738 bd3d 0610 0b40 7ef3 e5be
-1.059932 0.84073204 -1.2655541 -0.069861665 -1.4024723 0.8537949 -0.043102004 0.7489554
0.71027064 0.09239381 2.172853 -0.44912332

embedding.embeddings.2.weight f4 [2, 4]
00000000: 2f33 3b3e b086 99bf 8d82 b1be c965 a8be
00000010: c97a f8be a6eb 03bf 73b0 aabf f0f7 f43e
0.18281244 -1.1994228 -0.34669915 -0.32890156 -0.48531178 -0.51531446 -1.3335098 0.4784541

embedding.embeddings.3.weight f4 [8, 4]
00000000: a2fd 163f 6647 0bbe e9e0 9c3f b739 053f
00000010: bde5 0a3f dac0 cc3f 55ef 0fbf 39a4 30bf
00000020: 2b00 00bf 2244 a53f 70ec 9cbe d72f b63e
00000030: 7455 c9bf bcff d13f 8859 f4be 6327 08bf
00000040: 6268 80be d299 56bf 44ac 95bf 1494 57bf
00000050: d3c7 e1bf 0302 a7bf 9989 22bf 816d 3e3f
00000060: b295 5fbf 94c8 07bf 7042 bdbd 0683 b83e
00000070: fd6c 68bf dd50 003e bbfa 1fbf f0bd 36bf
0.5898076 -0.13601455 1.2256137 0.5204119 0.542568 1.5996354 -0.56224567 -0.69000584
-0.50000256 1.2911417 -0.30649137 0.35583374 -1.5729203 1.6406169 -0.47724557 -0.531851
-0.25079638 -0.8382846 -1.1693196 -0.84210324 -1.7639107 -1.3047489 -0.6349121 0.7438584
-0.8733779 -0.5304043 -0.092411876 0.36037463 -0.907913 0.12530847 -0.6249196 -0.7138357

embedding.embeddings.4.weight f4 [13, 4]
00000000: a274 17bf 59bf 1b3f cc20 b8be ab86 5740
00000010: 5a47 6a3e 5c66 4e3e ed57 ce3e 0b11 273f
00000020: cdd7 63be 002b 07bf be00 4bbe 8fa9 ab3f
00000030: 138c ec3e bfe5 bc3e e34a 8b3f 28f5 8c3f
00000040: 880c bebe 4277 29bf 17c0 98bf e346 8c3f
00000050: b47d b5bf ae3d 49bc 5db3 873e 672b 813e
00000060: 5b3f 02bf 5d4e 7b3f a0a9 8fbf 12e8 3abf
00000070: 27e8 0fbf d2d2 bdbf 8867 69be 79ae 3cbf
00000080: e48e 2fbf 5df0 4f3f 287e 29be 37b3 023f
00000090: 87a1 6d3e 2f51 a7bf 52f1 c2bf 0bd7 883f
000000a0: c87c 0240 7299 a23f f578 2040 2d36 6f3f
000000b0: cd0a 82bf f8dc 19be 3a68 e03f 4fe7 fb3d
000000c0: 0f4c 7dbf b755 c63f 093c 923e 05fc a2bf
-0.5916234 0.6083885 -0.35962522 3.3675945 0.22878781 0.20156235 0.40301457 0.6526038
-0.2225029 -0.5279999 -0.19824502 1.341112 0.46200618 0.36894032 1.0882229 1.1012316
-0.37118936 -0.661976 -1.1933621 1.0959133 -1.4178987 -0.012282772 0.2650403 0.25228426
-0.5087792 0.9816645 -1.122364 -0.7301036 -0.5621361 -1.4829962 -0.227934 -0.73703724
-0.6857741 0.8122614 -0.16552031 0.5105471 0.23206149 -1.307165 -1.5229895 1.0690626
2.038866 1.2703078 2.5073826 0.9344204 -1.0159546 -0.15025699 1.7531807 0.12299978
-0.9894418 1.5494908 0.28561428 -1.273316

embedding.embeddings.5.weight f4 [9, 4]
00000000: b808 ae3e fa51 563f b4ea 00be bce2 91bf
00000010: c86a d13d 43e0 883f 5666 72bf 9afa 753e
00000020: 2089 9c3f 6024 44bd d1a9 96be bd36 733f
00000030: cbd7 883f dc5c 97bf 0997 933d 6c0a 303f
00000040: 2107 773f fb40 063f 28cc 2f3f ade5 6e3e
00000050: fa8d 4abf 813c 593f d491 d53e 76cf 883e
00000060: a1ea 0fc0 6399 623d b06a 4ebd 1fda ee3e
00000070: 750e 083e d5b1 a5bf fe3a 4abe da71 75be
00000080: b980 b9bf e0ad 3f3e 293f 69bf 9d0b a7be
0.33991027 0.83718836 -0.12589532 -1.1397319 0.10225445 1.0693439 -0.946874 0.24021378
1.2229347 -0.047886252 -0.29426435 0.950054 1.0690855 -1.1825213 0.07206542 0.687659
0.9649525 0.524429 0.6867089 0.23329802 -0.7912289 0.84857947 0.4171282 0.2672078
-2.2486956 0.055322062 -0.050394714 0.46650788 0.13286765 -1.2944895 -0.19749066 -0.23969212
-1.4492408 0.18718672 -0.91112 -0.32626048

embedding.embeddings.6.weight f4 [20, 4]
00000000: 2338 09bf 1362 823f e577 f1be 5284 04be
00000010: 5d39 e9bd 19d7 a2bf c534 753e aa9e 9bbe
00000020: 0c59 93bf 4943 a6bd 88eb 813f 8b10 8fbf
00000030: dee4 2440 6890 bebd 039f 893f 8588 acbe
00000040: ce70 0c3e 2369 543e 16fe f23c f71e d83e
00000050: b6a6 afbf 8853 dbbe f46b 6f3f 62ca b13f
00000060: 984e e4bf ada1 07bf ae3d aebe b310 1740
00000070: 9a4e 56bf ed6b 683f bfbe e9bf c70c 883f
00000080: 7fe7 bdbf 82c2 e0bf 2652 443f 4f02 bbbe
00000090: 3519 38bd e4c8 ad3f a6f2 67bf 1606 4a3f
000000a0: c772 4fbf e4f6 7f3f ba18 103c 9a98 053f
000000b0: 5b7c 153e c3d9 43bf a8a7 94be 1e62 8f3f
000000c0: 649d 3d3e 6643 1abf ba7d 9ebe 14cc 033d
000000d0: c685 803e 1a4b 24bd cf22 5abd 8ec4 b2bf
000000e0: 67b1 623e 37cb 463f c7bb c8be d5f2 7fbe
000000f0: c3b2 7e3f adab 3cbf 8bf2 0ac0 8695 403d
00000100: f557 00c0 7eac d5bf 7925 39bf ab82 07bf
00000110: 625c 57be b17d 143f 13fa 903f bb18 1f3e
00000120: 0f9c f9be 4ad3 bc3e 6fce 87bf 533f 363e
00000130: 8d7b e63d ec46 993f ee32 79bf affd 7b3f
-0.5360128 1.018618 -0.47161785 -0.12941101 -0.11387894 -1.2721893 0.23945911 -0.3039449
-1.151155 -0.081183024 1.0150003 -1.1176924 2.576469 -0.09304887 1.0751652 -0.33697906
0.13714907 0.20743231 0.029662173 0.42211124 -1.3722751 -0.42837167 0.935241 1.3889887
-1.7836485 -0.5298107 -0.34031433 2.3603942 -0.83713686 0.9078968 -1.8261336 1.0628899
-1.4836272 -1.7559359 0.7668785 -0.365252 -0.044945914 1.3576932 -0.9060463 0.78915536
-0.8103451 0.999861 0.008794958 0.52185977 0.14598219 -0.76504153 -0.29034162 1.1201818
0.18517071 -0.6025909 -0.30955297 0.032177046 0.2510206 -0.040110685 -0.053255852 -1.3966234
0.22137986 0.7765383 -0.39205763 -0.24994977 0.9949152 -0.73699456 -2.1710536 0.047017597
-2.0053685 -1.6693265 -0.72322804 -0.5293376 -0.21031335 0.5800429 1.1326317 0.15536778
-0.48751876 0.3687995 -1.0609874 0.17797594 0.11254034 1.1974769 -0.9734334 0.98433965

bn_in.weight f4 [38]
00000000: 6d48 7e3f 39bd 803f fcc5 783f 1f0a 7f3f
00000010: fedf 623f 121d 613f 99fd 693f fd02 6c3f
00000020: 7c05 6e3f 3cae 663f 374b 733f 436a 713f
00000030: 9e20 693f b566 783f 8061 713f cc24 743f
00000040: 9291 6b3f e3c1 663f 4c7e 6e3f c600 6c3f
00000050: 21b3 693f 5492 6b3f 02ba 683f b30c 663f
00000060: bf16 6a3f 4d19 793f db28 763f 58a2 693f
00000070: 061c 813f 78c0 763f 4a27 703f 816f 6d3f
00000080: 0b7c 773f b62a 7d3f 5eb2 803f 907c 843f
00000090: 933e 963f f80f 643f
0.9932926 1.0057746 0.971771 0.9962482 0.88623035 0.8793498 0.91402584 0.9219206
0.9297712 0.9010961 0.95036644 0.9430277 0.91065395 0.9703172 0.942894 0.9536865
0.92019 0.901396 0.93161464 0.9218868 0.91288954 0.92020154 0.90908825 0.8986313
0.9144096 0.9730423 0.9615609 0.9126334 1.0086677 0.96387434 0.9380995 0.92748266
0.9667365 0.98893297 1.0054433 1.0350513 1.1737846 0.89086866

bn_in.bias f4 [38]
00000000: ba1c b5b8 8ac9 84b9 f044 afb9 0c4c bab9
00000010: 33cf 0f3b 3b34 da39 332f f4ba 4953 3b39
00000020: 0fef 2f3b 4e96 3cba 1ee8 d93a d8a5 053b
00000030: e580 3f3a 49d5 12ba 698f a03a b121 a0b9
00000040: e774 1f3a afa1 e9b8 eee6 9aba 2ad5 f43a
00000050: 4710 0a3a 3fca 5438 a46e 97ba df20 92ba
00000060: 7b8e efb9 0b66 0639 5937 913a 773e 883a
00000070: 7d60 2c3b ef10 753a 65bd 223b eabe b03a
00000080: 7e61 613b b691 dcb9 5bfa 9b3a 4144 98ba
00000090: 8e8a d9bb 2c08 d4b9
-8.636103e-05 -0.0002532716 -0.00033429964 -0.00035533344 0.0021943569 0.00041619115 -0.0018629789 0.00017864736
0.002684537 -0.0007194028 0.0016624962 0.002039304 0.00073052786 -0.000560124 0.0012249771 -0.0003054268
0.00060827885 -0.00011140422 -0.001181809 0.001867925 0.0005266708 5.0733095e-05 -0.0011553359 -0.0011148712
-0.0004569179 0.0001281725 0.0011079117 0.0010394593 0.0026302629 0.00093485316 0.0024832126 0.0013484631
0.0034390385 -0.00042070233 0.0011900173 -0.0011617021 -0.0066388315 -0.0004044188

bn_in.running_mean f4 [38]
00000000: 54eb 3fbd 8fda 603d 0711 1c3f 2e27 a1be
00000010: 15e5 e03e 2fec 523e e28b d43f 235f c5be
00000020: 2bbe d53c fffb 84bf 3d04 14bf b4da 0ebe
00000030: 06d3 763e 31f1 943f 3a5a 0fbe ee07 61be
00000040: 7517 8cbf 5745 493d a086 983d 70f8 553f
00000050: f384 7e3e e0e2 b33e aa46 3fbe c035 0bbe
00000060: 9ce4 a9bd 37cd c6bd 17fe 9dbe 24d2 923d
00000070: 3e0c dd3c f126 203c 5505 8d3c f21b b53c
00000080: 5bbd 01bc 9015 18bc d734 303c b04d 0d3b
00000090: caf9 02bb 6853 193b
-0.046855286 0.054895934 0.6096348 -0.31475204 0.43924776 0.2059791 1.6605189 -0.38549146
0.026091656 -1.0389403 -0.5781897 -0.13950616 0.24103937 1.1636106 -0.13999262 -0.21975681
-1.0944659 0.049138393 0.07447553 0.8358221 0.24855404 0.3513403 -0.186793 -0.13594723
-0.08295557 -0.097071104 -0.30857918 0.071689874 0.026983377 0.009774909 0.017214457 0.022108052
-0.007918681 -0.009282485 0.0107547855 0.0021561198 -0.0019985312 0.0023395661

bn_in.running_var f4 [38]
00000000: 0683 833f 177e af3f 6950 e53e 319c c43f
00000010: 502c d33e 8413 943d 479c bd3f 9bfa e03c
00000020: e364 a43d c854 ac3d 4d4a 333e 0804 f03d
00000030: 518d ab3e 0654 f93e c279 fc3e 019f 9d3e
00000040: 600d 733e 37eb 883e a12d 3e3e 5423 d43f
00000050: 4eea 5d3f 79c6 f73e c338 093e 8777 3c3f
00000060: 94cc 913e 9718 1f3f 5ad8 373e 811d 503f
00000070: b7a8 863f 605f 833f 622a 863f 65a6 9a3f
00000080: 5818 6c3f f842 5d3f bdd0 853f 8f9d 833f
00000090: cdae 5d3f c99d 813f
1.027436 1.3710355 0.4478791 1.5360166 0.41244745 0.07230285 1.4813317 0.027463248
0.08027055 0.08414608 0.17508812 0.11719519 0.33506253 0.48696917 0.49311644 0.30785373
0.23735571 0.26741955 0.18572094 1.6573281 0.86685646 0.4839361 0.13400559 0.73619884
0.28476393 0.62146896 0.17953625 0.8129502 1.0520238 1.0263481 1.0481684 1.208203
0.92224646 0.8643031 1.0454327 1.0282458 0.8659485 1.0126277

ensemble_blocks.0.0.weight f4 [128, 38]
00000000: 7ee7 e13c 02d7 253d 2e83 273c 140a d0bd
00000010: 8129 91bd 7e31 e83d ae04 883c b97a 443d
00000020: 3148 38bd fa18 0ebe ec6c 2a3d c662 373d
00000030: 5526 a0bd 74c4 553d 9eb3 283e 6667 ae3b
00000040: eb61 053e 6138 0b3e b0fb 50bd 5319 2a3e
00000050: 241d a6bd ca9e d4bd 19a6 e3bd eb93 543e
00000060: 87f5 1dbe d2d1 00be 5e1b 3d3e cd40 2dbc
00000070: 1774 173e 4d77 b5bd da53 963d e62a 92bd
00000080: 18a1 d13d e1a9 353c fa8e 7d3d 4486 fb3d
00000090: 279e 2e3d eef0 773b c139 a9bd 2a2a a9bd
000000a0: 409e cfbd f681 2bbd d791 8b3d 4889 38bc
000000b0: b2c0 1abe 2b4f 8d3d 6157 32bd c3c4 c23d
000000c0: e87c ecbd 673f f73c bf3b 633d 735d db3c
000000d0: 8f5c 17be 2544 1abb ffa5 00be e716 aabd
000000e0: c4be a0bd c8c6 c33d 6962 bd3d ddfe f1bd
000000f0: d8bf 6ebd 7eea 1a3e 2fb6 9b3d c8cc 29bc
00000100: 39b1 e53d c91b 6b3d fd74 8bbd 6a93 323d
00000110: c34e 9f3d 2324 913d 64a2 a9bc fa32 fe3d
00000120: d1c9 35be 5580 703c b9f2 093e a8e8 a5bc
00000130: 0744 113c bfc8 ad3c e8bf 153e 3cee 8abc
00000140: 3b67 bdbd fe76 17bd a728 e73d 1213 403d
00000150: 0d94 673d f2e0 3fbe 34a9 03bd 4bef 1cbc
00000160: 3bbe e8bd fcd6 d1bd 4ea5 843d f3ca 1e3e
00000170: c8b5 14bd f570 26be 10f7 483d 1815 553d
00000180: c2a4 9d3d 7aae 4fbd 3bd4 cb3d 9843 db3d
00000190: ac19 6fbd 9f59 003e 737c 9a3d 783a 5cbe
000001a0: 93eb 323d caa6 e6bd 572e 903b bb2f 21be
000001b0: 6327 d43c ff16 563d 5628 c2bd 58b7 8f3d
000001c0: 0072 163e ecad 7fbb 598a ca3d 8d13 cd3d
000001d0: e28c eeb9 749b cf3d def5 da3b 0f1c 3cbe
000001e0: 71d3 2d3e 1542 29be 853b 1dbe fc36 033e
000001f0: 9221 14be c909 933d 48ed 1f3e 861d ddbc
00000200: e428 15be eb1d 283e 8910 bbbd 15d0 c13d
00000210: 05c5 08be 7e5d 9d3c 5550 893c d99e f93d
00000220: 1806 6dbd b938 1ebe 68db 783c ae4f 23bd
00000230: 55da 5abd 7670 c03d c851 0fbe 1400 13be
00000240: 5657 9d3c 6939 c13d 4bcc 38bd 9be8 0b3e
00000250: 6b75 6e3d bdf2 07bd 68e0 c2bc aafa 1a3a
00000260: 02d3 f23c 08f7 11bd 3366 d43d 9fb8 10be
00000270: ccb0 b53d 757d ccbd 87e1 1d3e 00e3 b83c
00000280: d25e 1e3e 56f0 bb3d 125f ea3c 247a 153e
00000290: 421f 08be 5d36 2bbc 4d01 013e a7d9 e03d
000002a0: cb95 8a3d 16b1 1a3e 0702 53bb ecea 5bbd
000002b0: ac93 06be 72ea ba3d fbe5 e6bd 9cff d43d
000002c0: 9d49 e63d 4a92 b4bc cc76 fbbd db6c 0dbe
000002d0: edb3 fabc a49f af3d f16c fc3d bcb0 b9bd
000002e0: 89f5 13be 356f 68bc 428e 003d cbe4 b3bc
000002f0: af00 4a3d 9ec9 f5bd aa36 afb9 715c 3abd
00000300: 5498 123b 8526 d7bd fbc4 74bb 2e2e c0bd
00000310: 9643 15be 6ede e93d c4a5 ab3b 54d2 1f3d
00000320: 9fb3 15bd e899 f3bc 2547 f23d 5f07 53bd
00000330: e975 bcbd 92f7 98bc 00c0 7f3d 175a 723c
00000340: 0d09 20bd cc3e 783d 6ad8 bdbd 210d 7a3c
00000350: d95f 08be df6b 17bc e89a dd3d a225 ea3d
00000360: 9285 c83d dffc 20bd 9aa7 98bc 443f e53b
00000370: e3d2 82bd 44af e43d d7ae f4bd d232 ecbc
00000380: 7cdc 093e 0fee f8bd e0a0 9f3c d34b cebd
00000390: 755a 463b 8898 23be b198 54bd 3ec0 bbbd
000003a0: a153 c63d 3ad9 d8bd d766 1abd 7d57 0c3e
000003b0: 031a fb3d 61da 9f3d a39a d5bd 289c 51bd
000003c0: 3650 e1bd 543f f23d 9f39 93bd d2ef 063e
000003d0: 1be0 0b3d 1743 d8bc ec43 c6bc 1d9c 1b3e
000003e0: 1145 1abe 277f 2d3e c526 74bd be40 8c3d
000003f0: aabe 34be 2140 09be 9498 033e b3ef 093e
0.027576204 0.04048825 0.010224147 -0.10158172 -0.07087994 0.11337565 0.016603794 0.0479686
-0.044990722 -0.13876715 0.041607782 0.044771932 -0.07819811 0.052189305 0.16474769 0.0053223846
0.13025634 0.13595726 -0.051021278 0.16611223 -0.08111027 -0.10381849 -0.11115665 0.20759551
-0.15425692 -0.1258004 0.18467471 -0.010574532 0.14790379 -0.088606454 0.07340212 -0.071370885
0.10235804 0.011087866 0.06190393 0.122814685 0.042631295 0.0037832814 -0.08262969 -0.08259995
-0.10137606 -0.041871987 0.06814926 -0.011263199 -0.1511257 0.06899866 -0.043540362 0.095101856
-0.115472615 0.0301816 0.0554769 0.026777958 -0.14781402 -0.0023539152 -0.12563322 -0.083051495
-0.07848886 0.09559399 0.09247286 -0.118161894 -0.058288425 0.15128514 0.07603108 -0.010363765
0.11215443 0.057399545 -0.06809423 0.043597616 0.077786945 0.07086971 -0.020707317 0.12412067
-0.17752768 0.014679034 0.13471498 -0.02025254 0.008866317 0.021213887 0.14623988 -0.016959302
-0.09248205 -0.036978714 0.11287051 0.046893187 0.056537677 -0.18738154 -0.032143787 -0.009578536
-0.113644086 -0.10246083 0.06476842 0.15507106 -0.036306173 -0.16254027 0.049063742 0.05202207
0.07697441 -0.050703503 0.09952589 0.10706252 -0.058374092 0.12534188 0.07543268 -0.21506679
0.043681692 -0.11262281 0.0044000554 -0.15740864 0.025897687 0.052268025 -0.0948035 0.07017392
0.14691925 -0.0039013578 0.09889669 0.10013495 -0.00045499863 0.10137072 0.0066821417 -0.18370079
0.1697519 -0.16529115 -0.15354736 0.12813944 -0.14465931 0.07179601 0.1561786 -0.026991617
-0.1456638 0.16417663 -0.09134013 0.094635166 -0.13356407 0.01920962 0.016761938 0.12188501
-0.05786714 -0.15451325 0.015189029 -0.03987091 -0.053430874 0.0939645 -0.13996041 -0.14355499
0.019206684 0.09434778 -0.045116704 0.1366295 0.058217447 -0.033190478 -0.023788646 0.00059119856
0.029641632 -0.035635978 0.103710555 -0.14132927 0.08871612 -0.099848665 0.15418063 0.02256918
0.15465859 0.091767 0.028609786 0.14597374 -0.13293174 -0.010449973 0.12598152 0.10979014
0.06766852 0.15106615 -0.0032197253 -0.053690836 -0.1314227 0.09126748 -0.11274334 0.10400316
0.11244509 -0.022042412 -0.12278518 -0.13811056 -0.030603373 0.08575371 0.123254664 -0.090669125
-0.14449133 -0.01418667 0.031385668 -0.021959683 0.04931706 -0.12001346 -0.0003341933 -0.045498315
0.0022368627 -0.10505394 -0.0037348855 -0.09383808 -0.14576563 0.11419378 0.0052382667 0.039018944
-0.036548253 -0.029736474 0.11829976 -0.0515207 -0.09202177 -0.018672738 0.062438965 0.014791987
-0.03907113 0.060606763 -0.09269793 0.015261919 -0.13317813 -0.009242027 0.10820562 0.11432959
0.097911015 -0.039303657 -0.018634606 0.0069960672 -0.0638788 0.11166242 -0.119474106 -0.028832827
0.13463014 -0.12154781 0.01948589 -0.10073056 0.003026632 -0.15976155 -0.05190343 -0.09167527
0.0968392 -0.10588308 -0.037695732 0.13705249 0.12260821 0.07805324 -0.10429885 -0.051174313
-0.11001627 0.11828485 -0.07188725 0.13177422 0.03414927 -0.026399178 -0.02420231 0.15196271
-0.15065409 0.16943036 -0.059607286 0.06848286 -0.17650858 -0.1340337 0.12851173 0.13470344

ensemble_blocks.0.0.bias f4 [128]
00000000: 34bf d9bd 7db2 863c 1d82 1abe 8f22 69bd
00000010: 54ad afbd 1ee3 13bd e302 d43d 6d5f 123e
00000020: 49ca ed3d c45f 45bd d178 0ebd 565e 3e3d
00000030: c174 c8bd 8339 8d3c 9e75 83bd acd9 16be
00000040: cc8e ce3c 60f4 cebc 8049 a33d 3d49 cf3d
00000050: 4372 ad3d 08b6 55bd 1381 e43d 8a13 c63d
00000060: 56e6 81bc e32f 25be 24a4 433c ab32 f93d
00000070: a9c9 dbbd dd96 3f3d b611 debd 7e1b 86bd
00000080: 2d0b f3bd c10f 87bc bc00 f93d 5507 9d3c
00000090: 8c20 07be 01e4 c8bd 5c32 303d 91de 0d3e
000000a0: bcff 19be e622 46bd d4ab 063e 8a2a 97bd
000000b0: 96ee 0bbe c167 83bc 6437 453d 2808 0fbe
000000c0: 59be c23d 8fd2 e8bd 682f cabc 506d 1fbe
000000d0: 0a56 08be 7360 15be 4388 0c3e 1042 fdbd
000000e0: 105c 0dbe b1ad 96bd 66bc eb3c d96e ce3c
000000f0: 83bb 2dbd ab44 1d3e 5b13 f3bd 3fb3 9bbd
00000100: 6814 acbd c47c 12be 3b9a f9bd df41 223e
00000110: 6da7 4d3c 7337 20be b6fc 103e a7a4 1dbe
00000120: 0dcf 763d cf9e 243e 6544 bebd 00be 143e
00000130: 94cd 15be aa83 203e 87c8 af3d dc30 d9bc
00000140: 2053 9f3d 3abd b83d 9ce0 babd 7c84 0dbe
00000150: 0bff 27bd e098 20be 852e f23d 8dbd 07be
00000160: 1005 0ebd fbcd 58bd 5ef3 8d3d 4686 d53d
00000170: a8ba d53d ea3f f83d e871 d1bd 6a65 66bd
00000180: 0662 0bbe b4e7 fabd dd82 f2bc 80be ea39
00000190: e89b f33c 126b 203e 797d d93b c7eb b43d
000001a0: 3aa5 213e eea2 a73b 631c b63d 7db5 ae3d
000001b0: 7383 a3bc 1208 ecbd b766 78bc 9a39 d73d
000001c0: 7f3f b9bc ec5b 133e 3e4d e6bb 2bc7 4cbd
000001d0: 26df e63c 4539 ab3c f01b c13d f382 f1bc
000001e0: 3c4b bb3d 8fea 093d b835 9c3d 5501 173e
000001f0: dcc9 ca3d 4591 b2bd 88ff 0e3e d1eb 6abd
-0.10632172 0.016442532 -0.15088697 -0.056917723 -0.085779816 -0.036105268 0.10352113 0.14294215
0.116108485 -0.048187032 -0.03478319 0.046476685 -0.09787894 0.017239338 -0.06418918 -0.14731473
0.025214575 -0.025263011 0.079730034 0.10121391 0.08469059 -0.05217555 0.111574315 0.096716955
-0.015856903 -0.16131549 0.01194099 0.12167867 -0.10731823 0.046774734 -0.10843222 -0.065482125
-0.11867366 -0.016487004 0.12158343 0.019168535 -0.1319601 -0.09809113 0.043016776 0.13854434
-0.15038961 -0.048373125 0.13151485 -0.073811606 -0.13665232 -0.016040685 0.048148528 -0.13967955
0.09508962 -0.11368286 -0.024680808 -0.15569043 -0.13314071 -0.14587574 0.13723855 -0.12366116
-0.1380465 -0.07357348 0.028776359 0.02519934 -0.042415153 0.15358226 -0.11868926 -0.07602548
-0.0840233 -0.14305407 -0.1218762 0.1584544 0.012552124 -0.15646152 0.14158902 -0.15394841
0.060256053 0.16076206 -0.09290389 0.14525604 -0.14629203 0.15675226 0.085831694 -0.026512556
0.07779527 0.09020467 -0.09124872 -0.1382007 -0.041014712 -0.15683317 0.11825279 -0.13255902
-0.034672797 -0.052930813 0.06931184 0.10426001 0.104359925 0.12121566 -0.10226804 -0.05624906
-0.13611612 -0.12251225 -0.029603416 0.00044773892 0.029737428 0.15665844 0.006637272 0.088340335
0.15785685 0.0051158583 0.08892133 0.0853071 -0.01996014 -0.11524977 -0.015161208 0.105090335
-0.022613285 0.14390534 -0.007028251 -0.04999463 0.028182577 0.020901332 0.09429157 -0.029481387
0.09145209 0.033670958 0.076274335 0.14746602 0.09901783 -0.08719114 0.13964665 -0.0573538

ensemble_blocks.0.1.weight f4 [128]
00000000: 0deb 713f 3d02 743f d618 723f 877c 773f
00000010: 4388 793f 92d5 773f ed00 803f 353f 7f3f
00000020: 5573 743f 2a9b 823f 9d3c 7d3f 035c 7a3f
00000030: d5c5 813f 7834 7e3f 876a 853f 789c 843f
00000040: 9511 823f 97b4 853f 1ccd 7e3f 61fb 823f
00000050: 18e8 783f 1681 7c3f eeef 763f 0ae2 7a3f
00000060: 7525 7c3f f940 843f 2752 853f cea0 803f
00000070: e645 7a3f 8159 803f 9971 813f 86d7 793f
00000080: 3a69 763f 74cc 7a3f 79e4 7a3f 95d8 813f
00000090: 9d49 7f3f bf0e 7b3f 64cf 7f3f 6bd1 8c3f
000000a0: 5db8 843f a4be 823f 2c6e 753f 413b 833f
000000b0: 4065 7c3f fee1 763f f048 863f 77e1 813f
000000c0: 714a 7a3f 402c 7d3f 0ad5 833f 3a08 7c3f
000000d0: aec7 7e3f 78a1 783f 62d4 753f b986 803f
000000e0: 617a 823f ef11 793f 1ad9 7a3f 4325 7c3f
000000f0: 577d 773f 3d2a 743f 93dd 793f fca5 843f
00000100: 32d5 7f3f 449b 823f f0e2 823f 28f4 843f
00000110: 4fe6 823f a3c3 783f 5502 803f f3cd 843f
00000120: b8fb 803f 60c3 813f e975 7c3f 7d59 7f3f
00000130: 0615 753f b7f9 823f de5e 843f 7bdd 843f
00000140: f3da 7e3f cc37 823f 744f 7d3f 8642 843f
00000150: 412e 7b3f e5ab 7f3f fa57 863f 0931 843f
00000160: c709 7f3f c022 823f a6ff 753f 27b4 7e3f
00000170: a789 703f 1b81 7f3f 3b06 7c3f 3e7f 823f
00000180: 1651 883f 7898 7a3f d4e0 883f b740 773f
00000190: 621d 843f a422 7a3f ee4c 773f ce82 763f
000001a0: 0731 7e3f 7c7e 823f 241c 7c3f 5484 863f
000001b0: 9cc0 7b3f 94dd 793f a096 703f f0d0 7c3f
000001c0: 5994 873f b1d5 753f 8751 7a3f 465f 7d3f
000001d0: 4fb6 743f fe94 7c3f b20f 803f 9cf1 843f
000001e0: 1c91 743f fa82 813f 4beb 833f c834 833f
000001f0: 8725 813f ce42 843f e264 803f 5937 823f
0.94499284 0.95315915 0.94569147 0.9667439 0.97473544 0.9681026 1.0000283 0.9970582
0.9548848 1.0203602 0.98920614 0.9779665 1.0138499 0.9929881 1.0423135 1.036025
1.0161616 1.0445737 0.9953172 1.0232965 0.97229147 0.9863447 0.96459854 0.9800116
0.98494655 1.0332328 1.0415696 1.0049074 0.97762907 1.0027314 1.0112792 0.9759449
0.96254313 0.9796822 0.9800487 1.014422 0.997217 0.98069376 0.9992583 1.1001409
1.0368763 1.0214429 0.95871234 1.0252458 0.98591995 0.96438587 1.0491009 1.0146931
0.9776984 0.98895645 1.0299389 0.9845005 0.9952344 0.9712138 0.96027195 1.0041114
1.0193597 0.9729299 0.9798752 0.98494357 0.9667563 0.9537695 0.9760372 1.0363154
0.99934685 1.0203633 1.0225506 1.038701 1.0226535 0.9717352 1.0000712 1.0375351
1.0076818 1.0137749 0.98617417 0.99745923 0.95735204 1.0232457 1.0341451 1.038009
0.9955284 1.0173278 0.9894936 1.0332801 0.9811745 0.99871665 1.0495598 1.0327464
0.99624294 1.0166855 0.96093214 0.9949364 0.9396004 0.99806374 0.98447007 1.0195081
1.0649745 0.978889 1.0693612 0.9658312 1.0321467 0.9770911 0.9660176 0.9629334
0.9929356 1.019485 0.9848044 1.0509133 0.98340774 0.97603726 0.93979836 0.98756313
1.0592147 0.9602919 0.9778065 0.989735 0.9559068 0.98664844 1.000479 1.0386233
0.9553392 1.0118096 1.0306181 1.0250483 1.0089577 1.0332887 1.0030787 1.0173141

ensemble_blocks.0.1.bias f4 [128]
00000000: dba5 47bd 1a4c e5bc 1f84 d4bb 1037 42bd
00000010: a262 06bd ecc3 8ebc 1adc d3bb 1e90 083d
00000020: 504c 41bd b93c 72bb 5a69 2bbd 8eff 9cbb
00000030: e22b f6bc d240 2dbd 9bd6 3a3c d073 d93c
00000040: 5ebc b3bb 5b18 83bd 6f8e 12bd 935c 41bc
00000050: bc71 bdbc 356c a8bd a55a 77bd 512b 943d
00000060: fd23 45bd adea 17bc 971e 013d 92cb e63c
00000070: ef31 e0bb 7fdd da3c 2b37 fdbc db20 323d
00000080: c90f 18bb 4897 8d3b 3ae7 6bbb 7677 d2bc
00000090: a762 1439 c62c c0bc 56e9 64bd b71c 913c
000000a0: 1edb d53c 8734 c83b 2c3c dabb 87e5 acbc
000000b0: 3633 80bd cae2 c2bb 6c11 193c aa43 de3c
000000c0: 2bcc 8dbc beae 06bd 0719 b7bc fafc 0dbb
000000d0: 2f09 cfbb d450 043b d789 bbbc 54b4 e0bc
000000e0: d7c8 3c3d 8e88 2bbc 1758 93bd 7252 9cbd
000000f0: 29fa 92bc c747 82bd f454 0abd 326d fa3c
00000100: fec0 323d f02e 243c 6411 133d 86a0 b83c
00000110: 91e4 9f3c 6a2d 3b3c ee99 ce3c a1e8 0abd
00000120: 1ea1 973d 6fb0 edbc 263e 93bc 5ca6 9b3c
00000130: f995 953c 570e d03c f874 8c3a 6d6e 1b3d
00000140: f2d1 c0bc 4c78 b23c 37da 32bd a603 883c
00000150: f235 e3bb eace 98bc 2b0c d93c 546b 3ebc
00000160: 918e b5bc cdd1 c0bc 47bf c0bc d5b6 1e3c
00000170: 1455 1cbd a7ca 57bd 7e40 14bd 0d81 65bc
00000180: 8cc8 d03c e827 243c 3a30 e639 f559 54bd
00000190: 4c86 e83a 923b 8d3c 0f91 70bb ab72 24bd
000001a0: 0f18 ad3c f90e 113d b72f edbc 6a76 17bd
000001b0: 6d1f 753c 72f6 123d f494 80bc 348b bdbc
000001c0: d757 8d3c 15aa 24bd a9a6 c23b 7bb5 c5bc
000001d0: 61da bdbc 1cbf 24bd a59f 00bd b0c1 6a3c
000001e0: 9579 b53b e03f d0bc 0649 f5bb a700 ac3c
000001f0: 7368 e33b 2fbf 9d3c 0cca c0bc 8d46 25bd
-0.048742156 -0.02799039 -0.0064854766 -0.047415793 -0.032808907 -0.017427407 -0.006465447 0.033340566
-0.047191918 -0.0036962463 -0.041848518 -0.0047912067 -0.030050222 -0.042298146 0.011403705 0.026544482
-0.0054851016 -0.0640113 -0.035780367 -0.011801857 -0.023125522 -0.08223764 -0.06038918 0.072348244
-0.048130024 -0.00927226 0.031523313 0.028173242 -0.00684189 0.026716946 -0.030910095 0.043488365
-0.0023202768 0.0043210126 -0.0035995976 -0.025691729 0.00014151131 -0.02345885 -0.05588659 0.017713888
0.02610546 0.0061097774 -0.006660005 -0.02110554 -0.06259768 -0.0059474455 0.009342533 0.027131874
-0.017309269 -0.03288149 -0.022350801 -0.0021665678 -0.0063182334 0.002018978 -0.022892876 -0.027429737
0.046089973 -0.010469569 -0.07194536 -0.07632913 -0.017941551 -0.06361347 -0.033772424 0.030569647
0.043641083 0.010020956 0.035905257 0.022537481 0.019518169 0.011424402 0.025219884 -0.03391326
0.074037775 -0.029014794 -0.01797397 0.019000225 0.01825999 0.025397463 0.0010716012 0.037947107
-0.02353761 0.021785878 -0.043665137 0.016603302 -0.006933921 -0.018653352 0.02649506 -0.011622269
-0.022162708 -0.02353754 -0.023528708 0.009687145 -0.038167074 -0.0526835 -0.036194317 -0.014007819
0.025486253 0.01001928 0.0004390495 -0.051843602 0.0017740219 0.01724032 -0.0036707555 -0.04014842
0.021129636 0.03541467 -0.028953416 -0.036978163 0.014961106 0.03587956 -0.015696026 -0.023137666
0.0172538 -0.040201265 0.0059402776 -0.024134388 -0.02317542 -0.04022132 -0.03140225 0.014328405
0.0055381753 -0.025421083 -0.0074855117 0.020996405 0.0069399416 0.019256203 -0.023533843 -0.040350486

ensemble_blocks.0.1.running_mean f4 [128]
00000000: 5593 d7bd 3a91 803c ac59 1cbe f966 6dbd
00000010: 886b b0bd 8ac4 12bd 1cb0 d33d ceef 123e
00000020: 6f22 eb3d 5757 47bd ae22 11bd d1c7 3a3d
00000030: 9872 c3bd 0a0a 8a3c f5d2 84bd acda 15be
00000040: 92cd d43c 6a79 ccbc be19 9e3d 83be d03d
00000050: 5e82 af3d 4256 54bd 095a e53d 5c83 c43d
00000060: e9f3 6abc d7bf 27be d371 443c 1edc f73d
00000070: 53f8 dabd 7484 4b3d 8538 dcbd a51d 88bd
00000080: 5dbd f5bd 7dc9 91bc e682 f83d 681f 953c
00000090: ff0d 06be 0ea1 c7bd 960b 2f3d 688b 103e
000000a0: e101 1abe a23f 42bd e17e 073e 788d 95bd
000000b0: 189a 0bbe c8e7 90bc 1359 4b3d 0754 0fbe
000000c0: b6eb be3d 406f ecbd ef12 dfbc f41c 1fbe
000000d0: fc36 08be a101 15be 10d6 0b3e 33a6 f9bd
000000e0: 1ec8 0ebe 6ed1 96bd 6485 e13c 1762 d53c
000000f0: 83c3 28bd 41d5 1a3e cb95 f0bd 1ac7 97bd
00000100: f6d0 abbd 2c19 11be b0b8 fbbd 6a79 223e
00000110: 05cd 3e3c 9680 21be 2a09 123e b352 1dbe
00000120: 9ea2 713d 41bd 233e 0273 c0bd f212 163e
00000130: a37e 16be 70fb 223e c01c b53d 94b3 e5bc
00000140: e658 9c3d d519 b83d f3f1 b8bd 0ed9 0cbe
00000150: 0495 29bd a636 20be b654 f63d 36ec 07be
00000160: 3c03 06bd b0b9 57bd fc48 8b3d 6ef3 d33d
00000170: dea5 d33d 89b1 f93d 3c06 d4bd cbc0 6bbd
00000180: f4b6 08be e510 fcbd 6624 f1bc 3caa c63a
00000190: 8197 063d 3a07 1f3e 7eb5 de3b b4fe af3d
000001a0: 164c 223e 079a d93b 88e4 b43d bfc2 b13d
000001b0: 208c b5bc d93e edbd 1452 7abc ea29 d53d
000001c0: da2a 9fbc 069a 133e d771 00bc f4cf 45bd
000001d0: 0de7 e83c ab4e a03c 8653 c33d 6d54 febc
000001e0: 037f ba3d 0a86 0a3d f356 9c3d 6944 193e
000001f0: cbf3 c93d 9265 aebd 3896 113e e2ec 67bd
-0.10526148 0.01569425 -0.15268582 -0.05795953 -0.0861426 -0.035831966 0.103363246 0.1434929
0.11481177 -0.04866728 -0.035433464 0.045600716 -0.095433414 0.01685049 -0.06485549 -0.14634198
0.02597693 -0.024960238 0.07719754 0.10192587 0.085697874 -0.051840074 0.111988135 0.09595367
-0.014340379 -0.16381775 0.011990028 0.12102531 -0.10691895 0.049686864 -0.10752968 -0.06646279
-0.11999009 -0.017796272 0.12134342 0.018203452 -0.13091277 -0.097475156 0.04273566 0.1411568
-0.15039779 -0.047423966 0.13231994 -0.07302374 -0.13633001 -0.017688647 0.049645495 -0.13996898
0.09322302 -0.11544657 -0.027230708 -0.15538388 -0.13302225 -0.14551403 0.13655877 -0.12189903
-0.13943526 -0.07364164 0.027529426 0.02604775 -0.04120208 0.15120412 -0.11747321 -0.074110225
-0.083894655 -0.14169759 -0.12291086 0.15866628 0.01164556 -0.15771708 0.14261308 -0.15363578
0.058992974 0.15990163 -0.09396936 0.14655665 -0.14696746 0.15916228 0.08843374 -0.028039731
0.076341435 0.08989302 -0.09030523 -0.13754675 -0.041401878 -0.15645847 0.12027876 -0.13273701
-0.03271793 -0.05266732 0.0680103 0.10349165 0.10334371 0.12192065 -0.103527516 -0.05755691
-0.13351041 -0.1230791 -0.029436301 0.0015156935 0.03285933 0.155301 0.006796538 0.08593503
0.15849337 0.006640676 0.088326514 0.08679723 -0.022161543 -0.11584253 -0.015278358 0.10408385
-0.019429613 0.14414224 -0.0078396415 -0.048294023 0.028430486 0.019568762 0.09537415 -0.031046117
0.09106257 0.033819236 0.07633772 0.14967503 0.09860953 -0.08515467 0.1421746 -0.056622393

ensemble_blocks.0.1.running_var f4 [128]
00000000: f14e c23e 9bd2 d33e 4acb a73e 091d 1c3f
00000010: 48db 943e 54b7 363e 4692 883e 07b2 773e
00000020: 2319 dd3e a068 8c3e c74f f23e e7de a63e
00000030: 678a d13e 7067 5a3e 7e96 413e 7bb3 a03e
00000040: a294 883e 0eab 6e3e 1dfc 273e 7193 ab3e
00000050: 79d3 3b3e 1adf c13e 9bd1 d13e 0737 033e
00000060: 8194 c93e e6ce a53e 6721 8a3e c24c c63e
00000070: 72e0 983e c570 963e d1c5 8a3e 1122 4f3e
00000080: b970 f23e 1f75 523e 46dd 703e b58e 7d3e
00000090: 568f 103e aa70 053f ce92 643e ad71 5e3e
000000a0: 99d1 873e 3cc2 cd3e 80e8 5f3e 7ed4 8c3e
000000b0: 208b e93e 2303 a53e d444 ad3e fa95 7c3e
000000c0: a143 d43e 9e4a ab3e cde5 653e 2d36 893e
000000d0: a4b3 4e3e ca55 923e c9a8 a63e 5170 6c3e
000000e0: 41e9 893e a66f 793e 71d5 a33e a984 cd3e
000000f0: 5a61 9f3e 8b84 ba3e d301 ff3e 9350 733e
00000100: 93ce 913e 130b ca3e 4f23 993e 27e0 a03e
00000110: 204a c33e 23e6 913e c5a8 983e 546f bd3e
00000120: e52b 8b3e a5d8 a03e 624d e23e ba36 b93e
00000130: 733b 853e 62ed 8b3e cc33 a43e ce49 503e
00000140: 8130 b03e 357d 7b3e c61c e23e 46ff 973e
00000150: 26b9 b13e 492b b23e f3af 863e acc3 473e
00000160: ca7f 883e 0cb4 8e3e 00a5 e93e e9c9 ac3e
00000170: 88ca a33e 9c5b b23e 3f43 243e ba93 173f
00000180: cb87 8f3e 46b6 8b3e fbcd 6c3e d5b5 8b3e
00000190: e1e2 753e ece5 ea3e 96eb 7d3e 33a7 b73e
000001a0: 81d0 a23e 6cec 943e d8c4 b83e 66ef 9f3e
000001b0: e09a a93e 8192 313e e5c1 b33e 0ce5 813e
000001c0: 63d5 703e d2df 883e 0148 7c3e a571 023f
000001d0: f49e d73e e2a2 ab3e f109 903e bfef 743e
000001e0: 0c32 333e 8fcf 4c3e bef8 603e 959c 953e
000001f0: 5c76 823e 7fae c33e 42f5 d43e ca88 813e
0.37950853 0.41371617 0.32772285 0.60981804 0.29073548 0.17843372 0.26674098 0.24189006
0.4318324 0.27423573 0.4732649 0.32591936 0.40925905 0.21328521 0.18905064 0.31386933
0.26675898 0.2330744 0.16404767 0.33510926 0.18342389 0.37865525 0.4098023 0.1281396
0.39371112 0.32384413 0.2697861 0.38730437 0.29858738 0.2938291 0.27104047 0.20227839
0.47351626 0.2055249 0.23521909 0.2476147 0.14117178 0.52125037 0.22321627 0.21723051
0.26527098 0.40187252 0.21866035 0.2750587 0.45613956 0.32228956 0.33841574 0.24666587
0.41457847 0.33455366 0.22450943 0.26799145 0.20185715 0.28581077 0.32550648 0.2308972
0.2693577 0.24358997 0.3199878 0.40140274 0.3112896 0.36429247 0.4980608 0.23761205
0.28477916 0.39461574 0.2990975 0.31421015 0.3814249 0.28495893 0.2981626 0.36999
0.27181926 0.31415287 0.44199663 0.36174566 0.2602192 0.27329546 0.32070768 0.20340654
0.34412006 0.24559481 0.44162577 0.29686946 0.3471157 0.3479865 0.26306114 0.19508237
0.26659995 0.2787174 0.45633698 0.33747795 0.31990457 0.34835517 0.16041277 0.5920979
0.2803329 0.272875 0.2312545 0.27287164 0.24012329 0.4587854 0.247969 0.3586975
0.317997 0.29086626 0.3608768 0.31237334 0.33125973 0.17341043 0.35108867 0.2537006
0.235189 0.2673326 0.24636842 0.5095466 0.4211346 0.33522707 0.28132585 0.23919581
0.1749956 0.20001052 0.21969888 0.29221025 0.25480926 0.38219067 0.41593367 0.25299674

ensemble_blocks.0.4.weight f4 [128, 128]
00000000: 93e6 05bd f5a9 c5bd eb46 8a3d 8c14 88bd
00000010: 43e2 423d 57d0 cdbc 7e57 2b3d f0b6 9f3c
00000020: 0ac7 0ebd fd41 a23d fc3b 56bd d692 fb39
00000030: 74c8 9c3b a596 bc3d bb04 d93b cd1d e73c
00000040: 45a9 01bd 0ace 633d 092c f23b 177a bc3d
00000050: f7c4 a2bd 328a 1cbd 152b 5cbd 678a 6c3d
00000060: 8346 993c 636d 04bd cbd3 53bc 9fd0 0bbd
00000070: 7b84 04bc 1360 223d 9fa9 a2bd d03d bdbc
00000080: 086e c23d 76a1 9c3d 5281 dabc 5f63 eb3d
00000090: 31f2 10bd cdf6 5abd 20c6 d2bd b635 acbd
000000a0: 0d6e d5bd dabc 62bc 044e 8a3a 714e 8f3d
000000b0: 47fc 29bd ce7c 493d 87f9 6abc 76f0 c8bc
000000c0: ffc2 863d f36e 623d 49b9 92bc 922e d0bd
000000d0: 9152 c4bd fc2a 493d ef29 9ebc 1852 953b
000000e0: ff26 41bd 366c a0bc bde9 973d 52b4 67bd
000000f0: d6ce 8d3d 389d 9b3d 0832 863d b6a5 883c
00000100: b2c1 343d b890 7b3c 9d67 6a3c 97e3 45bc
00000110: 4abe a53d 099f 533c 20b2 78bd eb80 84bd
00000120: f829 8b3d ae76 863d dd68 893d 5798 d7bd
00000130: f135 953d 3f1a 78bd ed60 073b ce9e a53d
00000140: 00ce 013d a97d 15be c7f8 42bc 6302 c5bd
00000150: 2c51 e13c 5594 35bd a999 193d 7f17 2dbd
00000160: d15b efbd d34a d7bc ef9c 62bd b5a9 c63d
00000170: 7d57 8d3d e25f 52bd 362a 623d 9256 bb3d
00000180: 4885 343d 8c21 71bd fbc3 36bc 19db 893c
00000190: b078 31bc 2ea6 a23d 1055 8a3d 4886 073d
000001a0: 6ad0 543c edbe 39bd b5c6 11bd d253 41bc
000001b0: 493e 963d 2570 69bd 5c97 223c 84f7 593d
000001c0: 6e35 c43c 3d13 a33c 3dd6 b23d f580 803c
000001d0: e018 dd3c f1a0 5dbc 1e30 29bd f97a 5c3d
000001e0: 7a05 16bc 624a 70bc f196 2cbb 67e2 7abd
000001f0: f3b6 073d a093 cbbd 2e22 4a3d b8fd ddbd
00000200: 177c 16bd ca39 e2bb 40e3 0cbd bf67 c93c
00000210: 5f5a f5ba 5c8c b33d d962 2dbd 3584 2e3d
00000220: 6e38 21bb be8d ce3d d63a ab3d 16bb 653b
00000230: d948 093d 2455 b5bc 166b f6bc 9104 603d
00000240: 802c d5bd 3f42 963c a6b0 0dbd 538a 483d
00000250: 9f79 86bd bc96 7f3c 77b4 4dbd 5a76 84bc
00000260: 004a 6e3d 7798 613d 3735 323d 304c 3abc
00000270: 08bc 9b3b 8b6f da3d 6f00 9bbd c1df 5a3d
00000280: 50ce f3bc baed 85bc 8e9f 18bd 54b4 483d
00000290: 5df4 0cbd 9e65 eebc eaed 85bd 0377 d33d
000002a0: 4bec f13c 8e78 0f3c 8911 993d 9a54 bcbb
000002b0: 4245 a1bb 0f2a 4f3d a940 2d3e 52c7 b5bd
000002c0: 79c1 d03c 6ad3 babd 5bf2 66bc 07f8 5bbd
000002d0: c0d9 a63c 92d9 4dbd 3cbc eabc 0ba2 8f3d
000002e0: 41df 65bd fe26 7cbd ce1d c8bb c76a c63d
000002f0: 5780 28bc c79f e73a c123 61ba dfcd 893d
00000300: 2069 a93c 8050 a73d 03b9 1bbd 3c62 703d
00000310: 9f06 47bd d93a 93bd b033 19bd 3efe 80bd
00000320: 6b67 643d dee0 763d 922e 743c 3162 4f3c
00000330: 050e 4f3d c509 403d 2403 55bd 13a2 fd3b
00000340: 8229 8cbd 5a13 663d 40df 003d f495 cd3d
00000350: e35c 92bd 05b1 29bd 37a7 563d dde0 bcbc
00000360: d13a 1b3d c9ea 653d 5149 383d 6fdd 5a3d
00000370: c549 043d f5ed 96bd 4940 b13c 480f 44bd
00000380: eaf4 0b3c 8506 c73c 54a4 dc3d 4dd1 8ebc
00000390: c0ec e6bb fa4a 70bd 69ad 00bd 42e7 81bc
000003a0: ddc1 f13c 842a d93d 195e 213d e5a8 60bc
000003b0: a199 70bd fb79 62bd 3db5 b5bc 7da8 58bd
000003c0: 2d64 cf3d 2ae6 7bbc 15cc 03bd 1dbf 953d
000003d0: cadf 70bd 2e4a ba3d a3e1 ee3c e214 253d
000003e0: fd8b 8e3d 35ec b4bd dfb0 d3bc 641c 51bc
000003f0: 1b6e 67bc 61cb d33d 898c 953c 7e16 c2bc
-0.032690596 -0.09651557 0.06751808 -0.06644544 0.04757906 -0.025123758 0.041831486 0.019496411
-0.034857787 0.079227425 -0.0523033 0.00047983852 0.004784638 0.09208421 0.0066228784 0.028212452
-0.03165557 0.055616416 0.0073905033 0.09202974 -0.07947724 -0.03821773 -0.053752024 0.05774918
0.01871038 -0.03233088 -0.012928913 -0.034134503 -0.008088226 0.039642405 -0.07942509 -0.023100764
0.09493643 0.07647984 -0.026672993 0.11493563 -0.03538722 -0.053458024 -0.102916956 -0.08408682
-0.10421381 -0.013838971 0.0010551815 0.069973834 -0.041500356 0.04919129 -0.0143417185 -0.024528723
0.06580161 0.05528159 -0.017910616 -0.101651326 -0.09586061 0.04911326 -0.019307105 0.0045569055
-0.04715633 -0.019582849 0.07417629 -0.05656845 0.069242164 0.075983465 0.065525115 0.01668058
0.044130035 0.015354328 0.01430693 -0.012078187 0.080929354 0.012916335 -0.06071675 -0.06469902
0.06795114 0.06565605 0.06709454 -0.105271034 0.07285679 -0.060571905 0.0020657138 0.0808693
0.031690598 -0.14598717 -0.011900133 -0.09619596 0.027504526 -0.044330914 0.037500057 -0.042258736
-0.116874345 -0.026280796 -0.055325445 0.09700338 0.06901453 -0.051360972 0.055216037 0.09147371
0.04407242 -0.058869883 -0.011155124 0.016828107 -0.010831997 0.079418525 0.06754506 0.033087045
0.012989143 -0.045348097 -0.035589892 -0.0117997695 0.07336099 -0.056991715 0.009923782 0.053214565
0.023951259 0.019906634 0.08732269 0.015686492 0.0269894 -0.013527141 -0.041305654 0.053828213
-0.009156579 -0.014666172 -0.0026335085 -0.06125107 0.03313346 -0.099402666 0.049349003 -0.10839409
-0.036739435 -0.0069038616 -0.03439641 0.024585603 -0.0018718949 0.08767006 -0.042330597 0.04260655
-0.0024600285 0.10085629 0.083608314 0.003505414 0.03351674 -0.022135325 -0.03008036 0.054691855
-0.10408878 0.018342135 -0.034592293 0.04896004 -0.06566166 0.015599903 -0.050220933 -0.016169716
0.05817604 0.055077042 0.04350778 -0.011370704 0.0047526397 0.106658064 -0.07568442 0.053436045
-0.029761463 -0.016348708 -0.03726154 0.0490001 -0.03441273 -0.02910119 -0.06539519 0.10325434
0.029531619 0.00875677 0.07474048 -0.00574739 -0.0049215863 0.05057722 0.16919197 -0.08875908
0.02548288 -0.09122355 -0.014095868 -0.053703334 0.020367503 -0.05025632 -0.02865421 0.07013329
-0.056121115 -0.061560623 -0.0061070686 0.09688335 -0.010284505 0.0017671519 -0.00085883966 0.0672872
0.02068001 0.08169651 -0.038018238 0.058687434 -0.0485903 -0.07188959 -0.03740281 -0.06298493
0.05576269 0.060273044 0.014903681 0.012657688 0.05055048 0.046884317 -0.05200495 0.007740268
-0.068438545 0.0561708 0.031462908 0.10038367 -0.07146623 -0.041428585 0.052405562 -0.023056442
0.03789789 0.05613211 0.044991795 0.05343383 0.032296915 -0.073696055 0.021637099 -0.047866136
0.008542279 0.024295101 0.107735306 -0.017433787 -0.007047266 -0.058665253 -0.031415377 -0.015857343
0.029511387 0.10603812 0.03939638 -0.013712143 -0.058740262 -0.05529211 -0.022181148 -0.052895058
0.10126529 -0.0153747 -0.03217705 0.073118426 -0.058807172 0.0909618 0.029160326 0.04030312
0.069602944 -0.088341154 -0.025841175 -0.0127631165 -0.014125372 0.10341526 0.018255489 -0.023692366

ensemble_blocks.0.4.bias f4 [128]
00000000: 9c0a a5bd d31c 8e3c fad5 0ebc 3d9f b83c
00000010: c235 abbd f757 a8bd 12af 943d aa22 9e3d
00000020: 7820 e93a 53f1 b13d 235a 80bc 6704 30bc
00000030: 0226 ebbc 2f9b 97bd fc20 9abb e525 24bd
00000040: 6186 b4bc b3a2 17bc 7eb5 85bd e685 b23d
00000050: de8d de3c 5ec8 b1bb 92c1 8a3d dff0 983d
00000060: a0a6 83bd ca8c 963d 891a 77bc 34b9 1fbc
00000070: bb81 50bd 52d5 0abd 1de9 a13d d425 b33d
00000080: 4474 b639 a96c 81bc 0b4a ad3d 5f81 263d
00000090: 59b3 903d b995 17bd 0316 a8bd c5f1 22bd
000000a0: 88af 753d 4739 b1bd 2d36 2d3d 73d3 d03c
000000b0: 0b47 9c3d 86fa 203d 477b 90bc 81f2 213d
000000c0: ff9e 04bd c451 8f3c 317c 1ebc d28d 9f3d
000000d0: 1fe1 e83c df45 423d e700 423c 8cc5 963d
000000e0: ebc4 56b9 3a6c 43bd ca46 c73c 2806 283d
000000f0: aa41 b03d de3e 18bd f5f4 88bd 645e 13bb
00000100: e3db 213d 3b58 9f3c 95e2 013d a534 963d
00000110: 2615 13bd ed0f 073d f2bd 943d 344f 77bd
00000120: 1890 523d 4cdc 11bd 41ff 823d b310 f33c
00000130: 6e85 20bd 109e a8bd c5b4 68bd afe3 423d
00000140: 0f13 1d3d be34 5c3d a975 4e3d 6987 adbd
00000150: 0675 483d 3a3d 77bc 02bf 0cbc 0ba6 6fbd
00000160: df5b b53d ccc3 cbbc 5605 273d e752 b3bd
00000170: d4bc 12bd de5b 8bbd 77e0 aebc ad3e 563d
00000180: 9fa3 a83d 7003 243b 1566 a3bd 2852 73bd
00000190: 99a0 713d 7779 323d 0048 9dbd dbba a4bd
000001a0: f238 b4bc 4273 003d 11c0 263d eb1c 7d3d
000001b0: 598f 233d 2f11 873d 9565 77bd 8927 63bd
000001c0: 0799 08bd db2b aebc 9cd7 aa3c c163 a9bc
000001d0: 72a1 a73d 0728 11bd ff2a a33d 7a12 293d
000001e0: 4f13 0dbc a79f 22bc 2b65 683d 2978 3fbd
000001f0: 432c 8d3d 9fd6 6bbd 0a02 e13c e530 a8bd
-0.08058664 0.017347729 -0.008718008 0.022536868 -0.08359863 -0.08219903 0.072599545 0.077214554
0.0017786166 0.08688607 -0.01566798 -0.010743237 -0.028704647 -0.07402646 -0.004703639 -0.0400752
-0.022036733 -0.009255099 -0.065287575 0.08716945 0.027167257 -0.005425497 0.06775202 0.074678175
-0.064282656 0.07351072 -0.01508201 -0.009748746 -0.05090497 -0.033894844 0.07905791 0.087474495
0.0003480037 -0.015798884 0.08461388 0.04065072 0.07065458 -0.03700802 -0.082073234 -0.03978135
0.059981853 -0.08653503 0.042287994 0.025491452 0.07630738 0.039301418 -0.017636908 0.03953791
-0.032378193 0.017495044 -0.009673164 0.07790722 0.028427659 0.047429916 0.011841035 0.07361898
-0.00020481988 -0.047710635 0.024325747 0.041021496 0.086062744 -0.03716933 -0.06687347 -0.002248668
0.03951634 0.019451251 0.031710226 0.0733426 -0.03590884 0.032974172 0.07262792 -0.06037827
0.05140695 -0.035610482 0.06396342 0.029671049 -0.03918975 -0.08233273 -0.05681302 0.047580417
0.038348254 0.053761236 0.05040518 -0.08473093 0.048939727 -0.015090281 -0.008590462 -0.05850796
0.08855414 -0.024873637 0.040776573 -0.08756047 -0.03582461 -0.06804632 -0.021347268 0.052305866
0.08234333 0.0025026463 -0.07978455 -0.059404522 0.05899105 0.04357287 -0.076797485 -0.08043452
-0.02199981 0.03135992 0.040710513 0.061795156 0.03993163 0.065950744 -0.06039961 -0.055457626
-0.033349063 -0.021261146 0.020854764 -0.02067745 0.0818509 -0.035438564 0.07967185 0.041277386
-0.008610561 -0.009925759 0.056737106 -0.046745453 0.06893208 -0.057577725 0.027466793 -0.08212451

ensemble_blocks.0.5.weight f4 [128]
00000000: bdc2 783f 24fd 933f c268 793f a9fa 7f3f
00000010: 74d5 8e3f 3191 7d3f e607 943f dd16 773f
00000020: 137b 863f 87ff 783f 425c 773f 3f97 7a3f
00000030: f533 953f c1d4 8d3f db52 8e3f a878 953f
00000040: 515c 7b3f 51ef 773f 252d 783f 5da1 8c3f
00000050: 16a3 7c3f b688 773f db06 783f 3ff6 773f
00000060: b18f 7b3f d1fc 943f 69d4 8d3f 4953 933f
00000070: 59bc 923f 3139 8c3f 040b 8d3f ebab 8d3f
00000080: 3252 8c3f 8789 8d3f 4ebb 783f 7881 913f
00000090: 930e 913f 1e08 793f 327f 783f c3b8 903f
000000a0: d8d7 8c3f 8e57 793f 93bc 7a3f 09d9 8f3f
000000b0: a486 8e3f 8c0e 793f 0c18 7c3f 57cd 8f3f
000000c0: 992a 8f3f 7ac6 8b3f bd83 8b3f 66d2 793f
000000d0: d356 8d3f 1fb3 8c3f 9ae2 7b3f 31d4 923f
000000e0: f304 7e3f 9c37 7b3f e5d0 8e3f c869 7c3f
000000f0: 22dd 7a3f 9de3 8d3f 835a 783f 509c 8d3f
00000100: 68a4 8b3f 46f3 8e3f 1594 953f 49e8 833f
00000110: 9cba 903f 715d 8e3f b3c0 783f db50 8e3f
00000120: f924 8c3f 6e6d 953f 7a42 923f 8df9 793f
00000130: 297f 8a3f dd2e 8e3f 64f5 8b3f 2141 8e3f
00000140: 90b5 903f 0d53 8f3f 6c71 8e3f 2c4c 783f
00000150: b9b0 793f 9b2f 8f3f b068 793f 4d58 8c3f
00000160: edff 7c3f aa1f 973f 4b5b 943f bd57 793f
00000170: 55e4 7e3f 212a 783f 499f 7e3f bd83 8a3f
00000180: 08b1 8e3f e7d2 7e3f 67a6 8e3f 8637 8d3f
00000190: 4939 8d3f 9439 7b3f d31c 7b3f 11e1 8e3f
000001a0: 7750 903f 6df4 903f 30af 893f 413a 8c3f
000001b0: aefe 8c3f cd96 8e3f d168 8d3f 82e9 7a3f
000001c0: ee27 793f dbc8 963f f259 7a3f e30d 8d3f
000001d0: f26d 7a3f 2c68 8a3f 131d 783f c3be 933f
000001e0: 020a 903f aab1 833f 875d 7c3f f6bb 8e3f
000001f0: 4e3e 953f 7cab 7d3f fee0 923f 971e 883f
0.9717215 1.1561627 0.9742547 0.9999185 1.1158891 0.9904967 1.156491 0.9651926
1.0506309 0.97264904 0.9662515 0.97887033 1.1656481 1.1080552 1.1119035 1.1677446
0.9818774 0.9684954 0.96943885 1.0986744 0.9868635 0.9669298 0.9688546 0.96860117
0.9826613 1.1639653 1.1080447 1.1509792 1.1463729 1.0954953 1.1018987 1.106809
1.0962584 1.1057595 0.97160804 1.1367636 1.1332573 0.9727801 0.97069085 1.1306385
1.100337 0.9739922 0.9794399 1.1238109 1.1134839 0.9728782 0.9847419 1.123454
1.1184875 1.0919945 1.0899578 0.9758667 1.1042122 1.0992163 0.9839264 1.1471006
0.992263 0.9813173 1.11575 0.9859891 0.9799367 1.1085087 0.9701311 1.1063328
1.0909548 1.1167991 1.1685816 1.0305263 1.1306949 1.1122266 0.97169036 1.1118425
1.0948783 1.167402 1.1426537 0.9764641 1.0820056 1.1108052 1.0934262 1.1113626
1.1305408 1.119722 1.1128364 0.9699123 0.9753528 1.1186403 0.97425365 1.0964447
0.9882801 1.1806538 1.159036 0.97399503 0.9956716 0.96939284 0.994618 1.0821453
1.1147776 0.9954056 1.1144532 1.103257 1.1033107 0.9813473 0.9809086 1.1162435
1.1274556 1.1324593 1.0756588 1.0955278 1.1015222 1.1139771 1.1047612 0.98012555
0.9732655 1.1780046 0.97793496 1.1019863 0.97824013 1.0813041 0.96919364 1.1542591
1.1253054 1.0288594 0.9858021 1.1151111 1.1659639 0.9908979 1.1474912 1.0634335

ensemble_blocks.0.5.bias f4 [128]
00000000: 1247 1bbd ea53 cc3d 605e 0dbd 4a57 47bc
00000010: a653 bf3d 2932 06bd b571 063e 8c17 2ebd
00000020: 2aa7 063d 271f 03bd c425 0dbd a77b cdbc
00000030: b056 073e ea65 b73d 7117 a73d 47ea de3d
00000040: e4c4 07bd 63a3 24bd 539a 00bd 8c42 a93d
00000050: 94a5 f7bc 6eb5 0abd 48f8 00bd 8315 f6bc
00000060: f481 11bd 8d70 ee3d 76ee a23d 6687 ea3d
00000070: 0fe7 e53d 3a1d a03d 404c a83d db3e a03d
00000080: ddb5 a63d fa9f bf3d 8343 14bd dc93 c83d
00000090: db65 b93d c6bf f0bc 6f3b fdbc 1726 c53d
000000a0: 1412 b23d e117 22bd 6bfd 16bd c1e3 b73d
000000b0: c79f de3d e284 04bd bc2e 14bd 8017 c53d
000000c0: 4f67 c63d 8fe8 ac3d 056d a33d 6bb4 00bd
000000d0: b765 aa3d 1adf b13d 3478 26bd 5851 cd3d
000000e0: d0c3 f1bc 79ea 13bd 54d8 af3d e52b 23bd
000000f0: 7005 0bbd 90d1 a13d dff4 edbc 1e90 ae3d
00000100: 8ae6 a03d 36ff b73d 5ad9 f73d 76ca 22bd
00000110: 8049 f93d df19 ae3d 6473 08bd 2f87 7f3d
00000120: 9c54 b13d bc11 093e 9685 ef3d 81c5 0fbd
00000130: ab55 a23d 73a6 a83d a8aa a63d bca7 ac3d
00000140: 7d3e bf3d e849 c23d d2b0 da3d cfd4 efbc
00000150: 4ab8 02bd 270b b93d 55a0 15bd a02b ad3d
00000160: 8476 08bd b7fd 143e b729 093e 8fb5 d9bc
00000170: 8d73 0ebd b5ad 0bbd eb47 00bd 1a14 673d
00000180: 8a50 b33d fcb5 0ebd 21c7 b53d fe36 a23d
00000190: feb3 b13d 442a 10bd ab31 23bd 5200 a03d
000001a0: 03fd ba3d a257 d53d 3b4b 7b3d 37e4 a63d
000001b0: c05c a63d bb1c d03d e8d5 a73d d5ac d3bc
000001c0: f139 0ebd 86a6 013e 0e14 e5bc 72c4 a33d
000001d0: bc28 02bd 0a0e 1f3d 5be1 f5bc 9e44 df3d
000001e0: 015a bc3d c667 a4ba 7344 06bd 4e69 b23d
000001f0: 8b71 033e ac64 15bd f217 f33d f4bb 283d
-0.037909575 0.09976943 -0.03451383 -0.012166807 0.093421265 -0.03276268 0.13129313 -0.042502925
0.032874264 -0.03201213 -0.034459844 -0.025083376 0.13216662 0.089549854 0.08158768 0.108845286
-0.033146754 -0.04019488 -0.031397175 0.08264646 -0.030230321 -0.03386443 -0.03148678 -0.030039554
-0.035524324 0.11642561 0.07955639 0.114516065 0.112257116 0.078180745 0.082176685 0.07824489
0.081401564 0.09356685 -0.036197197 0.09793827 0.090526305 -0.02938832 -0.03091213 0.09626406
0.086948544 -0.039573554 -0.036862772 0.089789875 0.10870319 -0.03235329 -0.036177382 0.09623623
0.09687673 0.084427945 0.07979778 -0.03142206 0.08320182 0.08685131 -0.04064198 0.10025281
-0.029512316 -0.036112282 0.08586183 -0.039836783 -0.033940732 0.07901299 -0.029047428 0.08523582
0.07856472 0.089842245 0.121020034 -0.039743863 0.12172222 0.08501028 -0.03331317 0.06238478
0.08658716 0.13385671 0.11695401 -0.035100464 0.07926496 0.08234873 0.08138019 0.0843043
0.093380906 0.09486753 0.10678257 -0.02927628 -0.031914033 0.0903533 -0.036529858 0.084555864
-0.03331615 0.1454991 0.13394819 -0.026575832 -0.034778167 -0.034101207 -0.031318586 0.056415655
0.08755596 -0.034841523 0.088758714 0.07920645 0.08676909 -0.035196558 -0.03984229 0.07812561
0.091302894 0.10417105 0.061351042 0.08148997 0.081231594 0.1016173 0.08195096 -0.025839249
-0.034723226 0.1266118 -0.027963664 0.07996453 -0.03177713 0.038831748 -0.030014684 0.109017596
0.091968544 -0.0012543134 -0.032780122 0.087114915 0.12836282 -0.03647296 0.118698016 0.04119487

ensemble_blocks.0.5.running_mean f4 [128]
00000000: 08f5 4fbd 3e4b 873e 0631 763e bfb5 f6bc
00000010: 33f1 cc3d 9938 c73d 5d5b da3e f1fc 213e
00000020: 8218 5abe d452 733e 1ebc c53e 202b c7bd
00000030: 3563 3dbd ae77 a1bd e310 653d 645b 403e
00000040: 1fa7 a23e 5e9c bb3e b7a1 8dbd ea23 df3d
00000050: 9cd4 8e3e 905b 8abd ec5b c43e 191b b7bc
00000060: 0e1d 093e e6df ac3e eb87 0a3e c21b 0e3e
00000070: 3c6d 51bc 69c4 6b3e 0270 edbc 0adf c13e
00000080: 106f 6d3c 36a8 e73d b706 c53e b6f3 d13e
00000090: 2dca 953e 5c2c 8d3e 1a94 193e 826d 363d
000000a0: ae49 f73b 997f 91bd 9e50 1e3e 94d8 b13e
000000b0: 80d9 25ba 733c 5e3d 91aa 553e 8a19 043a
000000c0: 71df 36bd 6c9e 36be 4017 8ebd 52f0 a13e
000000d0: 2cff 993e 1880 37be fa2e 9f3e d2d2 a53e
000000e0: 1da8 dd3c 935b 933d 433a 273e d2bf 0b3d
000000f0: 682d 7f3e 395c f43d 348c a8bd a009 84bd
00000100: 9d79 333e 4592 4b3d c947 203e e818 603d
00000110: a2b3 8abe 1ec3 883e 7c96 a93d cb06 d2be
00000120: 094e 523e 84ae 18bb 5daf ff3d b84d ca3e
00000130: 70a8 80bd 5e9e 953e b5e5 1dbe ebda 273e
00000140: 73ec 773e 60d5 773d a8d5 b7bd 3e10 b0bc
00000150: d343 ae3e 97a6 3bbd ac63 233e 70fa 4dba
00000160: 0db8 3c3e 3e57 2cbe 9b7f 8b3e 0fc6 783d
00000170: 9bbe 133c 2620 8e3e 58ec 503d 30a3 8cbd
00000180: b4f6 343e 8f7f a33e dbda 36be d0e6 073e
00000190: e017 b0ba 75d4 4c3e 9af8 903e 5241 fe3d
000001a0: c90d 453e 5b47 4b3e da64 5b3d 4291 b33d
000001b0: 0dcd 6ebd a796 0cbd c5bb 5dbd 515f bebe
000001c0: 1a59 033e b619 d53d 7e6d 28bd e62c c7bc
000001d0: f07f 093f 8c67 bfbe ef1f 8d3c 0439 af3c
000001e0: 23f4 b3bd c5bd 0cbe 3bd2 723e 8c50 97bc
000001f0: 3317 1c3e 455f 20bc 661b c93a 714f c6be
-0.05077079 0.26424593 0.24042138 -0.03011596 0.100069426 0.09727592 0.4264783 0.15819146
-0.21298411 0.23762065 0.38620085 -0.09725022 -0.04623719 -0.07884155 0.055924308 0.18784863
0.31768128 0.36642736 -0.0691561 0.10895522 0.27896583 -0.067557454 0.3835138 -0.022351788
0.1338999 0.3376457 0.13528411 0.13877776 -0.012782391 0.23024143 -0.028984074 0.37865478
0.014491811 0.113113806 0.38481686 0.4100625 0.2925581 0.27572906 0.14997903 0.04453803
0.007546625 -0.071044154 0.1546044 0.34735548 -0.00063266605 0.054256868 0.20865847 0.0005039206
-0.044646684 -0.1783387 -0.06938028 0.31628662 0.30077493 -0.17919958 0.31090528 0.32387406
0.027057702 0.07195201 0.16330819 0.03411848 0.24919665 0.119316526 -0.082298666 -0.06447148
0.1752686 0.04970004 0.15652384 0.054711252 -0.27090174 0.26711363 0.08280656 -0.41020808
0.2053758 -0.0023297379 0.1248462 0.3951242 -0.06282127 0.29222387 -0.15419658 0.16392104
0.24211292 0.060506225 -0.089762986 -0.02149212 0.3403612 -0.04581317 0.1595599 -0.00078574475
0.18429585 -0.16830155 0.27245793 0.06073576 0.009017612 0.27758902 0.051006645 -0.06867063
0.17672235 0.31933257 -0.17856924 0.13271642 -0.001343485 0.20002921 0.28314668 0.124148026
0.1924354 0.19851439 0.053562976 0.0876794 -0.05830102 -0.03432336 -0.05413415 -0.37182096
0.12826958 0.104052946 -0.041120045 -0.024313401 0.5371084 -0.37383687 0.017227141 0.021389492
-0.087868 -0.13744266 0.23713009 -0.018471025 0.15243225 -0.009788339 0.0015343248 -0.38732484
