backend/models/tabm_k4.pth (torch, 388927 bytes, 63 tensors)

embedding.embeddings.0.weight f4 [10, 4]
0	0xbe140c6c	-0.14457864
1	0xbfe52342	-1.7901385
2	0x3fa8aa78	1.3177023
3	0xbfd722e9	-1.6807529
4	0xc00f2164	-2.236413
5	0xbef2fae4	-0.4745704
6	0x3e9f96f0	0.31169844
7	0xbece75d4	-0.4032427
8	0x3e532d15	0.20622666
9	0xbe9bd0b1	-0.30432656
10	0x3fad6ca5	1.3548781
11	0xbfa4caeb	-1.2874426
12	0xbf3bb985	-0.73329955
13	0xbfd990f5	-1.6997362
14	0xbe83cc4d	-0.25741807
15	0xbf2e9c27	-0.6820702
16	0x3ed49090	0.41516542
17	0xbf50c2d7	-0.815473
18	0xbdfcfe0d	-0.12353144
19	0xbee1e5f9	-0.44120768
20	0x3f567999	0.83779293
21	0xbed3d2f5	-0.41371885
22	0xbf5a4df5	-0.85275203
23	0xbf28ade2	-0.65890324
24	0x3f99f242	1.2027056
25	0xbe108068	-0.14111483
26	0x3ed213e8	0.41030812
27	0xbec837d3	-0.3910509
28	0xbf1b5e0c	-0.6069038
29	0xc018ab95	-2.3854725
30	0xbdfeb711	-0.12437261
31	0xbf594dcd	-0.8488434
32	0xbef77a37	-0.4833543
33	0x3f732994	0.9498532
34	0xc011c097	-2.2773798
35	0x3e92e015	0.28686586
36	0x3d8c5d1f	0.06853699
37	0x3f3334b8	0.7000232
38	0xbf4096f5	-0.7523034
39	0x3dc091d9	0.09402818

embedding.embeddings.1.weight f4 [3, 4]
0	0xbfd97303	-1.6988224
1	0xbf9527e1	-1.1652795
2	0x3f0c3929	0.5477472
3	0xbf1462fa	-0.57963526
4	0xbf52969f	-0.8226108
5	0x3fb9bd1f	1.451084
6	0xbe9d3d87	-0.30711004
7	0xbf90c242	-1.1309283
8	0x3f90ce7b	1.1313013
9	0x3f3f6406	0.74762
10	0x3f636e2d	0.8883999
11	0xbf33d1fd	-0.7024229

embedding.embeddings.2.weight f4 [2, 4]
0	0x3e26d8b0	0.16293597
1	0x3e01b1a2	0.12665418
2	0xbeae8b22	-0.34090525
3	0xbdfe951f	-0.12430786
4	0x3f4e566a	0.8060061
5	0x3f4957e1	0.7864972
6	0xbf78ff63	-0.9726469
7	0x3f291e7d	0.66062146

embedding.embeddings.3.weight f4 [8, 4]
0	0xbf715bd6	-0.94280756
1	0xbf838121	-1.0273782
2	0xbef3f8ba	-0.476507
3	0xbf9fdb48	-1.2488794
4	0xbf289a3e	-0.65860355
5	0xbeb0b208	-0.34510827
6	0xbee4a129	-0.44654205
7	0x3e8f8b40	0.28035927
8	0x3e82b683	0.2552987
9	0x3f8abedf	1.0839499
10	0xbfab3bae	-1.3377588
11	0x3fad6adc	1.3548236
12	0xbd328827	-0.043586876
13	0x3f294d3e	0.6613349
14	0x3f20ac96	0.62763345
15	0x3fa348bd	1.2756573
16	0xbff95d1c	-1.948154
17	0x3fbd08ec	1.4768348
18	0xbfcece05	-1.6156622
19	0x3f1a5b09	0.6029516
20	0xbdd87471	-0.105690844
21	0x3f3d87ec	0.74035525
22	0x3f6d2bf8	0.92645216
23	0xbdeea69d	-0.11652873
24	0x3f0dbe4d	0.553685
25	0x3f1951b5	0.598903
26	0xbe5a1042	-0.21295264
27	0xbf09f597	-0.53890365
28	0xbe19fc85	-0.15037735
29	0xbe02fe1e	-0.1279225
30	0x3fbbfc06	1.4686286
31	0x3eae4d8d	0.34043542

embedding.embeddings.4.weight f4 [13, 4]
0	0x3e85e0b8	0.2614801
1	0xbd8e74a9	-0.06955845
2	0xbf79a064	-0.9751036
3	0xbf196953	-0.59926337
4	0xbfa1a1dd	-1.2627522
5	0x3e52d5d0	0.20589375
6	0x3e8d2ac6	0.27571696
7	0xbf282a7f	-0.65689844
8	0x3facdd7f	1.3505095
9	0xbff30d67	-1.8988465
10	0x3e2f28ed	0.17105456
11	0x3efb8af0	0.49129438
12	0x3f9a88c1	1.2072984
13	0x3e6429d7	0.22281586
14	0x3f203060	0.62573814
15	0xbea72593	-0.32645854
16	0x3e51c079	0.20483579
17	0x3fe6f982	1.8044894
18	0xbedd3aac	-0.43208826
19	0xbfa90fa0	-1.3207893
20	0xbf908024	-1.1289105
21	0xbe048c9c	-0.12944263
22	0x3e0ade57	0.13561378
23	0x3d6e9405	0.05824663
24	0x3fc3d02d	1.5297905
25	0x3f3b528f	0.7317285
26	0xbdd9de30	-0.10638082
27	0x3e8050f5	0.25061765
28	0x3fb9bbac	1.4510398
29	0xbc853faf	-0.016265718
30	0xbf500153	-0.8125202
31	0xbe83631e	-0.25661558
32	0x3eb4fddd	0.35349932
33	0xbd90d7b6	-0.070723936
34	0xbfb26285	-1.3936316
35	0xbfb6956d	-1.4264351
36	0xbeebd274	-0.46059
37	0x3fe81042	1.8129961
38	0x3fb4602e	1.4091852
39	0xbda302e0	-0.07959533
40	0xbdfc91f7	-0.12332528
41	0x40055be6	2.083734
42	0xbe9f0d74	-0.3106495
43	0x3fa7aefb	1.3100275
44	0xbf05f7c3	-0.5233118
45	0x3ee81ca4	0.4533435
46	0xbf18315c	-0.59450316
47	0xbf51c370	-0.8193884
48	0xbf2e83d8	-0.6816993
49	0xbf93a28d	-1.1533982
50	0x3f20e7bb	0.6285359
51	0x3dda6fd0	0.10665858

embedding.embeddings.5.weight f4 [9, 4]
0	0x3d0f1f88	0.03494218
1	0x3d445714	0.047934607
2	0x3f14fe9b	0.58201
3	0xbf3da5cb	-0.74081105
4	0xbdd35597	-0.10319059
5	0xbf076a1a	-0.52896273
6	0xbf2dbedc	-0.67869353
7	0xbea11da2	-0.3146792
8	0xbed2e892	-0.41193062
9	0xc00a039c	-2.1564703
10	0xbd880fb4	-0.0664362
11	0x3e820d84	0.25400937
12	0xbe868b90	-0.26278353
13	0xbf588d61	-0.8459073
14	0xbef61230	-0.4806075
15	0x3f8dd6bb	1.1081156
16	0x3f823433	1.017218
17	0x3f8bcaff	1.0921324
18	0xbe8f921f	-0.2804117
19	0x3f0249df	0.5089397
20	0x3e0031cd	0.12518997
21	0x3f52f79e	0.82409084
22	0x3f8d2ad0	1.102869
23	0xbf444b2a	-0.7667719
24	0x3ee09a03	0.43867502
25	0x3fa31a72	1.2742445
26	0xbfad9d05	-1.3563544
27	0xbc3b9c1f	-0.011450796
28	0xbf4d5393	-0.8020565
29	0x3e62ddbc	0.22154897
30	0x3f117cd4	0.568311
31	0xbed0470d	-0.40679207
32	0xbf7b066b	-0.9805667
33	0xbfaa2f1c	-1.3295627
34	0xbd857d20	-0.06518006
35	0xbfa60785	-1.2971045

embedding.embeddings.6.weight f4 [20, 4]
0	0x405349e2	3.3013844
1	0x3e3540d1	0.17700507
2	0xbf4e0c64	-0.80487657
3	0x3f386a80	0.72037506
4	0x3e8095f5	0.25114408
5	0x3ee0cdd1	0.43907025
6	0x3f8490ce	1.0356691
7	0x3edc9af8	0.43086982
8	0xbf6c8962	-0.9239713
9	0xbf29311d	-0.66090566
10	0xbfcfe09b	-1.6240419
11	0xbf8543ea	-1.0411351
12	0x3f65aec1	0.8971978
13	0xbf7d02b3	-0.98832244
14	0x3f58c8d0	0.84681416
15	0xbece3f89	-0.40282848
16	0xbe93df2e	-0.2888121
17	0xbfd07e9e	-1.628864
18	0xbed2571e	-0.4108209
19	0x3f2ab383	0.66680163
20	0xbf4470c7	-0.76734585
21	0xbe29bfec	-0.16577119
22	0x3fb8c038	1.443366
23	0xbf813ae9	-1.0096103
24	0x3ef761b3	0.48316726
25	0xbf773967	-0.96571964
26	0x3f2e9dd3	0.6820957
27	0xc01c75a5	-2.4446805
28	0xbf4f4f03	-0.8097994
29	0x3fb48a28	1.4104662
30	0xbef57cd8	-0.4794681
31	0xbf398f8f	-0.7248468
32	0x3eb01419	0.34390333
33	0x3f9aa12f	1.2080439
34	0xbe448c07	-0.19194041
35	0x3f369d18	0.71333456
36	0x3f80942b	1.0045217
37	0x3e18ba71	0.14914872
38	0x3c38d317	0.0112807965
39	0x3f0c8483	0.54889697
40	0x3ec4ae49	0.3841422
41	0xbf3e24ef	-0.74275106
42	0xbe8c8b58	-0.2745006
43	0xbf907a5a	-1.1287339
44	0xbf6c6310	-0.9233866
45	0xc01a3a62	-2.4098134
46	0x3fa29557	1.2701825
47	0xbecbb32a	-0.3978513
48	0xbf5ecb2a	-0.87028754
49	0xbf4e92ff	-0.8069305
50	0xbfb851ff	-1.4400023
51	0xbe2cf724	-0.16891152
52	0xbe5b96fd	-0.21444316
53	0x3fd91a75	1.6961199
54	0x3f6d2e5e	0.92648876
55	0xc005515a	-2.0830903
56	0xbf31a9e1	-0.6939984
57	0x3fecb9c9	1.8494197
58	0xbfb47183	-1.4097141
59	0x3f609e2b	0.87741345
60	0x3f88db97	1.0692014
61	0xbdf6f9e6	-0.12059383
62	0x3ec8542d	0.3912672
63	0xbf05e322	-0.522997
64	0xbfc29724	-1.5202374
65	0xbf74ea59	-0.95670086
66	0xbfd910d9	-1.6958266
67	0xbf97508f	-1.182146
68	0x4041a8f8	3.025938
69	0x3e9a9912	0.30194908
70	0x3ec93e67	0.39305422
71	0x3e5e7369	0.21723713
72	0xbfdead39	-1.7396613
73	0xbfb926e6	-1.4464996
74	0x3ea3cd6d	0.31992665
75	0xbebd41a9	-0.36964157
76	0xbdbc5fbe	-0.09197949
77	0xbf70edef	-0.9411306
78	0xbda686f4	-0.08131209
79	0xbe0676a5	-0.13131197

bn_in.weight f4 [38]
0	0x3f80c03f	1.0058669
1	0x3f7baebc	0.983135
2	0x3f7939be	0.9735373
3	0x3f7a2670	0.977149
4	0x3f765148	0.96217775
5	0x3f6d0f6e	0.9260167
6	0x3f6c3a72	0.9227668
7	0x3f684dec	0.907439
8	0x3f6c2553	0.9224445
9	0x3f71f2f3	0.94511336
10	0x3f68d023	0.9094259
11	0x3f72a458	0.9478202
12	0x3f6ad910	0.9173746
13	0x3f6f0e96	0.9338163
14	0x3f6b9a6c	0.92032504
15	0x3f7082f4	0.9394982
16	0x3f659e24	0.8969443
17	0x3f693af7	0.911056
18	0x3f694d32	0.91133416
19	0x3f71ffaa	0.9453074
20	0x3f69805e	0.912115
21	0x3f67b00d	0.9050301
22	0x3f6a04bb	0.9141347
23	0x3f696430	0.911685
24	0x3f703a5e	0.9383906
25	0x3f783902	0.96961987
26	0x3f6f8fb1	0.9357863
27	0x3f759168	0.95925
28	0x3f847a34	1.0349793
29	0x3f7200c3	0.9453241
30	0x3f72a8e4	0.94788957
31	0x3f6b58ad	0.91932184
32	0x3f779f87	0.96727794
33	0x3f7c2810	0.9849863
34	0x3f8043e0	1.0020714
35	0x3f8244f5	1.0177294
36	0x3f92865b	1.1447252
37	0x3f6946db	0.9112374

bn_in.bias f4 [38]
0	0x3a25a227	0.0006318413
1	0x3a1f63c0	0.00060802326
2	0xb95cf5f8	-0.00021072465
3	0xba1052da	-0.000550551
4	0xbaa3b4d1	-0.00124898
5	0x39c7bc3d	0.00038096486
6	0xb9d492b2	-0.00040545088
7	0xba9bd960	-0.0011890344
8	0xbac39dcc	-0.0014924346
9	0x3a9ec7aa	0.0012113948
10	0x3a0083a1	0.0004902427
11	0x3a46e485	0.00075871526
12	0xb96310ab	-0.00021654616
13	0xbad0a4b4	-0.0015918226
14	0x3a63725e	0.0008676405
15	0x39ccfd20	0.00039098505
16	0x39c367c8	0.0003727062
17	0xb98d079f	-0.00026899294
18	0x3a15abf1	0.000570952
19	0x3a6d22c5	0.00090460136
20	0x3acd877a	0.0015680634
21	0xba1705c7	-0.0005761054
22	0x39e74853	0.0004411364
23	0x3aaf5ac8	0.0013378495
24	0xbac23627	-0.0014817164
25	0xba0dcc40	-0.0005409159
26	0x3aca25c3	0.0015422631
27	0xb9dab1b4	-0.000417126
28	0xbaa48cf0	-0.001255421
29	0xba1b30e3	-0.00059200655
30	0xb87d5b87	-6.0405142e-05
31	0x39f762ec	0.00047185214
32	0x3a0eaa43	0.0005442241
33	0xbaffcbbb	-0.0019515672
34	0x3ab3ce1c	0.0013718042
35	0x3aaf124c	0.0013356893
36	0x3c24bb97	0.0100544905
37	0x39a280ed	0.00030995105

bn_in.running_mean f4 [38]
0	0xbd022d8a	-0.03178171
1	0xbf5384e4	-0.8262465
2	0xbd977966	-0.07396202
3	0xbf10eddc	-0.56612945
4	0x3f390a0b	0.7228095
5	0x3efa41c0	0.48878288
6	0x3f5493c4	0.8303797
7	0xbf304a3d	-0.6886328
8	0x3e9f131f	0.31069276
9	0x3e8e9c7f	0.27853772
10	0xbef8e47d	-0.48611823
11	0x3d683f71	0.056701127
12	0xbeff5d88	-0.49876046
13	0xbe1670d5	-0.1469148
14	0xbf139b2c	-0.5765865
15	0x3e63083c	0.2217111
16	0xbf17ec20	-0.59344673
17	0xbd39f4d0	-0.045399487
18	0xbe48c67b	-0.19606964
19	0xbe3246a3	-0.17409758
20	0xbdeb7f88	-0.11498934
21	0xbee66707	-0.4500048
22	0x3dca1b53	0.09868493
23	0xbe7f7051	-0.24945189
24	0x3e20e035	0.15710528
25	0xbefc5e34	-0.4929062
26	0x3e5085a0	0.20363474
27	0xbe993a96	-0.2992751
28	0x3bc784f4	0.0060888473
29	0x3c513d03	0.012770894
30	0x3c356249	0.011070796
31	0x3c8a340c	0.016870521
32	0xbc286be5	-0.01027963
33	0xbb3c8b96	-0.0028769723
34	0x3c2201ac	0.009888094
35	0x3c4a2496	0.012337824
36	0xbbb9d4c2	-0.0056711147
37	0x3a9b99bb	0.0011871377

bn_in.running_var f4 [38]
0	0x3faae84d	1.3352143
1	0x3f864ee6	1.0492828
2	0x3f0245a7	0.5088753
3	0x3e08e372	0.13368014
4	0x3f79f22f	0.9763517
5	0x3ee3405a	0.44385034
6	0x3cd0442e	0.025423136
7	0x3b65bf11	0.0035056511
8	0x3d97cd69	0.07412226
9	0x3d9f535c	0.077795714
10	0x3d926844	0.07148793
11	0x3de0bb24	0.10973194
12	0x3e3c000c	0.18359393
13	0x3f070a56	0.52750146
14	0x3e68aad5	0.22721417
15	0x3f44f145	0.7693065
16	0x3f291002	0.6604005
17	0x3dc4407b	0.09582611
18	0x3ea0e038	0.31421065
19	0x3e20cddd	0.1570353
20	0x3e092aaf	0.13395189
21	0x3f8c9da4	1.0985608
22	0x3ec37a34	0.3817917
23	0x3ed29cfc	0.41135395
24	0x402dd514	2.7161303
25	0x402af404	2.6711435
26	0x3f94a226	1.1611984
27	0x3f7d43d2	0.9893161
28	0x3f81ca58	1.0139875
29	0x3f8d2be2	1.1029017
30	0x3f8d51af	1.1040553
31	0x3f94b37a	1.1617272
32	0x3f639fe0	0.88915825
33	0x3f91d56d	1.1393257
34	0x3f82bbbf	1.0213546
35	0x3f8226d6	1.0168102
36	0x3f6d1578	0.92610884
37	0x3f81c724	1.0138898

ensemble_blocks.0.0.weight f4 [128, 38]
0	0x3c8df6d2	0.017329607
1	0x3d634c0e	0.055492453
2	0xbe37e427	-0.17958127
3	0xbd463519	-0.04839048
4	0x3dfb1420	0.12259698
5	0xbe039c0c	-0.12852496
6	0xbd9798b5	-0.074021734
7	0x3c82e7db	0.015979698
8	0x3d0f5e1e	0.035001867
9	0x3df075bc	0.11741206
10	0xbd59dc56	-0.053188644
11	0x3dddfba5	0.10839013
12	0x3d92d07b	0.07168671
13	0x3db6dea3	0.08929183
14	0xbe04b842	-0.12960914
15	0x3d9303b2	0.07178439
16	0xbe2f0400	-0.1709137
17	0x3e006624	0.12538964
18	0xbce03202	-0.027367596
19	0x3c8bd476	0.017069083
20	0xbdf93e2c	-0.121700615
21	0xbd33c173	-0.04388566
22	0xbe12de09	-0.14342512
23	0x3e23bff0	0.15991187
24	0x3d46604c	0.04843168
25	0x3c3e61ad	0.011619967
26	0x3e105b41	0.1409731
27	0x3d58ab6b	0.052897852
28	0xbdcdec03	-0.10054781
29	0xbe05a359	-0.13050593
30	0xbda7546e	-0.081704006
31	0x3df5f245	0.120091
32	0x3e18615d	0.14880891
33	0x3d12b182	0.035813816
34	0x3e24becc	0.16088408
35	0xbd9aa8b1	-0.075517066
36	0xbe58eb6f	-0.21183561
37	0xbca62a90	-0.020283967
38	0x3e17a4df	0.14808987
39	0x3d0b641e	0.034031026
40	0xbe492418	-0.19642675
41	0xbd8afff8	-0.067871034
42	0xbd00a80c	-0.031410262
43	0xbc8a4fc8	-0.016883746
44	0xbe4ab3b9	-0.19795121
45	0xbe23e442	-0.16005042
46	0xbdc1c554	-0.094614655
47	0x3d4adc92	0.04952676
48	0x3cda3c80	0.026640177
49	0x3cc352d6	0.02384321
50	0xbdc13d11	-0.094354756
51	0x3d26bec5	0.040709276
52	0x3de7b94d	0.1131464
53	0xbe146646	-0.14492139
54	0xbe2bc3c0	-0.16773891
55	0x3da79cf5	0.08184234
56	0x3c18a319	0.009316229
57	0x3bdea5c3	0.0067946627
58	0xbd16f4ae	-0.03685444
59	0x3d5ca846	0.053871416
60	0xbe27db13	-0.16392164
61	0x3dc7d159	0.09756727
62	0x3cfe5c99	0.031050013
63	0x3e037383	0.12837033
64	0xbd8da146	-0.06915526
65	0x3d920354	0.07129541
66	0xbd7b9e56	-0.061430298
67	0x3cfc5703	0.03080321
68	0x3d7e0b1f	0.062022325
69	0x3d452172	0.0481276
70	0x3dc49fe5	0.0960081
71	0x3da53c28	0.080681145
72	0x3db20b49	0.08693559
73	0xbd267506	-0.040638946
74	0xbdc11089	-0.09426982
75	0x3cd4873c	0.025943391
76	0xbe041188	-0.12897313
77	0xbcdf9c2a	-0.027296145
78	0x3df8f809	0.12156684
79	0x3dd9ec93	0.10640826
80	0x3d55a0c5	0.052155275
81	0xbce61e01	-0.028090479
82	0x3d8ae13f	0.067812435
83	0x3dbdc4ba	0.09266038
84	0x3db4df5c	0.08831665
85	0xbd649c43	-0.055813085
86	0xbe113c06	-0.14183053
87	0xbdb64a81	-0.08900929
88	0xbdb4525e	-0.08804773
89	0xbded563a	-0.11588712
90	0xbd7bac59	-0.06144366
91	0x3da8a428	0.08234435
92	0xbdea8fa0	-0.114531755
93	0x3c9b4e3c	0.018958203
94	0xbdd4d356	-0.10391872
95	0xbd9040ba	-0.070435956
96	0x3cfad8cd	0.030620957
97	0xbda03c7f	-0.07824039
98	0x3d2b9cdb	0.041897636
99	0xbdc50ac5	-0.09621195
100	0x3dd15413	0.10221114
101	0x3dd2007b	0.10253998
102	0x3b968f56	0.0045947237
103	0xbdb69f8d	-0.08917151
104	0xbde63923	-0.11241367
105	0x3dbfc670	0.09364021
106	0xbe05cce4	-0.13066441
107	0x3e114083	0.14184766
108	0xbdd6e386	-0.104926154
109	0xbdfe5ffc	-0.12420651
110	0xbce9851f	-0.02850586
111	0x3cdcbb54	0.026944794
112	0xbeaa8cc1	-0.33310512
113	0x3dac511c	0.08413908
114	0x3dea48d3	0.11439671
115	0xbda6daa6	-0.08147173
116	0x3e368db5	0.17827494
117	0x3dc41d36	0.09575884
118	0x3db56238	0.08856624
119	0xbe2230f5	-0.15838988
120	0x3c954764	0.018222518
121	0xbdfacb62	-0.122458234
122	0xbe337685	-0.1752568
123	0x3c209bd3	0.009802776
124	0xbe09de37	-0.13463674
125	0xbe197949	-0.14987673
126	0x3dd21a94	0.102589756
127	0x3c0e8587	0.008698828
128	0x3db06773	0.086134814
129	0xbc17dddf	-0.009269207
130	0x3cfbc733	0.030734634
131	0x3d8db6cc	0.06919631
132	0xbc612830	-0.013742492
133	0x3e2e61df	0.17029522
134	0x3de8c87c	0.11366364
135	0xbe05e536	-0.13075718
136	0xbcb9a821	-0.022663178
137	0x3c380cb4	0.011233497
138	0xbd409d28	-0.047024876
139	0xbdb629c2	-0.088946834
140	0xbda25c82	-0.07927801
141	0x3b759ffb	0.003747939
142	0x3dbea111	0.09308065
143	0xbd62d3f5	-0.05537792
144	0xbe0348bc	-0.12820715
145	0xbd6a82bb	-0.05725358
146	0x3dad8544	0.08472684
147	0x3d616e59	0.055036876
148	0x3cad27a5	0.021137068
149	0xbc8dd64d	-0.0173141
150	0xbe6649c2	-0.22489074
151	0xb77bddb8	-1.5012389e-05
152	0xbdd7dbf6	-0.10540001
153	0x3da0542c	0.078285545
154	0xbda049c9	-0.078265734
155	0x3da72d40	0.08162928
156	0xbdf7e76d	-0.12104688
157	0x3d059953	0.032616924
158	0xbdca7f54	-0.09887567
159	0xbdf69cfb	-0.120416604
160	0x3df570c4	0.11984399
161	0xbda73e8e	-0.08166228
162	0xbe071474	-0.13191396
163	0x3e17fbc7	0.14842139
164	0x3d1d0e0a	0.038343467
165	0xbdbb45dc	-0.09144184
166	0xbd808a5e	-0.062763914
167	0x3d5f5d7b	0.05453251
168	0xbd670b5d	-0.05640732
169	0xbd456f86	-0.04820206
170	0x3d6277fd	0.05529021
171	0x3e0e1654	0.13875705
172	0x3dc5edb4	0.09664479
173	0x3d5dada9	0.054120693
174	0xbbb96144	-0.005657347
175	0xbe14881c	-0.14505047
176	0xbdc10d27	-0.09426337
177	0x3d8ce12b	0.06878885
178	0xbdb451bc	-0.08804652
179	0xbde3ff5f	-0.111326925
180	0xbe06ab05	-0.13151176
181	0xbdc0577a	-0.09391685
182	0xbdb31952	-0.08745064
183	0xbcd9767b	-0.026545754
184	0xbd283be6	-0.04107275
185	0x3e2d4e69	0.16924442
186	0x3dafc297	0.08582037
187	0x3de9b540	0.11411524
188	0xbe40b47e	-0.18818852
189	0xbb4c6970	-0.0031190775
190	0xbd8ca9d1	-0.068683274
191	0x3d360876	0.044441663
192	0x3e0de28e	0.13855955
193	0x3d258db9	0.04041836
194	0x3dc99069	0.09841997
195	0xbd4fa1be	-0.05069136
196	0x3af45089	0.0018639724
197	0xbd83c1d5	-0.06433455
198	0xbda0e029	-0.07855255
199	0x3dd8467f	0.10560321
200	0x3d8d7211	0.06906522
201	0x3e078ade	0.13236567
202	0xbcfe26eb	-0.031024417
203	0xbe061b70	-0.13096404
204	0x3dde6044	0.10858205
205	0x3dd74c3f	0.1051259
206	0x3da57fa5	0.08080987
207	0x3d249235	0.040178496
208	0xbd90874c	-0.07057056
209	0xbd6e870d	-0.058234263
210	0xbc60afc8	-0.0137137845
211	0x3da5f50a	0.08103378
212	0xbdf78cb3	-0.12087383
213	0xbd676ac7	-0.056498315
214	0x3db47307	0.08811002
215	0xbd9fc14f	-0.078005426
216	0x3d91ec4d	0.07125149
217	0x3d0b981b	0.034080606
218	0xb9dbb623	-0.00041906637
219	0x3db87066	0.09005813
220	0x3dfd71d2	0.12375225
221	0x3cc7d0a6	0.024391484
222	0x3a78d1ac	0.0009491693
223	0x3c4e5f57	0.012595973
224	0xbd4e9d73	-0.050443124
225	0x3c4efc79	0.012633436
226	0xbdcba16c	-0.09942898
227	0x3de3e5bd	0.111278035
228	0x3dbd4e66	0.09243469
229	0x3d558049	0.052124295
230	0x3dcdaeba	0.10043092
231	0x3e2b9bc4	0.16758639
232	0x3d0117ed	0.031516958
233	0xbe400b52	-0.18754318
234	0x3b9732f3	0.004614228
235	0xbdc9dcb2	-0.098565474
236	0x3e096433	0.13417129
237	0x3c4ec08c	0.012619149
238	0xbd29c4df	-0.041447517
239	0xbd1f9c65	-0.03896751
240	0xbd14edf6	-0.03635975
241	0x3dc23298	0.09482306
242	0xbdfe39f4	-0.124133974
243	0x3d46c7a3	0.048530232
244	0xbc28a7df	-0.01029393
245	0xbd68b0bb	-0.05680917
246	0x3d8b2f82	0.06796171
247	0xbd3c3687	-0.04595044
248	0x3d434c4d	0.047680188
249	0x3df9845a	0.12183447
250	0xbce3c9c6	-0.027806174
251	0x3e16d37d	0.14729114
252	0x3dbe2b7c	0.09285638
253	0xbd530380	-0.05151701
254	0xbd6230f2	-0.05522246
255	0xbde1f2bf	-0.11032628

ensemble_blocks.0.0.bias f4 [128]
0	0x3d1b4bf4	0.03791423
1	0x3da2c41a	0.0794756
2	0xbd1f88d2	-0.03894884
3	0x3c988256	0.018616837
4	0x3de53af4	0.11192885
5	0xbbe1bd74	-0.0068890397
6	0x3dc7f7d7	0.097640686
7	0x3aa41e73	0.0012521282
8	0x3ca73831	0.020412536
9	0xbd77141f	-0.060321923
10	0xbe19432b	-0.14967029
11	0xbd9b3674	-0.075787455
12	0x3e11efb0	0.1425159
13	0xbd4509a5	-0.0481049
14	0x3d85074c	0.064955324
15	0xbdfa870b	-0.12232789
16	0xbd72e5ef	-0.059301313
17	0xbd700b1c	-0.058604345
18	0x3e25903c	0.16168302
19	0xbd87968b	-0.06620511
20	0x3dcdb796	0.10044782
21	0x3e1a9106	0.15094385
22	0x3a9fe1af	0.0012197996
23	0x3ba0fa78	0.0049126707
24	0x3d0c561e	0.034261815
25	0x3deffd6b	0.117182575
26	0x3d901732	0.07035674
27	0xbdb0dc80	-0.08635807
28	0xbd0f36fe	-0.034964554
29	0x3d95cc89	0.073144026
30	0x3dd407ca	0.10353048
31	0xbd8ee19b	-0.069766246
32	0x3d49b31a	0.04924307
33	0xbe1abd10	-0.15111184
34	0x3d344a79	0.044016335
35	0x3e172ad9	0.14762439
36	0xbe1ce4a0	-0.15321589
37	0x3e0753b2	0.13215521
38	0xbd9f9996	-0.07792966
39	0xbddf9543	-0.10917141
40	0xbd78c0b5	-0.060730655
41	0x3d6d901a	0.057998754
42	0x3ddf1717	0.10893076
43	0xbdd3044c	-0.10303554
44	0xbd5d3ffa	-0.05401609
45	0x3de6c06a	0.11267169
46	0x3e10c359	0.14137019
47	0xbcdef2fc	-0.027215473
48	0xbdbe2fbc	-0.09286448
49	0xbd275361	-0.040851
50	0xbd5abb9a	-0.053401567
51	0x3d765a53	0.060144734
52	0xbc502710	-0.012704626
53	0xbc2fd95d	-0.010732976
54	0x3cc27bef	0.023740737
55	0x3de184e3	0.11011674
56	0x3db3c5ad	0.08777938
57	0x3dd59270	0.10428321
58	0xbe105b2a	-0.14097276
59	0xbbce7e4f	-0.0063016783
60	0xbcee4e22	-0.029089991
61	0x3d23b4e1	0.03996742
62	0x3dfd5c4f	0.12371122
63	0xbdbb8930	-0.09157026
64	0xbd7ba7fa	-0.06143949
65	0xbdff3256	-0.12460773
66	0x3ccc63dd	0.024949962
67	0x3e169fb2	0.14709356
68	0x3e05fd1b	0.13084833
69	0xbe117da2	-0.14208081
70	0xbd8ee570	-0.069773555
71	0xbd3852fe	-0.045001023
72	0xbda64b05	-0.081197776
73	0xbe1d7c53	-0.15379457
74	0x3e25473b	0.16140454
75	0xbd136195	-0.035981733
76	0x3e07aee6	0.13250312
77	0x3de579c8	0.112048686
78	0x3dec97a0	0.11552358
79	0x3cbadbaa	0.022809822
80	0xbc013c8c	-0.007887971
81	0x3da4e259	0.08050985
82	0x3d9c9b83	0.07646849
83	0x3d7e86ec	0.06214039
84	0x3da6f3b1	0.08151949
85	0x3e1fdd79	0.15611829
86	0x3d72987c	0.05922745
87	0xbcba2392	-0.02272204
88	0x3d80ef4f	0.062956445
89	0x3e1e3ab6	0.15452084
90	0x3d43d2ea	0.047808565
91	0x3df7f294	0.12106815
92	0xbdf0ffe8	-0.1176756
93	0x3cefc778	0.029269919
94	0x3e10b286	0.14130601
95	0x3c9a1429	0.018808441
96	0x3cd64a17	0.026158376
97	0xbe24aa14	-0.16080505
98	0xbe1ac153	-0.1511281
99	0xbc187835	-0.009306003
100	0x3d134f60	0.03596437
101	0xbc053870	-0.0081311315
102	0xbe19dbdf	-0.1502528
103	0xbdd9dd0b	-0.10637864
104	0xbcb28f4c	-0.021796845
105	0xbe1e3f3c	-0.1545381
106	0xbdc523fa	-0.096260026
107	0x3da4a47d	0.08039186
108	0xbdc497c1	-0.09599257
109	0x3af0f417	0.0018383291
110	0xbd986f69	-0.07443125
111	0xbc76e441	-0.015069068
112	0xbd8707d4	-0.0659329
113	0x3d46eeb6	0.048567496
114	0xbe1391dd	-0.14411111
115	0x3dbb6f50	0.091520905
116	0xbb0e0543	-0.0021670617
117	0xbd49303b	-0.04911826
118	0xbc3f7a4d	-0.011686874
119	0x3d6a12bc	0.057146773
120	0xbe08f49a	-0.13374558
121	0xbbc9d33b	-0.006159214
122	0x3def5b8a	0.116873816
123	0xbd61d36e	-0.055133276
124	0x3c883fab	0.016631922
125	0xbdbd254c	-0.092356294
126	0x3dba17b7	0.090865545
127	0x3e1a9564	0.1509605

ensemble_blocks.0.1.weight f4 [128]
0	0x3f7d3598	0.989099
1	0x3f7a6c93	0.9782192
2	0x3f8adfe4	1.0849576
3	0x3f86a6b5	1.0519625
4	0x3f77ac69	0.9674745
5	0x3f8097d6	1.0046337
6	0x3f7e0863	0.9923155
7	0x3f8660e4	1.0498319
8	0x3f76515e	0.96217906
9	0x3f861b21	1.0477029
10	0x3f79344b	0.9734542
11	0x3f818275	1.0117937
12	0x3f7d3ca1	0.9892064
13	0x3f7860e4	0.97022843
14	0x3f844c92	1.0335867
15	0x3f7a36ca	0.9773985
16	0x3f8873d9	1.0660354
17	0x3f8540cb	1.0410398
18	0x3f814495	1.0099055
19	0x3f82fb60	1.0232964
20	0x3f81b966	1.0134704
21	0x3f78d297	0.97196335
22	0x3f7f24df	0.99665636
23	0x3f764dcc	0.9621246
24	0x3f77af70	0.9675207
25	0x3f7abc82	0.9794389
26	0x3f8304e6	1.023587
27	0x3f812477	1.0089253
28	0x3f82809d	1.01955
29	0x3f78a4a0	0.971262
30	0x3f7d58c0	0.98963547
31	0x3f744afa	0.95426905
32	0x3f84c19b	1.0371584
33	0x3f872ad3	1.0559944
34	0x3f769e53	0.96335334
35	0x3f7a15fe	0.9768981
36	0x3f81018d	1.0078598
37	0x3f7c27b6	0.98498094
38	0x3f80165d	1.0006825
39	0x3f82ba3d	1.0213085
40	0x3f8025db	1.0011553
41	0x3f83f258	1.0308332
42	0x3f7a3ccd	0.97749025
43	0x3f7d2a74	0.98892903
44	0x3f7d7a13	0.99014395
45	0x3f7c6051	0.9858447
46	0x3f7ce247	0.9878277
47	0x3f758dd1	0.9591952
48	0x3f853afa	1.0408623
49	0x3f758eb5	0.9592088
50	0x3f7dc387	0.99126476
51	0x3f801eca	1.0009396
52	0x3f8257dc	1.0183063
53	0x3f7386c8	0.95127535
54	0x3f807811	1.0036641
55	0x3f7923fe	0.97320545
56	0x3f7afc4e	0.98041236
57	0x3f80d629	1.0065356
58	0x3f808978	1.0041952
59	0x3f7aa129	0.9790216
60	0x3f81acc7	1.0130852
61	0x3f81e94d	1.0149323
62	0x3f83138f	1.0240344
63	0x3f798df2	0.97482216
64	0x3f81857e	1.0118864
65	0x3f81896c	1.0120063
66	0x3f788091	0.97071177
67	0x3f80e588	1.0070047
68	0x3f809b81	1.0047456
69	0x3f8024c8	1.0011225
70	0x3f7f6123	0.99757594
71	0x3f811f2f	1.0087641
72	0x3f78f100	0.97242737
73	0x3f7fe0be	0.99952304
74	0x3f85d757	1.0456342
75	0x3f82582d	1.0183159
76	0x3f809e56	1.004832
77	0x3f80b442	1.005501
78	0x3f7208ae	0.94544494
79	0x3f80aaca	1.0052121
80	0x3f77c1b0	0.9677992
81	0x3f82d630	1.0221615
82	0x3f8142d5	1.009852
83	0x3f7c742e	0.98614776
84	0x3f7da375	0.9907754
85	0x3f821252	1.0161841
86	0x3f7ce594	0.9878781
87	0x3f80e9b0	1.0071316
88	0x3f7e5f9b	0.9936463
89	0x3f832de7	1.0248383
90	0x3f828531	1.0196897
91	0x3f8127c8	1.0090265
92	0x3f7d16c3	0.98862857
93	0x3f79fdfc	0.97653174
94	0x3f75bfb9	0.9599567
95	0x3f78f906	0.9725498
96	0x3f828f8a	1.0200055
97	0x3f8218b1	1.0163785
98	0x3f7be697	0.9839873
99	0x3f7f55f7	0.99740547
100	0x3f751f69	0.95751053
101	0x3f778efd	0.9670256
102	0x3f848454	1.0352883
103	0x3f7d5c66	0.98969114
104	0x3f84572e	1.0339105
105	0x3f895d20	1.0731544
106	0x3f837645	1.0270468
107	0x3f780213	0.96878165
108	0x3f81bf2a	1.0136464
109	0x3f754cc8	0.95820284
110	0x3f7f3b1d	0.99699575
111	0x3f7ab2b6	0.9792894
112	0x3f7cfdba	0.98824656
113	0x3f7f4860	0.9971981
114	0x3f745503	0.9544222
115	0x3f796f7d	0.9743574
116	0x3f7fad4a	0.99873793
117	0x3f82e97a	1.0227501
118	0x3f84ed05	1.0384833
119	0x3f7dbfc5	0.9912074
120	0x3f735174	0.9504616
121	0x3f824979	1.0178672
122	0x3f80f14a	1.0073636
123	0x3f7e2655	0.9927724
124	0x3f804232	1.0020201
125	0x3f7fcff4	0.99926686
126	0x3f73d352	0.95244324
127	0x3f81220b	1.0088514

ensemble_blocks.0.1.bias f4 [128]
0	0xbc6ea06d	-0.014564616
1	0xbd6d5da9	-0.05795065
2	0x3ca4870d	0.020083928
3	0xbc72716b	-0.014797549
4	0x3c742021	0.014900238
5	0xbc315d18	-0.010825418
6	0xbc81e705	-0.015857229
7	0x3c9bebe0	0.019033372
8	0xbd229cae	-0.039700203
9	0xba370da8	-0.0006982931
10	0xbd2fe227	-0.042940285
11	0x3c9f5583	0.019449955
12	0xbcd737a8	-0.026271656
13	0xbd9ba7fb	-0.07600399
14	0x3c6cb250	0.01444681
15	0xbd305021	-0.043045167
16	0x3c35882f	0.011079832
17	0x3cfdd2b4	0.03098426
18	0x3d08f847	0.0334399
19	0x3d2053b5	0.03914233
20	0x3d446a98	0.04795322
21	0xbd34c161	-0.044129733
22	0x3c4e344a	0.012585709
23	0xbd2583e4	-0.040408984
24	0xbcea201e	-0.028579768
25	0xbd49bb1f	-0.04925072
26	0xbc91f1ac	-0.017815433
27	0x3ca319a2	0.019909684
28	0x3c8af6e5	0.016963432
29	0xbd2dade4	-0.042402163
30	0xbc32cdf1	-0.010913358
31	0x3beff6d8	0.0073231272
32	0x3c361367	0.011113024
33	0x3c69a9aa	0.0142616425
34	0xbd4369f5	-0.04770847
35	0x3c285b9a	0.010275746
36	0x3c6aadb5	0.014323642
37	0xbce75089	-0.028236644
38	0xbc35adf9	-0.011088842
39	0x3c5488b7	0.0129720485
40	0xbb08da67	-0.002088213
41	0xbcfb2d0a	-0.030661125
42	0x3bb8ee28	0.005643625
43	0xbc02ce30	-0.007983729
44	0x3cfded46	0.03099693
45	0xbd044444	-0.032291666
46	0xbcec84ab	-0.028871855
47	0xbca94406	-0.020662319
48	0xbab8bdeb	-0.0014094686
49	0x3d08ddbb	0.033414584
50	0x3cc7b979	0.024380432
51	0xbcafb7be	-0.02144992
52	0x3c1f4095	0.009719987
53	0xbc863587	-0.016382946
54	0x3d853c11	0.065055974
55	0xbc0a0f9e	-0.008426575
56	0xbd106e66	-0.035261534
57	0xbba01475	-0.004885251
58	0xbcd56800	-0.026050568
59	0xbcdf0a56	-0.027226608
60	0xbba53d3a	-0.005042699
61	0xbc880b80	-0.016607046
62	0xbca14e02	-0.019690517
63	0xbca7baa0	-0.020474732
64	0x3a940707	0.0011293598
65	0x3c84a37a	0.016191233
66	0xbd2d6c8c	-0.042339846
67	0xbcfc1c93	-0.030775344
68	0xbceb60a0	-0.028732598
69	0xbd241657	-0.040060367
70	0x3bea4b58	0.007150095
71	0xbcd126e4	-0.02553124
72	0xbd19a747	-0.037513044
73	0xbc04da59	-0.008108699
74	0xb9cd20d7	-0.00039125115
75	0xbc8457f8	-0.016155228
76	0x3d1482ed	0.036257673
77	0x3cd28059	0.025695967
78	0xbd57ca8e	-0.052683406
79	0x3c56d914	0.013113279
80	0x3c27acb1	0.010234044
81	0xbb747bd7	-0.003730526
82	0xbbdba6f7	-0.0067032534
83	0xbd26ced5	-0.040724594
84	0xbcc873d5	-0.024469296
85	0xbab0fa4d	-0.001350233
86	0xbc759daf	-0.014991208
87	0xbb040d80	-0.0020149648
88	0x3c0e8c27	0.008700407
89	0x3d1a1c9a	0.037624933
90	0xbc47b914	-0.012190122
91	0x3b69dbf2	0.0035684076
92	0x3ca188f2	0.01971862
93	0x3c47ff03	0.012206796
94	0xbc8557cd	-0.016277218
95	0xbcd4c2e2	-0.025971834
96	0xbb367504	-0.0027840743
97	0x3c303e21	0.010757
98	0x3c4e63b6	0.012597015
99	0xbcc13f3e	-0.023589727
100	0xbba03c08	-0.004889969
101	0xbcd6653f	-0.026171325
102	0x3d1c1615	0.038106997
103	0xbc85e5a6	-0.016344856
104	0x3caf7501	0.021418096
105	0x3d358483	0.044315826
106	0x3ca48ff6	0.020088177
107	0xbd079a94	-0.0331064
108	0xbd05c73b	-0.032660704
109	0xbd795a37	-0.06087705
110	0xbcf8700d	-0.030326867
111	0xbd168176	-0.036744557
112	0xbcbfb7f7	-0.023403151
113	0xbd07b06f	-0.033127245
114	0xbd0299d2	-0.031884976
115	0xb90fb690	-0.00013705553
116	0xbcac9049	-0.021064894
117	0x3cb0cc66	0.02158184
118	0xbc1774bb	-0.009244139
119	0x3a404f48	0.00073360326
120	0xbd81e740	-0.063429356
121	0x3d098d01	0.033581737
122	0x3d02c788	0.03192857
123	0xbcbef179	-0.023308503
124	0xbd512643	-0.05106188
125	0xba44665c	-0.00074920594
126	0xbcd8f25e	-0.026482757
127	0xbba3b464	-0.0049958695

ensemble_blocks.0.1.running_mean f4 [128]
0	0x3d131c14	0.03591545
1	0x3da19fcc	0.07891807
2	0xbd2fa3de	-0.042880885
3	0x3c87d321	0.016580166
4	0x3de2294c	0.11043033
5	0xbbfb1fea	-0.0076637166
6	0x3dc7d079	0.0975656
7	0xb94091f0	-0.00018364913
8	0x3cb3d637	0.021952732
9	0xbd80ff38	-0.06298679
10	0xbe1a502f	-0.1506965
11	0xbda0333f	-0.078222744
12	0x3e117cce	0.14207765
13	0xbd3faf9b	-0.04679833
14	0x3d840f65	0.06448249
15	0xbdfcf5f2	-0.12351598
16	0xbd6c9771	-0.057761613
17	0xbd6a67fe	-0.05722808
18	0x3e26c30b	0.1628534
19	0xbd8cfa25	-0.06883649
20	0x3dd08fca	0.101836756
21	0x3e19592c	0.14975423
22	0xbabd3785	-0.0014436102
23	0x3b42a70a	0.0029701614
24	0x3d0add67	0.033902552
25	0x3deecd56	0.116602585
26	0x3d902c0b	0.070396505
27	0xbdb50c04	-0.088401824
28	0xbd079fe8	-0.033111483
29	0x3d94b29f	0.07260632
30	0x3dd16b7a	0.10225578
31	0xbd8c4fe1	-0.06851173
32	0x3d435ca2	0.047695763
33	0xbe1930ae	-0.14959976
34	0x3d32e772	0.043677755
35	0x3e176900	0.14786148
36	0xbe1f7e62	-0.15575555
37	0x3e04d015	0.12970002
38	0xbda05a26	-0.078296944
39	0xbddbbfb8	-0.10729927
40	0xbd78a39d	-0.06070291
41	0x3d6eb1a0	0.058274865
42	0x3dd843f1	0.10559834
43	0xbdd4e348	-0.10394913
44	0xbd585b40	-0.052821398
45	0x3de3bd74	0.1112012
46	0x3e0f994e	0.14023325
47	0xbcd7d40e	-0.026346233
48	0xbdc3566d	-0.09537969
49	0xbd201364	-0.039080992
50	0xbd53bd72	-0.05169434
51	0x3d775b2c	0.060389683
52	0xbc3211dc	-0.010868516
53	0xbc533c6f	-0.012892826
54	0x3cc96b25	0.024587223
55	0x3de7694a	0.11299379
56	0x3db46e6b	0.08810123
57	0x3dd6e0a9	0.10492069
58	0xbe0fcbad	-0.1404254
59	0xbbb9e1a9	-0.0056726527
60	0xbce706f5	-0.02820156
61	0x3d2100de	0.039307468
62	0x3dfe5db6	0.12420218
63	0xbdc0a2df	-0.09406065
64	0xbd826fc9	-0.063689776
65	0xbdfc718d	-0.123263456
66	0x3ccd7a0e	0.025082614
67	0x3e16446a	0.14674535
68	0x3e05d528	0.13069594
69	0xbe129078	-0.14312923
70	0xbd8dc539	-0.06922383
71	0xbd3d6eed	-0.046248365
72	0xbda57e2c	-0.08080706
73	0xbe1cd4db	-0.15315573
74	0x3e26214a	0.16223636
75	0xbd0d9dad	-0.0345742
76	0x3e094007	0.1340333
77	0x3de66ea7	0.11251574
78	0x3dedee95	0.116177715
79	0x3cc00b7a	0.023442972
80	0xbbea588a	-0.007151668
81	0x3da7ccfc	0.081933945
82	0x3d9b7a62	0.07591702
83	0x3d7c629a	0.06161747
84	0x3da90f9e	0.08254932
85	0x3e21b8d8	0.15793169
86	0x3d745067	0.05964699
87	0xbcc5d56a	-0.024149615
88	0x3d7989ff	0.06092262
89	0x3e1ef98a	0.15524879
90	0x3d458a60	0.048227668
91	0x3df5250e	0.11969958
92	0xbdf3ca61	-0.11903835
93	0x3cdf8a0d	0.027287507
94	0x3e12cdc5	0.14336307
95	0x3c8c1eea	0.017104585
96	0x3cce8740	0.025210977
97	0xbe2501ee	-0.16114017
98	0xbe1c68c6	-0.15274343
99	0xbc091202	-0.00836611
100	0x3d0d1d1e	0.034451596
101	0xbbd864a1	-0.006603793
102	0xbe1d1a8d	-0.1534216
103	0xbdd7acc1	-0.10530997
104	0xbcc89256	-0.02448384
105	0xbe20d999	-0.15708007
106	0xbdc0da76	-0.09416668
107	0x3da2f82c	0.07957491
108	0xbdc4f186	-0.096163794
109	0x3b153011	0.0022764246
110	0xbd969874	-0.07353297
111	0xbc777fc4	-0.015106145
112	0xbd8c50e2	-0.06851365
113	0x3d3c87e8	0.046028048
114	0xbe12a856	-0.14322028
115	0x3dbc913a	0.09207387
116	0xbbb5b766	-0.0055455444
117	0xbd55e36c	-0.05221884
118	0xbc35db7d	-0.011099693
119	0x3d67e6c7	0.05661657
120	0xbe0962cd	-0.13416596
121	0xbc1e89ea	-0.009676436
122	0x3def32f0	0.116796374
123	0xbd63741a	-0.055530645
124	0x3c7fc2d3	0.015610415
125	0xbdbab2f4	-0.09116164
126	0x3dbab6b4	0.09116879
127	0x3e19d5bd	0.15022941

ensemble_blocks.0.1.running_var f4 [128]
0	0x3ef7557b	0.48307404
1	0x3e8bbc06	0.27291888
2	0x3ebbd819	0.36688307
3	0x3e5ecc57	0.21757637
4	0x3ed84a9e	0.42244428
5	0x3e39b466	0.18135223
6	0x3ea3869c	0.31938636
7	0x3e9e9d4b	0.3097938
8	0x3e580961	0.21097328
9	0x3e5b4248	0.21412003
10	0x3ed2cf9f	0.41174027
11	0x3eb5775c	0.35442626
12	0x3e9b8ed7	0.30382416
13	0x3e694291	0.227793
14	0x3e2ba264	0.16761166
15	0x3edfd404	0.43716443
16	0x3ef379de	0.47553915
17	0x3e6f2d25	0.23357065
18	0x3e75e28a	0.24012199
19	0x3e8679c7	0.26264784
20	0x3e77e337	0.2420777
21	0x3eedf6ae	0.46477264
22	0x3e70f867	0.23532258
23	0x3e92d802	0.28680426
24	0x3e65e87b	0.22451966
25	0x3e97090d	0.29499093
26	0x3e66bf74	0.22533971
27	0x3ee5b3f4	0.44863856
28	0x3e54e8ce	0.20791933
29	0x3edd7807	0.43255636
30	0x3e69f5c0	0.22847652
31	0x3ed54923	0.4165736
32	0x3eaf8488	0.342808
33	0x3e82ee73	0.25572547
34	0x3e6b0dad	0.22954436
35	0x3e30dc78	0.17271602
36	0x3e959b9b	0.2922028
37	0x3ef4ee7c	0.478382
38	0x3e6d4f6c	0.23174828
39	0x3ea1f5f7	0.3163297
40	0x3ec231a9	0.37928513
41	0x3e947997	0.28999016
42	0x3e901cbb	0.2814692
43	0x3e664ab8	0.2248944
44	0x3eb1aa6d	0.34700337
45	0x3e930f2f	0.28722522
46	0x3f084598	0.5323119
47	0x3e8f4579	0.2798269
48	0x3e2ffc69	0.1718613
49	0x3e5d8d74	0.21635991
50	0x3e8f4333	0.27980956
51	0x3e2983c1	0.16554166
52	0x3efeb7a5	0.49749485
53	0x3f1fc62f	0.6241178
54	0x3ed6dab3	0.4196373
55	0x3e8e4867	0.27789614
56	0x3ea24b71	0.31698182
57	0x3ebd40bb	0.36963448
58	0x3eb36ee0	0.35045528
59	0x3eac8083	0.33691797
60	0x3e3d231b	0.18470423
61	0x3e9ef8e7	0.31049272
62	0x3e95d443	0.29263505
63	0x3ed7dd3c	0.42160976
64	0x3ec94e11	0.39317372
65	0x3e5393ad	0.20661803
66	0x3eaac4e1	0.33353332
67	0x3e718a2c	0.23587865
68	0x3f02063c	0.5079076
69	0x3ea2b77d	0.31780615
70	0x3eb97c8e	0.3622784
71	0x3e8ac7bb	0.27105507
72	0x3e955fec	0.29174745
73	0x3e7c0e9a	0.24614945
74	0x3ea644ba	0.3247431
75	0x3ea85783	0.32879266
76	0x3ed835a2	0.4222842
77	0x3ee1c1e2	0.44093233
78	0x3ebec4cc	0.3725952
79	0x3ecb1aac	0.39668787
80	0x3edb76c2	0.42864043
81	0x3ed7f186	0.42176455
82	0x3e5cd6d5	0.21566327
83	0x3e996f39	0.2996767
84	0x3ea086c6	0.31352824
85	0x3ef5707b	0.47937378
86	0x3e9cde8c	0.3063854
87	0x3e2cccca	0.16874996
88	0x3e65fd93	0.22460012
89	0x3e9639a0	0.2934084
90	0x3ee90171	0.45508912
91	0x3ee50a31	0.44734338
92	0x3e857911	0.2606893
93	0x3ef37683	0.47551355
94	0x3ed0e7ee	0.40801948
95	0x3e89e0f1	0.2692943
96	0x3e7adcf1	0.24498345
97	0x3e4a8ad2	0.19779518
98	0x3e998ebd	0.29991713
99	0x3f039702	0.51402295
100	0x3e8a8f58	0.27062488
101	0x3ef5e382	0.48025137
102	0x3e866157	0.2624614
103	0x3e7b0261	0.24512626
104	0x3ed1f9c1	0.4101086
105	0x3e5365a0	0.20644236
106	0x3e617304	0.22016531
107	0x3e9458dc	0.28974044
108	0x3e8a5f8d	0.27026024
109	0x3e6a2a02	0.22867587
110	0x3efda0a8	0.49536633
111	0x3eb1c1eb	0.3471826
112	0x3ea4a024	0.32153428
113	0x3ea7009a	0.32617646
114	0x3e9decd3	0.30844745
115	0x3e990c73	0.2989231
116	0x3e64f695	0.22359689
117	0x3e84589a	0.25848848
118	0x3e3fa586	0.18715486
119	0x3e945021	0.28967384
120	0x3ec0f278	0.3768499
121	0x3e4287d9	0.18997134
122	0x3eb76fa6	0.35827368
123	0x3eb94047	0.36181852
124	0x3ed28409	0.4111636
125	0x3ea32205	0.31861892
126	0x3e89c5b7	0.26908657
127	0x3eed8dde	0.463973

ensemble_blocks.0.4.weight f4 [128, 128]
0	0x3db282c1	0.087163456
1	0xbdc7eb4c	-0.09761676
2	0x3db7c60d	0.08973322
3	0x3d6ebff7	0.05828854
4	0x3d3a7911	0.045525614
5	0x3d89aa8a	0.06721981
6	0x3d37789e	0.044792764
7	0x3cfca077	0.030838234
8	0xbd862ac1	-0.065511234
9	0x3d62f980	0.055413723
10	0xbdc1183d	-0.09428451
11	0xbb2f8d66	-0.002678716
12	0xbd87de18	-0.06634158
13	0x3d626a12	0.055276938
14	0x3dca772b	0.09886011
15	0x3d202e31	0.03910655
16	0x3d93825b	0.07202598
17	0xbbbf5c9d	-0.005839898
18	0x3d254653	0.04035027
19	0x3d275f68	0.04086247
20	0x3d84d755	0.06486384
21	0xbd1c2cf9	-0.038128827
22	0xbbc9f04d	-0.0061626793
23	0xbcd630bf	-0.02614629
24	0x3d76ea7f	0.060282227
25	0xbd8aa841	-0.06770373
26	0xbc5b6886	-0.01339162
27	0x3d3b4ba7	0.045726445
28	0x3d4af1fa	0.049547173
29	0xbc0e1c37	-0.008673719
30	0xbc5ac20f	-0.013351931
31	0xbc83ddf9	-0.016097056
32	0x3d9a5158	0.07535046
33	0x3c524edd	0.012836185
34	0xbc979b86	-0.018506777
35	0x3d083b2d	0.03325956
36	0x3d5e5d55	0.054288227
37	0xbd8823bc	-0.06647441
38	0x3d431275	0.047625024
39	0x3b341b7c	0.0027482202
40	0x3ce75c9b	0.0282424
41	0x3c89cb67	0.016820623
42	0xbd150aec	-0.03638737
43	0xbd008723	-0.031378876
44	0xbdfaf141	-0.12253047
45	0x3dbfce21	0.09365488
46	0xbcf91152	-0.030403767
47	0x3d7ac074	0.061218694
48	0x3bc3a4b2	0.005970561
49	0xbd81406a	-0.06311114
50	0x3c53ebb3	0.012934613
51	0xbc62ce75	-0.0138431685
52	0xbd0388ea	-0.032112993
53	0x3dc39d84	0.09551528
54	0xbd739e80	-0.05947733
55	0xbdc28444	-0.09497884
56	0xbd0a0613	-0.0336972
57	0xbda4ee56	-0.080532715
58	0x3dac5802	0.08415224
59	0xbd9bc18d	-0.07605276
60	0xbda2a7b1	-0.07942141
61	0xbd4ec5df	-0.050481673
62	0x3d208a26	0.03919425
63	0x3d9aa13f	0.075502865
64	0x3cf117bb	0.02943026
65	0xbdd4d230	-0.103916526
66	0x3cb3e38f	0.021959094
67	0xbd81a05c	-0.06329414
68	0xbb7629ce	-0.0037561539
69	0xbd787b79	-0.060664628
70	0xbd8da2ae	-0.06915794
71	0x3ddb799a	0.10716553
72	0xbdbc655c	-0.0919902
73	0x3d8b98c1	0.06816245
74	0x3dc632b1	0.09677637
75	0xbd919b9f	-0.071097605
76	0xbab4a0e3	-0.0013780858
77	0xbd383764	-0.0449747
78	0x3db1a290	0.086735845
79	0xbcff051b	-0.031130364
80	0xbc70ed9f	-0.014705091
81	0xba158e32	-0.00057050877
82	0x3db20204	0.08691791
83	0x3c1ae62e	0.009454293
84	0xbda51174	-0.080599695
85	0x3b837b43	0.0040124967
86	0xbd9cf820	-0.076645136
87	0x3c2c09df	0.0105004
88	0x3dc4d2f0	0.09610546
89	0xbd7fa6c5	-0.062414903
90	0xbce9c711	-0.028537305
91	0x3ce61cbd	0.028089875
92	0x3d264163	0.0405897
93	0x3db8262d	0.089916565
94	0xbc84a34c	-0.016191147
95	0x3cc0759c	0.02349358
96	0x3d4bcb27	0.049754288
97	0xbd064d9a	-0.03278885
98	0x3cefa63b	0.02925407
99	0xbd3db98d	-0.046319533
100	0x3b31e497	0.0027144307
101	0xbd931c58	-0.071831405
102	0x3e07a166	0.13245162
103	0x3d59247f	0.05301332
104	0x3d4ed8ab	0.0504996
105	0xbcb206d2	-0.021731768
106	0xbd083674	-0.033255056
107	0xbd42fac4	-0.04760243
108	0x3c2cd0f5	0.010547866
109	0xbd550099	-0.052002523
110	0xbd5903b2	-0.05298204
111	0xbcfbf9db	-0.030758789
112	0xbd0d9e0a	-0.034574546
113	0x3da826a9	0.08210499
114	0xbd4c8667	-0.049932864
115	0x3d458f2e	0.04823225
116	0xbd290c5a	-0.041271545
117	0x3c404f34	0.0117376335
118	0xbd5a2819	-0.053260896
119	0x3d9729d0	0.07381022
120	0xbd9ba28f	-0.07599365
121	0x3d2439d3	0.040094208
122	0x3d0f4b8c	0.034984156
123	0xbd4e7da5	-0.050412793
124	0x3ce89cd7	0.0283951
125	0xbbca82c3	-0.006180139
126	0xbd019adb	-0.031641822
127	0xbc5d219b	-0.013496782
128	0xbcc9cec3	-0.024634724
129	0xbdad5436	-0.084633276
130	0xbc32f8ac	-0.010923546
131	0xbdbf88fb	-0.09352299
132	0xbd2b10bb	-0.041764002
133	0x3d4c06bf	0.04981112
134	0xbd2d9330	-0.042376697
135	0xbc4bc19f	-0.0124363
136	0x3db1f1b2	0.08688678
137	0xbcf01f4a	-0.029311795
138	0xbd95ad2a	-0.07308419
139	0xbd1fffc5	-0.03906228
140	0xbda554f2	-0.08072843
141	0xbd92d159	-0.07168836
142	0x3bd72f25	0.0065668994
143	0xbbc8ba5b	-0.006125731
144	0xbd5a7936	-0.053338252
145	0xbd274548	-0.040837556
146	0xbc9eb40d	-0.019372964
147	0x3cdd6d35	0.027029613
148	0xbc17cbe0	-0.009264916
149	0x3d3eafd0	0.046554387
150	0x3c571288	0.013126977
151	0xbcd6e03a	-0.026229966
152	0xbdc1b65c	-0.094586104
153	0xbc9ff355	-0.01952521
154	0xbca3546e	-0.01993772
155	0x3d0d7c6c	0.034542486
156	0x3df7a08e	0.1209117
157	0x3d94fe4c	0.07275066
158	0x3c645cba	0.013938123
159	0xbc33b1e8	-0.010967709
160	0xbdb15558	-0.08658856
161	0xbd4c4117	-0.049866762
162	0x3d81ed15	0.06344048
163	0x3d698463	0.05701102
164	0x3d1fc58d	0.03900676
165	0xbdb64c5a	-0.08901282
166	0xbd333a4a	-0.04375676
167	0xbd7b7495	-0.06139048
168	0xbc2055d4	-0.009786088
169	0xbc83fbea	-0.016111333
170	0xbd6b9965	-0.057519335
171	0x3d80d9b4	0.062915236
172	0x3ccfdd8d	0.025374198
173	0xbd1653c7	-0.03670099
174	0x3dabe48a	0.083932
175	0x3d9ba161	0.0759914
176	0x3d6b49e1	0.057443503
177	0x3d54c28d	0.05194335
178	0x3d5294f9	0.051411603
179	0xbd14bb77	-0.036311593
180	0x3dc2379f	0.09483265
181	0xbd9ea6bf	-0.07746648
182	0xbd244369	-0.04010335
183	0x3d9528b0	0.07283151
184	0x3db54939	0.08851857
185	0x3d2f554f	0.042805966
186	0xbcb58ec9	-0.022162812
187	0xbd679e40	-0.056547403
188	0x3cc5905d	0.02411669
189	0xbcd485a7	-0.025942637
190	0x3db483f2	0.08814229
191	0x3cdb47c6	0.026767623
192	0xbdbb3d37	-0.09142535
193	0x3d6b26aa	0.05740992
194	0x3dbfbf6f	0.09362685
195	0xbd1ac320	-0.037783742
196	0xbda046f6	-0.07826035
197	0x3d432387	0.047641303
198	0x3cb8e79c	0.022571377
199	0xbd93e5a8	-0.07221538
200	0xbbecb2ca	-0.0072234618
201	0x3d81ade6	0.063319966
202	0xbd396544	-0.04526259
203	0x3d4bdbdd	0.049770225
204	0xbcaf2fbb	-0.021385064
205	0xbd28f49a	-0.041248895
206	0x3cfacb01	0.030614378
207	0x3c006c4b	0.007838319
208	0xbd313b18	-0.043269247
209	0xbd216a5a	-0.039408065
210	0xbdbc7d61	-0.09203602
211	0xbc440e3c	-0.011966284
212	0xbc1670a0	-0.009182125
213	0x3c4d5025	0.012531315
214	0x3ddb3c9d	0.107049204
215	0x3d9e92ca	0.077428415
216	0xbd99b467	-0.07505112
217	0xbd86dd9c	-0.065852374
218	0x3da82d54	0.08211771
219	0xbd07e625	-0.033178467
220	0xbd7c3b0f	-0.06157976
221	0xbda71d9b	-0.08159944
222	0x3da93270	0.08261573
223	0xbd728c8d	-0.05921607
224	0x3cb80dde	0.02246755
225	0xbc3f9833	-0.011694002
226	0x3d84543b	0.06461378
227	0x3c9d8082	0.019226316
228	0x3d02802a	0.031860508
229	0xbc847804	-0.01617051
230	0xbd19c451	-0.037540738
231	0x3cca5f7d	0.024703735
232	0xbcc21c5a	-0.02369516
233	0x3caec500	0.021334171
234	0xbcf600ae	-0.030029621
235	0xbcf260ee	-0.029587235
236	0xbd7a5ac2	-0.06112171
237	0xbd697452	-0.056995697
238	0x3da1da3a	0.079029515
239	0x3c7bfc7e	0.015380023
240	0x3d2b6155	0.04184087
241	0x3d8f7203	0.07004168
242	0x3cc8d8c4	0.024517424
243	0x3c68c6d6	0.014207562
244	0x3d6126a4	0.05496849
245	0xbc27166e	-0.010198219
246	0xbda3afd4	-0.07992521
247	0xbd53db2f	-0.0517227
248	0x3d424069	0.047424708
249	0xbdb84374	-0.08997241
250	0x3d81d008	0.06338507
251	0xbd962df9	-0.07332987
252	0x3c90f25b	0.01769369
253	0xbc8e69b9	-0.017384397
254	0xb8b77524	-8.747939e-05
255	0xbd9c2efe	-0.076261505

ensemble_blocks.0.4.bias f4 [128]
0	0x3d9fcd07	0.07802778
1	0xbcef7b96	-0.029233735
2	0x3d857d30	0.06518018
3	0x3d195957	0.037438717
4	0xbd867189	-0.06564624
5	0xbdaee96c	-0.085406154
6	0x3c179545	0.009251897
7	0xbcdcbf7f	-0.026946781
8	0x3d1eafb7	0.038741793
9	0xbc38baee	-0.011275036
10	0x3d9182a6	0.07104997
11	0xbc8973fe	-0.016778942
12	0x3d66ca19	0.05634508
13	0x3d12f99d	0.03588258
14	0xbdb26afd	-0.08711813
15	0xbd0c127b	-0.03419731
16	0xbd097ca5	-0.033566136
17	0xbd89ce38	-0.06728786
18	0xbd10dc49	-0.03536633
19	0x3c96b3da	0.018396307
20	0x39b43834	0.0003437415
21	0xbc235b19	-0.00997045
22	0xbdb176a7	-0.08665209
23	0xbd1c1369	-0.03810445
24	0x3d1e6bb5	0.038676936
25	0x3bf43bbd	0.0074534104
26	0xbcae22e2	-0.021256868
27	0xbd8c9199	-0.06863708
28	0xbcbe2935	-0.023213008
29	0x3da90f4e	0.08254872
30	0xbda901f2	-0.08252324
31	0x3d459cd8	0.04824528
32	0x3d1163e6	0.03549566
33	0xba84a0af	-0.0010118688
34	0x3beb8bf4	0.0071883146
35	0xbd4c8ad2	-0.049937077
36	0x3d793323	0.060839783
37	0x3d5766ec	0.05258839
38	0x3d1d937c	0.03847073
39	0xbcb38bc1	-0.021917226
40	0xbcf3ee4c	-0.029776715
41	0xbc4f85be	-0.012666164
42	0xbd960358	-0.073248565
43	0xbbc19a92	-0.005908319
44	0x3d8b4e9f	0.06802105
45	0xbac9e961	-0.0015404635
46	0xbdaf25c7	-0.08552127
47	0xbd514ebe	-0.051100485
48	0xbdaa170f	-0.08305179
49	0xbd36a25f	-0.044588443
50	0x3d8de899	0.0692913
51	0xbbbb1fa2	-0.005710558
52	0xbda38210	-0.07983792
53	0x3d059c80	0.032619953
54	0xbd697743	-0.056998502
55	0xbd8b2a9b	-0.06795236
56	0x3d155245	0.03645541
57	0x3a32001a	0.0006790176
58	0x3da77571	0.08176697
59	0xbd18e1f0	-0.037324846
60	0xbd35d1ea	-0.044389643
61	0x3d1e5ada	0.03866086
62	0x3d407acb	0.046992105
63	0xbd348b2d	-0.04407804
64	0x3db36a52	0.08760513
65	0x3d8e0695	0.06934849
66	0xbd014ccc	-0.03156738
67	0x3c89e87a	0.016834486
68	0x3d438a80	0.047739506
69	0xbd289fe2	-0.0411681
70	0xbd53d670	-0.051718175
71	0xbdb130b5	-0.08651868
72	0xbd2e9651	-0.04262382
73	0x3c001ff0	0.0078201145
74	0x3c0f7be3	0.008757564
75	0xbda54b63	-0.080710195
76	0x3c0b4dc2	0.008502426
77	0xbc64c4bc	-0.013962921
78	0x3d551e68	0.05203095
79	0xbd9a399b	-0.075305186
80	0x3c00ad5c	0.007853832
81	0xbcbbfa27	-0.02294643
82	0xbd33e47f	-0.043919083
83	0x3c243cf0	0.010024294
84	0x3c175e25	0.009238754
85	0xbc585a0f	-0.013205065
86	0xbaef04f9	-0.0018235735
87	0x3db3f29e	0.0878651
88	0xbd3d42e4	-0.04620637
89	0x3c114838	0.008867316
90	0x3db1b9a8	0.08677989
91	0x3d8927e7	0.06697064
92	0xbba65735	-0.005076314
93	0x3da51ede	0.08062528
94	0x3d1259b8	0.035730094
95	0x3d6d6ba2	0.057963975
96	0xbbed61f2	-0.007244342
97	0x3d9b1d1e	0.07573913
98	0xbd1696c5	-0.03676488
99	0x3d58d3cc	0.05293636
100	0x3d1c4b3e	0.038157694
101	0xbc7540e7	-0.014969087
102	0xbd9a8c60	-0.07546306
103	0xbd519cca	-0.051174916
104	0x3d8c38cb	0.0684677
105	0x3c3fb0c5	0.01169986
106	0xbd608ba7	-0.054820683
107	0x3d53cf91	0.051711623
108	0xbd9c00f2	-0.07617368
109	0x3bcacf2c	0.0061892476
110	0xbcfc6b91	-0.03081301
111	0x3db31e02	0.08745958
112	0xbd14dc35	-0.03634282
113	0x3c7fcc8f	0.015612735
114	0xbbe72506	-0.007053974
115	0x3d92352f	0.0713905
116	0x3dadfaad	0.08495078
117	0x3cac324f	0.021020083
118	0x3d4926c2	0.049109228
119	0x3d70e0e8	0.058808237
120	0xbc8da5d2	-0.017290983
121	0xbd001598	-0.031270593
122	0x3d49c00d	0.04925542
123	0xbc46eb41	-0.01214105
124	0xbc92c73c	-0.017917268
125	0xbc5b167a	-0.013372058
126	0xbcff9f55	-0.031203905
127	0x3c921d78	0.017836317

ensemble_blocks.0.5.weight f4 [128]
0	0x3f8cbfb1	1.0996
1	0x3f792f2e	0.97337615
2	0x3f78bf6c	0.97167087
3	0x3f78036e	0.96880233
4	0x3f7acab6	0.9796556
5	0x3f776db0	0.96651745
6	0x3f7ba4b0	0.9829817
7	0x3f90495d	1.1272389
8	0x3f789a0b	0.9711005
9	0x3f7e8bf6	0.99432313
10	0x3f8ba92d	1.0911003
11	0x3f79618c	0.9741447
12	0x3f81ad66	1.0131042
13	0x3f8e4e87	1.1117715
14	0x3f7ebdf3	0.9950859
15	0x3f87ff5e	1.0624807
16	0x3f88c450	1.068491
17	0x3f78b287	0.9714741
18	0x3f76af3e	0.9636115
19	0x3f902c5c	1.1263537
20	0x3f8fe893	1.1242851
21	0x3f8add21	1.0848733
22	0x3f8da7b9	1.106681
23	0x3f78338c	0.96953654
24	0x3f92eb5c	1.1478076
25	0x3f82d21c	1.022037
26	0x3f92abe6	1.1458709
27	0x3f9084a6	1.1290481
28	0x3f77d8b3	0.9681503
29	0x3f8dc166	1.1074646
30	0x3f989faf	1.1923732
31	0x3f8c933c	1.0982432
32	0x3f7885fc	0.97079444
33	0x3f784a1a	0.9698807
34	0x3f772084	0.9653399
35	0x3f788a93	0.9708645
36	0x3f80343d	1.0015942
37	0x3f8fe0d5	1.1240488
38	0x3f7c8280	0.9863663
39	0x3f8c1ab7	1.0945653
40	0x3f77497f	0.9659652
41	0x3f8dff42	1.1093524
42	0x3f7aa9ad	0.97915155
43	0x3f8cb367	1.0992249
44	0x3f8e02f1	1.1094648
45	0x3f8c111d	1.0942723
46	0x3f7f147b	0.99640626
47	0x3f7b4492	0.98151505
48	0x3f8df9b2	1.1091826
49	0x3f7997a5	0.97497016
50	0x3f8cc2a3	1.0996898
51	0x3f8d8c52	1.1058447
52	0x3f8d0437	1.1016911
53	0x3f8dbb10	1.1072712
54	0x3f779b97	0.96721786
55	0x3f783775	0.9695962
56	0x3f8c10c3	1.0942615
57	0x3f78124a	0.96902907
58	0x3f76f3b0	0.9646559
59	0x3f8d2f89	1.1030132
60	0x3f795784	0.97399163
61	0x3f8b4afa	1.0882256
62	0x3f763aaf	0.96183294
63	0x3f779687	0.9671406
64	0x3f8e1c05	1.1102301
65	0x3f8f20ae	1.1181848
66	0x3f8b7efb	1.0898126
67	0x3f8f0740	1.1174088
68	0x3f8d22a7	1.10262
69	0x3f8b845c	1.0899768
70	0x3f7b402f	0.9814481
71	0x3f8c65b4	1.0968537
72	0x3f9056fa	1.1276543
73	0x3f92737b	1.1441492
74	0x3f78563b	0.9700658
75	0x3f773491	0.96564585
76	0x3f78a45e	0.97125804
77	0x3f77e15e	0.9682826
78	0x3f8d2190	1.1025867
79	0x3f8d8948	1.105752
80	0x3f8e954e	1.1139314
81	0x3f78a98a	0.97133696
82	0x3f771e82	0.96530926
83	0x3f77a4e9	0.9673601
84	0x3f767ce8	0.9628434
85	0x3f8abec6	1.083947
86	0x3f775116	0.966081
87	0x3f788fee	0.9709462
88	0x3f8c255a	1.0948899
89	0x3f8c93bb	1.0982584
90	0x3f843670	1.0329113
91	0x3f8e9172	1.1138136
92	0x3f77e2ee	0.9683064
93	0x3f936093	1.1513847
94	0x3f777525	0.96663123
95	0x3f8d5d2d	1.104406
96	0x3f8cd5fa	1.10028
97	0x3f7a11dd	0.9768351
98	0x3f7a45d8	0.97762823
99	0x3f853824	1.0407758
100	0x3f799276	0.97489107
101	0x3f8d9a61	1.1062738
102	0x3f8d482e	1.1037652
103	0x3f8f3913	1.1189293
104	0x3f8e647d	1.1124417
105	0x3f8a1048	1.0786219
106	0x3f762ce3	0.9616224
107	0x3f77186e	0.9652165
108	0x3f77900f	0.9670419
109	0x3f787164	0.9704802
110	0x3f79fa86	0.97647893
111	0x3f8bdb42	1.0926287
112	0x3f8460b5	1.0342013
113	0x3f76f522	0.96467793
114	0x3f806aef	1.0032634
115	0x3f835a39	1.0261909
116	0x3f8f5a01	1.1199342
117	0x3f7700bb	0.9648549
118	0x3f864ad6	1.0491588
119	0x3f81a50b	1.0128492
120	0x3f8ef211	1.1167623
121	0x3f8ea78d	1.1144882
122	0x3f8bd182	1.0923312
123	0x3f8ff2f8	1.1246023
124	0x3f8b5e3f	1.0888137
125	0x3f76ff08	0.96482897
126	0x3f825b00	1.0184021
127	0x3f769f4a	0.96336806
