backend/models/tabm_k1_pruned.pth (torch, 102013 bytes, 24 tensors)

embedding.embeddings.0.weight f4 [10, 4]
0	0xbef2284a	-0.47296363
1	0xbf37a304	-0.7173312
2	0xbfa909ae	-1.3206079
3	0x3f13c80c	0.5772712
4	0xbf891f78	-1.0712729
5	0x3f1bd39e	0.6086978
6	0xbe9d0434	-0.3066727
7	0xbfcd5dc7	-1.6044244
8	0xc0149bf1	-2.322018
9	0x3f7b7528	0.9822564
10	0x3fa9e1b2	1.3272002
11	0xbdb322e5	-0.0874689
12	0x3f28a04f	0.6586961
13	0x3ef2761c	0.47355735
14	0x3f26ff2f	0.6523313
15	0xbea0eec8	-0.31432176
16	0xbfbc6fbb	-1.4721597
17	0xbfa6a2e7	-1.3018464
18	0x3fa73245	1.3062216
19	0xbfb07ab8	-1.3787451
20	0x3f94eafb	1.163421
21	0xbeaf2638	-0.34208846
22	0x3f6ddd45	0.92915756
23	0x3e387ac4	0.18015581
24	0x3d2044be	0.039128058
25	0xbf68148d	-0.9065636
26	0x3ebbdfa8	0.36694074
27	0xbea881a3	-0.32911405
28	0xbfe197f1	-1.7624494
29	0x3f344756	0.7042135
30	0x3f211ab4	0.6293137
31	0xbf6d7ff6	-0.9277338
32	0xbe227157	-0.15863548
33	0xc00c3134	-2.1905031
34	0xbfaa7aeb	-1.3318762
35	0xbf174924	-0.5909598
36	0x3f078da0	0.5295048
37	0xbdfeed80	-0.12447643
38	0xc00d3443	-2.2063148
39	0xbf7f4cf5	-0.997268

embedding.embeddings.1.weight f4 [3, 4]
0	0x3e5ff422	0.21870473
1	0xbe8e69b4	-0.2781502
2	0x3f1e7441	0.6189614
3	0xbf4e1359	-0.8049827
4	0xbe9234cd	-0.2855591
5	0x3f01c033	0.506839
6	0x3f653737	0.89537376
7	0x3f8775f5	1.0582873
8	0xbfd7b41f	-1.6851844
9	0x3fc54438	1.5411444
10	0x3ef1608d	0.47143975
11	0xbed63021	-0.41833594

embedding.embeddings.2.weight f4 [2, 4]
0	0x3fb2b07b	1.3960108
1	0xbfd365c3	-1.651543
2	0xbf76dc37	-0.9642977
3	0xbf02b8d7	-0.51063293
4	0xbfb2562b	-1.3932546
5	0xbf35dc91	-0.7103968
6	0xbcaf557a	-0.021403063
7	0x3eb7c46e	0.3589205

embedding.embeddings.3.weight f4 [8, 4]
0	0x3f19a75b	0.6002099
1	0xbe67b6d9	-0.22628345
2	0x3ed9046e	0.42386192
3	0xbfc0c145	-1.5058981
4	0xbf503fee	-0.8134755
5	0x3da686f5	0.0813121
6	0xbebaf90d	-0.36518136
7	0xbf93c9c6	-1.1545951
8	0x4006e93c	2.1079855
9	0x3e94eb0b	0.29085574
10	0xbdc9972e	-0.09843288
11	0xbd3cef41	-0.046126608
12	0xbf8679be	-1.0505903
13	0x3f112cba	0.5670887
14	0xc00f7a8c	-2.2418547
15	0xbfa1d1be	-1.2642133
16	0x3fc88da1	1.5668222
17	0x3f5325a4	0.8247931
18	0x3f95ea37	1.1712102
19	0xbf202caf	-0.6256818
20	0x3ef95635	0.48698583
21	0x3f8d7dce	1.1054018
22	0xbd3343a3	-0.043765675
23	0xbf67086b	-0.9024722
24	0x3fd8574d	1.6901642
25	0xbf8fd22c	-1.1236014
26	0xbf731520	-0.9495411
27	0xbfe41b6e	-1.7820871
28	0xbfade946	-1.3586814
29	0xbeed7f09	-0.46385983
30	0xbf11cfe4	-0.5695784
31	0x3f96acd0	1.1771488

embedding.embeddings.4.weight f4 [13, 4]
0	0xbfbe2b5f	-1.4856986
1	0x3df97a1f	0.12181496
2	0x3d69b8ea	0.057061113
3	0x3f60eb88	0.8785939
4	0x3f61f4e2	0.88264287
5	0x3ee8aa09	0.45442227
6	0xbd0687b6	-0.032844268
7	0x3ea4c939	0.3218477
8	0xbf8265f2	-1.0187361
9	0x3fae117b	1.3599085
10	0x3f9fa897	1.2473325
11	0xbdfa83c6	-0.12232165
12	0x3e0b4644	0.13601023
13	0x3ef310cb	0.4747375
14	0x3fafffe2	1.3749964
15	0x3f17738c	0.59160686
16	0xbf3f02a7	-0.7461342
17	0xbfdba734	-1.7160401
18	0xbe789e7e	-0.2427921
19	0xbf47c543	-0.7803537
20	0x3f54cfee	0.83129776
21	0xbf397dfe	-0.72457874
22	0xbf1eae56	-0.61984766
23	0xbf8c39a3	-1.0955089
24	0xbba24a65	-0.004952716
25	0x3fb59a1d	1.4187657
26	0x3faf6db5	1.3705355
27	0x3f0b4a4f	0.5441026
28	0xbf8d9b35	-1.106299
29	0xbd52020a	-0.051271476
30	0xbe0732aa	-0.1320292
31	0x4010a294	2.259923
32	0x3edb136f	0.42788264
33	0xbf3b706a	-0.73218405
34	0xbf7f9eb2	-0.99851525
35	0xbe45885e	-0.19290301
36	0xbf809820	-1.0046425
37	0x3e1bb7bd	0.1520681
38	0x3ed28a7a	0.41121274
39	0x3f55152f	0.8323545
40	0xbf289655	-0.6585439
41	0x3f11cfe1	0.56957823
42	0x3f6f7eea	0.9355303
43	0x3fcf0643	1.6173786
44	0xbda0bf16	-0.07848947
45	0xbe544d57	-0.20732628
46	0xbe2c5956	-0.16830954
47	0x3fbf1f07	1.4931344
48	0x3e011ab3	0.12607841
49	0x3f46eb94	0.77703214
50	0x3f29cf74	0.66332173
51	0xbfe5d4a1	-1.7955514

embedding.embeddings.5.weight f4 [9, 4]
0	0xbf8fb53f	-1.1227187
1	0x3d8441f9	0.06457896
2	0x3eafff92	0.34374672
3	0x3e7ef067	0.24896394
4	0x3f15dc58	0.5853934
5	0xc027a83c	-2.6196432
6	0x3f09e333	0.53862303
7	0xbf70af59	-0.9401756
8	0x3f1e4eff	0.6183929
9	0x3eb6c2fb	0.35695633
10	0xbf56abf9	-0.8385616
11	0x3f883733	1.0641845
12	0xbfbce10a	-1.4756176
13	0xbebad221	-0.3648844
14	0xbf493535	-0.7859681
15	0xbf3ff485	-0.7498248
16	0xbf2acdf2	-0.667205
17	0xbe8598e5	-0.26093212
18	0x3f09e489	0.5386434
19	0xbf9bef50	-1.2182407
20	0xbea875ba	-0.32902318
21	0xbf21f6dd	-0.6326731
22	0x3eae9cd9	0.3410404
23	0x3fbd5774	1.4792314
24	0xbf7aa2cb	-0.9790465
25	0xbef005e9	-0.4687951
26	0xbfaf0d74	-1.367598
27	0x3e2d0949	0.16898073
28	0xbe9dff58	-0.30858874
29	0x4018f09b	2.3896854
30	0x3fa74432	1.3067687
31	0xbd8b8c4c	-0.06813869
32	0x3f94e368	1.1631899
33	0x3f2420fa	0.6411282
34	0xbf615c1d	-0.8803118
35	0x3fa3989a	1.2780945

embedding.embeddings.6.weight f4 [20, 4]
0	0x4000d644	2.0130777
1	0x3f7192bf	0.9436454
2	0x3e326a60	0.17423391
3	0x3f8acf2f	1.0844477
4	0x3fb719ea	1.4304783
5	0x3f3c693d	0.7359808
6	0x3ec429f4	0.38313258
7	0xbe64b23e	-0.22333619
8	0x3f70f9d6	0.9413122
9	0xbcd5fc20	-0.0261212
10	0xc010e3de	-2.263908
11	0x3f51157e	0.8167342
12	0xbfd453d6	-1.6588085
13	0x3f52e4fa	0.8238064
14	0xbfb93428	-1.4469042
15	0xbf0ff74d	-0.56236726
16	0x3ef3ff66	0.4765579
17	0x3f230738	0.6368289
18	0xbf1d14bc	-0.61359763
19	0xbe9c056f	-0.30472896
20	0xbf9f61c0	-1.2451706
21	0x3fbfb9f2	1.4978621
22	0xbf112ad6	-0.5670599
23	0xbf10b5b8	-0.5652728
24	0xbf8db2a8	-1.1070147
25	0xbf99f4f1	-1.2027875
26	0x3f8f7b6c	1.120954
27	0x3eff22db	0.4983128
28	0xbfc7ec0b	-1.561891
29	0xbfa6dc86	-1.3036048
30	0xbf3f39c8	-0.7469754
31	0x3f28a1e1	0.6587201
32	0x3e83b5cd	0.2572464
33	0xbe0b2d58	-0.13591516
34	0xbdd79c66	-0.105278775
35	0x3f68eb5b	0.90984124
36	0x3f7d06a0	0.98838234
37	0x3e811457	0.2521083
38	0x3e0bafb8	0.1364125
39	0xbc9e6645	-0.019335875
40	0x3cbed359	0.023294138
41	0x4014a728	2.3227024
42	0x3f99b2e8	1.2007723
43	0xbc88fd1c	-0.016722254
44	0x3f057893	0.52137107
45	0x3fcfa994	1.6223626
46	0x3fa8bac2	1.3181994
47	0x3f09debe	0.538555
48	0xbf85602c	-1.0419974
49	0x3f885488	1.0650797
50	0x40044465	2.0666745
51	0x3f00d2bb	0.5032155
52	0x3f18049d	0.5938204
53	0x3f642008	0.89111376
54	0x3f75ab7b	0.95964783
55	0xbf4be5ad	-0.7964733
56	0xbe1f6990	-0.15567613
57	0x3e2cc541	0.16872121
58	0xbf38d23e	-0.72195804
59	0xbf594c1d	-0.84881765
60	0x3e867b85	0.26266113
61	0xbe79eb7a	-0.24406233
62	0x3e9d0167	0.30665132
63	0x3ea782cd	0.3271698
64	0x3e8253e5	0.2545463
65	0x3f722736	0.9459108
66	0x3f1be14f	0.6089067
67	0x3ed6a925	0.41925922
68	0xbfae6fa0	-1.3627815
69	0x3fe96c22	1.8236125
70	0x3fc4eed9	1.538539
71	0xbf08bf22	-0.53416646
72	0x3f0bc246	0.5459331
73	0x3fc25159	1.5181075
74	0x3f28ed3e	0.65987
75	0x3fd98456	1.6993511
76	0x3d6b9a3e	0.057520144
77	0xbf463d58	-0.77437353
78	0xbf99b16b	-1.2007269
79	0xbf30f463	-0.69122905

bn_in.weight f4 [38]
0	0x3f76026d	0.9609745
1	0x3f7bf25f	0.98416704
2	0x3f804280	1.0020294
3	0x3f7e7c51	0.9940844
4	0x3f800751	1.0002233
5	0x3f78e399	0.97222286
6	0x3f765f72	0.9623939
7	0x3f681403	0.90655535
8	0x3f74c36f	0.9561071
9	0x3f749795	0.95543796
10	0x3f7d6583	0.9898302
11	0x3f7580f7	0.9589991
12	0x3f7b9805	0.9827884
13	0x3f715fb5	0.9428666
14	0x3f6e6a50	0.9313097
15	0x3f7eb5bd	0.9949606
16	0x3f70386f	0.9383611
17	0x3f7a69ee	0.97817886
18	0x3f72ba00	0.94815063
19	0x3f7911b7	0.97292656
20	0x3f702562	0.9380704
21	0x3f6af5f1	0.91781527
22	0x3f6d1320	0.9260731
23	0x3f6b12c6	0.9182552
24	0x3f6ffd8e	0.9374627
25	0x3f76a680	0.9634781
26	0x3f6fe635	0.93710643
27	0x3f725784	0.9466479
28	0x3f821085	1.0161291
29	0x3f7555c2	0.9583398
30	0x3f6e1aa1	0.9300938
31	0x3f6efc29	0.93353516
32	0x3f803685	1.0016638
33	0x3f7715c6	0.965176
34	0x3f801234	1.0005555
35	0x3f7a01b5	0.97658855
36	0x3f907e98	1.1288633
37	0x3f7676d5	0.96275073

bn_in.bias f4 [38]
0	0xb98de739	-0.0002706589
1	0x3a6140b6	0.00085927115
2	0xba7d20f0	-0.0009656092
3	0xba3a6cee	-0.00071115687
4	0xba7c47e8	-0.0009623752
5	0x3919260c	0.0001460539
6	0xb9dc17b0	-0.00041979318
7	0x3a5a1ea8	0.0008320608
8	0xb9285cc8	-0.00016056292
9	0xbabd94a2	-0.0014463852
10	0xb829fca5	-4.0528033e-05
11	0x3a1bc5b6	0.0005942242
12	0x39d03efc	0.0003971978
13	0x3a861b8a	0.0010231596
14	0xba94c941	-0.0011351482
15	0xba1d43fb	-0.00059992046
16	0xb95fbf2f	-0.00021338159
17	0x3ae4e2c8	0.0017462606
18	0xb9898006	-0.0002622606
19	0x3a7ae8e6	0.0009571448
20	0x3a3f5a45	0.0007299523
21	0x36cc1b0c	6.0828224e-06
22	0xbaa5000f	-0.0012588518
23	0xba9097cd	-0.0011031568
24	0xb8e4a6fd	-0.00010902991
25	0x391f7f51	0.0001521085
26	0xb9bd553b	-0.0003611239
27	0xb9b51f69	-0.00034546413
28	0x3b01c571	0.0019801522
29	0xba4a3cd6	-0.0007714754
30	0xba80e1f7	-0.0009832968
31	0x3a2d1312	0.0006602268
32	0xbada10b4	-0.0016637058
33	0xba5e4f0c	-0.0008480407
34	0x3a15a46a	0.00057083985
35	0x3abc33d1	0.0014358704
36	0x3b1f638c	0.002432081
37	0xba13c291	-0.00056365976

bn_in.running_mean f4 [38]
0	0xbed5a12d	-0.4172453
1	0xbe34c887	-0.1765462
2	0x3e7005dd	0.23439737
3	0xbf17ecd6	-0.5934576
4	0xbfb410b6	-1.40676
5	0x3fa34408	1.2755136
6	0x3efd7445	0.4950277
7	0xbeed0b20	-0.4629755
8	0x3f3d2501	0.7388459
9	0xbfb6dd4d	-1.4286286
10	0xbf3e0843	-0.74231356
11	0xbe9d6e1f	-0.30748078
12	0x3dd0635a	0.101752
13	0x3d9f1d27	0.07769232
14	0xbe590ffc	-0.21197504
15	0xbf7afd2a	-0.9804255
16	0x3e41110b	0.18854158
17	0xbeee3623	-0.46525678
18	0xbed69924	-0.41913712
19	0xbebef07f	-0.3729286
20	0xbef1276a	-0.47100383
21	0xbe1a75d1	-0.15084006
22	0xbdaf396b	-0.085558735
23	0x3e874ff3	0.26428184
24	0x3f3ffe00	0.7499695
25	0x3f83b786	1.0290382
26	0x3f1452e8	0.57939005
27	0x3e7b6591	0.24550463
28	0x3c96db0f	0.018415002
29	0x3ca9b4b0	0.020716041
30	0x3c569ffe	0.013099669
31	0x3cc34986	0.02383877
32	0x3bd582c6	0.0065158335
33	0x3afec550	0.0019437466
34	0x3ab8f18b	0.0014110071
35	0x3982aa00	0.00024922192
36	0xbba5f1ae	-0.005064211
37	0x3c3c2935	0.011484434

bn_in.running_var f4 [38]
0	0x3f8d1017	1.1020535
1	0x3f2d9d20	0.6781788
2	0x3f2369a8	0.63833094
3	0x3eb709dc	0.3574971
4	0x3ee5eb05	0.44905868
5	0x3ecfc8dd	0.40582934
6	0x3b7d2213	0.0038625046
7	0x3d0f31a7	0.03495946
8	0x3fb36eed	1.4018227
9	0x3e21fed4	0.15819865
10	0x3e24578c	0.16049021
11	0x3e0d980e	0.13827536
12	0x3fb4e20c	1.4131484
13	0x3d3058a6	0.04305329
14	0x3e837928	0.25678372
15	0x3e96177e	0.29314798
16	0x3f745955	0.9544881
17	0x3e3e3fbe	0.18579003
18	0x3e0b418a	0.1359922
19	0x3f92bfec	1.146482
20	0x3f383f42	0.71971524
21	0x3f69011f	0.91017336
22	0x3ef74054	0.48291266
23	0x3f0fdff2	0.5620109
24	0x3f03a744	0.514271
25	0x3e999863	0.29999074
26	0x3f2ea035	0.68213207
27	0x3f0a642f	0.5405912
28	0x3f7fed86	0.99971807
29	0x3f8a6975	1.0813433
30	0x3f8c026c	1.0938239
31	0x3f8c05ef	1.0939311
32	0x3f7f1b36	0.99650896
33	0x3f6c3770	0.9227209
34	0x3f81c06f	1.0136851
35	0x3f81a91d	1.0129734
36	0x3f58105d	0.8439997
37	0x3f8674e8	1.0504427

ensemble_blocks.0.0.weight f4 [128, 38]
0	0x3c671588	0.014104255
1	0xbd75d63a	-0.060018755
2	0x3de20e22	0.11037852
3	0xbd83d2c6	-0.06436686
4	0x3db5fef8	0.08886522
5	0xbbae386f	-0.005316786
6	0xbc5318d4	-0.012884337
7	0x3d3ff1ac	0.046861336
8	0xbdcbee84	-0.099576026
9	0xbdd7ee3e	-0.10543488
10	0x3e038956	0.12845358
11	0xbc90fe4b	-0.017699381
12	0x3d592a7b	0.05301903
13	0x3db2bf33	0.087278746
14	0x3e22cc7d	0.15898319
15	0xbd5a0174	-0.053224042
16	0x3d95e175	0.07318393
17	0xbe10df31	-0.14147641
18	0xbbe15399	-0.0068764207
19	0x3dbd9c63	0.09258344
20	0xbda79db4	-0.08184376
21	0xbb6ca747	-0.0036110447
22	0x3dd1ab68	0.10237771
23	0xbd44dd94	-0.048062876
24	0xbd180ec7	-0.037123468
25	0x3dac4b81	0.08412839
26	0x3c1e983c	0.00967985
27	0x3ddf6ec7	0.10909801
28	0x3d345a5b	0.044031482
29	0x3dd10e00	0.102077484
30	0xbc4f4e8d	-0.012653005
31	0x3d1fa487	0.038975265
32	0x3c92ed2b	0.017935356
33	0xbe091fce	-0.13391039
34	0xbce7d36c	-0.028299056
35	0xbe0a4097	-0.13501202
36	0xbe9675e5	-0.2938682
37	0x3df0f98e	0.11766349
38	0x3dfac35a	0.122442916
39	0x3d350bc1	0.044200663
40	0xbe0cadc2	-0.13738158
41	0xbcf4de07	-0.029891027
42	0xbd814649	-0.06312234
43	0x3d444759	0.047919605
44	0xbd92e265	-0.071720876
45	0xbdecdae8	-0.115651906
46	0x3e0d9a0f	0.138283
47	0xbdd96c59	-0.10616369
48	0xbde06604	-0.10956958
49	0xbdf177b1	-0.117904074
50	0xbd9c7743	-0.07639935
51	0x3dad998a	0.08476551
52	0x3e2529bb	0.161292
53	0xbc43101d	-0.011905697
54	0x3dccd9f5	0.100025095
55	0xbd33d27c	-0.043901905
56	0x3c421b3b	0.011847313
57	0xbde92a80	-0.11385059
58	0xbccfd520	-0.02537018
59	0x3da0ecaa	0.0785764
60	0x3dd2d380	0.10294247
61	0xbd3baf84	-0.04582168
62	0xbd137f06	-0.03600981
63	0xbcd8dc5d	-0.026472265
64	0x3daf7037	0.08566325
65	0xbdde36fa	-0.1085033
66	0xbe3c8bad	-0.18412657
67	0x3deb488f	0.11488449
68	0xbd999615	-0.07499329
69	0x3dcc771c	0.09983656
70	0xbc983f94	-0.018585004
71	0xbc9a46e3	-0.01883263
72	0xbdbade04	-0.09124377
73	0xbcbf7146	-0.023369443
74	0xbe67c84e	-0.22635004
75	0x3d290a4b	0.04126958
76	0xbdc30776	-0.095229074
77	0xbe0ae685	-0.13564499
78	0x3b184867	0.0023236515
79	0x3e2dc0fc	0.16968149
80	0x3d451142	0.04811216
81	0x3e0cf8e2	0.13766816
82	0x3d993185	0.07480148
83	0xbe2bc75f	-0.16775273
84	0x3d64ad6f	0.05582946
85	0x3e3a4792	0.18191364
86	0xbd23ab3f	-0.039958235
87	0x3d46329b	0.048388105
88	0x3d86254f	0.06550085
89	0xbd03012a	-0.031983532
90	0xbd6d131c	-0.057879552
91	0x3caaf0e3	0.020866817
92	0xbce413ba	-0.027841438
93	0xbd5344bc	-0.051579222
94	0x3c1682a6	0.009186422
95	0xbdd90c78	-0.10598081
96	0x3d7ac5bd	0.061223734
97	0xbd7626a6	-0.06009545
98	0x3e13dd98	0.1444
99	0xbdf24368	-0.11829263
100	0xbbfea062	-0.007770584
101	0x3cbdd444	0.023172505
102	0x3dc69283	0.09695914
103	0x3d774c1c	0.060375318
104	0xbdf0db80	-0.11760616
105	0x3de3b744	0.111189395
106	0xbdfc69d5	-0.12324873
107	0x3dcddf80	0.10052395
108	0xbca654d1	-0.020304115
109	0xbe0eab96	-0.13932642
110	0xbdf2db0c	-0.11858186
111	0x3cec3611	0.028834375
112	0x3b0ff09b	0.002196348
113	0xbe0144d1	-0.12623908
114	0x3e1b8e1f	0.15190934
115	0x3c6cec88	0.01446069
116	0x3c221761	0.009893269
117	0xba11a5b4	-0.0005556003
118	0xbd230d3c	-0.039807543
119	0x3c604011	0.01368715
120	0x3e065367	0.13117753
121	0x3dcd1ac8	0.10014874
122	0xbce824db	-0.028337887
123	0xbd3a4fc8	-0.04548624
124	0x3e06a27b	0.13147919
125	0xbe0770a5	-0.13226564
126	0xbda201e3	-0.07910516
127	0x3e12e40c	0.14344805
128	0xbdb51655	-0.0884215
129	0xbda1e3d0	-0.0790478
130	0x3c993b78	0.018705115
131	0xbdd59e23	-0.10430553
132	0xbc8c9c7c	-0.017164461
133	0xbe13b3a8	-0.14424002
134	0x3dd95a8e	0.10612975
135	0x3c1b9156	0.0094951
136	0xbe10e562	-0.14150003
137	0x3dac377d	0.08409021
138	0x3bf89b23	0.007586853
139	0xbe2c7b97	-0.16844021
140	0x3df70cf4	0.120630175
141	0x3dc63064	0.096771985
142	0x3da88ef1	0.08230389
143	0xbe0aca02	-0.13553622
144	0xbe0ff9be	-0.14060113
145	0x3e1bd497	0.15217815
146	0x3e03f851	0.12887694
147	0xbd32ae6e	-0.04362338
148	0x3d83815f	0.0642116
149	0xbdc28548	-0.09498078
150	0xbe490d66	-0.19634017
151	0xbce0260f	-0.027361898
152	0xbd902918	-0.07039088
153	0x3e1d0fa4	0.15337998
154	0x3ddc9ec1	0.107724674
155	0x3e0ca2cc	0.13733977
156	0x3e011f1e	0.12609527
157	0x3cc1a876	0.023639899
158	0x3c6bedae	0.014399929
159	0xbdd83878	-0.105576456
160	0xbda70a4c	-0.08156261
161	0xbe02f78d	-0.12789746
162	0x3cc33f53	0.023833906
163	0x3ce851c4	0.028359301
164	0x3d6d5b76	0.057948552
165	0x3dbe24f6	0.092843935
166	0x3afc8ff7	0.0019268979
167	0x3e1baf9b	0.15203707
168	0xbd614833	-0.055000495
169	0xbdcd020c	-0.10010156
170	0xbd9f2c73	-0.0777215
171	0xbc361155	-0.011112531
172	0xbdcb0df2	-0.09914769
173	0xbe01e3ce	-0.12684557
174	0xbe04f9a0	-0.1298585
175	0x3c970903	0.018436914
176	0x3dd007dd	0.1015775
177	0xbdb19c4f	-0.086723916
178	0xbd93f3be	-0.072242245
179	0xbd54a03a	-0.051910616
180	0xbca4346e	-0.020044532
181	0x3c8e8244	0.0173961
182	0xbded7d2a	-0.11596139
183	0x3db969b2	0.09053363
184	0x3dbbdf1a	0.091734126
185	0xbc81d44f	-0.015848307
186	0x3d2905fe	0.04126548
187	0xbddadd8c	-0.10686788
188	0x3da432a9	0.08017475
189	0x3b419f2d	0.002954434
190	0x3cf23e7c	0.02957081
191	0x3d808ad4	0.06276479
192	0xbd860619	-0.06544132
193	0x3d47b050	0.04875213
194	0xbda10200	-0.078617096
195	0xbcec0937	-0.028812988
196	0x3ded4703	0.1158581
197	0xbdbc836a	-0.09204753
198	0xbd4efb86	-0.05053284
199	0x3c83632e	0.016038503
200	0x3daabced	0.08336816
201	0x3cb1b7fd	0.021694178
202	0xbdca7dd6	-0.098872826
203	0xbe13b6c3	-0.14425187
204	0x3dacb27a	0.08432479
205	0xbce8b47e	-0.028406378
206	0xbd5565c6	-0.05209901
207	0xbe195ef8	-0.14977634
208	0x3da6cabe	0.08144139
209	0x3d945ea4	0.07244614
210	0x3d847afb	0.06468769
211	0x3e11375a	0.14181271
212	0xbd592fcc	-0.0530241
213	0xbde5fae1	-0.11229492
214	0x3d5490ae	0.05189579
215	0x3dda6c16	0.10665147
216	0xbe092f22	-0.13396886
217	0x3db9c49e	0.09070705
218	0xbe30adfd	-0.17253871
219	0xbcdde6ce	-0.027087595
220	0xbdb63981	-0.08897687
221	0x3d57ee26	0.05271735
222	0xbcbd7438	-0.023126706
223	0x3de06ef2	0.10958661
224	0x3d83c6a9	0.06434376
225	0xbe02ee8e	-0.12786314
226	0x3dcada3a	0.09904905
227	0xbd99b3d9	-0.07505006
228	0x3dc82637	0.09772914
229	0xbde1e0d3	-0.1102921
230	0x3d956e4b	0.07296427
231	0xbdb14c7b	-0.086571656
232	0x3d4c291a	0.049843885
233	0xbd32cc95	-0.043652136
234	0xbd35b6ef	-0.044363912
235	0xbd5bdb8a	-0.053676166
236	0x3c80a36e	0.01570293
237	0xbdd42430	-0.10358465
238	0x3d76c85f	0.060249683
239	0xbda16f56	-0.07882564
240	0xbdeebe21	-0.11657358
241	0x3ddd45ce	0.1080433
242	0x3c78b7d1	0.015180544
243	0x3da201a9	0.07910473
244	0xbd180ad4	-0.0371197
245	0x3db235d9	0.08701677
246	0xbde8d9de	-0.1136968
247	0xbd9c55f5	-0.076335825
248	0xbd024888	-0.031807452
249	0xbe226333	-0.15858154
250	0xbe1b2d5c	-0.15154022
251	0x3d8bbca7	0.06823092
252	0xbcf9267e	-0.030413862
253	0x3df0e3b7	0.11762183
254	0xbcbaa4fa	-0.022783745
255	0x3e1faca3	0.155932

ensemble_blocks.0.0.bias f4 [128]
0	0x3c8aeb55	0.016957918
1	0x3d9155c5	0.07096437
2	0xbd0fbb11	-0.03509051
3	0x3c24301b	0.010021235
4	0xbdb76321	-0.08954454
5	0xbd22ae59	-0.039717052
6	0x3dfbc589	0.12293536
7	0xbe138678	-0.14406765
8	0xbcde74ca	-0.027155299
9	0xbd838a84	-0.06422904
10	0x3de9c03c	0.11413619
11	0x3da0f583	0.07859328
12	0x3e019954	0.12656146
13	0x3e0ebf47	0.13940154
14	0xbe0d350f	-0.13789771
15	0xbda144e4	-0.07874468
16	0x3d2909f0	0.041269243
17	0xbe241d4c	-0.16026801
18	0x3cbfa33f	0.023393271
19	0x3dbc1cd2	0.091851845
20	0x3de801a6	0.113284394
21	0xbe03c1b7	-0.12866865
22	0x3e1d6eca	0.15374294
23	0x3c4b92c1	0.012425126
24	0x3e0befeb	0.1366574
25	0x3e12e2bd	0.14344306
26	0x3dbccd96	0.092189
27	0xbd7659ed	-0.060144354
28	0x3d14796f	0.03624862
29	0xbe0d87a6	-0.13821277
30	0xbccd6a3b	-0.025075069
31	0xbe2040b0	-0.15649676
32	0x3debc75f	0.115126364
33	0xbe0dcc54	-0.13847476
34	0x3cd5bff9	0.026092516
35	0xbd847ebd	-0.06469486
36	0x3dddafd4	0.10824552
37	0xbda01cc8	-0.078179896
38	0xbe13d1df	-0.14435528
39	0xbe0e8ba1	-0.13920452
40	0xbdfc997e	-0.12333964
41	0x3e20df4b	0.1571018
42	0xbda8723d	-0.08224914
43	0x3e01de3e	0.12682435
44	0xbe11ce4f	-0.14238857
45	0xbb8dc7b0	-0.004326783
46	0xbc110fb9	-0.008853846
47	0xbd5266b4	-0.051367477
48	0x3d140a3c	0.036142573
49	0x3dd7b812	0.105331555
50	0x3d35645e	0.04428517
51	0xbc3d43ee	-0.01155184
52	0xbd376e78	-0.044783086
53	0xbd51fc50	-0.051266015
54	0x3de3a330	0.1111511
55	0x3c26ed39	0.010188394
56	0x3d82420f	0.06360256
57	0xbdc5aac3	-0.09651711
58	0xbdc82e5c	-0.09774467
59	0x3c9b6902	0.01897097
60	0xbdee4b1b	-0.11635419
61	0x3d295868	0.041344076
62	0xbe01df2a	-0.12682787
63	0x3e19a66d	0.15004893
64	0xbe0d7cd5	-0.13817151
65	0xbdaba9f5	-0.08382026
66	0xbdb3464d	-0.08753643
67	0xbdd9005c	-0.10595772
68	0xbda33aa0	-0.07970166
69	0xbd67ce29	-0.056593094
70	0x3e0bd554	0.13655597
71	0x3d930377	0.07178395
72	0xbaab524e	-0.0013070793
73	0x3d8d5bbc	0.069022626
74	0xbe03f4de	-0.12886378
75	0xbe05a768	-0.13052142
76	0xbdaeb5a2	-0.085307375
77	0xbd95b620	-0.07310128
78	0xbde4dd0e	-0.11174975
79	0x3dba7505	0.09104351
80	0x3ba8c490	0.005150385
81	0x3cfa5b52	0.030561123
82	0x3de59e73	0.112118624
83	0xbd8bbc92	-0.06823076
84	0x3deb45d0	0.11487925
85	0x3e212767	0.15737687
86	0x3ded4a0a	0.115863875
87	0xbde21db8	-0.11040825
88	0x3d25c3a2	0.040469773
89	0xbdfe1a82	-0.124074
90	0x3e060508	0.13087857
91	0x3d2a99de	0.041650645
92	0x3d18dfaa	0.037322678
93	0xbdcb35de	-0.09922384
94	0x3e0e87d7	0.13919006
95	0x3d5f2348	0.054477006
96	0xbde96d7a	-0.11397834
97	0x3dc0bd97	0.094111614
98	0x3dc3aada	0.09554072
99	0x3d783165	0.06059398
100	0xbdcdc426	-0.10047178
101	0x3e239183	0.15973477
102	0x3e0b1746	0.13583097
103	0xbd59c426	-0.053165577
104	0xbddf4ea5	-0.10903672
105	0xbddc2454	-0.107491165
106	0xbccc31ed	-0.02492615
107	0x3c4a8a58	0.012362085
108	0xbdcca66a	-0.099926785
109	0x3b314ed6	0.0027055047
110	0xbe029068	-0.12750399
111	0xbdb143d3	-0.086555146
112	0x3e2148dc	0.1575045
113	0x3a2bd10b	0.0006554282
114	0xbd889b28	-0.06670219
115	0x3b356b2c	0.0027682288
116	0x3c8cf346	0.017205846
117	0x3d6730cb	0.056443017
118	0x3d0c8c74	0.034313634
119	0x3cf82e83	0.030295616
120	0xbb7b7c1f	-0.0038373542
121	0x3da910ce	0.08255158
122	0x3dc1c820	0.09461999
123	0xbdc2c9ba	-0.095111325
124	0x3bcee49a	0.0063138725
125	0xbd93ac54	-0.07210603
126	0xbe1e32f2	-0.15449122
127	0xbd1ba71a	-0.038001157

ensemble_blocks.0.1.weight f4 [128]
0	0x3f810b81	1.0081636
1	0x3f811f1a	1.0087616
2	0x3f7c1ad2	0.98478425
3	0x3f83c31b	1.0293916
4	0x3f82bd49	1.0214015
5	0x3f80d37a	1.0064538
6	0x3f7a99b8	0.97890806
7	0x3f756dc5	0.9587062
8	0x3f7dbe68	0.9911866
9	0x3f7e63ec	0.9937122
10	0x3f7b4534	0.9815247
11	0x3f800454	1.0001321
12	0x3f82e89b	1.0227236
13	0x3f7c00e2	0.9843885
14	0x3f7fa386	0.9985889
15	0x3f80c3e0	1.0059776
16	0x3f7fe0c1	0.9995232
17	0x3f8058ee	1.0027139
18	0x3f828486	1.0196693
19	0x3f8164c4	1.0108876
20	0x3f7bc4b3	0.98347014
21	0x3f80c43a	1.0059884
22	0x3f8150b7	1.0102757
23	0x3f767ad3	0.96281165
24	0x3f81b5bd	1.0133587
25	0x3f7fc439	0.99908787
26	0x3f8490e2	1.0356715
27	0x3f80b487	1.0055093
28	0x3f895591	1.0729238
29	0x3f7e1002	0.99243176
30	0x3f7f5073	0.9973213
31	0x3f7bae93	0.98313254
32	0x3f8122f8	1.0088797
33	0x3f7e427d	0.99320203
34	0x3f76d2e7	0.9641556
35	0x3f7d4ac6	0.9894222
36	0x3f7b98fb	0.98280305
37	0x3f8882c4	1.0664907
38	0x3f81ec1e	1.0150182
39	0x3f821f29	1.0165759
40	0x3f7d6f95	0.98998386
41	0x3f786965	0.9703582
42	0x3f7a7d41	0.9784737
43	0x3f79cb28	0.97575617
44	0x3f8110f4	1.0083299
45	0x3f8177aa	1.0114644
46	0x3f78900c	0.970948
47	0x3f7f4cf0	0.9972677
48	0x3f83411c	1.0254245
49	0x3f78cf9a	0.97191775
50	0x3f7d9c10	0.9906626
51	0x3f80b57a	1.0055382
52	0x3f7e6653	0.99374884
53	0x3f7dc810	0.99133396
54	0x3f758c52	0.95917237
55	0x3f81becf	1.0136355
56	0x3f7d22aa	0.9888102
57	0x3f7cbcac	0.9872539
58	0x3f7a412b	0.9775569
59	0x3f7abf03	0.9794771
60	0x3f789d30	0.9711485
61	0x3f7a70b7	0.9782824
62	0x3f8061d9	1.0029861
63	0x3f75b5c3	0.9598047
64	0x3f838181	1.0273896
65	0x3f85fa76	1.046706
66	0x3f7cbf00	0.9872894
67	0x3f7ae518	0.9800582
68	0x3f74de0f	0.95651335
69	0x3f809b3e	1.0047376
70	0x3f7c55c0	0.98568344
71	0x3f845a29	1.0340015
72	0x3f7dbdf0	0.99117947
73	0x3f815e6f	1.0106944
74	0x3f830eae	1.0238855
75	0x3f72933e	0.94755924
76	0x3f7ebc7f	0.9950637
77	0x3f76dd07	0.9643101
78	0x3f85e1a2	1.0459483
79	0x3f7b8dc2	0.9826318
80	0x3f81b1d0	1.0132389
81	0x3f7b34ff	0.9812774
82	0x3f810ed5	1.0082651
83	0x3f79314b	0.9734084
84	0x3f838eb8	1.0277929
85	0x3f8119fe	1.0086057
86	0x3f806db9	1.0033485
87	0x3f7caa98	0.98697805
88	0x3f808c16	1.0042751
89	0x3f7639ff	0.96182245
90	0x3f7be515	0.98396426
91	0x3f7e09a2	0.9923345
92	0x3f805290	1.0025196
93	0x3f8327f5	1.0246569
94	0x3f8316ec	1.024137
95	0x3f84c174	1.0371537
96	0x3f78613c	0.9702337
97	0x3f7bbf98	0.98339224
98	0x3f7f4529	0.99714905
99	0x3f80eb5d	1.0071827
100	0x3f74eb54	0.9567158
101	0x3f8048bd	1.0022198
102	0x3f7a449e	0.9776095
103	0x3f7bf964	0.98427415
104	0x3f783eb8	0.969707
105	0x3f814219	1.0098296
106	0x3f7c3c7a	0.9852978
107	0x3f813a1c	1.0095859
108	0x3f79cb15	0.97575504
109	0x3f80d38b	1.0064558
110	0x3f7e3523	0.9929983
111	0x3f72e7ef	0.9488515
112	0x3f798e6e	0.97482955
113	0x3f87b74e	1.0602815
114	0x3f7bb2fb	0.9831998
115	0x3f817511	1.0113851
116	0x3f84274c	1.0324492
117	0x3f7d48c3	0.9893915
118	0x3f79916a	0.9748751
119	0x3f8065e2	1.0031092
120	0x3f8633a3	1.0484508
121	0x3f82915d	1.0200611
122	0x3f811025	1.0083052
123	0x3f7f22e1	0.99662596
124	0x3f817aaf	1.0115565
125	0x3f7f2dd4	0.99679303
126	0x3f84f4a2	1.0387156
127	0x3f8096f4	1.0046067

ensemble_blocks.0.1.bias f4 [128]
0	0x3d009b56	0.03139814
1	0xbadd0513	-0.0016862474
2	0xbc63f936	-0.013914397
3	0x3cb37563	0.02190656
4	0x3c0a4627	0.008439577
5	0xbbaf9248	-0.0053580143
6	0x3b320ed5	0.0027169485
7	0xbd15756f	-0.036488947
8	0x3c957115	0.018242398
9	0x3c7a8e92	0.0152927805
10	0xbc9ccef2	-0.019141648
11	0x3c840279	0.01611446
12	0x3d27ba4a	0.040949143
13	0xbc0b7a97	-0.008513114
14	0xbc65960a	-0.014012823
15	0xbb370e97	-0.002793228
16	0x3cf7932d	0.030221546
17	0x3ca86741	0.020557048
18	0x3d197f68	0.03747502
19	0x3cfc5c35	0.030805686
20	0xbc0ab3ad	-0.00846569
21	0x3d07c65f	0.033148166
22	0x3c097d11	0.008391635
23	0xbc672d34	-0.014109898
24	0x3d4ae970	0.04953903
25	0xbb9d57a8	-0.004801709
26	0x3bf6c464	0.007530736
27	0x3cadee6f	0.021231858
28	0x3d598379	0.053103898
29	0xbc8b692d	-0.017017925
30	0xbc37dc77	-0.0112219965
31	0x3bafa7c6	0.0053605763
32	0xbc98b421	-0.01864058
33	0x3d30a4f2	0.043126054
34	0xbd24151e	-0.0400592
35	0xbc8a5c3b	-0.016889682
36	0xbd687736	-0.056754313
37	0x3d0a6cf7	0.033795323
38	0x3c93426d	0.01797601
39	0x3d0e8cdd	0.034802306
40	0xbc4d4ccf	-0.01253052
41	0xbd2d8203	-0.042360317
42	0xbd372ce9	-0.044720564
43	0xbca19483	-0.019724136
44	0x3c9c9bc0	0.019117236
45	0x3cea4811	0.028598817
46	0xbc296ecd	-0.010341358
47	0xbc86923d	-0.016427154
48	0x3c3265b8	0.010888509
49	0xbc8e492f	-0.017368881
50	0xbc7491b6	-0.014927318
51	0x3cc3eff7	0.023918135
52	0xbcdde286	-0.027085554
53	0xbb883d44	-0.004157694
54	0xbcf6cd9a	-0.030127335
55	0x3cc321d3	0.02381984
56	0xbc808afc	-0.015691273
57	0x3ba01ad2	0.0048860097
58	0xbc64d952	-0.013967829
59	0xbc1a673f	-0.00942403
60	0xbcd88b2d	-0.026433552
61	0xbc8422ec	-0.016129933
62	0x3cb677e3	0.022273963
63	0xbc3fad53	-0.011699039
64	0x3cfdd0df	0.030983387
65	0x3d8e07f6	0.06935112
66	0x3bc6c749	0.006066237
67	0x3addb2db	0.0016914265
68	0xbd0f86a4	-0.035040513
69	0x3c3b8938	0.01144629
70	0x3d0ec8d9	0.034859512
71	0x3d4888a2	0.04895843
72	0x3b66b99e	0.0035205851
73	0xb9a811f0	-0.00032056822
74	0x3d58e6f6	0.052954637
75	0xbc313cd5	-0.010817726
76	0x3cd9f750	0.026607186
77	0xbbf9e81e	-0.0076265475
78	0x3cffe904	0.03123904
79	0x3aad41e9	0.0013218495
80	0x3cefe6c6	0.029284846
81	0x3a948db6	0.0011333737
82	0x3d1d0c07	0.03834155
83	0x3c040811	0.008058564
84	0x3c2c9a33	0.010534811
85	0xbc38f75c	-0.011289444
86	0x3b452d2a	0.0030086734
87	0xba009b4a	-0.00049059524
88	0xbae91dfa	-0.0017785423
89	0xbd4475e5	-0.047963995
90	0xbc06fd69	-0.008239129
91	0xb98e2a84	-0.00027116027
92	0xbcfb6f1b	-0.030692628
93	0x3d2362d6	0.03988918
94	0x3d1ccbaa	0.038280167
95	0x3d016cac	0.03159778
96	0xbd22f352	-0.03978283
97	0x3a427ab4	0.0007418797
98	0xba5196ad	-0.000799517
99	0x3cbfb6fc	0.023402683
100	0xbd178cd3	-0.036999535
101	0x3c97e1de	0.018540319
102	0xbc087fe6	-0.008331275
103	0xbb70ae97	-0.0036725157
104	0xba95c3ac	-0.0011426113
105	0x3c9e820e	0.019349124
106	0x3cca3fab	0.024688562
107	0x3bd907da	0.0066232504
108	0x3c6689c4	0.014070932
109	0x3aa676eb	0.0012700235
110	0x3bb44d8c	0.0055024084
111	0xbd0c9656	-0.03432306
112	0xbd1e2ca9	-0.03861681
113	0x3d0321fc	0.032014832
114	0xbb795d61	-0.0038050043
115	0x3d52f3bc	0.051501974
116	0x3d81342b	0.063087784
117	0xbcc16edb	-0.02361243
118	0xbbb7961b	-0.0056026108
119	0x3d2a2846	0.041542314
120	0x3cb4739c	0.022027783
121	0x3c5f53f1	0.013630853
122	0x3c76beec	0.015060168
123	0xbc9e644c	-0.019334935
124	0x3c759339	0.014988714
125	0xba8e9a66	-0.0010879755
126	0x3d8d23d2	0.06891598
127	0xbc608d64	-0.013705585

ensemble_blocks.0.1.running_mean f4 [128]
0	0x3c81d5a2	0.015848938
1	0x3d8ee9d3	0.06978192
2	0xbd127523	-0.03575624
3	0x3c1e0e6c	0.009646993
4	0xbdb73d04	-0.08947185
5	0xbd22d6f9	-0.039755795
6	0x3dfbbde3	0.122920774
7	0xbe14c43e	-0.14527985
8	0xbcddf62a	-0.02709492
9	0xbd84c623	-0.06483104
10	0x3de9f09e	0.11422847
11	0x3da0bdc8	0.07848698
12	0x3e00e39d	0.12586828
13	0x3e0d5bf4	0.13804609
14	0xbe0d7826	-0.13815364
15	0xbd9f7f72	-0.0778798
16	0x3d29d228	0.041460186
17	0xbe236ba7	-0.15959035
18	0x3cc4dcc6	0.024031054
19	0x3dbbe41b	0.09174367
20	0x3de94b4b	0.11391314
21	0xbe0380bc	-0.12842077
22	0x3e1dbc49	0.15403856
23	0x3c5528af	0.013010188
24	0x3e0b7149	0.13617434
25	0x3e13df03	0.14440541
26	0x3db9f269	0.09079439
27	0xbd77a398	-0.06045875
28	0x3d111f02	0.035429962
29	0xbe0e42d9	-0.13892688
30	0xbcd35002	-0.025794987
31	0xbe20b6ee	-0.15694782
32	0x3dea9136	0.11453478
33	0xbe0cf10c	-0.13763827
34	0x3ccfc627	0.025363041
35	0xbd85d65e	-0.06535028
36	0x3ddc6e38	0.1076321
37	0xbda0f89e	-0.0785992
38	0xbe1412d4	-0.14460307
39	0xbe0d957e	-0.13826558
40	0xbdfb878e	-0.122817144
41	0x3e203074	0.15643483
42	0xbda9ea15	-0.08296601
43	0x3e0201ed	0.12696047
44	0xbe11f723	-0.14254431
45	0xbb738d43	-0.0037163056
46	0xbc1c2083	-0.009529236
47	0xbd50e752	-0.051001854
48	0x3d14f64c	0.0363677
49	0x3dd880d9	0.10571451
50	0x3d39bf4a	0.045348443
51	0xbc36c9c9	-0.011156508
52	0xbd39e298	-0.045382112
53	0xbd5256c1	-0.051352266
54	0x3de4d9b4	0.11174336
55	0x3c1d4cc4	0.009600822
56	0x3d838182	0.06421186
57	0xbdc9b4cb	-0.09848937
58	0xbdc9b4ea	-0.0984896
59	0x3c94d1c9	0.01816644
60	0xbdedaa24	-0.116047174
61	0x3d2cf5ec	0.042226717
62	0xbe00e171	-0.12585999
63	0x3e19cac4	0.15018755
64	0xbe0e4989	-0.13895239
65	0xbdab3e5d	-0.08361504
66	0xbdb59db1	-0.08867968
67	0xbdd846a3	-0.10560348
68	0xbda3f153	-0.08005013
69	0xbd63813a	-0.055543162
70	0x3e0d128d	0.13776608
71	0x3d91587c	0.07096955
72	0xba9bfa8b	-0.0011900229
73	0x3d8b4116	0.067995235
74	0xbe04d940	-0.129735
75	0xbe05b308	-0.13056576
76	0xbdad89d5	-0.08473555
77	0xbd9475a9	-0.072490044
78	0xbde57ef8	-0.11205858
79	0x3dbb2230	0.0913738
80	0x3b9045c5	0.0044028484
81	0x3cf07643	0.029353267
82	0x3de7a292	0.11310305
83	0xbd8a900e	-0.067657575
84	0x3de9d1ae	0.11416946
85	0x3e214872	0.15750292
86	0x3ded6cec	0.11593041
87	0xbde1b1fe	-0.110202774
88	0x3d27bf51	0.040953938
89	0xbdfded0e	-0.1239873
90	0x3e058ac8	0.13041222
91	0x3d2bcc05	0.041942615
92	0x3d187667	0.037222292
93	0xbdca959d	-0.09891818
94	0x3e0e2492	0.13881138
95	0x3d5f1ac0	0.05446887
96	0xbdea373a	-0.11436315
97	0x3dc01683	0.09379294
98	0x3dc4207f	0.09576511
99	0x3d76e35a	0.060275413
100	0xbdcfbc71	-0.10143364
101	0x3e2321a3	0.159308
102	0x3e0a928c	0.13532466
103	0xbd582a4b	-0.05277471
104	0xbdde06e6	-0.108411595
105	0xbdde3d72	-0.108515635
106	0xbcd493c8	-0.025949374
107	0x3c49f186	0.01232565
108	0xbdcbc39e	-0.099494204
109	0x3b371566	0.0027936338
110	0xbe0217c6	-0.12704381
111	0xbdb15856	-0.08659427
112	0x3e21b1a7	0.15790425
113	0x3a17c4d8	0.0005789525
114	0xbd87ddba	-0.06634088
115	0x3b4b2a8b	0.00310007
116	0x3c955448	0.018228665
117	0x3d642a90	0.055704653
118	0x3d0e418e	0.034730487
119	0x3cf54dee	0.029944386
120	0xbba99274	-0.0051749293
121	0x3da711d7	0.081576996
122	0x3dc3b076	0.09555142
123	0xbdc377ba	-0.095443204
124	0x3bb82831	0.0056200256
125	0xbd942026	-0.07232694
126	0xbe1e9e47	-0.15490066
127	0xbd1be786	-0.038062595

ensemble_blocks.0.1.running_var f4 [128]
0	0x3e7d941f	0.24763535
1	0x3eecd07b	0.46252808
2	0x3e593fb6	0.2121571
3	0x3ea53be3	0.32272252
4	0x3e7290f6	0.2368811
5	0x3e6af939	0.22946633
6	0x3e6dc35a	0.23219052
7	0x3eb10ed6	0.3458163
8	0x3e856cb4	0.26059496
9	0x3ea4a58a	0.32157546
10	0x3e8cdcb8	0.27512145
11	0x3e4fb3a0	0.20283365
12	0x3eba1636	0.3634507
13	0x3ea3c210	0.31983995
14	0x3efbc0df	0.49170586
15	0x3eb219aa	0.34785205
16	0x3e91e048	0.28491426
17	0x3edfe22f	0.43727252
18	0x3e52364a	0.20528522
19	0x3e8b53f9	0.27212504
20	0x3f0bf601	0.5467225
21	0x3ec0e4cc	0.37674558
22	0x3ea7d109	0.3277667
23	0x3ed5c054	0.41748297
24	0x3e3e41f1	0.18579842
25	0x3efc0048	0.49218965
26	0x3eb8d9d7	0.361037
27	0x3e6f2993	0.23355703
28	0x3e6e336d	0.23261805
29	0x3ed84d34	0.422464
30	0x3ea4d39e	0.321927
31	0x3ede4373	0.43410835
32	0x3e9f58db	0.3112248
33	0x3e6e7c58	0.23289621
34	0x3f1f458c	0.62215495
35	0x3eaf1b4d	0.34200516
36	0x3ec254c6	0.37955302
37	0x3e7c1c22	0.24620107
38	0x3f0a8c9a	0.5412079
39	0x3e43bb7a	0.19114485
40	0x3eae42a5	0.3403522
41	0x3ef33139	0.4749849
42	0x3e83c3fe	0.25735468
43	0x3e7f4aa4	0.24930817
44	0x3e92b303	0.286522
45	0x3ed92178	0.42408347
46	0x3e9ef2dc	0.31044662
47	0x3e960f03	0.29308328
48	0x3e85920e	0.26087993
49	0x3e82dc3e	0.25558656
50	0x3e623125	0.2208906
51	0x3e753da5	0.23949297
52	0x3f116860	0.5679989
53	0x3e31d25a	0.17365399
54	0x3e9c75fd	0.30558768
55	0x3e38d9fd	0.18051906
56	0x3ea96faa	0.33093005
57	0x3eb7741a	0.35830766
58	0x3ee80456	0.45315808
59	0x3e9325ec	0.2873987
60	0x3f0d129f	0.5510654
61	0x3eed8922	0.46393687
62	0x3eefba2c	0.46821725
63	0x3ea4c423	0.3218089
64	0x3ef8ce15	0.48594728
65	0x3e592547	0.21205626
66	0x3ebbcde8	0.36680532
67	0x3e62bd4e	0.22142527
68	0x3ea55a13	0.32295284
69	0x3e9c976d	0.3058428
70	0x3e8ac2a7	0.27101633
71	0x3eabd672	0.33562046
72	0x3efc7cb4	0.4931389
73	0x3e9cb130	0.30603933
74	0x3eb0de47	0.34544584
75	0x3ebd0f2e	0.36925644
76	0x3e35a55a	0.17738858
77	0x3e8c01e5	0.27345195
78	0x3e875d50	0.2643838
79	0x3e874954	0.26423132
80	0x3f059e5f	0.5219478
81	0x3eb8957b	0.36051545
82	0x3ebaf18a	0.36512405
83	0x3e78f06b	0.24310462
84	0x3e85d6db	0.26140484
85	0x3e9cc1df	0.30616662
86	0x3e96943c	0.2940997
87	0x3eeef927	0.46674463
88	0x3e8dd701	0.27703097
89	0x3e8b755f	0.27237985
90	0x3e9e0286	0.308613
91	0x3f36b407	0.7136845
92	0x3ed30920	0.412179
93	0x3ebbf276	0.3670842
94	0x3ea00293	0.31251964
95	0x3e1943b8	0.14967239
96	0x3ed47dc0	0.4150219
97	0x3e8ef4f2	0.27921253
98	0x3e9b539e	0.30337232
99	0x3e9f048c	0.31058156
100	0x3ed3156b	0.41227278
101	0x3e95034e	0.29104084
102	0x3e8afb6c	0.27144945
103	0x3ede0763	0.4336501
104	0x3e5c1962	0.21494058
105	0x3e9753e2	0.29556185
106	0x3ec5ffa1	0.38671592
107	0x3e627f61	0.22118904
108	0x3ea335da	0.31877023
109	0x3e70311e	0.23456237
110	0x3e982f52	0.29723603
111	0x3e6e1484	0.23250014
112	0x3f047ae2	0.51750004
113	0x3eb76f20	0.3582697
114	0x3e5330f0	0.20624137
115	0x3e823524	0.25431168
116	0x3e18f24f	0.14936183
117	0x3ec44068	0.38330388
118	0x3e9750ff	0.29553983
119	0x3e8ed229	0.27894714
120	0x3ea0e583	0.31425104
121	0x3e422812	0.18960598
122	0x3eef476a	0.46734172
123	0x3ed184b5	0.4092156
124	0x3e9fb3aa	0.3119176
125	0x3eaa3e4f	0.33250663
126	0x3e674c26	0.22587642
127	0x3eb24abb	0.3482264

ensemble_blocks.0.4.weight f4 [128, 128]
0	0x3cd0c106	0.025482666
1	0xbdb71beb	-0.08940872
2	0xbd518a4b	-0.051157277
3	0xbd6dba4c	-0.058038995
4	0xbd4081e0	-0.04699886
5	0x3da11dac	0.078669876
6	0x3c207697	0.009793899
7	0x3b54a66f	0.0032447835
8	0x3a958ca4	0.0011409712
9	0xbd11cc26	-0.03559508
10	0xbd881c9f	-0.06646084
11	0xbd1cb719	-0.038260553
12	0x3d33ff71	0.04394478
13	0x3cc71dde	0.024306234
14	0x3c3eb6cd	0.011640263
15	0xbc93e040	-0.018051267
16	0xbb02adb2	-0.0019939956
17	0xbb9b2176	-0.0047342135
18	0x3d71a53c	0.05899547
19	0xbd94f933	-0.072740935
20	0xbd234054	-0.03985627
21	0x3d88c8f5	0.066789545
22	0xbca2facf	-0.019894985
23	0xbd22068e	-0.039557032
24	0xbd7a7e70	-0.061155736
25	0x3cf9ec6e	0.030508246
26	0xbda0abcd	-0.078452684
27	0xbc563047	-0.013073034
28	0xbce5155e	-0.02796429
29	0x3ce24add	0.027623588
30	0x3d2fe88b	0.04294638
31	0xbdb3ee5c	-0.08785698
32	0xbd11a3a7	-0.03555646
33	0x3d480ce4	0.04884042
34	0xbc86c612	-0.01645187
35	0xbd23cc81	-0.039989952
36	0x3d6ca10a	0.057770766
37	0x3d54f128	0.051987797
38	0x3bd1f336	0.006407167
39	0xbd59ea9c	-0.053202257
40	0xbd7307a2	-0.05933345
41	0x3c9b3af8	0.018949017
42	0xbd8a51c0	-0.06753874
43	0x3d7d8380	0.061892986
44	0x3d0cba48	0.03435734
45	0x3c94df50	0.01817289
46	0xbd878d16	-0.06618707
47	0xbd59c7fc	-0.053169236
48	0x3db32588	0.08747393
49	0x3d7985e7	0.060918715
50	0xbd460d8f	-0.048352774
51	0xbca34182	-0.019928697
52	0xbd57570e	-0.052573256
53	0x3db827e4	0.089919835
54	0x3d86c619	0.06580753
55	0xbd66630f	-0.056246813
56	0xbc02bb69	-0.007979252
57	0xbd31a2dc	-0.043368205
58	0x3c3172e7	0.0108306175
59	0xbd7b2c40	-0.061321497
60	0x3da8b37f	0.08237361
61	0xbd81c08f	-0.06335556
62	0x3a5df6c9	0.0008467255
63	0x3d989c62	0.07451703
64	0xbdc78d55	-0.09743754
65	0x3c7a01ae	0.0152591895
66	0x3c951544	0.018198617
67	0x3d35b85e	0.04436528
68	0xbd1fef96	-0.039046846
69	0xbd9229a0	-0.071368456
70	0x3dda1462	0.10648419
71	0xbaa6071d	-0.0012666915
72	0xbcd320a7	-0.025772406
73	0x3d5c071c	0.053717718
74	0xbd95b57d	-0.07310007
75	0x3d161fd0	0.036651433
76	0xbd93c40c	-0.07215127
77	0x3d8c5305	0.06851772
78	0x3c8ab767	0.016933156
79	0x3c90d084	0.017677553
80	0xbc76e3fb	-0.015069003
81	0x3da15872	0.07878198
82	0x3c43a927	0.0119421845
83	0x3db47ec4	0.08813241
84	0xbd609edb	-0.054838996
85	0x3d90272c	0.070387214
86	0x3b033d01	0.0020025375
87	0x3d019022	0.031631596
88	0xbccbb7ac	-0.024867855
89	0xbd0fc4a7	-0.03509965
90	0xbc7061d0	-0.014671758
91	0xbda8ec48	-0.08248192
92	0xbc1117fc	-0.008855816
93	0xbd39d0f7	-0.0453653
94	0x3cc6ce44	0.024268277
95	0x3bea6756	0.007153432
96	0x3dae5b06	0.08513455
97	0x3db4d20a	0.08829124
98	0x3d911ef5	0.07085983
99	0x3d402a0e	0.046915106
100	0xbcb2e240	-0.0218364
101	0xbda522de	-0.08063291
102	0xbdc1be93	-0.09460177
103	0xbd61f301	-0.055163387
104	0x3d12f140	0.035874605
105	0xbd8e647e	-0.06952761
106	0xbc42b67f	-0.011884331
107	0x3dc5ddb8	0.0966143
108	0xbd2ced29	-0.04221836
109	0x3c4f174a	0.01263983
110	0x3dd2495f	0.10267901
111	0x3c4a2a68	0.012339212
112	0xbd661736	-0.05617448
113	0x3d4493e6	0.04799261
114	0xbbe832b1	-0.007086121
115	0xbd64de9f	-0.05587637
116	0x3dccb806	0.09996037
117	0x3d25ce90	0.040480196
118	0x3bc50ce8	0.0060135014
119	0xbd00e7fc	-0.031471238
120	0xbd7bc1a8	-0.061463982
121	0xbb9bfc45	-0.0047602975
122	0x3dba79d2	0.09105267
123	0xbc25216a	-0.010078767
124	0xbc0ef1c4	-0.008724634
125	0xbd29bc3f	-0.04143929
126	0x3b138a81	0.0022512975
127	0x3c215f1f	0.009849339
128	0x3b2801f1	0.0025635923
129	0xbbce3546	-0.006292972
130	0xbc603eb9	-0.013686829
131	0xb9b110be	-0.00033772545
132	0x3cecd02b	0.028907856
133	0x3cdf8fd0	0.027290255
134	0xbc922048	-0.017837659
135	0x3c74c0d5	0.014938553
136	0x3d8ade2e	0.06780659
137	0x3d884ae8	0.06654912
138	0x3d386a4c	0.045023248
139	0x3cc6cd44	0.0242678
140	0x3da38b5a	0.079855636
141	0xbd078d1b	-0.033093553
142	0x3cfd7152	0.030937824
143	0x3ce3756e	0.027765956
144	0xbdadb3c1	-0.08481551
145	0x3d34f7c8	0.044181615
146	0x3d6ec01d	0.058288682
147	0x3d1f1827	0.038841393
148	0x3cbd497e	0.023106333
149	0xbd201506	-0.03908255
150	0xbcc27f98	-0.023742482
151	0x3d407784	0.04698898
152	0x3d8c2e7c	0.06844804
153	0xbd77167e	-0.060324185
154	0xbda41fb2	-0.08013858
155	0x3d7f251d	0.062291253
156	0xbd8d85fb	-0.0691032
157	0xbd2a2d1b	-0.041546922
158	0x3d25e9dc	0.04050623
159	0x3d8f225f	0.06988978
160	0xbd7dda38	-0.061975688
161	0xbd1949f8	-0.037424058
162	0xbd7d0915	-0.06177624
163	0xbd9b5b3d	-0.07585762
164	0x3d85acec	0.06527123
165	0xbc705821	-0.014669449
166	0xbddf3afa	-0.10899921
167	0xbd79c49f	-0.060978528
168	0xbd05dcd9	-0.03268132
169	0xbd76105f	-0.060074206
170	0x3c8065bf	0.015673516
171	0x3c3c84db	0.011506285
172	0xbc622905	-0.013803725
173	0xbc1bf201	-0.009518147
174	0x3d77a5f8	0.060461015
175	0xbc7208ca	-0.014772603
176	0x3da3f49d	0.08005641
177	0xbd4bcb02	-0.04975415
178	0xbdba2c5a	-0.09090491
179	0xbc8c0b9d	-0.017095381
180	0x3d9ad886	0.0756083
181	0xbd6bd2ea	-0.05757419
182	0xbd81557e	-0.063151345
183	0xbcbcde2a	-0.023055155
184	0xbcd17161	-0.025566759
185	0xbcf9d832	-0.030498598
186	0xbd3473fd	-0.044055928
187	0x3ccedc48	0.025251523
188	0xbd3c574f	-0.0459817
189	0xbca1335e	-0.019677814
190	0xbd7eca08	-0.06220439
191	0xbd622b86	-0.05521729
192	0xbc9ec4b3	-0.019380903
193	0xbdd2c309	-0.10291106
194	0x3d651f34	0.05593796
195	0x3d618d82	0.055066593
196	0x3d0e74de	0.034779422
197	0x3b9bbed2	0.004752972
198	0x3d0e9434	0.034809306
199	0x3d3ec107	0.046570804
200	0x3de0bd8a	0.10973652
201	0xbd9bac3c	-0.076012105
202	0x3d80cdff	0.06289291
203	0x3c912729	0.017718868
204	0xbc8b2f25	-0.016990254
205	0xbd8a1646	-0.067425296
206	0x3d649d44	0.055814043
207	0x3cad1d83	0.021132236
208	0xbd2cdca2	-0.0422026
209	0x3d976d04	0.0739384
210	0xbd09b776	-0.033622228
211	0x3cf23524	0.029566355
212	0x3cee0351	0.029054316
213	0x3d947b99	0.07250137
214	0x3cb86b26	0.02251203
215	0x3d70d4bb	0.058796626
216	0xbd279f9e	-0.040923707
217	0xbcdd6bbf	-0.027028916
218	0x3d61ba34	0.055109218
219	0x3cfb6879	0.030689465
220	0xbdb513d8	-0.088416755
221	0xba3b6efa	-0.00071500207
222	0xbd08c3fa	-0.033390023
223	0xbd5f6990	-0.05454403
224	0x3d140ded	0.036146093
225	0xbb51f833	-0.0032038807
226	0xbc66aacd	-0.014078808
227	0xbc2880da	-0.010284627
228	0xbd30dcb6	-0.043179236
229	0x3d81470c	0.06312379
230	0xbd53c82a	-0.051704563
231	0x3d811db6	0.06304495
232	0x3d8406d1	0.064466126
233	0xbc8f286f	-0.017475335
234	0x3dce3162	0.10068013
235	0x3dc86bdf	0.097862
236	0x3cde7481	0.027155163
237	0x3df7ac2c	0.12093386
238	0x3ccb9b3b	0.024854293
239	0xbd9863d7	-0.07440918
240	0x3d87b21f	0.06625771
241	0x3d9beecb	0.076139055
242	0xbd0457b3	-0.0323102
243	0x3db591d4	0.08865705
244	0xbd4ffe71	-0.050779764
245	0x3c500c74	0.012698282
246	0xbd2fc32f	-0.04291075
247	0xbc9fc0e7	-0.019501163
248	0xbd7436ff	-0.05962276
249	0xbcf6a03e	-0.030105706
250	0xbd2c9407	-0.042133357
251	0x3da19a89	0.07890803
252	0x3d2d7d32	0.042355724
253	0x3d2eb89b	0.042656522
254	0xbb86276c	-0.004094055
255	0xbd483de6	-0.048887156

ensemble_blocks.0.4.bias f4 [128]
0	0x3d02206e	0.03176921
1	0x3b3268bd	0.0027223073
2	0xbdb14be9	-0.08657057
3	0xbba956ce	-0.0051678186
4	0xbd9ca3cd	-0.0764843
5	0x3cf5d0e2	0.03000683
6	0xbd11b376	-0.035571538
7	0xbd00d629	-0.03145424
8	0xbd8383cb	-0.06421622
9	0x3d9b68b2	0.075883284
10	0x3d1a6031	0.03768939
11	0x3c407d58	0.011748634
12	0xbd8853fe	-0.06656645
13	0x3d02c7a9	0.031928692
14	0xbc8099e4	-0.01569838
15	0xbca26e0b	-0.019827863
16	0xbd821f37	-0.0635361
17	0xbc98180c	-0.018566154
18	0xbda235dc	-0.07920429
19	0x3c76f9f7	0.015074245
20	0xbd98f9a2	-0.07469489
21	0x3ce0ce51	0.02744213
22	0xbd41862a	-0.04724709
23	0xbd2af175	-0.041734178
24	0xbcfbdcc9	-0.030744927
25	0x3b8b1ef0	0.0042456314
26	0xbd4accac	-0.049511597
27	0xbd94248d	-0.07233534
28	0x3b8539ed	0.004065743
29	0xbd695370	-0.056964338
30	0xbd0a95fd	-0.033834446
31	0xbd693688	-0.05693677
32	0xbdaf0e9f	-0.085477106
33	0xbd37e473	-0.0448956
34	0x3cc68c5f	0.024236856
35	0x3da22ead	0.07919059
36	0xbd173df5	-0.03692432
37	0x3d645d55	0.05575307
38	0xbd6dd757	-0.058066692
39	0xbda3da2b	-0.080005966
40	0xbbb0f5ae	-0.005400381
41	0xbd1b18e1	-0.037865523
42	0x3d2208c8	0.039559156
43	0x3d4f1b69	0.05056325
44	0x3b3a41aa	0.0028420486
45	0x3ca5953b	0.02021276
46	0xbc5288f3	-0.012850034
47	0x3ce75302	0.028237823
48	0x3b82d89e	0.003993108
49	0xbd80eeed	-0.062955715
50	0x3d4fce0a	0.050733604
51	0x3d65b627	0.056081917
52	0xbdadb05b	-0.08480903
53	0xbce1e006	-0.027572643
54	0xbba404b9	-0.005005446
55	0xbc1697b8	-0.009191446
56	0xbd283f24	-0.04107584
57	0xbda572a4	-0.080785066
58	0x3d9bd776	0.07609455
59	0xbd104d91	-0.035230223
60	0x3d8cc5f8	0.06873697
61	0xbd4d5799	-0.050132368
62	0xbd4faadc	-0.050700054
63	0x3bafe7e1	0.0053682183
64	0x3d8e0955	0.06935374
65	0x3d1c84c7	0.038212564
66	0xbd785338	-0.06062624
67	0xbcf648bc	-0.03006398
68	0xbcfa94be	-0.030588504
69	0xbab83880	-0.0014054924
70	0x3d3e3e20	0.046445966
71	0x3db34147	0.08752685
72	0xbd77d33e	-0.06050419
73	0x3d92024b	0.071293436
74	0x3d812b81	0.06307126
75	0x3cbf058e	0.023318078
76	0x3daecc22	0.08535029
77	0x3d3677ee	0.044547968
78	0xbb202749	-0.0024437478
79	0xbd91978d	-0.07108984
80	0xbd0debad	-0.034648586
81	0xbd757711	-0.059928004
82	0xbc29f849	-0.010374137
83	0xbdb4039c	-0.08789751
84	0xbd48546f	-0.048908647
85	0x3d5d29ab	0.053994816
86	0xbad28faa	-0.0016064544
87	0x3d675ddb	0.056485992
88	0x3d13e7b0	0.036109626
89	0xbd4420bf	-0.04788279
90	0xbdb33e9c	-0.08752176
91	0xbd3a8d14	-0.0455447
92	0xbb9e19e1	-0.0048248623
93	0x3d4d2bd3	0.050090622
94	0xbd7ee4ce	-0.062229924
95	0xbd257868	-0.04039803
96	0xbc440751	-0.011964635
97	0xbd90e90d	-0.07075701
98	0x3d40461e	0.04694187
99	0xbcd8d356	-0.02646796
100	0x3d95e5b7	0.07319205
101	0xbda6c0cf	-0.08142244
102	0xbd85ff0f	-0.06542789
103	0xbd365adb	-0.04452024
104	0xbdb38f14	-0.08767524
105	0x3bf66a97	0.0075200307
106	0xbd120f0f	-0.035658892
107	0xbd3a36e5	-0.045462508
108	0x3d2266d4	0.039648846
109	0xbd2ef9a7	-0.042718556
110	0xbd4a594f	-0.049401578
111	0x3d8ea28a	0.069645956
112	0xbd724c62	-0.059154876
113	0x3d558aa2	0.052134164
114	0x3d718b19	0.058970544
115	0x3dac2c64	0.08406904
116	0xbc74b000	-0.01493454
117	0xbd99bb77	-0.07506459
118	0xbbee873c	-0.007279305
119	0xbbf4c3ba	-0.0074696215
120	0xbd8486a7	-0.064709954
121	0x3d43517b	0.047685128
122	0xbd4074c4	-0.046986356
123	0xbd7bd5b3	-0.061483096
124	0x3d8ea6bd	0.069653966
125	0xbdabd366	-0.083899304
126	0x3d7bdea8	0.06149164
127	0xbda8fc74	-0.082512766

ensemble_blocks.0.5.weight f4 [128]
0	0x3f768950	0.9630327
1	0x3f76ef15	0.9645856
2	0x3f782d7d	0.9694441
3	0x3f89ec92	1.077532
4	0x3f89e75d	1.0773731
5	0x3f8be052	1.0927832
6	0x3f8ca11b	1.0986665
7	0x3f889bc1	1.0672532
8	0x3f8e545d	1.1119496
9	0x3f89c563	1.0763363
10	0x3f8ed49a	1.1158631
11	0x3f776a52	0.96646607
12	0x3f764c66	0.96210325
13	0x3f89f0c4	1.0776601
14	0x3f7cc52f	0.9873838
15	0x3f8c9ba6	1.0985
16	0x3f8b7a9e	1.0896795
17	0x3f8d69d0	1.1047916
18	0x3f8e603c	1.1123118
19	0x3f89fa89	1.0779582
20	0x3f8ee03c	1.1162181
21	0x3f75d5c9	0.96029335
22	0x3f8dd9d5	1.1082102
23	0x3f8bb4b0	1.0914516
24	0x3f89c952	1.0764563
25	0x3f8a6783	1.0812839
26	0x3f81aec7	1.0131463
27	0x3f8b5a0b	1.0886854
28	0x3f8a651c	1.0812106
29	0x3f7622ba	0.9614674
30	0x3f8f3fa8	1.1191301
31	0x3f891661	1.0709955
32	0x3f893cbe	1.0721662
33	0x3f8b3def	1.0878276
34	0x3f8caf91	1.0991079
35	0x3f89aef2	1.0756514
36	0x3f8c5fe6	1.0966766
37	0x3f76613f	0.96242136
38	0x3f8ba862	1.0910761
39	0x3f768961	0.96303374
40	0x3f8db8cd	1.1072022
41	0x3f8e4497	1.1114682
42	0x3f8cd869	1.1003543
43	0x3f89f82e	1.0778863
44	0x3f89e162	1.0771906
45	0x3f760ef5	0.9611657
46	0x3f7a80f7	0.97853035
47	0x3f8ca1b2	1.0986845
48	0x3f8a60c3	1.0810779
49	0x3f790fa2	0.9728948
50	0x3f756282	0.95853436
51	0x3f8c7269	1.0972415
52	0x3f8aeb87	1.0853127
53	0x3f77e0b8	0.9682727
54	0x3f76c737	0.9639773
55	0x3f8975d4	1.0739083
56	0x3f8c7e28	1.0976
57	0x3f76dc5c	0.9642999
58	0x3f8d03f6	1.1016834
59	0x3f76d544	0.9641917
60	0x3f8ad611	1.0846578
61	0x3f8bccf6	1.0921924
62	0x3f8af85d	1.0857044
63	0x3f779550	0.9671221
64	0x3f899373	1.0748123
65	0x3f8cc76b	1.0998358
66	0x3f8e312f	1.110876
67	0x3f8a6afe	1.0813901
68	0x3f8c4771	1.0959302
69	0x3f75e719	0.9605575
70	0x3f8c26da	1.0949357
71	0x3f7eb1c0	0.99489975
72	0x3f8ab647	1.0836877
73	0x3f89a28c	1.075273
74	0x3f7bd51a	0.9837204
75	0x3f81260d	1.0089737
76	0x3f8b94dd	1.0904804
77	0x3f882f27	1.063939
78	0x3f779df8	0.96725416
79	0x3f77234d	0.9653824
80	0x3f8aca74	1.0843034
81	0x3f8af026	1.0854537
82	0x3f8aa147	1.0830468
83	0x3f8c35c7	1.0953912
84	0x3f8bacff	1.0912169
85	0x3f774523	0.9658987
86	0x3f76e4df	0.9644298
87	0x3f84ae27	1.0365647
88	0x3f7a7211	0.978303
89	0x3f8e4352	1.1114295
90	0x3f8a4420	1.080204
91	0x3f8a1b69	1.0789615
92	0x3f79071e	0.97276485
93	0x3f89320b	1.0718397
94	0x3f764087	0.9619221
95	0x3f8e7de7	1.1132172
96	0x3f89b7af	1.0759181
97	0x3f75c3f0	0.960021
98	0x3f8a80ab	1.0820516
99	0x3f7649cc	0.96206355
100	0x3f765958	0.9623008
101	0x3f8b5899	1.0886413
102	0x3f75fa80	0.9608536
103	0x3f785f42	0.9702035
104	0x3f894118	1.072299
105	0x3f89a329	1.0752918
106	0x3f8e7dbf	1.1132125
107	0x3f8ac071	1.0839978
108	0x3f8ccef7	1.1000661
109	0x3f878447	1.0587243
110	0x3f76affe	0.9636229
111	0x3f83f841	1.0310136
112	0x3f77dca7	0.96821064
113	0x3f8e1a4f	1.1101779
114	0x3f89a9e2	1.0754969
115	0x3f8a4490	1.0802174
116	0x3f8b4150	1.0879307
117	0x3f8d3417	1.1031522
118	0x3f8cd570	1.1002636
119	0x3f8da1bc	1.1064982
120	0x3f78f7ba	0.97253
121	0x3f89ae2b	1.0756277
122	0x3f77f294	0.9685452
123	0x3f8a1b2e	1.0789545
124	0x3f8f3516	1.1188076
125	0x3f77ce55	0.9679921
126	0x3f89e660	1.077343
127	0x3f8a82c9	1.0821162

ensemble_blocks.0.5.bias f4 [128]
0	0xbd12f6f2	-0.035880037
1	0xbd1bd817	-0.038047876
2	0xbcfd65b4	-0.030932285
3	0x3d9e3f2a	0.07726891
4	0x3d992a04	0.07478717
5	0x3db3eb67	0.08785134
6	0x3dbbf1ae	0.09176956
7	0x3d9df56a	0.07712825
8	0x3dc5b7c3	0.096541904
9	0x3d9c12f2	0.07620801
10	0x3de4d249	0.11172921
11	0xbd0caafa	-0.034342743
12	0xbd388753	-0.04505093
13	0x3d9be959	0.07612867
14	0xbc5ee2d7	-0.0136038875
15	0x3dc8f708	0.098127425
16	0x3dc79854	0.09745851
17	0x3ddde4a1	0.10834623
18	0x3deaabd4	0.11458555
19	0x3d9eea28	0.077595055
20	0x3df0b055	0.11752383
21	0xbd28d005	-0.041214008
22	0x3dcc77a9	0.09983761
23	0x3db18fd8	0.08670014
24	0x3d95b434	0.07309762
25	0x3db0b7d8	0.086288154
26	0x3cbdff15	0.023192922
27	0x3dc0b8b9	0.09410233
28	0x3da81178	0.08206457
29	0xbd29fd07	-0.04150107
30	0x3dee6fc3	0.116424106
31	0x3d9345e3	0.07191064
32	0x3d95f0f5	0.073213495
33	0x3da45573	0.08024111
34	0x3dcc1d8a	0.09966572
35	0x3d9ba0b8	0.07599014
36	0x3dbc6ab7	0.09200042
37	0xbd287a2a	-0.04113213
38	0x3dbd9825	0.09257535
39	0xbd20ef91	-0.03929097
40	0x3dd710e4	0.105012685
41	0x3debbc6c	0.11510548
42	0x3dcefc80	0.10106754
43	0x3d994f61	0.074858434
44	0x3d8eea0b	0.06978234
45	0xbd2c098a	-0.042001285
46	0xbcc07b13	-0.023496186
47	0x3dc9b32f	0.0984863
48	0x3db9875f	0.09059023
49	0xbce37ded	-0.027770007
50	0xbd33c03d	-0.043884505
51	0x3dc2fc05	0.09520725
52	0x3db929e1	0.09041191
53	0xbd0d2e37	-0.034467902
54	0xbd21a64a	-0.039465226
55	0x3d9b32d6	0.075780556
56	0x3dd956f9	0.10612292
57	0xbd1c4e11	-0.038160387
58	0x3dcedcbb	0.10100695
59	0xbd2adb01	-0.041712765
60	0x3da6164b	0.08109721
61	0x3dc0491f	0.09388947
62	0x3da90a1c	0.08253881
63	0xbd08b203	-0.03337289
64	0x3d9fb8da	0.077989295
65	0x3dc1a907	0.094560675
66	0x3dde6390	0.10858834
67	0x3da45bbd	0.0802531
68	0x3dbf887e	0.09352206
69	0xbd180420	-0.03711331
70	0x3db8b5e7	0.0901907
71	0xbbeb7ab7	-0.0071862596
72	0x3dae06ca	0.08497389
73	0x3d9df52b	0.07712778
74	0xbc934a14	-0.01797966
75	0x3be22d3b	0.0069023645
76	0x3da4a10d	0.080385305
77	0x3d3b77f8	0.045768708
78	0xbd19833b	-0.037478667
79	0xbd184ec4	-0.03718449
80	0x3dadd3bd	0.084876515
81	0x3da4e9a5	0.08052377
82	0x3da9656c	0.08271298
83	0x3dc4513c	0.09585807
84	0x3dade733	0.084913634
85	0xbd1d4954	-0.03840001
86	0xbd26e283	-0.040743362
87	0x3d0fd8ed	0.035118986
88	0xbcd94814	-0.026523627
89	0x3ddbef45	0.107389964
90	0x3d964dcc	0.07339057
91	0x3da98e2c	0.0827907
92	0xbce625e0	-0.028094232
93	0x3d983ee9	0.07433874
94	0xbd2acf49	-0.04170159
95	0x3de28c8b	0.11061963
96	0x3da8569f	0.08219647
97	0xbd1a768c	-0.03771071
98	0x3d9a9695	0.075482525
99	0xbd1be323	-0.03805841
100	0xbd291636	-0.041280948
101	0x3dae95cb	0.085246645
102	0xbd265032	-0.040603824
103	0xbd02a25d	-0.031893123
104	0x3d9705ad	0.073741294
105	0x3da11fbd	0.07867382
106	0x3df1f340	0.118139744
107	0x3db1f05a	0.086884215
108	0x3dd51730	0.10404813
109	0x3d75b164	0.059983626
110	0xbd1fd900	-0.039025307
111	0x3d1a6dfc	0.037702546
112	0xbd1f7178	-0.03892657
113	0x3de44d4d	0.111475565
114	0x3d9891d3	0.07449689
115	0x3d9d6ec0	0.076871395
116	0x3dca3bba	0.09874673
117	0x3dcee84c	0.10102901
118	0x3dc6777c	0.096907586
119	0x3dd495ae	0.10380112
120	0xbd26cf24	-0.04072489
121	0x3d9e6777	0.07734578
122	0xbd2c8eb4	-0.04212828
123	0x3d97b8d8	0.07408303
124	0x3dea0cbb	0.114282094
125	0xbd072465	-0.032993693
126	0x3d98f056	0.074677154
127	0x3dab3b7d	0.08360956
