backend/models/tabm_k2.pth (torch, 197471 bytes, 37 tensors)

embedding.embeddings.0.weight f4 [10, 4]
-0.9931589 0.31616935 1.0150948 -0.09807332 0.113405935 -0.41989923 1.1641964 0.040599126
-0.8553719 -1.0617025 -0.003156909 -0.6772076 0.018398639 1.5851083 -1.8749876 -1.8280967
-0.25381935 0.36545712 0.45268303 1.720377 0.4409756 0.6338907 -1.0840056 -0.9586442
1.6281692 0.7869288 -0.830328 -0.8246343 0.68783283 -1.958307 0.19023919 0.44110942
0.8152828 0.6364214 -0.27140826 -1.4476851 -1.0169979 -0.42348796 0.33396164 -0.21821073
00000000: a93f 7ebf f3e0 a13e a0ee 813f aada c8bd
00000010: 5f41 e83d 08fd d6be 6304 953f 454b 263d
00000020: a7f9 5abf dee5 87bf 25e4 4ebb 7a5d 2dbf
00000030: beb8 963c d4e4 ca3f 98ff efbf 13ff e9bf
00000040: 9cf4 81be 321d bb3e 12c6 e73e 5035 dc3f
00000050: 8ec7 e13e a946 223f b2c0 8abf b569 75bf
00000060: d967 d03f 2a74 493f 6090 54bf 3c1b 53bf
00000070: d015 303f cea9 fabf 10ce 423e 18d9 e13e
00000080: 60b6 503f 83ec 223f 06f6 8abe bf4d b9bf
00000090: fd2c 82bf 6ad3 d8be 05fd aa3e a272 5fbe

embedding.embeddings.1.weight f4 [3, 4]
2.1138694 1.0361792 1.0244254 -0.65248305 -0.13152747 -0.20755367 -0.40532866 -0.8564597
2.4245694 0.5409298 0.07965177 -0.37849566
00000000: a349 0740 85a1 843f 5f20 833f 2109 27bf
00000010: 23af 06be f388 54be 3d87 cfbe f140 5bbf
00000020: 252c 1b40 607a 0a3f 7820 a33d 2fca c1be

embedding.embeddings.2.weight f4 [2, 4]
-1.1644979 -0.2779684 0.0362752 -0.015391849 0.26588756 -0.86951685 0.97635907 1.2520573
00000000: 440e 95bf e051 8ebe 4e95 143d 182e 7cbc
00000010: 6a22 883e a898 5ebf abf2 793f 6a43 a03f

embedding.embeddings.3.weight f4 [8, 4]
-1.1627469 -1.2009672 -0.31531975 -0.053036213 -0.29665133 -1.4157544 -0.0015732521 0.27947402
-0.2713194 0.9219848 0.580058 -1.4041673 -1.2880071 0.22713766 1.2560087 1.174745
-1.2878729 0.13384557 -0.8158351 0.88955224 2.1293957 0.010916617 0.6975769 -1.4323422
-1.0638852 -0.08771169 0.45363724 0.24010323 0.57298094 -0.5041874 -0.22783086 -0.24958512
00000000: e4d4 94bf 4bb9 99bf 9771 a1be 803c 59bd
00000010: afe2 97be 7137 b5bf 9535 ceba 3817 8f3e
00000020: 60ea 8abe 3207 6c3f ae7e 143f c1bb b3bf
00000030: 6bdd a4bf c696 683e e5c4 a03f 0b5e 963f
00000040: 05d9 a4bf d00e 093e 92da 50bf b2b9 633f
00000050: 0548 0840 9cdb 323c 6694 323f fd56 b7bf
00000060: 642d 88bf 30a2 b3bd 2443 e83e 9fdd 753e
00000070: e1ae 123f 6d12 01bf 7e4c 69be 3e93 7fbe

embedding.embeddings.4.weight f4 [13, 4]
-0.5694039 0.059374265 -0.2714622 -0.95168597 0.14644854 0.10188743 1.9578128 -0.9155031
-0.41445518 0.718471 -1.1146326 0.39705664 1.2127923 1.7023178 -2.195088 -0.012208439
-2.5458207 -0.54341006 1.2990824 -0.8331035 -1.7530336 1.3770819 -1.1117264 0.78248215
1.3736175 -0.6050131 -0.47978497 1.370465 -1.3918468 0.8105175 0.013710716 -0.8732365
-0.31535628 -1.886238 -0.8456557 0.019526191 2.3978631 -2.840928 -0.17466585 0.6337387
1.1018196 -0.1583823 -0.13872832 -0.43810618 -0.3220315 -0.79962945 0.9964156 0.39313275
0.88476664 0.02054612 -0.86116135 -2.933406
00000000: 74c4 11bf 6e32 733d 18fd 8abe b1a1 73bf
00000010: 9bf6 153e 5baa d03d 9c99 fa3f 695e 6abf
00000020: 7833 d4be b7ed 373f 48ac 8ebf 024b cb3e
00000030: c73c 9b3f 8de5 d93f 527c 0cc0 e805 48bc
00000040: baee 22c0 ec1c 0bbf 5548 a63f 4546 55bf
00000050: 6863 e0bf 3844 b03f 0d4d 8ebf c050 483f
00000060: b3d2 af3f 23e2 1abf 60a6 f5be 666b af3f
00000070: 0928 b2bf 137e 4f3f e9a2 603c 6d8c 5fbf
00000080: 6176 a1be 3f70 f1bf e47c 58bf 64f5 9f3c
00000090: 9776 1940 c4d1 35c0 9bdb 32be b33c 223f
000000a0: 6d08 8d3f f82e 22be cc0e 0ebe 744f e0be
000000b0: 50e1 a4be 84b4 4cbf 1815 7f3f b248 c93e
000000c0: 1180 623f 5650 a83c 1275 5cbf edbc 3bc0

embedding.embeddings.5.weight f4 [9, 4]
-0.25786623 0.77924365 1.3601859 0.53805226 -1.2322074 0.514634 0.037474334 0.28674632
1.1433016 1.4393535 -1.060957 0.5214182 0.23258138 0.90692526 0.13877405 -0.5844151
-0.7415602 -0.7543274 0.7278635 -2.1432347 -0.028376207 -0.18605731 0.94602627 0.77060014
-0.4544396 -2.235316 -1.031062 -1.4513154 -0.50442755 -0.2254933 -0.11515117 -0.8469046
1.1489679 -2.1714494 1.5665336 -0.105544396
00000000: 0b07 84be 837c 473f 921a ae3f cbbd 093f
00000010: f9b8 9dbf 0ebf 033f b07e 193d 6ad0 923e
00000020: b557 923f bc3c b83f 70cd 87bf aa7b 053f
00000030: d029 6e3e 412c 683f c91a 0e3e 3a9c 15bf
00000040: e4d6 3dbf 9a1b 41bf 4355 3a3f c22a 09c0
00000050: 3875 e8bc cf85 3ebe c72e 723f 0d46 453f
00000060: 4fac e8be 6b0f 0fc0 d7f9 83bf b4c4 b9bf
00000070: 2a22 01bf b7e7 66be 60d4 ebbd bdce 58bf
00000080: 6111 933f 07f9 0ac0 2c84 c83f a927 d8bd

embedding.embeddings.6.weight f4 [20, 4]
-0.70559686 -0.3746728 0.65599304 0.391949 0.0101104705 0.5729786 -0.08627216 -0.019846333
-0.77047694 -0.22920315 -0.8768576 -0.93816143 1.2013608 0.47297502 0.56335294 2.2208235
-1.8350973 0.40702483 2.461289 0.36896685 -0.054780573 0.44252926 0.3347501 0.039772358
0.27968365 0.6439542 0.028957164 -0.33671108 0.26443222 -0.31570965 0.9446084 0.047517378
1.8382072 0.25467455 -0.3230067 -1.4449769 -0.85941815 -0.38721612 -0.6698461 0.05229142
-1.3493323 -0.6392996 -0.6884215 -0.81544346 -2.9260292 1.1398871 -0.985244 -0.25238508
0.856021 -0.9564837 -0.16736177 -0.556614 -0.9537838 0.5571548 0.7801209 0.40017614
-1.6455292 -0.6609961 0.16659968 -0.34705192 -0.22630444 -0.30267295 0.25422144 1.1788092
-1.6535975 -0.058533713 -1.8552798 0.41136724 1.1068563 -0.4087733 -2.8532717 -1.0273983
-0.98937356 -0.042596336 0.21001484 2.3162637 0.10137468 -0.24842685 1.3868796 -1.2751392
00000000: ffa1 34bf 1dd5 bfbe 29ef 273f 8aad c83e
00000010: 63a6 253c baae 123f 75af b0bd c794 a2bc
00000020: fa3d 45bf 3bb4 6abe bd79 60bf 592b 70bf
00000030: 31c6 993f c829 f23e e637 103f f921 0e40
00000040: 78e4 eabf 8f65 d03e c285 1d40 39e9 bc3e
00000050: 9861 60bd 3293 e23e 5d64 ab3e 57e8 223d
00000060: b232 8f3e 2fda 243f 9337 ed3c 6565 acbe
00000070: a963 873e b2a4 a1be dbd1 713f 95a1 423d
00000080: 604a eb3f b464 823e 2261 a5be 01f5 b8bf
00000090: d402 5cbf 3141 c6be 097b 2bbf 872f 563d
000000a0: ecb6 acbf 23a9 23bf 643c 30bf e7c0 50bf
000000b0: 1044 3bc0 d2e7 913f f338 7cbf 9e38 81be
000000c0: 3124 5b3f 1edc 74bf e260 2bbe 417e 0ebf
000000d0: 2d2b 74bf b2a1 0e3f 01b6 473f e3e3 cc3e
000000e0: b3a0 d2bf 0a37 29bf 1b99 2a3e cab0 b1be
000000f0: 5abc 67be f3f7 9abe 5029 823e 38e3 963f
00000100: 15a9 d3bf 0cc1 6fbd cf79 edbf ba9e d23e
00000110: 78ad 8d3f bc4a d1be 019c 36c0 ca81 83bf
00000120: 9647 7dbf 7f79 2ebd 210e 573e aa3d 1440
00000130: 879d cf3d 9c63 7ebe 4585 b13f c337 a3bf

bn_in.weight f4 [38]
1.0147103 1.0233468 0.9744806 0.9902791 0.91982186 0.966588 0.9276849 0.9558534
0.9459446 0.95800936 0.94177645 0.94917315 0.8852278 0.9356385 0.88920236 0.93903583
0.9240739 0.89631915 0.9309015 0.9419956 0.8829519 0.91507965 0.9351312 0.9368472
0.90983003 0.94328487 0.9641217 0.9575995 1.0066569 0.9201153 0.9223262 0.9172482
0.9759679 0.97282183 1.0091352 1.0521191 1.1600301 0.89960456
00000000: 07e2 813f 07fd 823f 9077 793f ee82 7d3f
00000010: 7279 6b3f 5072 773f c27c 6d3f cfb2 743f
00000020: 6d29 723f 1a40 753f 4318 713f 03fd 723f
00000030: 4a9e 623f 0186 6f3f c4a2 633f a764 703f
00000040: 1b90 6c3f 2c75 653f 904f 6e3f a026 713f
00000050: 2309 623f a942 6a3f c264 6f3f 38d5 6f3f
00000060: 9fea 683f 1e7b 713f aed0 763f 3e25 753f
00000070: 22da 803f ad8c 6b3f 921d 6c3f c7d0 6a3f
00000080: 08d9 793f da0a 793f 582b 813f d7ab 863f
00000090: de7b 943f 7c4c 663f

bn_in.bias f4 [38]
0.001023026 -0.0008774916 -0.00028785787 -0.0006819419 0.000811868 0.00071631937 -0.00015459457 -0.0011365582
-0.0011828073 0.0015218287 0.00038738395 -0.003051741 -0.0005525142 0.00019914068 3.9904797e-05 -0.0013396189
-5.1068313e-05 0.0002638103 0.00017086945 -0.00081889826 0.0011596053 0.0006783507 -0.00065019506 -0.0020171122
-0.00027544663 0.000902887 0.00044151448 -0.0017331536 0.0023853744 -0.00073018624 -0.002076834 0.00053175644
0.00044048493 -0.0036470827 0.0009613661 0.0017770932 0.0012305321 0.0009961696
00000000: 0e17 863a 7707 66ba a1eb 96b9 59c4 32ba
00000010: 8ad3 543a 61c7 3b3a aa1a 22b9 91f8 94ba
00000020: 6d08 9bba 1978 c73a cb19 cb39 b8ff 47bb
00000030: 9ad6 10ba 6bd0 5039 735f 2738 2796 afba
00000040: 2f32 56b8 0550 8a39 6b2b 3339 55ab 56ba
00000050: e6fd 973a 58d3 313a da71 2aba 8731 04bb
00000060: d269 90b9 b9af 6c3a 127b e739 fc2a e3ba
00000070: f153 1c3b f869 3fba 7e1b 08bb 9265 0b3a
00000080: e3f0 e639 e503 6fbb 3004 7c3a 5aed e83a
00000090: ce49 a13a e891 823a

bn_in.running_mean f4 [38]
0.6292719 -0.17561442 -0.1709752 -0.35226804 2.3675406 0.60064405 0.19964516 -0.41730022
-0.8297434 -0.41641837 0.25627768 0.28123567 -0.5038679 -0.79516035 0.10303396 -0.12771048
-1.2896756 0.8047043 -0.7630202 0.25681528 0.022802865 0.4556689 0.4081258 0.15067679
-1.5654166 0.33529606 0.031238666 0.11491861 -0.013117002 -0.011795072 -0.0048205154 0.010608198
-0.02057507 -0.031001238 0.003135108 0.015293131 -0.015015526 -0.006555265
00000000: f717 213f 44d4 33be 1f14 2fbe 7a5c b4be
00000010: c985 1740 cfc3 193f c86f 4c3e 60a8 d5be
00000020: 106a 54bf ca34 d5be d436 833e 1ffe 8f3e
00000030: 7dfd 00bf a18f 4bbf 7803 d33d 89c6 02be
00000040: 1714 a5bf 1a01 4e3f 4b55 43bf 4b7d 833e
00000050: 13cd ba3c 6f4d e93e ddf5 d03e 044b 1a3e
00000060: 925f c8bf edab ab3e 3be8 ff3c 735a eb3d
00000070: b2e8 56bc 1e40 41bc 6af5 9dbb 02ce 2d3c
00000080: 0d8d a8bc 4ff6 fdbc 6276 4d3b 0a90 7a3c
00000090: ae03 76bc 8ccd d6bb

bn_in.running_var f4 [38]
0.58200073 1.2960505 0.69862276 0.514039 0.0514953 0.032059122 0.103556514 0.009752294
0.36730698 0.062813535 0.15866363 0.28838426 0.17874074 0.9116187 0.1446636 0.5071523
0.6316079 0.8882494 0.31775394 0.5977691 0.5304736 1.0635895 1.0023108 0.4848428
1.1075236 0.46266463 1.0309612 0.29657158 0.97832966 0.9405661 0.9695123 1.1454933
0.862006 0.7898606 1.0226277 1.0185938 0.92915434 1.0004786
00000000: 00fe 143f fce4 a53f f1d8 323f 0f98 033f
00000010: bcec 523d 6d50 033d 7015 d43d 16c8 1f3c
00000020: a90f bc3e 62a4 803d b878 223e 1aa7 933e
00000030: d007 373e d85f 693f b222 143e bcd4 013f
00000040: 0eb1 213f 5064 633f a5b0 a23e 6507 193f
00000050: 1ecd 073f b323 883f b84b 803f 513d f83e
00000060: 55c3 8d3f 61e2 ec3e 89f6 833f 3bd8 973e
00000070: d073 7a3f f1c8 703f f531 783f 869f 923f
00000080: 6dac 5c3f 4e34 4a3f 77e5 823f 4861 823f
00000090: 0fdd 6d3f af0f 803f

ensemble_blocks.0.0.weight f4 [128, 38]
0.08378241 0.13204834 -0.13105585 -0.10414747 0.03643207 -0.032969624 0.10386423 -0.02760972
0.004496692 0.03511506 0.1112771 0.00041112752 0.13626683 0.10290177 -0.016031139 -0.057543654
-0.048186075 0.048197888 0.09846938 0.039627228 -0.03630503 -0.10869002 -0.08153529 0.029505832
-0.046256024 -0.07975521 0.099318355 0.12806489 -0.12868148 0.019098654 0.050883584 -0.019672042
-0.08242129 0.07759564 -0.1992599 -0.11152655 0.14607346 0.07607882 -0.08628439 -0.027969679
-0.07033414 -0.028825203 0.039171953 -0.039236434 -0.08722145 -0.006550443 -0.11251501 0.10699772
-0.09891685 0.09932153 -0.051748086 0.004563393 -0.050123617 -0.13181494 0.1022604 -0.03683446
0.099274 0.0047546 0.11589672 -0.0094081145 0.0853678 0.1380103 0.06612041 0.09956338
0.10394169 0.035984218 -0.13282846 -0.07320458 0.037322376 0.0708886 -0.06100696 -0.143366
-0.02280167 0.062175587 -0.2156917 -0.04921157 -0.07827706 -0.10067611 -0.012976364 0.08092386
-0.063173436 0.12794794 0.066371605 0.08460819 0.07722797 0.14754184 0.04166374 -0.02604549
0.121766366 -0.16216753 0.087947436 0.054904778 0.09300661 0.03846069 0.10191829 -0.022624848
0.052062377 -0.13372569 -0.16846986 0.03028264 -0.10193637 -0.072740674 -0.040661532 0.17984128
-0.069159806 -0.015713055 -0.010565728 -0.060660508 -0.14095128 -0.0149229625 -0.19211164 0.006506349
0.096438676 0.054676425 -0.091450274 -0.04057456 0.12411046 -0.052980404 -0.09229888 -0.010122234
0.14293982 -0.051117513 0.1868115 -0.027516387 0.15451492 0.16281499 0.10369923 0.09605576
0.07431812 0.0678564 0.06435265 0.06849304 -0.008511322 0.12806758 -0.10189607 0.069224834
-0.06921077 0.03560495 -0.11319706 0.057892367 0.046453346 -0.19299315 -0.028988998 -0.07143938
-0.1719171 -0.08324697 0.100871004 0.021029552 0.021597283 -0.081510104 0.12287952 0.106487125
-0.06970409 0.111545525 0.14706512 -0.18961594 -0.09210602 -0.15362027 0.11846261 0.175838
-0.09674374 0.014731418 -0.11800548 0.041201342 -0.0035740063 -0.020306004 0.03058146 -0.041949123
-0.02913239 -0.10615035 -0.15582836 0.04398529 0.123418435 -0.100855514 0.11677226 0.128336
-0.17579877 -0.0870433 -0.079341054 -0.018314024 0.10356496 -0.026650585 0.11651629 -0.0069236495
-0.12018593 -0.09421251 -0.09752968 0.13835743 0.1345671 0.034110874 0.18252556 0.10541189
-0.08735084 -0.05174324 0.052230276 0.07817425 -0.119898945 0.15808305 -0.12554157 0.066402316
0.0077684443 0.0620964 -0.017099204 -0.041454848 -0.03507727 -0.07701161 -0.08815396 0.025685612
0.08225612 0.034542255 0.08735249 -0.10113282 0.045054577 -0.087835714 -0.115156166 -0.096179225
-0.085609786 -0.07617526 0.011133404 0.00811577 0.04164076 0.090248264 -0.0146472845 0.11394576
-0.10525068 0.034232527 -0.2331344 0.07752683 -0.19402182 0.13277358 -0.015533587 -0.1301828
-0.078261696 0.033417184 -0.1257247 -0.06355159 0.09761858 0.09552341 0.018318081 -0.037616543
0.10623517 0.110145606 -0.009352104 0.02179198 -0.08657272 -0.050670072 -0.118580125 -0.030080033
-0.111789025 -0.048978403 0.13966924 0.03638393 0.14266746 0.14223313 -0.034118164 0.08108705
00000000: 1d96 ab3d ae37 073e 8133 06be 454b d5bd
00000010: cb39 153d 280b 07bd c5b6 d43d c82d e2bc
00000020: fd58 933b cfd4 0f3d 40e5 e33d 9a8c d739
00000030: 8889 0b3e 2abe d23d bc53 83bc e5b2 6bbd
00000040: c35e 45bd 266b 453d 50aa c93d 2950 223d
00000050: 95b4 14bd e098 debd f9fb a6bd 37b6 f13c
00000060: f576 3dbd b356 a3bd 6c67 cb3d 7123 033e
00000070: 14c5 03be c874 9c3c 4e6b 503d 4327 a1bc
00000080: 7ecc a8bd 77ea 9e3d ca0a 4cbe 0868 e4bd
00000090: 4894 153e 36cf 9b3d dfb5 b0bd ab20 e5bc
000000a0: 580b 90bd d522 ecbc c572 203d 62b6 20bd
000000b0: 29a1 b2bd 19a5 d6bb 456e e6bd 9f21 db3d
000000c0: eb94 cabd 1669 cb3d cdf5 53bd 8488 953b
000000d0: 6c4e 4dbd 7ffa 06be e76d d13d bbdf 16bd
000000e0: 2b50 cb3d 7acc 9b3b 425b ed3d 7e24 1abc
000000f0: 50d5 ae3d 9252 0d3e 236a 873d e3e7 cb3d
00000100: 61df d43d 3064 133d 2f04 08be 48ec 95bd
00000110: 59df 183d 0b2e 913d 6fe2 79bd 89ce 12be
00000120: 91ca babc d4ab 7e3d 49de 5cbe 1292 49bd
00000130: b94f a0bd 472f cebd d19a 54bc 69bb a53d
00000140: 1361 81bd c904 033e d6ed 873d 0f47 ad3d
00000150: b329 9e3d 3515 173e 99a7 2a3d 5a5d d5bc
00000160: a560 f93d 3f0f 26be c91d b43d d5e3 603d
00000170: 407a be3d f588 1d3d 89ba d03d bf57 b9bc
00000180: 5c3f 553d 63ef 08be 5d83 2cbe 4d13 f83c
00000190: 04c4 d0bd 10f9 94bd b58c 26bd 5028 383e
000001a0: a8a3 8dbd aab8 80bc e01b 2dbc 2777 78bd
000001b0: 8855 10be 717f 74bc eab8 44be 3633 d53b
000001c0: a481 c53d 63f4 5f3d 484a bbbd 8331 26bd
000001d0: a02d fe3d fb01 59bd 3207 bdbd bad7 25bc
000001e0: d15e 123e 9960 51bd 844b 3f3e 0c6a e1bc
000001f0: 2939 1e3e f9b8 263e 4360 d43d e2b8 c43d
00000200: 1934 983d 4cf8 8a3d 52cb 833d 1446 8c3d
00000210: 1273 0bbc 2624 033e e3ae d0bd c0c5 8d3d
00000220: 60be 8dbd 7fd6 113d dcd3 e7bd 8c20 6d3d
00000230: dd45 3e3d ff9f 45be 567a edbc cf4e 92bd
00000240: 090b 30be 637d aabd 7595 ce3d 2b46 ac3c
00000250: c9ec b03c c5ee a6bd 42a8 fb3d ec15 da3d
00000260: 05c1 8ebd fb71 e43d 3d98 163e ae2a 42be
00000270: 15a2 bcbd a24e 1dbe 869c f23d e00e 343e
00000280: 9521 c6bd 0c5c 713c dbac f1bd bdc2 283d
00000290: e039 6abb c758 a6bc f885 fa3c d8d2 2bbd
000002a0: 0da7 eebc 5b65 d9bd 7891 1fbe eb29 343d
000002b0: cec2 fc3d 568d cebd 4b26 ef3d 836a 033e
000002c0: 9804 34be c243 b2bd 907d a2bd 4b07 96bc
000002d0: de19 d43d 5452 dabc 18a0 ee3d c8df e2bb
000002e0: 0a24 f6bd 7df2 c0bd a4bd c7bd 92ad 0d3e
000002f0: f5cb 093e d8b7 0b3d fbe7 3a3e 30e2 d73d
00000300: ffe4 b2bd b8f0 53bd 6aef 553d d219 a03d
00000310: 948d f5bd 86e0 213e f88d 00be f0fd 873d
00000320: 6f8e fe3b cb58 7e3d a113 8cbc 8fcc 29bd
00000330: 2fad 0fbd 43b8 9dbd 108a b4bd a26a d23c
00000340: e675 a83d 2e7c 0d3d dde5 b23d b91e cfbd
00000350: 268b 383d 36e3 b3bd ffd6 ebbd 9df9 c4bd
00000360: 2f54 afbd c601 9cbd e268 363c 02f8 043c
00000370: 808f 2a3d 15d4 b83d 2afb 6fbc 655c e93d
00000380: ab8d d7bd 6837 0c3d c9ba 6ebe 63c6 9e3d
00000390: a8ad 46be ccf5 073e 9680 7ebc a44e 05be
000003a0: ab47 a0bd 75e0 083d fabd 00be 5627 82bd
000003b0: 40ec c73d c7a1 c33d cd0f 963c ce13 1abd
000003c0: d391 d93d 0594 e13d 9139 19bc 1885 b23c
000003d0: 0a4d b1bd 6c8b 4fbd 23da f2bd 676a f6bc
000003e0: a5f1 e4bd 949d 48bd 7405 0f3e 5107 153d
000003f0: 6b17 123e 90a5 113e 7dbf 0bbd f810 a63d

ensemble_blocks.0.0.bias f4 [128]
-0.1073567 -0.12394665 -0.0010336607 0.01624552 0.09445189 0.034211725 -0.0209571 -0.15538862
-0.14727771 -0.09559029 -0.062193118 0.035453983 -0.16052715 0.011048964 0.09030573 0.048052322
0.016582185 -0.11076027 0.0051707644 0.08845867 0.12842731 0.14770229 -0.10426484 -0.058278404
0.020382475 0.109864384 -0.14819859 0.041007277 0.08891779 -0.11709314 -0.08137033 0.13921665
0.011946526 -0.05682194 0.0619919 -0.042887133 -0.101515345 -0.07276394 0.10585847 -0.11379654
0.0925103 0.15350412 -0.06791562 -0.14486912 0.043611456 0.061945166 -0.10088108 0.11754685
-0.11418064 -0.13029857 -0.020860292 -0.064547904 -0.08741655 -0.066170305 0.061713908 -0.068815984
-0.11026713 -0.15854445 0.010575218 -0.002643106 0.11940374 0.11105509 -0.08256472 -0.13490622
-0.06789352 0.056852702 -0.067745924 0.15051982 0.006198962 0.11450406 0.10658833 -0.07627065
-0.13714623 0.06050378 -0.030216156 0.12229689 0.06588484 0.09567139 -0.078440264 -0.12151853
-0.107225016 -0.11353219 0.10160829 -0.051695433 -0.05617185 -0.0620506 0.035345204 0.042267427
-0.059745423 -0.1165458 0.06977059 0.017943993 0.1230536 0.056662105 -0.14700943 -0.09949988
0.014637642 0.11484764 0.08052639 0.076552585 0.058756325 0.090243496 0.066557646 -0.0706475
0.01268107 -0.0031212193 0.048683014 0.040489677 0.14534606 0.01940692 -0.041440178 0.031019924
-0.1591823 -0.060879197 -0.09949714 0.12717068 0.14417991 -0.05596114 0.13089366 -0.008401276
-0.16162677 0.027728457 -0.11755616 0.036750864 0.010513337 0.009401052 0.10488711 -0.07664183
00000000: d4dd dbbd bed7 fdbd e67b 87ba 5315 853c
00000010: fe6f c13d 9821 0c3d 39ae abbc 321e 1fbe
00000020: f8cf 16be d8c4 c3bd 36be 7ebd 3238 113d
00000030: 3b61 24be b706 353c 36f2 b83d 83d2 443d
00000040: 5dd7 873c 48d6 e2bd 846f a93b d229 b53d
00000050: 7382 033e 453f 173e ce88 d5bd 56b5 6ebd
00000060: 26f9 a63c 9400 e13d 5fc1 17be 3ff7 273d
00000070: 881a b63d 87ce efbd 7da5 a6bd cf8e 0e3e
00000080: 5dbb 433c 1fbe 68bd 38eb 7d3d 6baa 2fbd
00000090: 47e7 cfbd 4305 95bd 53cc d83d 290e e9bd
000000a0: 0a76 bd3d 2f30 1d3e 5817 8bbd 9258 14be
000000b0: eda1 323d 37ba 7d3d bd9a cebd 67bc f03d
000000c0: 8ad7 e9bd fd6c 05be 34e3 aabc b131 84bd
000000d0: 7307 b3bd 4c84 87bd b9c7 7c3d 65ef 8cbd
000000e0: bcd3 e1bd 7a59 22be ae43 2d3c f637 2dbb
000000f0: f389 f43d da70 e33d b117 a9bd db24 0abe
00000100: c20b 8bbd 61de 683d 60be 8abd de21 1a3e
00000110: aa20 cb3b 1b81 ea3d fb4a da3d c933 9cbd
00000120: 1070 0cbe d0d2 773d df87 f7bc cb76 fa3d
00000130: a2ee 863d 5def c33d 4aa5 a0bd b5de f8bd
00000140: ca98 dbbd 9183 e8bd 0218 d03d 97be 53bd
00000150: 7414 66bd c528 7ebd 22c6 103d 9c20 2d3d
00000160: 9eb7 74bd 90af eebd e2e3 8e3d 48ff 923c
00000170: 8703 fc3d 8616 683d a489 16be 98c6 cbbd
00000180: b8d2 6f3c 3d35 eb3d 05eb a43d 9ac7 9c3d
00000190: 79aa 703d 95d1 b83d 604f 883d a3af 90bd
000001a0: 43c4 4f3c 5f8d 4cbb d767 473d 81d8 253d
000001b0: 99d5 143e 43fb 9e3c 2dbd 29bd 7f1d fe3c
000001c0: af00 23be 775c 79bd 28c5 cbbd 0839 023e
000001d0: e6a3 133e 8237 65bd fd08 063e 81a5 09bc
000001e0: 7d81 25be ca26 e33c 49c1 f0bd 1388 163d
000001f0: 2240 2c3c df06 1a3c 0ecf d63d 64f6 9cbd

ensemble_blocks.0.1.weight f4 [128]
0.99316317 1.014877 1.005114 0.9118624 1.0069894 1.0252601 1.0344174 0.9881228
1.0305306 1.009879 1.0145079 0.9913537 1.0132194 0.9919952 0.9980136 0.9952903
0.99936736 1.0799145 1.0138874 0.99881375 0.9564697 1.0413353 0.96439487 0.972925
0.9529807 1.0453433 1.0023682 0.97976136 1.0143512 1.0171176 1.08051 1.0907854
0.99004036 0.9745824 0.9930563 0.99371433 0.9906963 1.0208198 0.9741344 1.0223348
1.0290915 0.9841821 0.9749362 1.0887289 1.0509807 1.038264 0.9687075 1.021017
0.9903147 1.0157399 0.97976124 1.0085851 0.94102424 1.0151207 0.97660583 0.9385348
1.0137758 0.99733216 1.0042802 0.9705212 0.9784174 1.0320668 0.9901921 0.99003243
0.99217314 0.9652523 0.9857794 1.004744 0.9588882 0.97702116 1.0013553 0.97213274
1.0235434 1.0598712 0.9912222 1.0314852 1.0198464 0.98390716 0.93046534 1.0103889
0.98986673 0.9998249 0.9894874 1.0470009 1.0144495 1.0400686 0.9995189 1.0135242
1.0110836 1.0667584 1.0013423 0.96258676 0.9769214 1.0270139 1.0248166 0.9641074
1.0032996 0.98885584 0.9714329 0.99813837 0.98727006 0.9545358 1.0157778 0.9614902
0.966959 0.9751084 1.0767424 1.0184608 1.0361995 0.9654812 1.0099477 1.0294373
0.966908 0.9557883 1.0222927 0.9750263 0.95088494 0.98941714 1.0404738 0.9885858
0.983209 0.99747616 1.019416 1.0304971 0.94978416 1.0148833 0.9834475 0.99423426
00000000: f13f 7e3f 7de7 813f 93a7 803f d06f 693f
00000010: 07e5 803f b93b 833f ca67 843f 9ef5 7c3f
00000020: 6de8 833f b743 813f 65db 813f 5bc9 7d3f
00000030: 2cb1 813f 66f3 7d3f d27d 7f3f 58cb 7e3f
00000040: 8ad6 7f3f a33a 8a3f 10c7 813f 42b2 7f3f
00000050: 33db 743f 7a4a 853f 95e2 763f 9d11 793f
00000060: 8bf6 733f cfcd 853f 9a4d 803f a4d1 7a3f
00000070: 43d6 813f e930 823f 274e 8a3f db9e 8b3f
00000080: 4973 7d3f 3b7e 793f f038 7e3f 1064 7e3f
00000090: 469e 7d3f 39aa 823f df60 793f dedb 823f
000000a0: 45b9 833f 5cf3 7b3f 6b95 793f 785b 8b3f
000000b0: 8986 863f d6e5 843f 37fd 773f afb0 823f
000000c0: 4485 7d3f c403 823f a2d1 7a3f 5119 813f
000000d0: f7e6 703f 7aef 813f d702 7a3f d143 703f
000000e0: 68c3 813f 2951 7f3f 418c 803f 1474 783f
000000f0: 9079 7a3f c41a 843f 3b7d 7d3f c472 7d3f
00000100: 0fff 7d3f c61a 773f 0a5c 7c3f 749b 803f
00000110: b279 753f 0f1e 7a3f 692c 803f b1dd 783f
00000120: 7803 833f dca9 873f bdc0 7d3f b507 843f
00000130: 548a 823f 57e1 7b3f fa32 6e3f 6c54 813f
00000140: e867 7d3f 86f4 7f3f 0c4f 7d3f 2004 863f
00000150: 7bd9 813f f820 853f 78e0 7f3f 29bb 813f
00000160: 306b 813f 8a8b 883f fc2b 803f 166c 763f
00000170: 8517 7a3f 3175 833f 312d 833f becf 763f
00000180: 1f6c 803f a825 7d3f d4af 783f ff85 7f3f
00000190: bbbd 7c3f 755c 743f 0205 823f 3924 763f
000001a0: a08a 773f b4a0 793f b2d2 893f ec5c 823f
000001b0: 2fa2 843f c729 773f f745 813f 9ac4 833f
000001c0: 4887 773f 8bae 743f 7dda 823f 539b 793f
000001d0: 326d 733f 714a 7d3f 3f2e 853f f613 7d3f
000001e0: 96b3 7b3f 995a 7f3f 397c 823f 54e7 833f
000001f0: 0e25 733f b2e7 813f 37c3 7b3f 2386 7e3f

ensemble_blocks.0.1.bias f4 [128]
-0.04943283 0.007900551 0.01931263 -0.010264229 -0.0023358567 0.01841223 -0.02586767 0.026331797
0.050405167 0.023756668 -0.008113121 -0.027412532 -0.025313333 -0.04542755 0.022712784 -0.0427986
0.026913216 0.042295687 -0.009313658 -0.0048422515 -0.04671102 0.008828757 -0.024409426 -0.03025084
-0.07752402 0.044586003 -0.0040288167 0.0014455563 0.027181782 -0.027321931 0.024927728 0.020441517
0.0016528999 -0.036086332 -0.028111652 0.0035021896 -0.038456198 -0.010123143 -0.00595348 0.013497579
0.0006948818 -0.010850065 -0.006277224 0.030483682 0.03155555 0.008722816 -0.004241437 0.031939276
0.0036516367 -0.030058755 0.010885608 0.015983084 0.012078133 -0.034803424 -0.07000752 -0.044577107
0.030298587 -0.049870808 -0.025085043 -0.019245468 -0.03641256 0.07098261 -0.011068261 -0.026061924
-0.035016302 -0.040023386 -0.03820235 -0.05510883 -0.012621087 -0.056524687 -0.019598575 -0.024721354
0.014140376 0.010008808 0.0319415 -0.043332614 0.015897982 -0.06266585 -0.0541787 -0.020921197
0.02251182 0.0023087426 0.0072940933 0.030041493 0.0010660846 -0.0071068765 0.05161265 0.026981128
0.018724889 0.039096557 -0.04823951 -0.04156276 -0.044839013 -0.022826161 0.0417303 -0.027271144
-0.03927597 -0.055351228 -0.0027370413 0.013429976 0.010743335 -0.055694826 -0.0018741878 -0.015501932
-0.019034412 -0.059270997 0.0073318374 -0.044211384 0.0055436725 0.030443173 -0.0010933324 0.009695093
-0.037876952 -0.052377444 -0.032524616 -0.06261104 -0.04013069 0.0010158343 -0.01620246 -0.07471916
-0.01591278 -0.0076712044 0.00012502573 0.008344686 -0.060337663 -0.008955404 -0.038710445 -0.00563492
00000000: 147a 4abd 5071 013c 8535 9e3c 4c2b 28bc
00000010: 2c15 19bb 3fd5 963c 70e8 d3bc c8b5 d73c
00000020: a675 4e3d 589d c23c e5ec 04bc 3f90 e0bc
00000030: e85d cfbc 3d12 3abd 2910 ba3c 964d 2fbd
00000040: 1b79 dc3c 3e3e 2d3d 5098 18bc c0ab 9ebb
00000050: 0e54 3fbd 7ea6 103c 47f6 c7bc 9cd0 f7bc
00000060: eac4 9ebd d09f 363d 2a04 84bb d278 bd3a
00000070: 54ac de3c 3ed2 dfbc 3c35 cc3c f874 a73c
00000080: 1ea6 d83a 43cf 13bd 684a e6bc fe84 653b
00000090: 3f84 1dbd 8adb 25bc 6915 c3bb f324 5d3c
000000a0: ba28 363a 79c4 31bc 2cb1 cdbb eab8 f93c
000000b0: 6440 013d 24ea 0e3c c1fb 8abb c2d2 023d
000000c0: 4c50 6f3b c73d f6bc 8d59 323c f5ee 823c
000000d0: 5de3 453c 098e 0ebd 1a60 8fbd 7c96 36bd
000000e0: be34 f83c 5545 4cbd 267f cdbc aca8 9dbc
000000f0: 5625 15bd 555f 913d a757 35bc d17f d5bc
00000100: 416d 0fbd 90ef 23bd 117a 1cbd ccb9 61bd
00000110: adc8 4ebc 6e86 67bd 318d a0bc 7084 cabc
00000120: 09ad 673c fcfb 233c 17d5 023d 8a7d 31bd
00000130: 7c3c 823c f456 80bd 7cea 5dbd ee62 abbc
00000140: b56a b83c 464e 173b 4a03 ef3b 9419 f63c
00000150: ddbb 8b3a cde0 e8bb c967 533d 8707 dd3c
00000160: f064 993c b623 203d cb96 45bd b63d 2abd
00000170: 1da9 37bd eefd babc 64ed 2a3d bc67 dfbc
00000180: d7df 20bd f8b7 62bd ef5f 33bb 6709 5c3c
00000190: d004 303c 4220 64bd 4fa7 f5ba d1fb 7dbc
000001a0: 0eee 9bbc 25c6 72bd e93f f03b ff16 35bd
000001b0: b2a7 b53b f663 f93c 264e 8fba 2bd8 1e3c
000001c0: dd24 1bbd bb89 56bd 8838 05bd 383a 80bd
000001d0: 1460 24bd be25 853a 05bb 84bc 5c06 99bd
000001e0: 855b 82bc ba5e fbbb 5719 0339 26b8 083c
000001f0: a024 77bd b0b9 12bc d88e 1ebd 23a5 b8bb

ensemble_blocks.0.1.running_mean f4 [128]
-0.108396545 -0.12397356 -0.001562663 0.015961144 0.09426853 0.033995543 -0.02135508 -0.1565061
-0.14614134 -0.09554784 -0.063759886 0.035346907 -0.1592232 0.011333305 0.08944292 0.04843783
0.016274571 -0.11195432 0.0059195883 0.08740078 0.1290283 0.14893463 -0.10418889 -0.058004044
0.020734265 0.10979304 -0.146967 0.041926432 0.09000949 -0.11741527 -0.08181592 0.1387089
0.011029627 -0.0557549 0.06308642 -0.04232886 -0.10188682 -0.0736138 0.1064145 -0.11365868
0.092679486 0.15443419 -0.06753209 -0.14532769 0.0443565 0.061981417 -0.10091413 0.11800079
-0.113034695 -0.1318574 -0.021793582 -0.06505527 -0.087022856 -0.06610452 0.0631132 -0.068733774
-0.109995976 -0.15763488 0.011750473 -0.0027372984 0.1195318 0.111200035 -0.083006255 -0.13521713
-0.06644203 0.057523467 -0.06695127 0.15100451 0.0053309193 0.11393294 0.106860235 -0.07688861
-0.13689809 0.059988596 -0.031637672 0.122977465 0.065028325 0.095669895 -0.07890223 -0.12188289
-0.107205 -0.11388218 0.10232176 -0.05257901 -0.05677484 -0.06255309 0.03635682 0.043130048
-0.05983447 -0.11721815 0.06870183 0.017158732 0.12226239 0.05634168 -0.14684682 -0.098164774
0.014808292 0.11386999 0.07978831 0.07889979 0.05884351 0.08935836 0.0664888 -0.06972995
0.0119258715 -0.004068585 0.049068257 0.040084425 0.14550576 0.019331792 -0.04182615 0.031991214
-0.1587171 -0.06023538 -0.09902578 0.12639417 0.14367302 -0.0557516 0.13009839 -0.006084088
-0.16225635 0.026692295 -0.11813925 0.036273237 0.009882717 0.009683411 0.10405752 -0.077348866
00000000: 02ff ddbd dae5 fdbd 45d2 ccba f2c0 823c
00000010: dc0f c13d e93e 0b3d d9f0 aebc 2343 20be
00000020: 13a6 15be 96ae c3bd 8b94 82bd ebc7 103d
00000030: 680b 23be 54af 393c da2d b73d bf66 463d
00000040: 4052 853c 4e48 e5bd 1bf9 c13b 2eff b23d
00000050: ff1f 043e 5282 183e fc60 d5bd a695 6dbd
00000060: e8da a93c 2cdb e03d 847e 16be 0dbb 2b3d
00000070: e556 b83d 6b77 f0bd 1b8f a7bd b509 0e3e
00000080: 9cb5 343c 405f 64bd 7433 813d 0761 2dbd
00000090: 09aa d0bd d5c2 96bd d8ef d93d e2c5 e8bd
000000a0: bece bd3d ff23 1e3e 444e 8abd c8d0 14be
000000b0: 29af 353d 3ae0 7d3d 11ac cebd 66aa f13d
000000c0: bc7e e7bd a005 07be 7488 b2bc b33b 85bd
000000d0: 0a39 b2bd ce61 87bd 7e41 813d 4bc4 8cbd
000000e0: 9245 e1bd 0a6b 21be 0e85 403c 3f64 33bb
000000f0: 17cd f43d d8bc e33d 2fff a9bd 5c76 0abe
00000100: c212 88bd ba9d 6b3d bf1d 89bd eda0 1a3e
00000110: feae ae3b ac55 e93d 8ad9 da3d c777 9dbd
00000120: 032f 0cbe 9ab6 753d 8196 01bd 9cdb fb3d
00000130: 922d 853d 94ee c33d 7e97 a1bd bd9d f9bd
00000140: 4c8e dbbd 0f3b e9bd 128e d13d 175d 57bd
00000150: bc8c 68bd d61b 80bd e4ea 143d 22a9 303d
00000160: fd14 75bd 1210 f0bd 8cb3 8c3d 7890 8c3c
00000170: b464 fa3d 89c6 663d 035f 16be 9d0a c9bd
00000180: 7a9e 723c ab34 e93d 0e68 a33d 3796 a13d
00000190: e405 713d 8401 b73d 482b 883d 93ce 8ebd
000001a0: bb64 433c c451 85bb ccfb 483d 912f 243d
000001b0: 76ff 143e b55d 9e3c e651 2bbd 3809 033d
000001c0: bc86 22be 60b9 76bd 07ce cabd 796d 013e
000001d0: 051f 133e ca5b 64bd 8338 053e 075d c7bb
000001e0: 8726 26be cda9 da3c fef2 f1bd 3f93 143d
000001f0: 1feb 213c 2ba7 1e3c 1c1c d53d 1569 9ebd

ensemble_blocks.0.1.running_var f4 [128]
0.38430628 0.40818733 0.27137873 0.55147797 0.24086817 0.3873644 0.23558705 0.30299804
0.23839603 0.22564012 0.22547066 0.296336 0.32817972 0.2976719 0.20624281 0.27047262
0.26105374 0.29234722 0.40122697 0.44731268 0.15878494 0.1137223 0.41139972 0.27020708
0.2555805 0.21678317 0.38629034 0.4086957 0.24835888 0.26411298 0.18629609 0.22670138
0.35046762 0.53587466 0.51120496 0.5659775 0.29880643 0.29588836 0.4364783 0.40123838
0.38764614 0.41171575 0.40761754 0.26690444 0.20131811 0.38866392 0.23575033 0.28037748
0.24938251 0.32436964 0.2228592 0.21779801 0.6300663 0.20026298 0.30685338 0.50319123
0.2300788 0.26921704 0.42861676 0.2551946 0.33087492 0.27372193 0.5448387 0.2557042
0.16973658 0.3047409 0.19923253 0.3437773 0.26867408 0.31437075 0.43588278 0.41468114
0.22645955 0.29301357 0.28783733 0.27968103 0.35843432 0.29702497 0.2727362 0.30165035
0.37253582 0.29114214 0.29870608 0.22281721 0.35757917 0.26087028 0.2101733 0.37538198
0.39848003 0.17687021 0.3580722 0.28395438 0.3759772 0.35019472 0.17294182 0.32046223
0.54965556 0.3768434 0.24788295 0.39705092 0.2324899 0.36358583 0.20313361 0.40133792
0.34676856 0.4629551 0.18826222 0.3597308 0.43254766 0.32589066 0.41947713 0.3956615
0.40406364 0.47539213 0.28772077 0.24470428 0.2502115 0.22679286 0.3320553 0.2551925
0.37064037 0.28024632 0.23406443 0.23719524 0.36512685 0.30399966 0.20849489 0.34658685
00000000: cbc3 c43e eefd d03e 27f2 8a3e a92d 0d3f
00000010: 25a6 763e a054 c63e bb3d 713e 8f22 9b3e
00000020: 171e 743e 340e 673e c8e1 663e 5ab9 973e
00000030: 2c07 a83e 7468 983e 5131 533e 637b 8a3e
00000040: d6a8 853e 89ae 953e 9f6d cd3e 2b06 e53e
00000050: 8598 223e 3de7 e83d fca2 d23e 9558 8a3e
00000060: 73db 823e 68fc 5d3e d9c7 c53e 9040 d13e
00000070: ca51 7e3e d139 873e 67c4 3e3e 6824 683e
00000080: 7e70 b33e 152f 093f 54de 023f e7e3 103f
00000090: 28fd 983e ae7e 973e 157a df3e 1e6f cd3e
000000a0: 8e79 c63e 68cc d23e 3fb3 d03e b3a7 883e
000000b0: 5626 4e3e f5fe c63e 8968 713e a38d 8f3e
000000c0: 215e 7f3e c713 a63e 3435 643e 7106 5f3e
000000d0: 064c 213f bd11 4d3e e31b 9d3e 24d1 003f
000000e0: c799 6b3e d1d6 893e a873 db3e dea8 823e
000000f0: 7068 a93e 4825 8c3e 8d7a 0b3f a9eb 823e
00000100: 6dcf 2d3e 0007 9c3e 9d03 4c3e 9403 b03e
00000110: a68f 893e 34f5 a03e 072c df3e 1651 d43e
00000120: 03e5 673e e005 963e 6a5f 933e 5a32 8f3e
00000130: b484 b73e a813 983e 14a4 8b3e ea71 9a3e
00000140: 04bd be3e 9510 953e 01f0 983e 322a 643e
00000150: 9e14 b73e ca90 853e ab37 573e 1132 c03e
00000160: 9305 cc3e 771d 353e 3d55 b73e 7862 913e
00000170: 1580 c03e b94c b33e a917 313e a013 a43e
00000180: 3ab6 0c3f 9ef1 c03e 07d5 7d3e 424a cb3e
00000190: d511 6e3e ec27 ba3e 4202 503e 2a7c cd3e
000001a0: a68b b13e 7308 ed3e d0c7 403e a32e b83e
000001b0: e376 dd3e 24db a63e b5c5 d63e 2594 ca3e
000001c0: 6ee1 ce3e 9966 f33e 2350 933e c293 7a3e
000001d0: b91b 803e 633c 683e 2703 aa3e 97a8 823e
000001e0: 93c4 bd3e 727c 8f3e 96ae 6f3e 4fe3 723e
000001f0: e8f1 ba3e d8a5 9b3e af7f 553e d573 b13e

ensemble_blocks.0.4.weight f4 [128, 128]
0.033271197 -0.030440621 0.03543597 -0.069738746 -0.013726283 -0.011364862 0.04787358 -0.054915164
0.049501657 0.059520084 0.1028774 -0.01380497 -0.007408799 -0.04119922 -0.030511815 -0.017865643
0.07667158 -0.064903334 0.07337709 0.10494471 -0.027873784 0.03329704 -0.06365967 0.05619407
-0.0202951 0.10417823 -0.025826368 -0.0055819983 0.045507308 0.09258431 -0.065294854 -0.1124897
-0.0680172 0.06413181 -0.022651115 0.10995967 -0.015926626 -0.0077425763 0.012755167 0.03206343
0.014316314 -0.062425047 -0.07123183 -0.10107124 -0.028836746 -0.022433376 -0.0057293987 -0.037320897
-0.0047108307 -0.09794465 0.042145036 -0.012117141 0.081069976 0.046928987 -0.013096299 -0.045487758
0.09041788 -0.07075675 -0.06415817 0.020523738 0.018130483 0.08967909 0.058828447 0.07998249
-0.05234281 -0.016646752 -0.017645566 0.07752862 -0.005736287 -0.031450976 0.008104803 0.042958017
0.09682754 -0.06807037 -0.024151672 0.021249903 0.03856519 0.0414567 -0.040235844 0.08820944
-0.05570495 0.056494057 0.0688316 -0.09200897 -0.015586058 -0.014860199 -0.057155043 -0.025374256
-0.024390848 -0.0073007075 -0.03365165 -0.06898452 0.019614123 -0.059576273 0.02110468 0.006313858
-0.036269326 0.06518748 0.09895928 -0.06494621 -0.019348703 0.05207909 -0.066460386 -0.03607563
0.024154788 -0.031740233 0.06675249 -0.0052878084 0.0076670875 -0.014273911 -0.014114522 -0.028857047
-0.03190909 0.06442413 -0.008874807 -0.043352358 0.021527939 0.020389099 0.006864378 -0.034986403
0.061075155 0.033740025 0.018771658 0.054142624 0.070859514 0.005695479 0.028310694 0.013671876
0.052054517 0.026706394 0.09169567 0.03225433 -0.028681275 -0.0044718958 0.075261354 -0.049607024
0.06630023 0.031864706 -0.029707696 -0.014841159 0.08708107 0.03022119 0.06823888 0.05491866
-0.01519312 -0.052921332 0.07742684 -0.0039340756 0.0042437324 -0.05382221 -0.043863256 0.020881878
-0.081419826 0.0084558325 0.056341708 0.028219111 -0.04810277 -0.0054120007 -0.075277545 -0.07994258
-0.08844151 0.0045888303 -0.065482564 -0.026861373 0.032567523 -0.025269901 0.023784487 -0.055402137
-0.006432779 0.09413943 0.013507218 0.03200715 -0.01031817 -0.02774713 0.051420316 -0.1135892
-0.0026850335 -0.044443414 -0.09549375 0.0026780823 -0.031169109 0.0740231 -0.11224387 0.039308306
-0.013328806 0.011946806 0.05474063 0.0773916 0.021254672 0.08194174 -0.062290728 -0.04467081
-0.025086233 0.03644507 0.07608106 -0.01689277 -0.00073431956 0.06935695 0.0512147 -0.09413714
0.03874785 -0.05916857 -0.00991896 -0.09325628 0.040747076 0.031767707 0.0564327 -0.058056
-0.04532478 7.665874e-05 0.066785656 -0.09514823 0.080071025 -0.06704242 0.049549144 0.024322089
-0.106859505 -0.06986287 -0.00899682 -0.052636106 -0.046474814 0.037091255 -0.0075330916 0.05639905
0.012616701 -0.038296297 0.061143965 0.03703113 0.010151301 -0.04414985 -0.07613148 -0.05417132
0.034498774 -0.011584933 -0.0522245 0.0005947953 -0.021937296 0.09625648 -0.039617702 0.03713677
-0.01817046 -0.044140276 0.02699302 0.06387313 0.030143011 -0.058232907 0.0008418176 -0.025124451
0.029215675 0.012242312 -0.05285358 -0.059089992 0.07285232 -0.09122883 0.060154784 0.05264233
00000000: 6147 083d 9c5e f9bc 4f25 113d 30d3 8ebd
00000010: 34e4 60bc b033 3abc 1617 443d b9ee 60bd
00000020: 40c2 4a3d 55cb 733d 63b1 d23d 3e2e 62bc
00000030: 83c5 f2bb 83c0 28bd eaf3 f9bc f85a 92bc
00000040: fd05 9d3d 0aec 84bd ba46 963d 41ed d63d
00000050: 9057 e4bc 7a62 083d 0060 82bd c12b 663d
00000060: e941 a6bc 655b d53d d291 d3bc 32e9 b6bb
00000070: df65 3a3d d89c bd3d 4fb9 85bd 0061 e6bd
00000080: 9a4c 8bbd 8a57 833d d58e b9bc 8932 e13d
00000090: 8e78 82bc 70b5 fdbb 0cfb 503c f154 033d
000000a0: f98e 6a3c 68b1 7fbd fee1 91bd 70fe cebd
000000b0: 0a3b ecbc 33c6 b7bc aebd bbbb ccdd 18bd
000000c0: 505d 9abb 3497 c8bd 46a0 2c3d f986 46bc
000000d0: 0408 a63d 9c38 403d dc91 56bc 5f51 3abd
000000e0: 022d b93d eae8 90bd 5c65 83bd 6621 a83c
000000f0: 6186 943c aca9 b73d 19f6 703d dccd a33d
00000100: 6a65 56bd c55e 88bc 6f8d 90bc 53c7 9e3d
00000110: 77f7 bbbb bdd2 00bd 02ca 043c bff4 2f3d
00000120: 844d c63d 7a68 8bbd bad9 c5bc 4714 ae3c
00000130: 88f6 1d3d 80ce 293d 57ce 24bd 27a7 b43d
00000140: e02a 64bd 5066 673d 95f7 8c3d 336f bcbd
00000150: aa5c 7fbc 3178 73bc 681b 6abd acdd cfbc
00000160: 51cf c7bc c63a efbb 50d6 09bd c247 8dbd
00000170: ccad a03c 4006 74bd b9e3 ac3c 7be4 ce3b
00000180: 258f 14bd 0381 853d 2aab ca3d 8502 85bd
00000190: 2c81 9ebc e250 553d 621c 88bd 0ac4 13bd
000001a0: 43e0 c53c 0c02 02bd 88b5 883d 5a45 adbb
000001b0: 313c fb3b 1fdd 69bc 9940 67bc 9d65 ecbc
000001c0: 1bb3 02bd ccf0 833d a367 11bc 3e92 31bd
000001d0: 5c5b b03c 0a07 a73c 94ee e03b e74d 0fbd
000001e0: f129 7a3d fb32 0a3d 05c7 993c a8c4 5d3d
000001f0: cb1e 913d 24a1 ba3b d4eb e73c 0100 603c
00000200: 1e37 553d 5ec7 da3c f0ca bb3d 1e1d 043d
00000210: fef4 eabc fb88 92bb a022 9a3d bc30 4bbd
00000220: 6ac8 873d 9184 023d 8e5d f3bc 5528 73bc
00000230: 8f57 b23d 6e92 f73c d3c0 8b3d 64f2 603d
00000240: 90ec 78bc 0ac4 58bd f791 9e3d 6be9 80bb
00000250: 020f 8b3b ad74 5cbd f5a9 33bd 7910 ab3c
00000260: 70bf a6bd 558a 0a3c 90c6 663d c42b e73c
00000270: 6907 45bd 2757 b1bb 1d2b 9abd efb8 a3bd
00000280: d320 b5bd e65d 963b b91b 86bd 620c dcbc
00000290: 8665 053d d302 cfbc afd7 c23c 5aed 62bd
000002a0: 10ca d2bb 2ccc c03d 614d 5d3c ee19 033d
000002b0: 8b0d 29bc f34d e3bc 1c9e 523d 74a1 e8bd
000002c0: 63f7 2fbb 4c0a 36bd 3a92 c3bd c482 2f3b
000002d0: 5c56 ffbc 6c99 973d 1de0 e5bd bf01 213d
000002e0: 1061 5abc 89bc 433c b637 603d 7d7f 9e3d
000002f0: 471e ae3c 12d1 a73d 9024 7fbd bdf8 36bd
00000300: a581 cdbc 6d47 153d 63d0 9b3d b562 8abc
00000310: 5a7f 40ba 040b 8e3d 81c6 513d f9ca c0bd
00000320: 11b6 1e3d be5a 72bd 2283 22bc 26fd bebd
00000330: 68e6 263d db1e 023d fa25 673d 21cc 6dbd
00000340: 7aa6 39bd d9c3 a038 ebc6 883d 13dd c2bd
00000350: 47fc a33d 894d 89bd 0bf4 4a3d 1e3f c73c
00000360: 28d9 dabd 4414 8fbd 6667 13bc f598 57bd
00000370: 605c 3ebd 00ed 173d 27d8 f6bb b102 673d
00000380: 48b6 4e3c 94dc 1cbd 1872 7a3d f4ad 173d
00000390: a451 263c 79d6 34bd d2ea 9bbd bfe2 5dbd
000003a0: 964e 0d3d bbce 3dbc 5be9 55bd 09ec 1b3a
000003b0: d8b5 b3bc 1e22 c53d 2c46 22bd ba1c 183d
000003c0: 37da 94bc 6fcc 34bd 7720 dd3c eacf 823d
000003d0: 7aee f63c a185 6ebd 6cad 5c3a cbd1 cdbc
000003e0: b655 ef3c fa93 483c ff7c 58bd 5908 72bd
000003f0: 9933 953d 2ed6 babd dd64 763d 7c9f 573d

ensemble_blocks.0.4.bias f4 [128]
-0.04622858 0.06680777 -0.06639706 -0.048955236 -0.0064905365 -0.041617364 -0.06982878 -0.022553816
-0.065176375 -0.037541468 -0.023677476 0.0886031 0.04679055 -0.0519477 0.07697781 0.08260486
-0.066401534 -0.011695473 -0.08365992 -0.035219345 -0.032672394 -0.08670557 -0.014481682 -0.03326754
0.07813032 -0.08645012 0.03040965 -0.068145365 0.011776933 -0.06251508 0.067140944 0.044153266
-0.0009033523 -0.06325668 -0.031206893 0.08017898 -0.056015212 0.064146124 0.02554462 -0.06531158
0.057611432 -0.040117476 -0.04916824 -0.08652621 0.05121818 0.046664473 0.0587898 -0.046150677
-0.03440879 -0.017125804 -0.013996938 -0.0048334757 0.018110482 0.06366057 0.08279798 0.080755815
0.0352438 0.017240679 -0.021720184 0.048047192 -0.017358582 0.06967544 -0.08730907 0.036153894
0.0062347846 0.053922106 0.07755013 -0.064706735 -0.08191694 -0.028840126 0.043438744 -0.008859108
0.07568179 -0.011621865 0.08249671 0.07077072 0.034364786 0.04077528 -0.084885165 0.017711397
-0.040682454 0.015735332 -0.029124962 -0.045672514 -0.014198483 0.017731259 0.029707875 0.05116602
0.07845246 0.03842862 0.03998609 0.007269668 -0.086901955 0.08075674 -0.08723577 -0.02061025
0.057470642 0.02341665 0.07774031 -0.06465489 0.0881345 -0.07114685 -0.06541753 -0.07265274
-0.038754646 0.075949125 -0.015420453 -0.0569891 -0.0077799056 0.079413004 -0.05695701 0.019263104
-0.0037235206 -0.01594026 0.017416801 0.036215663 -0.03732342 -0.0011148753 0.042297643 0.008440972
-0.00437639 -0.04597166 -0.025603687 -0.036775462 -0.05679609 -0.0541152 0.041362744 0.007685673
00000000: 2e5a 3dbd 83d2 883d 2ffb 87bd 4985 48bd
00000010: 91ae d4bb f876 2abd 6402 8fbd c8c2 b8bc
00000020: 317b 85bd 15c5 19bd 44f7 c1bc 8b75 b53d
00000030: 73a7 3f3d 1dc7 54bd 8ba6 9d3d bd2c a93d
00000040: 87fd 87bd 5f9e 3fbc e455 abbd 2942 10bd
00000050: 7dd3 05bd b192 b1bd 9444 6dbc 8b43 08bd
00000060: ca02 a03d c30c b1bd a91d f93c cc8f 8bbd
00000070: 0af4 403c e807 80bd 3181 893d 0eda 343d
00000080: f2ce 6cba b88c 81bd 99a5 ffbc e134 a43d
00000090: 3570 65bd 0b5f 833d f342 d13c 14c2 85bd
000000a0: f7f9 6b3d 3952 24bd a364 49bd a734 b1bd
000000b0: 28ca 513d 3f23 3f3d 93cd 703d 7e08 3dbd
000000c0: 3bf0 0cbd 6a4b 8cbc 6a53 65bc 2262 9ebb
000000d0: 6f5c 943c 7960 823d fd91 a93d 4e63 a53d
000000e0: ce5b 103d 533c 8d3c 87ee b1bc 22cd 443d
000000f0: 9633 8ebc ffb1 8e3d 19cf b2bd 1b16 143d
00000100: 2a4d cc3b 6ddd 5c3d 9ad2 9e3d f784 84bd
00000110: 12c4 a7bd 2142 ecbc d3ec 313d cb25 11bc
00000120: 0eff 9a3d a369 3ebc 09f4 a83d 3df0 903d
00000130: 17c2 0c3d fb03 273d 46d8 adbd 7e17 913c
00000140: a5a2 26bd 62e7 803c 7997 eebc 1a13 3bbd
00000150: c1a0 68bc 2541 913c ee5d f33c 7693 513d
00000160: afab a03d 5467 1d3d 74c8 233d 6536 ee3b
00000170: a7f9 b1bd ca63 a53d aba8 b2bd d4d6 a8bc
00000180: 5666 6b3d 46d4 bf3c 5036 9f3d c869 84bd
00000190: dc7f b43d 71b5 91bd a0f9 85bd f6ca 94bd
000001a0: 31bd 1ebd 378b 9b3d 11a6 7cbc 676d 69bd
000001b0: 94ee febb 49a3 a23d c14b 69bd a8cd 9d3c
000001c0: 4f06 74bb 2695 82bc aead 8e3c e056 143d
000001d0: 71e0 18bd 0221 92ba 4b40 2d3d 014c 0a3c
000001e0: d267 8fbb c84c 3cbd d3be d1bc dea1 16bd
000001f0: 04a3 68bd e6a7 5dbd fb6b 293d 19d8 fb3b

ensemble_blocks.0.5.weight f4 [128]
0.9768092 0.98117965 1.1353111 0.9780412 1.1115797 0.97668153 1.1208919 1.1008221
1.0820314 1.1176635 1.1367482 0.9768887 1.1035434 1.127529 1.0194336 1.1537414
1.1227655 0.97915065 1.0137537 1.1109817 0.97958827 1.142819 1.1095706 0.9748738
1.0985017 0.98445785 1.113827 1.1075994 1.0969334 1.1044052 1.0479908 1.0263678
1.0890399 1.0359275 1.1297146 1.0619467 0.97633505 1.0923108 0.9659545 1.1484352
1.104153 1.1130251 1.0638932 1.1863732 1.1046785 0.9996264 1.1215682 0.9966809
1.1459794 0.97214955 1.1276553 1.1135535 1.0928679 1.1010796 1.1134272 0.9733196
0.97385657 0.9733952 0.9740468 1.1917853 1.1119817 1.1090661 1.1205345 1.0920067
1.1427954 0.97380435 0.9850847 0.98278993 0.9772517 1.107352 0.9730764 1.1164134
1.1130219 0.9910946 0.99658626 1.164716 1.1713052 0.9699522 0.9892317 1.1143166
1.1003127 1.0976971 1.1463915 0.9720495 1.1008301 0.97383696 1.1745429 0.96687615
1.092772 0.9848142 0.9705551 1.1079749 1.1040962 0.9840045 1.088912 0.9849929
1.1054475 0.97030914 0.9787373 1.1084012 0.9822627 1.1194974 1.0943534 0.9759395
1.1092134 0.9782884 1.1105714 1.1123471 1.1074793 0.9740538 1.1697477 1.1084392
0.9679659 1.1065061 1.01431 1.1533986 1.1238683 1.1102953 1.1276414 1.0060003
1.0959307 1.2001613 1.095647 1.1616586 1.15024 1.0977612 0.978421 0.9753755
00000000: 2b10 7a3f 972e 7b3f e051 913f e860 7a3f
00000010: 3e48 8e3f cd07 7a3f 6379 8f3f bde7 8c3f
00000020: 0180 8a3f 990f 8f3f f780 913f 6115 7a3f
00000030: e940 8d3f df52 903f cd7c 823f ccad 933f
00000040: c8b6 8f3f 9ea9 7a3f aec2 813f a634 8e3f
00000050: 4cc6 7a3f e547 923f 6906 8e3f 5491 793f
00000060: b49b 8c3f 6e05 7c3f e291 8e3f d1c5 8d3f
00000070: 5068 8c3f 265d 8d3f 9024 863f 0560 833f
00000080: a965 8b3f 4699 843f 7d9a 903f dfed 873f
00000090: 18f1 793f d7d0 8b3f cb48 773f edff 923f
000000a0: e354 8d3f 9b77 8e3f a72d 883f 14db 973f
000000b0: 1b66 8d3f 84e7 7f3f 8c8f 8f3f 7b26 7f3f
000000c0: 74af 923f cbde 783f 0257 903f ec88 8e3f
000000d0: 18e3 8b3f 2df0 8c3f c884 8e3f 792b 793f
000000e0: aa4e 793f 6e30 793f 225b 793f 6c8c 983f
000000f0: 6b55 8e3f e1f5 8d3f ad6d 8f3f e0c6 8b3f
00000100: 1f47 923f 3e4b 793f 832e 7c3f 1f98 7b3f
00000110: 2b2d 7a3f b6bd 8d3f 891b 793f a2e6 8e3f
00000120: 8077 8e3f 60b8 7d3f 4720 7f3f 6a15 953f
00000130: 54ed 953f ca4e 783f 4a3e 7d3f eda1 8e3f
00000140: 0cd7 8c3f 5781 8c3f f5bc 923f 3cd8 783f
00000150: 00e8 8c3f 614d 793f 6c57 963f 3285 773f
00000160: f4df 8b3f c91c 7c3f 4d76 783f 1fd2 8d3f
00000170: 0653 8d3f b8e7 7b3f 7861 8b3f 7f28 7c3f
00000180: 4e7f 8d3f 2e66 783f 878e 7a3f 17e0 8d3f
00000190: 9175 7b3f b14b 8f3f c613 8c3f 2cd7 793f
000001a0: b4fa 8d3f 1c71 7a3f 3427 8e3f 6461 8e3f
000001b0: e2c1 8d3f 975b 793f 4bba 953f 56e1 8d3f
000001c0: 9dcc 773f fea1 8d3f e9d4 813f 91a2 933f
000001d0: ebda 8f3f 281e 8e3f 8e56 903f 9ec4 803f
000001e0: 7547 8c3f e39e 993f 293e 8c3f 3bb1 943f
000001f0: 103b 933f 7083 8c3f cc79 7a3f 35b2 793f

ensemble_blocks.0.5.bias f4 [128]
-0.028464943 -0.028381333 0.10396883 -0.03974309 0.086615466 -0.03385363 0.092727736 0.08381925
0.044598278 0.094995655 0.11130704 -0.024441207 0.08417738 0.08687854 -0.015531434 0.12069364
0.09685314 -0.035902724 -0.008261633 0.08554445 -0.034098968 0.10603385 0.08780226 -0.025327854
0.08703175 -0.03681262 0.08689533 0.083473764 0.05476985 0.07231531 0.027069233 -0.0009864963
0.08223959 0.023372611 0.08890133 0.03217955 -0.033463676 0.08314289 -0.035638787 0.110258326
0.0810143 0.09272845 0.04043968 0.13185585 0.07757511 -0.036192488 0.0827142 -0.019807305
0.1101513 -0.03098186 0.10825528 0.08818052 0.07857692 0.08556734 0.0842606 -0.041561414
-0.030835725 -0.0371363 -0.036839712 0.12952808 0.08734764 0.075191654 0.08667799 0.07477367
0.10627314 -0.029436365 -0.03044515 -0.024402674 -0.035603773 0.091079906 -0.03561029 0.09326123
0.08339867 -0.011679961 -0.028797632 0.12438896 0.1334253 -0.040422507 -0.023356568 0.078871466
0.08624232 0.06840452 0.10917032 -0.03726129 0.08289342 -0.037351996 0.13340697 -0.03355564
0.074347675 -0.042795964 -0.03373916 0.08263037 0.081837386 -0.028303403 0.077544205 -0.019833244
0.08857008 -0.03551838 -0.0336381 0.09117286 -0.026708657 0.093976215 0.07881048 -0.04104693
0.07430011 -0.034280617 0.087281734 0.09910664 0.07859624 -0.03764112 0.14927198 0.08323886
-0.03270261 0.087896675 -0.020897746 0.122891404 0.10368564 0.083348736 0.10714457 -0.01036122
0.07960217 0.15000519 0.07902202 0.12430235 0.10835844 0.073809095 -0.0369774 -0.033396214
00000000: 502f e9bc f87f e8bc 9ced d43d a6c9 22bd
00000010: 7363 b13d 1baa 0abd 0ae8 bd3d 6da9 ab3d
00000020: afac 363d 158d c23d f2f4 e33d ed38 c8bc
00000030: 3165 ac3d 60ed b13d 8e77 7ebc 3a2e f73d
00000040: f05a c63d bc0e 13bd cd5b 07bc ee31 af3d
00000050: 5cab 0bbd 4628 d93d acd1 b33d 5c7c cfbc
00000060: b43d b23d d4c8 16bd 2ef6 b13d 4bf4 aa3d
00000070: 5a56 603d 0d1a 943d 4cc0 dd3c 534d 81ba
00000080: 3b6d a83d eb77 bf3c e711 b63d b4ce 033d
00000090: 3511 09bd d246 aa3d faf9 11bd 1ecf e13d
000000a0: d3ea a53d 6ae8 bd3d 14a4 253d 3805 073e
000000b0: b3df 9e3d 933e 14bd 1066 a93d ee42 a2bc
000000c0: 0197 e13d abcd fdbc f2b4 dd3d fd97 b43d
000000d0: f0ec a03d ee3d af3d d290 ac3d 4d3c 2abd
000000e0: 349b fcbc 3c1c 18bd 3de5 16bd 02a3 043e
000000f0: 52e3 b23d 15fe 993d 3b84 b13d f022 993d
00000100: bba5 d93d 8824 f1bc 1b68 f9bc 1ee8 c7bc
00000110: 43d5 11bd 1a88 ba3d 18dc 11bd beff be3d
00000120: eccc aa3d 4f5d 3fbc 03e9 ebbc a4bf fe3d
00000130: a4a0 083e 1292 25bd 4656 bfbc 5d87 a13d
00000140: d09f b03d ab17 8c3d b094 df3d 4b9f 18bd
00000150: 06c4 a93d 68fe 18bd d69b 083e a471 09bd
00000160: 9843 983d d24a 2fbd 1332 0abd 1d3a a93d
00000170: 5c9a a73d 8adc e7bc 7fcf 9e3d 5479 a2bc
00000180: 3b64 b53d b97b 11bd 1bc8 09bd d6b8 ba3d
00000190: 1dcc dabc 9a76 c03d 6467 a13d d320 28bd
000001a0: a82a 983d d569 0cbd c4c0 b23d 6cf8 ca3d
000001b0: 11f7 a03d 932d 1abd c1da 183e 2379 aa3d
000001c0: 2cf3 05bd 2c03 b43d c031 abbc 7dae fb3d
000001d0: 2359 d43d beb2 aa3d 9d6e db3d 1bc2 29bc
000001e0: 7606 a33d f69a 193e 4cd6 a13d 3b92 fe3d
000001f0: 08eb dd3d 3929 973d 9d75 17bd 78ca 08bd

ensemble_blocks.0.5.running_mean f4 [128]
0.08542424 0.026462289 -0.08625122 0.0036203093 -0.14993873 -0.041181114 0.20649797 -0.123167574
0.13148554 0.017347034 0.02137137 0.25575283 -0.04639297 0.1609041 -0.42322534 0.28071183
0.10450621 0.08306145 -0.32455185 -0.1815356 0.07897953 -0.25824377 -0.05113779 -0.002371568
-0.03329201 -0.011347756 -0.029182153 -0.048589207 0.06838477 -0.118404314 -0.015409122 -0.020954955
-0.09230378 -0.10269679 0.026510043 0.0766855 0.07540685 0.09726559 0.4924353 0.1865419
-0.1191305 0.07037991 -0.1350718 0.034655396 0.049222615 0.17023431 0.2581103 0.0069394107
-0.31725407 0.09003432 -0.07926938 0.052963085 -0.07140406 0.10358143 -0.020252936 0.021718845
0.41934887 0.050334867 0.25168508 0.30639452 0.10413669 0.06376921 -0.12082696 0.18655196
-0.060656674 -0.03177754 0.16942172 -0.26592615 0.1407749 -0.08562748 -0.055014208 0.02892435
0.13868447 -0.23391755 0.3855422 -0.028667489 0.023499414 -0.030720271 -0.26502442 0.2649214
-0.21319926 0.027081659 -0.04395824 0.25253233 -0.18356438 -0.019568786 0.09544708 0.2836515
0.049186002 -0.07092618 -0.08789675 -0.00186127 -0.1334167 0.13930914 -0.22554354 -0.052062355
-0.13376884 -0.057317168 0.17896797 0.18887967 0.30465367 -0.30010724 -0.12061649 -0.16804904
0.07384767 0.027396176 -0.4145601 -0.0970651 -0.20450678 0.09881473 0.23024444 -0.038147744
0.11966879 0.058463514 -0.14631939 0.18558124 -0.16425952 0.11169131 -0.10286432 -0.0243807
-0.06751586 0.1745871 -0.30602205 0.04154239 -0.06411835 0.106140114 0.16797306 0.068766
00000000: e7f2 ae3d 71c7 d83c 7ba4 b0bd b642 6d3b
00000010: 8a89 19be 87ad 28bd 3474 533e 483f fcbd
00000020: 25a4 063e 5e1b 8e3c 0313 af3c 09f2 823e
00000030: 8e06 3ebd 0bc4 243e feb0 d8be 76b9 8f3e
00000040: 5a07 d63d 1f1c aa3d a92b a6be 78e4 39be
00000050: 05c0 a13d 8738 84be dc75 51bd 4f6c 1bbb
00000060: 345d 08bd f0eb 39bc 690f efbc 7a05 47bd
00000070: 500d 8c3d f67d f2bd 8b76 7cbc baa9 abbc
00000080: c409 bdbd b252 d2bd 972b d93c 4a0d 9d3d
00000090: e86e 9a3d 2f33 c73d 7b20 fc3e d704 3f3e
000000a0: b1fa f3bd 5823 903d 4350 0abe d1f2 0d3d
000000b0: a79d 493d e751 2e3e 0927 843e ff63 e33b
000000c0: 206f a2be ea63 b83d fc57 a2bd d2ef 583d
000000d0: 4b3c 92bd 8022 d43d 7ce9 a5bc b8eb b13c
000000e0: e5b4 d63e ef2b 4e3d dedc 803e bedf 9c3e
000000f0: 9e45 d53d 6e99 823d 2074 f7bd 7a07 3f3e
00000100: 2273 78bd 2a29 02bd e37c 2d3e 7927 88be
00000110: 4c27 103e 765d afbd 9456 61bd c2f2 ec3c
00000120: 4d03 0e3e 1588 6fbe ca65 c53e 15d8 eabc
00000130: d881 c03c 14a9 fbbc 48b1 87be c7a3 873e
00000140: e850 5abe 5bda dd3c 8e0d 34bd eb4b 813e
00000150: 4df8 3bbe b84e a0bc c279 c33d c53a 913e
00000160: 4377 493d bf41 91bd 3603 b4bd dcf5 f3ba
00000170: 639e 08be 0ea7 0e3e e3f4 66be 563f 55bd
00000180: b3fa 08be 68c5 6abd 6143 373e ac69 413e
00000190: 91fb 9b3e a8a7 99be c705 f7bd 0c15 2cbe
000001a0: 723d 973d f26d e03c 3941 d4be 11ca c6bd
000001b0: 3a6a 51be 615f ca3d 33c5 6b3e cf40 1cbd
000001c0: e914 f53d 7077 6f3d c0d4 15be 0209 3e3e
000001d0: a633 28be 6abe e43d 87aa d2bd 09ba c7bc
000001e0: c145 8abd f6c6 323e ecae 9cbe 5a28 2a3d
000001f0: 7b50 83bd fd5f d93d 2101 2c3e 30d5 8c3d
